checkpoints/yahtzee_combined_loss_test_pretrain/best_model.pt (torch, 766005 bytes, 19 tensors)

shared.0.weight f4 [512, 23]
00000000: 3d47 183c dba7 d63c 7377 8ebd f144 dfbd
00000010: 8645 48be c4ef 05be 77d0 0dbc 615e dbbc
00000020: fbd5 08be 53b0 ab3d 7090 0c3d 13a7 133d
00000030: 70d4 3dbe f34f 61bd f58a 393e ed18 86bd
00000040: a1ed b93d 7dcd 0bbd 13f5 15be 008d 333e
00000050: 9cdc 413e af65 4c3d 938e 993c 3bf6 52be
00000060: 1aa5 253e 7597 1bbe bf01 b1bd 0e7c 5dbd
00000070: 43db fc3c dce5 06be f4c9 a4bc 4513 8f3c
00000080: 3b86 883d d1e9 d8bd 93af 853d 8f60 3d3e
00000090: 5152 b93d 0e97 573d 3085 33be 3fd2 adbd
000000a0: f633 08be 90aa 193e 8aae cd3c ed57 383e
000000b0: dfc6 4abc f1c5 a6bd 58a5 5d3d ac1c ddbd
000000c0: c849 c93d 0005 e4bd c916 f63d ba95 47be
000000d0: 4b33 50be 03ca 3c3d 0c4b 6a3d 7a4b e7bd
000000e0: f458 49be a5a4 a33d 4f00 913c 3354 1dbd
000000f0: 2d31 3abe ba9c 8d3d f9b3 f23d 4d22 283d
00000100: 25c4 5c3d 1b75 d63d 2587 38be 6e19 34be
00000110: 646a 0d3c bf95 3bbe 8053 09bd 42cd 473e
00000120: 3bc5 0dbd 5695 2cbe 7f7a 7bbd 5218 f2bd
00000130: d996 dbbd 225b e13c 4b58 22be 6f8f e3bc
00000140: ac3c efbc 1e1d cfbd ffb3 26bd 83fa b6bd
00000150: e5d5 d33d 2786 19be 711d de3d da9c be3d
00000160: 56de 273e 12b3 393e 4cc9 69ba 8862 ac3d
00000170: baf7 6a3d c1cc 493d 8ada 93bd 7b76 3e3c
00000180: e743 b23d 91d8 123e a5b5 37be 36fa 07bd
00000190: 428d 473e 5c5e 123d 5602 463e 67ca c9bd
000001a0: 4e96 e7bd 1b48 ac3d 707a f5bd 75f6 133d
000001b0: d17a cabd 6d88 0f3e a8eb f13d 3c88 213e
000001c0: 954a 0a3e d62b 8fbc 3d5a 34be c954 013e
000001d0: 2ee8 b2bc 0caa 42be a3fb e1bc 34ec 433c
000001e0: 878a 0bbe 00d7 b3bd 3301 103e 2a84 4cbe
000001f0: d373 e4bd fbd2 b83c cc3c a0bd 932e f1bd
00000200: d49c e3bd c7bf 54bd a8df 4c3e 8d7b 1abe
00000210: b30b 153d 0ac0 053d 5b5d 11be d402 53bd
00000220: 3b99 cd3d 27b5 5ebd 254d 513e 4f37 963c
00000230: 9e60 923c 23ff 09be 7a85 63bd ea1d 04bb
00000240: 7612 103e 6d5a 0cbd 48c8 33bd 0572 41be
00000250: 2e58 373e 9905 f8bc 0ca7 fdbc 29e9 003d
00000260: 0293 47be 71cc 44bc 61d2 f0bd 0d80 653d
00000270: c237 45be 75e7 253d 234c fdbd 40a3 f53a
00000280: 2aad 58bd be53 19be b0ff 32ba 5be0 1f3e
00000290: b35f e43d 45ee f23d cb06 19be e499 90bd
000002a0: ffa4 2abe 6a8d f43d a47f 283e 1d39 2fbc
000002b0: b267 9fbd 6fde bfbd 3110 5ebd 3957 a63c
000002c0: 4dfe e0bd 3075 a9bd 7695 abbd ca88 bbbc
000002d0: 6d7d bdbd 505b 493d baf8 4ebd 018c b6bd
000002e0: de4d d3bd 8c8e 553e 747c 21be 2bfe e33b
000002f0: b7de 4e3e 7fe9 e53d e89e 28bd 1b74 353e
00000300: 08e1 4abe ce27 213e 4ec8 2bbe af73 b23d
00000310: e94e 26be 23bb e8bd 709f b33c 9e12 0abe
00000320: 7ca3 d0bd 32d7 ca3d f4ab 45be 9fc0 1a3c
00000330: c6d7 0fbd ead4 e0bc 23de 37be 96e7 493d
00000340: 8d0e 023d 2f3c f9bd 7171 c33d 348a 483e
00000350: ac2f 683d d612 0bbd f22e b13d eb13 363e
00000360: c13a d63d 02fd 23be bd55 50be 130f e8bc
00000370: af8c 063b dc42 833d 3810 6fbd 5094 873a
00000380: 6813 7f3d 3df6 423e 605a 283e 131d e6bd
00000390: 7e82 2ebe 7f42 9d3d 359a 54bd ac4a cc3a
000003a0: e39d 2c3e 3215 31be eb79 00be 79a8 3c3e
000003b0: 8b1e 38be e228 2a3d a017 0a3e c4ac 0cbe
000003c0: 63b2 c6bd e06c 013e 3fb4 40be 582b 48bd
000003d0: e723 fa3d d06f 223e ca92 393e 202d c9b8
000003e0: 5105 1fbd 9d45 31bd 500e 943a 794d d2bc
000003f0: c5ed 9ebc 327b 05be bee5 163d c627 963c
0.009294328 0.026203087 -0.06956377 -0.109018214 -0.19557771 -0.13079745 -0.008655659 -0.026778402
-0.13362877 0.083832406 0.034317434 0.036048006 -0.1853807 -0.055007886 0.18119414 -0.06547723
0.09078527 -0.034131516 -0.1464427 0.17534256 0.18931812 0.04990166 0.018744742 -0.20601742
0.16176262 -0.15194495 -0.08642911 -0.054073386 0.03086627 -0.13173622 -0.02011583 0.017465243
0.066662274 -0.10591472 0.06527629 0.18493865 0.09048904 0.05263429 -0.17531276 -0.08487367
-0.13301072 0.1500647 0.02510764 0.18002291 -0.012376516 -0.08143223 0.054112762 -0.10796484
0.09828526 -0.11133766 0.12016065 -0.1949071 -0.20332067 0.04609109 0.057200477 -0.11293693
-0.19662839 0.07990388 0.017700342 -0.038410377 -0.18182822 0.06914659 0.11850733 0.041048337
0.053897996 0.10471555 -0.18020304 -0.17587826 0.0086313225 -0.18318842 -0.033526897 0.19511893
-0.03461192 -0.16853842 -0.06139612 -0.11821045 -0.10722131 0.027509276 -0.15853994 -0.027778355
-0.029203735 -0.101129755 -0.040699 -0.089345 0.103435315 -0.14992581 0.10845459 0.09307261
0.16393408 0.18134716 -0.000891824 0.08417231 0.057365157 0.049267534 -0.072194174 0.011624928
0.087043576 0.14340426 -0.17940386 -0.033197604 0.1948748 0.03573452 0.19336829 -0.09853058
-0.11307965 0.084121905 -0.11986244 0.03612371 -0.098867066 0.14016886 0.11812526 0.15774626
0.13505013 -0.017476957 -0.17612548 0.12629999 -0.021839228 -0.1901018 -0.02758581 0.011958171
-0.13627063 -0.08781242 0.14062957 -0.19972292 -0.11154904 0.02256154 -0.07824096 -0.117764615
-0.11113897 -0.051940706 0.20007193 -0.15086193 0.03638811 0.032653846 -0.14195769 -0.05151637
0.10038992 -0.05437198 0.20439585 0.01833692 0.017868336 -0.13476233 -0.055547215 -0.0020159432
0.14069542 -0.034265924 -0.043892175 -0.18891151 0.17904732 -0.030276107 -0.030963443 0.03147236
-0.19489673 -0.012011633 -0.117588766 0.056030322 -0.19259551 0.040503938 -0.123680376 0.0018740669
-0.052899517 -0.14973351 -0.00068282615 0.15612929 0.11151066 0.118618526 -0.14943998 -0.07060602
-0.16664504 0.11941035 0.16454941 -0.010694769 -0.0778345 -0.09368598 -0.05421466 0.020305263
-0.10986004 -0.08274305 -0.08378117 -0.022892375 -0.09252439 0.049159348 -0.050530173 -0.089134224
-0.10317586 0.20855159 -0.15770131 0.0069577894 0.20202146 0.112261765 -0.04116717 0.17720072
-0.19812405 0.1573784 -0.16775629 0.08713471 -0.1624104 -0.113638185 0.021926612 -0.13483664
-0.10187432 0.099043265 -0.19303876 0.0094453385 -0.035117887 -0.027445275 -0.17955832 0.049293123
0.031752158 -0.12169682 0.095431216 0.1958397 0.05668609 -0.03395351 0.08651532 0.17781036
0.10460425 -0.16014484 -0.20345207 -0.0283275 0.0020530631 0.06409237 -0.058365077 0.0010343883
0.062274367 0.19039245 0.16440725 -0.11236014 -0.17041966 0.07678699 -0.051904876 0.0015586219
0.16857104 -0.17293242 -0.12546508 0.18423642 -0.17980401 0.041542895 0.13485575 -0.1373778
-0.09701993 0.12639189 -0.18818758 -0.04886946 0.12213879 0.15862966 0.18122402 -9.592832e-05
-0.03882343 -0.04327928 0.0011295769 -0.025671707 -0.019400487 -0.13035277 0.036840193 0.018329512

shared.0.bias f4 [512]
00000000: 183e bb3c 16b1 d9bd 20d3 403e e77e 43be
00000010: 3731 213e eb62 473e dce5 713c 2d02 3fbe
00000020: 7a9c 5ebd f7ee a7bb a789 dfbc bfcf 82bd
00000030: 45b7 c2bd f9d8 263e 5efb 11bd ca5e 1dbc
00000040: ac8c 4dbd 0ad6 363e b7db 0cbd 9a5d af3b
00000050: 8a38 423d 9498 07be d753 e8bd f2fa 33be
00000060: 4a96 4abe 88d1 97bc 479c 223e 87ca 4d3e
00000070: 2596 4f3e a16b 5cbb 6f3e 21be b166 3dbe
00000080: 773b 4f3e 8266 083e d408 033e b5d1 8bbd
00000090: fe84 78bd d895 18bd bf9c 8cbd 2920 e0bd
000000a0: 76fa 2ebe 47be cb3d 7124 e3bd 49ba 1ebe
000000b0: 5e94 d3bc 795f 1dbe be7e 163c 21d2 e33d
000000c0: b219 24be 760a 1c3e 449b 35be 05d3 2fbe
000000d0: 48da 453e ee05 e03d 3643 4e3d a964 0fbe
000000e0: b76b 3b3d bfb3 23be 3a84 2e3c 6267 2ebd
000000f0: 4b24 02bd 3c9b 3f3e 8a44 afbd 53a8 0fbe
00000100: e27f 5a3d feb6 353e 8e4c 1fbd 32d6 43be
00000110: f954 adbd d485 863d f910 2bbe f119 443e
00000120: f10d 05be b033 513e e21c 253c 66d3 e53c
00000130: 8833 afbd 99b0 8fbd 3f86 713d f118 d5bc
00000140: c590 223e 82fc 333e e79e 1b3e d8e0 e6bd
00000150: 551d 2d3e 3173 1d3e 5fbc 2abe 8c2c cd3d
00000160: 2224 d0bd 2c12 2e3c ef77 6bbd 160f 25be
00000170: 23bf 41be ddcd 443e 95a9 3f3e 9a1d 243e
00000180: 7317 233e 1590 bd3c 15f2 003e 3983 0f3e
00000190: cf3c 47be c6af 543e 9c78 10be 855d c73d
000001a0: 3d4e 423e 6ccc c1bd d889 6fbd 77a3 e1bd
000001b0: 4e52 e2bd 7a7e 263e b731 75bd 52ec 033d
000001c0: 690f ad3c 3a7c 4d3e 717f 24be 3bb0 49be
000001d0: 20ac 3d3d 762b 35bd ca87 563d 4740 023e
000001e0: 0671 253e 123e 3e3e a353 4bbe cf1f abbd
000001f0: 83ee bebd 0f1e d4bd 7bcd 4f3d 5f92 923d
00000200: f1e1 9a3d 4424 3abe dacf c3ba a53d 38bd
00000210: 04bd 21be aee5 f9bd 8a7e 163b 2f24 4bbe
00000220: 1387 c7bd 8041 1ebd f34d 053e e810 503e
00000230: 404c e93d d3d9 46be b9d7 bfbd eaa9 16be
00000240: e6cf 423e 3c01 1dbe aa31 b0bc 70bd f23d
00000250: 346b 8cbb 02d4 213e c586 083c 409e fcbd
00000260: df1c 2c3e a854 1ebd ab16 ed3d 29de 3abe
00000270: e174 acbd ee56 a0bd fe74 03be 1cb5 4abe
00000280: d466 3d3d 485c 193e 3fb0 a03c f0ed a1bd
00000290: ef7a ac3d 87ab 173e e9de dd3b 8cf3 d8bd
000002a0: f6d2 1dbe 659b 05be d159 9cbd 46df f0bd
000002b0: 1a83 92bd 6c82 8f3d fa6a 17bd cc36 ec3d
000002c0: e134 b5bc ff6e a0bb 56a2 43be 0161 f7bd
000002d0: 84d5 bebc 044c 233e 303f 72bd 0095 023e
000002e0: 1618 c53d 6da3 47bd 3542 183d 1388 12be
000002f0: c7a0 893c 48d9 963b f34c 233e f59c cf3d
00000300: 9619 1f3d 75f8 193e 69e3 b5bd e1e4 cebc
00000310: c8c5 9abd d20f 20be 8333 033c 3a8d 01bc
00000320: 1847 343e 37f1 203d bf00 573e aee6 e3bd
00000330: 1914 1c3d 4cfb 8b3d 843a aabc db51 2a3e
00000340: d4c5 123e 0903 34be 2d6e c0bd de7a c6bd
00000350: 3977 373e 6c59 3b3e ee40 10be 88aa 013d
00000360: 195c 353e 6661 993d e231 e93b f6b7 1abd
00000370: cd94 343e 2b46 05be 92dc bcbd ae67 553e
00000380: 1a51 65bd d8fc 173d 1c77 463e c149 a2bc
00000390: 317a a23d 0b5c 493e abd5 98bc c24e 2c3e
000003a0: 9f55 08be b36f 4dbd e73c 2c3e cc30 fdbd
000003b0: 5bfb 423e 2205 e8bc 7e52 173d 524f 013d
000003c0: 4612 1e3e 9090 973d c860 1abd 96e7 bd3d
000003d0: 6095 dabd 2c7d a53d 41ac 25be fdf1 e1bd
000003e0: e0ca 403e 87b6 e93d f02d 6eb8 2f44 913d
000003f0: 8df8 243e cc4a 58be 716a 553c 87f1 8ebd
0.022856757 -0.106294796 0.18830538 -0.19091378 0.1574143 0.19471328 0.014764275 -0.18653174
-0.054348446 -0.0051249224 -0.027287317 -0.06387281 -0.09507612 0.16293706 -0.035640113 -0.009605119
-0.050182983 0.17855087 -0.034389224 0.0053517343 0.0474172 -0.13241798 -0.11344116 -0.17576197
-0.19783893 -0.01853253 0.15879928 0.2009679 0.2027212 -0.0033633488 -0.15746473 -0.18496205
0.20237528 0.13320354 0.12796336 -0.06827108 -0.060673706 -0.037252277 -0.068658344 -0.10943634
-0.17087731 0.09948402 -0.11090935 -0.1550075 -0.025827583 -0.15368451 0.009185491 0.11124063
-0.16025427 0.15238366 -0.1773501 -0.17170341 0.19321549 0.10938631 0.050357066 -0.14003243
0.04575702 -0.15986536 0.010651642 -0.042579062 -0.031772893 0.18711561 -0.08557995 -0.14029054
0.053344615 0.17745587 -0.038891368 -0.19124678 -0.08463473 0.065684944 -0.16705693 0.19150521
-0.129936 0.20429873 0.010077687 0.028054904 -0.08554751 -0.07016105 0.058965918 -0.02601287
0.15875538 0.17576793 0.15197335 -0.11273354 0.1690572 0.15375973 -0.1667342 0.10018262
-0.10163142 0.01062445 -0.057487424 -0.16119036 -0.18920569 0.19219156 0.18717034 0.16026917
0.15926914 0.023139993 0.12592347 0.14014901 -0.1945679 0.20770177 -0.14108509 0.09734634
0.18975158 -0.094628185 -0.058481067 -0.110175066 -0.110508546 0.16259184 -0.059861865 0.032207794
0.021125512 0.2006692 -0.1606424 -0.19696133 0.04630673 -0.0442309 0.052375592 0.12719832
0.16156396 0.18578365 -0.19856124 -0.083556764 -0.09322836 -0.10357296 0.05073307 0.07156824
0.07562626 -0.18177897 -0.0014939264 -0.044980664 -0.1579476 -0.12202011 0.0022963607 -0.19838022
-0.0974256 -0.038636684 0.13018017 0.20318949 0.11391497 -0.19419031 -0.09367318 -0.14713255
0.1902462 -0.15332502 -0.021508057 0.118525386 -0.0042852405 0.15803531 0.008332913 -0.12334871
0.16807888 -0.038654953 0.11576589 -0.1824881 -0.084207304 -0.078290805 -0.12837598 -0.1979565
0.046240643 0.14976609 0.01961529 -0.07906711 0.08421885 0.14811526 0.0067709577 -0.10593328
-0.15412506 -0.1304756 -0.076343186 -0.11761336 -0.07153912 0.07007298 -0.036967255 0.11533889
-0.022119941 -0.0048960443 -0.19104895 -0.12079049 -0.023295172 0.15946966 -0.05914229 0.12752151
0.09623735 -0.04873984 0.037172515 -0.1430972 0.016800297 0.0046035387 0.15947323 0.10137359
0.03884276 0.15036185 -0.08881266 -0.025255622 -0.07557255 -0.15631035 0.008007887 -0.007907206
0.17605245 0.03929254 0.20996378 -0.11127983 0.038105104 0.068350405 -0.020779856 0.16632788
0.14333278 -0.17579283 -0.09396014 -0.09691404 0.17916574 0.1829583 -0.14087269 0.031656772
0.17710914 0.074892804 0.007116542 -0.037773095 0.17634888 -0.13015048 -0.09221758 0.20840332
-0.055985548 0.037106365 0.19381374 -0.01981056 0.079334624 0.19664018 -0.018656572 0.16826919
-0.13313912 -0.050155353 0.16820107 -0.12362823 0.19041197 -0.02832276 0.036943905 0.031569786
0.15436658 0.0740062 -0.037689954 0.09272687 -0.10673022 0.08080515 -0.16178991 -0.11032484
0.1882739 0.114117675 -5.6786404e-05 0.07093083 0.1611044 -0.21122283 0.013025866 -0.069796614

shared.1.weight f4 [512]
00000000: b6a5 7d3f 0e0a 7f3f 2c1a 803f 34b2 7e3f
00000010: e8c0 7e3f 4542 7f3f 8bff 7e3f 4eea 7d3f
00000020: 2bf6 7d3f 8bf7 7f3f 03a7 7f3f 963f 803f
00000030: ef4c 7e3f 3f70 7f3f cecf 7e3f 948b 7f3f
00000040: d760 803f e636 7f3f 5d33 7e3f 0d6f 7e3f
00000050: ef5d 7e3f 73d9 7f3f 4b5d 7f3f 35ae 7e3f
00000060: 860e 803f 6fd1 7f3f dbef 7f3f 402f 7e3f
00000070: 4aa5 7e3f d351 7f3f 1a97 7e3f 3ba1 7f3f
00000080: 74cb 7e3f 66cd 803f d02e 803f b915 803f
00000090: 0829 7e3f ff11 7f3f d2c3 803f 8c45 7e3f
000000a0: 1562 7e3f 496e 7f3f 2372 803f f6b2 7e3f
000000b0: cf22 7f3f b251 803f b43e 803f a366 7e3f
000000c0: a421 803f dd1a 803f 8643 7f3f 397f 7d3f
000000d0: 6399 7f3f d023 7f3f ca9a 803f ab12 813f
000000e0: 9c05 7f3f 8fe1 7e3f df87 7e3f 22b7 7e3f
000000f0: f6be 7e3f af1b 803f 6486 7d3f c55f 803f
00000100: d56a 803f 20bd 7f3f b178 803f d20a 813f
00000110: 4720 803f 1ae6 803f 3c43 7f3f 035d 7f3f
00000120: 89d6 7d3f 145c 7f3f 5827 7e3f 151b 7e3f
00000130: 72a0 7e3f ec70 7d3f dfe5 803f d55d 803f
00000140: ba90 7e3f 3e23 7f3f 81e7 7f3f 3ee5 7d3f
00000150: 0047 7e3f 9c76 7d3f ec70 7d3f 5e44 7e3f
00000160: 4dcc 7e3f ebf8 7e3f a614 803f 8a2d 7f3f
00000170: 10c3 7e3f 5237 7f3f 8cf4 7f3f eb47 803f
00000180: c5a5 803f 3b5e 7f3f 8edb 803f 829f 7f3f
00000190: b0dc 7d3f 3301 803f cacc 7f3f 9fed 803f
000001a0: 97f2 7d3f 26f2 7e3f 9a6a 7f3f dd00 813f
000001b0: acac 7e3f f7c0 803f b761 803f c800 803f
000001c0: 7e7c 7e3f b04c 803f 63ca 7d3f 80ab 7f3f
000001d0: d57d 7f3f 618c 7e3f 7d35 7f3f adf7 7d3f
000001e0: 014c 7f3f 8ca8 803f b379 7d3f 7bb2 7f3f
000001f0: 2965 7f3f 1c49 7e3f 5ad7 7e3f 4800 803f
00000200: 159f 7e3f 1b0f 813f 5848 7e3f 818b 803f
00000210: 4338 7f3f 3c8f 7e3f c375 7f3f bb3f 803f
00000220: 2158 803f 9410 7e3f 7abd 7d3f 58ab 7e3f
00000230: 3e9c 7e3f 09e4 7d3f e645 7e3f 19e5 803f
00000240: 1528 803f 2259 803f e4ce 7d3f c617 803f
00000250: 9572 803f ea70 7d3f 5397 7e3f a3d8 7e3f
00000260: c127 803f f777 803f 8023 7e3f 6ec7 7f3f
00000270: e0b5 803f f170 7d3f bb81 7d3f 59e1 7e3f
00000280: 76f2 7f3f b6ca 803f 8a63 7e3f d67c 803f
00000290: 562a 813f 9422 803f 4592 7e3f 2794 7f3f
000002a0: 89d3 7d3f cbd9 7d3f bf71 7d3f 9e05 7f3f
000002b0: 1229 803f 75d1 7f3f 43e0 803f e954 7f3f
000002c0: 98b6 7f3f 6ac4 7d3f ed26 803f ff95 7f3f
000002d0: 6380 7f3f eaf7 7e3f 1a10 803f c826 7f3f
000002e0: 1bd1 7e3f f03e 7e3f 3ea4 7e3f a6f9 803f
000002f0: 40ac 7d3f 1f59 7e3f 8eae 7e3f 367b 7e3f
00000300: f272 7d3f c5fe 7e3f 48ed 7f3f 0fc4 803f
00000310: a64b 803f ffaf 7e3f ed64 803f e7e1 803f
00000320: 7f93 7e3f 72ac 7e3f 8f75 803f aba0 7e3f
00000330: 887d 7d3f 9b6c 803f bcd6 7d3f f7b6 7e3f
00000340: 9fce 7f3f 8caf 7d3f 237b 7f3f e61f 803f
00000350: 4c4f 803f c445 803f fbec 7d3f 1236 803f
00000360: 5e2d 803f 8c54 7f3f d7d0 7e3f 7fab 7d3f
00000370: 28bd 7d3f 47a6 7f3f 5fe0 7f3f 0bf7 7f3f
00000380: 6ed9 7e3f c29f 7d3f db2f 7f3f b940 803f
00000390: 19fd 7f3f 4254 803f d170 7d3f 85a6 7d3f
000003a0: da1b 7e3f ad6f 7e3f 0e73 7f3f 8e1a 803f
000003b0: 6c85 7d3f 07eb 7e3f df08 813f d319 803f
000003c0: 9c7e 7d3f 8ff3 7d3f a626 803f 52ed 803f
000003d0: 81ba 7e3f 570d 813f ec70 7d3f e888 7d3f
000003e0: d04a 803f 12f0 7e3f e051 803f 1339 7e3f
000003f0: f898 7f3f 344f 7e3f 8d32 803f 1d81 7f3f
0.9908098 0.9962472 1.0007987 0.99490666 0.995131 0.99710494 0.9960868 0.99185646
0.9920375 0.99987096 0.99864215 1.0019405 0.9933614 0.9978065 0.99535835 0.99822354
1.0029553 0.99693143 0.99297124 0.993882 0.9936208 0.99941176 0.9975173 0.9948457
1.0004432 0.99928945 0.99975365 0.9929085 0.9947096 0.9973423 0.9944931 0.99855393
0.99529195 1.0062683 1.0014286 1.0006629 0.9928136 0.99636835 1.005976 0.9932487
0.9936841 0.99777657 1.0034832 0.9949182 0.9966249 1.0024931 1.0019135 0.9937536
1.0010266 1.0008198 0.9971241 0.9902225 0.99843425 0.9966402 1.0047238 1.0083822
0.99617934 0.99562925 0.9942607 0.9949819 0.99510133 1.0008448 0.9903319 1.0029227
1.0032603 0.99897957 1.0036832 1.0081427 1.000985 1.0070221 0.99711967 0.997513
0.9915548 0.99749875 0.99278784 0.99260074 0.9946357 0.9900043 1.0070151 1.0028635
0.99439585 0.9966315 0.9996262 0.9917792 0.9932709 0.9900911 0.9900043 0.9932307
0.9953049 0.9959857 1.0006301 0.9967886 0.9951639 0.9969379 0.99982524 1.0021948
1.0050589 0.9975316 1.0067003 0.99852765 0.9916487 1.0000366 0.9992186 1.0072516
0.9919829 0.9958824 0.99772036 1.0078388 0.99482226 1.0058888 1.002982 1.0000238
0.9940871 1.0023403 0.9913694 0.99871063 0.9980138 0.9943295 0.9969099 0.9920605
0.9972535 1.0051436 0.99013823 0.99881715 0.99763733 0.99330306 0.9954735 1.0000086
0.9946149 1.0082735 0.9932914 1.0042573 0.99695224 0.9943731 0.99789065 1.0019449
1.0026895 0.99244046 0.99117243 0.994802 0.99457157 0.9917608 0.99325407 1.0069915
1.0012232 1.0027201 0.99143815 1.0007255 1.0034968 0.9900042 0.9944965 0.9954931
1.0012132 1.003661 0.9927292 0.9991368 1.0055504 0.9900046 0.9902608 0.99562603
0.9997934 1.0061862 0.99370635 1.0038097 1.0091045 1.0010552 0.9944194 0.9983544
0.991509 0.9916045 0.9900169 0.99617946 1.0012534 0.9992898 1.0068439 0.9973894
0.9988799 0.9912783 1.0011879 0.9983825 0.9980528 0.99597037 1.0004914 0.9966855
0.9953782 0.99314785 0.99469364 1.0076187 0.9909096 0.9935474 0.994851 0.99406755
0.9900352 0.996075 0.9997144 1.0059832 1.0023086 0.994873 1.00308 1.006894
0.9944381 0.9948188 1.0035876 0.9946391 0.9901967 1.0033144 0.99155784 0.9949793
0.99924654 0.9909599 0.99797267 1.0009735 1.00242 1.0021291 0.9918973 1.0016501
1.0013845 0.99738383 0.99537414 0.9908981 0.99116755 0.99863094 0.9995174 0.9998633
0.9955052 0.99071896 0.99682397 1.0019752 0.9999557 1.0025713 0.9900027 0.99082214
0.9926125 0.99389154 0.99784935 1.0008104 0.9903171 0.99577373 1.0080832 1.0007881
0.99021316 0.99199766 1.0011795 1.0072424 0.9950333 1.0082196 0.9900043 0.9903703
1.0022831 0.9958507 1.0024986 0.9930584 0.99842787 0.99339604 1.0015427 0.99806386

shared.1.bias f4 [512]
00000000: 8802 92bb cd9b c4bb 835e 0d3b c651 6bbb
00000010: 7069 42bb f356 00bc 4397 023c f40b e9bb
00000020: e88b b5bb 6b7d 86ba 1bc1 803b 91f5 433b
00000030: 6dd0 fbba aa19 bcb9 878a 5ebb b064 de3b
00000040: 9894 8039 d4ab 983a fa62 be3a f4e5 36b9
00000050: 85b7 92bb 18c9 9bba cced 60bb 56dc c1bb
00000060: cbc2 3f39 f23a 2eba c555 2c3a e565 a2bb
00000070: a0cd 563b 8938 d9ba 38f4 0ebc e4d7 5d3b
00000080: 1a93 583b 6261 f53a 1e77 313b e2b7 e13b
00000090: 8e77 443a d48d 9fb9 6e3d e93b 828a b8bb
000000a0: 6463 7b3b ae90 8ebb 1e05 3f3b 76cf 3abb
000000b0: 9153 e83a d2ad e03b c0d8 aab6 1c3e c6bb
000000c0: b13f 9c3b 122e 853a 84b3 caba 4984 8ab9
000000d0: b782 2f3a f96c d5ba 7483 2f3b 829a 173c
000000e0: 0cb1 b7ba 5405 b0bb 98f8 93bb 4697 90bb
000000f0: 8001 c7bb 3cd9 ba3b 7575 c0bb b938 02bb
00000100: 715d 8f3b 17ea 24ba a791 d23a 5ac0 1b3c
00000110: 3177 0c3a 60db 08b9 2c9b d939 8503 70ba
00000120: d434 51b8 f94f f4ba 8bec ccbb f293 f2ba
00000130: 92d8 163a 0000 0000 cc0b 143c af34 4e3b
00000140: 996a 40bb 05e9 eb3a e8a9 4e38 3435 2cba
00000150: f718 bebb def8 903a 0000 0000 e86b 93bb
00000160: 1b36 8cbb 0693 3ebb 985f af3b ec45 4dbb
00000170: e2ad 7bba 9584 4d3b 6c93 ea3a 3754 e73b
00000180: f8e0 e23b 76ee 44bb 3c25 f63b 6f82 a3ba
00000190: d525 fdbb b6a6 093b f7bb 00bb cdef c13b
000001a0: f54a b9ba e108 80bb 3ef8 3bbb 01e8 933b
000001b0: c99e 9fbb d3b7 8d3b a01f ad3a f876 243a
000001c0: 8883 15bb 3eec ba3b 52d3 00bc 2994 82ba
000001d0: 1133 5cbb 2ff7 2cba eb97 8b3b 92e5 9dbb
000001e0: 84ea 4dba 97cd a83b c48c 85bb 6a2d 963a
000001f0: ad70 8439 3d60 993b aed1 c7ba a2d2 443b
00000200: 30eb 01bb 8b96 033c bd38 04bc fa46 a93b
00000210: 93a5 95bb bf91 123b 8a9a c8ba 9f36 e63a
00000220: ce05 7b3b 79f7 8dbb 9687 08bc 0d0b 4fbb
00000230: 00f1 eeb9 60be 413a 17b5 a1bb 8026 183c
00000240: 23ba 353b 1961 703b 3418 d338 5eb7 c23b
00000250: 49e3 f53b 3635 f0b9 88ef a0bb 8a02 6fbb
00000260: 06ce b03b 040c 8d39 8817 cbba ad05 043a
00000270: 5c50 c23b 45d4 b13a 72e9 a3ba d546 09bb
00000280: 116e a0ba 4f9e 003c 28f9 acbb 5f68 c23b
00000290: ecac bf3b 6eba 343b bb77 beba e320 a33a
000002a0: f6d9 66bb 9e39 bcbb 27d8 c63b 9097 b73b
000002b0: 873d db39 a631 3e3a e0c9 bf3b 7d13 dd3a
000002c0: 0813 0dbb 1563 46bb bda2 323b f57d 3b3b
000002d0: cedf 14bb 7635 36bb 69ae 723b 6ea3 753b
000002e0: b236 c53a 8428 d7bb 521b 85bb 9992 ec3b
000002f0: cf19 eabb cf29 f3b9 4caf 94bb fd02 6dbb
00000300: 2606 253b bef5 873a 584b 8d3b 9a4b b63b
00000310: 25f1 7d3b c2e1 66bb fdb9 873b 0c1d 9a3a
00000320: 5e8a 8ebb 683d b2bb 8ec8 c63b 1e5e 76ba
00000330: 3d50 983b 2968 553b d9fe bbba cb27 44bb
00000340: a074 41bb fae9 deb8 c454 243a 8d22 a63a
00000350: 230f a53b 9415 fc39 efc0 bebb c6d6 683a
00000360: f937 0a3c b80e 0e3c aa41 a43a eae8 07bc
00000370: a6c5 4b3a c0e2 04b8 591a f139 5789 993b
00000380: 3afd 7cbb 1db4 ddbb 304d 97ba 3959 9b3b
00000390: 19be 9f39 abbf 963b b0cf 163b c98d bdbb
000003a0: d2f9 b9bb 08f9 6dbb 4334 bdba cbe1 723b
000003b0: 3be7 cebb 360a 46ba e006 043c 2b6b 433b
000003c0: 2ddb 94bb e89f df3b be92 1f3b 37ee fd3b
000003d0: d0e3 96bb 186f 003c 0000 0000 1550 ebbb
000003e0: 524a 213a bcc1 faba 8447 433a 017a a5ba
000003f0: e6d8 abb9 fcf1 abbb b59e b73a 768e 0b3b
-0.004455868 -0.006000018 0.0021571226 -0.0035906895 -0.0029664896 -0.00783323 0.007970634 -0.0071120206
-0.0055403598 -0.0010260766 0.00392927 0.0029901008 -0.0019211896 -0.00035877276 -0.003395708 0.006786905
0.00024524773 0.0011647888 0.0014525347 -0.00017442537 -0.0044774436 -0.0011885492 -0.0034321425 -0.0059161587
0.00018287745 -0.0006646357 0.000657406 -0.0049559944 0.003277637 -0.0016572635 -0.0087252185 0.0033850605
0.0033046664 0.0018721039 0.0027079056 0.0068883756 0.00074946217 -0.00030432513 0.0071179187 -0.005631746
0.0038358802 -0.0043507433 0.0029147337 -0.0028505004 0.00177251 0.0068566585 -5.091628e-06 -0.0060498845
0.004768335 0.0010160825 -0.0015464877 -0.0002641997 0.0006695198 -0.0016283087 0.0026781233 0.009253146
-0.0014014556 -0.005371729 -0.0045157187 -0.0044125644 -0.006073177 0.005702166 -0.005873377 -0.0019870235
0.0043751528 -0.00062909856 0.0016065136 0.009506309 0.0005358337 -0.00013051694 0.00041505077 -0.0009155798
-4.9878683e-05 -0.0018639556 -0.006253784 -0.0018507226 0.00057543174 0.0 0.009036016 0.0031464507
-0.0029360412 0.0017998522 4.9272465e-05 -0.0006569207 -0.005801316 0.0011060496 0.0 -0.0044989474
-0.004278911 -0.0029079332 0.005351972 -0.0031322194 -0.00096008007 0.0031359543 0.0017896718 0.0070595997
0.006923791 -0.003004936 0.007511763 -0.0012474785 -0.007725457 0.0021003908 -0.0019643286 0.005918479
-0.0014136719 -0.0039073084 -0.00286819 0.004513741 -0.0048712236 0.004324892 0.0013208278 0.0006273831
-0.0022813994 0.005704432 -0.007862883 -0.0009962368 -0.0033599774 -0.00065981125 0.0042600534 -0.0048186267
-0.0007855075 0.0051514613 -0.0040756185 0.0011457626 0.00025260952 0.004680662 -0.0015244985 0.0030032774
-0.001982402 0.008031498 -0.008070168 0.005165932 -0.004566857 0.0022364703 -0.0015304845 0.0017563886
0.003830302 -0.0043324796 -0.008333107 -0.003159228 -0.00045574456 0.0007390734 -0.0049349177 0.009286523
0.0027729354 0.0036678968 0.00010065772 0.005942269 0.007503901 -0.00045816012 -0.004911367 -0.003647002
0.0053956537 0.00026902568 -0.0015494684 0.0005036246 0.0059299897 0.001356729 -0.0012505485 -0.002094676
-0.0012239834 0.007850244 -0.005278725 0.005932852 0.0058494713 0.002757694 -0.0014531532 0.0012445714
-0.003522513 -0.005744173 0.006068248 0.0056027845 0.00041816777 0.0007255323 0.005852923 0.001686677
-0.0021526236 -0.003027146 0.0027257644 0.0028609012 -0.0022716406 -0.0027802861 0.0037030226 0.0037481445
0.0015046208 -0.006566109 -0.0040620947 0.0072196242 -0.00714419 -0.00046379722 -0.0045374986 -0.0036165111
0.0025180667 0.001037292 0.00431196 0.0055632116 0.003874847 -0.0035229777 0.0041420446 0.0011757924
-0.0043499907 -0.005439449 0.0060663885 -0.000939818 0.004648237 0.0032563305 -0.0014342918 -0.0029930945
-0.0029518977 -0.000106293664 0.00062687346 0.0012675092 0.005037205 0.00048081263 -0.0058213393 0.00088821014
0.0084361965 0.008670501 0.0012531776 -0.008295277 0.00077732874 -3.168243e-05 0.00045986733 0.0046855616
-0.0038603083 -0.006765856 -0.0011543389 0.004740861 0.00030468477 0.0046004853 0.0023011975 -0.0057847244
-0.005675533 -0.0036311764 -0.0014435131 0.0037060853 -0.006314186 -0.0007554622 0.00805828 0.0029818516
-0.0045427294 0.006824482 0.002434894 0.0077493447 -0.004604794 0.007838987 0.0 -0.0071811774
0.0006152737 -0.0019131224 0.00074493163 -0.0012624861 -0.00032777264 -0.0052473526 0.001400909 0.002129463

shared.3.weight f4 [256, 512]
00000000: cab8 ccbc 978a 0f3d a0ef 953c 25ab 20bb
00000010: eb89 b9bc bc47 b73c d709 e5bc 6740 233d
00000020: b17b cbbc 1a83 b53c 28e5 89bc 562d 07bd
00000030: c7ea bfbc 899f d83c 9c8b b53b 14cc d4bc
00000040: 5cfc 263d 5531 5cbb d2d3 9e3c abb8 283d
00000050: e577 3b3c 55d9 d23b e521 bc3c 0fa1 d1bc
00000060: e55c ad3c 50bc acbc ef0d 06bd f5fb 453c
00000070: f219 7abc 3309 17bd 77ee 253d 62ca 9ebc
00000080: e83f da3a ffd8 3c3d c77c e5bc 861a e73c
00000090: fbeb 463c 4145 28bd f811 a23c a560 8bbb
000000a0: d8a1 b4bc 4ed4 db3c 088b dfbc 651f cb3c
000000b0: 2f0c 34bd 6431 1a3c c563 01bd 49f4 ccbc
000000c0: 8fc9 fa3c d1b8 04bd fb1e 2abb 85ba a03c
000000d0: b31f 34bc 1ef1 93bb 3879 dd3c cc92 2c3d
000000e0: 3951 19bd b4b7 3cbd 1cac 22bd cdea 00bb
000000f0: aad2 8fbc f2f5 dcbb 77a9 06bc b464 333c
00000100: 7cd0 0cbd db8e ae3c 33a9 e73c 8f7f 26bc
00000110: cd00 c33b 8e35 63bc b9d3 e6bc 2d37 643c
00000120: 3a2c a23c 04ea 99bc 3358 5cbc 64f5 f8bb
00000130: e014 2c3d 4287 a239 58f7 563b 4e47 4d3d
00000140: 2fa4 7bbc 6c50 d03c 2689 88bc 46a3 75bc
00000150: ed78 0d3c 6eab 0aba a63a 91bc 4635 2dbd
00000160: c87b 143d 9e94 1f3d 3967 1f3d 3cdd 323d
00000170: ff9f 233c de93 c73c e04f 383c 2df7 8e3c
00000180: a2d3 bfbc f7db 76bc f83a 6b3b e823 d0bc
00000190: 8039 1c3b fa52 053d bed5 7abb bbe8 383d
000001a0: fc0a 223d d00a ddbb 212a 303d f76f d5bc
000001b0: a38f 1cbd aacf 853c fb1a 373d fa59 403c
000001c0: 4ad1 453b 5555 193d bfa6 ce3c 076b 8cbc
000001d0: 1015 4e3a ffc1 1abd 7759 36bc 1b18 b1bb
000001e0: 303f 603c 505c d0bc ba16 babc 08a8 98bc
000001f0: ea01 8abb f9a3 043c 40df 123d 17ee 50bc
00000200: ded0 6f3c 1fc9 75bc 3291 a8bc 0918 75bb
00000210: 7bb9 883b 4fe3 d9bc 7465 fabc b668 243d
00000220: f7c9 fbbc 97a0 38bd 0b86 e03c 6754 bb3c
00000230: e3ef 153c 4df1 483c a902 033d a408 ba3c
00000240: 74a3 3e3d 6eb1 14bd 2fa0 8e3a 3b4d 4c3c
00000250: 7d51 3fbc f3f9 fbbc 33f7 16bc 93ce 4dbb
00000260: ecdb dabb 1e27 9e3b a52c c03b b877 173d
00000270: c949 313c 2816 463c 34a8 e0bc 7667 6dbb
00000280: ad3c 29bd 85f8 393d 3210 fb3c e4bd 783c
00000290: 7a9e c33c 6475 973c 488f edbc 83ee e93b
000002a0: 2ee2 06bd 61ca dfbc 726a 553b 5b06 493d
000002b0: 8c10 073d b0aa e3bc 3ba0 1f3d 0b4c 38bb
000002c0: 2141 f2bc d571 adbc f800 d1bc e06a 453d
000002d0: 72e7 c6bc de18 1cbd 4af7 5a3c cd38 543c
000002e0: 24b4 193d 1545 1d3d 9380 e43c a084 ae3c
000002f0: 2f95 06bd 1331 10bd f963 ecbc 21d4 113d
00000300: 8807 8fbc 2178 a33a 2308 36bd d09f 0bbd
00000310: eab6 393c fcae b2bc 049f 8abc 7c28 0c3c
00000320: bd6a b93c 5ca6 0abc 09a2 37bc 8188 2b3d
00000330: 044b edbc e613 163d 9f36 5b3c 55c1 da3c
00000340: 2611 2fbd da44 00bc a0c4 4639 6771 a9bc
00000350: 7ade 353a 6a51 0ebd 7103 67bc 7a3a d8bc
00000360: 10a3 283d a58e f2bc f589 1abd a235 513b
00000370: acf1 00bd 7cfa 2e3d 769f f3bb d6b5 223d
00000380: 0d44 ffbc 19cf ddbc b26a 19bd aafa 3abd
00000390: 28d0 753c 2dde b03b ec9f 873c 385d 093d
000003a0: eb96 e5bc cb29 59bc 7a57 c33c 1dfc 39bd
000003b0: 8db2 623c 60f2 09bd 1181 ce3b 26d0 50bc
000003c0: 4368 c2bc c1a3 09bc ad1d f23b 015e 80bc
000003d0: ab0a 1cbd 325b a4bb 7932 babc c025 f13c
000003e0: 902c 33bb 014e 88bc 33ed 14bc 9e88 53bc
000003f0: e43e 043c f40d 63bc 41f7 1bbd cfe7 2fbd
-0.024990458 0.03504428 0.018302739 -0.0024516073 -0.022648772 0.022373073 -0.027958794 0.03985634
-0.024839254 0.02215724 -0.016832903 -0.03300222 -0.02342738 0.02644326 0.0055403244 -0.025976218
0.040768012 -0.003359874 0.019388113 0.041191738 0.011442159 0.0064345994 0.02296538 -0.025589494
0.02116246 -0.021085888 -0.03272813 0.012083997 -0.015264975 -0.036874007 0.04051062 -0.019383613
0.0016651126 0.04610538 -0.0280136 0.02821089 0.012141223 -0.04108167 0.019783959 -0.0042534643
-0.02204983 0.026834633 -0.027287975 0.024795244 -0.04395693 0.00941119 -0.03158929 -0.025018828
0.030613689 -0.032402817 -0.0025958407 0.01962019 -0.010993886 -0.0045148274 0.02703534 0.042132184
-0.037430976 -0.04607363 -0.039714918 -0.0019671202 -0.017556507 -0.006743186 -0.0082191145 0.010949302
-0.034378514 0.021308353 0.028278923 -0.010162248 0.005951023 -0.013867749 -0.02817713 0.013929171
0.01979648 -0.018788345 -0.013448763 -0.007597612 0.042012095 0.00030999823 0.0032801237 0.05011683
-0.015358969 0.025428973 -0.01666696 -0.014992541 0.008634788 -0.0005289827 -0.017728161 -0.042287134
0.03625086 0.03896009 0.0389168 0.043668017 0.0099868765 0.0243625 0.011249512 0.017451847
-0.023416344 -0.015067092 0.0035893302 -0.025407746 0.0023837984 0.032549836 -0.0038274373 0.045143824
0.039561257 -0.0067456737 0.043008927 -0.026054366 -0.03822292 0.016334374 0.044703465 0.011740202
0.003018456 0.037434895 0.025225995 -0.017140878 0.0007861415 -0.037782665 -0.0111297285 -0.005404485
0.01368694 -0.025434643 -0.022715915 -0.018634811 -0.004211654 0.008095735 0.03585744 -0.012752078
0.0146372 -0.015001564 -0.020577047 -0.003739836 0.0041725016 -0.026597647 -0.030565955 0.040138923
-0.030735953 -0.045075025 0.027407667 0.022867395 0.009151432 0.012264562 0.03198496 0.022709198
0.0465426 -0.036302023 0.0010881479 0.012469585 -0.011677143 -0.030758834 -0.00921421 -0.0031403645
-0.0066790488 0.0048264405 0.005864697 0.036979407 0.010820814 0.012090243 -0.027423956 -0.0036224998
-0.04131763 0.045403022 0.030647371 0.015181992 0.023879278 0.018488593 -0.028998986 0.0071390285
-0.032930546 -0.027318181 0.0032564667 0.049078327 0.032974765 -0.027791351 0.038971167 -0.0028121497
-0.029572072 -0.021172443 -0.025513157 0.048197627 -0.024280284 -0.038109653 0.013364622 0.0129529955
0.03752531 0.03839596 0.02789334 0.021303475 -0.032857116 -0.03520305 -0.028856264 0.035602693
-0.017459646 0.0012471714 -0.044441354 -0.034087956 0.011335114 -0.021811955 -0.016921528 0.008554574
0.022633905 -0.008462515 -0.011208066 0.041878227 -0.028966434 0.03664007 0.013379722 0.026703516
-0.042740963 -0.0078289155 0.00018956 -0.020683957 0.00069377536 -0.03474561 -0.014099942 -0.026395071
0.041171134 -0.029609034 -0.037729222 0.0031922837 -0.031480476 0.04271935 -0.0074347807 0.039724194
-0.031160379 -0.02707629 -0.03745527 -0.045649208 0.015003242 0.005397579 0.016555749 0.033536166
-0.028026065 -0.013254593 0.023845423 -0.04540645 0.013836515 -0.033678412 0.006302007 -0.012744939
-0.023731356 -0.008400858 0.0073887915 -0.015669825 -0.03809611 -0.005015754 -0.022729145 0.029436946
-0.0027339794 -0.016638758 -0.009089756 -0.01291099 0.008071635 -0.013858307 -0.038077597 -0.04294568

shared.3.bias f4 [256]
00000000: 5aa0 85bc a8a8 08bd baba ccbc 8107 443c
00000010: ffd3 4cbc f98b f7bc 67f8 e43c b23b bdbc
00000020: fb45 213d fbc4 a23b d109 54bc e238 fa3c
00000030: 239d 33bd 7be5 d63c 52a6 eb3c 9eef fe3c
00000040: f8e0 90bc f246 38bd a011 4e3c 0dfb 34bc
00000050: 6e3c 803b 3d1e 24bd 03cf 07bd 71cd 2a3d
00000060: 1dd2 8b3c 7d53 8fbc 886d cc3c 02eb 8739
00000070: 4608 2e3d f2b8 debb 5632 ed3c 5de1 0a3d
00000080: 552b 8cbc f5c5 50bc 8f56 26bc 92cf dbbc
00000090: a865 a23c 9da9 e0bc ea21 c5ba 54f3 6c39
000000a0: 9b88 3a3c 6b77 d6bc 6d08 783c 0c3d 893c
000000b0: a884 0c3d b1ff 873c 051d 313c 794e d8bc
000000c0: 905f 3f3c 6288 52ba 7fe4 213d 9f4a 843b
000000d0: 30d6 053d 201a f03b 15b8 1dbd 126d ad3c
000000e0: bf80 e7bc 96b3 cbbc 79f5 2ebd c6d4 9dbc
000000f0: f446 d0bc f830 eb3c 5734 0fbc 0655 093d
00000100: 1932 33bd d89a a4bc 84ed 3cbc e6a9 1bbd
00000110: aa31 2fbd e8d3 723b 7df7 1bbc 0f19 04bd
00000120: 4ebf 363c 2fc3 8e3b 0676 303c 01b8 2a3d
00000130: 6d06 9b3c 38f5 a1bc 4a3f 9dbc cfce debb
00000140: 1a25 d8bc c5df bdbc e13c 8d3c 3973 ba3c
00000150: 23ee 3abc e90a 173d b245 c9bc d570 df3c
00000160: 292c 0ebc 25be 10bd dbab 8d3a 9eaa 363c
00000170: dcf7 913c deab 173c 142f 1e3d bbcb 52bc
00000180: add6 a63c 72ee 2abd 2397 70bc 62cc 1a3d
00000190: fbb8 003c be9e 383c 39ae f33c a34b 18bc
000001a0: 03ac 103d 33c4 9cbc f731 a5bc eed0 15bc
000001b0: bc1c 1dbd 4453 38bc 3b6b 2cbc 7579 01bd
000001c0: 51dc c03c f67f 0e3c 22af 10bd 3047 dabc
000001d0: cd39 4cbc f3df f5bb e691 d4bc 6216 16bd
000001e0: 4091 18bd 7949 31bd 6a78 debc 30ff 2b3b
000001f0: 4a6b 873c e9aa 1cbc c1cb 1cbd 5874 57bc
00000200: 68ef c83c 0b48 5c3c 9838 debc d014 163c
00000210: 7ae4 e4bc 58d3 d9bc 7f05 da3c c40b 03bd
00000220: 5b12 e03b f438 6dbc 1f34 19bc 2ce3 cb3c
00000230: f73c 8b3c 4c98 30bd 53e3 203d 94a9 093d
00000240: 9e27 fa3c 4930 173d 42a3 5339 16cd dd3c
00000250: 664b 243d 6e13 e83b 68ce 83ba 12ba 9dbc
00000260: 920f a53c bb91 d73c 4b59 1e3d 0856 f73b
00000270: 5ab9 32bc 1272 eb3b ae15 33bc 7744 59bc
00000280: 7463 1e3d 26a0 143d 4efa 633c 7477 d0bc
00000290: 31e0 f73b f884 c2bc c374 88bc ddf1 9b3c
000002a0: 0ca6 083d 3077 70b8 fced 08bd 4f2c 3abd
000002b0: 0702 fd3c ac51 9abc 2d0c 2f3d 61e0 0bbd
000002c0: eccb 54bc d616 313c 3207 0fbd 9e3c 5d3c
000002d0: a52d 593c 6a71 9c3c d6e7 033d b5c6 263d
000002e0: fa09 f5bc cb15 a2bb 46a4 2b3d c89a 53bc
000002f0: 6c6c 203c 1c0e fcbc 40b0 073d 4004 f73c
00000300: 368a d13c 9aec 16bd 3392 303d 2960 8a3c
00000310: 068e b43a 10cf fbbc 66a2 243d ed3a 25bd
00000320: 7802 db3c f1ef d53c 0191 ad3c f835 0dbc
00000330: 801e 60bc b994 fc3c 322d 36bb 94fc 51bb
00000340: 9861 d7bb e8df 87bc 706b ccba 1439 dbbb
00000350: d28f dabc 77d3 26bd a30a 3b3d c16d aeba
00000360: 0410 ccbc 6008 633c 72eb 8bbb 2ddc a9bb
00000370: c90f 2fbd b3ae acbb 8dfb e5bc fc77 12bd
00000380: 1d37 e83c 682e 8d3c 1f72 f1bc aace 12bd
00000390: 7cae c23a 4817 79ba 59b4 10bd 1822 b4bc
000003a0: e985 f13c aa59 303d 5073 76ba b8b8 48bc
000003b0: 16aa 363d 164b 02bd a9a9 8f3c bc48 1e3d
000003c0: 1d56 a3bc 8570 f23a 0420 1fbc 0003 17bd
000003d0: 334a bf3a a7b4 49bd 18eb ef3b 63fc 14bd
000003e0: 9492 873c 708b 1fbd b158 863c ccc5 90bc
000003f0: e226 d8bc 9479 54bc b44e 903c 5c09 f5bb
-0.016311813 -0.033363968 -0.024991382 0.01196468 -0.012501716 -0.030218111 0.027950479 -0.023099754
0.03937338 0.0049673296 -0.012941794 0.030544702 -0.04385103 0.026232472 0.028765831 0.031120118
-0.017685398 -0.044989534 0.012577444 -0.011046183 0.003913454 -0.0400679 -0.033156406 0.04169983
0.017067963 -0.017495865 0.024954572 0.000259243 0.04248836 -0.0067969495 0.028954666 0.03390633
-0.017110506 -0.012742509 -0.010152473 -0.026832376 0.019823864 -0.027424628 -0.0015040014 0.0002259736
0.011385108 -0.02617999 0.015138728 0.016752742 0.0343062 0.016601415 0.010810141 -0.026404606
0.011680499 -0.0008031187 0.03952455 0.004037216 0.03267497 0.007327333 -0.038505632 0.021170173
-0.028259633 -0.024865907 -0.04271457 -0.019266497 -0.025424458 0.028709874 -0.008740506 0.03352835
-0.04374895 -0.020093367 -0.0115312375 -0.038003825 -0.042771973 0.0037052575 -0.009519455 -0.03225046
0.011154009 0.004356764 0.0107703265 0.041679386 0.018923962 -0.01977025 -0.019195218 -0.006799556
-0.026384879 -0.02317799 0.017240943 0.02276002 -0.011409315 0.03687564 -0.024569366 0.027275482
-0.008677521 -0.035337586 0.0010808663 0.011149077 0.017818384 0.009257285 0.038619116 -0.012865956
0.020366037 -0.041731305 -0.014684471 0.03779257 0.007856603 0.011268316 0.029746162 -0.009295377
0.035320293 -0.019136524 -0.020165427 -0.009144051 -0.03835748 -0.011250321 -0.010523613 -0.03160997
0.023542555 0.0086975 -0.03532327 -0.026645273 -0.012464953 -0.0075035035 -0.025948476 -0.03664244
-0.037247896 -0.04328296 -0.027157027 0.0026244633 0.016530652 -0.0095622325 -0.038280252 -0.013150297
0.02452822 0.013444911 -0.027126595 0.0091602355 -0.027940977 -0.026590034 0.026613949 -0.031993642
0.0068381256 -0.014478911 -0.009350806 0.024888597 0.016996844 -0.04311399 0.039279293 0.033608988
0.03053647 0.036911283 0.00020183346 0.027075332 0.040110968 0.0070823943 -0.0010056021 -0.019253764
0.020149026 0.026314607 0.038659375 0.0075480975 -0.010908449 0.007185229 -0.010930462 -0.013260952
0.038669065 0.036285542 0.013914658 -0.025447585 0.0075645675 -0.023745045 -0.016657239 0.019036228
0.03336148 -5.733146e-05 -0.033430085 -0.045452412 0.030884756 -0.018837772 0.04273622 -0.03414953
-0.012988072 0.010808667 -0.03491897 0.013503222 0.013255511 0.019097049 0.032203518 0.040716846
-0.029911984 -0.0049464456 0.04190471 -0.012915321 0.009791475 -0.030768447 0.03312707 0.030153394
0.0255786 -0.036846735 0.043108176 0.016891556 0.0013775236 -0.030738384 0.040193938 -0.0403394
0.026734576 0.02611539 0.021187307 -0.008618824 -0.013679147 0.030832635 -0.0027797935 -0.0032041417
-0.0065729134 -0.016586259 -0.0015595984 -0.006690154 -0.026679907 -0.040729012 0.04566444 -0.0013307856
-0.02490998 0.013856977 -0.0042700106 -0.0051837177 -0.042739663 -0.005269849 -0.02807405 -0.035758957
0.028346593 0.017234042 -0.029473362 -0.03584162 0.0014853026 -0.00095020654 -0.035328243 -0.021988913
0.029482799 0.04305426 -0.0009401338 -0.012251072 0.0445958 -0.03180989 0.017536955 0.038643584
-0.019938523 0.0018496668 -0.009712223 -0.036868095 0.0014594257 -0.04924455 0.0073217265 -0.036373507
0.016549386 -0.038951337 0.016399713 -0.017672442 -0.026385728 -0.01296844 0.017615654 -0.0074779224

shared.4.weight f4 [256]
00000000: 5a71 7e3f 0f68 803f cd89 803f 1085 7f3f
00000010: c286 803f 6872 7f3f e792 803f 80c6 7e3f
00000020: 1d51 7e3f 68bb 803f c72b 803f 743a 803f
00000030: 0886 7f3f 776b 7e3f 855f 803f f20a 803f
00000040: fac3 7e3f c505 803f f51b 7f3f da2a 803f
00000050: 64ba 7f3f a06f 7d3f 2ab6 7e3f a52b 803f
00000060: 7bd8 7e3f 30dd 803f 37bc 7e3f 4deb 7f3f
00000070: 8838 803f e4f6 803f a03a 803f 11ba 803f
00000080: eebe 7f3f 20f0 7f3f 9240 803f d900 7e3f
00000090: d74b 803f 4d33 803f 29f2 7f3f f967 7e3f
000000a0: cb5f 803f 8390 7d3f 96d3 7f3f ebb7 7f3f
000000b0: 3675 7d3f d675 7d3f 6373 803f cf95 803f
000000c0: c18a 7d3f b7da 7e3f 2753 803f 8481 7e3f
000000d0: 7777 7d3f e250 7e3f 4a0e 7e3f 7ba3 7e3f
000000e0: 0948 7e3f 9403 803f 5d29 7e3f a0a2 803f
000000f0: 7e7b 7e3f 1f43 803f e083 803f f322 803f
00000100: db09 7f3f a2d8 7d3f 1045 7f3f f225 7f3f
00000110: a902 7e3f 2024 7f3f 5703 7f3f 4072 7d3f
00000120: 3d0e 803f 7f87 7d3f f518 7e3f 9a5c 7f3f
00000130: 7605 7f3f 9bec 7e3f 21ca 7e3f 88dc 803f
00000140: 5ae5 7f3f a970 7d3f be1a 7f3f f375 7d3f
00000150: fdce 7f3f e869 7f3f 381a 803f f765 803f
00000160: 26db 7d3f 1376 7d3f bbc5 7e3f e851 803f
00000170: f619 7e3f 7f88 7d3f f8fd 7e3f 777d 7e3f
00000180: ad98 7d3f 23c1 7f3f e5be 7d3f 311d 803f
00000190: 3944 7f3f 6aa7 7f3f 66ee 7e3f 9cfe 803f
000001a0: b614 803f 1e75 7e3f 667d 7d3f 13fb 7d3f
000001b0: f8f0 7f3f 0402 803f a665 7e3f 7171 7d3f
000001c0: 61e4 7f3f 9b71 7d3f cd5e 7e3f d232 803f
000001d0: b80c 7f3f f23f 7e3f 30fc 7e3f 2890 7e3f
000001e0: f76d 803f 7f80 7e3f 9378 7f3f 9ce0 7d3f
000001f0: 6d0c 7f3f 0f96 803f 26e8 7e3f 9d58 803f
00000200: ab47 803f 3c73 7d3f fee6 7e3f ca0d 7f3f
00000210: 67bd 7f3f 789d 803f 6a3c 803f 53db 7e3f
00000220: d9a8 7d3f 01c0 803f 4a33 803f f391 7e3f
00000230: f22a 7f3f 52c2 7e3f 3375 7f3f e389 7f3f
00000240: d0ba 7d3f f1ba 7d3f 27b1 7e3f e48f 7d3f
00000250: f348 7e3f 9aeb 7f3f fa1c 7f3f 072e 803f
00000260: fc03 803f 6f7c 7d3f 472f 7e3f 702f 803f
00000270: 5333 803f 1db1 7f3f b22a 7e3f 8f31 803f
00000280: f299 7f3f cd42 7e3f 26ab 7d3f 1a2b 803f
00000290: a471 7d3f cf78 7f3f ab38 803f 67d3 7e3f
000002a0: c7a3 7d3f f664 803f 7981 7f3f 52b0 7e3f
000002b0: f9d5 7e3f e221 7e3f 0862 803f 399a 7d3f
000002c0: fa71 7d3f ecea 7e3f 2435 7f3f 0f7a 7d3f
000002d0: 8940 7e3f 2656 803f f2b5 7d3f 47d4 7f3f
000002e0: 5a2d 7f3f cc14 803f df7f 803f 8477 803f
000002f0: 46c1 803f 5481 7d3f e970 7d3f da65 7f3f
00000300: af2c 7f3f 7612 7e3f ce44 803f 3bf1 7f3f
00000310: 5a30 7e3f 2e1e 7e3f 2078 7d3f 92a3 7d3f
00000320: a89d 7e3f bcb5 7e3f 8178 7d3f be70 7d3f
00000330: 7972 7d3f a553 7f3f c595 7f3f e66a 803f
00000340: 501a 803f 721d 803f b370 7d3f f92f 7e3f
00000350: 89e2 7e3f aa3e 803f 85e8 7e3f d273 7d3f
00000360: 5a4c 7e3f e76f 7f3f 9776 7d3f b404 7e3f
00000370: ae9c 7e3f 7712 803f 2d3c 803f 5b89 7d3f
00000380: 8cac 7d3f e47d 7f3f 3452 803f 5cda 7f3f
00000390: 3856 803f 2013 803f 8d9f 7d3f 1011 7e3f
000003a0: 6226 803f 6f03 803f e8e0 7e3f 39fa 7d3f
000003b0: 2d4b 803f a21d 7f3f aef1 7e3f e6a8 803f
000003c0: f73f 803f a371 7e3f fa40 803f ac5b 803f
000003d0: 1d9c 7f3f dd2c 7e3f 5b2e 803f 848d 7d3f
000003e0: 4ec6 7e3f 74f9 7f3f db21 7f3f f40e 7e3f
000003f0: a6a0 7e3f 2f4c 803f 0597 803f 8b62 7e3f
0.9939171 1.0031756 1.0042053 0.9981241 1.0041125 0.99783945 1.0044831 0.99521637
0.9934252 1.0057192 1.001336 1.0017838 0.9981389 0.9938273 1.002915 1.000334
0.99517787 1.0001761 0.99652034 1.0013077 0.99893785 0.9899845 0.9949671 1.0013319
0.99549073 1.0067501 0.99505943 0.99968415 1.0017252 1.0075345 1.0017891 1.0056783
0.9990071 0.99975777 1.0019705 0.99220043 1.0023144 1.0015656 0.9997888 0.993774
1.0029234 0.9904863 0.9993223 0.9989001 0.99006975 0.9900793 1.0035213 1.0045718
0.99039847 0.9955248 1.0025376 0.99416375 0.99010414 0.9934217 0.99240553 0.994682
0.99328667 1.0001092 0.99281865 1.0049629 0.99407184 1.0020484 1.0040245 1.0010666
0.99624413 0.9915868 0.99714756 0.99667275 0.9922281 0.996645 0.9961447 0.99002457
1.0004345 0.99034876 0.9925683 0.99750674 0.9961771 0.9957978 0.99527174 1.0067301
0.9995934 0.9900003 0.9965018 0.990081 0.99925214 0.99770975 1.0008001 1.0031117
0.9916252 0.9900829 0.9952046 1.0024996 0.99258363 0.990364 0.99606276 0.99410194
0.9906109 0.9990408 0.99119407 1.0008909 0.99713475 0.9986483 0.9958252 1.0077701
1.000632 0.99397457 0.9901947 0.99211234 0.99977064 1.0000615 0.99373853 0.9900122
0.99957854 0.99001473 0.99363405 1.0015509 0.9962878 0.9931632 0.9960356 0.99438715
1.0033559 0.9941482 0.99793357 0.9917085 0.99628335 1.0045794 0.9957298 1.0027043
1.0021871 0.9900396 0.99571216 0.99630415 0.9989838 1.0048056 1.0018437 0.9955341
0.99085766 1.0058595 1.0015652 0.9944145 0.99674904 0.9951526 0.99788207 0.99819773
0.9911318 0.99113375 0.99489063 0.99047685 0.9933006 0.99968874 0.9965359 1.0014046
1.0001216 0.99017996 0.9929089 1.0014477 1.0015663 0.9987963 0.992839 1.0015124
0.99844277 0.9932068 0.99089277 1.0013154 0.99001527 0.99793714 1.0017294 0.99541324
0.9907803 1.0030811 0.99806935 0.99487793 0.99545246 0.9927045 1.0029917 0.9906345
0.9900204 0.9957721 0.9969046 0.9901437 0.9931722 1.002629 0.9910575 0.99933285
0.99678576 1.0006347 1.0039023 1.0036473 1.0058982 0.99025464 0.9900041 0.9976479
0.99677557 0.9924692 1.0020998 0.99977463 0.9929253 0.992648 0.9901142 0.99077713
0.99459314 0.99496055 0.99012 0.99000156 0.99002796 0.99737006 0.99837905 1.0032623
1.000803 1.0008986 0.9900009 0.9929195 0.99564415 1.0019124 0.99573547 0.9900485
0.99335253 0.99780124 0.9900908 0.99225926 0.99457824 1.0005635 1.0018364 0.9903771
0.9909141 0.9980147 1.0025086 0.99942565 1.0026312 1.0005836 0.9907158 0.99244785
1.0011714 1.0001048 0.9956193 0.99209934 1.0022942 0.9965459 0.99587524 1.0051544
1.001952 0.99392146 1.0019829 1.0027976 0.99847585 0.99287206 1.0014147 0.9904406
0.9952134 0.9999001 0.99661034 0.99241567 0.9946388 1.0023249 1.0046088 0.99369115
