checkpoints/yahtzee_pretrain_incremental_5000ep/best_model.pt (torch, 576309 bytes, 25 tensors)

shared.0.weight f4 [256, 23]
0	0xbdff7a8b	-0.12474545
1	0xbe9e1b0a	-0.30880004
2	0xbea39c17	-0.31955025
3	0x3da54cf3	0.080713175
4	0x3ee084e0	0.43851376
5	0xbddd0098	-0.10791129
6	0x3c0cfb42	0.008604826
7	0xbdcef1e9	-0.101047345
8	0xbe42a543	-0.19008355
9	0xbe604109	-0.21899809
10	0xbdb9d59d	-0.090739466
11	0xbcd0041d	-0.025392586
12	0x3d7be464	0.061497107
13	0xbed67751	-0.41887906
14	0x3da5e9b9	0.0810122
15	0xbe225fde	-0.15856883
16	0xbd95bf48	-0.07311875
17	0x3da3d3ec	0.07999405
18	0xbe6c4689	-0.23073782
19	0xbde066af	-0.10957085
20	0xbe552424	-0.20814568
21	0xbd314f73	-0.04328866
22	0xbddfd6bb	-0.109296285
23	0xbeb90cf1	-0.36142686
24	0xbe95298e	-0.29133266
25	0xbf02f841	-0.51160055
26	0xbe61edbf	-0.22063349
27	0xbe2e29de	-0.17008159
28	0x3c76d024	0.015064273
29	0xbe680992	-0.22659901
30	0xbf06747a	-0.5252148
31	0xbde28212	-0.11059965
32	0xbe4e4b6a	-0.20145956
33	0xbe7575bd	-0.23970695
34	0xbda8a9b9	-0.08235497
35	0xbdff871d	-0.12476943
36	0xbdfe9f94	-0.12432781
37	0x3e41185c	0.18856949
38	0xbc56a157	-0.01309999
39	0x3dfeabf5	0.12435142
40	0xbd104c74	-0.03522916
41	0xbe75a89c	-0.239901
42	0x3bf69d5e	0.007526084
43	0x3dcbc7bd	0.099502064
44	0x3db31fa4	0.08746269
45	0x3c0bef81	0.008540989
46	0xbbbed602	-0.0058238516
47	0x3d8e5866	0.069504544
48	0xbcaaca5d	-0.020848447
49	0x3e49b577	0.1969813
50	0x3e677e57	0.22606789
51	0x3cb2963e	0.021800157
52	0x3f06a75e	0.5259913
53	0x3f1ca164	0.6118376
54	0xbece244c	-0.40262067
55	0x3ca51a1a	0.020154048
56	0x3d63525c	0.055498466
57	0xbe9819fb	-0.29707322
58	0x3ddc6191	0.10760797
59	0xbd3b3378	-0.04570338
60	0x3e2b084c	0.16702384
61	0x3d01d382	0.03169585
62	0xbe65ccba	-0.22441378
63	0x3d62e6a3	0.055395734
64	0xbe6e2abc	-0.2325849
65	0xbd857b26	-0.06517629
66	0x3ec96718	0.39336467
67	0x3db51983	0.088427566
68	0xbd9add46	-0.07561736
69	0xbdad7a5b	-0.08470603
70	0xbe91ff00	-0.28514862
71	0xbe87ad51	-0.26499417
72	0xbe498193	-0.19678335
73	0x3e203358	0.15644586
74	0x3e4bcb16	0.1990169
75	0x3ef6c48e	0.48196834
76	0x3ee4715f	0.44617745
77	0x3e979b9a	0.29610902
78	0x3e7d0620	0.24709368
79	0x3e2f65f2	0.17128733
80	0xbe1ab23b	-0.15107052
81	0xbb15c1ac	-0.0022851033
82	0xbd76d878	-0.060265034
83	0xbcaafc84	-0.020872362
84	0x3d3d2a70	0.04618305
85	0x3dc7824f	0.09741651
86	0x3bee784f	0.0072775255
87	0xbe3f68f0	-0.18692374
88	0x3e40e57d	0.18837543
89	0x3e1752c6	0.1477767
90	0x3da8af23	0.0823653
91	0x3e186a50	0.14884305
92	0xbd87ed9e	-0.06637119
93	0xbe3e8e6d	-0.18609019
94	0xbc79f43c	-0.015255984
95	0xbe1aafc9	-0.15106119
96	0xbe0ee0e6	-0.1395298
97	0x3cb5d24e	0.022195008
98	0x3e951eb5	0.2912499
99	0xbe976aa8	-0.2957356
100	0x3dd471ca	0.10373266
101	0x3df51490	0.119668126
102	0xbeea58ab	-0.45770773
103	0xbec1283a	-0.37726003
104	0xbd8b386d	-0.06797872
105	0x3bb4914c	0.005510485
106	0xbc70fd15	-0.014708777
107	0xbd9521ad	-0.07281814
108	0xbe6b6554	-0.22987872
109	0x3d94bb2c	0.07262263
110	0xbe1ea0b8	-0.15490997
111	0xbd996109	-0.07489211
112	0x3c76f7be	0.015073715
113	0x3e51fd2f	0.20506738
114	0xbbfabef4	-0.007652158
115	0x3d6923ef	0.056919035
116	0xbe0b9d48	-0.13634217
117	0x3e33b74f	0.17550395
118	0x3e912ad3	0.28352985
119	0x3e953f63	0.29149923
120	0xbde4b3cf	-0.11167108
121	0x3d5e1af7	0.054224934
122	0x3da58bfd	0.08083341
123	0x3d0eddc8	0.034879476
124	0xbf49007c	-0.78516364
125	0x3b9a16b6	0.0047024144
126	0x3d9640ac	0.07336554
127	0xbf10be64	-0.56540513
128	0x3d09a1e5	0.03360166
129	0x3d0372b7	0.032091822
130	0xbb353d23	-0.0027654849
131	0x3c4320d5	0.011909683
132	0xbca6beb7	-0.020354612
133	0xbd8602aa	-0.06543477
134	0xbe3cd835	-0.18441851
135	0x3bcf69cf	0.006329752
136	0x3e46edaf	0.19426607
137	0x3d960f46	0.07327132
138	0x3dde269c	0.10847208
139	0x3e00d159	0.1257986
140	0x3ea987bf	0.3311138
141	0x3b20131b	0.002442545
142	0x3e811639	0.25212267
143	0xbe529c1b	-0.20567362
144	0xbdac74a8	-0.08420688
145	0xbeab977f	-0.3351402
146	0xbf5427fe	-0.82873523
147	0xbd8a6105	-0.06756786
148	0x3e7cd335	0.24689944
149	0xbfb6e2aa	-1.4287922
150	0xbdb6ffc5	-0.08935503
151	0xbd802566	-0.06257133
152	0x3d031cc6	0.032009862
153	0x3d79a015	0.06094368
154	0x3c6cfa30	0.014463946
155	0x3e152fe4	0.1456905
156	0x3e14ee79	0.14544095
157	0x3b1da4c1	0.00240545
158	0xbdc482e5	-0.09595279
159	0xbc6e44ee	-0.014542801
160	0xbcf84464	-0.030306049
161	0x3bc73ec8	0.006080482
162	0xbe411579	-0.18855847
163	0xbe7941e6	-0.24341545
164	0xbb103254	-0.0022002654
165	0xbe4fa3dd	-0.20277353
166	0xbe29484c	-0.16531485
167	0xbe968a99	-0.29402617
168	0xbe053c8e	-0.13011381
169	0xbc070729	-0.008241453
170	0x3e00d735	0.12582095
171	0xbdc54b71	-0.0963353
172	0x3df857d3	0.12126126
173	0xbf04280b	-0.516236
174	0xbe4e6c5d	-0.20158525
175	0x3d726f71	0.05918831
176	0x3cfb461b	0.030673077
177	0xbe2365f9	-0.15956868
178	0xbd92e8f4	-0.071733385
179	0xbe13c0db	-0.14429037
180	0x3e037df7	0.1284102
181	0x3e1a6021	0.15075733
182	0x3e28d922	0.1648908
183	0x3decfbe8	0.11571485
184	0xbe4c90a8	-0.19977057
185	0x3c59c51d	0.013291624
186	0xbdd128c6	-0.10212855
187	0xbdfa360c	-0.1221734
188	0xbdbbf272	-0.09177102
189	0x3e1a8763	0.15090708
190	0xbed499ba	-0.41523534
191	0xbeb0867d	-0.34477606
192	0x3d809a49	0.062794276
193	0xbebb4bf8	-0.36581397
194	0x3e53f373	0.20698337
195	0xbdcfde70	-0.101498485
196	0xbe8dc978	-0.2769277
197	0x3dbf9873	0.09355249
198	0xbe4073e5	-0.1879421
199	0x3cb278a9	0.02178605
200	0xbd21a526	-0.03946414
201	0xbe28b603	-0.16475682
202	0xbd94a340	-0.072577
203	0x3cb54a18	0.022130057
204	0x3dd6db50	0.10491049
205	0x3d8f6bfc	0.07003018
206	0xbdb42b5c	-0.08797333
207	0xbda95923	-0.082689546
208	0xbd08b406	-0.03337481
209	0xbcc019f7	-0.023449881
210	0x3e10454b	0.14088933
211	0xbd028c64	-0.03187217
212	0x3e45775c	0.19283813
213	0xbf0a3da4	-0.54000306
214	0xbe774eb5	-0.24151118
215	0xbaf072d0	-0.0018344764
216	0xc009d31e	-2.1535106
217	0x3e33cebd	0.17559333
218	0x3e263c25	0.16233881
219	0x3ce991d8	0.028511927
220	0xbe2560c2	-0.16150191
221	0x3d9ae4df	0.07563185
222	0xbd09c2b1	-0.033632938
223	0x3d98bc3b	0.07457777
224	0x3dfcaad3	0.1233727
225	0x3dd66eb7	0.10470336
226	0xbd57963f	-0.05263352
227	0xbe350919	-0.17679252
228	0xbe35d953	-0.17758684
229	0x3e2efe3d	0.17089172
230	0xbdb402cf	-0.08789598
231	0xbe94b968	-0.29047704
232	0xbdcf4769	-0.10121042
233	0x3db181bf	0.08667325
234	0xbea7326d	-0.3265566
235	0x3e2fe515	0.17177232
236	0x3f17e4f0	0.59333706
237	0x3e203db4	0.15648538
238	0x3c2d4427	0.010575331
239	0x3d9d416b	0.07678493
240	0x3dc669ff	0.09688186
241	0xbd53d0ff	-0.051712986
242	0x3e06fe86	0.1318303
243	0x3e39a2d7	0.18128525
244	0xbe6e896f	-0.23294614
245	0xbde96e79	-0.11398024
246	0xbe24c1c9	-0.16089548
247	0x3dda9a98	0.10674018
248	0xbe4dd53b	-0.20100872
249	0xbdfcf69a	-0.12351723
250	0x3e032c1f	0.128098
251	0x3c825d19	0.015913533
252	0xbc9b72a9	-0.018975573
253	0xbd05c570	-0.032658994
254	0xbe12070d	-0.14260502
255	0x3d64fb2b	0.055903595

shared.0.bias f4 [256]
0	0xbdcade3f	-0.09905671
1	0x3de3e07e	0.11126803
2	0x3db8bc32	0.090202704
3	0xbebb98c0	-0.36639977
4	0xbe1b5b86	-0.15171632
5	0x3cf9d3ba	0.030496467
6	0x3d821137	0.0635094
7	0xbebefbce	-0.37301487
8	0xbea00795	-0.31255785
9	0xbe881ff3	-0.26586875
10	0xbce0bdec	-0.027434312
11	0xbcdb2641	-0.02675164
12	0x3d42190b	0.047387164
13	0xbe9aaaaa	-0.3020833
14	0x3db2fd3d	0.087397076
15	0xbe94d466	-0.29068297
16	0xbe67f2be	-0.22651193
17	0xbe964c7e	-0.29355234
18	0x3cdabd13	0.026701486
19	0xbec751e2	-0.3892966
20	0x3dfa040c	0.12207803
21	0xbe2cb727	-0.16866742
22	0xbe38956b	-0.18025748
23	0xbe5e5ac4	-0.21714312
24	0x3dd2bcf0	0.10289943
25	0x3d3615b8	0.044454306
26	0x3e08f082	0.13372996
27	0xbed18ee0	-0.40929317
28	0xbedb5442	-0.4283772
29	0x3c000596	0.007813832
30	0xbea9e636	-0.3318345
31	0xbeb167d7	-0.34649536
32	0xbee4fd92	-0.4472471
33	0xbe9de574	-0.3083912
34	0x3af90438	0.001899845
35	0xbeddca0e	-0.43318218
36	0xbde68ea4	-0.11257675
37	0xbeab88bd	-0.3350276
38	0xbef30d88	-0.4747126
39	0xbeac0591	-0.33597997
40	0xbe9d77da	-0.30755502
41	0xbe4607bc	-0.19338888
42	0x3eb28a1c	0.34870994
43	0x3e87c622	0.2651835
44	0xbd5853fb	-0.052814465
45	0xbcef5c6f	-0.02921888
46	0xbc2bd444	-0.01048762
47	0xbd998d54	-0.07497659
48	0xbe80df4d	-0.25170365
49	0x3db87347	0.090063624
50	0xbe053693	-0.130091
51	0x3c18829c	0.009308483
52	0xbe2f7800	-0.1713562
53	0xbe2a09a8	-0.16605246
54	0xbec7bb00	-0.39009857
55	0xbe329877	-0.17440973
56	0x3d892491	0.066964276
57	0xbe8f59b2	-0.2799812
58	0x3c5ce143	0.013481441
59	0xbe077652	-0.1322873
60	0xbe91df8a	-0.2849086
61	0xbe12d94b	-0.14340703
62	0xbe52530e	-0.20539495
63	0x3e126136	0.14294896
64	0xbe064f93	-0.13116293
65	0xbedd8f04	-0.43273175
66	0xbe789a26	-0.24277553
67	0xbe75e786	-0.240141
68	0xbdb3371e	-0.08750747
69	0xbe1de3c9	-0.15418924
70	0xbdfb6dbf	-0.12276792
71	0xbea05ce0	-0.31320858
72	0xbe7d61b4	-0.24744302
73	0xbdcbb49b	-0.09946557
74	0x3d7fbe97	0.06243762
75	0xbca110a6	-0.019661259
76	0x3cb479e5	0.02203078
77	0xbd081296	-0.03322085
78	0xbe2b673f	-0.16738604
79	0xbea1afc1	-0.31579402
80	0xbe6f4744	-0.2336703
81	0xbed6a264	-0.4192077
82	0xbeff5926	-0.49872702
83	0x3e54bed1	0.20775916
84	0xbe0f5900	-0.13998795
85	0xbebbbe25	-0.36668506
86	0xbe6217b5	-0.22079356
87	0x3e1e4a6c	0.15458077
88	0x3c1092fe	0.008824108
89	0x3ebfee89	0.37486675
90	0x3d81a512	0.06330313
91	0xbd9aa094	-0.07550159
92	0xbefa7cc0	-0.48923302
93	0xbe1b8fe2	-0.15191606
94	0xbdf21086	-0.11819558
95	0x3d23854c	0.039922044
96	0xbee4a4b2	-0.44656903
97	0x3e2cb398	0.16865385
98	0xbd11f037	-0.035629477
99	0x3d68b952	0.05681736
100	0xbc3cd331	-0.011524961
101	0xbdf919a3	-0.12163093
102	0xbe1e5c24	-0.15464836
103	0xbe326d11	-0.17424418
104	0x3e0cafe2	0.13738969
105	0xbe0d19b6	-0.13779339
106	0xbeccf63a	-0.40031606
107	0xbd2ecc99	-0.04267559
108	0xbe4e963b	-0.20174496
109	0xbeafa1fe	-0.34303278
110	0xbea2d865	-0.3180572
111	0x3c5e140d	0.013554585
112	0x3ec8d64a	0.3922599
113	0xbde28329	-0.11060173
114	0xbecfb2ec	-0.40566194
115	0x3d72f8e8	0.059319407
116	0xbdd4c4d1	-0.10389102
117	0xbe3d01f3	-0.18457775
118	0xbd9e2493	-0.0772182
119	0xbda0f9db	-0.07860156
120	0xbe49a646	-0.19692335
121	0x3e14caba	0.14530459
122	0x3de2da3c	0.11076781
123	0xbe28a57a	-0.16469374
124	0x3e7a5623	0.24446921
125	0xbed83184	-0.42225277
126	0xbe1943ff	-0.14967345
127	0xbd2ceb6b	-0.0422167
128	0xbdeb1c54	-0.114800125
129	0xbe1621c0	-0.14661312
130	0xbd439d73	-0.047757577
131	0xbea9a5fa	-0.33134443
132	0x3e0d5416	0.13801607
133	0xbe59d43d	-0.21272369
134	0xbee84440	-0.4536457
135	0xbeb4788a	-0.35248214
136	0xbeaf4e1e	-0.34239286
137	0xbd8e4898	-0.0694744
138	0xbb13efdb	-0.0022573385
139	0x3db600d1	0.088868745
140	0x3e1b25f4	0.15151197
141	0x3e444797	0.19167934
142	0xbe926192	-0.28590065
143	0xbd1a3ee8	-0.03765765
144	0xbe7df96e	-0.24802181
145	0xbe1191e1	-0.14215805
146	0xbdfcc813	-0.12342849
147	0x3c797a4e	0.015226914
148	0xbe3c08df	-0.18362759
149	0xbef3a6b9	-0.47588137
150	0xbdaa0386	-0.08301453
151	0xbe43c639	-0.19118585
152	0xbd0e8c70	-0.0348019
153	0xbeee6578	-0.4656179
154	0x3da56549	0.08075959
155	0xbe3ec5b5	-0.18630107
156	0xbb0715c7	-0.0020612346
157	0xbe4d29b1	-0.20035435
158	0xbeabde56	-0.33568066
159	0xbea8ab77	-0.32943317
160	0xbe467f50	-0.19384503
161	0xbe035718	-0.12826192
162	0xbd693d71	-0.05694336
163	0xbeb77d58	-0.35837817
164	0xbe533372	-0.20625094
165	0xbd5f8835	-0.054573257
166	0xbe81a9d6	-0.25324887
167	0xbe9d151f	-0.30680177
168	0xbe745ad9	-0.2386278
169	0xbc87eb3a	-0.016591657
170	0xbe4e56e8	-0.2015034
171	0xbe95522d	-0.29164258
172	0x3df4f512	0.11960806
173	0xbe855d9f	-0.2604799
174	0xbdb92552	-0.090403214
175	0x3dce914b	0.10086306
176	0xbe877f46	-0.2646429
177	0xbe3e7720	-0.1860013
178	0xbe2ce852	-0.16885498
179	0xbe9ad3fb	-0.30239853
180	0xbe965bd1	-0.29366925
181	0x3e034165	0.12817915
182	0xbcc1d286	-0.023659956
183	0x3e13d0d2	0.14435127
184	0xbe6385a9	-0.22218956
185	0xbe1dac90	-0.15397859
186	0xbeca1203	-0.39466867
187	0xbeaf75fe	-0.34269708
188	0xbea71371	-0.3263202
189	0x3d86f471	0.06589592
190	0xbf28a74f	-0.6588029
191	0x3eaf3815	0.34222475
192	0xbdd3ebab	-0.103476845
193	0xbf1882c3	-0.59574527
194	0xbdbb3ef9	-0.091428705
195	0xbe8f6481	-0.28006366
196	0xbd9e7bea	-0.077384785
197	0x3e08b3b6	0.13349804
198	0xbc2d2297	-0.010567329
199	0xbda767fb	-0.081741296
200	0xbd9e4f27	-0.07729941
201	0x3c09d1fd	0.0084118815
202	0xbdf82105	-0.12115673
203	0xbe192271	-0.14954545
204	0xbeabcf83	-0.33556756
205	0xbd950bbe	-0.0727763
206	0x3ef93399	0.48672178
207	0xbcc0f17d	-0.02355265
208	0xbeb092f8	-0.34487128
209	0xbe1055d0	-0.14095235
210	0xbe081f5f	-0.13293217
211	0xbe06af75	-0.13152869
212	0x3df9b4ca	0.12192686
213	0xbe0048ad	-0.12527724
214	0xbd7516d6	-0.05983623
215	0x3d031ec7	0.032011773
216	0xbeaf91f2	-0.34291035
217	0x3e6d98b7	0.23202787
218	0x3ca0ca2c	0.019627653
219	0xbeae0abd	-0.33992568
220	0xbd0392ba	-0.03212235
221	0x3c94c935	0.01816235
222	0xbe4a4f64	-0.19756848
223	0xbdce5dd9	-0.10076494
224	0xbe608b9b	-0.21928255
225	0xbe803f48	-0.2504828
226	0xbe2c31a1	-0.16815807
227	0xbe3e83ca	-0.18604961
228	0x3d75fff8	0.060058564
229	0x3ce6781d	0.028133446
230	0xbe7a1ea0	-0.24425745
231	0xbecdcb6e	-0.40194267
232	0xbd33ab6b	-0.04386465
233	0xbe947527	-0.2899563
234	0xbbfc8abf	-0.0077069695
235	0xbecce82c	-0.40020883
236	0xbd50fc41	-0.051021818
237	0x3e059733	0.13045959
238	0x3d1228ab	0.035683315
239	0xbbd98b60	-0.0066389292
240	0xbeebd71e	-0.4606256
241	0xbea29a5d	-0.31758395
242	0xbe2cdaf3	-0.16880397
243	0xbe44dcc5	-0.19224842
244	0xbd51f3c5	-0.051257867
245	0x3e7b4719	0.2453884
246	0xbecdcca9	-0.40195206
247	0xbebc9374	-0.36831248
248	0x3da7fa3c	0.08202025
249	0x3e063343	0.13105492
250	0x3dc76f31	0.09738005
251	0x3d691178	0.056901425
252	0xbe934863	-0.28766164
253	0xbe670875	-0.2256182
254	0xbe3e32b2	-0.18574026
255	0xbe1da6ca	-0.15395656

shared.2.weight f4 [128, 256]
0	0x3c3a39d2	0.0113663245
1	0x3c67b982	0.01414335
2	0xbd724c55	-0.059154827
3	0xbc7fda4b	-0.01561601
4	0xbd1d2eaa	-0.03837458
5	0xbdb4e954	-0.08833566
6	0xbd538d1b	-0.05164824
7	0x3bb85491	0.0056253155
8	0xbd864acd	-0.06557236
9	0xbd88d195	-0.066805996
10	0x3d36f1f5	0.044664342
11	0x3d0e36b6	0.034720145
12	0xbd7bfbc6	-0.061519407
13	0x3d524029	0.05133072
14	0x3d2bd4c8	0.04195097
15	0xbc00c9a6	-0.007860577
16	0xbd82f4d1	-0.06394351
17	0xbdde549f	-0.10855984
18	0xbb0f0a52	-0.002182622
19	0xbcd0f4d5	-0.02550737
20	0x3d48ce2a	0.04902474
21	0xbd5cf45b	-0.053943973
22	0xbd444e2f	-0.047926124
23	0xbd79394a	-0.06084565
24	0xbd4e9a1e	-0.050439946
25	0xba30edae	-0.0006749284
26	0xbd6be6e7	-0.057593253
27	0xbd59712d	-0.05308645
28	0xbd7231e4	-0.05912961
29	0xbca801b3	-0.020508623
30	0xbd609cf6	-0.05483719
31	0xbbfa2c4c	-0.007634675
32	0xbd36cdf1	-0.044629995
33	0x3c9324d9	0.017961906
34	0xbcfbb6c0	-0.03072679
35	0xbd11b0e9	-0.035569105
36	0x3ce8dcb7	0.028425558
37	0xbc6f632e	-0.014611049
38	0xbda6cd1a	-0.08144589
39	0xbd4c8e91	-0.04994065
40	0x3d568e33	0.052381705
41	0x3c03af22	0.00803736
42	0xbc8cd348	-0.01719059
43	0x3b3dbd74	0.0028952034
44	0xbce5ab1f	-0.028035698
45	0xbd0786f0	-0.03308767
46	0xbd344c5e	-0.044018142
47	0xbd1dfc03	-0.038570415
48	0x3cc041d0	0.023468882
49	0xbd5cad2f	-0.0538761
50	0xbccf1733	-0.025279617
51	0x3d275d57	0.0408605
52	0xbd97d6d4	-0.07414022
53	0xbd7761c9	-0.06039599
54	0xbacf8633	-0.0015832841
55	0xbd49f498	-0.04930553
56	0x3d281cec	0.041043207
57	0xbd0cac56	-0.03434404
58	0x39f5a07c	0.00046849612
59	0xbcb9daa6	-0.022687268
60	0xbd92998a	-0.071581915
61	0xbcde4288	-0.027131334
62	0x3ce2f48a	0.027704496
63	0x3cf1bec8	0.029509917
64	0xbafbdac9	-0.0019214983
65	0xbd363545	-0.044484396
66	0xbd828780	-0.06373501
67	0xbd9ea036	-0.077454016
68	0x3bb1c86a	0.0054255025
69	0xbcfdd0df	-0.030983387
70	0x3caab6e2	0.020839158
71	0x3c871ac3	0.016492253
72	0xbd62482f	-0.05524462
73	0x3cce540a	0.025186557
74	0xbd5f622a	-0.054536976
75	0xbd85639c	-0.065131396
76	0xbd0ff9ee	-0.03515046
77	0xbcfd5992	-0.0309265
78	0x3ba04d81	0.0048920517
79	0x3c5bcd60	0.013415664
80	0x3b660b68	0.0035102013
81	0xbdc2eef6	-0.095182344
82	0x3c2a52f4	0.010395754
83	0xbda3b404	-0.0799332
84	0xbd076012	-0.033050604
85	0xbb50670c	-0.0031799702
86	0x3bc4773f	0.0059956606
87	0x3d386ee6	0.045027636
88	0xbd532c93	-0.05155618
89	0x3c51639d	0.012780097
90	0xbc699978	-0.014257781
91	0xbd840af0	-0.06447399
92	0xbc2dcb88	-0.010607608
93	0xbdb4d90d	-0.08830462
94	0xbd65b297	-0.05607852
95	0xbd9cc893	-0.07655444
96	0x3cce994e	0.025219586
97	0x3c7321fd	0.014839646
98	0xbcf682d2	-0.030091677
99	0x3c0524a8	0.008126415
100	0x3d1a0040	0.037597895
101	0xbd83f80d	-0.06443796
102	0xbdc46753	-0.0959002
103	0xbd067315	-0.032824595
104	0xbc9408b5	-0.018070558
105	0xbd0a8374	-0.03381677
106	0xbd2de330	-0.04245299
107	0x3c313551	0.010815934
108	0xbd1d2e6f	-0.03837436
109	0x3c13f414	0.009030361
110	0x3c9e5cfb	0.019331446
111	0xbd90dd04	-0.070734054
112	0xbdba9415	-0.09110276
113	0xbd2c1811	-0.04201514
114	0xbca83093	-0.020530974
115	0xbc142075	-0.0090409415
116	0xbd84b3a8	-0.06479579
117	0x3d93fc06	0.07225804
118	0x3aa44340	0.0012532249
119	0x3cf4c634	0.029879667
120	0xbd615eb1	-0.055021945
121	0xbd8a7846	-0.067612216
122	0x3cedb8e9	0.029018836
123	0x3c95ba17	0.018277211
124	0xbc2cd332	-0.0105484
125	0xbcc57464	-0.024103351
126	0xbd138f99	-0.036025617
127	0x3ced0169	0.028931336
128	0xbd3c8874	-0.04602857
129	0xbc99ca8c	-0.01877334
130	0x3b89d0f0	0.0042058155
131	0xbd10369b	-0.035208326
132	0xbd8ee49d	-0.06977198
133	0x3cca5778	0.024699911
134	0xbd9758b3	-0.07389965
135	0xbdb128dc	-0.086503714
136	0xbd7e8fb3	-0.06214876
137	0xbd8df427	-0.06931334
138	0x3cb366f2	0.021899674
139	0xbd6ea1e2	-0.058259852
140	0xbda1b5fc	-0.07896039
141	0x3c9f0b25	0.019414494
142	0xbcb5b422	-0.02218062
143	0xbd5ddc64	-0.05416526
144	0xbc356b40	-0.011072934
145	0xbc09cb0e	-0.008410228
146	0xba4e15f6	-0.0007861549
147	0x3d32ac44	0.043621317
148	0xbd7a720c	-0.06114392
149	0xbd855998	-0.06511229
150	0x3caa2515	0.020769635
151	0x3c47ab18	0.012186788
152	0xbbba0ce2	-0.0056778053
153	0x3b23a17e	0.0024968083
154	0x3d18d9d9	0.03731713
155	0xbca1d84c	-0.019756459
156	0xbd069e60	-0.032865882
157	0xbc057a7d	-0.008146879
158	0xbddeb02d	-0.108734466
159	0xbdac0964	-0.084002286
160	0xbd20dfb4	-0.03927584
161	0xbd24ee15	-0.040266115
162	0x3d2912bb	0.04127763
163	0xbce22395	-0.027604857
164	0x3d29053a	0.04126475
165	0xbd09ea43	-0.033670675
166	0x3ca27a76	0.019833785
167	0xbd9d0b8b	-0.07668217
168	0xbdc23987	-0.09483629
169	0x3c9f832f	0.019471733
170	0xbc0e605d	-0.008689967
171	0xbd849222	-0.06473185
172	0xbdd4ed63	-0.103968404
173	0xbd43654b	-0.047704022
174	0xbd0fa2db	-0.03506742
175	0xbd929ff3	-0.07159414
176	0xbcb483ef	-0.022035567
177	0x3d3eac01	0.046550754
178	0xbcde9200	-0.027169228
179	0xbd5ccf0c	-0.053908393
180	0xbbba4d88	-0.005685512
181	0x3c6cffeb	0.0144653125
182	0xbdceed5e	-0.10103868
183	0x3ba95a4f	0.0051682363
184	0x3d209028	0.039199978
185	0xbd822fa6	-0.063567445
186	0xbc2a187f	-0.010381817
187	0x3d510259	0.05102763
188	0xbbd580fe	-0.006515621
189	0xbdd90841	-0.105972774
190	0xbde7265d	-0.11286614
191	0xbcdedb55	-0.027204195
192	0xbd20aa86	-0.039225124
193	0xbc934b87	-0.01798035
194	0xbcea9e47	-0.028639926
195	0x3ce01baf	0.02735695
196	0x3b2ff8e8	0.002685124
197	0xbde65752	-0.11247124
198	0xbd5af612	-0.053457327
199	0xbdbeed9e	-0.09322666
200	0xbc2ff6ed	-0.010740024
201	0xbcd40de7	-0.025885535
202	0xbcc27dfc	-0.023741715
203	0xbc90d9bf	-0.017681954
204	0xbd807758	-0.06272763
205	0x3d31507a	0.04328964
206	0xbdb2d172	-0.08731355
207	0x3c35bc5a	0.01109227
208	0xbcb899de	-0.022534307
209	0x3cdf4fd9	0.027259754
210	0xbc969d15	-0.01838545
211	0xbc87795f	-0.016537366
212	0xbd44c81e	-0.04804241
213	0x3d0b76c1	0.0340488
214	0xbc9e62ba	-0.019334186
215	0xbd057e9f	-0.03259146
216	0xbd40c934	-0.047066882
217	0xba66468a	-0.0008784315
218	0xbd255734	-0.040366367
219	0xbd1b152c	-0.037861988
220	0xbc6c35fe	-0.01441717
221	0xbd1cad59	-0.038251255
222	0xbd9120b6	-0.07086317
223	0xbd4ab480	-0.049488544
224	0xbcadcaa0	-0.021214783
225	0xbd7d5999	-0.061853025
226	0x3d2eb149	0.04264954
227	0x3bab9506	0.005236271
228	0xbd27a7b0	-0.040931404
229	0xbc4fc07c	-0.012680169
230	0x3c9a91e9	0.018868404
231	0xbd0aa62e	-0.033849888
232	0xbc398d3b	-0.011325176
233	0x3d3315ff	0.04372215
234	0x3c4d1e20	0.012519389
235	0x3c04d159	0.008106553
236	0x3d2c46f5	0.042059857
237	0xbd353300	-0.04423809
238	0x3c7e62be	0.015526472
239	0xbdbfcc3e	-0.09365128
240	0xbcdf6b05	-0.02727271
241	0xbd26b6d3	-0.0407017
242	0x3cd8df24	0.02647359
243	0xbd16b8f3	-0.036797475
244	0xbc123bf1	-0.008925424
245	0x3c145e09	0.009055623
246	0x3d01b660	0.031668067
247	0x3bee709d	0.007276608
248	0xbd828882	-0.06373693
249	0xbd275770	-0.04085487
250	0xbc933117	-0.017967744
251	0xbcae5428	-0.021280363
252	0xbcf3e0b0	-0.029770225
253	0xbd04ee95	-0.032454092
254	0x3d68f8e6	0.056877993
255	0xbd8dfd6b	-0.06933101

shared.2.bias f4 [128]
0	0xbdc02969	-0.09382898
1	0xbce9ce6c	-0.028540812
2	0xbeaa9abf	-0.33321187
3	0xbe0dbeba	-0.13842288
4	0xbcdea89d	-0.02718001
5	0xbeaf680f	-0.34259078
6	0xbca52e2a	-0.020163614
7	0xbdeb72b2	-0.11496486
8	0xbeb98707	-0.3623583
9	0xbddff37d	-0.109351136
10	0xbec06f9a	-0.37585145
11	0xbcf7c027	-0.030242993
12	0xbece74ae	-0.40323395
13	0xbeb286d8	-0.34868503
14	0xbe33c8c8	-0.1755706
15	0xbe1a7a92	-0.1508582
16	0xbe61828b	-0.22022454
17	0xbdaced2a	-0.08443673
18	0xbdfa95b5	-0.122355856
19	0xbd2c4911	-0.04206187
20	0xbe35ca1d	-0.17752881
21	0xbe6e63d9	-0.23280276
22	0xbe284cf0	-0.164356
23	0xbebe169c	-0.37126625
24	0xbea6ea9d	-0.3260087
25	0xbe15086a	-0.14553991
26	0xbcd5f3b0	-0.026117176
27	0x3c3cf48f	0.011532917
28	0xbe857a84	-0.26070035
29	0xbd9280e4	-0.0715349
30	0xbdfb7ffb	-0.1228027
31	0xbe9cec4b	-0.30649027
32	0xbd910105	-0.070802726
33	0xbea0c993	-0.3140379
34	0xbdc5e1f8	-0.09662241
35	0xbdf64373	-0.12024584
36	0xbdfb06dc	-0.12257168
37	0xbd73ae60	-0.05949247
38	0xbdf4d823	-0.11955287
39	0xbe199884	-0.14999586
40	0xbd0f0d99	-0.034925077
41	0xbe37b525	-0.17940195
42	0xbe7ec200	-0.24878693
43	0xbe28b889	-0.16476645
44	0xbe1aa361	-0.15101387
45	0x3dfbbce6	0.12291889
46	0xbd9b48e9	-0.07582266
47	0xbe2376b5	-0.15963252
48	0xbd827828	-0.06370574
49	0xbdcf7a25	-0.10130719
50	0xbe21e619	-0.15810432
51	0xbbc20aa7	-0.00592168
52	0xbe26f80b	-0.16305558
53	0xbddaad4e	-0.106775865
54	0xbd9fea96	-0.078084156
55	0xbde71aa8	-0.11284381
56	0xbe95bedb	-0.29247174
57	0xbe31e4d3	-0.17372446
58	0xbd95bac8	-0.07311016
59	0xbe199f42	-0.15002158
60	0xbd0a7ccf	-0.033810433
61	0xbe9067d5	-0.28204218
62	0x3e8d2673	0.27568397
63	0x3cc93957	0.024563475
64	0xbd1fadd0	-0.03898412
65	0xbe012e0b	-0.1261522
66	0xbd70e82e	-0.058815174
67	0xbe15b472	-0.14619616
68	0xbd92f449	-0.071755
69	0xbdd5c491	-0.10437883
70	0xbe097b46	-0.13425931
71	0xbdf1607f	-0.11785983
72	0xbe55629e	-0.208384
73	0xbe9fcae8	-0.31209493
74	0xbd2d2fa0	-0.042281747
75	0xbe3b8b3c	-0.18314832
76	0xbe186249	-0.14881243
77	0xbdc32772	-0.09529008
78	0xbcca1cdd	-0.024671966
79	0x3cb8536e	0.02250072
80	0xbd7a0022	-0.061035283
81	0xbc40827d	-0.011749861
82	0xbe788c2a	-0.24272218
83	0x3ba54159	0.0050431904
84	0xbe0f0318	-0.13966024
85	0xbe22e3ce	-0.15907213
86	0xbd7aff91	-0.061278883
87	0xbd16f4c4	-0.03685452
88	0xbe183737	-0.14864813
89	0xbe3ce230	-0.18445659
90	0xbe09c605	-0.13454445
91	0x3c8b2397	0.016984744
92	0xbe9ef30c	-0.31044805
93	0xbd8bff8f	-0.06835853
94	0xbe1bf839	-0.15231408
95	0xbe846ed5	-0.25865808
96	0xbe3a3652	-0.18184784
97	0xbd385864	-0.04500617
98	0xbe5f06e4	-0.21779972
99	0xbdc4a7bb	-0.096023045
100	0xbdabf18d	-0.083956815
101	0xbd88020c	-0.066410154
102	0xbec01aac	-0.3752035
103	0x3c1ce499	0.009575986
104	0xbda0eec8	-0.07858044
105	0xbde361c0	-0.11102629
106	0xbefe6d4c	-0.49692762
107	0xbda28a1e	-0.079365
108	0xbe3ae476	-0.18251213
109	0xbe3d7ec7	-0.18505393
110	0xbe209892	-0.15683201
111	0xbce0fd71	-0.0274646
112	0xbe236826	-0.15957698
113	0xbe1f101d	-0.1553349
114	0xbd329dbe	-0.043607466
115	0xbd834d71	-0.06411255
116	0xbe4b9c65	-0.19883879
117	0xbe8f7590	-0.2801938
118	0xbde2833c	-0.11060187
119	0x3caf21c6	0.02137841
120	0xbe5a528a	-0.21320549
121	0xbd7883a8	-0.060672432
122	0x3e00e13a	0.12585917
123	0xbe002a2c	-0.12516087
124	0xbe1c7e5b	-0.15282576
125	0xbd6a748c	-0.057240054
126	0xbe1cd36c	-0.15315026
127	0xbe521cf1	-0.20518853

dice_policy.weight f4 [5, 128]
0	0x3cf6771c	0.030086093
1	0xbac488b2	-0.0014994352
2	0xbe256699	-0.16152419
3	0x3d787854	0.06066163
4	0x3b762a90	0.003756199
5	0xbe1bdcc5	-0.15220936
6	0xbdb1492c	-0.086565346
7	0x3e427fe2	0.18994096
8	0xbe7f4f1d	-0.24932523
9	0xbc9c0cef	-0.019049136
10	0xbcead0e1	-0.028664054
11	0xbdc8afdc	-0.097991675
12	0xbe8dafb1	-0.27673104
13	0xbe209393	-0.15681295
14	0xbe232774	-0.15933019
15	0xbd9cbe36	-0.07653467
16	0x3d75b677	0.059988465
17	0xbf139c96	-0.57660806
18	0xbc25668e	-0.010095252
19	0x3e1acfcd	0.15118332
20	0x3d39b415	0.045337755
21	0xbd50da54	-0.050989464
22	0xbea62107	-0.32447073
23	0xbde97407	-0.113990836
24	0x3cc66055	0.024215857
25	0xbe9e90ef	-0.3096995
26	0xbc66da33	-0.014090109
27	0xbd7007a0	-0.05860102
28	0x3d560d48	0.05225876
29	0xbdbcc7bc	-0.09217784
30	0x3d869d93	0.06573024
31	0x3db3b2cc	0.08774337
32	0xbd13da9b	-0.03609715
33	0x3d8d0895	0.068864025
34	0xbd6c3e60	-0.057676673
35	0x3d33c2aa	0.043886818
36	0xbd9d36f0	-0.07676494
37	0xbcbb96dc	-0.022899084
38	0xbdbb3339	-0.09140629
39	0xbd93425c	-0.071903914
40	0xbb995734	-0.004679585
41	0x3da8a16f	0.08233916
42	0x3df3c91b	0.11903592
43	0x3da19731	0.078901656
44	0xbd8ea78c	-0.06965551
45	0xbe5c11e6	-0.21491203
46	0xbab2902e	-0.0013623291
47	0xbd0d81b2	-0.034547515
48	0xbd9f3061	-0.077728994
49	0x3d9f9bbf	0.07793378
50	0x3e484049	0.19555773
51	0x3e9aebb3	0.3025795
52	0x3e01a581	0.12660791
53	0x3d313d96	0.043271624
54	0xbdc9dba9	-0.0985635
55	0xbcf1ed09	-0.029531972
56	0xbd04e34d	-0.032443333
57	0xbe02d2eb	-0.12775771
58	0xbe9214d1	-0.28531507
59	0xbe6a7a2d	-0.22898169
60	0xbd416509	-0.047215495
61	0x3dab01f2	0.083499804
62	0xbcec4411	-0.02884105
63	0x3f35330f	0.70781034
64	0xbe9777d8	-0.2958362
65	0xbd6e5cfe	-0.058194153
66	0x3d7b7e81	0.06139994
67	0xbda0143f	-0.07816362
68	0xbd5ada63	-0.053430926
69	0xbe2f634f	-0.17127727
70	0x3e0064e5	0.12538488
71	0xbd113582	-0.03545142
72	0x3e234983	0.15946011
73	0xbdc6ffa7	-0.097167306
74	0x3e31be49	0.17357744
75	0x3d9fc8f5	0.078020014
76	0x3be8e98f	0.0071079205
77	0x3cdfcfcc	0.027320765
78	0xbc9d71ad	-0.019219244
79	0xbdfd225b	-0.123600684
80	0xbd57c7e3	-0.05268086
81	0xbe0bc6d6	-0.13650069
82	0xbddd763b	-0.10813566
83	0xbd9494b6	-0.07254927
84	0x3d3aecaf	0.045635875
85	0xbc8b51a1	-0.017006697
86	0x3ba55a1d	0.0050461427
87	0xbc6307e7	-0.0138568645
88	0xbdcb68f0	-0.099321246
89	0x3f114a47	0.56753963
90	0xbdc7d005	-0.097564735
91	0xbe042d4c	-0.12907904
92	0x3e613d48	0.21996033
93	0xbdbf325e	-0.09335779
94	0xbd451491	-0.048115317
95	0xbcb5b877	-0.022182686
96	0x3d22ceac	0.03974788
97	0x3d362653	0.044470143
98	0xbe8fd6cf	-0.28093573
99	0xbe5d217b	-0.21594803
100	0xbdad3f80	-0.08459377
101	0xbd95f009	-0.07321174
102	0xbd994c11	-0.07485212
103	0x3c871111	0.01648763
104	0xbd4cf7b0	-0.0500409
105	0xbd3ac143	-0.045594465
106	0xb713a2b0	-8.799761e-06
107	0xbc67b86e	-0.014143093
108	0x3d96855a	0.073496535
109	0xbde95a20	-0.11394143
110	0x3d6e0555	0.058110554
111	0xbd40fcd3	-0.047116112
112	0x3e5034eb	0.20332687
113	0x3d2fd9e4	0.042932406
114	0xbd493869	-0.049126063
115	0xbd5aa735	-0.053382117
116	0x3da0cbc9	0.07851369
117	0xbda1665a	-0.0788085
118	0xbcb2729f	-0.021783171
119	0x3dcf1182	0.10110761
120	0xbe0771ed	-0.13227053
121	0xbdfacd14	-0.12246147
122	0xbe517030	-0.20452952
123	0x3d3f3008	0.046676666
124	0x3d24c25e	0.040224425
125	0xbd7e0f2e	-0.062026195
126	0xbe51d8ec	-0.20492905
127	0xbe02989e	-0.12753531
128	0xbd8d687f	-0.06904697
129	0x3f147703	0.579941
130	0xbe0b2c79	-0.13591184
131	0x3e0b3a31	0.13596417
132	0x3b3f80f5	0.0029221151
133	0xbeb8cc20	-0.36093235
134	0x3dd62032	0.104553595
135	0x3debb4d6	0.11509101
136	0xbdb84cf3	-0.08999052
137	0xbdc1d670	-0.09464729
138	0xbd0000c3	-0.031250726
139	0x3d1c09d5	0.038095314
140	0xbe43d4fc	-0.19124216
141	0xbdd14ebf	-0.10220098
142	0xbef4821b	-0.47755513
143	0xbc86be9d	-0.016448313
144	0xbe25567e	-0.16146275
145	0xbe4a1805	-0.19735725
146	0xbd1cd878	-0.03829238
147	0x3d86e974	0.065874964
148	0x3eba5368	0.3639176
149	0x3dd43fac	0.10363707
150	0x39b3aaf0	0.000342689
151	0xbcb2a9b7	-0.021809442
152	0x3f24265e	0.64121044
153	0x3d9b4127	0.07580786
154	0xbc9543b8	-0.018220767
155	0xbe38b5b2	-0.18038061
156	0xbad4a71d	-0.001622412
157	0xbdaf8a36	-0.085712835
158	0x3d4f4d6b	0.05061094
159	0x3b681284	0.0035411427
160	0xbd561e9d	-0.05227529
161	0xbeea5e73	-0.45775184
162	0x3d300171	0.042970125
163	0x3ca012e0	0.01954025
164	0xbd069d5e	-0.03286492
165	0xbda7a153	-0.08185067
166	0x3dce15fb	0.10062786
167	0xbc336ed0	-0.010951713
168	0xbdb3a2f7	-0.087713175
169	0x3d415a5d	0.047205318
170	0x3c1deece	0.009639455
171	0x3e098c1f	0.13432358
172	0xbd0eaf2c	-0.034835026
173	0xbe339d3f	-0.17540453
174	0xbdbefad8	-0.093251884
175	0xbcf16c92	-0.029470716
176	0xbc44faea	-0.012022713
177	0xbca74ec1	-0.020423295
178	0x3a7a248a	0.0009542188
179	0x3e53e0b8	0.20691192
180	0x3ecbe4db	0.3982304
181	0xbce56765	-0.028003404
182	0xbd2afa54	-0.041742638
183	0xbca80172	-0.020508502
184	0xbe4fcec3	-0.20293717
185	0x3baeef05	0.005338552
186	0x3be1b339	0.00688782
187	0x3e5bcd1a	0.21464959
188	0x3d4be9c8	0.049783498
189	0xbc39ebf1	-0.011347757
190	0xbce23ecd	-0.027617836
191	0xbecff7dc	-0.4061879
192	0xbe29c2ff	-0.16578291
193	0xbe06bfe9	-0.13159145
194	0xbdae6eed	-0.08517251
195	0x3d251d0b	0.0403109
196	0x3dc32ce5	0.09530047
197	0xbd265fd2	-0.040618725
198	0xbe1f3492	-0.15547398
199	0xbc649e6d	-0.013953787
200	0x3e076c18	0.13224828
201	0xbe0fd461	-0.1404586
202	0xbdaf665f	-0.085644476
203	0xbd4a4335	-0.0493805
204	0xbc26795f	-0.010160773
205	0x3da9aace	0.082845315
206	0x3db2b8b5	0.08726636
207	0x3d208762	0.03919161
208	0xbdb45036	-0.088043615
209	0x3db7050b	0.08936509
210	0xbe1249c1	-0.14285947
211	0xbe418b47	-0.18900786
212	0xba77b196	-0.00094487646
213	0xbdde4e2a	-0.10854752
214	0xbdcc1be1	-0.09966255
215	0xbe2f905d	-0.17144914
216	0xbe7b76a7	-0.24556981
217	0x3d2cc1ec	0.042177126
218	0x3cb1e644	0.021716245
219	0xbe56c3d6	-0.20973143
220	0x3e539e95	0.20665963
221	0x3cf3b239	0.02974807
222	0xbd2f5e1b	-0.042814355
223	0x3cc4a9dc	0.024006777
224	0xbd70d0e7	-0.058792975
225	0xbcd03cef	-0.02541968
226	0xbdc84b04	-0.09779933
227	0xbe008f0e	-0.12554571
228	0x3f0f54af	0.5598859
229	0x3e110f81	0.1416607
230	0xbd20f844	-0.039299265
231	0x3b671a25	0.0035263386
232	0xbce3266b	-0.02772828
233	0xbc7ddfb1	-0.015495227
234	0xbce0c45d	-0.027437383
235	0xbd361e77	-0.044462647
236	0x3dbf7913	0.09349265
237	0x3d2eea93	0.042704176
238	0xbe471f13	-0.19445448
239	0x3d99ef58	0.07516354
240	0x3dfb0ff2	0.12258901
241	0xbe154a53	-0.14579134
242	0xbc69e91b	-0.014276768
243	0xbdd17713	-0.1022779
244	0x3d4e5f2c	0.05038373
245	0x3c6b574c	0.014364075
246	0xbca4fca3	-0.020139998
247	0xbc63989c	-0.013891365
248	0xbcf5eec8	-0.030021086
249	0xbdb8377f	-0.0899496
250	0xbe1c4b87	-0.15263186
251	0xbd425e2a	-0.047453083
252	0x3d4917e9	0.049095068
253	0xbe1d99cb	-0.15390699
254	0xbe939b41	-0.28829387
255	0xbdaeabee	-0.08528887

dice_policy.bias f4 [5]
0	0xbf086f5e	-0.5329493
1	0xbea23998	-0.31684566
2	0xbe924c23	-0.28573713
3	0xbdb5fc8d	-0.08886061
4	0x3e8c5624	0.2740947

category_policy.weight f4 [13, 128]
0	0x3bda7ddc	0.0066678356
1	0xbf7a5bbd	-0.9779623
2	0xbf0566ea	-0.5211016
3	0xbf1b9bb4	-0.6078446
4	0x3c80b1d4	0.015709795
5	0xbe05c288	-0.13062489
6	0xbe6837c9	-0.2267753
7	0xbe19a53f	-0.15004443
8	0xbeb1b76e	-0.34710258
9	0xbcc9ab94	-0.024617948
10	0xbeb4f767	-0.35345003
11	0xbdfcf38f	-0.123511426
12	0xbef18034	-0.47168124
13	0xbc34ce1a	-0.011035467
14	0xbf0082e0	-0.501997
15	0xbc4e7971	-0.012602196
16	0xbe7e60df	-0.24841641
17	0xbf117319	-0.5681625
18	0xbe5960c3	-0.21228318
19	0xbec3fa71	-0.3827701
20	0xbf2465a9	-0.6421762
21	0xbe32b7ef	-0.17452978
22	0xbf224d0c	-0.63398814
23	0xbf90ad88	-1.1302958
24	0xbf10b136	-0.565204
25	0xbed5b0eb	-0.4173654
26	0xbbef883c	-0.0073099416
27	0xbd8e0212	-0.06933989
28	0xbd34b030	-0.044113338
29	0xbcf7fd91	-0.030272277
30	0xbd77270a	-0.060339965
31	0xb8fb0a66	-0.000119705495
32	0xbeeea0e5	-0.46607128
33	0xbf045b94	-0.5170224
34	0xbdf4521d	-0.11929724
35	0xbdb0e1bc	-0.086368054
36	0xbdad7cd1	-0.084710725
37	0xbd8c5eb8	-0.06854004
38	0xbdb529b9	-0.088458486
39	0xbd18f64e	-0.03734427
40	0xbd9564c4	-0.0729461
41	0xbe9f259c	-0.3108338
42	0xbd2b95ef	-0.041891035
43	0xbe7f2790	-0.24917436
44	0xbdc39e60	-0.09551692
45	0xbfbffaff	-1.4998473
46	0xbd83e837	-0.06440776
47	0x3c283cd5	0.01026841
48	0xbdb9b37a	-0.090674356
49	0xbc9e11f6	-0.019295674
50	0xbf8e04df	-1.1095237
51	0xbec361c5	-0.3816053
52	0xbede52a7	-0.43422434
53	0xbd8afac1	-0.06786109
54	0xbcb78a20	-0.02240473
55	0xbc3bbae3	-0.0114581315
56	0xbe581f2f	-0.21105646
57	0xbdf54eac	-0.11977896
58	0xbe64eb5c	-0.22355407
59	0xbe828917	-0.25495216
60	0x3b4e44e8	0.0031474177
61	0x3cd9a219	0.026566552
62	0xbd813886	-0.06309609
63	0xbf09b6b6	-0.5379442
64	0xbee0cb22	-0.43904978
65	0xbcf625d8	-0.030047342
66	0xbd14fa57	-0.036371555
67	0xbeff72a2	-0.49892145
68	0xbc93cc18	-0.018041655
69	0xbeeb9332	-0.4601074
70	0xbf878dc7	-1.0590142
71	0x3cc073e7	0.023492767
72	0x3e45b0c5	0.19305713
73	0xbe98cfc3	-0.2984601
74	0xbf65e9d7	-0.89809936
75	0xbeb34698	-0.35014796
76	0xbce1ba23	-0.027554577
77	0xbda4442e	-0.08020817
78	0xbddc6c61	-0.10762859
79	0xbd9ac152	-0.07556404
80	0xbca84555	-0.020540873
81	0xbd45e260	-0.04831159
82	0xbe34d004	-0.17657477
83	0xbdb5f13a	-0.08883901
84	0xbf076cb7	-0.5290026
85	0xbd5effd4	-0.054443195
86	0xbd8a0eeb	-0.067411266
87	0xbf78fb1f	-0.9725818
88	0xbe38fdc1	-0.1806555
89	0xbf37aea5	-0.7175086
90	0xbd25a2a6	-0.040438317
91	0xbdd21b66	-0.10259132
92	0xbcca483f	-0.024692653
93	0x3d560760	0.052253127
94	0xbd64a691	-0.055822913
95	0xbf85d56a	-1.0455754
96	0xbf23ef37	-0.6403689
97	0xbdbdb18e	-0.092623815
98	0xbe44355b	-0.19160978
99	0xbdf367a3	-0.118850015
100	0xbf003a71	-0.50089175
101	0xbd728b69	-0.059214983
102	0xbd938d68	-0.072047055
103	0xbf35a607	-0.7095646
104	0xbcb02e75	-0.021506527
105	0xbd6ff184	-0.058579937
106	0xbe8d95d1	-0.27653363
107	0x3b27ed21	0.0025623518
108	0xbec52581	-0.38505176
109	0xbe3520fe	-0.17688367
110	0xbe80bb64	-0.25142968
111	0xbd87b4c2	-0.06626274
112	0xbe13385b	-0.14376967
113	0xbbb95206	-0.00565553
114	0xbe188ef3	-0.14898281
115	0x3c89fac0	0.0168432
116	0xbd2b53c3	-0.04182793
117	0xbf0af211	-0.54275614
118	0xbdc8a4b9	-0.09797043
119	0x3cb71805	0.02235032
120	0xbe80f08e	-0.2518353
121	0xbc86bcc2	-0.016447429
122	0xbd9ee707	-0.07758909
123	0xbcb86e4d	-0.022513533
124	0xbe19668b	-0.14980523
125	0xbd47323e	-0.0486319
126	0xbf0cbee0	-0.5497875
127	0xbe4e9fec	-0.20178193
128	0xbce19e9a	-0.027541447
129	0xbf5b289d	-0.85608846
130	0xbe079e06	-0.13243875
131	0xbf182651	-0.59433466
132	0xbd93991c	-0.07206938
133	0xbe9641ce	-0.2934708
134	0xbda22200	-0.07916641
135	0xbe334b56	-0.17509207
136	0xbf83d174	-1.0298295
137	0xbbe7a833	-0.0070696115
138	0xbe3252e1	-0.17414428
139	0xbd4914a1	-0.04909194
140	0xbe9bc769	-0.30425575
141	0x3d8d38a4	0.06895569
142	0xbe386154	-0.18005878
143	0x3b9ac536	0.0047232164
144	0xbe98019f	-0.29688737
145	0xbf0ff00f	-0.56225675
146	0xbeab2fba	-0.3343485
147	0xbeb53c9c	-0.35397804
148	0xbf8c3649	-1.0954067
149	0xbdc95a8d	-0.09831724
150	0xbf241406	-0.64093053
151	0xbf4c1d41	-0.7973214
152	0xbf0d2cb5	-0.5514634
153	0xbf217e28	-0.63083124
154	0xbbf868a7	-0.007580835
155	0xbe27f011	-0.16400172
156	0xba3da3e6	-0.00072342006
157	0x3c53cd4c	0.012927365
158	0x3c9b8b41	0.0189873
159	0xbc4527eb	-0.012033443
160	0xbeba9614	-0.36442626
161	0xbf174568	-0.5909028
162	0xbd19ffb2	-0.037597366
163	0xbd290acd	-0.041270066
164	0xbe436ddd	-0.19084878
165	0xbd993b19	-0.07481975
166	0xbe5e892e	-0.21732017
167	0xbd37efd3	-0.04490645
168	0x3cc346c8	0.023837462
169	0xbda2ce3b	-0.079494916
170	0xbeda380b	-0.42620882
171	0xbe2dc773	-0.16970615
172	0xbe09cf89	-0.13458075
173	0xc00939f7	-2.144163
174	0xbda96043	-0.082703136
175	0x3d356b72	0.04429192
176	0xba3f8d2e	-0.0007307109
177	0xbd3faa3d	-0.04679321
178	0xbfaa0bb8	-1.3284826
179	0xbeea7ee4	-0.45799935
180	0xbf28b77e	-0.65904987
181	0xbda48636	-0.08033411
182	0xbdd96fdb	-0.10617038
183	0xbd919a1f	-0.071094744
184	0xbdf947dd	-0.1217191
185	0xbd30c730	-0.04315871
186	0xbe6a8431	-0.2290199
187	0xbebef0bf	-0.3729305
188	0xbba5c3e8	-0.0050587542
189	0xbd722a60	-0.059122443
190	0x3ae27b03	0.0017279092
191	0xbf34e3fd	-0.7066038
192	0xbefb617f	-0.4909782
193	0xbe094088	-0.13403523
194	0x3ccc5ab0	0.024945587
195	0xbf157813	-0.58386344
196	0xbd0ba512	-0.03409297
197	0xbe6eedaf	-0.23332857
198	0xbf4cccc6	-0.7999996
199	0x3cd5c2f0	0.02609393
200	0xbe22dedc	-0.15905327
201	0xbed2d108	-0.41175103
202	0xbf4cd3ca	-0.80010664
203	0xbecb6544	-0.39725697
204	0x3d18c933	0.037301254
205	0x3cd46f15	0.025931874
206	0xbd2b70be	-0.041855566
207	0xbe9f7a9a	-0.31148225
208	0xbcb0d542	-0.021586064
209	0xbd084e4e	-0.033277802
210	0xbe0d921a	-0.13825265
211	0xbdfbc7da	-0.12293978
212	0xbead294c	-0.3382057
213	0xbd267816	-0.040641867
214	0xbce8ba7f	-0.02840924
215	0xbf34449f	-0.7041721
216	0xbe26d9bf	-0.16294001
217	0xbf1e7d84	-0.6191027
218	0xbde76c32	-0.112999335
219	0xbe498b30	-0.19682002
220	0xbd67bb8b	-0.05657534
221	0xbdd940ad	-0.10608039
222	0xbd872e43	-0.066006206
223	0xbf8756b8	-1.057334
224	0xbf27693c	-0.6539495
225	0xbd0a26ef	-0.033728536
226	0xbe8723dd	-0.2639455
227	0xbdd7282a	-0.105057076
228	0xbe49283e	-0.19644257
229	0xbe5952a0	-0.21222925
230	0xbdad9f22	-0.08477618
231	0xbf0b0867	-0.54309696
232	0xbb0b5808	-0.0021262188
233	0x3cceb6d0	0.025233656
234	0xbea3deaf	-0.32005832
235	0xbd9fb021	-0.07797266
236	0xbec0ea68	-0.37678838
237	0xbec92c6b	-0.392917
238	0xbd2cd98d	-0.04219966
239	0xbe8acd0b	-0.2710956
240	0xbdae65a6	-0.08515482
241	0xbcdbe357	-0.026841803
242	0xbc9f3593	-0.019434726
243	0xbcfc7a55	-0.030820051
244	0xbe188198	-0.14893186
245	0xbf234d3e	-0.6378974
246	0xbdb73b71	-0.089468844
247	0x3d6b4229	0.057436142
248	0xbe844e7b	-0.25841126
249	0x3d0838d7	0.03325733
250	0xbd6de209	-0.058076892
251	0xbddff305	-0.10935024
252	0x3b29d23f	0.002591267
253	0xbda64d1d	-0.08120177
254	0xbed6b643	-0.4193593
255	0xbe2559bb	-0.1614751

category_policy.bias f4 [13]
0	0x3dcd2f2d	0.10018764
1	0xbdc518ae	-0.09623848
2	0x3e1e1d83	0.15440945
3	0x3e13d33b	0.14436047
4	0x3e3e9855	0.18612798
5	0xbe337104	-0.17523581
6	0xbc3332f8	-0.010937445
7	0xbe4e31ca	-0.2013618
8	0xbe70f0dc	-0.2352938
9	0x3eb15fb8	0.3464334
10	0xbe444c3c	-0.19169706
11	0xbeb74d8d	-0.35801354
12	0x3e91fd40	0.28513527

value.weight f4 [1, 128]
0	0x3d9850b9	0.074372716
1	0x3a83af51	0.0010046755
2	0x3d50b472	0.050953336
3	0x3d731420	0.059345365
4	0x3d427f8e	0.047484927
5	0xbd6da7e6	-0.05802145
6	0xbbfa8887	-0.00764567
7	0x3cdf6fdb	0.027275017
8	0xbd0aa12b	-0.033845108
9	0x3d182ce3	0.037152182
10	0xbd270481	-0.04077578
11	0xbd8ed445	-0.06974081
12	0x3d377846	0.044792436
13	0xbdb03c77	-0.08605283
14	0x3d62189c	0.05519925
15	0xbad0baa5	-0.0015924765
16	0xbc8fb90b	-0.01754429
17	0xbd4578d2	-0.048210926
18	0x3d117570	0.035512388
19	0x3d090619	0.03345308
20	0xbd506fe1	-0.050887946
21	0xbda74fcb	-0.08169516
22	0x3d652810	0.05594641
23	0xbda7163e	-0.08158539
24	0x3d989cb6	0.07451765
25	0xbcc9056b	-0.024538716
26	0xbd2f02ac	-0.042727157
27	0x3c96e0cd	0.01841774
28	0x3d445dfd	0.047941197
29	0xbb033f6a	-0.0020026811
30	0x3d62839b	0.05530129
31	0x3d7111a1	0.058854703
32	0x3bb0745e	0.005384966
33	0xbda05c6d	-0.07830129
34	0xbd3e918d	-0.046525527
35	0xbd0941ed	-0.033510137
36	0x3d5b4fbc	0.053542838
37	0xbd1e8068	-0.038696676
38	0x3c9d6472	0.019212935
39	0x3d9ccec6	0.076566264
40	0xbdb37fce	-0.08764611
41	0xbd5bff11	-0.053710047
42	0xbd6c67a2	-0.05771602
43	0x3d275260	0.040850043
44	0x3d486134	0.048920825
45	0x3d3efa8e	0.046625666
46	0x3c4738c8	0.012159534
47	0x3d0ee395	0.034885008
48	0x3c7612fe	0.0150191765
49	0xbcc1e126	-0.02366693
50	0x3db4d444	0.08829549
51	0xbc30f860	-0.010801405
52	0x3d97533b	0.07388922
53	0xbce68294	-0.028138436
54	0x3d43758c	0.047719523
55	0xbd6acf53	-0.057326626
56	0x3cdeb950	0.027187973
57	0xbca46ee2	-0.020072404
58	0x3cbadc15	0.022810021
59	0xbd7f046e	-0.062260084
60	0xbd2ca7cc	-0.04215221
61	0xbd6e989a	-0.058251
62	0xbd988926	-0.07448034
63	0x3c1fda2b	0.009756605
64	0x3dae77be	0.08518933
65	0xbc5b13e9	-0.013371446
66	0xbd640087	-0.055664565
67	0xbd5a5b1c	-0.053309545
68	0x3cf142ed	0.029450858
69	0x3d05138b	0.03248934
70	0xbc560bf5	-0.013064374
71	0xbcc45f6d	-0.023971284
72	0x3d570323	0.052493226
73	0xbd65d61a	-0.056112386
74	0x3db012d2	0.0859734
75	0x3d3b2679	0.045690987
76	0xbda3f8ab	-0.08006414
77	0xbcd423db	-0.025896003
78	0x3cf61890	0.03004101
79	0xbd718dbc	-0.05897306
80	0x3cd932d5	0.026513496
81	0x3d5d06a9	0.05396143
82	0x3d0b9675	0.034079034
83	0xbda9a818	-0.082840145
84	0xbd2ad72f	-0.04170912
85	0xbda110fe	-0.07864569
86	0x3d4d3830	0.050102413
87	0x3d601042	0.054703005
88	0xbd383dfa	-0.04498098
89	0xbbaa4774	-0.005196506
90	0x3c87216e	0.016495433
91	0x3cc6b84a	0.024257798
92	0x3c826d57	0.015921278
93	0xbd8e4d9b	-0.06948396
94	0x3ce3e16f	0.027817456
95	0xbcb481bd	-0.02203452
96	0xbd045286	-0.032305263
97	0xbb24c4b0	-0.002514165
98	0x3c9fd763	0.019511884
99	0x3cf1188b	0.029430648
100	0xbd266abe	-0.04062914
101	0xbd4d3f48	-0.050109178
102	0xbd45e557	-0.04831442
103	0xbd5d4639	-0.054022048
104	0x3d5a98b5	0.05336829
105	0x3d2270ce	0.03965836
106	0xbcd8a619	-0.026446389
107	0x3bfd16c7	0.0077236625
108	0xbc7cb6f7	-0.015424482
109	0xbb752003	-0.0037403114
110	0xbc9191da	-0.017769743
111	0xbd73899b	-0.059457403
112	0x3db14ed3	0.08657613
113	0x3d4f4778	0.050605267
114	0xbb880ffe	-0.004152297
115	0xbd2f73e8	-0.042835146
116	0x3d0ea419	0.034824464
117	0x3daca138	0.084291875
118	0x3d558503	0.052128803
119	0xbd3d3659	-0.046194408
120	0x3d8d8a6f	0.0691117
121	0xbd626f25	-0.055281777
122	0x3ccce76f	0.0250127
123	0xbda6056e	-0.081065044
124	0x3d022164	0.031770125
125	0x3ccd6ade	0.025075372
126	0x3d4570f7	0.048203435
127	0xbd00d986	-0.031457447

exp_avg f4 [256, 23]
0	0xb8ced080	-9.8616816e-05
1	0xb9387ac4	-0.00017593341
2	0xb96ac6b0	-0.00022389996
3	0xb932da1e	-0.00017056658
4	0xb99f54c7	-0.00030390007
5	0x00000000	0.0
6	0x80000004	-6e-45
7	0x00000004	6e-45
8	0x00000004	6e-45
9	0x00000004	6e-45
10	0x00000004	6e-45
11	0x00000004	6e-45
12	0xba1d2d4d	-0.0005995825
13	0x00000004	6e-45
14	0x9ab15dd1	-7.335705e-23
15	0x00000004	6e-45
16	0x00000004	6e-45
17	0x1b409acf	1.5931889e-22
18	0x00000004	6e-45
19	0x00000000	0.0
20	0x00000004	6e-45
21	0x00000000	0.0
22	0x00000000	0.0
23	0x96a09d04	-2.5948485e-25
24	0x1820738f	2.0737857e-24
25	0x187c6cfa	3.2625256e-24
26	0x188c6a4c	3.6296484e-24
27	0x980c74af	-1.8153486e-24
28	0x00000000	0.0
29	0x00000004	6e-45
30	0x00000004	6e-45
31	0x80000004	-6e-45
32	0x00000004	6e-45
33	0x00000004	6e-45
34	0x80000004	-6e-45
35	0x80000004	-6e-45
36	0x80000004	-6e-45
37	0x98faf549	-6.487116e-24
38	0x81e92120	-8.5638214e-38
39	0x821b6b69	-1.1418427e-37
40	0x00000004	6e-45
41	0x00000004	6e-45
42	0x00000000	0.0
43	0x00000000	0.0
44	0x00000000	0.0
45	0x00000000	0.0
46	0xb9fb9b0a	-0.00047989964
47	0xbb438aae	-0.0029837298
48	0xbb48b0fe	-0.0030623074
49	0xbaf31ce2	-0.0018548036
50	0x39c27c3a	0.0003709512
51	0x00000000	0.0
52	0x3949efdc	0.00019258208
53	0x39c9ed43	0.0003851448
54	0x371d555d	9.377804e-06
55	0x3913e803	0.00014105444
56	0x3a79aaa5	0.0009524024
57	0x3b214b64	0.0024611587
58	0x3bb9742b	0.0056596003
59	0xb70ccabc	-8.391853e-06
60	0x3ba40022	0.0050048986
61	0x3a03d1b7	0.00050285034
62	0x80000004	-6e-45
63	0xb5c882ba	-1.4939208e-06
64	0x3ba97450	0.0051713362
65	0x00000004	6e-45
66	0xb31baa33	-3.6243545e-08
67	0x00000000	0.0
68	0x00000000	0.0
69	0x36781941	3.696958e-06
70	0x35df6cc6	1.6646452e-06
71	0xb583075e	-9.762405e-07
72	0x35706670	8.9556033e-07
73	0xb6426f77	-2.8973134e-06
74	0x00000000	0.0
75	0xaf8e64c0	-2.5901237e-10
76	0x34ee49da	4.438469e-07
77	0x363f6c90	2.852441e-06
78	0x3703f96d	7.866282e-06
79	0x35cb44d0	1.5144706e-06
80	0x3400a4cf	1.1980886e-07
81	0xb7434bde	-1.164057e-05
82	0x368f2096	4.2655256e-06
83	0x36bbe61d	5.599823e-06
84	0x3751b8eb	1.2500425e-05
85	0x371b08bd	9.2407545e-06
86	0x35074ab3	5.040012e-07
87	0x370e0c6b	8.466751e-06
88	0x80000004	-6e-45
89	0x322d3154	1.0081141e-08
90	0x00000000	0.0
91	0x00000000	0.0
92	0x1cb97856	1.2273379e-21
93	0x1cc33935	1.2918805e-21
94	0x1cc33935	1.2918805e-21
95	0x1cee4e24	1.5769718e-21
96	0x1cb97856	1.2273379e-21
97	0x00000000	0.0
98	0x80000004	-6e-45
99	0x00000004	6e-45
100	0x80000004	-6e-45
101	0x1e080591	7.200931e-21
102	0x00000004	6e-45
103	0x00000004	6e-45
104	0x1de7d66e	6.1366906e-21
105	0x1e0ab14e	7.342325e-21
106	0x9bcdc844	-3.4043824e-22
107	0x00000004	6e-45
108	0x00000004	6e-45
109	0x1e90e5ff	1.5341717e-20
110	0x1ce0554d	1.4845126e-21
111	0x00000000	0.0
112	0x1bd9a28c	3.6004682e-22
113	0x00000000	0.0
114	0x00000000	0.0
115	0xbbfa3801	-0.0076360707
116	0xbc02bf8a	-0.007980237
117	0xbc4de742	-0.012567343
118	0xbb850835	-0.0040598162
119	0xbb7306e8	-0.0037082974
120	0x00000000	0.0
121	0x3a1742d8	0.00057701534
122	0xb89601e4	-7.1529095e-05
123	0xbc250eee	-0.01007436
124	0xad787e27	-1.4125179e-11
125	0x3b4ed943	0.0031562604
126	0xbcca4f29	-0.02469595
127	0x00000004	6e-45
128	0xa3ab9548	-1.860308e-17
129	0x2c3dd38d	2.697595e-12
130	0x3ce9e4aa	0.028551418
131	0x3c19e01b	0.00939181
132	0xa3a98306	-1.8378507e-17
133	0xbca3d88b	-0.020000717
134	0x00000004	6e-45
135	0x0000081b	2.908e-42
136	0x00000000	0.0
137	0x00000000	0.0
138	0xbb5d71ed	-0.003378983
139	0xb9f9470e	-0.0004754592
140	0xbae53853	-0.0017488099
141	0xbaacc721	-0.0013181904
142	0xbab5380d	-0.0013825909
143	0x00000000	0.0
144	0x2a617db3	2.0027625e-13
145	0x3368cca3	5.4202825e-08
146	0x36821993	3.877279e-06
147	0x38d68ca7	0.00010230514
148	0xb6933958	-4.387617e-06
149	0x352fc83f	6.5483977e-07
150	0x3a9940d3	0.0011692293
151	0x38b0c9fe	8.429958e-05
152	0xb3b12f47	-8.2508045e-08
153	0x39bb7f60	0.0003576232
154	0x3a05a9ee	0.0005098869
155	0xb46807e5	-2.1609556e-07
156	0xbc7dcced	-0.015490753
157	0x80000004	-6e-45
158	0x308e5778	1.035672e-09
159	0x00000000	0.0
160	0x00000000	0.0
161	0x80000004	-6e-45
162	0x80000004	-6e-45
163	0x80000004	-6e-45
164	0x80000004	-6e-45
165	0x80000004	-6e-45
166	0x00000000	0.0
167	0x00000004	6e-45
168	0x00000004	6e-45
169	0x00000004	6e-45
170	0x00000004	6e-45
171	0x00000004	6e-45
172	0x00000004	6e-45
173	0x00000004	6e-45
174	0x80000004	-6e-45
175	0x80000004	-6e-45
176	0x80000004	-6e-45
177	0x00000004	6e-45
178	0x00000004	6e-45
179	0x00000004	6e-45
180	0x80000004	-6e-45
181	0x00000004	6e-45
182	0x00000000	0.0
183	0x00000000	0.0
184	0x1a0775a2	2.801237e-23
185	0x195ae72e	1.1317022e-23
186	0x1a0775a2	2.801237e-23
187	0x19a34624	1.6882135e-23
188	0x18dd4fdb	5.7207794e-24
189	0x00000000	0.0
190	0x00000004	6e-45
191	0x00000004	6e-45
192	0x00000004	6e-45
193	0x00000004	6e-45
194	0x1a868e5b	5.565109e-23
195	0x1a21779c	3.339064e-23
196	0x00000004	6e-45
197	0x178bb6c9	9.028806e-25
198	0x00000004	6e-45
199	0x1b49d597	1.6695345e-22
200	0x80000004	-6e-45
201	0x00000004	6e-45
202	0x1a94030a	6.1216275e-23
203	0x00000000	0.0
204	0x00000004	6e-45
205	0x00000000	0.0
206	0x00000000	0.0
207	0xbd79d76e	-0.060996465
208	0xbd823e59	-0.06359548
209	0xbd84fda5	-0.06493691
210	0xbd742a90	-0.059610903
211	0xbd1078d5	-0.035271484
212	0x00000000	0.0
213	0x39c506be	0.0003757979
214	0x3a8808d3	0.0010378606
215	0xbc8fe85e	-0.017566856
216	0x2ce8abed	6.612924e-12
217	0xbcdc90c4	-0.026924498
218	0xbe24b552	-0.16084793
219	0xbddeaa1e	-0.10872291
220	0xbdadba5b	-0.0848281
221	0x3c9bd7c3	0.019023782
222	0xbbd814f0	-0.006594293
223	0xbd9d469d	-0.07679484
224	0xad6d5918	-1.3491673e-11
225	0xbe8d9b8a	-0.2765773
226	0x00000004	6e-45
227	0xa10951cb	-4.652566e-19
228	0x00000000	0.0
229	0x00000000	0.0
230	0xba7a1b66	-0.0009540826
231	0xbabb8dcc	-0.0014309227
232	0xbb1c4459	-0.002384445
233	0xba34856e	-0.00068863377
234	0xbae911f5	-0.0017781841
235	0x00000000	0.0
236	0xaa8c54c2	-2.4927808e-13
237	0xba7a006f	-0.0009536808
238	0xbb6e95b3	-0.0036405146
239	0xbb66664a	-0.0035156184
240	0xbb9c4047	-0.0047684046
241	0xbc3b8052	-0.011444168
242	0xbc3b8a63	-0.011446568
243	0xbc629b79	-0.013831013
244	0x34f55e60	4.5703473e-07
245	0xad0371b9	-7.471739e-12
246	0x00000004	6e-45
247	0x35755d88	9.140572e-07
248	0xbc4b2a04	-0.012400154
249	0x00000004	6e-45
250	0x329d0931	1.8281385e-08
251	0x00000000	0.0
252	0x00000000	0.0
253	0x00000004	6e-45
254	0x00000004	6e-45
255	0x00000004	6e-45
