checkpoints/yahtzee_pretrain_incremental_5000ep/checkpoint_ep949.pt (torch, 527013 bytes, 25 tensors)

shared.0.weight f4 [256, 23]
00000000: 7c2b c6bd 395a 68be 8ef5 73be 05ac 903d
00000010: ee71 a93e 9800 ddbd 0602 993d d62f 5dbd
00000020: ce35 47be 0a6b 09be 7ed8 11be 2da4 2d3c
00000030: 27f0 c83c c631 c6be dea2 7d3d 01ad 923b
00000040: 6212 913c 6704 253e 2b8f 16be af66 e0bd
00000050: 99d5 0cbe 734f 31bd bbd6 dfbd ed9c 4cbe
00000060: 0524 3bbe 56d7 6cbe 2b44 34be cd26 02be
00000070: 24d0 763c ec69 5fbe abad bfbe 2fc9 0dbe
00000080: b6f8 0abe 4fce 4bbe 60f3 d9bd 1895 2fbe
00000090: 558f bfbd 937b 043e e6eb db3c 6483 263e
000000a0: 744c 10bd bcd7 61be 5e9d f63b bdc7 cb3d
000000b0: a41f b33d 81ef 0b3c 863a 81bd 06c8 d1bc
000000c0: d489 8fbd de66 a23d d533 c83d 3e96 b23c
000000d0: 0ab2 083e 8260 a43e dcc4 5dbe 9dad f4bd
000000e0: 72ac cb3d 9324 9bbe ed39 1e3d d52e 343d
000000f0: 59a4 71bd d76d 9b3d 0e55 5cbe b3b2 783d
00000100: b1af 74be 267b 85bd 7ad7 823d 8319 b53d
00000110: 46dd 9abd 3796 9f3d efd6 c1bd a0ed b0bd
00000120: 0df2 c5bd df2e 593e 16cb 4b3e 20d8 903e
00000130: f149 3f3e 4b77 fc3d fabb b73e e00a 9d3e
00000140: 6ab0 61be c784 5f3d 507c adbd 495f 2cbd
00000150: a670 0e3e a27b 91bc ba3d 9a3c 6c66 27be
00000160: 1e27 373e 762e 87bd 23af a83d 506a 183e
00000170: 3dac cfbc 6e58 bebd 5a3b b53d a81d 99bd
00000180: fe9b aa3c 4ed2 b53c 5e08 563e 5aae 49bd
00000190: 4e69 623d 25c9 353e a3ca 51be 0930 70be
000001a0: c674 b4bc d0a5 5c3d 51aa 903d 1875 9bbd
000001b0: 15f7 c3bd 0dac 413d 1cba 60bc 0961 99bd
000001c0: 72ee 743d 2ffd 513e f4be fabb 9c10 a4bd
000001d0: 67aa d0bd f3c5 4d3d 515e 7d3d e5be b13d
000001e0: cfb3 e4bd 6917 2c3e 7b8f b53d 33d3 b63d
000001f0: c4d6 e2be 3c03 0f3e 9d56 073e b720 96be
00000200: 949c 533d 01ea 453e 92a2 403d 8bba 37bd
00000210: 64fa 34bc ac39 06bb d4d4 21be 260b 643e
00000220: afed 463e 460f 963d ad70 aa3c d62f 13bc
00000230: 2934 493d 072d 99bd face 593d 1b9c 52be
00000240: 4cbb cdbd 9f2f 8cbe 70d3 0dbf 403f 9fbd
00000250: 90d5 6c3e caca 14bf 6f41 68bc 25c5 41bd
00000260: 3bc8 2a3d b772 7f3d f4f0 0ebc 7fcc 223d
00000270: 739f 633d c1a4 1d3b 9a24 4c3c ee44 6ebc
00000280: 6444 f8bc ae1b b83d 15a4 ecbd c3cf 943c
00000290: 96ca 2f3e c59b 00be 4c48 29be 199d 32bd
000002a0: 72dc 2bbe 0c7f f1bd 57c7 183e bef3 9bbc
000002b0: e055 723d f9d0 a6be 8d5e f0bc e069 9f3d
000002c0: dd40 743d 2162 44be 17e3 083b a30c 45bd
000002d0: f77d 033e a15a 133e 22d9 283e e8fb ec3d
000002e0: f274 823c d421 cc3d fa5a 513d 377e 703d
000002f0: 2bb9 183d 6387 1a3e 868f 6dbe 08ce 87be
00000300: a6d0 f8bd afcd 8abe 5993 bc3d 609b d0bd
00000310: 5d7a a2be 80d9 d13d 09ae 50be 25a9 3ebd
00000320: 6148 bfbc 8003 06be b571 0fbd 184a b53c
00000330: 2b20 0e3e fc6b 8f3d 5c2b b4bd c6fd bcbd
00000340: fadc 7cbd f208 0bbe 78ee c5bc 977a 2fbe
00000350: 5c77 453e 06ed f0bd 6910 9cbe f05a 0fbb
00000360: fce1 38bf 0507 6c3e 8ce0 733e 5382 593c
00000370: 7e1d 08be 0ccf 043e 6824 2abd f2bb 063d
00000380: b44f 623d 66df 6c3d 8c2d 2c3d 36f2 9abd
00000390: 53d9 35be 3dfe 2e3e c2b7 69bd 79e3 70be
000003a0: c6c3 eabd da6a 7a3d 5bbd 97be 15e5 2f3e
000003b0: 38e4 653e fbe8 05bd e55e a6bd 13d6 bebc
000003c0: 12fc f03d 3de0 4fbe 0fe9 7d3d a11e c53d
000003d0: d463 05be 990f b7bd bf15 1cbe 4787 673c
000003e0: e17c 26be 9af6 fcbd 1738 9bbd 195d 823c
000003f0: a972 9bbc 9b46 d1bb 72e5 f4bd a454 b93d
-0.09676263 -0.22690667 -0.2382414 0.0706406 0.33094734 -0.10791129 0.07471089 -0.054000698
-0.19454119 -0.13419738 -0.14242741 0.010598225 0.024528576 -0.3870985 0.0619229 0.00447619
0.01770896 0.1611496 -0.14703052 -0.10957085 -0.13753356 -0.04328866 -0.109296285 -0.19981737
-0.18275459 -0.23129019 -0.17604129 -0.12710114 0.015064273 -0.2181775 -0.37437186 -0.13846277
-0.13571438 -0.19902919 -0.10642123 -0.17146719 -0.0935351 0.12937765 0.026845884 0.16261059
-0.03522916 -0.22054952 0.007526084 0.099502064 0.08746269 0.008540989 -0.063099906 -0.025608074
-0.070087105 0.079297766 0.09775511 0.021800157 0.13349167 0.3210488 -0.21657127 -0.119471766
0.09945001 -0.3030134 0.03862946 0.043989975 -0.058994625 0.0758931 -0.21516821 0.060717296
-0.23895146 -0.06517629 0.06388755 0.088427566 -0.07561736 0.07792323 -0.094648235 -0.08639073
-0.09665308 0.21209286 0.1990169 0.2828989 0.1868055 0.12327441 0.35885602 0.3067236
-0.22039953 0.054569986 -0.08470976 -0.04208306 0.1391016 -0.017759148 0.018828262 -0.16347665
0.17886016 -0.066006586 0.0823653 0.14884305 -0.025350684 -0.092942104 0.08849211 -0.074763596
0.020826336 0.022195008 0.2090163 -0.04923854 0.055276208 0.17752512 -0.20487456 -0.23455824
-0.022028338 0.05386907 0.07063735 -0.07590693 -0.095686115 0.04728322 -0.013716247 -0.07489211
0.05979771 0.20506738 -0.007652158 -0.080109805 -0.10188752 0.050237607 0.061857525 0.08678988
-0.11167108 0.16805805 0.08865257 0.08927002 -0.44304478 0.13966078 0.13216634 -0.29321834
0.051662996 0.19327547 0.04703004 -0.044855636 -0.011046026 -0.0020481152 -0.15803844 0.22269878
0.19426607 0.07327132 0.020805681 -0.008983573 0.04912201 -0.074792914 0.053175904 -0.20567362
-0.1004549 -0.27380082 -0.55400753 -0.07775736 0.23128343 -0.5812193 -0.014175757 -0.047307152
0.04169486 0.06236526 -0.00872444 0.039745804 0.055571984 0.00240545 0.012459898 -0.014542801
-0.030306049 0.089896545 -0.11554734 0.018165475 0.17167124 -0.12559421 -0.16531485 -0.04360685
-0.16783312 -0.117918104 0.14919792 -0.019037124 0.059163928 -0.32581308 -0.02934196 0.07783866
0.05963217 -0.19178058 0.002088731 -0.048107754 0.1284102 0.14390041 0.1648908 0.11571485
0.015924904 0.0996739 0.051112153 0.058714118 0.037285965 0.15090708 -0.23199281 -0.26524377
-0.121491715 -0.2711005 0.09207792 -0.101858854 -0.3173398 0.10246563 -0.20378889 -0.046548028
-0.023349943 -0.13087273 -0.03502055 0.022130057 0.13879459 0.07003018 -0.08797333 -0.09228091
-0.061734177 -0.13577631 -0.024161562 -0.17136608 0.19283813 -0.11763959 -0.3048127 -0.0021874271
-0.72219825 0.23049553 0.23816127 0.013275701 -0.132925 0.12969607 -0.041538626 0.032894082
0.055251792 0.057830237 0.042035624 -0.07565729 -0.17758684 0.17089172 -0.05706001 -0.23524274
-0.11463122 0.061137058 -0.29636654 0.17177232 0.2245034 -0.03269289 -0.081235684 -0.023295438
0.117668286 -0.20300384 0.06198984 0.096249826 -0.13026363 -0.08938522 -0.1524267 0.014131374
-0.16258575 -0.12351723 -0.07579058 0.015913533 -0.018975573 -0.0063865907 -0.11957826 0.09049347

shared.0.bias f4 [256]
00000000: 5384 a7bd 1ff4 313e 46ac 743d 74fb 16bd
00000010: 6c16 35bc 7468 b33d 29ea ff3c d0f4 1fbe
00000020: 7f37 c6bd 9fa2 8abe f441 e3bd 3c2c 393d
00000030: 8c0f 86bd ca90 9dbe fe14 303d e7f7 1abe
00000040: 54a4 78be 2b9e 0abe 4b47 0a3e 8fa3 93be
00000050: f5c9 013e 08d3 15bb 387f 63be 54e1 3dbe
00000060: 4466 8d3d 0162 d53d e571 953d 71be 3ebe
00000070: a4e5 9bbe d7c2 8e3d ce89 23be e7a3 9dbe
00000080: 69f9 4abe 2087 59be 83ec 0ebd ab7e 86be
00000090: b55d 18be b60d 51be f4a4 8dbe a768 86be
000000a0: 51ef 87be 91a5 9c3d 5398 8f3d 76a9 963e
000000b0: 543c a8bb ad05 c43d a237 93bd 436b 753d
000000c0: 341f 5bbe 5a5f 00be fab0 38bd b988 db3d
000000d0: 77d5 93bd 4e43 a5bd eaa6 95be 377d 40bd
000000e0: 99cb 073e 4bea 43be f1c5 123e 2b96 e5bd
000000f0: 87e4 2fbe b32a b1bc 5f94 bbbc 8110 383e
00000100: eb1c c5bc c727 38be 412c 1abe a5a7 b6bd
00000110: 5581 9ebd e26f fbbc b6b5 e13c a005 fcbd
00000120: 693a 3cbe 6427 21be 4309 16bd bb05 8bbe
00000130: 5f27 a6bc adbe d6bd d19c 11be 9064 5cbe
00000140: b33a 37be 2362 8dbe bfd6 34be 03d4 293e
00000150: b219 c33c 0996 0bbe a6a2 a5bd 0f96 8a3e
00000160: 16fd 1c3d 9c88 183e a3df fd3d 5f15 a7bc
00000170: 0d80 96be 5e96 28be fa6d 04bb a8c6 4c3e
00000180: 27f5 5cbe dd25 ae3d e147 e3bd 1882 873d
00000190: b58b f13b 5859 e4bc b050 603c 116d 32be
000001a0: c6c6 293e 6931 863d 0d7d 54be bea4 36bc
000001b0: 7f90 e8bd 7f60 9fbe 0863 48be 4186 1a3e
000001c0: dc91 5c3e a354 973d 2c71 94be c3a7 cc3d
000001d0: 0d84 59bc 2d90 f2bd 9324 9ebd 4567 fbbc
000001e0: b838 1fbe 3eae 2b3e 3310 433e 1c94 bfbd
000001f0: 3b3e 913d 4915 9cbe 8cb9 083e f2a2 61bc
00000200: b8a3 71bd 82f9 aabd bd65 b13d 6836 27be
00000210: 3962 99bd cbc9 d638 c486 95be e8b9 36be
00000220: 3e2f 49be 9848 8ebd 4a69 673c ccb5 433c
00000230: 61c2 423e d02a a93d 078a 34be 5bd5 ad3d
00000240: bab9 39be f245 fbbc 48b9 6d3a c1ba 703d
00000250: 059c 52be b01e 9abe b738 4ebd a3fc 1bbe
00000260: 5c7d ae3d 36e9 adbe 0958 253d 5c50 f4bd
00000270: d201 de3c 0de6 86be 6491 3ebe 38d9 7ebe
00000280: 4d40 73bd fe1f aabd 6d51 133b da60 96be
00000290: 7233 53be 38d3 283c 2ac9 f6bd 5532 76be
000002a0: 3620 393c 5e56 44bd 9e28 c2bd c1e1 4dbe
000002b0: accf fb3d 3bc2 84be ecfe f3bd e14c 1a3e
000002c0: 2686 14be 5def c6bd e739 5bbe 30a0 9bbe
000002d0: 4d18 86be 4d4e 223e ca36 a4bd 380f 333e
000002e0: 9217 af3c 0673 05be ecf4 48be 655c 80be
000002f0: 5699 3ebe a1b8 8139 9aab c0be ddb4 ad3e
00000300: 962e 46be 2dac a9be 082b 913c b6a6 90be
00000310: 9694 bb3c fc31 c73d 7c6d ad3b 2a2f b9bd
00000320: f7b2 e7bc 44cd ec3d c518 b7bd af0c 73bd
00000330: 5f63 02be 6f53 fa3c c0ad 073e 7df1 c0bc
00000340: 1a46 cfbd 3cd9 ebbd a05d 4a3c 96fa ccbd
00000350: 0104 8a3d 31f6 adbd 7bf6 c23c be05 b83c
00000360: 2227 8ebe d8f7 413e 5b6d c6bb 085e 43be
00000370: ff21 dc3d d1d8 393d b519 d5bc e131 92bb
00000380: 3ba3 38be 17b3 0bbe ede6 b7bd 4814 2cbd
00000390: e352 013e 77f6 953a 14d4 66be e8c8 36be
000003a0: 5b9d c13b 9b62 75be 56f8 d9bc b5ed a4be
000003b0: 97e6 5cbb c4e1 973e 26c8 173e 708d a23d
000003c0: 857f 8dbe b928 193c 7b24 07be 28de a4bd
000003d0: f16e c7bd bc99 5c3e b097 84be a16a 47be
000003e0: c1bf 96bd 05b5 9c3d a887 3d3e fee8 253e
000003f0: 1ece 18be b8f5 9fbe 7430 8fbd a607 a7bd
-0.08179536 0.17378281 0.059734605 -0.036860898 -0.011052709 0.08760157 0.031239586 -0.15620732
-0.09678554 -0.27077195 -0.11096564 0.0452082 -0.06545934 -0.30774528 0.04298877 -0.1513363
-0.24281436 -0.13536899 0.13503759 -0.28835723 0.12674697 -0.002286138 -0.22216499 -0.18542987
0.06904271 0.104190834 0.07297114 -0.18627335 -0.3044864 0.069707565 -0.15970537 -0.3078911
-0.19821705 -0.21242952 -0.034893524 -0.26268515 -0.14879496 -0.20415387 -0.27664912 -0.26251718
-0.2654977 0.07648767 0.070114754 0.29426163 -0.005134145 0.09571395 -0.071883455 0.059916746
-0.21398622 -0.12536374 -0.045090653 0.10719437 -0.072184496 -0.08069478 -0.29228908 -0.046994414
0.1326126 -0.19132344 0.14333321 -0.11210283 -0.1717702 -0.021626806 -0.022897897 0.17975046
-0.02406164 -0.17983924 -0.15055944 -0.089186944 -0.07739512 -0.030692998 0.027552467 -0.123057604
-0.18381657 -0.15737683 -0.036629926 -0.2715281 -0.020282445 -0.10485587 -0.14219977 -0.21522737
-0.17893486 -0.27613935 -0.17660044 0.16584782 0.023815963 -0.13631453 -0.08087663 0.2706761
0.0383273 0.14895862 0.12396171 -0.020395933 -0.2939457 -0.1646361 -0.0020207153 0.19997656
-0.21577893 0.085033156 -0.11097694 0.0661661 0.0073713907 -0.027874634 0.013691112 -0.17424418
0.16579732 0.06552393 -0.20750828 -0.011147676 -0.113556854 -0.31128308 -0.19569027 0.15090276
0.21540016 0.0738919 -0.28992593 0.099929355 -0.013276112 -0.118439056 -0.0772182 -0.030688891
-0.1554898 0.16765687 0.19049148 -0.093544215 0.07091948 -0.3048499 0.1335203 -0.013771759
-0.058994025 -0.08348371 0.08661983 -0.16329348 -0.074894376 0.00010241902 -0.2920438 -0.17844355
-0.19646928 -0.0694744 0.014124224 0.011945199 0.19019462 0.08260119 -0.17630778 0.0848796
-0.18137255 -0.030673001 0.00090684416 0.058771852 -0.20567329 -0.30101538 -0.050347056 -0.15233092
0.08520004 -0.33966988 0.04036716 -0.1192939 0.027100477 -0.2634739 -0.1861015 -0.2488755
-0.059387494 -0.08306883 0.0022478953 -0.29370767 -0.20625094 0.010304265 -0.12050088 -0.24042638
0.011299184 -0.04793393 -0.09480403 -0.2010565 0.1229547 -0.25929436 -0.11913857 0.1506839
-0.14504299 -0.09713624 -0.21408807 -0.3039565 -0.26190415 0.15850182 -0.08018263 0.17486274
0.021373544 -0.13032159 -0.1962468 -0.2507049 -0.1861318 0.00024742357 -0.37630922 0.3392705
-0.19353709 -0.33139172 0.017720714 -0.2825219 0.022898 0.09726331 0.0052925926 -0.09042199
-0.02828358 0.11562589 -0.08940271 -0.059338268 -0.1273322 0.030557362 0.13249874 -0.02355265
-0.10120793 -0.115160435 0.0123514235 -0.10008733 0.06739045 -0.08494223 0.023799172 0.022463676
-0.2776423 0.18942201 -0.0060555167 -0.19078839 0.10748672 0.045372788 -0.026013235 -0.0044615124
-0.18031017 -0.13642536 -0.089795925 -0.04201153 0.12629275 0.001144125 -0.22541839 -0.17850077
0.005908651 -0.23963396 -0.026607674 -0.32212606 -0.0033706778 0.29664433 0.14822444 0.07937133
-0.27636352 0.009348088 -0.1319751 -0.080501854 -0.09737957 0.2154302 -0.25896978 -0.1947427
-0.07360793 0.07651714 0.1850878 0.1620216 -0.14922377 -0.31242156 -0.069916636 -0.08155756

shared.2.weight f4 [128, 256]
00000000: d239 3a3c 82b9 673c 554c 72bd 153b db3c
00000010: aa2e 1dbd 54e9 b4bd 1b8d 53bd 9154 b83b
00000020: cd4a 86bd 95d1 88bd f5f1 363d b636 0e3d
00000030: c775 85bc 2940 523d c8d4 2b3d e53a 0b3d
00000040: d1f4 82bd f3e4 8abd 520a 0fbb d5f4 d0bc
00000050: 2ace 483d 5bf4 5cbd 2f4e 44bd 4a39 79bd
00000060: 1e9a 4ebd aeed 30ba e7e6 6bbd 2d71 59bd
00000070: e431 72bd b301 a8bc f69c 60bd 4c2c fabb
00000080: f1cd 36bd d924 933c c0b6 fbbc e9b0 11bd
00000090: b7dc e83c 2e63 6fbc 1acd a6bd 918e 4cbd
000000a0: 338e 563d 22af 033c 48d3 8cbc 74bd 3d3b
000000b0: 1fab e5bc f086 07bd 5e4c 34bd 03fc 1dbd
000000c0: d041 c03c 2fad 5cbd 3317 cfbc 575d 273d
000000d0: 549e f7bc c961 77bd 3386 cfba 98f4 49bd
000000e0: ec1c 283d 56ac 0cbd 7ca0 f539 a6da b9bc
000000f0: 8a99 92bd 8842 debc 8af4 e23c c8be f13c
00000100: c9da fbba 4535 36bd 8087 82bd 5635 1ebd
00000110: 0851 183d dfd0 fdbc e2b6 aa3c c31a 873c
00000120: 2f48 62bd 0a54 ce3c 2a62 5fbd 9c63 85bd
00000130: 74db 5dbb 57d3 5b3a 814d a03b 60cd 5b3c
00000140: 680b 663b f6ee c2bd f452 2a3c 04b4 a3bd
00000150: 1260 07bd 0c67 50bb 3f77 c43b e66e 383d
00000160: 932c 53bd 8739 633d 7899 69bc f00a 84bd
00000170: 88cb 2dbc 0dd9 b4bd 97b2 65bd 93c8 9cbd
00000180: 4e99 ce3c fd21 733c d282 f6bc a824 053c
00000190: 4000 1a3d 0df8 83bd 5367 c4bd 1573 06bd
000001a0: b508 94bc 7483 0abd 30e3 2dbd 5135 313c
000001b0: 6f2e 1dbd 14f4 133c fb5c 9e3c 04dd 90bd
000001c0: 720f 73bd 1118 2cbd 1ec7 b03c 7520 14bc
000001d0: a8b3 84bd 06fc 933d 4043 a43a 34c6 f43c
000001e0: b15e 61bd 4678 8abd e9b8 ed3c 17ba 953c
000001f0: 87d2 ff3c 6474 c5bc 998f 13bd 6901 ed3c
00000200: 7488 3cbd 8cca 99bc f0d0 893b 9b36 10bd
00000210: d679 dfbc 7857 ca3c b358 97bd dc28 b1bd
00000220: b38f 7ebd 27f4 8dbd f266 b33c e2a1 6ebd
00000230: fcb5 a1bd 250b 9f3c 22b4 b5bc 64dc 5dbd
00000240: 406b 35bc 0ecb 09bc f615 4eba 44ac 323d
00000250: 0c72 7abd 9859 85bd 1525 aa3c 18ab 473c
00000260: e20c babb 7ea1 233b d9d9 183d 4cd8 a1bc
00000270: 609e 06bd 7d7a 05bc 2db0 debd 6409 acbd
00000280: b4df 20bd 15ee 24bd bb12 293d 9523 e2bc
00000290: 3a05 293d 43ea 09bd 767a a23c 8b0b 9dbd
000002a0: 8739 c2bd 2f83 9f3c 5d60 0ebc 2292 84bd
000002b0: 63ed d4bd 5c47 6cbb dba2 0fbd f39f 92bd
000002c0: ef83 b4bc 01ac 3e3d 0092 debc 0ccf 5cbd
000002d0: 884d babb ebff 6c3c 99df 8dbd 4f5a a93b
000002e0: 2890 203d a62f 82bd 7f18 2abc 5902 513d
000002f0: fe80 d5bb c0f2 85bd fc17 92bd 55db debc
00000300: 86aa 20bd 874b 93bc 479e eabc af1b e03c
00000310: e8f8 2f3b 3d49 a5bd 12f6 5abd 9eed bebd
00000320: edf6 2fbc e70d d4bc fc7d c2bc bfd9 90bc
00000330: 47a6 fdbc 7a50 313d 0775 35bd 5abc 353c
00000340: de99 b8bc d94f df3c 159d 96bc 5f79 87bc
00000350: 1ec8 44bd c176 0b3d ba62 9ebc 9f7e 05bd
00000360: 34c9 40bd 8a46 66ba 3457 25bd 2c15 1bbd
00000370: fe35 6cbc 59ad 1cbd b620 91bd 80b4 4abd
00000380: 36ba b33c 9959 7dbd 49b1 2e3d 0695 ab3b
00000390: b0a7 27bd 7cc0 4fbc e991 9a3c 2ea6 0abd
000003a0: 3b8d 39bc ff15 333d 201e 4d3c 59d1 043c
000003b0: f546 2c3d 0033 35bd be62 7e3c 3ecc bfbd
000003c0: 056b dfbc d3b6 26bd 24df d83c f3b8 16bd
000003d0: f13b 12bc 095e 143c 60b6 013d 9d70 ee3b
000003e0: 8288 82bd 7057 27bd 1731 93bc 2854 aebc
000003f0: b0e0 f3bc 95ee 04bd e6f8 683d 6bfd 8dbd
0.0113663245 0.01414335 -0.059154827 0.026761571 -0.03837458 -0.08833566 -0.05164824 0.0056253155
-0.06557236 -0.066805996 0.044664342 0.034720145 -0.016291512 0.05133072 0.04195097 0.033991713
-0.06394351 -0.0678195 -0.002182622 -0.02550737 0.04902474 -0.053943973 -0.047926124 -0.06084565
-0.050439946 -0.0006749284 -0.057593253 -0.05308645 -0.05912961 -0.020508623 -0.05483719 -0.007634675
-0.044629995 0.017961906 -0.03072679 -0.035569105 0.028425558 -0.014611049 -0.08144589 -0.04994065
0.052381705 0.00803736 -0.01719059 0.0028952034 -0.028035698 -0.03308767 -0.044018142 -0.038570415
0.023468882 -0.0538761 -0.025279617 0.0408605 -0.030226864 -0.06039599 -0.0015832841 -0.04930553
0.041043207 -0.03434404 0.00046849612 -0.022687268 -0.071581915 -0.027131334 0.027704496 0.029509917
-0.0019214983 -0.044484396 -0.06373501 -0.038625084 0.037186652 -0.030983387 0.020839158 0.016492253
-0.05524462 0.025186557 -0.054536976 -0.065131396 -0.0033852728 0.0008385679 0.0048920517 0.013415664
0.0035102013 -0.095182344 0.010395754 -0.0799332 -0.033050604 -0.0031799702 0.0059956606 0.045027636
-0.05155618 0.055474784 -0.014257781 -0.06447399 -0.010607608 -0.08830462 -0.05607852 -0.07655444
0.025219586 0.014839646 -0.030091677 0.008126415 0.037597895 -0.06443796 -0.0959002 -0.032824595
-0.018070558 -0.03381677 -0.04245299 0.010815934 -0.03837436 0.009030361 0.019331446 -0.070734054
-0.0593409 -0.04201514 0.021579321 -0.0090409415 -0.06479579 0.07225804 0.0012532249 0.029879667
-0.055021945 -0.067612216 0.029018836 0.018277211 0.031228317 -0.024103351 -0.036025617 0.028931336
-0.04602857 -0.01877334 0.0042058155 -0.035208326 -0.027279776 0.024699911 -0.07389965 -0.086503714
-0.06214876 -0.06931334 0.021899674 -0.058259852 -0.07896039 0.019414494 -0.02218062 -0.05416526
-0.011072934 -0.008410228 -0.0007861549 0.043621317 -0.06114392 -0.06511229 0.020769635 0.012186788
-0.0056778053 0.0024968083 0.03731713 -0.019756459 -0.032865882 -0.008146879 -0.108734466 -0.084002286
-0.03927584 -0.040266115 0.04127763 -0.027604857 0.04126475 -0.033670675 0.019833785 -0.07668217
-0.09483629 0.019471733 -0.008689967 -0.06473185 -0.103968404 -0.0036053276 -0.03506742 -0.07159414
-0.022035567 0.046550754 -0.027169228 -0.053908393 -0.005685512 0.0144653125 -0.069274135 0.0051682363
0.039199978 -0.063567445 -0.010381817 0.05102763 -0.006515621 -0.065404415 -0.07133481 -0.027204195
-0.039225124 -0.01798035 -0.028639926 0.02735695 0.002685124 -0.0807061 -0.053457327 -0.09322666
-0.010740024 -0.025885535 -0.023741715 -0.017681954 -0.030963076 0.04328964 -0.04430106 0.01109227
-0.022534307 0.027259754 -0.01838545 -0.016537366 -0.04804241 0.0340488 -0.019334186 -0.03259146
-0.047066882 -0.0008784315 -0.040366367 -0.037861988 -0.01441717 -0.038251255 -0.07086317 -0.049488544
0.021939378 -0.061853025 0.04264954 0.005236271 -0.040931404 -0.012680169 0.018868404 -0.033849888
-0.011325176 0.04372215 0.012519389 0.008106553 0.042059857 -0.04423809 0.015526472 -0.09365128
-0.02727271 -0.0407017 0.02647359 -0.036797475 -0.008925424 0.009055623 0.031668067 0.007276608
-0.06373693 -0.04085487 -0.017967744 -0.021280363 -0.029770225 -0.032454092 0.056877993 -0.06933101

shared.2.bias f4 [128]
00000000: 045c 55bd 9a41 ba3d 6062 c9bd b9c1 bfbd
00000010: 53d7 d4bc 0f35 18bd e074 4bbc 9291 26bd
00000020: ba7b afbd 7df3 dfbd 2661 fbbc 27c0 f7bc
00000030: a079 e4bd 6733 8dbd 84db ebbd b7ec c0bd
00000040: 69ff 16be e32b 9fbb b974 083c 1ba9 aa3b
00000050: 3f91 ae3c 8a60 7bbd 7428 19bb 2609 f8bc
00000060: a8f3 1ebe 55bb 7c3d 0014 b93b d77e 033c
00000070: 784b 41bd 08c3 9bbc fb7f fbbd 194e b0bd
00000080: 8823 63bd 42c2 a2bc 9ad3 84bd f055 ccbd
00000090: 9c05 65bd 60ae 73bd 3e39 b4bd 96b1 b9bd
000000a0: 2e13 4fbb a6d0 20bd 86ec f1bc 2907 afbd
000000b0: 61bf 5dbd ca61 403e d075 34bd a511 8d3d
000000c0: b1d3 02bd b84e 8fbd e330 efbc 8826 533d
000000d0: bba8 04bb e8a0 99bd 96ea 9fbd a81a e7bd
000000e0: 7975 10bd af6b 00bd 9513 29bd a8d4 aabd
000000f0: 8f0e 07bc 179b 08be dc5e 823d 12c5 1fbd
00000100: 8575 093d 4962 373c 2ee8 70bd 82e4 27bd
00000110: 48de 39bd e9ff b4bd 93a9 fb3c 3e51 29bb
00000120: 8556 22bd 08ce d1bd a8ff 9d39 1856 2fbd
00000130: f13a b4bd 4819 82bd d39c c9bc 8f7d 003e
00000140: dac9 efbc 7d82 40bc e831 d3bd 5108 4d3c
00000150: 70ee efbd 624e a6bd 91ff 7abd e973 04bc
00000160: 3737 18be 913e 4bbc 75db f03c b58d eb3b
00000170: 3fda d1bc 8f9b 61bd 6fbd 7dbd 0e82 a93c
00000180: 30ea 4ebd 6458 38bd b7b8 52bd 1853 3abb
00000190: 00ee 983c 5151 8ebc 8ee5 d0bd 84d9 f83d
000001a0: 7a28 41bd c061 e3bd 5d7c b2bd be14 6bbb
000001b0: ebfb e8bd 29ba f5bd a474 103d 71fd e0bc
000001c0: 659f ccbd 2b8d d2bd 4d08 42bc 714d 83bd
000001d0: c1ac e6bd f0b0 19be 5a54 a7bd 7a95 ad3d
000001e0: 6218 b6bd 518c 43bd efc1 7b3d ff45 bfbd
000001f0: 00ac f1bd 8c74 6abd 3010 ddbd 9355 efbc
-0.052089706 0.09094544 -0.09833217 -0.093631215 -0.02598158 -0.037159976 -0.012418002 -0.04066617
-0.08568521 -0.109351136 -0.030685972 -0.030242993 -0.11156011 -0.0689457 -0.11516479 -0.0942015
-0.14745869 -0.0048575266 0.00832861 0.005208147 0.021309493 -0.061371364 -0.002337006 -0.0302778
-0.15522635 0.06170209 0.005648136 0.008025846 -0.047191113 -0.019013897 -0.1228027 -0.08608646
-0.055453807 -0.01986802 -0.06485672 -0.09977329 -0.055913553 -0.05949247 -0.087999806 -0.09067075
-0.0031597125 -0.039261483 -0.029531728 -0.085462876 -0.05413759 0.18787304 -0.044057667 0.06888131
-0.031940166 -0.06997436 -0.029198116 0.05155042 -0.0020242173 -0.075013936 -0.078084156 -0.11284381
-0.03526828 -0.031352695 -0.04127844 -0.08341342 -0.008243217 -0.13340412 0.06365749 -0.0390063
0.03355934 0.011192867 -0.058815174 -0.040989406 -0.045378 -0.088378735 0.030720508 -0.0025835778
-0.039633293 -0.102443755 0.00030135852 -0.042806715 -0.08800305 -0.06352478 -0.024610912 0.12547897
-0.029271055 -0.011749861 -0.10312253 0.01251419 -0.117154 -0.08120419 -0.061278883 -0.008084276
-0.14864813 -0.012405054 0.02940152 0.0071885237 -0.025616763 -0.055079993 -0.061948236 0.020691898
-0.050516307 -0.04500617 -0.05144569 -0.0028430875 0.018668175 -0.017372759 -0.10200034 0.12150863
-0.047157742 -0.11102629 -0.08715127 -0.0035870518 -0.113761745 -0.11998398 0.035267487 -0.0274646
-0.099913396 -0.10280832 -0.011842799 -0.06411255 -0.11263419 -0.15008903 -0.08170386 0.08475776
-0.088913694 -0.047741238 0.061464246 -0.093395226 -0.118003845 -0.057240054 -0.10794103 -0.02921561

dice_policy.weight f4 [5, 128]
00000000: f03a 213d a8f6 43bd 4cda efbc 9b95 903d
00000010: eb49 e23b bf08 20bd 0ce6 15be c4e3 923d
00000020: 50bd 47bd ef0c 9cbc 2cb9 fc3c dcaf c8bd
00000030: e6d1 cdbd 9987 36bd 78f3 babd deb4 ccbc
00000040: 1aad a0ba 98b2 a1be 3592 f4bc ff2d 95bd
00000050: fcd3 ee3d b5df 6ebd fcbc 11be 4f08 f7bd
00000060: 26ca 1bbd 338d 3ebe b7ad 823c 3ba7 333c
00000070: afcf 1f3d 22e8 abbd 939d 863d 995b 9d3d
00000080: 94ff 75bc f85b 77bb 642d b7bd 1b82 1f3d
00000090: a386 1b3d dc96 bbbc efed cabd b402 10be
000000a0: 30ae db3c 3c61 df3d a989 833d f621 a23d
000000b0: 8f74 1f3d 6fe6 11be 5189 f83c 2e76 1fbd
000000c0: 7258 3cbd f5a0 aa3d 2d0e 913d 7e6e 523e
000000d0: 6437 f23b 4987 3c3c a9db c9bd 09ed f1bc
000000e0: a707 5d3c 7d66 f9bc af14 25be 7efa 8dbe
000000f0: 3d29 9abc e64c 503d 8488 b4bd 045f 893e
00000100: bdc5 f3bc 6761 24bd 817e 7b3d ca30 4abd
00000110: 3b20 35bd f220 74bd eb2e a33c daab 853c
00000120: 2e52 6f3c 6e31 adbd 6990 bc3d 9350 4f3d
00000130: 87dd 903d 33a1 91bb 8100 3d3c c65e 863c
00000140: 8978 adbc d6c6 0bbe cebe 62bc d477 9dbc
00000150: add9 eebd 8345 46bd 1d5a a53b 0345 ed3c
00000160: f068 cbbd 1094 5b3e 1b52 5abd dcd8 a0bd
00000170: 2d38 c73d de4a b9bd 00be 4c3d 61fb fdbc
00000180: 8a9e 84bd 5326 363d a40d 48be 5edf 1cbe
00000190: 248a dbbd 33ea 7dbd f2c2 08bd 41cd 00bd
000001a0: e303 a3bc 43c1 3abd 7e8a a7bc d7fa 22bd
000001b0: 9113 11bd 085d 33be 5942 a6bc d3fc 40bd
000001c0: 7632 d93d e62e c5bd 27dd 8ebc 35a7 5abd
000001d0: 9690 3e3b db14 72bd 5299 00bd af08 ce3d
000001e0: 91bb 34be 58c2 90bd 0fdc 18be 779a a03d
000001f0: 1240 ee3d 2e0f 7ebd 8d34 a3bd aa07 68bb
00000200: 248b c1bd 86af 563e c409 8b3d 911f 803c
00000210: f54d c93c c653 24be 2193 4f3c 1146 06bd
00000220: c641 a1bc 70d6 c1bd fbd5 9cbd d509 1c3d
00000230: a73b 943d d6da 81bd 6ba4 debd bc3e 50bd
00000240: f74b f7bd 68e0 8bbd ac06 a3bc 3498 c3bd
00000250: c644 c23c f345 1bbd ef43 903d e280 2cbd
00000260: 6cb8 ac3d 004b a73c 71f9 493c a994 b0bd
00000270: 0c5e 623d 5219 8ebd 6b4d 4f3d c579 10bc
00000280: 386d fdbd 930a eabd 5594 373c 6952 9e3c
00000290: 5301 6dbd 53a1 a7bd e0e2 c03d 9ec2 523d
000002a0: 8818 66bd e651 7b3d 23b9 8fbd 838a 253e
000002b0: 560d 8bbc 489b 76bd 9d02 7cbd 7ad1 92bd
000002c0: ccb5 a13c 577f 5cbc 98cc dcbd 5e20 ea3c
000002d0: 22b9 dc3d db65 763b 54fa 2abd 7201 a8bc
000002e0: dfc1 09be 27d5 67b9 90d6 d43c ddc5 423d
000002f0: e385 9e3d 0581 45bd 2b1f 523b 1a8c 38be
00000300: 8e5d f53c f969 b7bd ed6e aebd 037b 683d
00000310: 9fc6 f83d 6843 7cbd e237 edbd e7c3 3e3c
00000320: 4eb7 2dbd 978e 19be 3958 03bd 74ed 7dbb
00000330: 3012 773d b639 513d 4d89 643d 9d4d c3bd
00000340: 43b6 68bd 0b05 b73d 7489 01be b027 6d3d
00000350: 7829 b2bc 909a b8bc e11b ccbd 42a0 3abd
00000360: a776 7bbe e27d 5fbd 7d45 4cbb 0f6c 2cbe
00000370: c36c 033e e37d 0d3d 7a19 a53d 896f 11bd
00000380: 8656 03be ef3c d0bc 11ad 5b3d ae79 90bd
00000390: f146 863d d401 b53d 3d03 65bd b4cf 16bd
000003a0: 5e36 803b b1df 7dbc fc29 64bc d5ff b63d
000003b0: e7bf a63d a828 3ebd 55a2 29bd 58ef 993d
000003c0: 6267 f03d 2917 d6bd a4c8 8e3c 1377 d1bd
000003d0: 3517 51bc fb26 0d3d 9a84 1ebd a3ca 29bd
000003e0: 215a 2ebe fda7 27bd 2c3c 41bd 63c3 80bc
000003f0: 7e14 c23d cb99 1dbe d2f8 5fbe 0768 0bbd
0.039362848 -0.04784265 -0.029278897 0.07059785 0.0069057844 -0.03907084 -0.14638537 0.07172349
-0.048764527 -0.019049136 0.030850016 -0.097991675 -0.100498006 -0.04456291 -0.09128469 -0.024988588
-0.001225862 -0.3158157 -0.029854873 -0.07284164 0.116615266 -0.058318812 -0.14232248 -0.120621316
-0.03803458 -0.1860855 0.015951974 0.010965164 0.039016422 -0.08393885 0.06573024 0.076834865
-0.015014548 -0.0037744027 -0.089442044 0.038942438 0.037970196 -0.022899084 -0.099086635 -0.14063531
0.026816458 0.10907218 0.06422741 0.07916634 0.03892952 -0.1424806 0.030338915 -0.038931064
-0.045982786 0.08331481 0.07082782 0.20549962 0.007391857 0.011506864 -0.0985635 -0.029531972
0.013490594 -0.030444378 -0.16121171 -0.27730173 -0.018818492 0.050854586 -0.08815101 0.26830304
-0.029757375 -0.040131953 0.06139994 -0.049362935 -0.04422019 -0.05960173 0.019919833 0.016317297
0.0146069955 -0.084566936 0.092072316 0.05061395 0.07073503 -0.0044442653 0.011535765 0.016402613
-0.02117564 -0.13650069 -0.013839437 -0.019222178 -0.11662612 -0.048406135 0.0050461427 0.028963571
-0.099321246 0.214432 -0.053300958 -0.07853863 0.097275116 -0.09047483 0.049985886 -0.031003656
-0.064755514 0.044470143 -0.19536453 -0.15319583 -0.107197076 -0.061990928 -0.03338904 -0.031445745
-0.019899314 -0.045594465 -0.02045178 -0.03979 -0.03541905 -0.17515957 -0.020295309 -0.047116112
0.10605328 -0.09628086 -0.017439438 -0.053382117 0.002907788 -0.05910192 -0.031396218 0.1006025
-0.17649676 -0.07068318 -0.14927696 0.07841962 0.11633314 -0.062026195 -0.07969008 -0.0035404959
-0.09450367 0.20965394 0.06788972 0.015640052 0.024573306 -0.16047582 0.012669356 -0.032781664
-0.019684684 -0.09464729 -0.07658001 0.038095314 0.0723794 -0.06340568 -0.10871204 -0.05084108
-0.12075036 -0.068299115 -0.019900642 -0.09550515 0.023714434 -0.037908506 0.07044207 -0.0421151
0.08433613 0.020421505 0.012327538 -0.08622105 0.05526547 -0.06938423 0.05061094 -0.008818095
-0.123743474 -0.11427798 0.011204799 0.019326406 -0.05786259 -0.08185067 0.09418273 0.051455133
-0.05617574 0.0613574 -0.07017734 0.1616612 -0.016974133 -0.06020668 -0.06152593 -0.07168861
0.019740008 -0.013458095 -0.10781211 0.028579887 0.10777499 0.0037597332 -0.041742638 -0.020508502
-0.13452862 -0.00022109282 0.025981218 0.04755198 0.077403806 -0.048218746 0.0032062035 -0.18022195
0.029951837 -0.089557596 -0.08517251 0.056757938 0.12147259 -0.06158772 -0.115829244 0.011643386
-0.04241114 -0.149958 -0.032066558 -0.003874627 0.06032008 0.051080428 0.055795003 -0.09536288
-0.056814443 0.08936509 -0.1265009 0.057899177 -0.02174829 -0.022534639 -0.09966255 -0.04556299
-0.24556981 -0.05456341 -0.0031169348 -0.16838096 0.12834458 0.034543883 0.080615 -0.03550676
-0.12825975 -0.02541968 0.053631846 -0.070544586 0.065565 0.08838239 -0.05591129 -0.036819175
0.003912731 -0.015495227 -0.0139260255 0.08935515 0.08142071 -0.04642549 -0.041414578 0.07516354
0.11738469 -0.10453636 0.017429657 -0.1022779 -0.012761881 0.034461003 -0.038700677 -0.041453015
-0.17026569 -0.04093169 -0.047176525 -0.015718168 0.09476565 -0.15390699 -0.21872261 -0.034034755

dice_policy.bias f4 [5]
00000000: c770 44be bef7 3fbd bad8 b2bd 3e22 c0bc
00000010: 6c20 ac3d
-0.19183646 -0.046867125 -0.087327436 -0.023453828 0.084046215

category_policy.weight f4 [13, 128]
00000000: 5905 463d d2a4 10be 3f8b c2bd 22b3 ebbd
00000010: d4b1 803c d12c 893c cb29 17be e6da 15bd
00000020: 10a1 48bd 94ab c9bc 3a3c d2bc 8ff3 fcbd
00000030: 2a11 7abd a792 823c e776 01be 29c9 2a3d
00000040: dc3d 73be d7bd 7bbe 7f94 84bd 677f 27be
00000050: 8583 85bd 05a6 d2bd 65d3 9dbd a55a 8dbe
00000060: 96b8 3abe 3d32 0ebe 9318 dfbb 3735 123c
00000070: 519a 19bd f974 93bc 0a27 77bd 27a2 6abc
00000080: bf2a 87be 2059 1ebe 5f45 b3bd 86d3 5abd
00000090: e70d 5dbc b85e 8cbd 600a adbd 3ef2 4bbd
000000a0: 6558 29bd 629e 6cbd b33c 2f3d 5ae3 0abd
000000b0: 833b 3dbd bbd6 ecbe 5ff8 22bd 6dd2 803b
000000c0: da4e 71bd fb0f 75bc 5e23 9cbe c101 2ebe
000000d0: 6a8e adbe 1909 ccbd 208a b7bc e3ba 3bbc
000000e0: f567 13be 6c0a 4ebd f0eb 61bd 83bd 31be
000000f0: e844 4e3b d9c7 9abb 2ec5 cfbc b6f9 cbbd
00000100: a238 70bb 9e7c 7b3b 57fa 14bd be60 12be
00000110: 90b8 93bc 7e57 c8bd fbe7 59be 5da5 583d
00000120: f407 713d 63ab 62ba c20e b6be bbc4 5fbe
00000130: d5c3 c6bc 956c 46bd cd19 4cbc 4a23 bebc
00000140: c9d5 07bb 60e2 45bd adf3 51bb 3c78 953d
00000150: de91 edbd 1e2f 4fbd eb0e 8abd e3b5 9ebd
00000160: c1fd 38be 9017 c3bd 06ee 173d 2275 01bd
00000170: 830c ab3b 97ab 593d bb9c e6bc 30e7 d6be
00000180: d1dc 17be 8eb1 bdbd d46b e4bd 088a 82bc
00000190: 63ca ecbd 0aa7 5dbd d61f c3bc 925f e6be
000001a0: a464 aabc 84f1 6fbd 0a4e 01be a543 4a3d
000001b0: deb1 d4bd 6894 27be a87c d63c c2b4 87bd
000001c0: 029f 04bd 22a8 0f3d e277 f0bd c0fa 893c
000001d0: 9bbd 10bc e5d3 34be 7c47 3dbd 08fa 083d
000001e0: 0668 aabd 3d3c 6a3c 9031 d7bd d5a7 133c
000001f0: 254e 6bbd 3e32 47bd fff0 73bd af7c fdbc
00000200: 62c4 5e3c 2bd4 15be c8c2 f0bd 2597 0bbe
00000210: 1c99 93bd 1ab1 a6bc d26d 45bc 7ae4 abbc
00000220: 960c 7ebe 33a8 e7bb 6c3e 5abd a114 49bd
00000230: e547 bcbd 3e97 86ba 9125 143d 1420 643c
00000240: e443 4fbe 71ab c9bd d638 79bc f221 b2bd
00000250: 9749 70be 2827 abbc 3819 3fbd d0b8 90be
00000260: afc2 71be b7a7 96be 549f 29bb 33d1 aebd
00000270: b5f3 b1bc 5246 e53c 418b 9b3c 798f 9a3c
00000280: d97c 21be 7980 50be 400e 8ebd eb72 d9ba
00000290: 0c3e b6bd 193b 99bd d79a 5abe e5ba d03c
000002a0: ccf1 623d 7db6 f73c 16ca 00bd 359e 4bb9
000002b0: f88c ddbd 6e2b c9be 221f 85bd ec64 d9bc
000002c0: 9b2f fe3c 1f7f 31bd 662d 1bbf 5b2d 3fbe
000002d0: aaeb debe 89f0 46bd db6f d9bd 1f9a 91bd
000002e0: cf34 2dbd a978 57bd 528c 43bd 2643 aabe
000002f0: e8c3 a5bb d652 3c3d 11ed 263d dc17 ccbd
00000300: f1ba 6d3a 07bc 6cbc b05a cc3c 5353 97be
00000310: 37a2 0bbd 4f9c 8ebd c5d6 21be 36b4 4b3d
00000320: 163b 8ebb a516 b7bd 57ea 66be da5f b2be
00000330: 78e9 203d e529 bfbb 415d 44bc 67f0 8ebd
00000340: b74c 06bb 4e4e 08bd 4963 99bc 56e4 083d
00000350: 7cc5 b5bd 0558 77bc 7fba e8bc 3f1d b3bd
00000360: bfd9 26be 7e01 913c 32b3 bf39 ce5d 49bd
00000370: 73ba d03c 312e d8bd 09ee 963b f60a c7be
00000380: 9aa9 54be ef26 0abd 2367 96bd 8be0 f03b
00000390: c283 4bbd abdb 3fbe 81a2 98bd a750 4abe
000003a0: 85b2 eeba d0b6 ce3c 85c1 a0bd efb5 783d
000003b0: ccb8 04be 0f68 8ebe a006 a13c 0bcd 8abe
000003c0: 3e7f babd cb74 02bc 0b6f 483c 557a fcbc
000003d0: e94f 1d3c 4da7 01bd 3ad4 1cbd 5306 e43c
000003e0: 7c8d 30bc 8c10 803d d871 68bd 3025 9fbd
000003f0: e114 013d 1d4d a6bd 745c 18be 6940 8dbd
0.048344944 -0.14125374 -0.09499215 -0.11508776 0.015709795 0.016745003 -0.14762037 -0.03658571
-0.048981726 -0.024617948 -0.025663484 -0.123511426 -0.061051525 0.01593907 -0.12643014 0.041695748
-0.23754066 -0.24584137 -0.06473636 -0.16357194 -0.06519226 -0.10285572 -0.07706336 -0.2760822
-0.18234476 -0.13886352 -0.0068083494 0.00892382 -0.037500683 -0.018000113 -0.060339965 -0.014320887
-0.263998 -0.15463686 -0.08753466 -0.05342438 -0.013492084 -0.06854004 -0.084492445 -0.049791567
-0.041344065 -0.057768233 0.042782497 -0.033908226 -0.046199333 -0.46257576 -0.039787646 0.0039313347
-0.05891309 -0.014957423 -0.30495733 -0.16992857 -0.33897716 -0.09962673 -0.02240473 -0.0114581315
-0.14395125 -0.050302908 -0.05515665 -0.17357449 0.0031474177 -0.0047235307 -0.025362577 -0.09959738
-0.003665485 0.0038373838 -0.036371555 -0.14294717 -0.018032342 -0.09782313 -0.212799 0.052892078
0.058845475 -0.00086467544 -0.35558134 -0.2185239 -0.024263302 -0.048443396 -0.012457323 -0.023210187
-0.002072679 -0.04831159 -0.0032036111 0.072983235 -0.116000876 -0.050582044 -0.067411266 -0.07749536
-0.1806555 -0.095259786 0.03709223 -0.031605847 0.0052199974 0.053142156 -0.028150907 -0.41973257
-0.14830329 -0.092623815 -0.11153379 -0.015934959 -0.1156204 -0.05411438 -0.023818891 -0.4499479
-0.020799942 -0.058579937 -0.12627426 0.049380917 -0.10385488 -0.16365206 0.026182488 -0.06626274
-0.032378204 0.035072453 -0.11741616 0.0168432 -0.008834268 -0.17658956 -0.04621075 0.033441573
-0.08320622 0.0142965885 -0.105075 0.009012182 -0.05744757 -0.0486319 -0.059556004 -0.030943243
0.013596626 -0.14631717 -0.117559016 -0.13631876 -0.07206938 -0.02034812 -0.012050109 -0.02098297
-0.24809489 -0.0070696115 -0.053282186 -0.04909194 -0.091934 -0.0010268462 0.03616864 0.013923664
-0.20240742 -0.09847153 -0.015211305 -0.08697881 -0.23465572 -0.020892695 -0.04665491 -0.28266
-0.23609422 -0.2942483 -0.002588232 -0.08535995 -0.021722654 0.027987633 0.0189873 0.018867241
-0.15770282 -0.20361508 -0.06936312 -0.0016590034 -0.08898553 -0.07481975 -0.21348129 0.025479743
0.055406377 0.030238384 -0.031442724 -0.00019418525 -0.10817903 -0.39290947 -0.06500079 -0.026537381
0.03102856 -0.043334123 -0.6061615 -0.18669645 -0.43539172 -0.048569236 -0.10617038 -0.071094744
-0.04228669 -0.052605305 -0.04774124 -0.33254355 -0.0050587542 0.045977436 0.040753428 -0.09965488
0.0009068689 -0.014449126 0.024945587 -0.2955576 -0.034090247 -0.06963407 -0.15804584 0.04973241
-0.0043405397 -0.08939866 -0.22550331 -0.34838754 0.039285153 -0.0058338516 -0.011985124 -0.06979447
-0.0020492503 -0.033277802 -0.0187241 0.033420883 -0.08875558 -0.015096669 -0.02840924 -0.087458126
-0.16294001 0.017700907 0.0003656387 -0.049161725 0.02547953 -0.10555685 0.0046060127 -0.3887555
-0.20767823 -0.033728536 -0.073438905 0.0073509864 -0.0496862 -0.1873614 -0.0745287 -0.19757329
-0.0018211162 0.025233656 -0.07849411 0.06072038 -0.1296112 -0.27813765 0.01965648 -0.2710956
-0.09106301 -0.007962416 0.012233506 -0.030820051 0.009601572 -0.03165369 -0.038288333 0.027835047
-0.01077592 0.06253156 -0.056749195 -0.07770765 0.031514052 -0.08120177 -0.14879018 -0.06897051

category_policy.bias f4 [13]
00000000: 16f2 4c3d 98cc b2bc b900 7f3d a9b2 873c
00000010: 84f1 c23d 5837 48bd 1e93 7bba 4a46 46bc
00000020: 8b7d f3bd aab8 073e 8bb0 92bd 7e9d 29be
00000030: 5d4e 463d
0.05003556 -0.021826074 0.06225655 0.016564684 0.09518722 -0.048880905 -0.00095968123 -0.012101719
-0.1188918 0.13254037 -0.07162579 -0.16563985 0.048414577

value.weight f4 [1, 128]
00000000: b950 983d 51af 833a 72b4 503d 2014 733d
00000010: 8e7f 423d e6a7 6dbd 8788 fabb db6f df3c
00000020: 2ba1 0abd e32c 183d 8104 27bd 45d4 8ebd
00000030: 4678 373d 773c b0bd 9c18 623d a5ba d0ba
00000040: 0bb9 8fbc d278 45bd 7075 113d 1906 093d
00000050: e16f 50bd cb4f a7bd 1028 653d 3e16 a7bd
00000060: b69c 983d 6b05 c9bc ac02 2fbd cde0 963c
00000070: fd5d 443d 6a3f 03bb 9b83 623d a111 713d
00000080: 5e74 b03b 6d5c a0bd 8d91 3ebd ed41 09bd
00000090: bc4f 5b3d 6880 1ebd 7264 9d3c c6ce 9c3d
000000a0: ce7f b3bd 11ff 5bbd a267 6cbd 6052 273d
000000b0: 3461 483d 8efa 3e3d c838 473c 95e3 0e3d
000000c0: fe12 763c 26e1 c1bc 44d4 b43d 60f8 30bc
000000d0: 3b53 973d 9482 e6bc 8c75 433d 53cf 6abd
000000e0: 50b9 de3c e26e a4bc 15dc ba3c 6e04 7fbd
000000f0: cca7 2cbd 9a98 6ebd 2689 98bd 2bda 1f3c
00000100: be77 ae3d e913 5bbc 8700 64bd 1c5b 5abd
00000110: ed42 f13c 8b13 053d f50b 56bc 6d5f c4bc
00000120: 2303 573d 1ad6 65bd d212 b03d 7926 3b3d
00000130: abf8 a3bd db23 d4bc 9018 f63c bc8d 71bd
00000140: d532 d93c a906 5d3d 7596 0b3d 18a8 a9bd
00000150: 2fd7 2abd fe10 a1bd 3038 4d3d 4210 603d
00000160: fa3d 38bd 7447 aabb 6e21 873c 4ab8 c63c
00000170: 576d 823c 9b4d 8ebd 6fe1 e33c bd81 b4bc
00000180: 8652 04bd b0c4 24bb 63d7 9f3c 8b18 f13c
00000190: be6a 26bd 483f 4dbd 57e5 45bd 3946 5dbd
000001a0: b598 5a3d ce70 223d 19a6 d8bc c716 fd3b
000001b0: f7b6 7cbc 0320 75bb da91 91bc 9b89 73bd
000001c0: d34e b13d 7847 4f3d fe0f 88bb e873 2fbd
000001d0: 19a4 0e3d 38a1 ac3d 0385 553d 5936 3dbd
000001e0: 6f8a 8d3d 256f 62bd 6fe7 cc3c 6e05 a6bd
000001f0: 6421 023d de6a cd3c f770 453d 86d9 00bd
0.074372716 0.0010046755 0.050953336 0.059345365 0.047484927 -0.05802145 -0.00764567 0.027275017
-0.033845108 0.037152182 -0.04077578 -0.06974081 0.044792436 -0.08605283 0.05519925 -0.0015924765
-0.01754429 -0.048210926 0.035512388 0.03345308 -0.050887946 -0.08169516 0.05594641 -0.08158539
0.07451765 -0.024538716 -0.042727157 0.01841774 0.047941197 -0.0020026811 0.05530129 0.058854703
0.005384966 -0.07830129 -0.046525527 -0.033510137 0.053542838 -0.038696676 0.019212935 0.076566264
-0.08764611 -0.053710047 -0.05771602 0.040850043 0.048920825 0.046625666 0.012159534 0.034885008
0.0150191765 -0.02366693 0.08829549 -0.010801405 0.07388922 -0.028138436 0.047719523 -0.057326626
0.027187973 -0.020072404 0.022810021 -0.062260084 -0.04215221 -0.058251 -0.07448034 0.009756605
0.08518933 -0.013371446 -0.055664565 -0.053309545 0.029450858 0.03248934 -0.013064374 -0.023971284
0.052493226 -0.056112386 0.0859734 0.045690987 -0.08006414 -0.025896003 0.03004101 -0.05897306
0.026513496 0.05396143 0.034079034 -0.082840145 -0.04170912 -0.07864569 0.050102413 0.054703005
-0.04498098 -0.005196506 0.016495433 0.024257798 0.015921278 -0.06948396 0.027817456 -0.02203452
-0.032305263 -0.002514165 0.019511884 0.029430648 -0.04062914 -0.050109178 -0.04831442 -0.054022048
0.05336829 0.03965836 -0.026446389 0.0077236625 -0.015424482 -0.0037403114 -0.017769743 -0.059457403
0.08657613 0.050605267 -0.004152297 -0.042835146 0.034824464 0.084291875 0.052128803 -0.046194408
0.0691117 -0.055281777 0.0250127 -0.081065044 0.031770125 0.025075372 0.048203435 -0.031457447

exp_avg f4 [256, 23]
00000000: f728 9e35 abc5 a136 c0aa 6e36 4d53 2236
00000010: 0d96 f136 0000 0000 cbf2 a526 b55a 2c29
00000020: 3744 8129 c4a5 ae29 e56c ddad d6d6 962e
00000030: f359 a62e 9e93 9b28 e9a2 38ae 9a13 1e2f
00000040: 55c9 522f 8ac7 b8ae e025 4f2e 0000 0000
00000050: 0400 0080 0000 0000 0000 0000 9523 2038
00000060: 8e95 bc38 b69f 7638 1cce 0038 84f6 ab38
00000070: 0000 0000 4d9a 2937 ba01 d137 2084 9928
00000080: 8486 8f38 3cdc ff28 47a4 bc37 0400 0000
00000090: 0400 0080 148c d7b7 2f8d 063a ec66 333a
000000a0: 0400 0000 3b32 9839 0000 0000 0000 0000
000000b0: 0000 0000 0000 0000 5135 1f3b 3556 bd39
000000c0: a623 203b b1e8 1f3b 41b0 733a 0000 0000
000000d0: a51d bf9c 6b66 5e15 06d6 8706 2112 0897
000000e0: 3e70 6b9e 3f38 129e 109c a1bb 02ab 04b8
000000f0: fef6 af0c 8d5a 1b36 0400 0000 0e52 989f
00000100: 131a d69e 0400 0000 8103 c39c 0000 0000
00000110: 0000 0000 e654 79bb f34c 31ba 7cd1 3cba
00000120: c6d2 e7bb 40af 49ba 0000 0000 2abe 04b8
00000130: 5c79 91b8 8956 343b 4733 9ab9 b30d 4bbb
00000140: 0602 a6ba 9ff3 7dba 40ca 4bbc e45c b53c
00000150: 26ab 12bc a1d0 04bb a8f5 f0b8 2056 d1bb
00000160: 0400 0080 8119 1ab6 0000 0000 0000 0000
00000170: 32c0 92ba 71fb 71ba 55f4 91ba 9173 91ba
00000180: 8c62 71ba 0000 0000 fb46 a9b5 0400 0080
00000190: 09f0 312a 9c1e 04b8 0400 0080 0400 0080
000001a0: 9600 aabb bf98 fab7 5ed2 96bb 0400 0000
000001b0: 0400 0000 c1dd a4b8 abf5 a9bb 0000 0000
000001c0: 5b07 d3b5 0000 0000 0000 0000 c4e6 41bc
000001d0: 6d07 13bc 8075 75bc 9122 46bc 9b41 38bc
000001e0: 0000 0000 4ac9 78b7 3248 8e3a b7f3 9cbb
000001f0: b111 8ab9 68d3 83bc 11fe 64bc 0022 3cbd
00000200: 538f e7bc f367 74bd 0dda 16bd bc5f a73c
00000210: f1b0 c033 ecc8 f9bc 0000 0000 0ce9 b8ac
00000220: 0000 0000 0000 0000 541b d53b ad54 173c
00000230: 54ef 1c3c 1822 163c b54d ee3b 0000 0000
00000240: 5c1b 06b6 5b9e 0f36 3b7f 7d3b ebb1 95b8
00000250: 9ac8 e33b c6c3 e23b c3c7 d33c 5aad d13c
00000260: 2002 623c 78e5 0c3d a638 bcb9 1e6d 1bb8
00000270: 2f23 eb3c 0400 0080 a57f ccb5 0000 0000
00000280: 0000 0000 b74a 463a d19a 6039 add0 763a
00000290: 3b0d c83a 9440 c038 0000 0000 e4d5 fb2f
000002a0: 1026 d12a 8f33 dd2a cb04 14b6 3f38 dcba
000002b0: 1fd8 c6b6 7dbf 5028 4a54 b031 e79c d6b3
000002c0: b3df 73bb 292e c328 24f5 1432 4737 32bb
000002d0: 0400 0080 0400 0000 0000 0000 0000 0000
000002e0: 7965 b5bb 4843 35bb 4561 bbbb d97c b3bb
000002f0: 9cf1 63bb 0000 0000 bbef 911d 0400 0000
00000300: 2357 0e91 d369 5b19 0550 d732 ea38 ac32
00000310: 0400 0000 fa6a e1b6 0400 0000 4fb3 4d1a
00000320: 0400 0000 0400 0080 a450 89bb 0000 0000
00000330: 0400 0080 0000 0000 0000 0000 c5f1 fdba
00000340: 6eed 853b d579 aaba 7b71 853b 8c44 ccbb
00000350: 0000 0000 4a50 8f3b 3e58 543b e0ef 63bb
00000360: 821c 043b 9560 f5bb a0f5 12bb b503 5a3c
00000370: b45a 81bc 9ca7 17bc 64c6 b4bb e85e ec3c
00000380: 6e1b 0bb9 e810 1e3c 0400 0000 4bfd 482e
00000390: 0000 0000 0000 0000 2cfc 4f37 329a 2137
000003a0: b40d 7137 3286 4037 29e8 6e37 0000 0000
000003b0: f55f 7735 877c c90a 0400 0000 6398 2438
000003c0: dce3 5fa2 21ac ba9d 7d7d 8838 7afb 7638
000003d0: 4f69 9d0c 6192 8019 0400 0000 b6c7 1b39
000003e0: 8c3f 7938 0400 0000 1aad 0336 0000 0000
000003f0: 0000 0000 57df 96bb 17e4 7ebb 66fc 98bb
1.178384e-06 4.8211855e-06 3.5564153e-06 2.4188369e-06 7.199828e-06 0.0 1.1514984e-15 3.8270348e-14
5.740584e-14 7.755908e-14 -2.517315e-11 6.859373e-11 7.564784e-11 1.7272476e-14 -4.198145e-11 1.437698e-10
1.9170916e-10 -8.4027965e-11 4.709999e-11 0.0 -6e-45 0.0 0.0 3.818011e-05
8.992395e-05 5.8799713e-05 3.0709532e-05 8.1998325e-05 0.0 1.0109111e-05 2.4915546e-05 1.7043712e-14
6.843827e-05 2.8406199e-14 2.2487844e-05 6e-45 -6e-45 -2.5695226e-05 0.00051327323 0.00068436447
6e-45 0.00029029124 0.0 0.0 0.0 0.0 0.0024293254 0.00036113118
0.002443531 0.002440017 0.0009295978 0.0 -1.2646983e-21 4.4913336e-26 5.1095835e-35 -4.396685e-25
-1.24640076e-20 -7.740807e-21 -0.004931934 -3.1630516e-05 2.7111672e-31 2.3149507e-06 6e-45 -6.451025e-20
-2.2668915e-20 6e-45 -1.2904923e-21 0.0 0.0 -0.0038044988 -0.00067634805 -0.00072028465
-0.0070746867 -0.0007693656 0.0 -3.1648357e-05 -6.936744e-05 0.00275174 -0.00029411374 -0.0030983507
-0.0012665398 -0.00096874865 -0.012438357 0.02213902 -0.008951938 -0.0020265954 -0.00011489849 -0.0063884407
-6e-45 -2.2962633e-06 0.0 0.0 -0.0011196195 -0.0009230888 -0.0011135439 -0.0011097064
-0.0009208105 0.0 -1.2612139e-06 -6e-45 1.5804037e-13 -3.149976e-05 -6e-45 -6e-45
-0.005188058 -2.987345e-05 -0.0046027144 6e-45 6e-45 -7.861434e-05 -0.0051867566 0.0
-1.5722866e-06 0.0 0.0 -0.011834804 -0.008973938 -0.014981627 -0.012093202 -0.01124611
0.0 -1.4828818e-05 0.0010855256 -0.0047897953 -0.00026334592 -0.016092017 -0.01397659 -0.045930862
-0.028266585 -0.059669446 -0.036829043 0.020431392 8.972882e-08 -0.030491315 0.0 -5.255468e-12
0.0 0.0 0.006503502 0.009236497 0.009578545 0.009163402 0.007272447 0.0
-1.9983481e-06 2.1400836e-06 0.0038680572 -7.1380135e-05 0.006951404 0.0069203107 0.02585209 0.025595356
0.013794452 0.034398526 -0.0003590036 -3.7056503e-05 0.0287033 -6e-45 -1.5236334e-06 0.0
0.0 0.0007564234 0.00021419978 0.00094152504 0.0015262732 9.167302e-05 0.0 4.5808612e-10
3.715227e-13 3.9293262e-13 -2.2056508e-06 -0.0016801431 -5.9260196e-06 1.1587842e-14 5.1318567e-09 -9.993692e-08
-0.0037212193 2.1669368e-14 8.670472e-09 -0.0027193592 -6e-45 6e-45 0.0 0.0
-0.005535778 -0.002765851 -0.0057183825 -0.0054775295 -0.0034781462 0.0 3.8629056e-21 6e-45
-1.1228676e-28 1.1343406e-23 2.5065683e-08 2.0049317e-08 6e-45 -6.7179762e-06 6e-45 4.253785e-23
6e-45 -6e-45 -0.0041905213 0.0 -6e-45 0.0 0.0 -0.0019374421
0.0040871417 -0.001300628 0.004072366 -0.0062337574 0.0 0.004373585 0.003240123 -0.0034780428
0.0020158594 -0.00748832 -0.0022424236 0.013306548 -0.015790321 -0.00925627 -0.005516814 0.028853849
-0.00013266291 0.009647585 6e-45 4.5699704e-11 0.0 0.0 1.2396875e-05 9.632249e-06
1.436791e-05 1.1475337e-05 1.42399595e-05 0.0 9.2154306e-07 1.9402438e-32 6e-45 3.9242568e-05
-3.0342763e-18 -4.9411767e-21 6.5083594e-05 5.8885176e-05 2.425306e-31 1.3294012e-23 6e-45 0.0001485635
5.942541e-05 6e-45 1.962128e-06 0.0 0.0 -0.004604261 -0.0038893276 -0.00466876
