checkpoints/yahtzee_pretrain_incremental_5000ep/checkpoint_ep999.pt (torch, 527397 bytes, 25 tensors)

shared.0.weight f4 [256, 23]
00000000: 6b48 e3bd a103 60be ef51 7cbe a27d 8f3d
00000010: 40a7 ac3e 9800 ddbd 0602 993d d62f 5dbd
00000020: ce35 47be 0a6b 09be 7ed8 11be 6cc6 513c
00000030: f30f d23b c631 c6be a1a4 043d 3193 f83b
00000040: 34a6 a23c c85a 283e 1a31 14be af66 e0bd
00000050: c825 0abe 734f 31bd bbd6 dfbd 3c0b 48be
00000060: 6386 3fbe 50d1 80be fafe 25be 439e 00be
00000070: 24d0 763c 0598 43be 64be bfbe ecee eabd
00000080: 7cdf ebbd a6e7 2bbe e347 abbd 1895 2fbe
00000090: 558f bfbd 1e86 0e3e 5d4c 173d d6d8 303e
000000a0: 744c 10bd d8bc 52be 5e9d f63b bdc7 cb3d
000000b0: a41f b33d 81ef 0b3c a094 97bd 5060 08bd
000000c0: c0a6 a8bd 7030 9f3d e034 bf3d 3e96 b23c
000000d0: ad1e fd3d 8260 a43e 503a 66be 0923 10be
000000e0: 505d d73d 9324 9bbe 9bc2 793d 08f2 1f3d
000000f0: 0fbe 17bd 986b ac3d 0e55 5cbe 9680 613d
00000100: b56a 7abe 267b 85bd 7ad7 823d 8319 b53d
00000110: 46dd 9abd f516 833d 6eea dbbd 948f c6bd
00000120: a092 aabd c0d8 4c3e 16cb 4b3e 89c6 a83e
00000130: 3503 593e 401f da3d 3d7e ab3e 4484 933e
00000140: 052e 62be a4ca 643d 61f5 91bd 40eb 67bd
00000150: b05c 1b3e 725d 60bc 65b5 3bba 992e 29be
00000160: 1e27 373e 702c 87bd 23af a83d 506a 183e
00000170: 25ed a7bc 98fb f5bd ff74 813d b6f6 8abd
00000180: 4522 863c 4ed2 b53c 283a 593e 2ad9 a1bd
00000190: 5d6f 553d 8ce0 523e 59a2 52be 3919 acbe
000001a0: 44c5 78bc 46e7 683d 517a 913c 88ea 49bd
000001b0: 15f7 c3bd 2441 a33d dda4 eebc 0961 99bd
000001c0: 9d6f 1b3d 2ffd 513e f4be fabb 73ea 80bd
000001d0: dfb6 99bd 5895 8a3d ebec bc3d 28ab ba3d
000001e0: cfb3 e4bd e814 c73d 8023 a93d b9a9 493d
000001f0: fe03 ecbe 79ad 143e b145 1e3e 7ce9 89be
00000200: a997 ae3d af43 453e 7df5 1a3d 13b2 09bd
00000210: cc47 2e3c 2450 9f3c d4d4 21be 0f16 733e
00000220: afed 463e 460f 963d cea2 863c 7c2f 97bc
00000230: 4147 6a3d 401d aebd 143a 6a3d 1b9c 52be
00000240: a353 ccbd 451b 87be 7982 0abf 8b1a 89bd
00000250: aab9 5d3e de01 13bf a9b6 1cbd d465 95bd
00000260: 8840 203d a6bf a23d cd10 6fbc b3a9 7c3d
00000270: 45af 6f3d c1a4 1d3b fe33 4c3c ee44 6ebc
00000280: 6444 f8bc aa41 803d b098 06be 346c 64bc
00000290: fe80 173e 4b53 20be 4c48 29be f6f1 83bd
000002a0: 260d 31be f165 12be 6265 083e 40c8 afbc
000002b0: 40a2 5e3d f9d0 a6be 3fc6 4dbd 0312 333d
000002c0: fbe2 263d 2162 44be 48b3 fdbc 6b19 8fbd
000002d0: f77d 033e a15a 133e 22d9 283e e8fb ec3d
000002e0: d0af c53b 74cf bb3d 3f0c 193d 1f13 283d
000002f0: 7ee5 a13c 6387 1a3e 868f 6dbe 08ce 87be
00000300: a6d0 f8bd afcd 8abe a040 cd3d c488 c1bd
00000310: 5d7a a2be 7020 e53d 09ae 50be 0916 32bd
00000320: 1d48 bfbc 8003 06be 20d1 f7bc 184a b53c
00000330: 2b20 0e3e fc6b 8f3d 5c2b b4bd 5647 babd
00000340: b5ed 44bd 097a eabd d941 fbbb a3b7 2bbe
00000350: 5c77 453e bb15 46be 73c5 a1be b4ac fbbc
00000360: 27d7 41bf baa2 6e3e 8ae0 7b3e 459c 8f3b
00000370: ce5b 06be ce60 d43d bb38 00bd 2a13 553d
00000380: f99a 4b3d 40bf 693d 8c2d 2c3d 87f9 8dbd
00000390: 53d9 35be 3dfe 2e3e d030 63bd 2cc7 6fbe
000003a0: 3e74 e7bd 496e 803d 87e5 96be 15e5 2f3e
000003b0: dce2 653e fbe8 05bd e55e a6bd c3f7 bebc
000003c0: 12fc f03d 3de0 4fbe 29ec 813d ed43 c83d
000003d0: d463 05be 990f b7bd bf15 1cbe 565a 673c
000003e0: e07f 26be 9af6 fcbd d73c 9bbd 195d 823c
000003f0: a972 9bbc 8932 7cbc 23d6 fdbd 213f ae3d
-0.11097797 -0.21876384 -0.2464063 0.070063844 0.33721352 -0.10791129 0.07471089 -0.054000698
-0.19454119 -0.13419738 -0.14242741 0.012803655 0.0064105927 -0.3870985 0.032383565 0.007585906
0.019854642 0.1644088 -0.14471856 -0.10957085 -0.13490975 -0.04328866 -0.109296285 -0.19535536
-0.18703608 -0.25159693 -0.16210547 -0.12560372 0.015064273 -0.1910096 -0.37449944 -0.11471352
-0.11517236 -0.16787586 -0.08363321 -0.17146719 -0.0935351 0.13918349 0.03693806 0.17270216
-0.03522916 -0.2057985 0.007526084 0.099502064 0.08746269 0.008540989 -0.07401395 -0.033294976
-0.0823493 0.077729106 0.09336257 0.021800157 0.123593666 0.3210488 -0.22483182 -0.14075865
0.10515845 -0.3030134 0.060976606 0.03904918 -0.03704649 0.084189594 -0.21516821 0.05505427
-0.24454768 -0.06517629 0.06388755 0.088427566 -0.07561736 0.06400863 -0.10738073 -0.09695354
-0.08328748 0.20004559 0.1990169 0.3296397 0.2119263 0.10650492 0.3349475 0.28811848
-0.22087868 0.055857316 -0.071268804 -0.056620836 0.15172076 -0.013694154 -0.0007160514 -0.16521682
0.17886016 -0.06600273 0.0823653 0.14884305 -0.020498822 -0.12010878 0.06321143 -0.067853376
0.016373763 0.022195008 0.21213591 -0.07902749 0.052108157 0.2059347 -0.20569743 -0.33612993
-0.015183751 0.056861185 0.01775852 -0.049295932 -0.095686115 0.07971409 -0.029131347 -0.07489211
0.03794824 0.20506738 -0.007652158 -0.06294718 -0.07505583 0.06766766 0.09224876 0.09114677
-0.11167108 0.097207844 0.08258724 0.049234126 -0.46096796 0.145193 0.15456273 -0.26935947
0.08525021 0.192641 0.037831772 -0.03361709 0.010637235 0.019447394 -0.15803844 0.23738883
0.19426607 0.07327132 0.016435053 -0.01845526 0.05719686 -0.08501673 0.057184294 -0.20567362
-0.0997689 -0.26387993 -0.54105335 -0.06694516 0.21652856 -0.57424724 -0.038260136 -0.07294813
0.03912404 0.0794671 -0.014591408 0.061685275 0.05851676 0.00240545 0.012463568 -0.014542801
-0.030306049 0.062625244 -0.13144183 -0.013941813 0.147953 -0.15656774 -0.16531485 -0.06442635
-0.17290172 -0.142967 0.13319924 -0.021457791 0.054353952 -0.32581308 -0.05023789 0.04371835
0.04074381 -0.19178058 -0.030969277 -0.0698727 0.1284102 0.14390041 0.1648908 0.11571485
0.0060329214 0.09170428 0.037365194 0.04103386 0.01976275 0.15090708 -0.23199281 -0.26524377
-0.121491715 -0.2711005 0.10022092 -0.09449914 -0.3173398 0.111878276 -0.20378889 -0.043478046
-0.023349816 -0.13087273 -0.030251086 0.022130057 0.13879459 0.07003018 -0.08797333 -0.090956375
-0.048078258 -0.114490576 -0.0076677618 -0.1676927 0.19283813 -0.19344227 -0.31595954 -0.030722
-0.7571892 0.23304263 0.24597374 0.0043826425 -0.13120958 0.103700265 -0.031304102 0.05202023
0.04970834 0.057067156 0.042035624 -0.06932359 -0.17758684 0.17089172 -0.055466473 -0.23415822
-0.11301468 0.06271035 -0.2947199 0.17177232 0.22449821 -0.03269289 -0.081235684 -0.023311501
0.117668286 -0.20300384 0.06343872 0.09778581 -0.13026363 -0.08938522 -0.1524267 0.014120659
-0.16259718 -0.12351723 -0.07579964 0.015913533 -0.018975573 -0.015392908 -0.12394359 0.08508135

shared.0.bias f4 [256]
00000000: 1f4c 9bbd 9575 343e 1e1c 693d 6566 3dbd
00000010: 03ac f4bc fd9a c53d c25b f63c 9c39 41be
00000020: ded3 e3bd 09e2 88be 08a1 e0bd 999e 0d3d
00000030: f051 6bbd ca90 9dbe e80e 823d 1956 18be
00000040: 26cf 89be 1d7a 15be a872 0c3e 9d39 93be
00000050: f5c9 013e e8c5 943b 57d1 48be 54e1 3dbe
00000060: b40f 593d 3510 c23d 8acb 993d e385 56be
00000070: 7b0c 9bbe 1a02 f13c f066 3dbe 2a51 93be
00000080: a6d8 42be b8f1 79be bf35 43bd 04fb 79be
00000090: 6d29 12be b60d 51be 4ee5 92be 44a2 8cbe
000000a0: 0f04 83be e66d bf3d 37b0 963d 298c 923e
000000b0: 79d8 d7bc 100f a63d c2c9 9cbd 3676 3c3d
000000c0: 341f 5bbe 03c5 09be 7015 9fbd 9c7b d43d
000000d0: 449f 9bbd a44e b0bd d41f 9dbe 3860 40bd
000000e0: a22a fd3d 2d6b 43be 0728 013e 3496 08be
000000f0: 0ade 57be 6e4b 37bd 0364 363b e901 213e
00000100: bbce 34bd 58e0 4dbe b1b8 08be 9624 c4bd
00000110: 25cb d1bd f471 5fbd 1aea 9c3c 166e 10be
00000120: c6ee 3bbe d189 11be 3dbe a9bd 4962 90be
00000130: 967c 37bd c704 f1bd 271a 24be 9064 5cbe
00000140: c895 21be b381 9abe 6486 23be 7e76 283e
00000150: 5c49 2d3c 7442 38be 312a cfbd 6f47 843e
00000160: fd1b b93c e4a2 033e 84e0 b73d 5f15 a7bc
00000170: 495c 90be 236a 44be 9b58 a0bc 533f 523e
00000180: 340e 45be dd25 ae3d 059d cdbd e799 033d
00000190: a38f 47bc aaab 33bd 9892 4abc 116d 32be
000001a0: 89c1 223e 7378 823d 0cc3 62be bea4 36bc
000001b0: e511 efbd 7f60 9fbe 5107 87be e6c4 0a3e
000001c0: 2c5b 5e3e 6f12 4a3d a3a2 94be 0cd5 b03d
000001d0: 4e1e 3dbd 3cb2 02be 9324 9ebd 1d44 4abd
000001e0: f273 1ebe d1b0 283e 3486 443e 564a 99bd
000001f0: d521 8b3d 90c4 b1be 5623 f83d 818b 12bd
00000200: c42c 59bd a728 b6bd 58d0 873d 27af 2dbe
00000210: a198 8dbd f51f afbb bb7a a7be eb84 36be
00000220: 5295 3cbe 9848 8ebd ca4b b8bb 96ce 183c
00000230: 411a 303e 2c88 ca3d e0c6 2ebe 0c07 8b3d
00000240: 7aa7 30be 17c8 84bd 7202 9bbb d2cc 633d
00000250: fb7b 4bbe c679 93be d545 b8bd f873 1dbe
00000260: d806 b33d 7aae b1be 8b45 4a3d 752d ebbd
00000270: 1a81 bc3c b04a 86be 7995 6cbe 31d8 79be
00000280: 8d54 8dbd c1b2 cebd 1566 9cbb 0e86 97be
00000290: 7233 53be d984 c8bb 7b9e c2bd 555a 80be
000002a0: 7828 91bc 2158 82bd 8903 c8bd 04c5 61be
000002b0: 501f d23d da68 84be 21fc 08be 6699 0e3e
000002c0: 0cf2 02be 1590 06be e831 83be 30a0 9bbe
000002d0: 4d18 86be 1f7c 233e e068 81bd df0e 5b3e
000002e0: 302f c83b 050a 1bbe f508 3fbe b2da 75be
000002f0: d493 46be f1f9 92bb 3af9 c4be 430e b83e
00000300: 7e4b 43be 681d aebe 5059 f23c 6e6a 8bbe
00000310: e93d 2bbc 2e4c bd3d bc55 063b 835a cbbd
00000320: 05a1 06bd c682 f33d c518 b7bd 737e 64bd
00000330: 1d30 04be 0b67 183d 8850 0e3e 7df1 c0bc
00000340: 1cda e0bd a816 cfbd fbf0 5b3c 96fa ccbd
00000350: 163c 4c3d 22c3 babd 2ff4 8c3c a5c9 5a3c
00000360: 240b 8bbe ae58 323e d7f5 6cbc 807c 5cbe
00000370: 7e2c f13d ef9d 843d e9e3 d4bb 8b98 2ebc
00000380: 8f13 3bbe 0a7e 2dbe 5ab2 d0bd 88ae 0cbd
00000390: 67b7 0b3e 03b2 0f3d 1660 7dbe c679 4ebe
000003a0: 168f 0c3c 0d90 80be 4559 9cbc 724f a2be
000003b0: 5fdf af3b 1bc1 903e 56da 183e 2041 b93d
000003c0: 0616 a5be 314e be3c 2169 f1bd 8976 a8bd
000003d0: f16e c7bd 5d82 6b3e 401f 6ebe fa65 5fbe
000003e0: afd5 8ebd 05b5 9c3d 8194 3b3e c1f8 1e3e
000003f0: e390 27be f73c 9cbe b336 efbd 7876 6fbd
-0.07582878 0.17622979 0.05691158 -0.04624023 -0.029867178 0.09648702 0.03007305 -0.18869632
-0.11124395 -0.2673495 -0.10968214 0.03457508 -0.05745119 -0.30774528 0.063504994 -0.14876594
-0.26915854 -0.14597364 0.13715613 -0.28754893 0.12674697 0.004540194 -0.19611107 -0.18542987
0.05299349 0.094757475 0.07509525 -0.20949511 -0.3028296 0.029419947 -0.18496299 -0.2877286
-0.19027957 -0.24408615 -0.04765868 -0.24412161 -0.14273615 -0.20415387 -0.2869057 -0.2746755
-0.25589034 0.09347133 0.07357829 0.2862256 -0.02634834 0.08108342 -0.0765567 0.046011172
-0.21398622 -0.1345406 -0.07767761 0.10375139 -0.07598737 -0.086087495 -0.30688345 -0.04696676
0.12361647 -0.19083853 0.12612925 -0.13338548 -0.21080795 -0.04474967 0.0027830608 0.15723385
-0.044142466 -0.20105112 -0.13351704 -0.09577291 -0.10243825 -0.054552034 0.019154597 -0.14104494
-0.18352804 -0.14212729 -0.08288238 -0.28199986 -0.04479655 -0.11768489 -0.16025601 -0.21522737
-0.15779793 -0.30177078 -0.15969235 0.16451451 0.010576572 -0.179941 -0.10115469 0.2583575
0.022596354 0.12855107 0.0897837 -0.020395933 -0.28195408 -0.19181113 -0.0195735 0.20531969
-0.192437 0.085033156 -0.10039715 0.032129195 -0.012180242 -0.043864883 -0.012364052 -0.17424418
0.1589414 0.0637063 -0.22144717 -0.011147676 -0.11673335 -0.31128308 -0.2637277 0.13551673
0.21714467 0.049333986 -0.29030332 0.086343855 -0.04617148 -0.12763304 -0.0772182 -0.049381364
-0.15473917 0.164737 0.1919182 -0.074848816 0.06793562 -0.34720278 0.12116115 -0.035777573
-0.053021207 -0.088944726 0.06631535 -0.16961347 -0.06913877 -0.0053443857 -0.32710823 -0.17824142
-0.18416336 -0.0694744 -0.005624269 0.009326598 0.17197515 0.09889254 -0.17068052 0.067884535
-0.17251387 -0.064834766 -0.004730516 0.055615254 -0.19871514 -0.28803843 -0.089976944 -0.1537627
0.0874154 -0.34703428 0.049382728 -0.114832796 0.02301078 -0.26228857 -0.23103894 -0.24398877
-0.069008924 -0.10092688 -0.0047729113 -0.29594463 -0.20625094 -0.0061193523 -0.09502884 -0.25068918
-0.017719492 -0.063644655 -0.09766299 -0.22047812 0.10259879 -0.25861245 -0.1337743 0.13925704
-0.12787646 -0.131409 -0.25624013 -0.3039565 -0.26190415 0.15965317 -0.063188314 0.21392392
0.006109141 -0.15140541 -0.1865576 -0.24009207 -0.1939233 -0.0044853617 -0.38471395 0.3594838
-0.19071767 -0.3400681 0.029583603 -0.27229637 -0.010451772 0.09243046 0.002049788 -0.09929373
-0.032868404 0.118901774 -0.08940271 -0.055784654 -0.12908979 0.037207644 0.13897908 -0.02355265
-0.10979101 -0.10111743 0.013424153 -0.10008733 0.04986199 -0.0911925 0.01720628 0.01335374
-0.27156937 0.17416641 -0.01446291 -0.21531868 0.11776064 0.06475436 -0.0064968956 -0.010656486
-0.1826918 -0.16942611 -0.10190268 -0.034346133 0.13644181 0.035081875 -0.24743685 -0.2016364
0.008579036 -0.25109902 -0.019085536 -0.31701237 0.005367204 0.28272328 0.14927039 0.09045625
-0.32243365 0.023230644 -0.1178763 -0.08225734 -0.09737957 0.22998948 -0.23254108 -0.21816245
-0.06974351 0.07651714 0.18318368 0.1552458 -0.16363864 -0.30515262 -0.11680355 -0.05846259

shared.2.weight f4 [128, 256]
00000000: d239 3a3c 82b9 673c 554c 72bd 153b db3c
00000010: aa2e 1dbd 54e9 b4bd 1b8d 53bd 9154 b83b
00000020: cd4a 86bd 95d1 88bd f5f1 363d b636 0e3d
00000030: c775 85bc 2940 523d c8d4 2b3d e53a 0b3d
00000040: d1f4 82bd f3e4 8abd 520a 0fbb d5f4 d0bc
00000050: 2ace 483d 5bf4 5cbd 2f4e 44bd 4a39 79bd
00000060: 1e9a 4ebd aeed 30ba e7e6 6bbd 2d71 59bd
00000070: e431 72bd b301 a8bc f69c 60bd 4c2c fabb
00000080: f1cd 36bd d924 933c c0b6 fbbc e9b0 11bd
00000090: b7dc e83c 2e63 6fbc 1acd a6bd 918e 4cbd
000000a0: 338e 563d 22af 033c 48d3 8cbc 74bd 3d3b
000000b0: 1fab e5bc f086 07bd 5e4c 34bd 03fc 1dbd
000000c0: d041 c03c 2fad 5cbd 3317 cfbc 575d 273d
000000d0: 549e f7bc c961 77bd 3386 cfba 98f4 49bd
000000e0: ec1c 283d 56ac 0cbd 7ca0 f539 a6da b9bc
000000f0: 8a99 92bd 8842 debc 8af4 e23c c8be f13c
00000100: c9da fbba 4535 36bd 8087 82bd 5635 1ebd
00000110: 0851 183d dfd0 fdbc e2b6 aa3c c31a 873c
00000120: 2f48 62bd 0a54 ce3c 2a62 5fbd 9c63 85bd
00000130: 74db 5dbb 57d3 5b3a 814d a03b 60cd 5b3c
00000140: 680b 663b f6ee c2bd f452 2a3c 04b4 a3bd
00000150: 1260 07bd 0c67 50bb 3f77 c43b e66e 383d
00000160: 932c 53bd 8739 633d 7899 69bc f00a 84bd
00000170: 88cb 2dbc 0dd9 b4bd 97b2 65bd 93c8 9cbd
00000180: 4e99 ce3c fd21 733c d282 f6bc a824 053c
00000190: 4000 1a3d 0df8 83bd 5367 c4bd 1573 06bd
000001a0: b508 94bc 7483 0abd 30e3 2dbd 5135 313c
000001b0: 6f2e 1dbd 14f4 133c fb5c 9e3c 04dd 90bd
000001c0: 720f 73bd 1118 2cbd 1ec7 b03c 7520 14bc
000001d0: a8b3 84bd 06fc 933d 4043 a43a 34c6 f43c
000001e0: b15e 61bd 4678 8abd e9b8 ed3c 17ba 953c
000001f0: 87d2 ff3c 6474 c5bc 998f 13bd 6901 ed3c
00000200: 7488 3cbd 8cca 99bc f0d0 893b 9b36 10bd
00000210: d679 dfbc 7857 ca3c b358 97bd dc28 b1bd
00000220: b38f 7ebd 27f4 8dbd f266 b33c e2a1 6ebd
00000230: fcb5 a1bd 250b 9f3c 22b4 b5bc 64dc 5dbd
00000240: 406b 35bc 0ecb 09bc f615 4eba 44ac 323d
00000250: 0c72 7abd 9859 85bd 1525 aa3c 18ab 473c
00000260: e20c babb 7ea1 233b d9d9 183d 4cd8 a1bc
00000270: 609e 06bd 7d7a 05bc 2db0 debd 6409 acbd
00000280: b4df 20bd 15ee 24bd bb12 293d 9523 e2bc
00000290: 3a05 293d 43ea 09bd 767a a23c 8b0b 9dbd
000002a0: 8739 c2bd 2f83 9f3c 5d60 0ebc 2292 84bd
000002b0: 63ed d4bd 5c47 6cbb dba2 0fbd f39f 92bd
000002c0: ef83 b4bc 01ac 3e3d 0092 debc 0ccf 5cbd
000002d0: 884d babb ebff 6c3c 99df 8dbd 4f5a a93b
000002e0: 2890 203d a62f 82bd 7f18 2abc 5902 513d
000002f0: fe80 d5bb c0f2 85bd fc17 92bd 55db debc
00000300: 86aa 20bd 874b 93bc 479e eabc af1b e03c
00000310: e8f8 2f3b 3d49 a5bd 12f6 5abd 9eed bebd
00000320: edf6 2fbc e70d d4bc fc7d c2bc bfd9 90bc
00000330: 47a6 fdbc 7a50 313d 0775 35bd 5abc 353c
00000340: de99 b8bc d94f df3c 159d 96bc 5f79 87bc
00000350: 1ec8 44bd c176 0b3d ba62 9ebc 9f7e 05bd
00000360: 34c9 40bd 8a46 66ba 3457 25bd 2c15 1bbd
00000370: fe35 6cbc 59ad 1cbd b620 91bd 80b4 4abd
00000380: 36ba b33c 9959 7dbd 49b1 2e3d 0695 ab3b
00000390: b0a7 27bd 7cc0 4fbc e991 9a3c 2ea6 0abd
000003a0: 3b8d 39bc ff15 333d 201e 4d3c 59d1 043c
000003b0: f546 2c3d 0033 35bd be62 7e3c 3ecc bfbd
000003c0: 056b dfbc d3b6 26bd 24df d83c f3b8 16bd
000003d0: f13b 12bc 095e 143c 60b6 013d 9d70 ee3b
000003e0: 8288 82bd 7057 27bd 1731 93bc 2854 aebc
000003f0: b0e0 f3bc 95ee 04bd e6f8 683d 6bfd 8dbd
0.0113663245 0.01414335 -0.059154827 0.026761571 -0.03837458 -0.08833566 -0.05164824 0.0056253155
-0.06557236 -0.066805996 0.044664342 0.034720145 -0.016291512 0.05133072 0.04195097 0.033991713
-0.06394351 -0.0678195 -0.002182622 -0.02550737 0.04902474 -0.053943973 -0.047926124 -0.06084565
-0.050439946 -0.0006749284 -0.057593253 -0.05308645 -0.05912961 -0.020508623 -0.05483719 -0.007634675
-0.044629995 0.017961906 -0.03072679 -0.035569105 0.028425558 -0.014611049 -0.08144589 -0.04994065
0.052381705 0.00803736 -0.01719059 0.0028952034 -0.028035698 -0.03308767 -0.044018142 -0.038570415
0.023468882 -0.0538761 -0.025279617 0.0408605 -0.030226864 -0.06039599 -0.0015832841 -0.04930553
0.041043207 -0.03434404 0.00046849612 -0.022687268 -0.071581915 -0.027131334 0.027704496 0.029509917
-0.0019214983 -0.044484396 -0.06373501 -0.038625084 0.037186652 -0.030983387 0.020839158 0.016492253
-0.05524462 0.025186557 -0.054536976 -0.065131396 -0.0033852728 0.0008385679 0.0048920517 0.013415664
0.0035102013 -0.095182344 0.010395754 -0.0799332 -0.033050604 -0.0031799702 0.0059956606 0.045027636
-0.05155618 0.055474784 -0.014257781 -0.06447399 -0.010607608 -0.08830462 -0.05607852 -0.07655444
0.025219586 0.014839646 -0.030091677 0.008126415 0.037597895 -0.06443796 -0.0959002 -0.032824595
-0.018070558 -0.03381677 -0.04245299 0.010815934 -0.03837436 0.009030361 0.019331446 -0.070734054
-0.0593409 -0.04201514 0.021579321 -0.0090409415 -0.06479579 0.07225804 0.0012532249 0.029879667
-0.055021945 -0.067612216 0.029018836 0.018277211 0.031228317 -0.024103351 -0.036025617 0.028931336
-0.04602857 -0.01877334 0.0042058155 -0.035208326 -0.027279776 0.024699911 -0.07389965 -0.086503714
-0.06214876 -0.06931334 0.021899674 -0.058259852 -0.07896039 0.019414494 -0.02218062 -0.05416526
-0.011072934 -0.008410228 -0.0007861549 0.043621317 -0.06114392 -0.06511229 0.020769635 0.012186788
-0.0056778053 0.0024968083 0.03731713 -0.019756459 -0.032865882 -0.008146879 -0.108734466 -0.084002286
-0.03927584 -0.040266115 0.04127763 -0.027604857 0.04126475 -0.033670675 0.019833785 -0.07668217
-0.09483629 0.019471733 -0.008689967 -0.06473185 -0.103968404 -0.0036053276 -0.03506742 -0.07159414
-0.022035567 0.046550754 -0.027169228 -0.053908393 -0.005685512 0.0144653125 -0.069274135 0.0051682363
0.039199978 -0.063567445 -0.010381817 0.05102763 -0.006515621 -0.065404415 -0.07133481 -0.027204195
-0.039225124 -0.01798035 -0.028639926 0.02735695 0.002685124 -0.0807061 -0.053457327 -0.09322666
-0.010740024 -0.025885535 -0.023741715 -0.017681954 -0.030963076 0.04328964 -0.04430106 0.01109227
-0.022534307 0.027259754 -0.01838545 -0.016537366 -0.04804241 0.0340488 -0.019334186 -0.03259146
-0.047066882 -0.0008784315 -0.040366367 -0.037861988 -0.01441717 -0.038251255 -0.07086317 -0.049488544
0.021939378 -0.061853025 0.04264954 0.005236271 -0.040931404 -0.012680169 0.018868404 -0.033849888
-0.011325176 0.04372215 0.012519389 0.008106553 0.042059857 -0.04423809 0.015526472 -0.09365128
-0.02727271 -0.0407017 0.02647359 -0.036797475 -0.008925424 0.009055623 0.031668067 0.007276608
-0.06373693 -0.04085487 -0.017967744 -0.021280363 -0.029770225 -0.032454092 0.056877993 -0.06933101

shared.2.bias f4 [128]
00000000: 045c 55bd ca10 c83d a5ba cabd 5b07 ebbd
00000010: 02d7 d4bc 816e 5fbd e074 4bbc 9291 26bd
00000020: 8083 d5bd 7df3 dfbd 091b 553b 27c0 f7bc
00000030: feb8 c9bd 4bbe a5bd 1ebe 07be 5614 b9bd
00000040: 36d3 22be 8a45 88bb e474 083c 9196 03bb
00000050: f7c5 c03c 8a60 7bbd 5ab8 91bc 2739 69bd
00000060: 5019 15be 1b93 163d 0014 b93b d77e 033c
00000070: 2a1c 5fbd e6f2 9ebc fb7f fbbd 029c b6bd
00000080: 8823 63bd db28 59bc 9ad3 84bd f055 ccbd
00000090: 9c05 65bd 60ae 73bd 3e39 b4bd 96b1 b9bd
000000a0: 2e13 4fbb 57ed 1dbd 75bd 0abd 031f abbd
000000b0: e888 88bd a6ca 363e d075 34bd 3bf2 7d3d
000000c0: b1d3 02bd b84e 8fbd 9e26 4dbc 7e50 513d
000000d0: 5444 5dbb e8a0 99bd 96ea 9fbd a81a e7bd
000000e0: 157d 65bd 34ec d1bc 9513 29bd c258 99bd
000000f0: 8f0e 07bc 5587 17be 2cbb 893d a0ad 69bd
00000100: 8868 023d 3381 92ba 2ee8 70bd ee2f 4abd
00000110: 48de 39bd 2221 b5bd 77bc d13c 1025 72bc
00000120: 9c4e 31bd 0e25 08be 8d83 2bbc a299 69bd
00000130: 9846 f5bd 4819 82bd d39c c9bc ef05 fe3d
00000140: dac9 efbc 7d82 40bc 84b7 d0bd 5108 4d3c
00000150: ab30 22be a061 b4bd 91ff 7abd 3e42 29bb
00000160: 3737 18be 32c2 9bbc 4bdf 133d 8645 f03c
00000170: fc1f 08bd 8fff 8bbd 52a9 aabd 2a81 ba3c
00000180: f3fd 72bd 6458 38bd 81c7 a0bd 1853 3abb
00000190: cd16 573c 2b69 38bc 2017 d5bd 8497 0b3e
000001a0: c8ee a0bd c061 e3bd d35c cfbd be14 6bbb
000001b0: 23c8 22be f509 0fbe 7258 c53c 71fd e0bc
000001c0: 659f ccbd 2b8d d2bd 4d08 42bc 714d 83bd
000001d0: c56d e0bd 11f9 35be 5a54 a7bd 20bb b23d
000001e0: cbc3 bbbd 518c 43bd 24cb 8c3d ff45 bfbd
000001f0: 5995 dfbd 8c74 6abd 0beb 78bd a932 a2bc
-0.052089706 0.09768827 -0.09898881 -0.11476012 -0.02598143 -0.054548744 -0.012418002 -0.04066617
-0.10425472 -0.109351136 0.0032517335 -0.030242993 -0.098497376 -0.08092936 -0.13256118 -0.09037082
-0.15900883 -0.0041586803 0.00832865 -0.0020078758 0.023531897 -0.061371364 -0.017788101 -0.05693927
-0.14560437 0.036761384 0.005648136 0.008025846 -0.05447022 -0.019402932 -0.1228027 -0.08916475
-0.055453807 -0.01325437 -0.06485672 -0.09977329 -0.055913553 -0.05949247 -0.087999806 -0.09067075
-0.0031597125 -0.038556423 -0.033872087 -0.083555244 -0.06666738 0.17850742 -0.044057667 0.061998587
-0.031940166 -0.06997436 -0.012521414 0.051102154 -0.003376265 -0.075013936 -0.078084156 -0.11284381
-0.05602749 -0.025625326 -0.04127844 -0.07487632 -0.008243217 -0.14797719 0.06725153 -0.057050347
0.03183797 -0.001117742 -0.058815174 -0.049362116 -0.045378 -0.0884421 0.025602562 -0.014779344
-0.04328786 -0.13295385 -0.010468376 -0.05703128 -0.11976355 -0.06352478 -0.024610912 0.124034755
-0.029271055 -0.011749861 -0.10191253 0.01251419 -0.15838878 -0.08807683 -0.061278883 -0.0025826837
-0.14864813 -0.019013498 0.03610162 0.029330026 -0.033233628 -0.06835853 -0.083330765 0.022766668
-0.059324216 -0.04500617 -0.07850552 -0.0028430875 0.013127995 -0.011255543 -0.10404801 0.13632017
-0.07858044 -0.11102629 -0.10125127 -0.0035870518 -0.15896659 -0.13968642 0.024090026 -0.0274646
-0.099913396 -0.10280832 -0.011842799 -0.06411255 -0.10958437 -0.17770793 -0.08170386 0.087270975
-0.09168204 -0.047741238 0.068746835 -0.093395226 -0.10917158 -0.057240054 -0.06077103 -0.019799547

dice_policy.weight f4 [5, 128]
00000000: f03a 213d db8c 3dbc a124 47bd 072c 813d
00000010: 9442 e23b 43ff c5bb 0ce6 15be c4e3 923d
00000020: fc33 54bd ef0c 9cbc 286e 6e3d dcaf c8bd
00000030: 19e3 c2bd dcf5 38bd 15da c7bd 9fa2 26bd
00000040: fda5 b2ba 9e4f a0be 7892 f4bc b206 99bd
00000050: 6a10 043e b5df 6ebd 4498 10be 0803 fcbd
00000060: 5381 20bd 434e 50be b7ad 823c 3ba7 333c
00000070: a548 3f3d 62f7 00be 939d 863d 25ad b93d
00000080: 94ff 75bc 0243 0a3c 642d b7bd 1b82 1f3d
00000090: a386 1b3d dc96 bbbc efed cabd b402 10be
000000a0: 30ae db3c bb0c cc3d c671 9f3d ae18 ae3d
000000b0: 8c1a 5d3c bd63 11be 5189 f83c 6c1e 1bbd
000000c0: 7258 3cbd f5a0 aa3d ce2c a33d fa6e 753e
000000d0: cf67 ea3c 4987 3c3c a9db c9bd 09ed f1bc
000000e0: 0219 673a 64c3 35bc af14 25be 680b 83be
000000f0: 3d29 9abc 7966 a03c f280 90bd 8c36 973e
00000100: 9337 27bd 79d9 95bc 817e 7b3d 8a5e 05bd
00000110: 3b20 35bd fc4e 72bd 9392 913c dc1f f53b
00000120: 5d00 383d 5c39 e6bd 64d2 943d 0388 4d3d
00000130: 04a9 1f3d 33a1 91bb 8100 3d3c 6736 013c
00000140: 8978 adbc d6c6 0bbe 25ce 9ebc d477 9dbc
00000150: fe8b 02be 9f3b 3ebd 1d5a a53b b6f9 3d3d
00000160: f068 cbbd bbb2 7b3e c7c5 83bd 6cf4 c0bd
00000170: 619a f83d 5e32 bfbd 27ee d03c 621e ffbc
00000180: 809a 76bd 5326 363d 432f 56be 5edf 1cbe
00000190: bafa a0bd 645d d9bc 687a 20bd e355 86bc
000001a0: b0f7 4cbd 43c1 3abd 7320 7abc d7fa 22bd
000001b0: b389 bdbc 6dfd 2cbe 8643 f2bc d3fc 40bd
000001c0: 7632 d93d e62e c5bd 27dd 8ebc 35a7 5abd
000001d0: 44ae 03bb e6ca 5fbd 5299 00bd 553d 023e
000001e0: a46d 3dbe 58c2 90bd a5ce 1abe 779a a03d
000001f0: 0b86 f33d 2e0f 7ebd 28be c9bd 459f 303c
00000200: 248b c1bd b193 5c3e ae33 793d 063f b03b
00000210: be4d c93c 6097 1dbe 2193 4f3c 1146 06bd
00000220: 34db 2ebd 70d6 c1bd da3e d7bb d509 1c3d
00000230: bef3 8b3d def9 3bbd 45f0 f2bd 78bd 40bd
00000240: 4600 ecbd 63ca 04bd d106 a3bc c0d8 90bd
00000250: 522f 103d f345 1bbd c7ac e23d deda 1cbd
00000260: e09b d03d f73b 23bc 71f9 493c a994 b0bd
00000270: 8712 be3d d7ef 87bd 6b4d 4f3d 121f c63c
00000280: 386d fdbd 77dc e0bd 5594 373c 6952 9e3c
00000290: 5301 6dbd 53a1 a7bd e0e2 c03d 9ec2 523d
000002a0: 8818 66bd d239 923c 3846 c5bd 4a24 1d3e
000002b0: eed9 4ebc 51ef 5bbd 9d02 7cbd 068f 5fbd
000002c0: ccb5 a13c 577f 5cbc af8f 06be 5845 893d
000002d0: df91 0d3e db65 763b 54fa 2abd 7201 a8bc
000002e0: b042 02be 0ab5 c73c 90d6 d43c 6afb bb3d
000002f0: e385 9e3d 1333 06bd 7f1b 263c ba51 31be
00000300: 0748 f73c db1e 7fbd ed6e aebd 566b 943d
00000310: 9fc6 f83d 174e 7dbd 9651 e6bd ce7b afbc
00000320: c3e8 a1bc 739c 17be 5755 48bd ac57 3fbc
00000330: 9e14 ea3c b639 513d 4d89 643d fbb6 6bbd
00000340: 43b6 68bd 0b05 b73d 103b 06be b027 6d3d
00000350: 463d 55bd b0dc a3bc e11b ccbd 8756 4dbd
00000360: a776 7bbe fb21 95bd 9994 98bc e1f2 3ebe
00000370: 0b39 ff3d 39b2 f33c 0efb 833d 7c7e 45bd
00000380: cc4f 0dbe ef3c d0bc 7d83 3e3c ae79 90bd
00000390: fc95 be3d 51c4 c03d 7779 85bd 5059 4b3a
000003a0: 6b26 e3bc b1df 7dbc 6f50 33bb d5ff b63d
000003b0: e10c 033e 55e1 1fbd 0ddd 44bd 58ef 993d
000003c0: 6267 f03d 2917 d6bd a4c8 8e3c 1377 d1bd
000003d0: 3e99 bfbb 17a8 353d 9a84 1ebd 094b 263c
000003e0: 12d4 34be fda7 27bd e5d2 18bd 63c3 80bc
000003f0: 47e7 d63d cb99 1dbe d310 56be cf7b 0abc
0.039362848 -0.011569227 -0.048618916 0.06307226 0.0069049094 -0.0060423925 -0.14638537 0.07172349
-0.05180739 -0.019049136 0.058210522 -0.097991675 -0.09515972 -0.045156345 -0.09758393 -0.04068243
-0.0013629791 -0.31310743 -0.029854998 -0.0747198 0.12896886 -0.058318812 -0.14120585 -0.12305266
-0.039185833 -0.20342354 0.015951974 0.010965164 0.04670014 -0.12594369 0.06573024 0.09066228
-0.015014548 0.0084388275 -0.089442044 0.038942438 0.037970196 -0.022899084 -0.099086635 -0.14063531
0.026816458 0.09963366 0.077853724 0.08500801 0.013495099 -0.14198203 0.030338915 -0.03787081
-0.045982786 0.08331481 0.0796753 0.23968115 0.028613953 0.011506864 -0.0985635 -0.029531972
0.0008815677 -0.011093948 -0.16121171 -0.2559464 -0.018818492 0.019580113 -0.07055844 0.29533803
-0.040824484 -0.018292176 0.06139994 -0.032560863 -0.04422019 -0.059157357 0.017770087 0.0074806046
0.04492222 -0.11241409 0.07266691 0.05017854 0.038979545 -0.0044442653 0.011535765 0.007886506
-0.02117564 -0.13650069 -0.019385407 -0.019222178 -0.12748715 -0.046443578 0.0050461427 0.04638072
-0.099321246 0.24579899 -0.064342074 -0.0942162 0.121388204 -0.09335779 0.025504185 -0.031142417
-0.060205936 0.044470143 -0.20916466 -0.15319583 -0.07860322 -0.02653379 -0.039179236 -0.016398376
-0.0500409 -0.045594465 -0.015266526 -0.03979 -0.02313695 -0.1689355 -0.029573213 -0.047116112
0.10605328 -0.09628086 -0.017439438 -0.053382117 -0.0020092884 -0.05463686 -0.031396218 0.12718709
-0.18498856 -0.07068318 -0.15117891 0.07841962 0.11890801 -0.062026195 -0.098507226 0.01078016
-0.09450367 0.21540715 0.0608403 0.0053786067 0.024573203 -0.15389776 0.012669356 -0.032781664
-0.042689517 -0.09464729 -0.006568772 0.038095314 0.068335995 -0.04589259 -0.11862234 -0.04705569
-0.1152349 -0.032419574 -0.019900711 -0.07072592 0.03520138 -0.037908506 0.11068111 -0.038294666
0.10185981 -0.009963027 0.012327538 -0.08622105 0.092808776 -0.06637543 0.05061094 0.024184737
-0.123743474 -0.1097955 0.011204799 0.019326406 -0.05786259 -0.08185067 0.09418273 0.051455133
-0.05617574 0.017849836 -0.09632534 0.15345874 -0.012625201 -0.053695027 -0.06152593 -0.054579757
0.019740008 -0.013458095 -0.13140748 0.067026794 0.13825177 0.0037597332 -0.041742638 -0.020508502
-0.12720752 0.024378318 0.025981218 0.09178813 0.077403806 -0.032763552 0.0101383915 -0.17316332
0.030185713 -0.062285285 -0.08517251 0.07247035 0.12147259 -0.06184205 -0.1124603 -0.02142134
-0.01976431 -0.14805774 -0.04890951 -0.011678617 0.028574284 0.051080428 0.055795003 -0.05754755
-0.056814443 0.08936509 -0.13108468 0.057899177 -0.052060388 -0.020002693 -0.09966255 -0.050131347
-0.24556981 -0.07281872 -0.018625544 -0.18647338 0.12462052 0.02974807 0.06444369 -0.048216328
-0.13799971 -0.02541968 0.011628029 -0.070544586 0.09305951 0.094124444 -0.06517308 0.0007757144
-0.02772828 -0.015495227 -0.0027361175 0.08935515 0.12797882 -0.039033253 -0.048062373 0.07516354
0.11738469 -0.10453636 0.017429657 -0.1022779 -0.0058471253 0.044349756 -0.038700677 0.010149726
-0.17659023 -0.04093169 -0.0373105 -0.015718168 0.104933314 -0.15390699 -0.20904855 -0.00845237

dice_policy.bias f4 [5]
00000000: 6cb4 3dbe 91bb eebc 11ff c2bd b7fe 7fbc
00000010: ca1c 983d
-0.18525857 -0.029142173 -0.09521306 -0.015624694 0.07427366

category_policy.weight f4 [13, 128]
00000000: 5905 463d 7436 14be 5655 f4bd 332f ecbd
00000010: d4b1 803c 13a8 ba3c cb29 17be e6da 15bd
00000020: 4abe d0bc 94ab c9bc f754 bcbc 8ff3 fcbd
00000030: 1e52 4ebd 4f38 adba c049 06be 428e 433d
00000040: 6c79 74be 6177 83be 7f94 84bd 3da3 35be
00000050: cea5 8bbd 05a6 d2bd 496d 96bd ec30 84be
00000060: 08f9 47be fbd7 25be 9318 dfbb 3735 123c
00000070: 9208 14bd 55d2 803a 0a27 77bd 1951 23bd
00000080: bf2a 87be 35e6 30be 5f45 b3bd 86d3 5abd
00000090: e70d 5dbc b85e 8cbd 600a adbd 3ef2 4bbd
000000a0: 6558 29bd 2a2a 05be 18fe 233d 3bfe 0abd
000000b0: 0f81 f6bc a840 f4be 5ff8 22bd 0ca7 bc3b
000000c0: da4e 71bd fb0f 75bc 5ca5 a5be fd3e 31be
000000d0: 5dd6 adbe 1909 ccbd 208a b7bc e3ba 3bbc
000000e0: 6067 16be 3fa5 15bd f0eb 61bd c55d 33be
000000f0: e844 4e3b 486c b0bb 3f1d f8bc a776 b2bd
00000100: 9198 27bb d2bb 90bb 57fa 14bd 1f7b 12be
00000110: 90b8 93bc 69a9 c8bd 5165 5dbe da1f 403d
00000120: 20b1 553d 847a 42bc 3a9e bebe 8e81 61be
00000130: e1f0 c6bc 956c 46bd cd19 4cbc 1bdd 26bc
00000140: c9d5 07bb 60e2 45bd edec 52bb 3c78 953d
00000150: 6c48 abbd 0131 50bd eb0e 8abd 2ca9 a4bd
00000160: c1fd 38be 7783 d3bd 0b3b 0a3d 07e4 00bd
00000170: 19b2 ce3a 6007 563d dcb8 45bc ddc3 e3be
00000180: a480 1dbe 8eb1 bdbd 347b 01be 088a 82bc
00000190: 9441 f9bd 9c5e 67bd aca8 c6bc 3290 e9be
000001a0: 752e b0bc 84f1 6fbd 2db4 e7bd a543 4a3d
000001b0: d23d d6bd e271 29be a27a e43c c2b4 87bd
000001c0: 029f 04bd 22a8 0f3d e277 f0bd c0fa 893c
000001d0: eef3 42bc 95df 32be 7c47 3dbd 4e92 d13c
000001e0: 0287 adbd 3d3c 6a3c 469d f9bd d5a7 133c
000001f0: af12 eebc 3e32 47bd eae4 acbd e0ec 05bd
00000200: 62c4 5e3c f54d 1bbe 1a4a e3bd 04e7 0bbe
00000210: 1c99 93bd 1b9d 49bd d26d 45bc 7ae4 abbc
00000220: 8ec1 63be 33a8 e7bb 98bd 3ebd a114 49bd
00000230: 1be5 acbd 1d7a f0bb 646f a93c 3d1a 893c
00000240: 4b42 54be 43ba f4bd d638 79bc f4b9 84bd
00000250: cda3 76be 2827 abbc 1ddd 3cbd c77b 8cbe
00000260: 05f4 77be 861d 9bbe 549f 29bb 33d1 aebd
00000270: f814 5abc 1def ea3c 418b 9b3c 984a 943b
00000280: d97c 21be 3f14 5abe 400e 8ebd eb72 d9ba
00000290: 0c3e b6bd 193b 99bd d79a 5abe e5ba d03c
000002a0: ccf1 623d db22 89bb a6e7 30bd c8e8 89b9
000002b0: a546 fabd d9e7 d4be 221f 85bd 5614 12bd
000002c0: 9b2f fe3c 1f7f 31bd cc18 28bf f13a 43be
000002d0: be16 dfbe 89f0 46bd db6f d9bd 1f9a 91bd
000002e0: 0821 50bd 34ad 5bbd 528c 43bd d5c7 aabe
000002f0: e8c3 a5bb 8a5d d93c 8123 1a3d 8e09 d9bd
00000300: ea04 95ba 873a 88bc b05a cc3c f586 97be
00000310: 37a2 0bbd 01e4 8ebd b87c 27be ea9b 433d
00000320: 0dce a53b 5190 d4bd d22f 76be e091 b4be
00000330: 1ce4 193d e529 bfbb 415d 44bc 4adc 95bd
00000340: b74c 06bb 4e4e 08bd d38b 99bc 56e4 083d
00000350: afd7 a4bd b0cc 7fbc 7fba e8bc 1ab8 bdbd
00000360: bfd9 26be fb80 303c 0358 edbb c078 6cbd
00000370: fea7 8b3c ad40 d9bd f48c ac3c 7765 e0be
00000380: 519c 5dbe ef26 0abd 9159 95bd 8be0 f03b
00000390: c48b b1bd 35e2 4cbe 98f2 7abd 0d58 64be
000003a0: 0858 0bbb d0b6 ce3c 21f4 8cbd efb5 783d
000003b0: 6475 07be 8514 8fbe d54d fe3c 0bcd 8abe
000003c0: 3e7f babd cb74 02bc 0b6f 483c 557a fcbc
000003d0: f5f0 853c ca4e a3bd 3ad4 1cbd a8ef 0e3d
000003e0: d75f 67bc 8c10 803d 15f6 8cbd 3025 9fbd
000003f0: 64e1 373c 1d4d a6bd f31a 0fbe c0c0 a1bd
0.048344944 -0.14473897 -0.11930339 -0.1153244 0.015709795 0.022785222 -0.14762037 -0.03658571
-0.025481362 -0.024617948 -0.022989733 -0.123511426 -0.05037128 -0.0013215634 -0.13114071 0.04774309
-0.23874444 -0.25677016 -0.06473636 -0.17738052 -0.06818734 -0.10285572 -0.07345063 -0.25818574
-0.19528592 -0.16195671 -0.0068083494 0.00892382 -0.036140986 0.0009828309 -0.060339965 -0.039872263
-0.263998 -0.17275317 -0.08753466 -0.05342438 -0.013492084 -0.06854004 -0.084492445 -0.049791567
-0.041344065 -0.13004366 0.040037245 -0.03393386 -0.030090837 -0.4770558 -0.039787646 0.005757218
-0.05891309 -0.014957423 -0.32352722 -0.17309184 -0.3395261 -0.09962673 -0.02240473 -0.0114581315
-0.14687872 -0.036534544 -0.05515665 -0.17516239 0.0031474177 -0.005384002 -0.030287383 -0.087140374
-0.0025573114 -0.004416921 -0.036371555 -0.1430478 -0.018032342 -0.097979374 -0.2162068 0.046905376
0.052170873 -0.01187003 -0.37230092 -0.22022077 -0.024284782 -0.048443396 -0.012457323 -0.010184552
-0.002072679 -0.04831159 -0.0032184676 0.072983235 -0.08363423 -0.050827984 -0.067411266 -0.080400795
-0.1806555 -0.10327809 0.033747714 -0.031467464 0.001576963 0.052253127 -0.012068 -0.4448537
-0.15381104 -0.092623815 -0.12644655 -0.015934959 -0.12170711 -0.05648671 -0.02425035 -0.45617825
-0.021506527 -0.058579937 -0.11313663 0.049380917 -0.1046101 -0.16547349 0.027890507 -0.06626274
-0.032378204 0.035072453 -0.11741616 0.0168432 -0.011898978 -0.17468102 -0.04621075 0.025582459
-0.08473016 0.0142965885 -0.12188201 0.009012182 -0.029061643 -0.0486319 -0.084420994 -0.032696605
0.013596626 -0.15166457 -0.11098118 -0.13662344 -0.07206938 -0.049222093 -0.012050109 -0.02098297
-0.22241804 -0.0070696115 -0.04656753 -0.04909194 -0.08442136 -0.007338776 0.020682998 0.016736144
-0.20728414 -0.11949589 -0.015211305 -0.0648078 -0.24085923 -0.020892695 -0.046109308 -0.27438185
-0.2421418 -0.30295962 -0.002588232 -0.08535995 -0.013310663 0.028678471 0.0189873 0.004525494
-0.15770282 -0.21296786 -0.06936312 -0.0016590034 -0.08898553 -0.07481975 -0.21348129 0.025479743
0.055406377 -0.0041850633 -0.043189667 -0.00026304112 -0.122205056 -0.41583136 -0.06500079 -0.035663925
0.03102856 -0.043334123 -0.6566284 -0.19065453 -0.43572038 -0.048569236 -0.10617038 -0.071094744
-0.05081275 -0.053631976 -0.04774124 -0.33355585 -0.0050587542 0.02653386 0.037631515 -0.105975255
-0.0011369262 -0.01662947 0.024945587 -0.29595152 -0.034090247 -0.06977082 -0.1635617 0.047756113
0.0050599636 -0.10379089 -0.2404168 -0.35267544 0.037571058 -0.0058338516 -0.011985124 -0.073174074
-0.0020492503 -0.033277802 -0.018743431 0.033420883 -0.08048951 -0.015612766 -0.02840924 -0.0926363
-0.16294001 0.010772939 -0.007243158 -0.057732344 0.017047878 -0.10608039 0.021063305 -0.43827412
-0.21641661 -0.033728536 -0.07292474 0.0073509864 -0.08669236 -0.20008166 -0.06126651 -0.22299214
-0.0021262188 0.025233656 -0.068825014 0.06072038 -0.13228375 -0.27945343 0.031042973 -0.2710956
-0.09106301 -0.007962416 0.012233506 -0.030820051 0.016350249 -0.07974012 -0.038288333 0.034896523
-0.014121971 0.06253156 -0.06882874 -0.07770765 0.011223171 -0.08120177 -0.13975124 -0.07898092

category_policy.bias f4 [13]
00000000: 0050 483d 709e e9bc 7d24 853d 63c4 bf3c
00000010: 599c be3d d0b3 3abd 74f2 0fbb 5bfb b2bc
00000020: 17e4 febd 2621 113e b146 9cbd 6939 2abe
00000030: aeb1 793d
0.04890442 -0.028517932 0.065011 0.023409074 0.09307165 -0.04558164 -0.0021964582 -0.021848371
-0.124458484 0.14172801 -0.07630671 -0.16623463 0.060960464

value.weight f4 [1, 128]
00000000: b950 983d 51af 833a 72b4 503d 2014 733d
00000010: 8e7f 423d e6a7 6dbd 8788 fabb db6f df3c
00000020: 2ba1 0abd e32c 183d 8104 27bd 45d4 8ebd
00000030: 4678 373d 773c b0bd 9c18 623d a5ba d0ba
00000040: 0bb9 8fbc d278 45bd 7075 113d 1906 093d
00000050: e16f 50bd cb4f a7bd 1028 653d 3e16 a7bd
00000060: b69c 983d 6b05 c9bc ac02 2fbd cde0 963c
00000070: fd5d 443d 6a3f 03bb 9b83 623d a111 713d
00000080: 5e74 b03b 6d5c a0bd 8d91 3ebd ed41 09bd
00000090: bc4f 5b3d 6880 1ebd 7264 9d3c c6ce 9c3d
000000a0: ce7f b3bd 11ff 5bbd a267 6cbd 6052 273d
000000b0: 3461 483d 8efa 3e3d c838 473c 95e3 0e3d
000000c0: fe12 763c 26e1 c1bc 44d4 b43d 60f8 30bc
000000d0: 3b53 973d 9482 e6bc 8c75 433d 53cf 6abd
000000e0: 50b9 de3c e26e a4bc 15dc ba3c 6e04 7fbd
000000f0: cca7 2cbd 9a98 6ebd 2689 98bd 2bda 1f3c
00000100: be77 ae3d e913 5bbc 8700 64bd 1c5b 5abd
00000110: ed42 f13c 8b13 053d f50b 56bc 6d5f c4bc
00000120: 2303 573d 1ad6 65bd d212 b03d 7926 3b3d
00000130: abf8 a3bd db23 d4bc 9018 f63c bc8d 71bd
00000140: d532 d93c a906 5d3d 7596 0b3d 18a8 a9bd
00000150: 2fd7 2abd fe10 a1bd 3038 4d3d 4210 603d
00000160: fa3d 38bd 7447 aabb 6e21 873c 4ab8 c63c
00000170: 576d 823c 9b4d 8ebd 6fe1 e33c bd81 b4bc
00000180: 8652 04bd b0c4 24bb 63d7 9f3c 8b18 f13c
00000190: be6a 26bd 483f 4dbd 57e5 45bd 3946 5dbd
000001a0: b598 5a3d ce70 223d 19a6 d8bc c716 fd3b
000001b0: f7b6 7cbc 0320 75bb da91 91bc 9b89 73bd
000001c0: d34e b13d 7847 4f3d fe0f 88bb e873 2fbd
000001d0: 19a4 0e3d 38a1 ac3d 0385 553d 5936 3dbd
000001e0: 6f8a 8d3d 256f 62bd 6fe7 cc3c 6e05 a6bd
000001f0: 6421 023d de6a cd3c f770 453d 86d9 00bd
0.074372716 0.0010046755 0.050953336 0.059345365 0.047484927 -0.05802145 -0.00764567 0.027275017
-0.033845108 0.037152182 -0.04077578 -0.06974081 0.044792436 -0.08605283 0.05519925 -0.0015924765
-0.01754429 -0.048210926 0.035512388 0.03345308 -0.050887946 -0.08169516 0.05594641 -0.08158539
0.07451765 -0.024538716 -0.042727157 0.01841774 0.047941197 -0.0020026811 0.05530129 0.058854703
0.005384966 -0.07830129 -0.046525527 -0.033510137 0.053542838 -0.038696676 0.019212935 0.076566264
-0.08764611 -0.053710047 -0.05771602 0.040850043 0.048920825 0.046625666 0.012159534 0.034885008
0.0150191765 -0.02366693 0.08829549 -0.010801405 0.07388922 -0.028138436 0.047719523 -0.057326626
0.027187973 -0.020072404 0.022810021 -0.062260084 -0.04215221 -0.058251 -0.07448034 0.009756605
0.08518933 -0.013371446 -0.055664565 -0.053309545 0.029450858 0.03248934 -0.013064374 -0.023971284
0.052493226 -0.056112386 0.0859734 0.045690987 -0.08006414 -0.025896003 0.03004101 -0.05897306
0.026513496 0.05396143 0.034079034 -0.082840145 -0.04170912 -0.07864569 0.050102413 0.054703005
-0.04498098 -0.005196506 0.016495433 0.024257798 0.015921278 -0.06948396 0.027817456 -0.02203452
-0.032305263 -0.002514165 0.019511884 0.029430648 -0.04062914 -0.050109178 -0.04831442 -0.054022048
0.05336829 0.03965836 -0.026446389 0.0077236625 -0.015424482 -0.0037403114 -0.017769743 -0.059457403
0.08657613 0.050605267 -0.004152297 -0.042835146 0.034824464 0.084291875 0.052128803 -0.046194408
0.0691117 -0.055281777 0.0250127 -0.081065044 0.031770125 0.025075372 0.048203435 -0.031457447

exp_avg f4 [256, 23]
00000000: d4b8 f93c ed33 883b fa3b a13b 380e f53c
00000010: fb74 f33c 0000 0000 0400 0000 3100 0000
00000020: 4b00 0000 6400 0000 ff7e 0080 d055 3e8f
00000030: 2a60 9412 1600 0000 142f 6818 5645 dcb7
00000040: 056d 0533 95cf 2210 71bf 1f8c 0000 0000
00000050: 6892 c98c 0000 0000 0000 0000 9c72 bbb5
00000060: a493 bbb5 bbf6 bbb5 f495 8cb6 349e 8cb6
00000070: 0000 0000 9051 bbb5 32c0 6f06 2d7d 8cb6
00000080: 9051 bbb6 f325 6ab7 2d7d 0cb7 0400 0000
00000090: 0400 0080 b757 12b8 6ebb 2fb8 434f 6ab8
000000a0: 0400 0000 08db f5b7 0000 0000 0000 0000
000000b0: 0000 0000 0000 0000 f27f d53c a802 3a3c
000000c0: 7eeb 593c 0361 d33c 083a d33c 0000 0000
000000d0: 876b 6a2e 0400 0000 efcb 3b2f 4765 7a30
000000e0: e7b7 292c 0400 0080 cbdb 33bc 0a16 e3bb
000000f0: 9930 b4a7 66a7 65b8 0400 0000 199f 4331
00000100: e4be 6a30 0400 0000 0400 0080 0000 0000
00000110: 0000 0000 1a11 cfbb 538d 793b 00a4 f03a
00000120: 949d cdbb fe80 d7bb 0000 0000 a3ee 2b39
00000130: 4527 9139 2c0a 103b 35fb 5e3b fe49 8b3c
00000140: 6a19 9b3b b5d4 e03c 3c76 4ab4 460c e83c
00000150: a151 813c 9fa7 d93b 679a a8b4 e69b de3c
00000160: 0400 0080 5cc4 b084 0000 0000 0000 0000
00000170: b3fc 10bb 7f21 9bba cd96 10bb 6cbf 0dbb
00000180: 0068 0fbb 0000 0000 7411 6b37 2912 b437
00000190: cf69 bf38 94f4 12b1 0d1a 5cb0 cd0e 8739
000001a0: 94cc 20bb 587b 1ebc 6fa6 3739 34d2 283a
000001b0: 0400 0000 458b 3d3a 358a ec39 0000 0000
000001c0: 95e3 760f 0000 0000 0000 0000 60e1 42bd
000001d0: 86af 04bd 3243 80bd a196 57bd b406 2dbd
000001e0: 0000 0000 3627 46bb 0b17 eebb 037d 9dbc
000001f0: 39e3 d1ba ac4c 53b9 fab8 efbd 085b f7bd
00000200: 4307 c7bd d2db e6bc cacc 5abc 1394 3f3b
00000210: 7b0c 28be 27c4 01be 0000 0000 7148 9b90
00000220: 0000 0000 0000 0000 2961 10bc 0291 d4bb
00000230: fe2a 07bc a9bf 04bc 839a 06bc 0000 0000
00000240: 83ec 47ba 3af0 f1ba f646 dfb9 544f 1539
00000250: ffd8 623a 9d09 30b7 7b8d c03b 2cd2 33b1
00000260: 08f2 15bb 5625 8dbb 7bcc 3abc adc6 e0b1
00000270: 086f 043c 0400 0080 5894 6a84 0000 0000
00000280: 0000 0000 3f6b c93b f2a0 873a 07a8 873a
00000290: f0cb c93b 31d7 c93b 0000 0000 ed01 6b34
000002a0: 9b09 a4a9 242a b035 5804 2f31 78f2 9235
000002b0: bb13 aa37 0e00 0000 9b9a 6231 9c75 b736
000002c0: 78a9 9938 1c00 0000 9adb 1732 00b3 1b38
000002d0: 0400 0080 0400 0000 0000 0000 0000 0000
000002e0: 2c9c 993c cb3c 3a3c 1ce1 5a3c f256 9d3c
000002f0: 14d2 9c3c 0000 0000 0400 0000 0400 0000
00000300: 0400 0080 0400 0000 33dd 5035 aee8 7cb9
00000310: 0400 0000 f995 c13b 0400 0000 ce14 5235
00000320: b48d aa9b 0400 0080 91d0 3c3b 0000 0000
00000330: 0400 0080 0000 0000 0000 0000 9bb2 993c
00000340: 0671 5d3c feb7 c3bc 0ddf bdb9 ff24 f33c
00000350: 0000 0000 8fdd bebb 2abd 62bc 3b8e 57bc
00000360: 1bf5 923c 21a8 b63c f65a 60bd 0e0e d9bc
00000370: f731 afbd 5697 593d 8aa5 6bb9 f5d7 ebbb
00000380: f030 8ebe ed9e 02bd 0400 0000 76ed 7510
00000390: 0000 0000 0000 0000 af09 a9ba 4362 61ba
000003a0: af09 a9ba af09 a9ba af09 a9ba 0000 0000
000003b0: 9ae1 0d04 0400 0000 0400 0000 7bce bc06
000003c0: 0400 0080 0400 0080 f935 c5bb e62a bebb
000003d0: 0400 0000 0400 0000 0400 0000 deb1 b207
000003e0: b3f4 0e07 0400 0000 820b 9704 0000 0000
000003f0: 0000 0000 f5a6 a0b3 ee33 56b2 f5a6 a0b3
0.03048364 0.0041565807 0.00492048 0.029914007 0.029718867 0.0 6e-45 6.9e-44
1.05e-43 1.4e-43 -4.5558e-41 -9.38425e-30 9.363819e-28 3.1e-44 3.0009066e-24 -2.625833e-05
3.106563e-08 3.2108782e-29 -1.2306524e-31 0.0 -3.1057069e-31 0.0 0.0 -1.3965941e-06
-1.3975555e-06 -1.4004394e-06 -4.189782e-06 -4.1907424e-06 0.0 -1.3956324e-06 4.5092107e-35 -4.1868975e-06
-5.5825294e-06 -1.3956323e-05 -8.373795e-06 6e-45 -6e-45 -3.4890803e-05 -4.189781e-05 -5.5863766e-05
6e-45 -2.930827e-05 0.0 0.0 0.0 0.0 0.026061986 0.011353172
0.013300775 0.025803095 0.025784507 0.0 5.3300944e-11 6e-45 1.7080003e-10 9.1093394e-10
2.411843e-12 -6e-45 -0.010977696 -0.0069301175 -5.0012726e-15 -5.4753757e-05 6e-45 2.8466671e-09
8.5399976e-10 6e-45 -6e-45 0.0 0.0 -0.0063191773 0.003807862 0.0018359423
-0.0062748883 -0.0065766564 0.0 0.0001639673 0.00027685813 0.002197872 0.0034024243 0.017003056
0.004733254 0.027445177 -1.885573e-07 0.028326165 0.015785994 0.0066422964 -3.140478e-07 0.027173948
-6e-45 -4.155773e-36 0.0 0.0 -0.0022123277 -0.0011835544 -0.002206254 -0.002162899
-0.0021882057 0.0 1.4011155e-05 2.1466129e-05 9.127298e-05 -2.1384823e-09 -8.0072554e-10 0.00025760234
-0.0024536 -0.009672962 0.00017514241 0.0006440014 6e-45 0.00072305306 0.000451164 0.0
1.2172567e-29 0.0 0.0 -0.047578216 -0.032393955 -0.062628165 -0.052633885 -0.04224272
0.0 -0.0030235774 -0.0072659305 -0.01922465 -0.0016013152 -0.0002015109 -0.11705203 -0.1207791
-0.09718182 -0.02818099 -0.01335449 0.0029232546 -0.16411011 -0.12672482 0.0 -6.1248334e-29
0.0 0.0 -0.008812227 -0.006487013 -0.008249996 -0.008102336 -0.008215549 0.0
-0.00076264906 -0.0018458434 -0.00042586745 0.000142393 0.0008653551 -1.0492656e-05 0.005876241 -2.6167397e-09
-0.0022879858 -0.0043074293 -0.011401291 -6.541845e-09 0.008083113 -6e-45 -2.7574684e-36 0.0
0.0 0.006146818 0.0010347648 0.0010349759 0.0061583444 0.006159686 0.0 2.1886781e-07
-7.284729e-14 1.3125286e-06 2.546832e-09 1.0948415e-06 2.0274767e-05 2e-44 3.2975211e-09 5.4675165e-06
7.3271745e-05 3.9e-44 8.839288e-09 3.7121587e-05 -6e-45 6e-45 0.0 0.0
0.018751226 0.011367033 0.013359334 0.019206498 0.019143142 0.0 6e-45 6e-45
-6e-45 6e-45 7.7807925e-07 -0.00024119273 6e-45 0.0059077707 6e-45 7.826137e-07
-2.8215714e-22 -6e-45 0.0028810839 0.0 -6e-45 0.0 0.0 0.018761924
0.013515716 -0.023891445 -0.00036215075 0.029680727 0.0 -0.0058247517 -0.013839046 -0.013156469
0.017939141 0.022296967 -0.054774247 -0.02649596 -0.08554452 0.05312284 -0.00022473015 -0.007197375
-0.2777171 -0.031889845 6e-45 4.8500664e-29 0.0 0.0 -0.0012896563 -0.0008597711
-0.0012896563 -0.0012896563 -0.0012896563 0.0 1.6678062e-36 6e-45 6e-45 7.1021136e-35
-6e-45 -6e-45 -0.006018397 -0.0058034537 6e-45 6e-45 6e-45 2.6887004e-34
1.0754803e-34 6e-45 3.5510498e-36 0.0 0.0 -7.48095e-08 -1.2468247e-08 -7.48095e-08
