checkpoints/yahtzee_pretrain_incremental_1000ep/best_model.pt (torch, 520501 bytes, 25 tensors)

shared.0.weight f4 [256, 23]
00000000: d3d3 3abd de22 83be 402e 2abd 4f4d d2bc
00000010: cda5 28be 9249 efbb 1831 433e f349 f13d
00000020: f83f 953e 6bff f23d 1bc2 543d 8885 88be
00000030: d709 7d3d e953 053e 3281 15be a2af 93bd
00000040: 6566 47bc 2dc1 313c 48d2 d0b8 0713 bb3d
00000050: d03a dabd e6cb 0abc 63c9 42be 2e2c 12be
00000060: c5a7 22be 36cc 2fbe d388 93bd ddc0 51be
00000070: 8b6d 233e 6a36 02be a44e 29bd 5d15 a2be
00000080: ab04 8ebe 990f a53d 129f 09be 539c 06be
00000090: 289a 7bbc df9b 983d eff5 0abe be9c d03c
000000a0: 5bea 0cbe 7b60 9f3d 9c0c f0bd 58ff 54be
000000b0: 819b 14bd 090a 4b3e 5f02 7fbd 358d 19bd
000000c0: 6f1d c73d 2c67 b73d 995a dabd 9b2c 033e
000000d0: d21f 95bd b967 3ebd e728 94bc eab7 133d
000000e0: 22b4 a63d e9b5 e3be 2884 473e 6cfa f4bd
000000f0: a945 9cbd 0aae 9f3d 6690 a23c 387d 4e3d
00000100: 2cbb 4a39 7bee 47be 7dbc 303e 4d7a 48be
00000110: e720 afbd 77f7 f6bd 69b3 fabc 709a dbbd
00000120: 40ab 48be 0699 04bd e1f7 023e 17c2 193e
00000130: 13d1 443c 1373 7ebd 2382 f0bd 5b75 dbbc
00000140: d7c5 2bbd f587 1f3d 8dae 42be f2f6 1e3c
00000150: ebf0 3c3e 9495 24be 3679 de3d 0b20 773d
00000160: ffa1 b23d a4a9 b7be 66b9 b83a 21a7 ddbc
00000170: 4a8f 31bd a4eb fa3d 41f7 54be 5bfd 4fbe
00000180: c9ca 90bd 5810 30be 103b 713d ba2a 0a3e
00000190: 2b17 e3bc d7fd 4cbe 74c2 72bd 7cff c23c
000001a0: 5506 3a3e d215 97be df11 89be 4159 b8bd
000001b0: 4da5 a63d c287 4e3d 3f20 d63c fed3 b3bd
000001c0: 6ff1 da3d b79c fd3b 25f6 ae3d e229 34be
000001d0: f9b1 26be 1857 f5bd 307c bfbc 336e 18be
000001e0: 5250 4a3e 53ca 26be 2a55 633d 471f e6bc
000001f0: 09f1 8dbe 6e05 6dbd 8174 ec3d 6203 183e
00000200: 461f 12be 3cea 07bd a30c 32be 4449 87bc
00000210: 3652 5ebe 3c27 ed3d 5ab7 013d 1b6a e7bb
00000220: a3a2 3d3d b2e6 be3d 90d3 dabc 538a e43a
00000230: 2d4e 0abe 6921 323d d68f 42be 3961 d93d
00000240: b50d 59bb 69b1 64be ecd7 98bd 8a1d 2cbe
00000250: 3fa6 a7be 2009 0f3e aacf 983b 81a3 2a3d
00000260: 8935 ee3d 7684 c93d d9d1 72bd 1f87 983d
00000270: ba9b a8bd 10c0 703d 4fed 30be 7db9 8b3d
00000280: 484d 373e 9f13 2f3c c6ed 54be b72f 77bd
00000290: fbe4 aa3d ea83 40bd 264e 4d3e bb59 ca3d
000002a0: fe25 803e a7fb dd3e 52a9 32bd 2a68 d83d
000002b0: 80fb f73d 1410 76bd 7511 9e3d 28c9 72be
000002c0: e7c4 32bd 45c2 7a3c cc2d 193d fcd2 bd3c
000002d0: 6e8b d23d 1e2e 4ebe e124 103e 3c76 a33d
000002e0: 69a9 c5bd 4fc5 bd3d 295b f3bd 369d dbbd
000002f0: fa8f 183e 3045 ac3d bc15 c83d ca00 043e
00000300: 6373 64be 6a48 f4bc 623f 74be 7557 9bbe
00000310: dfa4 cebc f866 65be cea4 eb3a 48d4 49be
00000320: c4c7 9d3d 17fc b53d beb4 2f3d 38be e33d
00000330: 8167 c13d cab3 1e3e d917 02be 862f 8bbd
00000340: cb99 5f3e 5e80 843d 2e3f 74be cb9f eebd
00000350: d308 3b3d 2235 173e a1b3 30be 59b4 2fbe
00000360: 41b4 83be 6472 12be b0ee 9cbe 4d8c ddbd
00000370: a59f 20be d991 303d f8c8 9a3d baad 7dbd
00000380: eb94 733c c016 213d 5708 30be 436b ddbc
00000390: 2aa3 27be 50f9 543e daee 9f3d 15d0 ceba
000003a0: 52a3 4abe 5c76 ef3c 3ef7 133d 793b 7e3d
000003b0: e9e4 82bc 4792 ae3d 006f 983d 4e9c 66bc
000003c0: ab72 503d 4b0d 96be 6c6c 3abd cb11 513e
000003d0: ae73 3b3b 0099 62bd 3981 393d ddf0 bcbd
000003e0: 2de6 133e 01ca 163e 7359 f63d 6b60 4ebe
000003f0: 41fe 48be ae06 9dbe fba4 6dbe fada ba3d
-0.045612168 -0.2561254 -0.041548014 -0.02567163 -0.16469498 -0.0073024714 0.19061697 0.11781683
0.29150367 0.11865123 0.051942926 -0.26664376 0.061776962 0.1302029 -0.14600065 -0.07211234
-0.012170409 0.010849279 -9.957381e-05 0.091344886 -0.10655749 -0.008471465 -0.19022135 -0.14274666
-0.15884311 -0.17167744 -0.072038315 -0.20483728 0.15959756 -0.1271607 -0.041334763 -0.31656924
-0.27737936 0.08059616 -0.13439587 -0.1314557 -0.015356578 0.07451605 -0.13570379 0.025465365
-0.13761275 0.07782074 -0.11721155 -0.20800531 -0.036281113 0.19828047 -0.06225812 -0.03748818
0.09722411 0.08955225 -0.106618114 0.12809984 -0.0728146 -0.046485636 -0.01808591 0.036064066
0.08139826 -0.44474724 0.19484007 -0.11961827 -0.07630474 0.07796867 0.019844245 0.050412387
0.00019333948 -0.19524567 0.17259403 -0.19577904 -0.085511975 -0.12058919 -0.030603128 -0.10722816
-0.19596577 -0.032372497 0.12789871 0.15015446 0.012012738 -0.062121462 -0.117435716 -0.026789358
-0.04193672 0.038948018 -0.19011898 0.009702431 0.18451278 -0.16072685 0.10862963 0.060333293
0.087223046 -0.35871613 0.0014093339 -0.027057232 -0.04334954 0.12251976 -0.20797445 -0.20311491
-0.07069928 -0.17193735 0.058894217 0.13492861 -0.027721008 -0.20018707 -0.059267476 0.023803465
0.18166478 -0.29508835 -0.26771447 -0.09001399 0.08136997 0.050422437 0.026138423 -0.08780669
0.10690581 0.007739629 0.08543042 -0.17594102 -0.16278829 -0.119795024 -0.023374647 -0.14885788
0.19757202 -0.16288118 0.05550114 -0.028091086 -0.27722958 -0.057866506 0.11545659 0.1484504
-0.14269742 -0.033182368 -0.17387633 -0.016514428 -0.21711048 0.11579749 0.031669 -0.0070622093
0.04629768 0.093213454 -0.026712209 0.0017436243 -0.13506384 0.043488894 -0.19000182 0.10614247
-0.0033119742 -0.22333302 -0.07463059 -0.16808143 -0.32744023 0.13968325 0.0046634274 0.041659836
0.11631305 0.09839718 -0.059282158 0.07447647 -0.082328275 0.058776915 -0.17278026 0.068224885
0.17900574 0.01068583 -0.20793828 -0.06034824 0.08344456 -0.047000803 0.20049343 0.09880396
0.25028986 0.43356058 -0.043618508 0.10566743 0.12108517 -0.060073927 0.077181734 -0.23709548
-0.043644812 0.0153051065 0.03739719 0.023171894 0.102805 -0.2013478 0.14076568 0.07981536
-0.09651453 0.09266149 -0.11882622 -0.10723345 0.14898673 0.08411634 0.097697705 0.12890926
-0.22309642 -0.029819686 -0.23852304 -0.30340162 -0.025225101 -0.2240256 0.0017978193 -0.19709885
0.07704118 0.08885973 0.04289698 0.11120266 0.0944357 0.15498272 -0.1270441 -0.06796174
0.21836011 0.064697966 -0.23852226 -0.11651572 0.045662712 0.14766362 -0.17256023 -0.17158641
-0.2572346 -0.14301449 -0.30650854 -0.10817776 -0.156859 0.04310784 0.07557863 -0.061933257
0.014867048 0.039328337 -0.17190681 -0.027028685 -0.16370836 0.2079823 0.07809229 -0.0015778566
-0.19788864 0.029231243 0.03612446 0.062068436 -0.015978293 0.08523994 0.074430466 -0.014075352
0.050890606 -0.29307017 -0.045513555 0.20416944 0.0028602886 -0.055321693 0.045289252 -0.092256285
0.14443274 0.14725496 0.1202878 -0.20153968 -0.1962824 -0.3066916 -0.23207466 0.09123798

shared.0.bias f4 [256]
00000000: 560d 85bd 7b14 313d 2765 2f3e 20f9 3cbe
00000010: 216f 7fbd 6c73 3abd 8992 ebbd 486b 10be
00000020: b40e 77be cec8 d13d 677c babd 3747 eb3d
00000030: 6359 1d3e f92b 743d d97e e83d af83 02be
00000040: 4bea f93c a857 4ebd 0e11 6ebc 926f 043e
00000050: e80f 8d3d 0eed 4bbe 192a c6bd e2f3 a23d
00000060: 4dad dcbd 26f0 0a39 3438 28be c897 8bbe
00000070: b846 f13c effd 4ebc d6f8 adbd 5f23 f53b
00000080: c54c a23d 0200 20bc 5e91 adbc 0ef3 45bd
00000090: 3c88 f73b 5d02 6cbe 3aa8 603e 92d2 f33d
000000a0: abb8 78be 74a1 cbbd 7214 103d be8d 3cbe
000000b0: 31ab d2bd 7925 1b3e af27 84be 4a1f 84bd
000000c0: abe2 3cbe f8fb 98be 84b0 71be bdcd ac3d
000000d0: 3b59 52be 8df1 363d 45dd b83d f19a 973c
000000e0: 3dca a6bd b8b3 77be 10c1 dbbc 0d90 803d
000000f0: 92b0 42bd 1697 f1bb c900 893d a0ac 17be
00000100: e49d 2dbe 998e 87bd 27f5 5cbe e0f9 243d
00000110: a0ac d8bd 7337 93be bf78 1bbe 209e b73d
00000120: 5713 d1bd 0f72 04be af46 8fbd 2c28 47ba
00000130: a9f8 17bd 4fd8 5b3e eb17 74be 2fad 91bd
00000140: a540 5cbd b768 c3bc 38c7 4bbe c968 ddbc
00000150: d2bf 81be 3a0a 34be 679c dbbd fa96 4ebe
00000160: 0fd3 e6bd d6f4 e4bd 5143 59be e0b2 ee3c
00000170: ae5f 81bd c056 4abe 1dde f0bc c629 123e
00000180: dc86 f1bc e97f 893d 6553 b13d 800a 0dbe
00000190: 09b3 433d 3045 8cbe a116 09be 3925 ab3a
000001a0: 787e a3bd 59c2 65bd 292f cfbd 167d 9cbd
000001b0: 4c9b 52bd 00df b6bc d79a cfbd d50f 92be
000001c0: 1dee ccbd 4a75 073d 86ab babd 3a19 bf3d
000001d0: c910 2bbe e815 d7bd d501 fabd 4849 d6bd
000001e0: 8657 57be 55f8 173e 2bbf 87be 0470 24be
000001f0: 666c 0cbe 0d99 4e3d 5de5 383e 299c 02be
00000200: 7a03 13be f7ac 66be 7fdb 9bbd 87f9 023d
00000210: 58a3 223e 2834 12be 6e5d d4bd 8323 41be
00000220: 6403 bebc b002 50be 26e5 33be db36 e33d
00000230: f54c 8cbb e435 88bd 88d2 16be 948b 3ebd
00000240: 2d30 3b3d 6037 debd 3626 c73d edc5 20be
00000250: eec0 01be 49f1 01bd 7d4a 3cbe 2289 5fbd
00000260: 9f1c 4c3d 8557 2abe 1860 e93d ac6f 153c
00000270: 3d29 03be 3929 9fbe 7783 19bd 3866 86bd
00000280: de50 913d 577b 863e 6e97 313d 560e 4d3d
00000290: c350 463d 5178 1ebd f515 0d3e b9bf 66bd
000002a0: 8b7e 153d 24f7 d5bd 19ac 56bd 8357 8dbe
000002b0: 6f22 223e 6491 a5bd b6ea a4bd c8da 85be
000002c0: b139 703d 75ff 1b3e 25a3 babd 4543 1fbc
000002d0: f522 c73d 9126 df3d d0dd cd3c 9d5c 843d
000002e0: bb73 b33d dd7d 94be 4e8b c83d f7ff 90bc
000002f0: 71a9 85be 88aa 98be 672b 27bd 81ec 1fbd
00000300: 7cfb 683e 4102 86be 1dc5 523d befb 383d
00000310: ad9c 3c3d 828e 9dbe c0eb e0bd 1d85 90bd
00000320: f030 e7bc 2d00 52be 70f0 46be 3982 583d
00000330: 10d2 bbbd 0418 c2bd cbab 543e 157c 80be
00000340: 50a0 54be b591 663d e6d8 543d 6fae 413d
00000350: fe91 733d babc 5dbd 1ee9 babd 4804 cd3d
00000360: 5100 f7bd 1ed9 46be 3936 3dbd 44a4 39be
00000370: 832e ccbc 39ee 14be e573 83be 662f c9bd
00000380: 34ad edbd 4c24 2c3e b64c 2fbe 29a8 873e
00000390: 58d1 4dbe 55b5 38be bc6b b03d 1069 d8bd
000003a0: 2118 2ebe ba44 57bd 0cf3 f5bd 271d 88bd
000003b0: b8d9 b83d c913 7dbe 01a0 923d 94ae 9dbd
000003c0: 8cce 463c dd40 8dbe 2079 83be 2837 f93d
000003d0: 9c17 7f3d 70da 2e3c c37a 3ebe 8c93 083e
000003e0: 3cc8 133e 7b8d 9abe 1e29 8bbd 23a0 0fbe
000003f0: 68b3 fdbd 5be2 593d b255 c63b e822 ad3d
-0.06496684 0.043232422 0.1712843 -0.18454409 -0.06236184 -0.04552023 -0.11502559 -0.14103425
-0.24126703 0.102433786 -0.09105759 0.114881925 0.1536613 0.059612248 0.11352319 -0.12745546
0.030507227 -0.050376564 -0.014530433 0.12933186 0.068877995 -0.19914648 -0.09675998 0.07956673
-0.10775242 0.00013250168 -0.1642769 -0.27264237 0.029452667 -0.012633785 -0.08494727 0.007481023
0.07924799 -0.009765627 -0.02118748 -0.0483275 0.007554082 -0.23047777 0.21939173 0.119053975
-0.24289195 -0.09942904 0.03517575 -0.18413445 -0.102865584 0.15151013 -0.25811526 -0.064512804
-0.18445842 -0.29879737 -0.23602492 0.08437679 -0.20541851 0.044663955 0.09026579 0.018506499
-0.08144043 -0.24189651 -0.026825458 0.062774755 -0.04753167 -0.007372747 0.06689603 -0.14811945
-0.16954762 -0.06618995 -0.21577893 0.040277362 -0.105798006 -0.28753242 -0.1518278 0.08965707
-0.10208767 -0.12934135 -0.06995904 -0.00075972336 -0.037102375 0.21469234 -0.23837249 -0.0711311
-0.053772587 -0.023853643 -0.19900215 -0.027027505 -0.2534166 -0.17582026 -0.10723191 -0.2017478
-0.11270725 -0.11179511 -0.21217085 0.029138029 -0.063170776 -0.19759655 -0.029402787 0.14273748
-0.029483251 0.0671385 0.08658484 -0.13773537 0.047778163 -0.27396536 -0.13387538 0.0013057358
-0.079831064 -0.056093547 -0.10116417 -0.07641046 -0.051417634 -0.022323132 -0.10136955 -0.28527704
-0.10006354 0.03307084 -0.09114747 0.093309835 -0.16705622 -0.10502225 -0.12207381 -0.10463196
-0.21029481 0.14840825 -0.26513037 -0.16058356 -0.13713226 0.05043893 0.18056245 -0.12754883
-0.14356795 -0.22526918 -0.07610225 0.03197625 0.15882623 -0.14277709 -0.10369383 -0.18861203
-0.023194976 -0.20313525 -0.17567882 0.11094447 -0.004281635 -0.06650904 -0.14728749 -0.04651983
0.04570024 -0.10850406 0.09724085 -0.15700503 -0.12671253 -0.031724248 -0.1838779 -0.05457414
0.049831983 -0.16634949 0.113952816 0.009120863 -0.128087 -0.31086138 -0.03747889 -0.065624654
0.07095502 0.26265976 0.043357305 0.0500625 0.048416864 -0.03868896 0.13777907 -0.056335185
0.036497634 -0.10447529 -0.05241022 -0.2760583 0.15833448 -0.08084372 -0.0805258 -0.2614348
0.05864877 0.15234168 -0.091131486 -0.009720628 0.097234644 0.10896028 0.025130183 0.06462977
0.08762308 -0.29002276 0.09792195 -0.017700179 -0.26105836 -0.29817605 -0.040812876 -0.039043907
0.22752184 -0.26173595 0.051457513 0.045161955 0.046047855 -0.30772787 -0.10982466 -0.07056639
-0.028221577 -0.2050788 -0.19427657 0.052858565 -0.091709256 -0.09477237 0.20768659 -0.25094667
-0.2076428 0.0562913 0.051964663 0.047285493 0.0594654 -0.05413506 -0.09126495 0.10010582
-0.12060607 -0.19418761 -0.04619429 -0.18129069 -0.024924522 -0.14544 -0.25674358 -0.09823494
-0.116053015 0.16810721 -0.17119107 0.26495484 -0.2009939 -0.18037923 0.08614299 -0.10566914
-0.17001392 -0.052555777 -0.12009248 -0.06646185 0.090259016 -0.24714579 0.071594246 -0.07699314
0.012134206 -0.2758855 -0.2567835 0.12168723 0.062278375 0.010672197 -0.18601517 0.13337535
0.14431852 -0.30186066 -0.06794952 -0.14025931 -0.12387735 0.053194385 0.006052696 0.084539235

shared.2.weight f4 [128, 256]
00000000: 1cd3 ef3c 8a84 3bbd 70ae 80bb 7c3a 67bd
00000010: 386f 1fbd ff49 2a3d 8779 a8bd 1502 94bc
00000020: 0fd0 f53c a2eb 15bb e332 3bbd 6702 e2bb
00000030: 4078 26bd be6f 02bd 58ff 193c acd4 91bc
00000040: 6e2c 2a3d 4058 fdbc c0d6 72bd daa3 09bd
00000050: 204a 023c a38d 85bd b9d5 cfbc 81c4 f43c
00000060: 1766 cdbc 42c0 273d b6a0 c6bc f039 2dbd
00000070: e4ed b83b eb45 283d 4352 90bb fa78 243d
00000080: 7ce4 8db8 4068 e53a 4a89 1ebd dfce a1bd
00000090: 6f15 95bd 98b1 e1bc bfa9 a5bc 34fa e0bc
000000a0: e203 0a3b 2702 4c3c b01c edbc 89bd 8bbd
000000b0: 3801 1b3d 76d7 263d 409c 45bc e6d2 763d
000000c0: 7537 8f3c 3063 50bc 1e55 d4bc 90f0 a2bc
000000d0: 1e88 d13a 143d c83c e5a5 13bd 42ee a1bd
000000e0: c4bb 9cbb d0b6 43bb f329 8fbc 4891 72bd
000000f0: 2ae0 06bd 5920 97bd c248 3a3b 9452 86bd
00000100: 8a9d cabc 0762 b53c f7ff 15bd 725e 2fbd
00000110: e472 00bd 8529 f6bc c7ea 2fbd b09e 6e3b
00000120: 3cd5 b6bb c2e4 67bd 4873 813d a6e8 a13c
00000130: 93a5 9ebc d50d 0d3c 9953 76bd a78e a13c
00000140: 4262 54bd 24ca 0cbd c297 26bd d0c4 51bc
00000150: f5d9 d2bd fcda 123d 6ec0 92bd 6e52 bebd
00000160: 3898 13bb 84eb a73c 842b de3c 755a 07bc
00000170: 4150 8b3c 0412 dabc 901e c63b c8a1 ec3c
00000180: da39 ca3c 61d7 2cbc 4d94 afbb 05e1 563d
00000190: 5657 733c e40b 273d b997 f4bc 6bcb f53c
000001a0: 10e9 e43b a973 6bbd 9a63 86bd e841 24bb
000001b0: 6f3f 413d 9d6d 583c 7471 423d 65c3 33bd
000001c0: b8c8 ba3c ec80 87bc bd7d 02bc 81cb e1bc
000001d0: 90db 783c a9d2 a2bd c846 86bd 308b e9bc
000001e0: aab5 3fbd 89df c4bd 7fdd 82bd f7cd 71bd
000001f0: 16f0 23bc 4284 80bd 482c c9bc 12f8 7a3c
00000200: 98ba 72bd e6d1 993c 4940 68bd ba92 8d3c
00000210: aa7b 313d 90cc a53c 3276 293d a3b0 dfba
00000220: 72b6 08bd 0729 acbc ff2b b4bc 322c bf3a
00000230: 92e0 5dbd 3181 a1bd d92e 0bbd 0339 f7bc
00000240: f5db b43c 69a7 0a3c d00b 73bd af30 92bd
00000250: 28be a1bd 18ca 2fbd c8ac 363d 6035 743b
00000260: d943 d2bc ce76 9c3c 13f6 1e3d 7160 bcbd
00000270: 24fe 653c 7881 2bbc 4c8d f33c 1884 b0bd
00000280: a8c4 24bc 06d8 87bd 1d41 363c 2860 e0bc
00000290: 7e1c d7bd 4dee 3dbc c4df b03c 2f4e 54bc
000002a0: 9b9d 683c 4c42 313d f8df d6bc db9d 513c
000002b0: 3f04 14bd fab4 2a3d 3e79 3dbc 9ddf 5cbd
000002c0: 7c38 9bbd 673c 87bd 2516 df3c 2736 9dbd
000002d0: 87ea 88bd 743b 4ebd 2963 36bd 06bd 033d
000002e0: 3f27 93ba 801c 33bd 0be1 0fbd c648 973c
000002f0: 6a9e 173c 442d 55bd 974e 35ba 568c 63bd
00000300: 5bfe 97bd e008 3d3d 1b20 91bb 6036 1e3b
00000310: 7ef0 813c a3d9 8fbd b87d 8b3c 4beb a9bd
00000320: a8ac 3e3d f0dd 59bc 7114 73bd 48f2 f5bc
00000330: 3caa d1bc c093 29bc 3f77 28bd 4e52 98bd
00000340: 0018 68bd 88f7 6dbc 8cf9 0c3d 6e59 90bd
00000350: afcd 313c 30a1 fbbc 4139 353d 6ef2 b2bd
00000360: aaec 3a3d 9e17 85bd 74bf 1bbd 576a 90bd
00000370: 8a73 21bd 8bdd 6fbd 80aa 40bd 826c a8bc
00000380: 0175 e4bc f601 be3b a4de 183d 9d2e 613a
00000390: 8226 a33b 1015 843b dc12 0ebc d575 29bd
000003a0: a64e efbc fc73 223d bc56 0ebc 6ebb 1cbd
000003b0: 465c 473d 104a 7ebd 6b4a 49bd c0c1 34bc
000003c0: 30ba 9f3c 00fa 163d 5ce6 34bd 7d71 053d
000003d0: 5aa7 a5bd 581b 5cb9 6c78 12bd 6077 48bb
000003e0: 34eb 1f3d d868 393d c2d1 08bd 8919 30bc
000003f0: 9a05 2dbd 4bc0 223c e916 27bd 10b2 5bbd
0.02927547 -0.045780696 -0.0039270446 -0.05645226 -0.038924426 0.041574474 -0.082263045 -0.018067399
0.030006437 -0.0022876044 -0.045702826 -0.006897259 -0.040642023 -0.031844847 0.009399258 -0.017801605
0.041546278 -0.03092587 -0.059286833 -0.033603527 0.007952243 -0.06521156 -0.025370466 0.029878857
-0.025073094 0.040954836 -0.024246555 -0.04229158 0.005643593 0.041082304 -0.0044043376 0.040154435
-6.7659625e-05 0.0017502382 -0.038705148 -0.07900786 -0.07279479 -0.027550504 -0.020222543 -0.027463056
0.0021059443 0.012451685 -0.028944343 -0.0682326 0.03784296 0.040732823 -0.012061179 0.060259722
0.017482499 -0.012718961 -0.025919493 -0.0198901 0.0015986001 0.024443187 -0.03604688 -0.07906772
-0.0047831256 -0.0029863603 -0.017476058 -0.059220582 -0.032928623 -0.07379217 0.0028424715 -0.06558719
-0.024733324 0.02214147 -0.03662106 -0.04281468 -0.03135957 -0.030049095 -0.04294851 0.0036410503
-0.0055796187 -0.056614645 0.06320816 0.019764256 -0.019366061 0.008609255 -0.06013832 0.019721342
-0.05185152 -0.034372464 -0.04067207 -0.012803271 -0.10295478 0.03585337 -0.07165609 -0.09293066
-0.002252115 0.020498045 0.02712036 -0.008261313 0.017006041 -0.026619919 0.006046124 0.028885737
0.024685789 -0.010549397 -0.005358255 0.05246069 0.0148523655 0.040782824 -0.029857503 0.030004224
0.006985791 -0.05748335 -0.06561966 -0.0025063697 0.047179636 0.013209728 0.04747148 -0.043887515
0.022800788 -0.016540967 -0.007964549 -0.027562859 0.0151890665 -0.079503365 -0.06556469 -0.028508753
-0.046804108 -0.096129484 -0.06389903 -0.059034314 -0.010005971 -0.06275226 -0.024557248 0.015317934
-0.05925998 0.018776845 -0.056701932 0.017281879 0.043330826 0.020239145 0.041372485 -0.0017066192
-0.03337712 -0.021015657 -0.021993635 0.0014585315 -0.054169245 -0.078859694 -0.033980224 -0.030178552
0.02207754 0.008462765 -0.059337437 -0.07138192 -0.078975976 -0.04291734 0.04459837 0.003726326
-0.025667118 0.01909962 0.038808893 -0.09198082 0.014037643 -0.0104678795 0.029730462 -0.08618945
-0.010056652 -0.06633 0.011123923 -0.0273896 -0.10503481 -0.01159246 0.021591075 -0.012958094
0.014197732 0.043276116 -0.026229843 0.012793983 -0.036136862 0.0416765 -0.011564551 -0.05392419
-0.07579133 -0.06603318 0.027232239 -0.07676344 -0.066853575 -0.050349668 -0.04452816 0.03216269
-0.0011226906 -0.04372835 -0.035126727 0.018467318 0.009254077 -0.05204512 -0.0006916313 -0.055553757
-0.07421561 0.046151042 -0.004428876 0.0024141297 0.015861746 -0.07023933 0.01702772 -0.08296832
0.046551377 -0.013297543 -0.059345666 -0.030022755 -0.02559387 -0.010350168 -0.041129347 -0.074375734
-0.056663513 -0.014524348 0.034417674 -0.07048307 0.010852261 -0.030716509 0.044244055 -0.08737646
0.045635857 -0.06498645 -0.03802438 -0.07051533 -0.039416827 -0.05856089 -0.0470376 -0.020559553
-0.027887823 0.0057985736 0.0373217 0.0008590015 0.0049789557 0.004030831 -0.008671489 -0.04137214
-0.029212307 0.039661393 -0.008687671 -0.038264684 0.048671983 -0.06208235 -0.049143236 -0.011032522
0.01949796 0.036859512 -0.044165 0.032578934 -0.080885604 -0.00020991021 -0.035759374 -0.0030588731
0.039042667 0.045266002 -0.033403166 -0.010748276 -0.04224167 0.0099335415 -0.040793333 -0.05363661

shared.2.bias f4 [128]
00000000: 1c0d eabc 2612 82bb cdc5 a23c 6f79 84bd
00000010: e101 d7bd 78f0 b2bb 4e55 b4bd 99f1 79bd
00000020: ad19 77bd a49e 52bd 924b 873c 5687 b2bd
00000030: aa09 19bd a26d b8bb 3680 e4bd 857b a5bc
00000040: 25ca edbc 0f50 a0bd 87dc 2f3b 9732 68bb
00000050: 8d4f 853c f1a3 693c 8335 333d e967 423c
00000060: 5ce7 2e3d af8b 21bd 404d e8bb 57e1 263d
00000070: 5e31 c0bc a2a2 143c e97c 2ebc 140e 9cbc
00000080: 3846 f7bd 32c8 92bc a95b 7bbd 704d 84bc
00000090: fa3f 00bd 52f8 4dbd ac4d 4ebc 3ebc 2e3d
000000a0: c914 21bc 698c adbd 3f83 173c 9f65 c9bc
000000b0: bf2d edbc 4428 39bd 8f8a 503d 8f5f 53bd
000000c0: ce0f c43c c299 2dbd 4044 483e b6bc afbd
000000d0: 10e3 49bd eacf 0cbd d30b e8bd d697 ba3d
000000e0: e405 79bd 12de 993d 5be2 3dbd b201 0fbd
000000f0: f653 91bc 682f 2cbd 193f 803c 9ffe 3e3d
00000100: e29d 913c 6898 d93c e133 003d a47b e1bd
00000110: 9f09 633d 363c 32bd 25c8 303b 94e9 09bd
00000120: 8ea3 32bb 6f99 96bd 5c0f 103e 3b2a 553c
00000130: 892f c0bd f9bb 83bd 318f 79bc d7e1 bbbd
00000140: ecb6 2cbd 3e7a 9ebd 7f03 dcbc ffa8 963c
00000150: 7546 7abd 09c4 b23c 0941 a9bd 326b d53c
00000160: f026 e23b c8d5 253d 7465 8fbd 19e2 56bd
00000170: 61b8 d03d 4583 94bd 3144 ccbc c225 9ebd
00000180: 9b6e e2bd 3c13 02bd f707 5dbd fc43 4ebd
00000190: 7b83 c7bc 0dcd 8d3a 61c0 14bb 4b26 8bbd
000001a0: 782a f5b9 a249 e13d 9b7c 51bc 82a5 4dbd
000001b0: 989e 98bd 4b71 dcbd ec4b 6cbd 538f 9cbc
000001c0: 3fc2 36bd 5fc3 9fbc db04 cfbc 55e7 fbbc
000001d0: 11d1 88bd a3a9 eb3c a5e3 2a3d cc46 0f3d
000001e0: 3cb5 cdbb 3553 6d3b 2620 9abd 9928 713c
000001f0: bdbb cd3c dfef 40bd a7f0 473b f2cd 823d
-0.028570704 -0.0039694486 0.01986971 -0.06468474 -0.10498405 -0.005460795 -0.08805333 -0.06102142
-0.06032722 -0.051420823 0.016515527 -0.087172195 -0.037362732 -0.0056283036 -0.11157267 -0.0202005
-0.029027054 -0.0782777 0.0026834325 -0.0035430545 0.016273284 0.014260278 0.043752205 0.011865594
0.04270111 -0.039439853 -0.007089287 0.040742245 -0.02346104 0.009071978 -0.010649898 -0.019049682
-0.1207394 -0.017917726 -0.06136671 -0.016150206 -0.031311013 -0.050285645 -0.012591761 0.04265999
-0.009831616 -0.08474047 0.0092476 -0.02458459 -0.028952477 -0.045204416 0.05091339 -0.051604804
0.023933318 -0.042382963 0.19557285 -0.08580916 -0.04928881 -0.03437797 -0.1133038 0.09110992
-0.060796633 0.0751306 -0.046358448 -0.034913726 -0.017740231 -0.042037398 0.015655087 0.046629544
0.01777548 0.02656193 0.031299476 -0.11009911 0.055429097 -0.043514453 0.0026974764 -0.033670023
-0.002725813 -0.07353484 0.14068359 0.013010557 -0.093840666 -0.06432337 -0.015231893 -0.09173935
-0.042166635 -0.077381596 -0.026857136 0.01839113 -0.06110235 0.021821992 -0.082643576 0.026052091
0.0069016144 0.04048708 -0.070017725 -0.052461717 0.101914175 -0.072516 -0.02493486 -0.077220455
-0.110562526 -0.031756625 -0.053962674 -0.050357804 -0.024354687 0.0010818556 -0.0022697675 -0.06794413
-0.00046761683 0.110003725 -0.012786056 -0.05020667 -0.07452124 -0.107637964 -0.057689592 -0.019111311
-0.04461884 -0.01950234 -0.02527087 -0.030749956 -0.06680501 0.028767413 0.041721005 0.034979627
-0.0062777083 0.0036212925 -0.07525663 0.014719152 0.025113935 -0.04710376 0.003050843 0.06386937

dice_policy.weight f4 [5, 128]
00000000: 8e52 aa3c 504b a03c a565 4ebc e356 7fbd
00000010: b783 fc3d a9bd a4bd 0a56 963d 191c f0bd
00000020: ce73 e7bd 00df 80bd eedf 3dbd 9607 9cbd
00000030: 2d75 f73b 8be8 d83c 90bb 0abd 1c7c 32bc
00000040: 82ce db3d ada0 9dbd 5f19 2fbd 7946 13bd
00000050: 25fe 11bd b159 293d e8c8 243c 83d1 513e
00000060: 5093 143c 54e1 b3bd d3ea ef3c 4dc6 5cbd
00000070: 5f32 afbd ba89 a33d 5fde 603d d823 a63d
00000080: 2f2a 913d e02d 8c3d 0621 dcbd 598e 463c
00000090: 292b aebd 60ec 5c3d 3df3 4d3d 0989 19bd
000000a0: 5905 bbbc 48ba dfbd 97c4 cf3d 827e 16bd
000000b0: 89b1 0ebe b00e d4bd d612 67bd c4de 823d
000000c0: 6aba 2f3d d489 a2bd df52 9e3c ab11 8e3d
000000d0: 71b5 24bd a6c2 cfbb 501c babd 1980 f7bd
000000e0: 3b1b 443d 9130 31be 6e6c 0d3d d468 083d
000000f0: b1e5 9dbd 1f78 62bd 032e 343c 628f c2bd
00000100: 3ec8 b7bd b36d 30be 2007 74bd 67fb dcbd
00000110: 21f6 f2bc 23e6 0b3d cb96 99bd 4cad de3c
00000120: fcb2 b33c 7f9e 2c3d a98f 17bd 622b 1ebd
00000130: 2b13 1cbd be4c ab3d 051a aabc b1fb cb3b
00000140: e1c8 cabd b1a3 2d3c 50b5 afbd 2de0 6abc
00000150: cf0e 23bd fbcc f9bd a3b9 4dbd 70a0 4bbd
00000160: d164 e23d 4a5d c4bd 5b57 f73a adb5 733d
00000170: a17e 6ebe 27e3 82bc 3323 a1bc 8440 0fbe
00000180: 9d1f c23d d541 b33c 6a9c 8c3d d459 10bd
00000190: 21e4 2dbe b451 34bb 8a64 aabc ca77 9ebd
000001a0: 31d6 b83c bbdb 3dbd b034 853d 0fc8 54bd
000001b0: 4bf9 a23b 3494 553d 831d 933d 0f9f a1bc
000001c0: 3896 f6bc 7b5e b0bb fc47 2ebe 7b47 6a3c
000001d0: baa2 c3bd 3bc9 f3bd f442 abbb 2612 8a3e
000001e0: c104 c8bc 676a d8bd 9cec a03d 7cbb 7ebd
000001f0: c3af 883d 3291 563d cf1d 13bd 2c3e e7bc
00000200: dbba 0f3d c473 c33d e663 c33c 4965 b63d
00000210: 9953 043d 692f 8cbd 4406 9abd c92b 193d
00000220: f87c aabd 5c5b f3bc ffd1 febc 59a8 dcbd
00000230: 343e 70bd a7fd 16bd 9ff8 803c 564c b8bc
00000240: fe0f 733d 2b5c d3bd 1c0c 54bc 7098 f03d
00000250: bb66 1cbe 6f8c b33d 8194 833d 3530 9bbd
00000260: 484d c43c e5bf 143c d188 663d ab71 41bd
00000270: e059 e9bd 3431 293d 45f0 623d 75b6 22bd
00000280: cd49 a1bb c374 9e3d 9fe7 1dbe 4bf9 a3bb
00000290: 27e6 8bbd 3273 d43c 6ee5 14bd bbc9 6e3e
000002a0: 8bea 013b 3512 4dbd 7834 493c e26f 6a3b
000002b0: b141 0fbe e62a 01bd 1ddc d4bc d6ef 2c3d
000002c0: 47a7 a33d 909e 69bc 5724 003e 797a 5ebd
000002d0: 1c1f 9f3a 77e9 1c3d 9dba 8a3b 52b7 ecbd
000002e0: 00ae afbc f7ad 523d eaf6 9c3c 5e63 7f3d
000002f0: 8b09 a2bd 03bd 94bd fdbb 28bc 8930 143d
00000300: 964b 0ebc cc47 37bd b977 bdbc 2f22 02bd
00000310: a395 1b3b 4fe6 7b3d 53af b9bd d9c1 56bd
00000320: 91bf 36be c2a6 293d fa23 b9bc 80b4 793b
00000330: b8b3 99bd 6aa1 7d3b af02 8cbd 58f2 b9bc
00000340: bd4f 03be 9027 573d f22a 5a3d 231a 533d
00000350: cf24 123e 933a 40be 372f 2fbc e6b2 6cbd
00000360: 03a8 07be 4c06 37bd f570 83bd 5d56 77bd
00000370: 7b86 e43d 364c 80bd cd85 323c 2e8c 59bd
00000380: 4c40 35bd 1107 6b3d 03f6 80bb e758 0fbd
00000390: 10d8 5fbd a232 4bbc fd22 bf3d 78fd 093e
000003a0: 0ffa 6ebd 99a8 b2bc 6b3f de3c efef 07bd
000003b0: 7593 3cba d343 19bd fe7b 963d 0a92 893c
000003c0: 73f3 3f3d f1f9 183c a2b2 42be 8f4b fb3c
000003d0: 8a86 983b 0105 f0bd 484f 8abc 0f2b 22bd
000003e0: e45a 54bd 22c0 7f3b 8246 99bd 8c11 29bb
000003f0: 92c6 90bb 6ade 3c3d accb f0bd da5d 48be
0.020791318 0.019567162 -0.012597476 -0.06233872 0.1232981 -0.08043987 0.073406294 -0.11724109
-0.11301385 -0.06292534 -0.046356134 -0.076186344 0.0075518102 0.026478073 -0.03387028 -0.010893848
0.107327476 -0.07696662 -0.042748805 -0.03595588 -0.03564276 0.041345302 0.010057665 0.20490079
0.009068325 -0.08783212 0.029286778 -0.05390005 -0.085545294 0.07985254 0.05489957 0.081123054
0.07088124 0.068446875 -0.10748486 0.012118899 -0.08504326 0.053936362 0.0502808 -0.037484203
-0.022829698 -0.10924202 0.101449184 -0.03674174 -0.13934912 -0.10354364 -0.056414448 0.063901454
0.042902388 -0.07936445 0.019326625 0.06936964 -0.0402121 -0.0063403426 -0.090874314 -0.120849796
0.04787753 -0.17303683 0.034527235 0.033303097 -0.07709826 -0.055290338 0.010997298 -0.09500004
-0.0897374 -0.17229347 -0.059577107 -0.10790139 -0.029658379 0.034155022 -0.074994646 0.027182244
0.021935932 0.04214334 -0.03700224 -0.03861559 -0.038104217 0.08364247 -0.02076436 0.0062250723
-0.09901596 0.010598109 -0.085795045 -0.014335674 -0.039809044 -0.121973 -0.050225865 -0.049713552
0.110543855 -0.09588106 0.0018870638 0.05949943 -0.23290493 -0.015977455 -0.019670105 -0.13989455
0.09478686 0.021881977 0.06865771 -0.035241917 -0.16981556 -0.002751452 -0.020799894 -0.07737692
0.022563072 -0.04635213 0.0650419 -0.051948603 0.0049735657 0.05214329 0.07183363 -0.019729165
-0.030100927 -0.0053823567 -0.17019647 0.014299269 -0.09552522 -0.11903616 -0.0052264873 0.2696697
-0.02441633 -0.1056717 0.0785763 -0.062190518 0.06674149 0.052384563 -0.0359171 -0.028227888
0.03509031 0.09543565 0.023851346 0.08906037 0.032306287 -0.0684498 -0.07520726 0.037395272
-0.08324617 -0.02970665 -0.031105993 -0.10774297 -0.05865307 -0.036862995 0.015743552 -0.022497337
0.059341423 -0.10320314 -0.01294234 0.11747825 -0.15273564 0.0876702 0.06424809 -0.07577554
0.023962632 0.009078954 0.056282822 -0.047227543 -0.113940954 0.04130669 0.05540492 -0.039724786
-0.004922128 0.07737114 -0.15420388 -0.0050040833 -0.068310075 0.025933836 -0.036351614 0.23319142
0.0019823636 -0.05006619 0.012280576 0.0035772254 -0.13989903 -0.03153505 -0.025983864 0.042220913
0.0799089 -0.014258996 0.12513863 -0.054316018 0.0012140009 0.038308587 0.004233672 -0.11558403
-0.021445274 0.051435437 0.019160707 0.062350623 -0.079119764 -0.072626136 -0.010298726 0.0361791
-0.008685013 -0.044746205 -0.023128377 -0.03177088 0.0023740313 0.061498936 -0.090666436 -0.05243096
-0.17846514 0.0414188 -0.022600163 0.003810197 -0.07504982 0.0038700947 -0.06836449 -0.022698566
-0.12823386 0.052527964 0.053263612 0.051538598 0.14271854 -0.18772344 -0.010692409 -0.0577878
-0.13247685 -0.04468374 -0.06418029 -0.060385097 0.111584626 -0.06264536 0.010896158 -0.0531122
-0.04425077 0.057379786 -0.003935577 -0.034996893 -0.054649413 -0.0124022085 0.09332845 0.13475597
-0.058343943 -0.02180891 0.02712985 -0.033187803 -0.00071936037 -0.037418198 0.073478684 0.01679327
0.04686303 0.009336934 -0.19013456 0.030675678 0.00465471 -0.117197044 -0.016883507 -0.039591845
-0.051844493 0.0039024432 -0.074841514 -0.0025797812 -0.0044182027 0.046110548 -0.11757597 -0.19567052

dice_policy.bias f4 [5]
00000000: 7468 20bd 01b2 8bbc 48ad 86bc 201b ecbb
00000010: c7c7 c83d
-0.039162114 -0.017052652 -0.016440049 -0.007205382 0.098037295

category_policy.weight f4 [13, 128]
00000000: 4770 cabc f333 58bd 5836 b0bd feaf 693d
00000010: 824f 61bd 295d 53be 2e41 a4bd 7d81 b6bd
00000020: 08ac 91be 22ba 17bd 4bc4 803b 24c6 b4bd
00000030: 797d 0fbc 62c7 f13c f7e7 843c c4fc 8cbb
00000040: 07a1 86bd 8d31 063c 5b12 8ebd 8198 0fbd
00000050: fbc2 03be 413f 583c ca7e 85bd ff59 90bd
00000060: 3e30 fdbc 8ae8 353d 0549 443c a0c1 debd
00000070: aa20 bcbd 736c d1bd aec2 e7bc 4931 4a3c
00000080: 73f8 9a3c 44a1 a4bc 097f 14bd a0ad f3bd
00000090: b9d1 823a 48af 98bd 2871 15be a66c 89be
000000a0: 939f 793b d4b6 a5bd 3ce3 fbbd fa39 d5bd
000000b0: 241d 95bd 763e 60bd 4635 483b 6c66 583d
000000c0: 8fc5 193d 91ff 24bc 66cf 21bf 761c 94bb
000000d0: ec33 a7bd 6966 27bd 040c b5bc 00cc 18be
000000e0: b85a e0bd 0541 31be a2b9 55bc d80a 5bbc
000000f0: 4b19 43be 8b07 afbd fe08 b1bd b865 763a
00000100: a7ff 43bd 8727 ddbd 2d75 873c 5a0a b53c
00000110: 5059 a2bc 3d58 e73c df0e 25bc c9a3 f4bc
00000120: a900 b7b8 d421 00be b434 03bd afed 9f3b
00000130: 8031 72bd d6c9 b73c d0e2 e7bd 3777 0e3c
00000140: 2c7b 1fbe 7589 913d 4e0f 493d 1350 12bd
00000150: 0bd5 843c 9322 3cbe 7bf5 11bd f086 813c
00000160: 732b f9bd d8fc a9be 8d18 cebc 08f4 323d
00000170: bf78 42be 113e 86bd 27b4 9cbe 4f84 babc
00000180: fdb5 ccbd 5cc1 21be a4af a2bd 48c7 d8b9
00000190: 4d1c 98be d7cf 3dbd 662a 86bd c994 19be
000001a0: 132c 90bd 34c0 70bd 4653 af3c 3506 97bd
000001b0: fc76 3dbd 9eb4 3c3c eb73 25be 18d3 873c
000001c0: 9b4e 923c aae0 5c3d 486d 08be 439d 573b
000001d0: 2b85 2cbc b5dc 86bc 2b30 0bbd fc0f 2ebd
000001e0: 23fb 8abd 570f cabc fbb8 dbbc 05b8 80bc
000001f0: a468 0bbd 25d9 6c3c 3e3b 4cbd ab34 ecbd
00000200: 037c 04bc 8bfc e4bb a218 913d 6f3e 5dbd
00000210: 81fb e93c 1492 09be a3a0 51bd 696b adbd
00000220: 924d 58be 11ad 203d 032c 98bc f336 94bd
00000230: ba14 f8bc 1e15 fc3b c808 28bc 6aad 933d
00000240: 7f30 fcbd 5ce9 3bbc e6d8 24bd 21ac debd
00000250: 8c99 75bc 220f 3b3d 21b3 c43c fe3d 9ebd
00000260: 64a5 3dbd 6fda 25bd 3f6f 58bc d163 a0bd
00000270: 2875 77bc 99eb 5dbe 0419 42bd 7eec 1b3d
00000280: 9c9b 72bc 9b2c 8bbd c005 193c 8c29 debd
00000290: 9a94 923b 73bc 63bc 3fbe 9fbc 2083 9bbd
000002a0: d1ee 92bc ccfa 36be 6799 5bbc f4ba 0fbe
000002b0: cb20 d83b 29eb 913c bf3b a63b 87b1 b53c
000002c0: bf17 fbbc b30a c2bc e2e9 e7be eccd 2dbd
000002d0: e881 abbd 8e82 1ebd 8686 febd ea63 0abe
000002e0: 564c 653d 2181 85be 1a48 abbd ea08 d7bd
000002f0: 6835 b8bd 0619 a9bd c511 a7bc e84b bdbd
00000300: 0167 8fbc 03aa fdbd a993 5d3d 3775 b6bd
00000310: 60f3 84bc 3bba 653d c323 93bc 66ca 76bc
00000320: 43a1 d0bc 87e1 c4bc 9beb 5cbb bf9f 383d
00000330: e064 453d 6bc1 7abc 00f2 a639 83ff 02bd
00000340: 7781 17be a01e e43c 4833 e6bc d0c1 4bbd
00000350: 955a 333c e1b5 f23c a802 293c be0b 8abc
00000360: 0bf6 cfbd e2bd 3fbe 93f6 d7bd d10c 4ebc
00000370: b3c9 2dbe 46c7 ae3c 34d8 48be 32cb 85bc
00000380: edc7 84bc 4e1b 9ebe e6e4 a1bc 9d7d 1a3c
00000390: 45ad 09be f315 cfbd 343d bbbd 0e1a fbbc
000003a0: d235 b0bd e448 023c 82d9 8a3d 63b9 303d
000003b0: f373 88bd 8fae e1bc e33b d2bd d06a 3c3d
000003c0: 9d76 4d3d 40dd 2b3d ea5d 0bbe 48a3 d1bd
000003d0: 9528 fdbb 9cd8 2abd a0d6 a1bc 8737 2bbe
000003e0: 99af a5bd 6c45 bcbd b827 34bd 68c9 d0bc
000003f0: 022d 30bd 2f12 31bc b098 efbd 46a7 37be
-0.024711741 -0.052783918 -0.08604115 0.057052605 -0.055007465 -0.20641007 -0.080202445 -0.08911417
-0.28451562 -0.037042744 0.00392965 -0.08826855 -0.008757942 0.029514018 0.01622389 -0.004302593
-0.06573682 0.008190525 -0.06937095 -0.03505755 -0.12867348 0.013198675 -0.06518324 -0.070484154
-0.030906793 0.04441122 0.0119803 -0.10876775 -0.09185918 -0.10225763 -0.028291073 0.012340852
0.018917298 -0.020096429 -0.036253963 -0.11898351 0.0009980715 -0.07455307 -0.14593947 -0.26840705
0.0038089498 -0.08091512 -0.12299201 -0.10411449 -0.07280949 -0.054747067 0.0030549332 0.052832052
0.037541922 -0.010070697 -0.6320709 -0.0045199944 -0.081642 -0.04086915 -0.022100456 -0.1492157
-0.10954803 -0.17309959 -0.013044747 -0.013369285 -0.19052617 -0.085463606 -0.08644293 0.00093993125
-0.04785123 -0.10798555 0.016535366 0.022099663 -0.019817978 0.028240317 -0.010074346 -0.029863255
-8.726243e-05 -0.12512904 -0.032032683 0.004880629 -0.059129238 0.02243511 -0.11322558 0.008695415
-0.1557433 0.07106296 0.04908686 -0.035720896 0.016214868 -0.18372564 -0.0356345 0.015811414
-0.121664904 -0.33200717 -0.025158191 0.043689758 -0.18991373 -0.06554807 -0.30606195 -0.022768168
-0.09995649 -0.15796417 -0.07943657 -0.00041347207 -0.29709092 -0.04634079 -0.065510556 -0.14998163
-0.070396565 -0.05877705 0.021402013 -0.07374231 -0.04625605 0.011517672 -0.161575 0.01658015
0.017859748 0.053925194 -0.13322937 0.0032900132 -0.010529797 -0.016462663 -0.033981483 -0.042495713
-0.06786182 -0.024665518 -0.026821604 -0.015712747 -0.03403534 0.014456068 -0.049861185 -0.11533483
-0.008086207 -0.0069881133 0.070847765 -0.05401462 0.02856231 -0.1343463 -0.051178586 -0.084677525
-0.2112334 0.03922755 -0.018575674 -0.07237043 -0.03028332 0.007692947 -0.010256 0.072108105
-0.123139374 -0.011469211 -0.040245913 -0.10872675 -0.014990222 0.04566873 0.024011197 -0.07726668
-0.046300307 -0.040491518 -0.013210117 -0.078315385 -0.015103616 -0.21671905 -0.047387138 0.038067333
-0.014807608 -0.06795617 0.00933975 -0.10847768 0.004473281 -0.01389991 -0.019499896 -0.075933695
-0.017936142 -0.17869109 -0.013403273 -0.1403616 0.006595706 0.017812328 0.0050730403 0.022179378
-0.030650971 -0.023686742 -0.45295626 -0.04243271 -0.08374387 -0.038698725 -0.12428002 -0.13514677
0.055981003 -0.2607508 -0.08363362 -0.10499747 -0.089945614 -0.08256726 -0.020394215 -0.092429936
-0.01750517 -0.12385943 0.054095898 -0.08909076 -0.016229331 0.056085806 -0.017961388 -0.015062904
-0.02546752 -0.024033321 -0.0033709768 0.04507422 0.048191905 -0.0153049035 0.0003184229 -0.031981956
-0.1479548 0.027846634 -0.028100625 -0.04974538 0.010946889 0.029627742 0.010315575 -0.016851302
-0.10154351 -0.18724778 -0.10545077 -0.012576298 -0.16971473 0.021335255 -0.19613725 -0.016332243
-0.016208613 -0.30880207 -0.019762468 0.009429363 -0.13445003 -0.10111608 -0.09142533 -0.030652072
-0.086040154 0.007951949 0.067797676 0.04314555 -0.066627406 -0.027549056 -0.10265329 0.0460003
0.050161947 0.041959047 -0.13610044 -0.102362216 -0.007725785 -0.04171048 -0.019755661 -0.16720401
-0.08090133 -0.09192929 -0.04398319 -0.025486663 -0.043011673 -0.010807558 -0.11699045 -0.17934904

category_policy.bias f4 [13]
00000000: fc85 253d 804e da3a d684 85bc dbfd 153c
00000010: 303a 1d3d 842a 98bd 1536 2f3d c777 f5bd
00000020: c9bf 99bd 8fd9 263d f442 aabd 8880 02be
00000030: 7220 fe3d
0.04041098 0.0016655475 -0.016298693 0.009154762 0.03838557 -0.07429984 0.042776186 -0.11985736
-0.07507283 0.040734824 -0.083135515 -0.12744343 0.12408532

value.weight f4 [1, 128]
00000000: 4151 b43b 9f78 69bd 01df 8b3d 4585 78bd
00000010: b6c6 543d 0a41 a73c 9f7d 2f3d 153c 9cbd
00000020: c6b6 d9bb ee4f b03d d677 ac3d fbb5 503d
00000030: 5bc5 bcbc a92b 10bd 9b8f 7dbc 91f7 cc39
00000040: 2e4e 203d b2ea 9b3d a571 57bd 9633 8fbd
00000050: 64fe ffbb 2bfb 833d 1b45 86bd 5e53 603c
00000060: cfd4 d03c 9b13 23bd 29bf 68bd d013 833d
00000070: a597 8a3d 9511 5e3d 33e7 293c 1b31 a73d
00000080: 63da 413d ba3d 86bd fc77 8abd bf5b 723d
00000090: b26b 433d 1a0f 8d3c 3fe9 a23d 4a96 27bd
000000a0: e2a4 a7bd e148 153d f0f2 9d3d 8fae 973d
000000b0: f33b 35bd ffaf 96bd 2816 a1bc 9686 b2bd
000000c0: 6594 84bc 6e0b b0bc 6464 ef3c 460e 9c3d
000000d0: 358c a53d 2a12 a4bc 51f7 9dbd 5c88 c6ba
000000e0: b25e b1bd e89f 7a3d 0824 a8bd fdec b03d
000000f0: 37a4 803c 09ab 9f3c 2318 993d a3c8 8c3c
00000100: 8bcd 83bd 578d 973d 8e8b 7cbd 4f7b 273d
00000110: 19df cdbc d8ab aa3d 9815 a43d dc54 40bd
00000120: 0b61 8c3c 4d82 f13c 869a 8c3d 64cf 833d
00000130: a325 08bd f7a8 8ebd b228 5abd 695d a73d
00000140: 18f9 4b3c b774 05bd cdf8 8d3c a3e0 2d3d
00000150: 5163 50bd c024 7c3d 64fe 33bc 057f 643d
00000160: c1c5 a63d e1f8 9c3a 6d7e 53bd 67cf 633d
00000170: ef04 143d 3f3d 823d 099e 813d 8ee8 363d
00000180: 95d0 68bd 9c6b 293d 4b72 79bd 5ca1 d1bc
00000190: 46ec 3fbd e870 a7bd 31f8 83bc cab6 3b3d
000001a0: 9da1 753d 5159 d23c b609 a53d 04b5 033d
000001b0: 8a55 973d 9a31 cbbb 60fa 2ebc 9e5c 1cbd
000001c0: 4dc5 cbbb c8c3 ac3d 48cd 61bd 3ef3 423b
000001d0: 3bfd 983b 5c40 983d 841e 3139 fe62 03bc
000001e0: 4937 2f3d 2925 b33d 8237 a6bd 6c43 4bbd
000001f0: 2de3 403d 7cc6 883d 94e2 643b 641c 60bd
0.0055028503 -0.0569998 0.06829644 -0.06067397 0.051947318 0.020416755 0.04284441 -0.07628647
-0.0066441027 0.086089954 0.084212944 0.0509548 -0.023043325 -0.035197888 -0.015476133 0.00039094363
0.039137058 0.07613124 -0.052598614 -0.06992261 -0.007812308 0.06444391 -0.065561496 0.013691751
0.0254921 -0.03981362 -0.05682293 0.06400263 0.06767205 0.054215986 0.010370064 0.08163663
0.04732741 -0.06554742 -0.067611665 0.059169527 0.047710128 0.017219115 0.079546444 -0.04091481
-0.08185746 0.036446456 0.07712352 0.07406341 -0.044246625 -0.07357787 -0.019663885 -0.087170765
-0.016184041 -0.021489825 0.029222675 0.0761991 0.08083383 -0.020028193 -0.077131875 -0.001514684
-0.0866064 0.061187655 -0.082099974 0.08638952 0.015703304 0.019490736 0.07475307 0.017185515
-0.064356886 0.07400005 -0.061656527 0.04088908 -0.025130795 0.08333558 0.08011931 -0.04695593
0.017136117 0.029481078 0.068654105 0.06436041 -0.03323902 -0.06965821 -0.053261466 0.081721134
0.012449525 -0.03258201 0.017330552 0.04245056 -0.050875966 0.061558485 -0.010985944 0.055785198
0.08143187 0.0011976027 -0.05163424 0.055617716 0.036137518 0.06359338 0.06328971 0.044655375
-0.056839544 0.04136239 -0.060900014 -0.025589637 -0.046856187 -0.08175832 -0.016109558 0.045828618
0.05996858 0.025677355 0.08058493 0.03215505 0.07389362 -0.0062009813 -0.010679811 -0.038174264
-0.0062185884 0.0843578 -0.055127412 0.0029747034 0.0046688593 0.074341506 0.00016891403 -0.008019207
0.042777333 0.08747322 -0.08116056 -0.049624845 0.04709165 0.06678483 0.003492509 -0.054714575

exp_avg f4 [256, 23]
00000000: 33b2 68b8 8da5 73b4 0355 e135 16de 97b8
00000010: b1e5 fc37 0000 0000 0a05 dbb6 b978 abb8
00000020: ae68 4337 e8c1 1838 2d61 06b9 dd7b 6434
00000030: 55c7 3bb9 7871 5135 49fa 0739 1f37 ccb8
00000040: aa1b 420f 3328 642b 2dee 6bb9 0400 0000
00000050: 2e3f 0a06 0000 0000 0000 0000 0400 0000
00000060: 0400 0000 0400 0000 0400 0000 0400 0000
00000070: 0000 0000 0400 0000 0400 0000 0400 0080
00000080: 0400 0000 0400 0000 0400 0080 0400 0080
00000090: 0400 0080 0400 0000 0400 0000 0400 0000
000000a0: 0000 0000 0400 0000 0000 0000 0000 0000
000000b0: 0000 0000 0000 0000 5f16 a3ba 891a eeb8
000000c0: 4713 813b 5a0f 61bb 7447 25ba 0000 0000
000000d0: b890 5f39 4029 0f39 b137 a53a 7455 553b
000000e0: fd7b 0f3b 069a ff3b 6ad8 2e3c 57c1 b1b2
000000f0: f9af 393c 0134 83bc a780 eebc 96e2 7131
00000100: c126 013c 0000 0000 71ce 9a2e 0000 0000
00000110: 0000 0000 5735 0aba 5577 fbb9 4117 15ba
00000120: 5cc2 93ba c4e2 76ba 0000 0000 3edb 8736
00000130: 8827 7fb8 033e bbb9 5a42 68ba 1ae6 8ab9
00000140: e6a0 f5ba 25bf dab9 0bd7 fc37 9e04 f1b9
00000150: e5bb e8bb 4b06 0413 34b3 5238 ce0a b2bb
00000160: 0400 0080 6456 e8ad 0000 0000 0000 0000
00000170: 102a 0dbb e0f1 933a 978b 58bc d691 4fbc
00000180: 55df 63bc 0000 0000 eb1a 942a b170 a7bb
00000190: 1c2a afa9 d270 27bc 6721 0dba c067 52bc
000001a0: fa21 84bd a5e1 012d e070 5c86 3401 59bd
000001b0: acab 90bd 026a 672d 8deb 2fbd 0400 0080
000001c0: 0400 0080 0000 0000 0000 0000 b65f 59b9
000001d0: 1153 cdba 9c86 a1ba 133a 39ba e6fd 96ba
000001e0: 0000 0000 7fa2 a525 3c00 27b2 b14e bbb2
000001f0: f669 bbb9 9cce fe39 e5c6 73bb f554 843a
00000200: cf74 af38 21f6 98b9 330a 9bb2 b4dd a91d
00000210: 0400 0000 b6a1 fabb 0000 0000 0400 0000
00000220: 0000 0000 0000 0000 c100 663a 6353 bf3a
00000230: 3b71 a839 51b7 643a 2b55 fc39 0000 0000
00000240: a13d eb31 7b86 8937 1d59 1833 56c7 7cb9
00000250: ffe5 ee37 d8c2 33ba 967b 4b38 b1fb 8438
00000260: 25c4 7334 32e6 aa3b 3bff eeb0 eeb2 3338
00000270: 6cc9 8f3b 0400 0080 ab51 25ae 0000 0000
00000280: 0000 0000 724d 483c ab97 053c 7666 3d3c
00000290: 46ee 963c c1ec 323c 0000 0000 3055 053a
000002a0: 3f67 9a3b 612f 293b c5f5 cc3b 59ee 783b
000002b0: 969f 083d f189 d1b9 af8f 083a 4476 d833
000002c0: 09b8 b53d dc55 da3d 5b9f 5c3a 82e0 af3d
000002d0: 0400 0000 d80d fcab 0000 0000 0000 0000
000002e0: 68f4 2739 6106 2e39 abf1 7639 4711 9239
000002f0: 87a0 5339 0000 0000 0400 0000 0400 0000
00000300: 0400 0000 04f2 111c 7e6e b61b 0400 0000
00000310: 6135 3a96 0400 0000 b44f 0197 0400 0000
00000320: a3bc 1db3 ee80 a682 7496 883a 0000 0000
00000330: 0400 0080 0000 0000 0000 0000 11f9 903a
00000340: e1e3 da3a 6b93 ec3a 95dd cc3a 95c1 4d3a
00000350: 0000 0000 0700 0000 6af1 bb23 c9d9 22b8
00000360: 60df 5d38 d676 aa34 2d71 d833 96dc b895
00000370: 0900 0080 5060 8096 d07a 4c39 5cd2 03bb
00000380: 0400 0000 7c11 e13b 0400 0080 0400 0080
00000390: 0000 0000 0000 0000 b6a9 c13b aadb 67ba
000003a0: bfd3 f7ba 9c74 f7ba c2c5 edba 0000 0000
000003b0: 4ef1 b63a 3214 fd3a 90e1 fc3b 070c 433b
000003c0: 038d 073c 01fe 1a3c 7784 54bd 43e3 63b8
000003d0: 09d5 88bc 06be 6bbb 346d acbc 37cf 8a30
000003e0: 3f95 acbb 0000 0000 2576 af2d 0000 0000
000003f0: 0000 0000 23b8 c538 af49 f938 cdd4 d838
-5.547907e-05 -2.2691366e-07 1.6788548e-06 -7.241608e-05 3.01477e-05 0.0 -6.527295e-06 -8.176402e-05
1.1647278e-05 3.6420213e-05 -0.00012815437 2.1279216e-07 -0.00017907967 7.8023686e-07 0.00012967842 -9.737745e-05
9.5702664e-30 8.105766e-13 -0.00022500074 6e-45 2.6001332e-35 0.0 0.0 6e-45
6e-45 6e-45 6e-45 6e-45 0.0 6e-45 6e-45 -6e-45
6e-45 6e-45 -6e-45 -6e-45 -6e-45 6e-45 6e-45 6e-45
0.0 6e-45 0.0 0.0 0.0 0.0 -0.001244258 -0.00011353667
0.0039390656 -0.0034341426 -0.0006304898 0.0 0.00021320849 0.0001365291 0.0012605098 0.0032552155
0.002189397 0.0078003434 0.010671714 -2.0693433e-08 0.011333459 -0.016016008 -0.02911408 3.5198915e-09
0.007882775 0.0 7.0397806e-11 0.0 0.0 -0.00052722305 -0.0004796336 -0.0005687364
-0.0011273134 -0.0009417946 0.0 4.0488367e-06 -6.0833554e-05 -0.00035713622 -0.0008859985 -0.0002649285
-0.0018739968 -0.00041722614 3.0140878e-05 -0.00045970542 -0.007102477 1.6663845e-27 5.0234798e-05 -0.005433417
-6e-45 -2.6413711e-11 0.0 0.0 -0.0021539964 0.0011287294 -0.013216875 -0.012669047
-0.013908227 0.0 2.630876e-13 -0.0051098694 -7.778866e-14 -0.01021977 -0.00053837005 -0.012842119
-0.06451793 7.382904e-12 -4.146033e-35 -0.052979663 -0.07063994 1.3154368e-11 -0.042949248 -6e-45
-6e-45 0.0 0.0 -0.00020730388 -0.0015665015 -0.0012323442 -0.00070658437 -0.001151976
0.0 2.873305e-16 -9.720733e-09 -2.180545e-08 -0.00035746366 0.0004860059 -0.0037197408 0.001009612
8.3664076e-05 -0.0002917508 -1.8049013e-08 4.4963163e-21 6e-45 -0.007648672 0.0 6e-45
0.0 0.0 0.0008773916 0.0014596995 0.0003212782 0.0008724826 0.0004812864 0.0
6.8464066e-09 1.6394295e-05 3.5471306e-08 -0.00024106851 2.8478911e-05 -0.0006857342 4.851407e-05 6.341132e-05
2.2702496e-07 0.0052154297 -1.738932e-09 4.2843567e-05 0.004388025 -6e-45 -3.7589192e-11 0.0
0.0 0.012225496 0.008153836 0.011560073 0.018424165 0.010920704 0.0 0.0005086241
0.004712015 0.0025815594 0.006254884 0.0037983863 0.033355318 -0.0003996636 0.0005209399 1.0079796e-07
0.088729925 0.106609076 0.000841608 0.08587743 6e-45 -1.7909519e-12 0.0 0.0
0.0001601741 0.0001659631 0.00023550417 0.00027860163 0.00020182329 0.0 6e-45 6e-45
6e-45 4.8289273e-22 3.0180778e-22 6e-45 -1.5041804e-25 6e-45 -4.178275e-25 6e-45
-3.6725975e-08 -2.446551e-37 0.0010420815 0.0 -6e-45 0.0 0.0 0.0011060556
0.0016699993 0.0018049305 0.0015630001 0.00078489754 0.0 1e-44 2.0376823e-17 -3.8826638e-05
5.289854e-05 3.1751432e-07 1.00788704e-07 -7.466503e-26 -1.3e-44 -2.0740297e-25 0.00019500707 -0.0020114398
6e-45 0.0068685394 -6e-45 -6e-45 0.0 0.0 0.0059101237 -0.0008844683
-0.001890771 -0.0018879357 -0.0018140601 0.0 0.0013957412 0.0019308387 0.007717319 0.0029761808
0.008273366 0.009459973 -0.05188414 -5.433267e-05 -0.016703146 -0.0035971417 -0.021048166 1.0099716e-09
-0.005266815 0.0 1.9947663e-11 0.0 0.0 9.42799e-05 0.0001188697 0.0001033932
