checkpoints/yahtzee_pretrain_incremental_1000ep/checkpoint_ep899.pt (torch, 525605 bytes, 25 tensors)

shared.0.weight f4 [256, 23]
00000000: 83bd b7bc 145c 94be efb9 3bbd 80a9 9dbc
00000010: 2eec 17be 9249 efbb 42ce 743e 4358 493e
00000020: 238d d13e 0232 b33d 4655 f7bb 46a7 54be
00000030: 6e76 913d 8b98 103e dedb 09be bcbe 73bd
00000040: 741c f3bc 7f79 4c3d d458 a73c 0713 bb3d
00000050: 0a68 1dbe e6cb 0abc 63c9 42be 8737 2cbe
00000060: e687 09be fd19 2abe c103 67bd dbcc 42be
00000070: 8b6d 233e 0598 00be c6b9 6cbd 5d15 a2be
00000080: 4c80 9dbe a4dd 283d d8e2 dbbd 2afc 1dbe
00000090: 2ff2 653c 7ce2 ee3d eff5 0abe b7d2 db3c
000000a0: 5bea 0cbe f91c 983d 9c0c f0bd 58ff 54be
000000b0: 819b 14bd 090a 4b3e b3d6 10bd 6dc7 47bd
000000c0: d49c c23d 370d a53d d095 04be 9b2c 033e
000000d0: 5092 0c3d fac4 60bd 5783 29bd 6158 713b
000000e0: 3503 963d 8c0d 0abf 67e8 2a3e f3aa 24be
000000f0: 2a9c 5ebd 4522 873d 793b cf3c e07d 0abc
00000100: 9f0c f4bc 7bee 47be 2d4d 2c3e 4d7a 48be
00000110: e720 afbd 26f0 46be aafc acbd b4e5 20be
00000120: f171 89be 86a8 00be e1f7 023e fdb2 d63d
00000130: a130 39bd 0f41 f4bd 4040 ecbd 0363 84bd
00000140: e179 c1bd 839d d03b cb6a 77be c27f 37bd
00000150: b59c ec3d 467f 87bd d91d f33d 01b5 e9bb
00000160: ffa1 b23d 45f5 c0be 66b9 b83a 21a7 ddbc
00000170: 15e3 9cbd f21a c23d c211 7bbe 68d4 6cbe
00000180: 6395 16be 5810 30be 0c98 8e3e 2cfc 393e
00000190: 4616 8dbd 4c4a 48be 3be7 913d b74b 893c
000001a0: d8a7 0c3e db99 89be 8a66 90be 121b e5bd
000001b0: c719 913d bec4 613d b18b 43bb fed3 b3bd
000001c0: 63a0 2f3e b79c fd3b 25f6 ae3d dad9 41be
000001d0: 28b9 2dbe 170a fcbd 6ffb 80bd af40 2cbe
000001e0: 5250 4a3e f2e5 27be 7939 8bbd e05d 88bc
000001f0: 3f3f a3be 74f9 21bd ecd5 f03d b212 ea3d
00000200: f806 08be 24a6 07be bb3b 26be 7934 31bd
00000210: 3652 5ebe 2fa1 953d 5ab7 013d 1b6a e7bb
00000220: a3a2 3d3d b2e6 be3d 4eef acbc 202a 87bb
00000230: 1d89 12be 4145 3c3c 8f85 56be 3961 d93d
00000240: 11aa c2bc f577 64be ca62 32be bba4 22be
00000250: 6b8f d9be 5774 2b3e 6cb6 af3c a727 5c3d
00000260: 78af 8c3d 50ea 903d 259b a2bd bcb9 b93d
00000270: 3771 cabd 10c0 703d 0c99 4abe 7db9 8b3d
00000280: 484d 373e 953e 973c b139 27be 3454 d2bc
00000290: 2727 c23d a398 94bd 264e 4d3e 4abc 013e
000002a0: 5e11 2f3e 8888 1e3f 3e73 8abd 1a25 c63d
000002b0: 4281 143e 6418 c1bd 72c2 363d 9689 85be
000002c0: 3672 ab3c 3184 983d 6edf c73b 5b00 093d
000002d0: 6e8b d23d e89c 32be e124 103e 3c76 a33d
000002e0: 7422 cdbd d6ba a43d ceee 14be 4370 cdbd
000002f0: 19f4 393e 3045 ac3d 20eb db3d c3da 173e
00000300: 57c0 68be 7cf9 b5bd b9d9 70be 247c 9cbe
00000310: fc60 67bd 4066 72be 3247 6cbd 4246 4cbe
00000320: 392b 8e3d 884c cb3d cb19 4c3d 38be e33d
00000330: 8167 c13d cab3 1e3e d917 02be c2c4 86bd
00000340: 8d43 423e 0e4c 9b3d eb14 9fbe c91e f0bd
00000350: d308 3b3d f57e 0e3e 548d 28be bc65 4fbe
00000360: 9ddf 5ebe ab02 50be b512 94be 4d8c ddbd
00000370: a59f 20be 234e b5bc df06 043d ed7e 95bd
00000380: eb94 733c 5fdf e63c 5708 30be 436b ddbc
00000390: 2aa3 27be 50f9 543e 1c4a 8e3d 45b5 15bd
000003a0: d2df 41be 3adb 273b ff5d 413c 793b 7e3d
000003b0: b346 3e3d 213b 203e 874c 253e e2ae 5ebd
000003c0: f0d9 173d 09b8 a7be c236 16bd 512b 3c3e
000003d0: 2ff2 853c c5c8 c0bd 3711 1d3d 5db1 bbbd
000003e0: a0b8 083e 01ca 163e a63b 753d 6b60 4ebe
000003f0: 41fe 48be 81df 91be aec2 80be 93b8 e43d
-0.022429233 -0.289765 -0.045831617 -0.019245863 -0.14836189 -0.0073024714 0.23906806 0.19662575
0.4092799 0.087497726 -0.007548007 -0.20766935 0.07102667 0.1412069 -0.13462779 -0.05950807
-0.029676653 0.049920555 0.020428099 0.091344886 -0.15371719 -0.008471465 -0.19022135 -0.16818057
-0.13430747 -0.16611476 -0.056400064 -0.19023459 0.15959756 -0.12557991 -0.057794355 -0.31656924
-0.30761945 0.041226998 -0.107366264 -0.15428224 0.014034792 0.11664292 -0.13570379 0.026833875
-0.13761275 0.07427401 -0.11721155 -0.20800531 -0.036281113 0.19828047 -0.035361003 -0.04877417
0.09502569 0.08059161 -0.12947774 0.12809984 0.034319222 -0.05487535 -0.04138502 0.003682636
0.073248304 -0.5392692 0.16690217 -0.16080837 -0.05434815 0.06598333 0.025296913 -0.0084528625
-0.029791174 -0.19524567 0.16826315 -0.19577904 -0.085511975 -0.19427547 -0.08446629 -0.15712625
-0.26844743 -0.12564287 0.12789871 0.10483358 -0.04521239 -0.119264714 -0.11535692 -0.064641975
-0.09447075 0.006366433 -0.24161832 -0.044799574 0.11553327 -0.06616072 0.11870927 -0.007132173
0.087223046 -0.37687126 0.0014093339 -0.027057232 -0.076605 0.09477796 -0.24518493 -0.23127902
-0.14705424 -0.17193735 0.27850378 0.18162602 -0.06889014 -0.19559592 0.07124182 0.016759736
0.13735902 -0.26875195 -0.2820323 -0.11186804 0.07084995 0.05511927 -0.0029837901 -0.08780669
0.17151026 0.007739629 0.08543042 -0.1893076 -0.16965163 -0.12306612 -0.06297957 -0.1682155
0.19757202 -0.16396311 -0.067980714 -0.016646326 -0.3188419 -0.039544538 0.11759552 0.11429347
-0.13283908 -0.13246971 -0.16233723 -0.043262932 -0.21711048 0.07306134 0.031669 -0.0070622093
0.04629768 0.093213454 -0.021110203 -0.0041248947 -0.14310117 0.011491121 -0.20949386 0.10614247
-0.023762735 -0.22311385 -0.17420498 -0.15883152 -0.42492232 0.16743599 0.02144929 0.053748753
0.068694055 0.070759416 -0.07939748 0.09068629 -0.09884875 0.058776915 -0.19784945 0.068224885
0.17900574 0.018462459 -0.16330601 -0.025674917 0.09480124 -0.07255676 0.20049343 0.12669483
0.17096469 0.6192708 -0.06760262 0.09675045 0.14502433 -0.0942848 0.04461903 -0.26081532
0.020928483 0.074470885 0.006099633 0.033447605 0.102805 -0.17442667 0.14076568 0.07981536
-0.10016337 0.080434486 -0.14544222 -0.10031178 0.18159522 0.08411634 0.10738206 0.14829545
-0.22729622 -0.08885476 -0.23520555 -0.30563462 -0.056488976 -0.23671818 -0.057685085 -0.19948676
0.06941838 0.099267066 0.049829286 0.11120266 0.0944357 0.15498272 -0.1270441 -0.06580497
0.18971081 0.07582866 -0.31070647 -0.11724622 0.045662712 0.13915618 -0.16460162 -0.20253652
-0.21764989 -0.20313518 -0.28920522 -0.10817776 -0.156859 -0.022131985 0.032233115 -0.072996
0.014867048 0.028182684 -0.17190681 -0.027028685 -0.16370836 0.2079823 0.06947729 -0.036549825
-0.18933037 0.0025612847 0.011802196 0.062068436 0.046454143 0.15647556 0.16142474 -0.054366
0.037073076 -0.32757595 -0.036673315 0.18375899 0.016350834 -0.09413294 0.038346495 -0.09164689
0.13351679 0.14725496 0.05987134 -0.20153968 -0.1962824 -0.28490832 -0.2514853 0.11168017

shared.0.bias f4 [256]
00000000: 7119 6bbd 6f1b 333d b5a1 ee3d 3335 80be
00000010: 5bf6 f0bd c536 aebd d62b 0ebe 9ccf 03be
00000020: 8bbb 6bbe 701a 823d f478 11be 358e f93d
00000030: c9d6 e83d f92b 743d d97e e83d e64f 06be
00000040: 0ac1 04bd 9423 d4bd 17e6 fabc 6dd4 9e3d
00000050: 6905 ca3c 0d3e 63be 5fa2 86bd 590e 753d
00000060: 0b2d aebd 06c1 a3bc a34b 15be b707 9fbe
00000070: 1f47 a5bb cbd0 143c c22f debd bf24 973d
00000080: 8455 ae3d c06b 96bc 4a03 05bd bc4a 82bd
00000090: 6b9f 4fbd 92e0 57be 0e88 763e 0255 0a3e
000000a0: 0443 86be ac5e e0bd a20e 26bd 08e6 64be
000000b0: 7def dfbd 7471 1a3e e477 94be 8f22 b5bd
000000c0: 8fcf 51be d960 c6be 1abb 98be c380 9c3d
000000d0: 21df 46be 6869 543d 8c15 ec3d 9369 04bd
000000e0: fbb3 cfbd 94da 6fbe 04fd b3bc faf7 103d
000000f0: de15 28bd 0fee 3a3d df1c d03c 6737 3abe
00000100: 3ede 17be a65f 9dbd f17c 49be 5181 d23b
00000110: f385 f7bd 94e9 95be 4a77 18be c922 5c3d
00000120: 8476 babd adad 03be 6db7 babd 8395 2dbd
00000130: 2bd1 a0bd b09e 2e3e 7fa0 51be 998e 15be
00000140: 9954 e8bd 5ce2 3bbd 10a5 76be d8e4 96bd
00000150: d27c 88be 6eb4 23be 6819 acbd 04de 8fbe
00000160: 2c7d 0ebe dadc 08be 5b66 82be 072f 7c3d
00000170: f94c efbd c87a 89be 2b8b 57bd dcc0 c53d
00000180: b4fa 90bd 3a45 b73d d4f7 db3c 8373 f0bd
00000190: a93f 473c 8110 9dbe 89bf cdbd 053b 383c
000001a0: 6e4a e4bd a706 afbd e4a1 debd ed04 8bbd
000001b0: 255b f1bd aa44 f03c c7bc d9bd 1c9f a6be
000001c0: 520b 29be 0bab 893c b270 f5bd db42 e63d
000001d0: 037a 4bbe cbf6 0cbe 84ca 2cbe 4a22 07be
000001e0: 9e57 57be ec66 0c3e d24a 8cbe 66b2 30be
000001f0: 4a8e 17be da71 b33c 85cb 253e bd6b 4dbe
00000200: 4ded 18be 929a 68be 5c22 68bd 75c9 2b3d
00000210: f98f 1d3e a5c5 e1bd 80c5 fdbd cf11 5abe
00000220: 27c3 4ebd b3dd 48be 1cdc 37be 97a6 e93d
00000230: 6667 e8ba 8c7a e1bd f10d 9ebd 1834 b1bd
00000240: 0ea8 e63c 4ceb 1bbe 9b70 a73d c2a1 60be
00000250: 4fc0 f8bd 3318 71bd 8976 47be 1bca 9cbd
00000260: 7cc1 e03b 1248 3fbe bdba f33d 0c3a 8cbd
00000270: 4271 03be dbc5 adbe e3d2 babd 0b20 9fbd
00000280: 6296 cf3d 07c1 8a3e 5c44 d33c eeea 663d
00000290: c2bc 87bc 3639 eabd 8354 c33d 36e6 fcbd
000002a0: c371 fdbc 75f7 2dbe ca6e 72bd 7ca8 91be
000002b0: 191e 293e 5c5b aebd a32d e4bd 283f 91be
000002c0: 5843 debb a58f f93d a036 e8bd 97bf 08bd
000002d0: ee00 d73d c88b c63d 6d44 10bd 1896 b73c
000002e0: a731 4a3c f684 adbe 9fd9 0d3c cfc8 e2bd
000002f0: 5dc4 79be 4a07 a8be 8265 80bd f6b7 823c
00000300: adc9 1f3e 832c 8cbe f29d 7db9 5792 573d
00000310: 4dca 17bd 4d66 a8be 4027 b6bd ef6c 1dbd
00000320: 8971 3ebd 042d 0cbe 9010 61be fc68 8a3c
00000330: 10d2 bbbd 75e8 ccbd ca4a 3a3e cb23 a1be
00000340: 24f9 62be 1c33 713d d158 023e 5e3e d43c
00000350: cc50 6b3d 171c 11bd b7f9 f5bd cb0e c33d
00000360: 4ac6 2ebe 534a 5bbe 8a7a 0cbe 8dbe 48be
00000370: 03e5 41bc bd1e 26be ba8e 67be c90b 46be
00000380: c87d a5bd 1f2b 183e 9fef 0abe 681f 823e
00000390: 5cc9 6cbe a2b8 64be a3e1 de3d 5c7f c4bd
000003a0: 154e 4fbe 94d1 0ebd 322a 0abe f69c 9fbc
000003b0: c3fc 033e 3389 7cbe ed87 873d fa93 2bbe
000003c0: 9a69 903b 27b8 90be 2165 74be 13ca 993d
000003d0: 2ed8 7f3d d897 2abd 4a09 45be 074a 913d
000003e0: bfdf ef3d 2e3f a6be bf82 b8bd bdb7 45be
000003f0: 68b3 fdbd dffc f33d e3ab f03c 9407 223e
-0.05739731 0.043727335 0.11651937 -0.25040588 -0.117657386 -0.0850654 -0.1388391 -0.12872165
-0.2302076 0.06352699 -0.14206296 0.12185327 0.11369092 0.059612248 0.11352319 -0.13116416
-0.03241066 -0.103583485 -0.030627294 0.07755361 0.024660783 -0.22191639 -0.065739386 0.059828136
-0.08504685 -0.019989502 -0.14579634 -0.31060573 -0.0050438787 0.009082983 -0.10848953 0.07380056
0.085124046 -0.018361926 -0.03247384 -0.06361911 -0.050689142 -0.2108176 0.24075338 0.1350899
-0.26223004 -0.10955557 -0.0405413 -0.22353375 -0.10934351 0.15082341 -0.2899772 -0.08844482
-0.20489334 -0.38745764 -0.29830247 0.07641747 -0.19421054 0.051858336 0.11527547 -0.032327246
-0.101417504 -0.23423225 -0.021971233 0.03539274 -0.04103648 0.045637187 0.025404392 -0.18185197
-0.14830872 -0.07684259 -0.19676568 0.006424107 -0.12086096 -0.29279768 -0.14889255 0.05374411
-0.09104636 -0.12859221 -0.09117017 -0.042378914 -0.078523956 0.17052722 -0.2047138 -0.14605178
-0.11344261 -0.04587017 -0.24086404 -0.07367867 -0.2665773 -0.15986797 -0.08403283 -0.28099072
-0.13914937 -0.13365498 -0.25468716 0.061568286 -0.11684603 -0.26851487 -0.052622955 0.09655926
-0.07079068 0.08948751 0.026851572 -0.11740782 0.012161174 -0.30676654 -0.10046298 0.01124454
-0.11147009 -0.08546191 -0.10870722 -0.06788049 -0.117849626 0.029329617 -0.106317095 -0.32543266
-0.16508225 0.016805192 -0.119843856 0.112432204 -0.19870763 -0.13766019 -0.16874129 -0.13196674
-0.21029517 0.13711137 -0.27400833 -0.17255554 -0.14800373 0.021904875 0.16190918 -0.2006063
-0.14934273 -0.22715214 -0.056673393 0.04194017 0.15386952 -0.11024026 -0.12391186 -0.21295856
-0.05047908 -0.19615822 -0.17955059 0.114087276 -0.001773101 -0.11009702 -0.07717503 -0.08652514
0.028156307 -0.15226477 0.08175775 -0.21936706 -0.12146055 -0.05886097 -0.19478811 -0.07655736
0.0068590026 -0.18679836 0.11900852 -0.06847009 -0.12836173 -0.33940014 -0.09122255 -0.077697836
0.10136105 0.27100393 0.025789432 0.05637639 -0.016569499 -0.11436693 0.09537604 -0.12348597
-0.030938035 -0.16988929 -0.059187688 -0.28448856 0.16515388 -0.08513519 -0.11141517 -0.28368497
-0.0067829303 0.12185601 -0.11338544 -0.03338584 0.10498224 0.0969463 -0.035221506 0.022410437
0.01234094 -0.33890504 0.008657842 -0.110734574 -0.24391313 -0.3281806 -0.06269361 0.01595686
0.15604277 -0.2737771 -0.000241868 0.052629795 -0.037058163 -0.3289055 -0.08894205 -0.038433965
-0.046494994 -0.13689047 -0.21978974 0.016895764 -0.091709256 -0.10005275 0.18192592 -0.3147262
-0.22165352 0.058886632 0.12729193 0.025908645 0.0574501 -0.03542718 -0.1201052 0.09524306
-0.17067829 -0.21415071 -0.1371862 -0.1960394 -0.011834386 -0.16222663 -0.2261304 -0.19340433
-0.080806315 0.148602 -0.1356797 0.25414586 -0.23123688 -0.22336057 0.108828805 -0.095946044
-0.2024463 -0.034867838 -0.13492659 -0.019484024 0.1288939 -0.24661712 0.06617723 -0.16755667
0.00440712 -0.28265497 -0.23866703 0.07509246 0.062462024 -0.041648716 -0.19241825 0.07094198
0.11712598 -0.32470077 -0.09009313 -0.19308372 -0.12387735 0.11913466 0.029378837 0.15823203

shared.2.weight f4 [128, 256]
00000000: 1cd3 ef3c 8a84 3bbd 70ae 80bb 7c3a 67bd
00000010: 386f 1fbd ff49 2a3d 8779 a8bd 1502 94bc
00000020: 0fd0 f53c a2eb 15bb e332 3bbd 6702 e2bb
00000030: 4078 26bd be6f 02bd 58ff 193c acd4 91bc
00000040: 6e2c 2a3d 4058 fdbc c0d6 72bd daa3 09bd
00000050: 204a 023c a38d 85bd b9d5 cfbc 81c4 f43c
00000060: 1766 cdbc 42c0 273d b6a0 c6bc f039 2dbd
00000070: e4ed b83b eb45 283d 4352 90bb fa78 243d
00000080: 7ce4 8db8 4068 e53a 4a89 1ebd dfce a1bd
00000090: 6f15 95bd 98b1 e1bc bfa9 a5bc 34fa e0bc
000000a0: e203 0a3b 2702 4c3c b01c edbc 89bd 8bbd
000000b0: 3801 1b3d 76d7 263d 409c 45bc e6d2 763d
000000c0: 7537 8f3c 3063 50bc 1e55 d4bc 90f0 a2bc
000000d0: 1e88 d13a 143d c83c e5a5 13bd 42ee a1bd
000000e0: c4bb 9cbb d0b6 43bb f329 8fbc 4891 72bd
000000f0: 2ae0 06bd 5920 97bd c248 3a3b 9452 86bd
00000100: 8a9d cabc 0762 b53c f7ff 15bd 725e 2fbd
00000110: e472 00bd 8529 f6bc c7ea 2fbd b09e 6e3b
00000120: 3cd5 b6bb c2e4 67bd 4873 813d a6e8 a13c
00000130: 93a5 9ebc d50d 0d3c 9953 76bd a78e a13c
00000140: 4262 54bd 24ca 0cbd c297 26bd d0c4 51bc
00000150: f5d9 d2bd fcda 123d 6ec0 92bd 6e52 bebd
00000160: 3898 13bb 84eb a73c 842b de3c 755a 07bc
00000170: 4150 8b3c 0412 dabc 901e c63b c8a1 ec3c
00000180: da39 ca3c 61d7 2cbc 4d94 afbb 05e1 563d
00000190: 5657 733c e40b 273d b997 f4bc 6bcb f53c
000001a0: 10e9 e43b a973 6bbd 9a63 86bd e841 24bb
000001b0: 6f3f 413d 9d6d 583c 7471 423d 65c3 33bd
000001c0: b8c8 ba3c ec80 87bc bd7d 02bc 81cb e1bc
000001d0: 90db 783c a9d2 a2bd c846 86bd 308b e9bc
000001e0: aab5 3fbd 89df c4bd 7fdd 82bd f7cd 71bd
000001f0: 16f0 23bc 4284 80bd 482c c9bc 12f8 7a3c
00000200: 98ba 72bd e6d1 993c 4940 68bd ba92 8d3c
00000210: aa7b 313d 90cc a53c 3276 293d a3b0 dfba
00000220: 72b6 08bd 0729 acbc ff2b b4bc 322c bf3a
00000230: 92e0 5dbd 3181 a1bd d92e 0bbd 0339 f7bc
00000240: f5db b43c 69a7 0a3c d00b 73bd af30 92bd
00000250: 28be a1bd 18ca 2fbd c8ac 363d 6035 743b
00000260: d943 d2bc ce76 9c3c 13f6 1e3d 7160 bcbd
00000270: 24fe 653c 7881 2bbc 4c8d f33c 1884 b0bd
00000280: a8c4 24bc 06d8 87bd 1d41 363c 2860 e0bc
00000290: 7e1c d7bd 4dee 3dbc c4df b03c 2f4e 54bc
000002a0: 9b9d 683c 4c42 313d f8df d6bc db9d 513c
000002b0: 3f04 14bd fab4 2a3d 3e79 3dbc 9ddf 5cbd
000002c0: 7c38 9bbd 673c 87bd 2516 df3c 2736 9dbd
000002d0: 87ea 88bd 743b 4ebd 2963 36bd 06bd 033d
000002e0: 3f27 93ba 801c 33bd 0be1 0fbd c648 973c
000002f0: 6a9e 173c 442d 55bd 974e 35ba 568c 63bd
00000300: 5bfe 97bd e008 3d3d 1b20 91bb 6036 1e3b
00000310: 7ef0 813c a3d9 8fbd b87d 8b3c 4beb a9bd
00000320: a8ac 3e3d f0dd 59bc 7114 73bd 48f2 f5bc
00000330: 3caa d1bc c093 29bc 3f77 28bd 4e52 98bd
00000340: 0018 68bd 88f7 6dbc 8cf9 0c3d 6e59 90bd
00000350: afcd 313c 30a1 fbbc 4139 353d 6ef2 b2bd
00000360: aaec 3a3d 9e17 85bd 74bf 1bbd 576a 90bd
00000370: 8a73 21bd 8bdd 6fbd 80aa 40bd 826c a8bc
00000380: 0175 e4bc f601 be3b a4de 183d 9d2e 613a
00000390: 8226 a33b 1015 843b dc12 0ebc d575 29bd
000003a0: a64e efbc fc73 223d bc56 0ebc 6ebb 1cbd
000003b0: 465c 473d 104a 7ebd 6b4a 49bd c0c1 34bc
000003c0: 30ba 9f3c 00fa 163d 5ce6 34bd 7d71 053d
000003d0: 5aa7 a5bd 581b 5cb9 6c78 12bd 6077 48bb
000003e0: 34eb 1f3d d868 393d c2d1 08bd 8919 30bc
000003f0: 9a05 2dbd 4bc0 223c e916 27bd 10b2 5bbd
0.02927547 -0.045780696 -0.0039270446 -0.05645226 -0.038924426 0.041574474 -0.082263045 -0.018067399
0.030006437 -0.0022876044 -0.045702826 -0.006897259 -0.040642023 -0.031844847 0.009399258 -0.017801605
0.041546278 -0.03092587 -0.059286833 -0.033603527 0.007952243 -0.06521156 -0.025370466 0.029878857
-0.025073094 0.040954836 -0.024246555 -0.04229158 0.005643593 0.041082304 -0.0044043376 0.040154435
-6.7659625e-05 0.0017502382 -0.038705148 -0.07900786 -0.07279479 -0.027550504 -0.020222543 -0.027463056
0.0021059443 0.012451685 -0.028944343 -0.0682326 0.03784296 0.040732823 -0.012061179 0.060259722
0.017482499 -0.012718961 -0.025919493 -0.0198901 0.0015986001 0.024443187 -0.03604688 -0.07906772
-0.0047831256 -0.0029863603 -0.017476058 -0.059220582 -0.032928623 -0.07379217 0.0028424715 -0.06558719
-0.024733324 0.02214147 -0.03662106 -0.04281468 -0.03135957 -0.030049095 -0.04294851 0.0036410503
-0.0055796187 -0.056614645 0.06320816 0.019764256 -0.019366061 0.008609255 -0.06013832 0.019721342
-0.05185152 -0.034372464 -0.04067207 -0.012803271 -0.10295478 0.03585337 -0.07165609 -0.09293066
-0.002252115 0.020498045 0.02712036 -0.008261313 0.017006041 -0.026619919 0.006046124 0.028885737
0.024685789 -0.010549397 -0.005358255 0.05246069 0.0148523655 0.040782824 -0.029857503 0.030004224
0.006985791 -0.05748335 -0.06561966 -0.0025063697 0.047179636 0.013209728 0.04747148 -0.043887515
0.022800788 -0.016540967 -0.007964549 -0.027562859 0.0151890665 -0.079503365 -0.06556469 -0.028508753
-0.046804108 -0.096129484 -0.06389903 -0.059034314 -0.010005971 -0.06275226 -0.024557248 0.015317934
-0.05925998 0.018776845 -0.056701932 0.017281879 0.043330826 0.020239145 0.041372485 -0.0017066192
-0.03337712 -0.021015657 -0.021993635 0.0014585315 -0.054169245 -0.078859694 -0.033980224 -0.030178552
0.02207754 0.008462765 -0.059337437 -0.07138192 -0.078975976 -0.04291734 0.04459837 0.003726326
-0.025667118 0.01909962 0.038808893 -0.09198082 0.014037643 -0.0104678795 0.029730462 -0.08618945
-0.010056652 -0.06633 0.011123923 -0.0273896 -0.10503481 -0.01159246 0.021591075 -0.012958094
0.014197732 0.043276116 -0.026229843 0.012793983 -0.036136862 0.0416765 -0.011564551 -0.05392419
-0.07579133 -0.06603318 0.027232239 -0.07676344 -0.066853575 -0.050349668 -0.04452816 0.03216269
-0.0011226906 -0.04372835 -0.035126727 0.018467318 0.009254077 -0.05204512 -0.0006916313 -0.055553757
-0.07421561 0.046151042 -0.004428876 0.0024141297 0.015861746 -0.07023933 0.01702772 -0.08296832
0.046551377 -0.013297543 -0.059345666 -0.030022755 -0.02559387 -0.010350168 -0.041129347 -0.074375734
-0.056663513 -0.014524348 0.034417674 -0.07048307 0.010852261 -0.030716509 0.044244055 -0.08737646
0.045635857 -0.06498645 -0.03802438 -0.07051533 -0.039416827 -0.05856089 -0.0470376 -0.020559553
-0.027887823 0.0057985736 0.0373217 0.0008590015 0.0049789557 0.004030831 -0.008671489 -0.04137214
-0.029212307 0.039661393 -0.008687671 -0.038264684 0.048671983 -0.06208235 -0.049143236 -0.011032522
0.01949796 0.036859512 -0.044165 0.032578934 -0.080885604 -0.00020991021 -0.035759374 -0.0030588731
0.039042667 0.045266002 -0.033403166 -0.010748276 -0.04224167 0.0099335415 -0.040793333 -0.05363661

shared.2.bias f4 [128]
00000000: 1c0d eabc c828 8bbc e392 41bd 68df 92bd
00000010: e101 d7bd e465 20bd 4e55 b4bd f423 7ebd
00000020: a413 8cbd 4897 babd 27e6 0c3b 5687 b2bd
00000030: 197a 81bd a26d b8bb e6da 0ebe 98d7 5cbd
00000040: 172a 91bd 73e3 bcbd 87dc 2f3b 5518 5dbd
00000050: 63e1 cd3b dfba 003d 856c 943c f73d 853d
00000060: c3e6 083d af8b 21bd 9599 2ebd bd6e 4b3d
00000070: 92da 1abd abe5 8cbc c9f8 e6bc 140e 9cbc
00000080: 4bb2 efbd f796 17bd a95b 7bbd d65d 26bd
00000090: dba2 03bd 52f8 4dbd ed02 97bd 1b02 4d3d
000000a0: c914 21bc 5e56 d4bd cf6e 35bc 7a4c ccbc
000000b0: bf2d edbc f098 41bd 9f21 3d3c 4f35 74bd
000000c0: 14a0 d9ba 344d 61bd 88ac 383e 6e8f febd
000000d0: f4b6 72bd 69bc 94bd d30b e8bd a6f2 d13d
000000e0: e405 79bd db25 aa3d 6282 11be b201 0fbd
000000f0: 5337 1dbd 2721 97bd 669c b1bb 5f63 953c
00000100: 34ec 48bc 2a54 ae3d e133 003d 2945 9cbd
00000110: 2913 fb3c 363c 32bd 7d03 eebc d275 63bd
00000120: 0870 8a3c badd a2bd c8ee 2b3e 6122 1fbd
00000130: 892f c0bd 3938 b3bd 3aed 02bd d7e1 bbbd
00000140: 1393 acbd 301e 98bd 7f03 dcbc 4b1c 5c3c
00000150: 7546 7abd 5bbe d03d d91b 00be 5af2 85bb
00000160: 4fa5 8c3c 7d5f c83c a47b 1bbd 2d7b acbd
00000170: 635f e23d c631 adbd 72b4 94bd 38dc 53bd
00000180: ebce 1bbe 05d4 28bd f707 5dbd 9fc0 5bbd
00000190: c2c4 fcbc 982a 02bc 61c0 14bb 5754 d2bd
000001a0: 85cb 1ebc ae7c d13d 0178 8dbd 82a5 4dbd
000001b0: bea5 aebd a193 0abe 0bbf 53bd 7ea3 1ebd
000001c0: 4b62 89bd dbb3 ffbc 7480 56bd cbd7 f0bd
000001d0: 11d1 88bd 8218 8f3c e16a 033d 54e4 63bc
000001e0: ec5f 1bbd 3553 6d3b 2620 9abd 4050 423c
000001f0: c460 083d b54a c2bd 8a33 e63b c6aa c43a
-0.028570704 -0.01698722 -0.047259223 -0.071715176 -0.10498405 -0.03915967 -0.08805333 -0.062046006
-0.06839684 -0.09110886 0.0021499486 -0.087172195 -0.063221164 -0.0056283036 -0.1395069 -0.053916544
-0.07088106 -0.0922307 0.0026834325 -0.053978283 0.0062829717 0.031428214 0.018118152 0.065059595
0.033423197 -0.039439853 -0.042626936 0.049666155 -0.0378061 -0.017199358 -0.028194802 -0.019049682
-0.117039286 -0.037009206 -0.06136671 -0.040616833 -0.032137733 -0.050285645 -0.07373605 0.050050836
-0.009831616 -0.10368036 -0.011073782 -0.02493881 -0.028952477 -0.047264993 0.01154366 -0.05962115
-0.0016603493 -0.055005267 0.18034565 -0.12429701 -0.05925651 -0.07262499 -0.1133038 0.1025136
-0.060796633 0.083080016 -0.14209893 -0.034913726 -0.03838284 -0.0737937 -0.0054202555 0.01823586
-0.012263346 0.08512147 0.031299476 -0.07630379 0.030648785 -0.043514453 -0.029054398 -0.055532284
0.016899124 -0.07952447 0.16790307 -0.038851146 -0.093840666 -0.08750958 -0.031964518 -0.09173935
-0.0842649 -0.07427633 -0.026857136 0.01343448 -0.06110235 0.101925574 -0.12510623 -0.0040877284
0.017168669 0.024459595 -0.03795971 -0.084219314 0.1105335 -0.08456759 -0.0726098 -0.05172369
-0.15215652 -0.041217823 -0.053962674 -0.053650495 -0.03085554 -0.007944725 -0.0022697675 -0.10269993
-0.0096920775 0.10228859 -0.069076546 -0.05020667 -0.085277066 -0.13532878 -0.051695865 -0.038730137
-0.06708201 -0.031213691 -0.052368596 -0.11759909 -0.06680501 0.01746774 0.03208435 -0.013909418
-0.037933275 0.0036212925 -0.07525663 0.011859953 0.033295408 -0.094869055 0.007025187 0.0015004508

dice_policy.weight f4 [5, 128]
00000000: 8e52 aa3c 54e8 fd3d d4d8 8dbd a01e e8bb
00000010: b783 fc3d 9224 14be 0a56 963d 6722 3ebe
00000020: 5c5b f1bd fe51 0fbd 1836 17bd 9607 9cbd
00000030: 1cf1 273d 8be8 d83c 4dab f5bd 0de5 1ebd
00000040: 805f 093e dd3b 76bd 5f19 2fbd 73f9 60bd
00000050: d951 4bbd a10b d83d 6b54 50bd dac3 c03e
00000060: 8e92 e0bc 54e1 b3bd 2083 793d 429b 0cbd
00000070: ce6f 8cbd 720d 383e 4174 043d d823 a63d
00000080: 31b0 38bc 18e9 bf3d 0621 dcbd 2c00 6139
00000090: 158e 9fbd 60ec 5c3d ad49 293d 7749 b1bd
000000a0: 5905 bbbc cbf5 d7bd 3c4c 833d e9d8 36bd
000000b0: 89b1 0ebe 790b 07be d341 00bd ae34 be3d
000000c0: 90cc 7f3d b0c5 b1bd 3539 653c 7e57 8d3d
000000d0: 68b4 27bd 5216 0dbc 501c babd 74af d3bd
000000e0: 3b1b 443d 6b39 33be 7ebd 3e3c d468 083d
000000f0: 4ddc 91bd e4c4 c0bc d1b6 2bbb 243f febd
00000100: 931e 84bd 48b0 2fbe 2007 74bd 1f94 edbc
00000110: a3ac 75bd 23e6 0b3d 5e31 dabd 9312 1b3d
00000120: 1e44 1f3e 8dd6 563d 152c 18bd 2364 cdbc
00000130: 2b13 1cbd 92bf b03c f74b 413d b1fb cb3b
00000140: 7bdb efbd 62e4 023d 50b5 afbd 4278 0abc
00000150: cf0e 23bd 8106 35be 8225 a33d 6a87 64bd
00000160: 512a 5b3e 1741 98bd 345d 55bd 5cd9 ba3d
00000170: 4669 95be fc88 4abc 2c8a 3bbd 006b 30be
00000180: 7a28 cc3d db2c e93c 6a9c 8c3d 0304 fdbc
00000190: 8369 45be 59a9 31bd 8a64 aabc 0434 efbc
000001a0: 36c0 183e 53b5 85bd a343 243d 0fc8 54bd
000001b0: 9e3e 89bd 5470 2f3d cddb 0ebd 290d a7bc
000001c0: 5375 66bd 927e de3c cd99 04be 8a90 13bc
000001d0: baa2 c3bd 1a75 02be 9718 7abc e810 be3e
000001e0: 3b4b 55bc 676a d8bd 9cec a03d bee7 ccbd
000001f0: 1715 9c3b e06e 073d 587d 553d d85f 2dbd
00000200: dbba 0f3d fca4 013e 200a b8bd fb02 823d
00000210: 9953 043d 9af9 dcbd 4406 9abd 56fa 2c3c
00000220: a273 bbbd a06c 72bc 1a30 91bb 59a8 dcbd
00000230: b16b 333d a7fd 16bd a675 b6bd 9bc7 3cbd
00000240: 9e92 d43c 9ce5 72bd 1c0c 54bc ee83 223e
00000250: 988d 11be 4a8f e43d cc09 be3c 2daf afbd
00000260: b92a d9bc e5bf 143c 3157 ef3d 5f8b 35bd
00000270: 5c33 f4bd f9c1 a13d 499f 0c3d 75b6 22bd
00000280: aadc 96bd aac5 bf3d 9fe7 1dbe be31 463c
00000290: c161 91bd 3273 d43c 484e 30bd 1676 6e3e
000002a0: 8bea 013b 7c76 4ebb 30fb 2bbb e092 f9ba
000002b0: b141 0fbe 65c5 eabc 3aae 02bd 5a13 513d
000002c0: f67b ba3d 45dd 84bd a62f ae3d 3535 13be
000002d0: 36b2 743b fe76 f43c 9dba 8a3b 3086 19be
000002e0: 00ae afbc 7f32 693d 4de9 a1bc 5e63 7f3d
000002f0: dff6 a6bd 8767 27bd 7ab4 d2bc e820 a03c
00000300: e09d 233c 5394 abbd b977 bdbc b21e a5bc
00000310: ee78 adbc 4fe6 7b3d 180b fabd 9d5b 12be
00000320: 41ad 3bbe 1e64 433d 3a98 6ebd c052 db3c
00000330: b8b3 99bd 534a 46bd c356 22be 58f2 b9bc
00000340: edbc 45be 3836 8d3d f22a 5a3d 580e 753d
00000350: cf24 123e 70c7 6cbe 2c48 4c3d 5e67 c4bc
00000360: c525 4bbe a39f dcbc 5044 25be a687 eabc
00000370: bc3b 383d cd13 88bd fe3c 293c c006 abbd
00000380: df90 10bd 2169 8dbb 03f6 80bb ca07 19bc
00000390: d9c9 a5bd f6c5 a0bd fd22 bf3d 76ec 743e
000003a0: ffc0 0bbb b574 80bd 7710 fcba efef 07bd
000003b0: 7397 80bd 82af 47bd 2dab c23b 968b 86bc
000003c0: d154 173d 2b53 6cbd a416 45be c237 78bc
000003d0: 8a86 983b 4a7d e2bd 79b7 81bc e705 47bd
000003e0: 6b9a 7dbd 22c0 7f3b 8246 99bd bd89 4fbd
000003f0: 18f5 30bc ace9 9cbc a9de 3abe 0a8a 69be
0.020791318 0.12397829 -0.06926122 -0.007083729 0.1232981 -0.14467075 0.073406294 -0.18567811
-0.117850035 -0.034990303 -0.036916822 -0.076186344 0.041001424 0.026478073 -0.11995564 -0.03879266
0.13415337 -0.060115684 -0.042748805 -0.054925393 -0.049638603 0.10549093 -0.050861757 0.37649423
-0.027413633 -0.08783212 0.060916066 -0.034327753 -0.068572626 0.17973879 0.03233743 0.081123054
-0.011272476 0.09370631 -0.10748486 0.00021457736 -0.07790772 0.053936362 0.04133003 -0.086565904
-0.022829698 -0.10544928 0.06411025 -0.044640455 -0.13934912 -0.1318797 -0.031312775 0.092873916
0.062450945 -0.08680284 0.01399069 0.069014534 -0.040943533 -0.008611279 -0.090874314 -0.103361994
0.04787753 -0.17502372 0.011641858 0.033303097 -0.07122097 -0.023531385 -0.0026201496 -0.12414387
-0.06451144 -0.1715709 -0.059577107 -0.029001294 -0.059979092 0.034155022 -0.10653947 0.03785951
0.15553328 0.052450705 -0.037151415 -0.025072163 -0.038104217 0.021575723 0.047191586 0.0062250723
-0.117117845 0.031956084 -0.085795045 -0.008451523 -0.039809044 -0.17678262 0.079661384 -0.055793203
0.21402861 -0.0743429 -0.05209084 0.09123489 -0.2918188 -0.012361761 -0.045786068 -0.17228317
0.09968658 0.028463772 0.06865771 -0.030885702 -0.19278531 -0.043374393 -0.020799894 -0.029199608
0.14917073 -0.065287255 0.040103566 -0.051948603 -0.067013964 0.042831734 -0.034877587 -0.020392017
-0.056264233 0.027159963 -0.12949295 -0.009006629 -0.09552522 -0.12739983 -0.015264652 0.37122273
-0.013018425 -0.1056717 0.0785763 -0.10005139 0.0047632563 0.033064723 0.05212149 -0.04232773
0.03509031 0.12660593 -0.08986306 0.06348225 0.032306287 -0.10789795 -0.07520726 0.010557732
-0.091529146 -0.014796406 -0.004430783 -0.10774297 0.043803874 -0.036862995 -0.089091584 -0.046088796
0.025948819 -0.059301004 -0.01294234 0.1587064 -0.1421417 0.11160143 0.02319803 -0.08578334
-0.02650963 0.009078954 0.11686552 -0.044322368 -0.119238585 0.078983255 0.034331594 -0.039724786
-0.07366307 0.09363873 -0.15420388 0.01209682 -0.07098723 0.025933836 -0.043043405 0.23287234
0.0019823636 -0.0031503728 -0.0026242249 -0.0019040965 -0.13989903 -0.028658578 -0.031904437 0.051043846
0.09105675 -0.06487516 0.08505182 -0.14375766 0.0037337667 0.029841896 0.004233672 -0.14992595
-0.021445274 0.056932922 -0.019764567 0.062350623 -0.08152556 -0.040870216 -0.025720824 0.01954694
0.009986371 -0.083779 -0.023128377 -0.020156238 -0.021175828 0.061498936 -0.12209147 -0.1429276
-0.1832781 0.0477029 -0.058250643 0.026772857 -0.07504982 -0.048410725 -0.1585341 -0.022698566
-0.1931035 0.06895107 0.053263612 0.059828132 0.14271854 -0.23122954 0.049873516 -0.02397507
-0.19838627 -0.02693159 -0.1613934 -0.028629135 0.044978842 -0.06644402 0.010329483 -0.08350897
-0.03529441 -0.004315511 -0.003935577 -0.009340236 -0.0809514 -0.07850258 0.09332845 0.23918328
-0.0021324751 -0.0627226 -0.0019230981 -0.033187803 -0.06278887 -0.04875136 0.005940816 -0.016423982
0.03694612 -0.057696503 -0.19246918 -0.015150012 0.00465471 -0.11059053 -0.015834557 -0.048589613
-0.061914843 0.0039024432 -0.074841514 -0.050668467 -0.010800622 -0.019154392 -0.18249 -0.22806564

dice_policy.bias f4 [5]
00000000: 129f 86bd 2339 a2bd f3f4 82bd 21e5 3e3c
00000010: c030 de3d
-0.06573309 -0.07921054 -0.063943766 0.011651308 0.10849142

category_policy.weight f4 [13, 128]
00000000: 4770 cabc 8683 a6bd 0ce6 58be d07f 1c3d
00000010: 824f 61bd 1e1d 4dbe 2e41 a4bd 723a 76be
00000020: 11b0 8abe ba85 bfbd fea2 18bb 24c6 b4bd
00000030: 3b65 9fbb 62c7 f13c 87b9 02be 2008 3fbc
00000040: 2d23 e9bd c9c8 d2bc 5b12 8ebd 362b fdbc
00000050: d5db d4bd b24e 873c 74e8 3fbd 625c 8ebe
00000060: 85eb 14bd 8ae8 353d 7ff0 adbd 79aa bfbd
00000070: 961b bfbd 93f2 ddbd 6a1c 06bd 4931 4a3c
00000080: bf20 88bd 682b 303c 097f 14bd 4ade f6bd
00000090: 249d 1abc 48af 98bd 9c85 1abe 5824 e0be
000000a0: 939f 793b 7e18 2dbe 7dae aebd 4b9a afbd
000000b0: 241d 95bd b533 42bd 994d 4e3c add2 5e3d
000000c0: cbf5 c93b 050e adbc d97f 2fbf cdbf babc
000000d0: 5c9e a7bd a40b 47bd 040c b5bc 35e2 0fbe
000000e0: b85a e0bd 716b 71be 5334 d3bb d80a 5bbc
000000f0: caa8 49be 820c f0bd 2d09 b1bd 5239 f4bc
00000100: da4c 80bd 5178 22be 2d75 873c e502 07be
00000110: 5631 483c 3d58 e73c 725a 1dbd c79d 43bd
00000120: 1b6c 303b cd1a 1abe bc1b febc 9a27 63bc
00000130: 8031 72bd 1ef3 d03c 84a4 fdbd 3777 0e3c
00000140: 184a 83be 11d5 943d 4e0f 493d 2853 12bd
00000150: 0bd5 843c 6188 45be 8cb4 a2bd 3f40 573d
00000160: 5b9b 28be 5e17 e8be 901e 6dbc 656a 433c
00000170: 9228 7cbe 416c 8cbd 567a 9ebe cb36 b1bc
00000180: f447 e2bd cd31 5cbe a4af a2bd 7be1 50bc
00000190: cea4 bcbe c18e e1bd 662a 86bd 34cd 5ebe
000001a0: 93d6 94bd e409 21bd e2d0 0c3d 3506 97bd
000001b0: 13f1 8dbd 31b4 3c3c 4762 c0be 3c41 81bd
000001c0: 48a3 fabb 2e47 a53c bcdc 20be f814 92bd
000001d0: 2b85 2cbc f055 b5bc 25a9 07bd a9a8 38bc
000001e0: 6907 8bbd 570f cabc fbb8 dbbc 6026 8439
000001f0: 21f7 04bd baea 983c 8145 d3bd eac0 09be
00000200: 037c 04bc 4c6a efbd 5389 acbc d5de 93bd
00000210: 81fb e93c fbca 39be a3a0 51bd bc61 24be
00000220: 89cb 55be 0ba5 263a df6b c0bc f336 94bd
00000230: 99c6 45bd 1e15 fc3b 9939 22be 7bf1 6d3d
00000240: bed5 42be d85c 57bc e6d8 24bd 6941 f0bd
00000250: 9193 cfbc 12da 6a3c 02c7 c23c 2a38 bdbe
00000260: 7f7a 18bd 6fda 25bd 2728 8cbd 9033 89bd
00000270: 9a42 86bc 1434 4ebe 00f5 c8bd 7eec 1b3d
00000280: f53d 7ebd 83a1 a5bd c005 193c f01e d4bd
00000290: e50b 69bb 73bc 63bc 211a e9bc 1d7a 81bd
000002a0: d1ee 92bc c5f7 08be ec7e ebba 578a 0abe
000002b0: cb20 d83b 0624 efbb 27aa f1bb 5369 943c
000002c0: 7703 713a 34bc 06be 7fef f4be 22ce e4bc
000002d0: b2c2 abbd d7cc 37bd 8686 febd 356f 45be
000002e0: 564c 653d b905 a0be 9a14 b5bd ea08 d7bd
000002f0: eb27 cbbd df20 eabd 9312 a7bc b28e c5bd
00000300: f125 2abd 8a85 44be a993 5d3d 94e3 bdbe
00000310: 60f4 05bc 3bba 653d 6fa4 a3bc f342 27bd
00000320: 865b f9bc 72b1 00bd e5ff a8bc 8966 ca3c
00000330: e064 453d 07f8 8cbb e07f 15bd 83ff 02bd
00000340: 3672 29be 8f23 be3c 4833 e6bc 89c5 4bbd
00000350: 955a 333c 57ff c5bc becc 90bd bba5 b7bc
00000360: 4873 1bbe 22fa a3be 95bb 37be 6e9a 35bd
00000370: 7489 91be 7eca 9c3c 923a 44be bf33 71bc
00000380: 3cc1 c5bc 256a b7be e6e4 a1bc 072d 0f3c
00000390: 5a0b 3bbe 4e33 09be 343d bbbd 6cfd 33be
000003a0: 0082 babd d018 f8bc a9b6 443d 63b9 303d
000003b0: b90b c3bd 9cae e1bc e31e 00be 4f91 02bd
000003c0: b739 c83c e753 02bc ab99 0bbe 3903 43be
000003d0: 9528 fdbb 3e0f 51bd b276 d1bc bfdf 16be
000003e0: c0d9 a5bd 6c45 bcbd b827 34bd c1ed 073b
000003f0: 426b f9bc 38b4 68bc 307f 7ebe 055a 40be
-0.024711741 -0.08130555 -0.21181506 0.03820783 -0.055007465 -0.20030639 -0.080202445 -0.24045733
-0.27087453 -0.09351678 -0.002329051 -0.08826855 -0.0048643625 0.029514018 -0.12766086 -0.011659652
-0.113836624 -0.025730507 -0.06937095 -0.030904394 -0.10393492 0.016517017 -0.046852544 -0.27804857
-0.03635742 0.04441122 -0.084931366 -0.09358687 -0.093314335 -0.10837283 -0.03274194 0.012340852
-0.06646871 0.010752536 -0.036253963 -0.12054117 -0.009436879 -0.07455307 -0.1509003 -0.43777728
0.0038089498 -0.16903874 -0.08529375 -0.08574351 -0.07280949 -0.047412593 0.012591743 0.054400135
0.006163334 -0.02112485 -0.68554455 -0.022796536 -0.081845015 -0.048595086 -0.022100456 -0.14051135
-0.10954803 -0.23576142 -0.0064454465 -0.013369285 -0.19693294 -0.11721136 -0.08644328 -0.029812489
-0.06264658 -0.1586621 0.016535366 -0.13184698 0.012218794 0.028240317 -0.038416333 -0.04775789
0.0026919905 -0.15049286 -0.031019084 -0.013864422 -0.059129238 0.025506552 -0.123848945 0.008695415
-0.25642467 0.07267202 0.04908686 -0.035723835 0.016214868 -0.19290306 -0.07944593 0.052551504
-0.16465513 -0.45330328 -0.014472619 0.011927222 -0.24624851 -0.06856585 -0.3095271 -0.021632573
-0.1104888 -0.21503372 -0.07943657 -0.012749071 -0.36844486 -0.11013556 -0.065510556 -0.21757966
-0.07267489 -0.039316073 0.034378894 -0.07374231 -0.06930747 0.01151757 -0.3757498 -0.063112706
-0.007648859 0.020175543 -0.15709203 -0.07132906 -0.010529797 -0.022135705 -0.033120293 -0.01127068
-0.06788523 -0.024665518 -0.026821604 0.00025205594 -0.032462243 0.018666614 -0.10315991 -0.13452497
-0.008086207 -0.116901964 -0.021061575 -0.07220236 0.02856231 -0.18143837 -0.051178586 -0.16052908
-0.20878424 0.0006356991 -0.023488937 -0.07237043 -0.0482851 0.007692947 -0.15842284 0.05809162
-0.19026849 -0.013144694 -0.040245913 -0.11731226 -0.02533892 0.014334219 0.023776535 -0.36956912
-0.037226196 -0.040491518 -0.06843596 -0.06699288 -0.01638918 -0.20137054 -0.09812355 0.038067333
-0.062070806 -0.080874465 0.00933975 -0.10357463 -0.0035560068 -0.01389991 -0.028454842 -0.063221194
-0.017936142 -0.13375767 -0.0017966903 -0.13529335 0.006595706 -0.0072979955 -0.00737502 0.018116629
0.0009193937 -0.13157731 -0.4783897 -0.027930323 -0.083867446 -0.044873085 -0.12428002 -0.19280703
0.055981003 -0.31254366 -0.0884182 -0.10499747 -0.09919723 -0.11432051 -0.020394599 -0.096463576
-0.04154009 -0.19191566 0.054095898 -0.3708769 -0.008175939 0.056085806 -0.019975869 -0.040835332
-0.03043915 -0.031419225 -0.020629833 0.024707096 0.048191905 -0.004302028 -0.036498904 -0.031981956
-0.16547474 0.023210315 -0.028100625 -0.04974893 0.010946889 -0.024169607 -0.070703015 -0.022417894
-0.15180695 -0.32026774 -0.1794265 -0.04433673 -0.2842518 0.019139525 -0.19162968 -0.01472181
-0.024139993 -0.3582317 -0.019762468 0.008738763 -0.18266049 -0.13398477 -0.09142533 -0.17577142
-0.09106827 -0.030285269 0.04802576 0.04314555 -0.0952372 -0.02754908 -0.12511782 -0.03187686
0.024441583 -0.007954574 -0.13632838 -0.19044198 -0.007725785 -0.051039927 -0.025569294 -0.1473379
-0.08098173 -0.09192929 -0.04398319 0.0020741078 -0.030446652 -0.014203124 -0.24853206 -0.1878434

category_policy.bias f4 [13]
00000000: ec9a 7f3d 6ae4 d339 4603 b3bc 759a 1f3d
00000010: ecbe 5a3d 9b96 a3bd 43ab 2d3c 3b18 12be
00000020: b034 ebbd a572 b53d 6017 d2bd 6761 05be
00000030: b6ef 033e
0.062403604 0.00040415238 -0.021852147 0.03896566 0.053404734 -0.0798771 0.010599914 -0.14267056
-0.11484659 0.08859757 -0.10258365 -0.13025437 0.12884411

value.weight f4 [1, 128]
00000000: 4151 b43b 9f78 69bd 01df 8b3d 4585 78bd
00000010: b6c6 543d 0a41 a73c 9f7d 2f3d 153c 9cbd
00000020: c6b6 d9bb ee4f b03d d677 ac3d fbb5 503d
00000030: 5bc5 bcbc a92b 10bd 9b8f 7dbc 91f7 cc39
00000040: 2e4e 203d b2ea 9b3d a571 57bd 9633 8fbd
00000050: 64fe ffbb 2bfb 833d 1b45 86bd 5e53 603c
00000060: cfd4 d03c 9b13 23bd 29bf 68bd d013 833d
00000070: a597 8a3d 9511 5e3d 33e7 293c 1b31 a73d
00000080: 63da 413d ba3d 86bd fc77 8abd bf5b 723d
00000090: b26b 433d 1a0f 8d3c 3fe9 a23d 4a96 27bd
000000a0: e2a4 a7bd e148 153d f0f2 9d3d 8fae 973d
000000b0: f33b 35bd ffaf 96bd 2816 a1bc 9686 b2bd
000000c0: 6594 84bc 6e0b b0bc 6464 ef3c 460e 9c3d
000000d0: 358c a53d 2a12 a4bc 51f7 9dbd 5c88 c6ba
000000e0: b25e b1bd e89f 7a3d 0824 a8bd fdec b03d
000000f0: 37a4 803c 09ab 9f3c 2318 993d a3c8 8c3c
00000100: 8bcd 83bd 578d 973d 8e8b 7cbd 4f7b 273d
00000110: 19df cdbc d8ab aa3d 9815 a43d dc54 40bd
00000120: 0b61 8c3c 4d82 f13c 869a 8c3d 64cf 833d
00000130: a325 08bd f7a8 8ebd b228 5abd 695d a73d
00000140: 18f9 4b3c b774 05bd cdf8 8d3c a3e0 2d3d
00000150: 5163 50bd c024 7c3d 64fe 33bc 057f 643d
00000160: c1c5 a63d e1f8 9c3a 6d7e 53bd 67cf 633d
00000170: ef04 143d 3f3d 823d 099e 813d 8ee8 363d
00000180: 95d0 68bd 9c6b 293d 4b72 79bd 5ca1 d1bc
00000190: 46ec 3fbd e870 a7bd 31f8 83bc cab6 3b3d
000001a0: 9da1 753d 5159 d23c b609 a53d 04b5 033d
000001b0: 8a55 973d 9a31 cbbb 60fa 2ebc 9e5c 1cbd
000001c0: 4dc5 cbbb c8c3 ac3d 48cd 61bd 3ef3 423b
000001d0: 3bfd 983b 5c40 983d 841e 3139 fe62 03bc
000001e0: 4937 2f3d 2925 b33d 8237 a6bd 6c43 4bbd
000001f0: 2de3 403d 7cc6 883d 94e2 643b 641c 60bd
0.0055028503 -0.0569998 0.06829644 -0.06067397 0.051947318 0.020416755 0.04284441 -0.07628647
-0.0066441027 0.086089954 0.084212944 0.0509548 -0.023043325 -0.035197888 -0.015476133 0.00039094363
0.039137058 0.07613124 -0.052598614 -0.06992261 -0.007812308 0.06444391 -0.065561496 0.013691751
0.0254921 -0.03981362 -0.05682293 0.06400263 0.06767205 0.054215986 0.010370064 0.08163663
0.04732741 -0.06554742 -0.067611665 0.059169527 0.047710128 0.017219115 0.079546444 -0.04091481
-0.08185746 0.036446456 0.07712352 0.07406341 -0.044246625 -0.07357787 -0.019663885 -0.087170765
-0.016184041 -0.021489825 0.029222675 0.0761991 0.08083383 -0.020028193 -0.077131875 -0.001514684
-0.0866064 0.061187655 -0.082099974 0.08638952 0.015703304 0.019490736 0.07475307 0.017185515
-0.064356886 0.07400005 -0.061656527 0.04088908 -0.025130795 0.08333558 0.08011931 -0.04695593
0.017136117 0.029481078 0.068654105 0.06436041 -0.03323902 -0.06965821 -0.053261466 0.081721134
0.012449525 -0.03258201 0.017330552 0.04245056 -0.050875966 0.061558485 -0.010985944 0.055785198
0.08143187 0.0011976027 -0.05163424 0.055617716 0.036137518 0.06359338 0.06328971 0.044655375
-0.056839544 0.04136239 -0.060900014 -0.025589637 -0.046856187 -0.08175832 -0.016109558 0.045828618
0.05996858 0.025677355 0.08058493 0.03215505 0.07389362 -0.0062009813 -0.010679811 -0.038174264
-0.0062185884 0.0843578 -0.055127412 0.0029747034 0.0046688593 0.074341506 0.00016891403 -0.008019207
0.042777333 0.08747322 -0.08116056 -0.049624845 0.04709165 0.06678483 0.003492509 -0.054714575

exp_avg f4 [256, 23]
00000000: ca3c 36b9 f3d2 afb9 32ea b7b9 c59b acb9
00000010: 0c59 63b9 0000 0000 895c c5b8 be15 fd37
00000020: ec61 4638 33fc 8bba 4ab8 f5b9 7ac8 81b4
00000030: f385 01bb db46 f7ba ede9 bfb1 63ac 41bb
00000040: 5687 81bb 7502 83b9 6047 8cba 0400 0000
00000050: ab4f 8cae 0000 0000 0000 0000 cb7e a4af
00000060: 9d98 83ae cb7e a4af 9d98 83ae 9d98 83ae
00000070: 0000 0000 0400 0080 0400 0080 0400 0080
00000080: 0400 0080 0400 0000 0400 0080 0400 0000
00000090: 0400 0080 719e cdb0 0400 0000 0400 0080
000000a0: 0000 0000 8c13 e187 0000 0000 0000 0000
000000b0: 0000 0000 0000 0000 96e6 923b bbc4 ae3b
000000c0: 8526 b63b 5a77 fe3b 8a03 603b 0000 0000
000000d0: 3ccf f6b7 a58a 123b 9972 533b 1a1b 853c
000000e0: 63ca 703c 7195 9f39 079b d33b 8181 613b
000000f0: 3916 0e39 3adb 473d 5cac a93c 999c 4839
00000100: b7e9 d63c 0000 0000 9609 b6ad 0000 0000
00000110: 0000 0000 f7bb a935 d519 2036 1511 cb35
00000120: e56c 0d36 6406 8d35 0000 0000 8f1c a62f
00000130: 142c a52f 1c55 caaf d71c d934 e65b 5c36
00000140: 0ade f435 a452 ee35 2e2f 9835 d512 7e31
00000150: ef69 7437 8d6b 11aa 20f5 bd36 33f9 0d37
00000160: 0400 0080 6b9b 222f 0000 0000 0000 0000
00000170: 2127 96bb 1b1a 7abb ab0d 96bb b225 96bb
00000180: c756 7abb 0000 0000 ec72 ef2f 9e66 6730
00000190: 45db 1c35 fbe7 c835 a057 d534 0a16 61bc
000001a0: 8e1d afbc e696 0c37 0400 0080 41ba 0937
000001b0: d0f2 8bb7 65bc 2f38 b6e9 8fbc 0400 0080
000001c0: 4a45 5127 0000 0000 0000 0000 ee08 a03b
000001d0: 4c89 4d3a c973 9f3b d808 a03b e681 1f3b
000001e0: 0000 0000 2908 6823 fc63 a31b 2df0 baa8
000001f0: 63e3 cab2 ee60 22ad 3c0f 703c 4f18 6bb9
00000200: 7876 c325 e7c9 c1b6 0400 0000 0400 0000
00000210: 0400 0000 996f 993c 0000 0000 0400 0000
00000220: 0000 0000 0000 0000 5fa7 95bb 6733 79bb
00000230: 7878 95bb 94e8 95bb fca6 79bb 0000 0000
00000240: 3fba 8d32 009e cbb6 7cc8 5636 5b4e 2538
00000250: 40be ef35 09fb 60bc 1282 aebc a3a7 a238
00000260: 0862 9cbc eaac fd38 6c6f 0a39 d9f3 2239
00000270: cc35 8fbc 0400 0080 106b 6520 0000 0000
00000280: 0000 0000 ea8b 5f3b 810a 5abb 7b0a 00bc
00000290: 0709 6bbc 8bab 77bc 0000 0000 774c 11b8
000002a0: aa35 e1bb a6fb 02bc d1ae 25bd 185c b73b
000002b0: 1148 e83c 5a26 623d 84ea 2b3d 1810 543d
000002c0: 8222 6dbd 66cb 953d 0932 5cb9 3c70 c1bc
000002d0: 0400 0000 3422 e6a7 0000 0000 0000 0000
000002e0: e7a0 b2bb a78b 96ba 73b3 0cba 2192 70bb
000002f0: c4e5 baba 0000 0000 0400 0080 755f 22b7
00000300: 8745 113b d301 043c 6d5c c133 0400 0000
00000310: 1235 8339 472f 8a39 814c ad39 4186 0d3a
00000320: dcc0 3c3a b329 2c3a b4f8 27bc 0000 0000
00000330: 0400 0080 0000 0000 0000 0000 1317 abb9
00000340: 2f59 22b9 b9fd e0b8 1b09 d6b7 c17e f4b8
00000350: 0000 0000 0400 0000 0400 0080 74df f424
00000360: 7e36 f597 7405 6738 0400 0080 0400 0080
00000370: 0400 0080 59c0 4880 a436 ad39 1ff8 aa25
00000380: 0400 0000 e318 37ba 0400 0080 0400 0080
00000390: 0000 0000 0000 0000 aed6 77bc 9dfc 54bc
000003a0: 427f 71bc f55b 02bc 1e57 21bc 0000 0000
000003b0: d553 02b9 65fe 9bb9 7713 a3bb ac61 b33b
000003c0: d34a 51bd ff44 3cbd 28bf 94bd 150f 6bbd
000003d0: 1ea1 82bd 2499 17bb 328e 4cbb 73fa d538
000003e0: 6211 83bd 0000 0000 e77f b7af 0000 0000
000003f0: 0000 0000 ef5a 9e39 e2e9 a539 1518 6c3a
-0.00017379518 -0.0003353577 -0.0003507897 -0.00032922454 -0.0002168158 0.0 -9.410928e-05 3.0170075e-05
4.7298076e-05 -0.001068002 -0.00046867348 -2.4173988e-07 -0.0019763678 -0.0018865721 -5.585426e-09 -0.0029552213
-0.003952901 -0.00024988098 -0.0010702424 6e-45 -6.380615e-11 0.0 0.0 -2.9921518e-10
-5.9843e-11 -2.9921518e-10 -5.9843e-11 -5.9843e-11 0.0 -6e-45 -6e-45 -6e-45
-6e-45 6e-45 -6e-45 6e-45 -6e-45 -1.4960745e-09 6e-45 -6e-45
0.0 -3.3865726e-34 0.0 0.0 0.0 0.0 0.0044830544 0.0053335107
0.005558791 0.0077656927 0.0034181797 0.0 -2.9421986e-05 0.002236047 0.003226435 0.016248275
0.01469669 0.00030438186 0.0064576897 0.0034409466 0.00013550454 0.048793055 0.02071207 0.00019131824
0.02623449 0.0 -2.0695261e-11 0.0 0.0 1.2646186e-06 2.3856894e-06 1.512965e-06
2.1074022e-06 1.0507179e-06 0.0 3.0215516e-10 3.0044645e-10 -3.680406e-10 4.0440383e-07 3.2836047e-06
1.8244039e-06 1.7756433e-06 1.1338614e-06 3.697257e-09 1.4568198e-05 -1.2915901e-13 5.6611752e-06 8.462276e-06
-6e-45 1.478903e-10 0.0 0.0 -0.0045823012 -0.0038162533 -0.004579266 -0.0045821304
-0.0038198696 0.0 4.3555504e-10 8.418314e-10 5.843361e-07 1.4968676e-06 3.9738097e-07 -0.013738165
-0.021376397 8.379784e-06 -6e-45 8.209202e-06 -1.668316e-05 4.1898707e-05 -0.017567497 -6e-45
2.9042138e-15 0.0 0.0 0.004883877 0.0007840588 0.0048660976 0.0048838668 0.00243389
0.0 1.2578473e-17 2.7030701e-22 -2.0754308e-14 -2.3619299e-08 -9.230157e-12 0.01465207 -0.00022420402
3.3907385e-16 -5.7753527e-06 6e-45 6e-45 6e-45 0.018729972 0.0 6e-45
0.0 0.0 -0.0045670713 -0.0038025023 -0.00456148 -0.0045748446 -0.0038093915 0.0
1.6499255e-08 -6.068265e-06 3.2005182e-06 3.941204e-05 1.7862258e-06 -0.013731726 -0.021302257 7.755987e-05
-0.019089714 0.00012096188 0.00013202213 0.00015540364 -0.017481707 -6e-45 1.9432479e-19 0.0
0.0 0.0034110495 -0.003327042 -0.007814999 -0.014345414 -0.015116583 0.0 -3.4641907e-05
-0.0068728523 -0.007994568 -0.04044992 0.005595695 0.028354676 0.055212356 0.0419717 0.05177316
-0.057894237 0.07314186 -0.00020999475 -0.023613088 6e-45 -6.3874907e-15 0.0 0.0
-0.00545131 -0.0011485711 -0.0005367316 -0.0036708193 -0.0014259149 0.0 -6e-45 -9.678178e-06
0.0022166686 0.008057076 9.004075e-08 6e-45 0.00025025808 0.00026356635 0.0003305413 0.00053987285
0.0007200369 0.0006567493 -0.010252167 0.0 -6e-45 0.0 0.0 -0.00032632853
-0.00015482747 -0.00010728412 -2.5515028e-05 -0.000116584364 0.0 6e-45 -6e-45 1.06196676e-16
-1.584651e-24 5.507977e-05 -6e-45 -6e-45 -6e-45 -6.681157e-39 0.00033037842 2.9658432e-16
6e-45 -0.00069846044 -6e-45 -6e-45 0.0 0.0 -0.015126867 -0.012999681
-0.014739813 -0.007956495 -0.0098474305 0.0 -0.00012428996 -0.00029753443 -0.0049766856 0.00547429
-0.05109675 -0.045964237 -0.07263023 -0.05738743 -0.06378387 -0.002313205 -0.0031212685 0.00010203281
-0.063998 0.0 -3.3378386e-10 0.0 0.0 0.0003020386 0.0003164551 0.0009006274
