checkpoints/yahtzee_pretrain_incremental_1000ep/checkpoint_ep999.pt (torch, 527909 bytes, 25 tensors)

shared.0.weight f4 [256, 23]
-0.017516378 -0.2921116 -0.029236455 -0.005803302 -0.14152513 -0.0073024714 0.24186413 0.24126947
0.412739 0.09678102 0.015931463 -0.20630448 0.07642789 0.14090331 -0.14468701 -0.056419548
-0.0659531 0.035296455 0.018054591 0.091344886 -0.18622427 -0.008471465 -0.19022135 -0.14501116
-0.14543833 -0.16360046 -0.08384384 -0.2020492 0.15959756 -0.12557991 -0.057794355 -0.31656924
-0.27965975 0.032082777 -0.07084283 -0.15428224 0.014034792 0.1410335 -0.13570379 0.026892962
-0.13761275 0.09425138 -0.11721155 -0.20800531 -0.036281113 0.19828047 -0.0021294907 -0.018683987
0.13473319 0.117786035 -0.096786134 0.12809984 0.02753757 -0.052378614 -0.02892158 0.028497841
0.088511065 -0.59382445 0.20038743 -0.1501008 -0.08414012 0.073069036 0.01760372 0.012502326
-0.0024664807 -0.19524567 0.1929745 -0.19577904 -0.085511975 -0.16984367 -0.07569262 -0.1439997
-0.2462884 -0.13248713 0.12789871 0.1069403 -0.06725456 -0.1007421 -0.09771724 -0.05243308
-0.0834481 0.018049374 -0.24153161 -0.0747574 0.14279212 -0.079423465 0.11917497 0.009313766
0.087223046 -0.37687126 0.0014093339 -0.027057232 -0.091688626 0.08565056 -0.25935826 -0.25112098
-0.14860603 -0.17193735 0.28102842 0.17490487 -0.09574011 -0.1686684 0.060484327 0.008294044
0.12501332 -0.28143886 -0.27483532 -0.11814687 0.071617275 0.078094445 -0.015328508 -0.08780669
0.16832915 0.007739629 0.08543042 -0.21153237 -0.17774132 -0.13015024 -0.076682374 -0.1988574
0.19757202 -0.14447404 -0.07136302 -0.04661017 -0.30105248 -0.06298884 0.11953108 0.10425047
-0.10473906 -0.1294546 -0.16233723 -0.043294284 -0.21711048 0.0623072 0.031669 -0.0070622093
0.04629768 0.093213454 0.018029165 0.047550112 -0.13181725 0.030836973 -0.20514603 0.10614247
0.0166967 -0.24123593 -0.19924271 -0.18288125 -0.4203955 0.19072065 0.04356271 0.07733807
0.051893424 0.05676469 -0.09587636 0.09436563 -0.063848585 0.058776915 -0.21636276 0.068224885
0.17900574 0.009836693 -0.18331493 -0.022518722 0.06711519 -0.08765481 0.20049343 0.10656682
0.19437629 0.6287849 -0.08469941 0.10020587 0.15297258 -0.10659755 0.059560068 -0.30563945
0.0073978906 0.027895201 0.017352415 0.0047669173 0.102805 -0.17688538 0.14076568 0.07981536
-0.11018657 0.06496876 -0.18339829 -0.12669577 0.14722165 0.08411634 0.12232295 0.132843
-0.23007259 -0.096065275 -0.2350107 -0.3356905 -0.060944792 -0.23679824 -0.057794742 -0.19959936
0.069333315 0.09164234 0.034673937 0.11120266 0.0944357 0.15498272 -0.1270441 -0.092534594
0.18412684 0.066084065 -0.31558853 -0.128442 0.045662712 0.13915618 -0.16621198 -0.21134408
-0.2050252 -0.22826341 -0.28920522 -0.10817776 -0.156859 -0.028420785 0.06362221 -0.072996
0.014867048 0.02956131 -0.17190681 -0.027028685 -0.16370836 0.2079823 0.09045651 -0.0043187505
-0.16496216 0.036140554 0.047496524 0.062068436 0.052435894 0.17512657 0.1540007 -0.03826489
0.07457619 -0.31599614 -0.03418781 0.20708565 0.01677398 -0.1067888 0.019048523 -0.09379128
0.1358548 0.14725496 0.043729063 -0.20153968 -0.1962824 -0.26525563 -0.23332621 0.17437445
00000000: 827e 8fbc a78f 95be 4a81 efbc a029 bebb
00000010: f7eb 10be 9249 efbb 3bab 773e 580f 773e
00000020: 8752 d33e 2135 c63d b382 823c 7b41 53be
00000030: 3a86 9c3d f548 103e d528 14be 2f18 67bd
00000040: 6b12 87bd 0493 103d 39e7 933c 0713 bb3d
00000050: 93b1 3ebe e6cb 0abc 63c9 42be ce7d 14be
00000060: c9ed 14be e186 27be 52b6 abbd fce5 4ebe
00000070: 8b6d 233e 0598 00be c6b9 6cbd 5d15 a2be
00000080: 902f 8fbe 3b69 033d 0c16 91bd 2afc 1dbe
00000090: 2ff2 653c 166b 103e eff5 0abe a14e dc3c
000000a0: 5bea 0cbe de06 c13d 9c0c f0bd 58ff 54be
000000b0: 819b 14bd 090a 4b3e ed8e 0bbb 290f 99bc
000000c0: 7ff7 093e ce39 f13d cf37 c6bd 9b2c 033e
000000d0: 7896 e13c f58a 56bd f3ec ecbc 4e74 e93c
000000e0: 4a45 b53d e104 18bf 5d32 4d3e 06b4 19be
000000f0: a851 acbd 38a5 953d ad35 903c 8ed6 4c3c
00000100: aea4 21bb 7bee 47be 1b9b 453e 4d7a 48be
00000110: e720 afbd 80eb 2dbe bb04 9bbd a874 13be
00000120: 0733 7cbe b5aa 07be e1f7 023e 8403 db3d
00000130: c2bc 89bd e051 cebd fa1f c8bd 12c4 56bd
00000140: d6e6 aabd 48dc 933c 1054 77be 681a 99bd
00000150: 1938 123e c5a8 a2bd 0212 f43d c498 183c
00000160: ffa1 b23d 45f5 c0be 66b9 b83a 21a7 ddbc
00000170: 3fc7 bbbd 9069 af3d 9bca 84be ee92 80be
00000180: 2e2c 18be 5810 30be f5e2 8f3e 431a 333e
00000190: 6413 c4bd 69b7 2cbe 6abe 773d bee3 073c
000001a0: 7e03 003e c118 90be 37b7 8cbe fcf6 f1bd
000001b0: 14ac 923d fbef 9f3d 6c24 7bbc fed3 b3bd
000001c0: 7a5e 2c3e b79c fd3b 25f6 ae3d f19b 58be
000001d0: d201 36be 1b46 05be a60b 9dbd 46a1 4bbe
000001e0: 5250 4a3e 01f1 13be c626 92bd 4eea 3ebd
000001f0: 8d23 9abe 4b00 81bd b6cc f43d 4581 d53d
00000200: 6f81 d6bd bf8f 04be bb3b 26be 5955 31bd
00000210: 3652 5ebe d635 7f3d 5ab7 013d 1b6a e7bb
00000220: a3a2 3d3d b2e6 be3d e6b1 933c e8c3 423d
00000230: 1afb 06be d29d fc3c cd11 52be 3961 d93d
00000240: 85c7 883c 8d06 77be 4806 4cbe 3945 3bbe
00000250: 143e d7be 464c 433e d06e 323d 6c63 9e3d
00000260: 338e 543d 1782 683d d35a c4bd c442 c13d
00000270: 0cc3 82bd 10c0 703d 338e 5dbe 7db9 8b3d
00000280: 484d 373e 152a 213c e9b6 3bbe 2f79 b8bc
00000290: b073 893d 5d84 b3bd 264e 4d3e b43f da3d
000002a0: 940a 473e 0cf8 203f e276 adbd bc38 cd3d
000002b0: d8a4 1c3e d14f dabd 42f5 733d c67c 9cbe
000002c0: 016a f23b 7a84 e43c a726 8e3c cd33 9c3b
000002d0: 6e8b d23d 7121 35be e124 103e 3c76 a33d
000002e0: 7fa9 e1bd 570e 853d c3cc 3bbe 89bc 01be
000002f0: 46c1 163e 3045 ac3d 7484 fa3d ff07 083e
00000300: 2698 6bbe dfbd c4bd a5a6 70be a0df abbe
00000310: 3fa1 79bd 3d7b 72be 2eba 6cbd c663 4cbe
00000320: a0fe 8d3d fbae bb3d 4206 0e3d 38be e33d
00000330: 8167 c13d cab3 1e3e d917 02be c782 bdbd
00000340: bf8b 3c3e 1557 873d d294 a1be 4d86 03be
00000350: d308 3b3d f57e 0e3e 7933 2abe 956a 58be
00000360: 20f2 51be e2bd 69be b512 94be 4d8c ddbd
00000370: a59f 20be b5d2 e8bc 5c4c 823d ed7e 95bd
00000380: eb94 733c 8f2a f23c 5708 30be 436b ddbc
00000390: 2aa3 27be 50f9 543e 4341 b93d 4e84 8dbb
000003a0: d7eb 28be 1e08 143d b78b 423d 793b 7e3d
000003b0: 05c7 563d 6154 333e 5cb2 1d3e a5bb 1cbd
000003c0: 67bb 983d 3fca a1be 8408 0cbd 430e 543e
000003d0: 9669 893c 16b4 dabd a60b 9c3c a515 c0bd
000003e0: 851d 0b3e 01ca 163e 3f1d 333d 6b60 4ebe
000003f0: 41fe 48be 96cf 87be 11ed 6ebe 378f 323e

shared.0.bias f4 [256]
-0.054504998 0.041590787 0.12941982 -0.22285391 -0.13922244 -0.09842976 -0.1187301 -0.1555723
-0.25520325 0.049429726 -0.13765733 0.12004107 0.0911748 0.059612248 0.11352319 -0.18651861
-0.04191958 -0.06892097 -0.039168824 0.07447885 0.037460368 -0.22865595 -0.08698259 0.04591693
-0.12676246 0.002158144 -0.14462179 -0.3076873 -0.049837418 0.020146698 -0.10848953 0.018034676
0.04828488 -0.015396221 -0.04793142 -0.06604138 -0.037447475 -0.20719683 0.20257686 0.12578091
-0.24270289 -0.11724385 -0.040541735 -0.22979112 -0.13176017 0.1384647 -0.3193743 -0.12008931
-0.19610916 -0.38733053 -0.29777613 0.06377277 -0.20211694 0.011361775 0.1121828 -0.022983612
-0.10573206 -0.23104459 -0.02179679 0.013482332 -0.089922294 0.046505835 0.04246078 -0.20914893
-0.1296346 -0.07805418 -0.22612192 0.0050251787 -0.14875641 -0.29279768 -0.16224521 0.049370136
-0.108987674 -0.1256409 -0.108233295 -0.031472247 -0.080991425 0.16120484 -0.24586867 -0.17157277
-0.06584228 -0.038434155 -0.28050217 -0.0815529 -0.26166448 -0.15492286 -0.09862532 -0.3169446
-0.16483529 -0.13311552 -0.26356122 0.07889493 -0.11684603 -0.27889097 -0.043005526 0.08385715
-0.06815307 0.038950887 0.04163663 -0.16735959 0.012048947 -0.30690807 -0.12039181 0.018736204
-0.11147009 -0.108545125 -0.11413367 -0.059004612 -0.12479268 0.031033061 -0.09549432 -0.32543266
-0.17318413 0.02265403 -0.117508605 0.07234742 -0.19855398 -0.10641233 -0.15281284 -0.10563215
-0.21029517 0.14209986 -0.28405204 -0.19545361 -0.10503718 0.021303471 0.15485443 -0.2006063
-0.14862137 -0.22360222 -0.07351655 0.033080522 0.20675585 -0.09092302 -0.12414277 -0.23097523
-0.054658066 -0.24425122 -0.20447862 0.08196927 -0.00645239 -0.10871795 -0.09263332 -0.093991235
0.019791376 -0.1664393 0.15240948 -0.22425501 -0.14042553 -0.073238485 -0.2161414 -0.10165613
0.013229336 -0.22247249 0.14267631 -0.1049855 -0.15465398 -0.35532886 -0.0862385 -0.088337325
0.07221707 0.27698368 0.005122341 0.03918109 -0.009064726 -0.16541238 0.08964849 -0.1267155
-0.010594408 -0.19002257 -0.07997762 -0.28448856 0.15939687 -0.093274824 -0.12343776 -0.30266577
0.024237892 0.13262552 -0.13945006 -0.050295234 0.11617944 0.09799695 -0.03177123 0.026195118
0.032907773 -0.33240885 -0.009492299 -0.110734574 -0.24153352 -0.31728148 -0.059657194 0.037672024
0.15132003 -0.27542856 0.013526742 0.038299065 -0.045590196 -0.3240122 -0.08618906 -0.053002816
-0.046494994 -0.096939646 -0.21978974 0.007593163 -0.1098265 -0.10005275 0.18258202 -0.2927136
-0.24560256 0.0955174 0.12528138 0.012651153 0.037724335 -0.05321554 -0.1434489 0.101698734
-0.18059589 -0.22864042 -0.12456891 -0.1960394 -0.044015773 -0.15025409 -0.24180633 -0.18940784
-0.124471284 0.1410593 -0.17539695 0.2325995 -0.23631069 -0.21733786 0.083709784 -0.116051696
-0.20252717 -0.009640272 -0.14535418 -0.019780032 0.13534126 -0.23164006 0.06986181 -0.14520514
0.003896142 -0.2927244 -0.2213314 0.050845083 0.054788254 -0.021100547 -0.20299788 0.045653623
0.10107564 -0.31838593 -0.099142775 -0.18594448 -0.12087157 0.123518504 0.0057188617 0.14056435
00000000: a240 5fbd 1a5b 2a3d a186 043e d133 64be
00000010: 5490 0ebe 8b95 c9bd c428 f3bd 584e 1fbe
00000020: 00aa 82be d376 4a3d 0bf6 0cbe 18d8 f53d
00000030: dbb9 ba3d f92b 743d d97e e83d bcfe 3ebe
00000040: deb3 2bbd 7026 8dbd 7d6f 20bd 5e88 983d
00000050: 0b70 193d c924 6abe ee23 b2bd 6413 3c3d
00000060: 05ce 01be a66f 0d3b bc17 14be 3189 9dbe
00000070: 5222 4cbd b00a a53c c22f debd 75bd 933c
00000080: 5ec6 453d 6e40 7cbc bd53 44bd b440 87bd
00000090: 8662 19bd 682b 54be 4f70 4f3e b6cc 003e
000000a0: 1b87 78be 8b1d f0bd 170f 26bd 5d4e 6bbe
000000b0: 23ec 06be b1c9 0d3e 0785 a3be 62f1 f5bd
000000c0: d7d0 48be 3050 c6be 1d76 98be 4c9b 823d
000000d0: bef7 4ebe bd26 3a3c 19c0 e53d 2148 bcbc
000000e0: 0d8a d8bd f496 6cbe 2f8f b2bc 00e5 5c3c
000000f0: 2e29 b8bd e77c 3e3d 5beb 2d3d 232b 56be
00000100: efbe 04be dfda 9fbd 818c 67be 41aa a43b
00000110: 9a53 18be 94e9 95be 9c23 26be 5738 4a3d
00000120: ee34 dfbd 02a8 00be 6ba9 ddbd 0be9 00bd
00000130: d5de a5bd e212 253e ffc4 7bbe c6b0 2fbe
00000140: 51d8 86bd 226d 1dbd fb9d 8fbe 3505 a7bd
00000150: e3f8 85be 19a4 1ebe 12fc c9bd 9046 a2be
00000160: 95ca 28be 6f4f 08be 7ff1 86be aa93 a13d
00000170: f94c efbd ccca 8ebe 9026 30bd 4cbd ab3d
00000180: d693 8bbd f78a 1f3d 2c8b 2a3d 5060 2bbe
00000190: f268 453c 0e23 9dbe fb8f f6bd ab7c 993c
000001a0: 6e4a e4bd e84c debd eabe e9bd d2ae 71bd
000001b0: 4e93 ffbd 0c39 fe3c 8792 c3bd 1c9f a6be
000001c0: 2e57 31be f294 b93c 5aa8 f0bd e22a 943d
000001d0: bc51 4bbe b5ee d9bd f87a 1cbe ab55 d8bd
000001e0: 9e57 57be a082 113e 456f 91be fe24 48be
000001f0: bc1d d7bd 9e84 ae3c 2992 1e3e bd6b 4dbe
00000200: 3330 18be fbf7 64be d88f 96bd 717f 073d
00000210: ceb7 533e d935 babd 913e febd c584 6cbe
00000220: 23e1 5fbd fe1c 7abe d862 51be 81df a73d
00000230: 926e d3bb 84a7 debd 8ab6 bdbd 7a7e c0bd
00000240: 8621 a23c 106f 2abe 3b11 1c3e 1ba3 65be
00000250: b6cb 0fbe 0ffe 95bd 2c54 5dbe 1731 d0bd
00000260: dbbf 583c d4cf 63be bd19 123e a302 d7bd
00000270: 9d5d 1ebe aaed b5be d09d b0bd 33ea b4bd
00000280: 8be6 933d ced0 8d3e 50d9 a73b 5a7c 203d
00000290: 3784 14bc dd61 29be a199 b73d b5c1 01be
000002a0: 2b94 2dbc 4795 42be 4ecb a3bd 7ca8 91be
000002b0: ef38 233e df06 bfbd f0cc fcbd 02f7 9abe
000002c0: 8b8e c63c fcce 073e ffcb 0ebe 6002 4ebd
000002d0: 7cef ed3d a0b2 c83d 8d22 02bd 2597 d63c
000002e0: 4dca 063d 7e31 aabe 9685 1bbc cfc8 e2bd
000002f0: 9054 77be b872 a2be 1a5b 74bd fb4d 1a3d
00000300: a3f3 1a3e f904 8dbe 459f 5d3c 7bdf 1c3d
00000310: c9bc 3abd ede4 a5be e483 b0bd 7b19 59bd
00000320: 8971 3ebd 4b88 c6bd 9010 61be 11d0 f83b
00000330: b7ec e0bd 75e8 ccbd c8f6 3a3e 8fde 95be
00000340: 3d7f 7bbe a09e c33d c349 003e c846 4f3c
00000350: d584 1a3d 8af8 59bd 45e4 12be 6d47 d03d
00000360: 21ee 38be b720 6abe fc1d ffbd 8dbe 48be
00000370: e249 34bd 35dc 19be 149c 77be 21f4 41be
00000380: cdea febd d971 103e 429b 33be 902e 6e3e
00000390: 6efb 71be d18d 5ebe 0970 ab3d 83ac edbd
000003a0: 4863 4fbe 3bf2 1dbc bad7 14be bc09 a2bc
000003b0: e696 0a3e 0d33 6dbe b513 8f3d a8b0 14be
000003c0: 6a56 7f3b f9df 95be b3a4 62be ef42 503d
000003d0: a669 603d 0edb acbc adde 4fbe 4bff 3a3d
000003e0: bf00 cf3d 7b03 a3be 5e0b cbbd 3b68 3ebe
000003f0: 848b f7bd 45f7 fc3d 4a65 bb3b 1af0 0f3e

shared.2.weight f4 [128, 256]
0.02927547 -0.045780696 -0.0039270446 -0.05645226 -0.038924426 0.041574474 -0.082263045 -0.018067399
0.030006437 -0.0022876044 -0.045702826 -0.006897259 -0.040642023 -0.031844847 0.009399258 -0.017801605
0.041546278 -0.03092587 -0.059286833 -0.033603527 0.007952243 -0.06521156 -0.025370466 0.029878857
-0.025073094 0.040954836 -0.024246555 -0.04229158 0.005643593 0.041082304 -0.0044043376 0.040154435
-6.7659625e-05 0.0017502382 -0.038705148 -0.07900786 -0.07279479 -0.027550504 -0.020222543 -0.027463056
0.0021059443 0.012451685 -0.028944343 -0.0682326 0.03784296 0.040732823 -0.012061179 0.060259722
0.017482499 -0.012718961 -0.025919493 -0.0198901 0.0015986001 0.024443187 -0.03604688 -0.07906772
-0.0047831256 -0.0029863603 -0.017476058 -0.059220582 -0.032928623 -0.07379217 0.0028424715 -0.06558719
-0.024733324 0.02214147 -0.03662106 -0.04281468 -0.03135957 -0.030049095 -0.04294851 0.0036410503
-0.0055796187 -0.056614645 0.06320816 0.019764256 -0.019366061 0.008609255 -0.06013832 0.019721342
-0.05185152 -0.034372464 -0.04067207 -0.012803271 -0.10295478 0.03585337 -0.07165609 -0.09293066
-0.002252115 0.020498045 0.02712036 -0.008261313 0.017006041 -0.026619919 0.006046124 0.028885737
0.024685789 -0.010549397 -0.005358255 0.05246069 0.0148523655 0.040782824 -0.029857503 0.030004224
0.006985791 -0.05748335 -0.06561966 -0.0025063697 0.047179636 0.013209728 0.04747148 -0.043887515
0.022800788 -0.016540967 -0.007964549 -0.027562859 0.0151890665 -0.079503365 -0.06556469 -0.028508753
-0.046804108 -0.096129484 -0.06389903 -0.059034314 -0.010005971 -0.06275226 -0.024557248 0.015317934
-0.05925998 0.018776845 -0.056701932 0.017281879 0.043330826 0.020239145 0.041372485 -0.0017066192
-0.03337712 -0.021015657 -0.021993635 0.0014585315 -0.054169245 -0.078859694 -0.033980224 -0.030178552
0.02207754 0.008462765 -0.059337437 -0.07138192 -0.078975976 -0.04291734 0.04459837 0.003726326
-0.025667118 0.01909962 0.038808893 -0.09198082 0.014037643 -0.0104678795 0.029730462 -0.08618945
-0.010056652 -0.06633 0.011123923 -0.0273896 -0.10503481 -0.01159246 0.021591075 -0.012958094
0.014197732 0.043276116 -0.026229843 0.012793983 -0.036136862 0.0416765 -0.011564551 -0.05392419
-0.07579133 -0.06603318 0.027232239 -0.07676344 -0.066853575 -0.050349668 -0.04452816 0.03216269
-0.0011226906 -0.04372835 -0.035126727 0.018467318 0.009254077 -0.05204512 -0.0006916313 -0.055553757
-0.07421561 0.046151042 -0.004428876 0.0024141297 0.015861746 -0.07023933 0.01702772 -0.08296832
0.046551377 -0.013297543 -0.059345666 -0.030022755 -0.02559387 -0.010350168 -0.041129347 -0.074375734
-0.056663513 -0.014524348 0.034417674 -0.07048307 0.010852261 -0.030716509 0.044244055 -0.08737646
0.045635857 -0.06498645 -0.03802438 -0.07051533 -0.039416827 -0.05856089 -0.0470376 -0.020559553
-0.027887823 0.0057985736 0.0373217 0.0008590015 0.0049789557 0.004030831 -0.008671489 -0.04137214
-0.029212307 0.039661393 -0.008687671 -0.038264684 0.048671983 -0.06208235 -0.049143236 -0.011032522
0.01949796 0.036859512 -0.044165 0.032578934 -0.080885604 -0.00020991021 -0.035759374 -0.0030588731
0.039042667 0.045266002 -0.033403166 -0.010748276 -0.04224167 0.0099335415 -0.040793333 -0.05363661
00000000: 1cd3 ef3c 8a84 3bbd 70ae 80bb 7c3a 67bd
00000010: 386f 1fbd ff49 2a3d 8779 a8bd 1502 94bc
00000020: 0fd0 f53c a2eb 15bb e332 3bbd 6702 e2bb
00000030: 4078 26bd be6f 02bd 58ff 193c acd4 91bc
00000040: 6e2c 2a3d 4058 fdbc c0d6 72bd daa3 09bd
00000050: 204a 023c a38d 85bd b9d5 cfbc 81c4 f43c
00000060: 1766 cdbc 42c0 273d b6a0 c6bc f039 2dbd
00000070: e4ed b83b eb45 283d 4352 90bb fa78 243d
00000080: 7ce4 8db8 4068 e53a 4a89 1ebd dfce a1bd
00000090: 6f15 95bd 98b1 e1bc bfa9 a5bc 34fa e0bc
000000a0: e203 0a3b 2702 4c3c b01c edbc 89bd 8bbd
000000b0: 3801 1b3d 76d7 263d 409c 45bc e6d2 763d
000000c0: 7537 8f3c 3063 50bc 1e55 d4bc 90f0 a2bc
000000d0: 1e88 d13a 143d c83c e5a5 13bd 42ee a1bd
000000e0: c4bb 9cbb d0b6 43bb f329 8fbc 4891 72bd
000000f0: 2ae0 06bd 5920 97bd c248 3a3b 9452 86bd
00000100: 8a9d cabc 0762 b53c f7ff 15bd 725e 2fbd
00000110: e472 00bd 8529 f6bc c7ea 2fbd b09e 6e3b
00000120: 3cd5 b6bb c2e4 67bd 4873 813d a6e8 a13c
00000130: 93a5 9ebc d50d 0d3c 9953 76bd a78e a13c
00000140: 4262 54bd 24ca 0cbd c297 26bd d0c4 51bc
00000150: f5d9 d2bd fcda 123d 6ec0 92bd 6e52 bebd
00000160: 3898 13bb 84eb a73c 842b de3c 755a 07bc
00000170: 4150 8b3c 0412 dabc 901e c63b c8a1 ec3c
00000180: da39 ca3c 61d7 2cbc 4d94 afbb 05e1 563d
00000190: 5657 733c e40b 273d b997 f4bc 6bcb f53c
000001a0: 10e9 e43b a973 6bbd 9a63 86bd e841 24bb
000001b0: 6f3f 413d 9d6d 583c 7471 423d 65c3 33bd
000001c0: b8c8 ba3c ec80 87bc bd7d 02bc 81cb e1bc
000001d0: 90db 783c a9d2 a2bd c846 86bd 308b e9bc
000001e0: aab5 3fbd 89df c4bd 7fdd 82bd f7cd 71bd
000001f0: 16f0 23bc 4284 80bd 482c c9bc 12f8 7a3c
00000200: 98ba 72bd e6d1 993c 4940 68bd ba92 8d3c
00000210: aa7b 313d 90cc a53c 3276 293d a3b0 dfba
00000220: 72b6 08bd 0729 acbc ff2b b4bc 322c bf3a
00000230: 92e0 5dbd 3181 a1bd d92e 0bbd 0339 f7bc
00000240: f5db b43c 69a7 0a3c d00b 73bd af30 92bd
00000250: 28be a1bd 18ca 2fbd c8ac 363d 6035 743b
00000260: d943 d2bc ce76 9c3c 13f6 1e3d 7160 bcbd
00000270: 24fe 653c 7881 2bbc 4c8d f33c 1884 b0bd
00000280: a8c4 24bc 06d8 87bd 1d41 363c 2860 e0bc
00000290: 7e1c d7bd 4dee 3dbc c4df b03c 2f4e 54bc
000002a0: 9b9d 683c 4c42 313d f8df d6bc db9d 513c
000002b0: 3f04 14bd fab4 2a3d 3e79 3dbc 9ddf 5cbd
000002c0: 7c38 9bbd 673c 87bd 2516 df3c 2736 9dbd
000002d0: 87ea 88bd 743b 4ebd 2963 36bd 06bd 033d
000002e0: 3f27 93ba 801c 33bd 0be1 0fbd c648 973c
000002f0: 6a9e 173c 442d 55bd 974e 35ba 568c 63bd
00000300: 5bfe 97bd e008 3d3d 1b20 91bb 6036 1e3b
00000310: 7ef0 813c a3d9 8fbd b87d 8b3c 4beb a9bd
00000320: a8ac 3e3d f0dd 59bc 7114 73bd 48f2 f5bc
00000330: 3caa d1bc c093 29bc 3f77 28bd 4e52 98bd
00000340: 0018 68bd 88f7 6dbc 8cf9 0c3d 6e59 90bd
00000350: afcd 313c 30a1 fbbc 4139 353d 6ef2 b2bd
00000360: aaec 3a3d 9e17 85bd 74bf 1bbd 576a 90bd
00000370: 8a73 21bd 8bdd 6fbd 80aa 40bd 826c a8bc
00000380: 0175 e4bc f601 be3b a4de 183d 9d2e 613a
00000390: 8226 a33b 1015 843b dc12 0ebc d575 29bd
000003a0: a64e efbc fc73 223d bc56 0ebc 6ebb 1cbd
000003b0: 465c 473d 104a 7ebd 6b4a 49bd c0c1 34bc
000003c0: 30ba 9f3c 00fa 163d 5ce6 34bd 7d71 053d
000003d0: 5aa7 a5bd 581b 5cb9 6c78 12bd 6077 48bb
000003e0: 34eb 1f3d d868 393d c2d1 08bd 8919 30bc
000003f0: 9a05 2dbd 4bc0 223c e916 27bd 10b2 5bbd

shared.2.bias f4 [128]
-0.028570704 -0.04110685 -0.07455765 -0.088825434 -0.10498405 -0.025578352 -0.08805333 -0.081865735
-0.0042056185 -0.050003525 0.020898279 -0.087172195 -0.046895042 -0.0056283036 -0.095889665 -0.055070203
-0.08475583 -0.078547634 0.0026834325 -0.053978283 0.0062829717 0.0013393039 0.019971877 0.07525108
-0.0021597038 -0.039439853 -0.042626936 0.02908738 -0.0378061 -0.041260444 -0.028975155 -0.019049682
-0.11187399 -0.037009206 -0.06136671 -0.052961536 -0.04452998 -0.050285645 -0.07373605 0.03715632
-0.009831616 -0.10368036 -0.0065094233 -0.066695936 -0.028952477 -0.07864391 0.013718123 -0.025357017
-0.0016603493 -0.09368519 0.19164263 -0.14504164 -0.05925651 -0.08380534 -0.1133038 0.07609983
-0.060796633 0.082191415 -0.14209993 -0.034913726 -0.03838284 -0.0737937 -0.037085228 0.01823586
-0.012263346 0.0727789 0.07698307 -0.10291651 0.037770595 -0.043514453 -0.029054398 -0.07091792
-0.027543707 -0.096816905 0.15104277 -0.01535095 -0.093840666 -0.08750958 -0.06348179 -0.09173935
-0.06875469 -0.06870915 -0.026857136 -0.018325355 -0.06110235 0.10754941 -0.12510623 0.012447895
0.018459637 0.05530149 -0.0481059 -0.084219314 0.13511989 -0.10976709 -0.0726098 -0.06061199
-0.19077362 -0.03852803 -0.053962674 -0.06655322 -0.063737296 -0.044090915 -0.0022697675 -0.05625437
-0.024680588 0.08327703 -0.04811518 -0.05020667 -0.06524923 -0.13532878 -0.08227436 -0.05462378
-0.06708201 -0.031213691 -0.09115507 -0.11848568 -0.06680501 0.025520012 0.04583424 0.014456622
-0.037933275 0.0036212925 -0.07525663 0.006528038 0.031980883 -0.099450484 -0.04862931 0.03945163
00000000: 1c0d eabc a85f 28bd aeb1 98bd 1cea b5bd
00000010: e101 d7bd b189 d1bc 4e55 b4bd 39a9 a7bd
00000020: 49cf 89bb 7fd0 4cbd de32 ab3c 5687 b2bd
00000030: 0415 40bd a26d b8bb cd61 c4bd 4b91 61bd
00000040: 7794 adbd 95dd a0bd 87dc 2f3b 5518 5dbd
00000050: 63e1 cd3b 958b af3a 109c a33c 3d1d 9a3d
00000060: d189 0dbb af8b 21bd 9599 2ebd a848 ee3c
00000070: 92da 1abd b600 29bd 4e5d edbc 140e 9cbc
00000080: 311e e5bd f796 17bd a95b 7bbd 32ee 58bd
00000090: 1165 36bd 52f8 4dbd ed02 97bd 3a31 183d
000000a0: c914 21bc 5e56 d4bd 004d d5bb e197 88bd
000000b0: bf2d edbc 0f10 a1bd fac1 603c 85b9 cfbc
000000c0: 14a0 d9ba 05de bfbd f73d 443e cc85 14be
000000d0: f4b6 72bd 22a2 abbd d30b e8bd 3ada 9b3d
000000e0: e405 79bd f953 a83d a582 11be b201 0fbd
000000f0: 5337 1dbd 2721 97bd aee6 17bd 5f63 953c
00000100: 34ec 48bc 1b0d 953d 4da9 9d3d e4c5 d2bd
00000110: 57b5 1a3d 363c 32bd 7d03 eebc 6a3d 91bd
00000120: 57a3 e1bc f147 c6bd f5aa 1a3e 8d82 7bbc
00000130: 892f c0bd 3938 b3bd be02 82bd d7e1 bbbd
00000140: 42cf 8cbd 62b7 8cbd 7f03 dcbc 0e1f 96bc
00000150: 7546 7abd dd42 dc3d d91b 00be 41f2 4b3c
00000160: aa38 973c d183 623d b10a 45bd 2d7b acbd
00000170: de5c 0a3e 91cd e0bd 72b4 94bd 4744 78bd
00000180: 295a 43be 91cf 1dbd f707 5dbd 0e4d 88bd
00000190: b388 82bd ad98 34bd 61c0 14bb fb6a 66bd
000001a0: f22e cabc 268d aa3d 6c14 45bd 82a5 4dbd
000001b0: 63a1 85bd a193 0abe 767f a8bd 2fbd 5fbd
000001c0: 4b62 89bd dbb3 ffbc 82af babd 9fa8 f2bd
000001d0: 11d1 88bd 580f d13c afbc 3b3d 78db 6c3c
000001e0: ec5f 1bbd 3553 6d3b 2620 9abd 27e9 d53b
000001f0: 63fe 023d b2ac cbbd 872f 47bd 0898 213d

dice_policy.weight f4 [5, 128]
0.020791318 0.059842203 -0.07062532 -5.6503108e-05 0.1232981 -0.09740317 0.073406294 -0.18941931
-0.14405456 -0.110554084 -0.027977467 -0.076186344 0.0029666056 0.026478073 -0.1463334 -0.055888306
0.13400675 -0.120882004 -0.042748805 -0.054925393 -0.049638603 0.09948696 -0.049625922 0.39914745
-0.01608634 -0.08783212 0.060916066 -0.059311174 -0.068572626 0.18460156 -0.039452206 0.081123054
0.03729033 0.09370631 -0.10748486 0.031809337 -0.081803456 0.053936362 0.04133003 -0.1061078
-0.022829698 -0.10544928 0.039143883 -0.06917943 -0.13934912 -0.12354856 -0.013140694 0.0946546
0.062450945 -0.089448534 -0.010543632 0.07245814 -0.040943533 0.018249096 -0.090874314 -0.15515757
0.04787753 -0.20162357 0.011641837 0.033303097 -0.07122097 -0.023531385 0.028092897 -0.12414387
-0.06451144 -0.23467132 -0.10089566 -0.057483934 -0.078515016 0.034155022 -0.10653947 0.12880065
0.122455895 0.09393439 -0.0025497947 -0.04115695 -0.038104217 0.021575723 0.050679382 0.0062250723
-0.11646478 -0.013380186 -0.085795045 0.021608977 -0.039809044 -0.20395654 0.079661384 -0.0033265832
0.26703668 -0.027053123 -0.02389188 0.09123489 -0.36533305 -0.02155838 -0.045786068 -0.14081156
0.09324956 0.015970688 0.06865771 -0.048132394 -0.25085717 -0.05431396 -0.020799894 -0.037227098
0.19302213 -0.08380222 0.036247626 -0.051948603 -0.005542754 0.042831734 0.008872368 -0.01759902
-0.056264233 0.027159963 -0.1050137 -0.012720895 -0.09552522 -0.05096675 -0.0068622367 0.38114783
-0.013018425 -0.1056717 0.0785763 -0.09980938 0.016691322 0.047688153 0.07290554 -0.046152785
0.03509031 0.1336883 -0.09197188 0.050851747 0.032306287 -0.086760834 -0.07520726 0.002997728
-0.1344102 -0.047390703 -0.039212402 -0.10774297 -0.028553933 -0.036862995 -0.08466609 -0.026495133
0.025744634 -0.08471189 -0.01294234 0.1587064 -0.1421417 0.087515436 -0.004577052 -0.10436644
-0.06621579 0.009078954 0.11686552 0.006131132 -0.119238585 0.13040704 0.083624244 -0.039724786
-0.03259225 0.09363873 -0.15420388 0.016807506 -0.049579553 0.025933836 -0.043043405 0.2068071
0.0019823636 -0.0031503728 -0.09107355 0.10813538 -0.13989903 -0.012831461 -0.038560774 0.09767808
0.09105675 -0.03152419 0.08751697 -0.14717259 0.0037337667 0.057483714 0.004233672 -0.15343204
-0.021445274 0.08010254 -0.019764703 0.062350623 -0.08152556 -0.040870216 -0.05289382 0.01954694
0.009986371 -0.08007441 -0.06354793 0.014070186 0.02596347 0.061498936 -0.12209147 -0.15647735
-0.17144288 0.05616212 -0.0014523419 0.030441415 -0.07504982 -0.048410725 -0.17466785 -0.022698566
-0.20219207 0.05910551 0.053263612 0.088030726 0.14271854 -0.20976591 0.049873516 0.018862773
-0.2463764 -0.019166302 -0.21421565 -0.028629135 0.052371006 -0.073411524 0.010329483 -0.05460092
-0.039313503 -0.042881142 -0.003935577 -0.017150389 -0.09218712 -0.07215164 0.09332845 0.31333426
-0.053118788 -0.049610954 -0.0014239344 -0.033187803 -0.015770983 -0.04875136 0.06163082 -0.015583505
0.03694612 -0.057696503 -0.18041052 -0.016915083 0.00465471 -0.06529199 -0.00029719633 -0.050850917
-0.061914843 0.0039024432 -0.074841514 -0.057765275 0.036377776 -0.0039405115 -0.21419148 -0.15857382
00000000: 8e52 aa3c 191d 753d 02a4 90bd c0fd 6cb8
00000010: b783 fc3d 507b c7bd 0a56 963d 23f7 41be
00000020: 0a83 13be 2e6a e2bd 0031 e5bc 9607 9cbd
00000030: 626b 423b 8be8 d83c 6cd8 15be 23eb 64bd
00000040: 1139 093e fc90 f7bd 5f19 2fbd 73f9 60bd
00000050: d951 4bbd d2bf cb3d 8d44 4bbd 0e5d cc3e
00000060: 80c7 83bc 54e1 b3bd 2083 793d 46f0 72bd
00000070: ce6f 8cbd 3108 3d3e a398 21bd d823 a63d
00000080: bfbd 183d 18e9 bf3d 0621 dcbd 824a 023d
00000090: 9288 a7bd 60ec 5c3d ad49 293d 0c4f d9bd
000000a0: 5905 bbbc cbf5 d7bd 5655 203d f2ad 8dbd
000000b0: 89b1 0ebe 0707 fdbd 114c 57bc 45da c13d
000000c0: 90cc 7f3d cb30 b7bd 33bf 2cbc ef64 943d
000000d0: 68b4 27bd 217f 953c 501c babd a0e1 1ebe
000000e0: 3b1b 443d 6976 4ebe 67bd 3e3c d468 083d
000000f0: 4ddc 91bd e4c4 c0bc 1323 e63c 243f febd
00000100: 931e 84bd ae4d 70be 62a2 cebd 4674 6bbd
00000110: 7bcc a0bd 23e6 0b3d 5e31 dabd 51e4 033e
00000120: 28ca fa3d ac60 c03d 751a 27bb 3194 28bd
00000130: 2b13 1cbd 92bf b03c 2f95 4f3d b1fb cb3b
00000140: 1685 eebd 9138 5bbc 50b5 afbd 4f05 b13c
00000150: cf0e 23bd fcd9 50be 8225 a33d ce02 5abb
00000160: 08b9 883e 839e ddbc e7b8 c3bc 5cd9 ba3d
00000170: ef0c bbbe 339b b0bc 2c8a 3bbd e830 10be
00000180: a0f9 be3d f6d4 823c 6a9c 8c3d 7926 45bd
00000190: 5a70 80be 5178 5ebd 8a64 aabc 717b 18bd
000001a0: 98a7 453e 80a0 abbd 6478 143d 0fc8 54bd
000001b0: fe9f b5bb 5470 2f3d 695d 113c d22b 90bc
000001c0: 5375 66bd 927e de3c 6c11 d7bd 4d6b 50bc
000001d0: baa2 c3bd 83c2 50bd 9ddc e0bb cf25 c33e
000001e0: 3b4b 55bc 676a d8bd 9cec a03d dc68 ccbd
000001f0: 3dbc 883c a754 433d 804f 953d b40a 3dbd
00000200: dbba 0f3d 96e5 083e c15b bcbd ec49 503d
00000210: 9953 043d aaaf b1bd 4406 9abd 8875 443b
00000220: d4a2 09be c11c 42bd 2f9d 20bd 59a8 dcbd
00000230: f0e9 e9bc a7fd 16bd 6a65 adbd 520c d9bc
00000240: 69e6 d23c 6d7d adbd 1c0c 54bc ee83 223e
00000250: 988d 11be 4b3b b33d 18fb 95bb 12be d5bd
00000260: 259c 87bd e5bf 143c 3157 ef3d aae7 c83b
00000270: 5c33 f4bd 6c89 053e 3043 ab3d 75b6 22bd
00000280: 737f 05bd aac5 bf3d 9fe7 1dbe e5af 893c
00000290: ee13 4bbd 3273 d43c 484e 30bd 3ec5 533e
000002a0: 8bea 013b 7c76 4ebb c584 babd 1576 dd3d
000002b0: b141 0fbe 0c3b 52bc e7f1 1dbd 720b c83d
000002c0: f67b ba3d 821f 01bd 193c b33d 69b4 16be
000002d0: 36b2 743b 0b74 6b3d 9dba 8a3b 4a1d 1dbe
000002e0: 00ae afbc cd0c a43d 96e9 a1bc 5e63 7f3d
000002f0: dff6 a6bd 8767 27bd 31a7 58bd e820 a03c
00000300: e09d 233c 0dfe a3bd 6b25 82bd a386 663c
00000310: 58b1 d43c 4fe6 7b3d 180b fabd 993b 20be
00000320: b98e 2fbe 400a 663d 825c beba 4660 f93c
00000330: b8b3 99bd 534a 46bd 21dc 32be 58f2 b9bc
00000340: 700b 4fbe 9f18 723d f22a 5a3d 7449 b43d
00000350: cf24 123e e0cc 56be 2c48 4c3d 1a86 9a3c
00000360: 184a 7cbe a602 9dbc 595b 5bbe a687 eabc
00000370: fb82 563d c858 96bd fe3c 293c 37a5 5fbd
00000380: 3207 21bd 23a4 2fbd 03f6 80bb f97e 8cbc
00000390: 9acc bcbd 3dc4 93bd fd22 bf3d 596d a03e
000003a0: 1693 59bd db34 4bbd 4fa3 baba efef 07bd
000003b0: 2632 81bc 82af 47bd 9970 7c3d f551 7fbc
000003c0: d154 173d 2b53 6cbd 89bd 38be 8091 8abc
000003d0: 8a86 983b cfb7 85bd 04d1 9bb9 0d49 50bd
000003e0: 6b9a 7dbd 22c0 7f3b 8246 99bd 489b 6cbd
000003f0: dd00 153d 681f 81bb 0355 5bbe 2d61 22be

dice_policy.bias f4 [5]
-0.06051208 -0.087264426 -0.054561954 0.028559761 0.12242938
00000000: 84db 77bd b1b7 b2bd 5b7c 5fbd 29f6 e93c
00000010: 41bc fa3d

category_policy.weight f4 [13, 128]
-0.024711741 -0.09663907 -0.21286143 0.034904476 -0.055007465 -0.20906463 -0.080202445 -0.24715729
-0.28714797 -0.09879405 -0.0004658199 -0.08826855 -0.0056885113 0.029514018 -0.20613483 -0.0073320563
-0.113889225 -0.022232413 -0.06937095 -0.030904394 -0.10393492 0.009016494 -0.04253319 -0.27908775
-0.03753516 0.04441122 -0.084931366 -0.08659792 -0.093314335 -0.11107507 -0.016649516 0.012340852
-0.07255076 0.010752536 -0.036253963 -0.12087787 -0.0064925742 -0.07455307 -0.1509003 -0.45328662
0.0038089498 -0.16903874 -0.11761672 -0.06591968 -0.07280949 -0.05200541 -0.001255036 0.06259877
0.006163334 -0.03371491 -0.6937869 -0.024364943 -0.081845015 -0.048637472 -0.022100456 -0.13567792
-0.10954803 -0.25742343 -0.006445504 -0.013369285 -0.19693294 -0.11721136 -0.055267245 -0.029812489
-0.06264658 -0.20426084 -0.030027045 -0.15086989 0.01741446 0.028240317 -0.038416333 -0.04893946
0.0007149851 -0.1456433 -0.03130315 -0.0053098383 -0.059129238 0.025506552 -0.16581273 0.008695415
-0.29659468 0.06568209 0.04908686 -0.06742741 0.016214868 -0.19331664 -0.07944593 0.0061433343
-0.18658586 -0.47265145 -0.015292155 0.011927222 -0.25291854 -0.0697615 -0.3095271 0.0005800649
-0.11654502 -0.21932709 -0.07943657 0.0011167994 -0.3894749 -0.09521449 -0.065510556 -0.22133298
-0.17391682 -0.041507117 0.04786605 -0.07374231 -0.06848015 0.01151757 -0.34927183 -0.06978036
-0.007648859 0.020175543 -0.1642346 -0.07145306 -0.010529797 -0.018048562 -0.03322537 -0.006096296
-0.06788523 -0.024665518 -0.026821604 0.0036198404 -0.02105517 0.0047494355 -0.39302304 -0.14912233
-0.008086207 -0.16227752 -0.022669915 -0.0811486 0.02856231 -0.2071496 -0.051178586 -0.16240303
-0.21257287 -0.035768177 -0.00861039 -0.07237043 -0.046020355 0.007692947 -0.15705907 0.06413487
-0.18940671 -0.004278343 -0.040245913 -0.11731226 -0.02533892 0.021323023 0.04190076 -0.37100235
-0.023566779 -0.040491518 -0.06843596 -0.074604884 -0.01638918 -0.20427863 -0.06936268 0.038067333
-0.08786208 -0.080874465 0.00933975 -0.103994034 0.011227857 -0.01389991 -0.028454842 -0.12948838
-0.017936142 -0.13375767 0.0058896337 -0.16663064 0.006595706 -0.012163215 0.0051925164 0.025780227
0.0009193937 -0.14802426 -0.4890011 -0.030340321 -0.083867446 -0.04495003 -0.12428002 -0.1849203
0.055981003 -0.33016333 -0.0884182 -0.10499747 -0.09919723 -0.11432051 -0.05027869 -0.096463576
-0.04154009 -0.3582133 0.0803645 -0.43875173 0.004173268 0.056085806 -0.019975869 -0.04229851
-0.03476297 -0.022738926 -0.009919425 0.028166639 0.048191905 -0.004302028 -0.0723769 -0.031981956
-0.20498075 0.037467256 -0.028100625 -0.08145308 0.010946889 -0.021932846 -0.070703015 -0.058292862
-0.17351277 -0.34651482 -0.2067676 -0.04433673 -0.3028993 0.016669266 -0.19162968 -0.02829341
-0.02514792 -0.3829275 -0.019762468 0.005663183 -0.19709434 -0.17355621 -0.09142533 -0.20011128
-0.1599376 -0.037220795 0.04087348 0.04314555 -0.0879517 -0.02754908 -0.10524569 -0.03397841
0.024441583 -0.007954574 -0.13662302 -0.1904787 -0.007725785 -0.04314118 -0.017915064 -0.15132761
-0.08098173 -0.09192929 -0.04398319 0.011233712 -0.013023206 0.0097167175 -0.5862457 -0.23172379
00000000: 4770 cabc b4ea c5bd 59f8 59be fff7 0e3d
00000010: 824f 61bd 0a15 56be 2e41 a4bd cd16 7dbe
00000020: 0f05 93be 8954 cabd 4a39 f4b9 24c6 b4bd
00000030: b166 babb 62c7 f13c 0215 53be bf41 f0bb
00000040: c13e e9bd c020 b6bc 5b12 8ebd 362b fdbc
00000050: d5db d4bd ebb9 133c 4837 2ebd 97e4 8ebe
00000060: 78be 19bd 8ae8 353d 7ff0 adbd 405a b1bd
00000070: 961b bfbd 547b e3bd 9164 88bc 4931 4a3c
00000080: 7e95 94bd 682b 303c 097f 14bd d18e f7bd
00000090: a9bf d4bb 48af 98bd 9c85 1abe 2f15 e8be
000000a0: 939f 793b 7e18 2dbe 09e1 f0bd e600 87bd
000000b0: 241d 95bd a003 55bd 0580 a4ba c933 803d
000000c0: cbf5 c93b a518 0abd 059c 31bf fd98 c7bc
000000d0: 5c9e a7bd 1638 47bd 040c b5bc 27ef 0abe
000000e0: b85a e0bd 01cd 83be ce34 d3bb d80a 5bbc
000000f0: caa8 49be 820c f0bd e85f 62bd 5239 f4bc
00000100: da4c 80bd c129 51be 47fb f5bc a37d 1abe
00000110: c5a8 8e3c 3d58 e73c 725a 1dbd be74 48bd
00000120: d66d 3b3a 8423 15be bb37 00bd 27fe adbb
00000130: 8031 72bd 1ef3 d03c d0ca 29be 3777 0e3c
00000140: 42db 97be 5584 863d 4e0f 493d 6217 8abd
00000150: 0bd5 843c ccf4 45be 8cb4 a2bd 064e c93b
00000160: 5d10 3fbe 5fff f1be f28b 7abc 656a 433c
00000170: 8a7e 81be 1edf 8ebd 567a 9ebe 7f0f 183a
00000180: 28af eebd 4897 60be a4af a2bd 9261 923a
00000190: 4169 c7be d1ff c2bd 662a 86bd 1da5 62be
000001a0: 4017 32be 5e03 2abd 310f 443d 3506 97bd
000001b0: 523f 8cbd 31b4 3c3c c2d3 b2be 01e9 8ebd
000001c0: 48a3 fabb 2e47 a53c 1d2d 28be fb55 92bd
000001d0: 2b85 2cbc 94da 93bc 5317 08bd 70c3 c7bb
000001e0: 6907 8bbd 570f cabc fbb8 dbbc d83a 6d3b
000001f0: e47b acbc 27a1 9b3b 513a c9be 86b3 18be
00000200: 037c 04bc 142c 26be 42b6 b9bc 3d31 a6bd
00000210: 81fb e93c 061f 54be a3a0 51bd fb4c 26be
00000220: b4ac 59be a781 12bd 9812 0dbc f336 94bd
00000230: d77f 3cbd 1e15 fc3b 18d4 20be 2559 833d
00000240: d5f3 41be 5831 8cbb e6d8 24bd 6941 f0bd
00000250: 9193 cfbc 9fad ae3c 22a0 2b3d 05f4 bdbe
00000260: 1e0f c1bc 6fda 25bd 2728 8cbd 72ca 98bd
00000270: 9a42 86bc 6b2e 51be 050e 8ebd 7eec 1b3d
00000280: 09f1 b3bd 83a1 a5bd c005 193c d3fa d4bd
00000290: 0cf5 373c 73bc 63bc 211a e9bc 9a98 04be
000002a0: d1ee 92bc c5f7 08be d4fd c03b 39a1 2abe
000002b0: cb20 d83b 3948 47bc fc25 aa3b 0e31 d33c
000002c0: 7703 713a ac93 17be 5a5e fabe 448c f8bc
000002d0: b2c2 abbd 861d 38bd 8686 febd bf5b 3dbe
000002e0: 564c 653d 2b0b a9be 9a14 b5bd ea08 d7bd
000002f0: eb27 cbbd df20 eabd 07f1 4dbd b28e c5bd
00000300: f125 2abd bc67 b7be 2596 a43d 11a4 e0be
00000310: e9bf 883b 3bba 653d 6fa4 a3bc 3441 2dbd
00000320: 9e63 0ebd fc46 babc 1585 22bc b9bd e63c
00000330: e064 453d 07f8 8cbb 573a 94bd 83ff 02bd
00000340: 79e6 51be 4477 193d 4833 e6bc dfd0 a6bd
00000350: 955a 333c 83ac b3bc becc 90bd 7fc4 6ebd
00000360: 55ad 31be 646a b1be e3ba 53be 6e9a 35bd
00000370: 9e15 9bbe fc8d 883c 923a 44be 95c7 e7bc
00000380: 0303 cebc 130f c4be e6e4 a1bc 3992 b93b
00000390: 19d3 49be b8b8 31be 343d bbbd f9e9 4cbe
000003a0: afc6 23be d574 18bd f36a 273d 63b9 303d
000003b0: 0520 b4bd 9cae e1bc 0d8b d7bd f22c 0bbd
000003c0: b739 c83c e753 02bc e8e6 0bbe d90c 43be
000003d0: 9528 fdbb ceb4 30bd 9dc2 92bc a0f5 1abe
000003e0: c0d9 a5bd 6c45 bcbd b827 34bd 9a0d 383c
000003f0: 495f 55bc de32 1f3c 3314 16bf 0049 6dbe

category_policy.bias f4 [13]
0.07530609 0.016232 -0.0006914129 0.04735149 0.050872386 -0.0838581 -0.019670412 -0.14280434
-0.12920436 0.09770412 -0.115744196 -0.13275641 0.11985279
00000000: 143a 9a3d f9f8 843c ef3f 35ba a3f3 413d
00000010: 905f 503d ccbd abbd d823 a1bc 4d3b 12be
00000020: 264e 04be 1919 c83d 4b0b edbd 4cf1 07be
00000030: 6175 f53d

value.weight f4 [1, 128]
0.0055028503 -0.0569998 0.06829644 -0.06067397 0.051947318 0.020416755 0.04284441 -0.07628647
-0.0066441027 0.086089954 0.084212944 0.0509548 -0.023043325 -0.035197888 -0.015476133 0.00039094363
0.039137058 0.07613124 -0.052598614 -0.06992261 -0.007812308 0.06444391 -0.065561496 0.013691751
0.0254921 -0.03981362 -0.05682293 0.06400263 0.06767205 0.054215986 0.010370064 0.08163663
0.04732741 -0.06554742 -0.067611665 0.059169527 0.047710128 0.017219115 0.079546444 -0.04091481
-0.08185746 0.036446456 0.07712352 0.07406341 -0.044246625 -0.07357787 -0.019663885 -0.087170765
-0.016184041 -0.021489825 0.029222675 0.0761991 0.08083383 -0.020028193 -0.077131875 -0.001514684
-0.0866064 0.061187655 -0.082099974 0.08638952 0.015703304 0.019490736 0.07475307 0.017185515
-0.064356886 0.07400005 -0.061656527 0.04088908 -0.025130795 0.08333558 0.08011931 -0.04695593
0.017136117 0.029481078 0.068654105 0.06436041 -0.03323902 -0.06965821 -0.053261466 0.081721134
0.012449525 -0.03258201 0.017330552 0.04245056 -0.050875966 0.061558485 -0.010985944 0.055785198
0.08143187 0.0011976027 -0.05163424 0.055617716 0.036137518 0.06359338 0.06328971 0.044655375
-0.056839544 0.04136239 -0.060900014 -0.025589637 -0.046856187 -0.08175832 -0.016109558 0.045828618
0.05996858 0.025677355 0.08058493 0.03215505 0.07389362 -0.0062009813 -0.010679811 -0.038174264
-0.0062185884 0.0843578 -0.055127412 0.0029747034 0.0046688593 0.074341506 0.00016891403 -0.008019207
0.042777333 0.08747322 -0.08116056 -0.049624845 0.04709165 0.06678483 0.003492509 -0.054714575
00000000: 4151 b43b 9f78 69bd 01df 8b3d 4585 78bd
00000010: b6c6 543d 0a41 a73c 9f7d 2f3d 153c 9cbd
00000020: c6b6 d9bb ee4f b03d d677 ac3d fbb5 503d
00000030: 5bc5 bcbc a92b 10bd 9b8f 7dbc 91f7 cc39
00000040: 2e4e 203d b2ea 9b3d a571 57bd 9633 8fbd
00000050: 64fe ffbb 2bfb 833d 1b45 86bd 5e53 603c
00000060: cfd4 d03c 9b13 23bd 29bf 68bd d013 833d
00000070: a597 8a3d 9511 5e3d 33e7 293c 1b31 a73d
00000080: 63da 413d ba3d 86bd fc77 8abd bf5b 723d
00000090: b26b 433d 1a0f 8d3c 3fe9 a23d 4a96 27bd
000000a0: e2a4 a7bd e148 153d f0f2 9d3d 8fae 973d
000000b0: f33b 35bd ffaf 96bd 2816 a1bc 9686 b2bd
000000c0: 6594 84bc 6e0b b0bc 6464 ef3c 460e 9c3d
000000d0: 358c a53d 2a12 a4bc 51f7 9dbd 5c88 c6ba
000000e0: b25e b1bd e89f 7a3d 0824 a8bd fdec b03d
000000f0: 37a4 803c 09ab 9f3c 2318 993d a3c8 8c3c
00000100: 8bcd 83bd 578d 973d 8e8b 7cbd 4f7b 273d
00000110: 19df cdbc d8ab aa3d 9815 a43d dc54 40bd
00000120: 0b61 8c3c 4d82 f13c 869a 8c3d 64cf 833d
00000130: a325 08bd f7a8 8ebd b228 5abd 695d a73d
00000140: 18f9 4b3c b774 05bd cdf8 8d3c a3e0 2d3d
00000150: 5163 50bd c024 7c3d 64fe 33bc 057f 643d
00000160: c1c5 a63d e1f8 9c3a 6d7e 53bd 67cf 633d
00000170: ef04 143d 3f3d 823d 099e 813d 8ee8 363d
00000180: 95d0 68bd 9c6b 293d 4b72 79bd 5ca1 d1bc
00000190: 46ec 3fbd e870 a7bd 31f8 83bc cab6 3b3d
000001a0: 9da1 753d 5159 d23c b609 a53d 04b5 033d
000001b0: 8a55 973d 9a31 cbbb 60fa 2ebc 9e5c 1cbd
000001c0: 4dc5 cbbb c8c3 ac3d 48cd 61bd 3ef3 423b
000001d0: 3bfd 983b 5c40 983d 841e 3139 fe62 03bc
000001e0: 4937 2f3d 2925 b33d 8237 a6bd 6c43 4bbd
000001f0: 2de3 403d 7cc6 883d 94e2 643b 641c 60bd

exp_avg f4 [256, 23]
0.00062181544 0.0017021475 0.0009232727 0.0013920984 0.0023072634 0.0 -0.00018424782 -0.0007563188
0.0029663777 -5.2161646e-05 -0.0009804363 -0.0032998945 -0.0050251274 -0.0047608013 -3.2124105e-22 -2.7281738e-05
-0.0010938942 -8.5683125e-05 0.0046666246 6e-45 1.523916e-08 0.0 0.0 -0.0012437928
-0.0012918207 -0.0010596254 -0.00069129036 -0.00073931814 0.0 -6e-45 -6e-45 -6e-45
-9.892438e-14 1.104068e-11 -3.0630704e-13 6e-45 -6e-45 -0.008073881 6e-45 -6e-45
0.0 3.4375924e-10 0.0 0.0 0.0 0.0 -0.0030862777 -0.00019013023
-0.0008634833 -0.0034820049 -0.0049017654 0.0 5.6470055e-09 -0.0040272675 -0.0059173694 -0.006945695
-0.018477654 -0.000113383285 -0.0034480412 -0.00065928145 -0.00801068 -0.08400232 -0.12625828 0.00014470886
-0.007273056 0.0 -5.094392e-10 0.0 0.0 0.003929375 0.0046241023 0.004275749
0.0047657257 0.0067546465 0.0 -2.3149156e-11 -1.5582244e-05 0.004494598 -0.0015213995 0.006494279
-1.5582342e-05 -6.608827e-05 -6e-45 0.010108225 0.03463224 1.3621293e-13 -4.3889786e-10 0.017855907
-6e-45 6e-45 0.0 0.0 3.0441947e-07 2.3574506e-07 5.525666e-07 5.517505e-07
5.495348e-07 0.0 3.0255898e-10 4.6467144e-10 6.9700745e-10 2.139578e-09 -2.2181267e-08 1.6643855e-06
2.3806676e-06 -2.106693e-09 -6e-45 2.7578635e-06 3.6743415e-06 -8.992753e-09 2.0135071e-06 -6e-45
-7.0223105e-11 0.0 0.0 -0.0008543092 -0.0009721101 -0.00086185127 -0.000773092 -0.00047392838
0.0 -3.7709156e-06 -7.290203e-20 6.3892854e-05 -6.0180515e-22 -0.00033411893 -0.002596866 -0.0038952997
-9.4272866e-05 2.5e-44 6e-45 1.2928714e-37 6e-45 -0.0038952997 0.0 6e-45
0.0 0.0 -0.0045029186 -0.0059845354 -0.00034697424 -0.00648702 -0.0073444895 0.0
-3.279939e-05 -8.216023e-09 -6.7449837e-09 -0.00024078965 -0.007131697 -0.033576507 -0.0021179016 -0.02236318
-0.017646 -0.03896993 -6.316863e-07 0.0020453911 -0.03285999 -6e-45 -9.663346e-09 0.0
0.0 0.0075754896 0.01061547 -0.0028372668 0.005759775 0.0043490883 0.0 -0.0008361417
0.0019993396 0.006094894 0.002273555 -0.015077758 -0.013363847 0.01529229 0.014072456 7.581977e-11
-0.010190054 -0.01736362 -1.7562085e-07 0.027704867 6e-45 -1.701773e-09 0.0 0.0
0.0006960886 0.0027843544 0.0016767601 0.0016767601 0.00327469 0.0 -6e-45 6e-45
6e-45 6e-45 -6e-45 1.7827e-41 6e-45 6e-45 6e-45 6e-45
6e-45 7.4286e-41 0.007845373 0.0 -6e-45 0.0 0.0 0.0018296152
0.0037663588 0.0015734092 0.0014203235 0.004401806 0.0 6e-45 6e-45 0.0002539837
3.8536425e-07 0.0013664041 -6e-45 -6e-45 -6e-45 0.003395657 0.0053315028 6e-45
6e-45 0.008090596 -6e-45 -6e-45 0.0 0.0 -0.0058614793 -0.005828457
-0.003013446 -0.0074789855 -0.008547008 0.0 -0.000605483 -0.0054172496 -0.0121179 -0.0042679305
-0.027690088 -0.010377496 -0.017132353 -0.013926278 -0.012999992 -0.07857167 -0.11445564 4.6089976e-09
-0.026361598 0.0 9.217994e-11 0.0 0.0 0.0047362237 0.011279849 0.0057444456
00000000: 5401 233a 981a df3a c807 723a 1277 b63a
00000010: 7535 173b 0000 0000 a632 41b9 b243 46ba
00000020: 8f67 423b 24c8 5ab8 fc81 80ba 0b43 58bb
00000030: d3a9 a4bb 7f00 9cbb a52d c29b 16db e4b7
00000040: 0061 8fba c7b0 b3b8 7cea 983b 0400 0000
00000050: 44e7 8232 0000 0000 0000 0000 c306 a3ba
00000060: 4f52 a9ba 21e3 8aba b637 35ba cdce 41ba
00000070: 0000 0000 0400 0080 0400 0080 0400 0080
00000080: 06c2 dea9 cd3a 422d 7f6f acaa 0400 0000
00000090: 0400 0080 5048 04bc 0400 0000 0400 0080
000000a0: 0000 0000 d0fb bc2f 0000 0000 0000 0000
000000b0: 0000 0000 0000 0000 2643 4abb b25d 47b9
000000c0: 625b 62ba 5932 64bb fd9e a0bb 0000 0000
000000d0: 9607 c231 2bf7 83bb 7ee6 c1bb b698 e3bb
000000e0: 735e 97bc 30c8 edb8 88f8 61bb a1d3 2cba
000000f0: 3a3f 03bc 6909 acbd da49 01be fdbc 1739
00000100: d152 eebb 0000 0000 9908 0cb0 0000 0000
00000110: 0000 0000 fdc1 803b c885 973b 951b 8c3b
00000120: ce29 9c3b 1556 dd3b 0000 0000 449f cbad
00000130: 9db6 82b7 6c47 933b b269 c7ba f6cd d43b
00000140: d3b6 82b7 df98 8ab8 0400 0080 f89c 253c
00000150: 89da 0d3d b45c 192a 6249 f1af 8d46 923c
00000160: 0400 0080 0400 0000 0000 0000 0000 0000
00000170: 186f a334 1c21 7d34 1654 1435 011c 1435
00000180: be83 1335 0000 0000 6455 a62f b174 ff2f
00000190: 8a97 3f30 db07 1331 1f89 beb2 da63 df35
000001a0: 8fc3 1f36 56c5 10b1 0400 0080 bc13 3936
000001b0: b594 7636 8c7e 1ab2 ca1f 0736 0400 0080
000001c0: 186c 9aae 0000 0000 0000 0000 b8f3 5fba
000001d0: 34d5 7eba dced 61ba 53a9 4aba 9779 f8b9
000001e0: 0000 0000 d60f 7db6 9322 ac9f 37fe 8538
000001f0: 6be2 359c af2c afb9 2f30 2abb 4948 7fbb
00000200: 5cb4 c5b8 1200 0000 0400 0000 fef9 2f02
00000210: 0400 0000 4948 7fbb 0000 0000 0400 0000
00000220: 0000 0000 0000 0000 388d 93bb ec19 c4bb
00000230: 18ea b5b9 1191 d4bb 0baa f0bb 0000 0000
00000240: 1492 09b8 7426 0db2 81c1 e7b1 7b7c 7cb9
00000250: 03b1 e9bb 8587 09bd 7ecc 0abb fd32 b7bc
00000260: 588e 90bc ef9e 1fbd 2791 29b5 f80b 063b
00000270: 3298 06bd 0400 0080 d803 26b2 0000 0000
00000280: 0000 0000 d03b f83b 82ec 2d3c 70f1 39bb
00000290: 7fbc bc3b cc82 8e3b 0000 0000 8530 5bba
000002a0: 5a07 033b adb7 c73b ecff 143b b308 77bc
000002b0: 09f4 5abc 838c 7a3c 2990 663c bcba a62e
000002c0: 2ff4 26bc 273e 8ebc 4b92 3cb4 51f5 e23c
000002d0: 0400 0000 d0e3 e9b0 0000 0000 0000 0000
000002e0: b779 363a b779 363b bcc6 db3a bcc6 db3a
000002f0: 2e9c 563b 0000 0000 0400 0080 0400 0000
00000300: 0400 0000 0400 0000 0400 0080 b231 0000
00000310: 0400 0000 0400 0000 0400 0000 0400 0000
00000320: 0400 0000 14cf 0000 e189 003c 0000 0000
00000330: 0400 0080 0000 0000 0000 0000 b3cf ef3a
00000340: 04d5 763b da3a ce3a 262a ba3a 063d 903b
00000350: 0000 0000 0400 0000 0400 0000 1d29 8539
00000360: 0fe4 ce34 ea18 b33a 0400 0080 0400 0080
00000370: 0400 0080 ac89 5e3b e3b3 ae3b 0400 0000
00000380: 0400 0000 6b8e 043c 0400 0080 0400 0080
00000390: 0000 0000 0000 0000 a711 c0bb a4fc bebb
000003a0: 3c7d 45bb 4712 f5bb c008 0cbc 0000 0000
000003b0: 47b9 1eba 2f83 b1bb 288a 46bc ffd9 8bbb
000003c0: 53d6 e2bc 5f06 2abc 2659 8cbc 0b2b 64bc
000003d0: ebfd 54bc 2fea a0bd b867 eabd 2c5d 9e31
000003e0: 47f4 d7bc 0000 0000 b1b4 ca2e 0000 0000
000003f0: 0000 0000 5332 9b3b 1ecf 383c e73b bc3b
