checkpoints/yahtzee_pretrain_incremental_100ep/checkpoint_ep99.pt (torch, 511677 bytes, 25 tensors)

shared.0.weight f4 [256, 23]
-0.04185031 -0.12615633 0.1909599 -0.20621426 -0.11235719 0.0033181165 -0.03675506 -0.11467959
0.005639526 0.15959363 -0.025028659 0.04768132 0.045836646 0.16642831 0.054878134 -0.17083062
-0.12437645 0.102442026 -0.16395764 -0.023176407 0.16074194 -0.0142072085 0.19842002 0.044048447
-0.19960776 -0.200594 -0.004630764 0.040608622 -0.13582245 -0.19736175 -0.22836347 -0.19275413
0.16135778 -0.07127683 0.06583642 -0.08479238 0.061016046 0.0065222383 0.08719766 0.03623766
0.0080474615 0.07390546 0.20670854 -0.17801343 -0.111109644 0.179881 -0.23228012 -0.053975966
-0.24372561 0.0450664 -0.11912548 -0.0043796534 0.14610687 0.12958944 -0.11375008 0.16690317
0.01620259 -0.15383421 -0.20711838 -0.03501548 -0.16357665 -0.013288271 -0.058111172 0.051257767
0.14577673 0.1794917 0.0038643684 0.058141153 -0.20307887 0.03405013 0.108429015 0.0684949
0.136913 0.16364819 0.044509977 -0.038390774 0.1486686 -0.047683135 0.09116471 0.14479728
-0.015480306 0.0010176594 -0.183922 -0.17035958 -0.038064223 0.015173655 -0.14567389 -0.11139096
-0.080872945 0.08929696 0.17720906 -0.008345664 -0.20383897 0.0715256 -0.19124682 -0.09314229
0.14066292 0.13722877 -0.08301638 0.13522689 0.097095184 -0.12643735 0.19476956 0.124544755
-0.053874705 -0.09375635 0.10388269 0.19129038 -0.17369242 0.06339611 0.07913772 -0.16948244
-0.04918608 0.0041040904 -0.04968756 -0.09579708 -0.022426039 0.0603667 -0.09015038 0.23525639
-0.0002569453 -0.19462682 -0.11221695 0.09849738 -0.13730147 -0.17663467 0.22402057 -0.13008949
0.15893847 -0.14177574 0.094871335 0.043687083 -0.003928342 -0.1756528 0.030855883 -0.029689679
-0.030285591 -0.0963561 0.086445026 -0.16901761 -0.047868818 0.10483534 0.06527742 -0.14217189
0.005229751 -0.19780184 0.11306385 -0.19362186 -0.17044796 0.019210465 -0.19455822 0.029644303
-0.15179716 -0.074593514 -0.105408 -0.06781099 0.062385894 -0.08480719 -0.06637886 -0.07695764
0.14398874 0.0037648457 -0.10666535 -0.012447218 -0.09748521 0.0057686367 -0.117168725 -0.19026697
0.009908468 0.09810109 0.05232669 -0.061258998 0.12774667 -0.1012769 0.019556316 0.11781897
0.112578325 -0.03743146 0.057355333 0.13281696 0.1459439 0.17714375 -0.019176342 -0.19850592
-0.09283287 0.19359517 -0.12290244 -0.047556575 0.039057072 0.19352257 0.057495728 -0.12784936
0.009949602 0.12877914 0.030567944 -0.16070454 -0.08718873 -0.22803803 -0.09714945 0.024990177
0.05627463 0.06651364 0.076676875 0.14717679 -0.053185094 -0.11652416 0.08356322 -0.07895926
0.051865943 0.079201765 -0.027299244 -0.24554478 0.1040151 -0.21958531 0.17290565 -0.17715842
0.057157293 0.1623558 0.15363294 0.06844926 -0.022043526 0.03372429 -0.0022610864 0.054965116
0.15129195 0.063578494 -0.017199004 0.20167942 -0.17732249 0.06513763 -0.16223367 0.0879425
-0.17414679 -0.10152232 0.16065755 0.041274086 0.09622087 0.1682016 -0.03663717 0.11982337
0.057100065 -0.081904635 0.19366524 0.051510256 0.19978173 0.11779264 -0.040349048 0.11085833
-0.15401226 -0.010837788 0.16299874 -0.15605138 -0.17909403 -0.08715777 0.14005652 -0.09524322
00000000: 3b6b 2bbd 202f 01be fe8a 433e d529 53be
00000010: 871b e6bd c274 593b 798c 16bd 22dd eabd
00000020: c6cb b83b 836c 233e e708 cdbc 7d4d 433d
00000030: 35bf 3b3d 2f6c 2a3e e5c7 603d 39ee 2ebe
00000040: 15b9 febd 20cd d13d 83e4 27be 73dc bdbc
00000050: 8999 243e 5ac5 68bc 9e2e 4b3e 256c 343d
00000060: fa65 4cbe 8368 4dbe aabd 97bb 3a55 263d
00000070: 0a15 0bbe 3319 4abe 1dd8 69be 5761 45be
00000080: f93a 253e 96f9 91bd 3fd5 863d a1a7 adbd
00000090: f6eb 793d 80b8 d53b b094 b23d f16d 143d
000000a0: 80d9 033c bf5b 973d 67ab 533e 2749 36be
000000b0: 748d e3bd ba32 383e d7da 6dbe e715 5dbd
000000c0: 3593 79be 8c97 383d 0ff8 f3bd 3283 8fbb
000000d0: 0a9d 153e 18b3 043e cdf5 e8bd aae8 2a3e
000000e0: 4bbb 843c b786 1dbe d716 54be 646c 0fbd
000000f0: a380 27be 0cb7 59bc fb05 6ebd aaf3 513d
00000100: 7f46 153e accc 373e 5841 7d3b 6b25 6e3d
00000110: e8f3 4fbe 2678 0b3d 0810 de3d 0e47 8c3d
00000120: ec32 0c3e 6493 273e 1850 363d a53f 1dbd
00000130: 953c 183e 644f 43bd 90b4 ba3d bd45 143e
00000140: 1ca1 7dbc fc62 853a 0c56 3cbe be72 2ebe
00000150: 3be9 1bbd ec9a 783c 892b 15be f220 e4bd
00000160: b7a0 a5bd 53e1 b63d 4b76 353e 40bc 08bc
00000170: 2abb 50be 047c 923d 35d6 43be 63c1 bebd
00000180: f109 103e b385 0c3e 7e04 aabd eb78 0a3e
00000190: d7d9 c63d cb78 01be ac71 473e 5211 ff3d
000001a0: b9ab 5cbd 5403 c0bd 73c0 d43d a0e1 433e
000001b0: 6ddc 31be d2d5 813d f512 a23d ce8c 2dbe
000001c0: 5877 49bd 9b7b 863b 2f85 4bbd 4231 c4bd
000001d0: d0b6 b7bc 1343 773d c3a0 b8bd 0de7 703e
000001e0: 9db6 86b9 414c 47be 00d2 e5bd ffb8 c93d
000001f0: c298 0cbe b8df 34be a665 653e 2e36 05be
00000200: c4c0 223e a92d 11be e74b c23d 3af1 323d
00000210: 52b9 80bb 54de 33be 7ac5 fc3c c537 f3bc
00000220: 7d19 f8bc 5956 c5bd 170a b13d f412 2dbe
00000230: 1812 44bd e9b3 d63d 2bb0 853d 8295 11be
00000240: 555e ab3b 918c 4abe 058e e73d cf44 46be
00000250: e989 2ebe 445f 9d3c 453a 47be 9cd8 f23c
00000260: b770 1bbe 7cc4 98bd 26e0 d7bd 7de0 8abd
00000270: 5a88 7f3d 64af adbd a4f1 87bd f89b 9dbd
00000280: c971 133e a1bb 763b 5d73 dabd 6bef 4bbc
00000290: 53a6 c7bd d506 bd3b 28f6 efbd 58d5 42be
000002a0: 2157 223c 39e9 c83d 8354 563d b7ea 7abd
000002b0: 06d0 023e 436a cfbd 9134 a03c 124b f13d
000002c0: 778f e63d bb51 19bd 6ded 6a3d 2b01 083e
000002d0: 5172 153e 2c65 353e b417 9dbc 2345 4bbe
000002e0: 291f bebd d03d 463e 46b4 fbbd afca 42bd
000002f0: 4ffa 1f3d c82a 463e a480 6b3d f1ea 02be
00000300: a803 233c aede 033e a069 fa3c bb8f 24be
00000310: 0190 b2bd cd82 69be 4af6 c6bd 33b8 cc3c
00000320: 3a80 663d 4e38 883d c408 9d3d 83b5 163e
00000330: 9dd8 59bd 38a4 eebd 3223 ab3d 64b5 a1bd
00000340: 6271 543d 8934 a23d aaa2 dfbc 1770 7bbe
00000350: de05 d53d f9da 60be 2e0e 313e 0469 35be
00000360: c41d 6a3d 9940 263e f451 1d3e 202f 8c3d
00000370: a094 b4bc 7b22 0a3d bc2e 14bb 1a23 613d
00000380: 47ec 1a3e 7135 823d ede4 8cbc 0d85 4e3e
00000390: 0794 35be e166 853d 9520 26be 331b b43d
000003a0: 8953 32be efea cfbd 6a83 243e 040f 293d
000003b0: 730f c53d 0a3d 2c3e db10 16bd f465 f53d
000003c0: c2e1 693d 9ebd a7bd 2e50 463e 6bfc 523d
000003d0: 9593 4c3e 453d f13d 0b45 25bd b109 e33d
000003e0: 64b5 1dbe fa90 31bc 24e9 263e efcb 1fbe
000003f0: 6d64 37be c67f b2bd fa6a 0f3e e10e c3bd

shared.0.bias f4 [256]
-0.13914672 -0.15302122 -0.19983476 -0.13941772 0.045004968 -0.06961597 -0.19741751 -0.09518362
-0.03729116 -0.24920194 0.09020754 0.009280154 0.14636225 -0.22803763 0.008469121 0.13491811
0.18770981 0.007327489 0.018895525 -0.097824104 -0.18338653 0.057765592 -0.026101109 -0.18625903
-0.017686334 -0.13012071 -0.17419223 0.17283939 -0.08384248 0.1232861 -0.19380404 -0.24395156
-0.040666874 -0.07131474 -0.095597476 0.1959246 0.10716507 0.16640498 0.15809311 -0.069616616
0.061485842 0.21716794 -0.1342331 -0.13652268 0.047315784 -0.087169826 0.08413946 0.031930443
0.15630905 -0.15374343 -0.19182986 -0.04584665 0.1590605 -0.16247477 0.057533536 -0.037551355
-0.22446373 0.031707276 -0.12827024 0.19732988 -0.011484775 0.0874944 -0.119394235 -0.12529196
-0.21230674 -0.09969152 0.051660996 0.16498697 -0.025535395 -0.23702036 -0.18291481 0.15185766
0.0023505213 0.13091068 -0.026075637 0.032415178 -0.1837507 -0.18058811 0.059543584 0.009356037
-0.1253782 0.17356351 -0.15565884 0.23717865 0.18829492 0.07356671 0.15138762 -0.055912066
-0.09113325 -0.103613205 -0.0926978 -0.1327675 -0.1617935 -0.00927441 -0.059177432 -0.1570825
-0.045694716 0.09575797 0.00766728 -0.12050551 0.15738744 0.09263189 0.109225735 -0.105114356
0.031447716 -0.056881618 0.008170576 0.06992617 -0.038935173 0.12282411 -0.18367161 -0.15939583
0.06318832 -0.2230123 -0.14449137 -0.23087414 -0.18512172 -0.15960819 0.05278785 -0.1949817
0.19895889 0.16359311 0.14835067 0.090343565 -0.12110101 0.10429803 0.15754233 -0.026693298
-0.0066119973 -0.09613085 -0.07674399 0.12342092 -0.013064353 -0.04328691 0.00060967356 -0.080564484
0.13607766 0.04863757 0.22450827 0.002754748 -0.10518976 0.06692648 -0.041100536 0.132023
-0.16614254 -0.23198284 -0.13705972 0.12170912 -0.066162206 -0.17601179 -0.043154452 -0.14431809
0.18745597 -0.13519152 0.0063305823 0.1429922 0.10051885 0.06470105 -0.09489387 -0.23028764
-0.17959966 0.13670248 -0.1279396 -0.07213073 0.22205926 0.20052128 0.17135316 0.13145322
-0.09575701 -0.056487795 -0.22005454 0.05105374 -0.15065156 0.14651667 0.114875354 0.083024584
-0.061008323 -0.053468093 -0.03887795 0.004882671 0.13105254 0.1311841 -0.009728639 -0.16807368
-0.18856424 0.11962997 0.19105193 0.02873404 -0.082230575 0.15033986 -0.07238489 0.02024426
0.07145224 0.03668212 0.09265994 -0.038379777 0.1029118 -0.21856165 -0.096624315 -0.13850018
-0.06085248 0.11383743 0.20721112 0.11317384 0.07667731 -0.023884023 -0.0060841525 0.07663543
0.09385859 -0.069772124 -0.016661063 -0.14126104 -0.0020588287 0.14929421 -0.17963411 0.092969604
0.16180924 -0.10973978 0.07239979 0.1371291 -0.14594413 0.094531804 0.10435741 -0.08128422
-0.12714572 0.043495916 0.074717686 0.11013037 -0.16351925 -0.056075584 -0.043048732 0.06405458
-0.13716182 -0.052398548 -0.10504812 0.18522611 -0.16885191 -0.023156697 0.089776754 0.11589417
-0.008346725 -0.08012235 0.10179942 -0.1754863 0.079387955 -0.13371724 0.099928975 -0.036544103
-0.027102945 0.17051886 -0.09849357 -0.19366804 0.017254304 -0.16075702 0.122381024 -0.04442294
00000000: 7a7c 0ebe 98b1 1cbe 7ca1 4cbe 85c3 0ebe
00000010: 2157 383d d192 8ebd d127 4abe a1ef c2bd
00000020: 9ebe 18bd cb2e 7fbe bbbe b83d c90b 183c
00000030: fcdf 153e b282 69be 11c2 0a3c f927 0a3e
00000040: 0037 403e 6f1b f03b caca 9a3c 0158 c8bd
00000050: aec9 3bbe 9d9b 6c3d fed1 d5bc b0ba 3ebe
00000060: eee2 90bc 5d3e 05be 735f 32be cffc 303e
00000070: 9bb5 abbd 6c7d fc3d 9174 46be 70ce 79be
00000080: 4f92 26bd 760d 92bd 9cc8 c3bd 75a0 483e
00000090: 5c79 db3d 1166 2a3e 29e3 213e 2893 8ebd
000000a0: 94d8 7b3d 4661 5e3e 6774 09be 9acc 0bbe
000000b0: 32ce 413d 1886 b2bd 4f51 ac3d 7fc9 023d
000000c0: 7b0f 203e eb6e 1dbe 0c6f 44be b2c9 3bbd
000000d0: c1e0 223e c95f 26be 49a8 6b3d 73cf 19bd
000000e0: d2d9 65be 7ddf 013d 4659 03be d810 4a3e
000000f0: a32a 3cbc 4430 b33d f784 f4bd 894c 00be
00000100: f066 59be 112b ccbd 7b9a 533d 58f2 283e
00000110: 9b2f d1bc 77b5 72be 054e 3bbe 9380 1b3e
00000120: 340b 1a3b 730d 063e 939c d5bc c7c5 043d
00000130: 2529 3cbe 17ec 38be f9e3 733d 104a 193c
00000140: 2563 00be a2ba 313e 0865 1fbe f6de 723e
00000150: 62d0 403e 25aa 963d 5b05 1b3e 0d04 65bd
00000160: 12a4 babd 2933 d4bd 58d8 bdbd 34f4 07be
00000170: 32ad 25be b2f3 17bc 0964 72bd 3cda 20be
00000180: 622a 3bbd c11c c43d ce3d fb3b 98cb f6bd
00000190: 2c2a 213e cab5 bd3d beb1 df3d 3246 d7bd
000001a0: 52cf 003d b3fc 68bd e1dd 053c 7435 8f3d
000001b0: 7d7a 1fbd 358b fb3d 6914 3cbe a938 23be
000001c0: e168 813d 565d 64be 8cf5 13be 456a 6cbe
000001d0: 8c90 3dbe 5470 23be 1338 583d 48a9 47be
000001e0: e1bb 4b3e f484 273e 3de9 173e 0c06 b93d
000001f0: ce03 f8bd 359a d53d c752 213e e7ab dabc
00000200: 74a9 d8bb 40e0 c4bd f42b 9dbd 1bc4 fc3d
00000210: de0b 56bc 9d4d 31bd 80d2 1f3a fefe a4bd
00000220: f157 0b3e 3038 473d 7fe5 653e 0189 343b
00000230: bb6d d7bd c010 893d 0959 28bd 0a31 073e
00000240: 4521 2abe e98c 6dbe 6259 0cbe a242 f93d
00000250: 0d80 87bd 6f3c 34be b9c2 30bd 1fc8 13be
00000260: 75f4 3f3e a56f 0abe c670 cf3b 8c6c 123e
00000270: d4dc cd3d fc81 843d b857 c2bd 86d0 6bbe
00000280: f9e8 37be bcfb 0b3e 9902 03be 47b9 93bd
00000290: 8163 633e 7355 4d3e 3477 2f3e ac9b 063e
000002a0: 401c c4bd bf5f 67bd fa55 61be ba1d 513d
000002b0: 6744 1abe 7708 163e c543 eb3d cb08 aa3d
000002c0: dde3 79bd 5c01 5bbd 7c3e 1fbd d0fe 9f3b
000002d0: a332 063e 2055 063e df64 1fbc 821b 2cbe
000002e0: fc16 41be 8f00 f53d 1ea3 433e a663 eb3c
000002f0: 8168 a8bd b1f2 193e 873e 94bd 4ad7 a53c
00000300: 8d55 923d fe3f 163d 7fc4 bd3d 1d34 1dbd
00000310: 6cc3 d23d a0ce 5fbe f8e2 c5bd fed2 0dbe
00000320: 7340 79bd 9923 e93d 272f 543e b0c7 e73d
00000330: fe08 9d3d 6da8 c3bc 925d c7bb 09f3 9c3d
00000340: ef38 c03d b0e4 8ebd c87c 88bc bca6 10be
00000350: 6aed 06bb 95e0 183e 01f2 37be d966 be3d
00000360: 52b1 253e 40bf e0bd 5746 943d 926b 0c3e
00000370: 6172 15be e499 c13d 56b9 d53d 5778 a6bd
00000380: 7d32 02be c628 323d 9605 993d 088c e13d
00000390: 9771 27be 83af 65bd de53 30bd 0c2f 833d
000003a0: 2674 0cbe dc9f 56bd 7823 d7bd eaab 3d3e
000003b0: 84e7 2cbe 1db3 bdbc e0dc b73d ec59 ed3d
000003c0: b4c0 08bc 3017 a4bd 377c d03d aeb2 33be
000003d0: 2796 a23d 2ced 08be 90a7 cc3d 45af 15bd
000003e0: ff06 debc 7f9c 2e3e ffb6 c9bd ea50 46be
000003f0: e658 8d3c 7d9d 24be e7a2 fa3d d4f4 35bd

shared.2.weight f4 [128, 256]
0.01616536 0.044513978 0.028097034 -0.0151623795 0.021564417 0.009928532 -0.01758275 -0.07071076
-0.03645236 -0.062469684 -0.041337922 0.004323706 0.04664377 -0.0381627 -0.03599738 0.022618545
-0.014572047 0.0067145377 0.034891464 0.03694638 0.05088342 0.031126983 -0.048292823 0.04477226
0.05227869 0.006071456 -0.011064135 -0.0008452292 0.04257875 0.027022138 0.019860193 -0.008797662
-0.03528247 -0.0017785355 -0.03419792 -0.036460184 -0.038651735 0.0086893365 -0.04389143 -0.059649296
-0.018771805 -0.059597388 -0.06847123 -0.006770812 -0.029217053 -0.036319107 0.04649838 0.034693025
0.029124215 -0.059195846 -0.03567706 0.026132423 0.046247132 0.0061176345 -0.049032293 -0.029159248
-0.034569547 0.06078566 -0.05078595 -0.03834061 0.060126483 0.0010392332 0.023458077 0.027557932
-0.057844326 -0.052377485 -0.029839672 -0.005552346 0.046000175 0.04623527 -0.017849363 -0.046868138
-0.037758246 0.025345605 0.012764938 -0.06179671 -0.02967064 0.019828483 -0.059036948 0.014569478
0.03211338 0.019829001 -0.013134942 0.03642563 -0.036173686 -0.05437039 0.0017403364 0.062166452
0.007709283 0.048661202 -0.041138172 -0.017689716 -0.014386997 -0.058119435 0.013887815 0.023858525
0.019431707 -0.05841843 0.056747004 -0.031577773 0.0025075227 0.024206534 -0.047669243 0.00631471
0.013319299 -0.039115354 -0.0011445957 -0.024357095 -0.04499808 -0.021706231 -0.007759288 -0.053391725
-0.03905514 0.017371051 -0.059668146 0.039027274 -0.00894239 0.032043964 0.017870072 0.050645042
0.0049834675 -0.013086693 0.0038479269 -0.05370616 0.058579683 -0.059625655 -0.02290244 0.01708772
-0.035283946 -0.056423757 0.06022822 -0.045056485 -0.020296752 -0.05919756 -0.0146834105 -0.05440037
-0.029787099 0.052917413 0.019450532 -0.057159446 0.039852366 0.01312128 -0.05334801 0.05118287
0.033710007 -0.06639763 -0.052410543 0.04051769 0.023741998 -0.050347924 -0.021067962 0.040901516
0.026854092 0.045771383 0.025671724 -0.05616433 -0.041546457 -0.021391459 -0.055393137 -0.060842965
-0.03521408 0.030348584 0.0440384 0.059413187 0.007831477 0.030617908 -0.04714742 -0.06312162
0.004432037 -0.0338397 -0.032055378 -0.037689097 0.024564795 -0.0068160594 -0.067830056 0.039186
-0.006898083 0.009427391 -0.001217755 -0.023398502 0.028202947 0.020341635 -0.055950005 0.026800327
-0.03757041 0.023047334 -0.004064396 0.053559333 0.04895819 0.042410072 -0.03038194 -0.043324277
-0.0670355 -0.06713568 -0.012511559 -0.046994038 -0.01576943 0.012121424 -0.011317703 -0.056966785
-0.047697216 0.0073369294 -0.058851093 0.050194923 0.010125905 -0.039250195 -0.062038444 -0.029635757
-0.043529727 0.015817812 0.0020790196 0.0076379776 -0.004873824 0.014826827 0.0011171475 -0.031812824
-0.012986273 -0.051419534 0.0074997977 0.045992937 0.05334053 0.021463253 0.051665142 0.0047900802
0.040409 0.003480129 0.011986668 -0.07046668 0.0468214 -0.05272319 0.03164921 0.037318923
0.047096997 -0.054394707 0.045552127 0.012162687 0.05131926 -0.0023587805 -0.03550081 0.056656443
-0.012918012 0.010065451 -0.010859527 -0.027444756 0.04300601 -0.036298707 -0.016339496 0.026854781
-0.046377163 -0.052835263 0.03351792 -0.054783016 -0.049417906 -0.0019675791 -0.05681132 -0.0016245544
00000000: 386d 843c 4a54 363d c02b e63c a16b 78bc
00000010: dca7 b03c 48ab 223c b309 90bc ced0 90bd
00000020: 124f 15bd 36e0 7fbd f451 29bd e0ad 8d3b
00000030: 8a0d 3f3d 7e50 1cbd fd71 13bd 874a b93c
00000040: 98bf 6ebc a005 dc3b 5aea 0e3d 1655 173d
00000050: 226b 503d 04fe fe3c b2ce 45bd 1e63 373d
00000060: 2e22 563d 10f3 c63b 5846 35bc 5f92 5dba
00000070: 0e67 2e3d 885d dd3c d8b1 a23c 1224 10bc
00000080: 5a84 10bd c01d e9ba 1e13 0cbd 4657 15bd
00000090: 4851 1ebd b85d 0e3c 80c7 33bd d252 74bd
000000a0: 54c7 99bc 641c 74bd a53a 8cbd b0dd ddbb
000000b0: 9a58 efbc 58c3 14bd 1675 3e3d 461a 0e3d
000000c0: e895 ee3c 5877 72bd 1c22 12bd aa13 d63c
000000d0: a26d 3d3d 7076 c83b 16d6 48bd 60df eebc
000000e0: cc98 0dbd 62fa 783d ee04 50bd 0b0b 1dbd
000000f0: 3047 763d e136 883a 272b c03c 2cc1 e13c
00000100: 2cee 6cbd c689 56bd 5472 f4bc 74f0 b5bb
00000110: ae6a 3c3d 3261 3d3d d438 92bc cef8 3fbd
00000120: 64a8 1abd 96a1 cf3c 0824 513c 8c1e 7dbd
00000130: d80f f3bc 586f a23c bad0 71bd d2b4 6e3c
00000140: 5289 033d 6e70 a23c f133 57bc 0b33 153d
00000150: dc2a 14bd 7cb3 5ebd 001c e43a 40a2 7e3d
00000160: 279e fc3b f850 473d 8080 28bd 06ea 90bc
00000170: 70b7 6bbc a50e 6ebd b889 633c f472 c33c
00000180: 3e2f 9f3c 2a48 6fbd 8c6f 683d b257 01bd
00000190: 4055 243b c84c c63c d340 43bd a0eb ce3b
000001a0: 3039 5a3c 6c37 20bd 4206 96ba 8888 c7bc
000001b0: e84f 38bd 44d1 b1bc a041 febb 48b1 5abd
000001c0: 48f8 1fbd bc4d 8e3c 9666 74bd 10db 1f3d
000001d0: 1a83 12bc 8840 033d 4264 923c 2d71 4f3d
000001e0: 5b4c a33b 9269 56bc 802d 7c3b fefa 5bbd
000001f0: 40f1 6f3d 083a 74bd e69d bbbc 8cfb 8b3c
00000200: e685 10bd 991c 67bd deb1 763d 268d 38bd
00000210: 6045 a6bc 2479 72bd b092 70bc ecd2 5ebd
00000220: 1304 f4bc eebf 583d b956 9f3c 0620 6abd
00000230: 3c3c 233d a3fa 563c 7183 5abd 21a5 513d
00000240: 8113 0a3d 7bfb 87bd 70ac 56bd e1f5 253d
00000250: 947e c23c a039 4ebd b896 acbc 5988 273d
00000260: 1dfd db3c c67a 3b3d 824d d23c 920c 66bd
00000270: 9e2c 2abd 243d afbc eae3 62bd 7936 79bd
00000280: a43c 10bd 989d f83c 9c61 343d 3e5b 733d
00000290: 984f 003c 68d2 fa3c a71d 41bd e845 81bd
000002a0: 9f3a 913b 7f9b 0abd 804c 03bd e25f 1abd
000002b0: 1c3c c93c 4059 dfbb 7cea 8abd 8081 203d
000002c0: 5009 e2bb 5875 1a3c 149d 9fba 37ae bfbc
000002d0: de09 e73c 80a3 a63c d52b 65bd 5c8c db3c
000002e0: 6ee3 19bd c3cd bc3c a02e 85bb 0861 5b3d
000002f0: 6288 483d 2fb6 2d3d 8ce3 f8bc cc74 31bd
00000300: e949 89bd 6e7e 89bd 48fd 4cbc d27c 40bd
00000310: e42e 81bc f098 463c e36d 39bc 0156 69bd
00000320: 285e 43bd a06a f03b d80d 71bd 3199 4d3d
00000330: 20e7 253c d0c4 20bd 061c 7ebd b0c6 f2bc
00000340: 3a4c 32bd 5b94 813c 2940 083b 0048 fa3b
00000350: 99b4 9fbb 38ec 723c 406d 923a 2a4e 02bd
00000360: 60c4 54bc 4a9d 52bd ddc0 f53b 1763 3c3d
00000370: 997b 5a3d b4d3 af3c d49e 533d 1bf6 9c3b
00000380: e883 253d e012 643b bb63 443c d650 90bd
00000390: ccc7 3f3d 46f4 57bd 9aa2 013d badb 183d
000003a0: c8e8 403d fccc 5ebd de94 3a3d 0246 473c
000003b0: 2534 523d c595 1abb 4c69 11bd 9610 683d
000003c0: 12a6 53bc 90e9 243c 28ec 31bc d3d3 e0bc
000003d0: 1227 303d f4ad 14bd 68da 85bc 8ffe db3c
000003e0: fbf5 3dbd ca69 58bd 164a 093d 2864 60bd
000003f0: 6e6a 4abd 80f2 00bb fdb2 68bd 00ef d4ba

shared.2.bias f4 [128]
-0.034948044 0.032783993 -0.0375437 0.033051047 -0.036622066 -0.01882488 0.016889906 0.03286521
-0.005270763 -0.046344917 0.034390815 0.04822278 0.031336173 -0.050061036 -0.056183685 -0.007642435
-0.033047974 -0.061717387 0.032616038 -0.056317877 -0.04614576 -0.01693011 0.00019507455 -0.008594282
-0.017939992 -0.037473954 0.018514592 -0.05698549 -0.016177995 -0.08807897 -0.028906243 -0.06536514
-0.0380734 -0.015736612 0.044509735 -0.061970312 -0.010967194 -0.055486176 0.035395406 -0.044935152
0.02210443 -0.019736558 0.02283554 -0.07812963 -0.058127496 -0.020722464 -0.055995695 0.03340604
0.008375845 0.023241358 -0.018618282 0.03477146 0.04032565 -0.054973446 -0.046187244 -0.053325158
-0.05392826 0.0018780087 0.02861822 0.05209631 -0.04546275 -0.013231076 0.03871703 -0.011678412
-0.020141786 0.023772337 -0.025422478 0.0013751837 0.034882568 0.0008921535 0.044455543 0.008659194
0.036803614 0.009948541 -0.03214117 0.029966041 -0.02561309 -0.026202314 0.02656174 0.008365069
-0.031635422 -0.0063290014 -0.007735712 -0.04884198 -0.05964781 -0.04153758 0.023921983 0.010044421
0.043116663 0.0409491 -0.03808054 -0.029473497 0.0031984223 -0.03072233 -0.022434829 0.033181943
0.041035645 0.020116152 -0.07635681 0.0054401956 -0.045792446 0.040157612 -0.03790058 -0.030414393
-0.017769137 -0.037549518 -0.02765183 -0.004912882 -0.075476356 0.03335395 0.023838678 -0.04665409
0.027658207 -0.019332951 -0.02509659 0.01736156 -0.0667302 -0.08311475 -0.050755985 -0.08393833
-0.04994438 -0.047411833 0.029031865 -0.070004694 0.045375347 0.025683394 0.008243742 -0.056538813
00000000: ae25 0fbd 8248 063d 6cc7 19bd 8960 073d
00000010: 0501 16bd a236 9abc b35c 8a3c ac9d 063d
00000020: 5db6 acbb 2bd4 3dbd 62dd 0c3d 4085 453d
00000030: 5c5a 003d cd0c 4dbd dd20 66bd 646d fabb
00000040: 505d 07bd 5fcb 7cbd 6598 053d 93ad 66bd
00000050: 5603 3dbd 04b1 8abc ed8c 4c39 08cf 0cbc
00000060: e4f6 92bc 4a7e 19bd eaab 973c 9e69 69bd
00000070: b787 84bc bf62 b4bd c9cc ecbc 29de 85bd
00000080: daf2 1bbd 11ea 80bc d74f 363d 95d4 7dbd
00000090: bfaf 33bc 7945 63bd c6fa 103d ec0d 38bd
000000a0: 5914 b53c 90ae a1bc 9911 bb3c 6d02 a0bd
000000b0: 1917 6ebd 28c2 a9bc be5b 65bd c6d4 083d
000000c0: d73a 093c a964 be3c 5e85 98bc 856c 0e3d
000000d0: 822c 253d d62b 61bd d62e 3dbd 7b6b 5abd
000000e0: e1e3 5cbd 8427 f63a c270 ea3c f162 553d
000000f0: 2637 3abd 28c7 58bc c095 1e3d cf56 3fbc
00000100: 6300 a5bc 34be c23c cd42 d0bc 823f b43a
00000110: 06e1 0e3d 68df 693a 0417 363d 4bdf 0d3c
00000120: 63bf 163d 35ff 223c 76a6 03bd 587b f53c
00000130: 8bd2 d1bc 3ca6 d6bc 0298 d93c a40d 093c
00000140: 2594 01bd 8363 cfbb db7b fdbb 870e 48bd
00000150: 4351 74bd 4f23 2abd 09f8 c33c 5b91 243c
00000160: 199b 303d 3eba 273d 57fa 1bbd 6772 f1bc
00000170: 9f9c 513b 65ad fbbc 3fc9 b7bc cae9 073d
00000180: fe14 283d a1ca a43c f660 9cbd ab43 b23b
00000190: dc90 3bbd 4f7c 243d a33d 1bbd 9b27 f9bc
000001a0: 9590 91bc 86cd 19bd 1786 e2bc 3efc a0bb
000001b0: 5993 9abd 279e 083d 5549 c33c 5c18 3fbd
000001c0: 7793 e23c 2360 9ebc 5d97 cdbc d539 8e3c
000001d0: d8a9 88bd 1138 aabd 82e5 4fbd dce7 abbd
000001e0: 7a92 4cbd e932 42bd 3cd4 ed3c 9f5e 8fbd
000001f0: 80db 393d fb65 d23c c310 073c 3e95 67bd

dice_policy.weight f4 [5, 128]
0.064186975 0.07341855 -0.001110381 -0.008384181 -0.04159739 -0.041882772 0.085103765 0.012985382
-0.011772976 -0.063200645 0.05583855 0.08236489 -0.0015818741 0.04775164 -0.020491047 -0.07590343
-0.08400079 0.008865078 0.05490826 0.051658373 0.014309404 -0.027342364 -0.040248353 0.072744064
0.02796206 0.035582744 -0.16578044 -0.052788276 -0.028345827 0.00935183 -0.035640262 0.047690794
-0.10313943 0.059579946 -0.036439426 -0.004407039 0.03400625 -0.02039065 -0.05395054 -0.06518678
0.024948223 -0.054080937 0.05357815 -0.0018051397 -0.046404503 -0.10261419 0.05814553 -0.062104903
-0.004843453 0.07055544 -0.10555734 -0.06207541 0.00712344 0.023173917 -0.056071017 0.01575381
0.03219181 0.040359177 -0.078050494 -0.05010167 0.009391769 -0.005248662 -0.005369812 -0.10160066
0.008853864 -0.053212836 0.0072515146 0.06302096 0.09304988 -0.021214737 -0.0631002 -0.013686978
0.07164378 0.021420084 -0.007833303 0.004165757 0.006837481 -0.001808388 0.022384292 -0.027772691
-0.047366373 0.11466233 0.012305543 -0.039745685 -0.061728448 0.043682974 -0.07768768 0.025759192
-0.070057236 -0.03759156 -0.053861275 0.008743026 0.05407524 -0.07947623 0.061125293 0.041170824
-0.049149487 0.040715106 0.032683548 -0.047321677 0.06662091 -0.002556844 0.02991828 -0.015146677
-0.05804204 0.009569458 0.010158195 -0.0104654925 0.05687042 -0.006373273 0.028387338 -0.025448753
-0.029322503 -0.07027343 -0.005039578 -0.037606563 -0.06629351 0.05162449 -0.052578647 -0.054807015
-0.03530989 -0.036680065 -0.096952654 -0.08397193 -0.0017206658 -0.04610739 0.10076685 -0.05331123
0.022835745 0.054130528 0.05729821 -0.007328759 -0.08008722 -0.016268305 -0.019559659 -0.024691332
-0.06912968 0.054036073 -0.04186192 -0.018791405 -0.02134733 0.021526659 0.11702075 0.025223136
-0.06899039 0.015957741 -0.023389427 -0.03143522 0.030130547 -0.014972817 0.050459757 -0.050434873
-0.03505782 -0.02959025 -0.12712535 -0.029107627 0.0318671 0.097930305 0.05394547 0.05271592
-0.054274186 0.0378718 0.036101136 -0.1250464 0.046971172 -0.09933594 -0.072859846 -0.024600511
-0.114286624 -0.045079414 0.010102617 -0.014343249 0.013586787 0.017159833 0.058436815 -0.029740741
-0.007666046 0.06473823 0.007876156 -0.018295527 -0.037541594 -0.066948496 0.02829343 0.08907027
0.06937192 -0.035313245 0.035279807 0.021907102 -0.028118728 -0.047983572 0.07763228 0.04411097
-0.026640426 -0.07232395 -0.046974283 0.018455803 0.021284008 0.03860942 -0.10538522 -0.0307821
0.0007296163 -0.0625537 -0.0038918352 0.036235016 0.027872074 -0.1232334 0.015002184 0.010478098
-0.086455785 -0.0066643488 0.001374534 -0.063135356 0.0047014346 0.017244196 -0.104725406 0.056702316
-0.09487749 0.019083265 -0.015864225 -0.055706427 0.020217424 0.001101465 0.026763933 -0.011483671
-0.07297042 -0.034693368 -0.007979237 -0.08322233 0.06524715 -0.051987894 -0.061954334 0.04330819
0.09843499 -0.029216822 0.00035458992 -0.02708998 0.077554025 -0.024267873 0.03949465 -0.0049464637
0.033689383 -0.020379478 -0.014634345 -0.071499534 0.06929338 -0.0071371975 -0.06532089 -0.062354214
-0.030534282 -0.055442106 -0.022871844 0.06091695 0.00838389 -0.040176097 -0.007791758 0.0055980193
00000000: 7674 833d 775c 963d 348a 91ba ce5d 09bc
00000010: 0662 2abd 458d 2bbd e24a ae3d a4c0 543c
00000020: 71e3 40bc 576f 81bd f7b6 643d ecae a83d
00000030: e356 cfba 3997 433d d7dc a7bc 4273 9bbd
00000040: 9b08 acbd d53e 113c 7ce7 603d bb97 533d
00000050: fe71 6a3c 18fd dfbc 75db 24bd d7fa 943d
00000060: b110 e53c 36bf 113d 59c2 29be 8538 58bd
00000070: 8235 e8bc 6b38 193c 86fb 11bd 6c57 433d
00000080: c43a d3bd 1a0a 743d 8241 15bd ec68 90bb
00000090: 234a 0b3d 4b0a a7bc 3efb 5cbd a680 85bd
000000a0: 3760 cc3c f983 5dbd c374 5b3d 709a ecba
000000b0: a612 3ebd 6327 d2bd 022a 6e3d b661 7ebd
000000c0: d4b5 9ebb 5f7f 903d 722e d8bd c942 7ebd
000000d0: bf6b e93b 3ad7 bd3c b9aa 65bd 220e 813c
000000e0: 8fdb 033d aa4f 253d f0d8 9fbd 6937 4dbd
000000f0: efdf 193c f8fc abbb 3ff5 afbb 0214 d0bd
00000100: cc0f 113c b4f5 59bd 1d9e ed3b 2211 813d
00000110: ef90 be3d 87ca adbc ad3a 81bd 593f 60bc
00000120: f9b9 923d 2c79 af3c 4157 00bc e780 883b
00000130: f30c e03b 6f07 edba 435f b73c 8e83 e3bc
00000140: 3e03 42bd 15d4 ea3d 309d 493c 5fcc 22bd
00000150: f8d6 7cbd ebec 323d b81a 9fbd f104 d33c
00000160: 2b7a 8fbd 9cf9 19bd a49d 5cbd e93e 0f3c
00000170: 007e 5d3d 6fc4 a2bd 845e 7a3d bda2 283d
00000180: f950 49bd e2c4 263d 2fdf 053d 60d4 41bd
00000190: 8b70 883d b990 27bb 2e17 f53c c529 78bc
000001a0: 7dbd 6dbd 37c9 1c3c 8f6e 263c 7577 2bbc
000001b0: f5f0 683d e4d6 d0bb 908c e83c e779 d0bc
000001c0: bf35 f0bc 84eb 8fbd 0b23 a5bb 5709 1abd
000001d0: e4c4 87bd 3474 533d b55c 57bd 527d 60bd
000001e0: 1aa1 10bd d63d 16bd 1d8f c6bd 7af9 abbd
000001f0: f787 e1ba 1adb 3cbd da5e ce3d e05c 5abd
00000200: 0712 bb3c f9b7 5d3d 87b1 6a3d 1626 f0bb
00000210: c504 a4bd 1c45 85bc 943b a0bc 7a45 cabc
00000220: dd93 8dbd ee54 5d3d 6877 2bbd 6ff0 99bc
00000230: 99e0 aebc ad58 b03c 93a8 ef3d c0a0 ce3c
00000240: d54a 8dbd cfb9 823c 2f9b bfbc 38c2 00bd
00000250: 56d4 f63c 8c50 75bc e4ae 4e3d cc94 4ebd
00000260: ca98 0fbd 4167 f2bc 262d 02be 1e73 eebc
00000270: 1487 023d af8f c83d edf5 5c3d a6ec 573d
00000280: 9c4e 5ebd 761f 1b3d c9de 133d 2a0c 00be
00000290: d864 403d a470 cbbd 8b37 95bd 0387 c9bc
000002a0: 1b0f eabd 31a5 38bd 7285 253c f2ff 6abc
000002b0: 1d9b 5e3c c792 8c3c 715b 6f3d dba2 f3bc
000002c0: 7433 fbbb 7a95 843d fe0a 013c 80e0 95bc
000002d0: 37c5 19bd 4b1c 89bd a0c7 e73c 796a b63d
000002e0: dd12 8e3d 9fa4 10bd 8f81 103d 8676 b33c
000002f0: 3f59 e6bc 6c8a 44bd acfd 9e3d b4ad 343d
00000300: 063d dabc 941e 94bd 1b68 40bd a030 973c
00000310: cd5b ae3c e924 1e3d 35d4 d7bd be2a fcbc
00000320: b943 3f3a 271c 80bd 290e 7fbb 2b6b 143d
00000330: fa53 e43c cb61 fcbd b8cb 753c 54ac 2b3c
00000340: bb0f b1bd 9c60 dabb b529 b43a 1c4d 81bd
00000350: 7e0e 9a3b b343 8d3c 467a d6bd b040 683d
00000360: 214f c2bd 8254 9c3c b1f5 81bc 6c2c 64bd
00000370: 039f a53c 085f 903a 0940 db3c 0226 3cbc
00000380: 8471 95bd a21a 0ebd 58bb 02bc 7870 aabd
00000390: 4ca0 853d 42f1 54bd d4c3 7dbd ee63 313d
000003a0: 4998 c93d 1e58 efbc 41e8 b939 ceeb ddbc
000003b0: a5d4 9e3d 6bcd c6bc 24c5 213d f215 a2bb
000003c0: e1fd 093d ddf2 a6bc e4c4 6fbc 596e 92bd
000003d0: b0e9 8d3d 27df e9bb f5c6 85bd 2267 7fbd
000003e0: 0823 fabc 4317 63bd bc5d bbbc 0d84 793d
000003f0: 955c 093c b18f 24bd 0152 ffbb 976f b73b

dice_policy.bias f4 [5]
0.004932353 -0.06605061 -0.082962506 -0.020826831 -0.054393493
00000000: 939f a13b 8b45 87bd 3fe8 a9bd 089d aabc
00000010: b6cb 5ebd

category_policy.weight f4 [13, 128]
0.05652709 0.029705673 -0.0032642833 0.0063343276 -0.114959404 -0.09797919 -0.10275533 0.033073302
-0.09613396 -0.056956004 -0.032366693 -0.14120333 0.07807227 0.046670306 -0.08791802 0.030425627
-0.1518156 -0.04114099 0.053783644 0.038103905 -0.05726848 0.004734552 -0.039739106 0.012448025
-0.05623881 0.044996437 -0.01788117 -0.055039626 -0.06438421 0.034594793 0.05923282 -0.0493229
0.03473864 -0.023364509 -0.06424945 -0.0052783485 -0.0051097395 -0.08602346 -0.07869456 -0.009518676
-0.059213676 -0.1260116 0.063440345 -0.023423813 -0.06754529 -0.08428202 0.03411957 -0.04739467
0.041941807 -0.07215855 -0.021004416 0.0071684043 -0.016030058 0.080913775 -0.07363813 0.0019370223
-0.023896651 -0.013350515 0.014968377 -0.019582672 -0.031023307 0.009845309 -0.017130041 -0.20071925
-0.056843765 -0.06616086 -0.14183593 -0.05667098 -0.037647214 -0.024856426 -0.0165877 -0.002517113
-0.05653911 0.009020244 -0.11546572 -0.022459399 -0.16861618 0.044104565 -0.035130147 -0.08619464
0.04105612 0.04887771 0.02727624 -0.10003658 -0.0029240355 0.013067414 -0.064927235 0.023860566
-0.08217233 0.021199666 0.018073888 0.05195037 0.051694226 -0.03657207 0.03682871 0.011910889
-0.023627147 -0.0190981 -0.031309724 -0.06591597 0.055334218 -0.0747809 0.05785308 0.01923885
0.0022327844 -0.047430646 -0.03289392 -0.0051490096 -0.01539732 0.049958523 0.027762972 0.04916467
0.06378541 -0.037592147 0.035036534 -0.053432964 0.03969897 0.07939549 0.03718953 0.03698705
-0.08805839 0.06328212 0.07057583 0.0231879 0.009929289 0.008661083 -0.1305507 -0.036802653
0.039657485 0.043729875 0.056056716 -0.09929917 -0.084241435 0.032435432 -0.10481729 0.0075103547
-0.03379354 -0.025110662 0.02109237 -0.0019242181 -0.006408002 0.052511964 -0.048390996 -0.058975246
-0.11045605 -0.007561014 0.05020309 -0.03384963 -0.041800402 -0.08541434 0.010376487 0.07567501
0.018398082 0.032144304 -0.11355953 -0.049750913 0.047126405 -0.017712062 0.056880984 -0.012098662
0.03951189 0.033823226 -0.085056454 -0.03854105 -0.0034412285 -0.019626634 -0.0430722 0.005829683
-0.11946342 -0.095383726 -0.014134543 -0.08707616 -0.007516502 -0.06825432 0.019422602 0.00037085623
-0.08493316 -0.030835066 0.029313767 -0.00041183553 -0.038442243 -0.032670658 -0.014522349 -0.032192256
-0.012128195 0.033750765 -0.07644166 0.039905734 0.025617199 0.071921706 -0.0054335254 -0.12507023
-0.05059772 -0.029852435 -0.20874406 0.02858629 -0.008905191 -0.0055210614 0.019816816 -0.04543237
-0.053757064 -0.06207362 0.05146128 0.06554479 -0.14219959 0.022354586 0.04755736 -0.033987198
0.03014685 0.02957665 -0.102652855 -0.109486945 0.04072771 0.028910972 0.026885508 -0.06048104
-0.06913305 -0.015386807 -0.007908707 -0.050739106 0.020689746 0.03177489 -0.08365738 -0.032062124
-0.0024807476 -0.014691109 0.0143407015 -0.044730935 0.07646125 -0.011127528 0.02341178 0.010559819
-0.023974955 -0.040406693 -0.053347833 -0.014442999 -0.043087732 -0.054746665 0.04152406 -0.06282157
0.03542584 -0.076976314 -0.034763604 0.05446097 -0.0066777146 0.06137527 -0.052231696 -0.028524412
-0.07779779 0.016617963 0.05875081 0.01796874 -0.00046329352 0.05021032 -0.12937915 0.013872061
00000000: f388 673d 5059 f33c 96ed 55bb 3190 cf3b
00000010: d66f ebbd 50a9 c8bd 6371 d2bd df77 073d
00000020: e2e1 c4bd b34a 69bd f092 04bd 9b97 10be
00000030: 5be4 9f3d 5d29 3f3d 5d0e b4bd 2a3f f93c
00000040: 8c75 1bbe 7483 28bd 3d4c 5c3d d712 1c3d
00000050: 5b92 6abd 4d24 9b3b 79c5 22bd cdf2 4b3c
00000060: ab5a 66bd 2f4e 383d 887b 92bc 3b71 61bd
00000070: dedb 83bd 45b3 0d3d 1d9e 723d cf06 4abd
00000080: 1b4a 0e3d ed66 bfbc 3795 83bd fff5 acbb
00000090: 9a6f a7bb 112d b0bd 9d2a a1bd 39f4 1bbc
000000a0: 0a8a 72bd 2f09 01be 03ed 813d 4ce3 bfbc
000000b0: 2f55 8abd 0d9c acbd f6c0 0b3d ea20 42bd
000000c0: 2ccb 2b3d ddc7 93bd 7411 acbc efe4 ea3b
000000d0: 7851 83bc 1fb6 a53d 97cf 96bd afe3 fd3a
000000e0: e9c2 c3bc 1ebc 5abc ec3d 753c d76b a0bc
000000f0: 9724 febc 384e 213c 4d54 8cbc 5989 4dbe
00000100: 02d5 68bd 587f 87bd 703d 11be d41f 68bd
00000110: f733 1abd b49f cbbc eee2 87bc 26f6 24bb
00000120: 8e95 67bd a5c9 133c 4b79 ecbd c6fc b7bc
00000130: b8a9 2cbe fda6 343d a1e4 0fbd d186 b0bd
00000140: 762a 283d fe33 483d 6c72 df3c fadf ccbd
00000150: 2da1 3fbb b518 563c 92f8 84bd 3c77 c33c
00000160: f749 a8bd ecaa ad3c b10f 943c e9c9 543d
00000170: 53bd 533d 98cc 15bd b4d9 163d e425 433c
00000180: b88d c1bc 9e73 9cbc a03e 00bd f4fe 86bd
00000190: 22a6 623d ba26 99bd 5af7 6c3d cb9a 9d3c
000001a0: e853 123b a346 42bd c6bb 06bd 06b9 a8bb
000001b0: 0a45 7cbc 4fa1 4c3d 2c6f e33c e560 493d
000001c0: eda1 823d 39fa 19bd 7882 0f3d 86dc 5abd
000001d0: 639b 223d 1a9a a23d 0c54 183d bc7f 173d
000001e0: f557 b4bd 0e9a 813d 108a 903d 8df4 bd3c
000001f0: 75ae 223c 37e7 0d3c 15af 05be 61be 16bd
00000200: e36f 223d 191e 333d ba9b 653d 5d5d cbbd
00000210: c686 acbd 04db 043d 73aa d6bd 6c19 f63b
00000220: 186b 0abd e0b4 cdbc e8c9 ac3c 0c36 fcba
00000230: 38fa d1bb c916 573d a335 46bd 0790 71bd
00000240: c836 e2bd 62c2 f7bb c1a1 4d3d e9a5 0abd
00000250: e636 2bbd b7ed aebd 2402 2a3c 80fb 9a3d
00000260: 93b7 963c bfa9 033d e691 e8bd 9dc7 4bbd
00000270: 9e07 413d e318 91bc 09fc 683d 7739 46bc
00000280: 38d7 213d 398a 0a3d 1432 aebd 38dd 1dbd
00000290: 3c86 61bb 09c8 a0bc 7a6c 30bd ed06 bf3b
000002a0: 3da9 f4bd 8b58 c3bd 9294 67bc fc54 b2bd
000002b0: fd4c f6bb ecc8 8bbd 261c 9f3c 7b6f c239
000002c0: 70f1 adbd d299 fcbc 6d23 f03c a1eb d7b9
000002d0: 9d75 1dbd abd1 05bd 26ef 6dbc 07dc 03bd
000002e0: 56b5 46bc 3e3e 0a3d 728d 9cbd 3274 233d
000002f0: 29db d13c b04b 933d b70b b2bb 6912 00be
00000300: 8e3f 4fbd 188d f4bc 01c1 55be cc2d ea3c
00000310: 14e7 11bc 05ea b4bb e056 a23c 4b17 3abd
00000320: 5e30 5cbd e840 7ebd 10c9 523d 593c 863d
00000330: c59c 11be f720 b73c 82cb 423d 2936 0bbd
00000340: 87f6 f63c bb4a f23c a93b d2bd b13a e0bd
00000350: 19d2 263d b4d6 ec3c ff3e dc3c f8ba 77bd
00000360: a195 8dbd f218 7cbc 8593 01bc cfd3 4fbd
00000370: 8b7d a93c 6326 023d 8f54 abbd 9353 03bd
00000380: 0a94 22bb fab2 70bc 43f5 6a3c c937 37bd
00000390: b797 9c3d 3c50 36bc 10ca bf3c 1703 2d3c
000003a0: 2067 c4bc 7d81 25bd 4283 5abd 54a2 6cbc
000003b0: c37c 30bd 0a3e 60bd 2215 2a3d 98a8 80bd
000003c0: b01a 113d c2a5 9dbd 4864 0ebd 7712 5f3d
000003d0: bbd0 dabb a364 7b3d e7f0 55bd 07ac e9bc
000003e0: 7354 9fbd 6522 883c b0a4 703d 2e33 933c
000003f0: 34e6 f2b9 56a9 4d3d f87b 04be a447 633c

category_policy.bias f4 [13]
-0.018263385 -0.007979863 -0.00077758887 0.038019754 -0.056380693 0.041846447 -0.00030583487 0.057103496
0.070984334 0.031224903 0.064623006 0.05441152 0.09125931
00000000: 189d 95bc f9bd 02bc 1bd7 4bba 9aba 1b3d
00000010: 71ef 66bd 2e67 2b3d 7658 a0b9 5be5 693d
00000020: 3c60 913d 5ecb ff3c 1159 843d 9dde 5e3d
00000030: 29e6 ba3d

value.weight f4 [1, 128]
0.0033559848 -0.07890481 0.051141534 0.06983892 0.024449619 -0.029968685 -0.01167709 0.029537955
0.08011172 -0.02228957 -0.051715594 -0.038451012 0.015591763 -0.07418984 -0.056940485 0.040304314
-0.003928139 -0.030843442 0.013658224 0.012486277 0.048175566 -0.054779787 -0.009373554 0.030717434
-0.08727154 -0.068190694 -0.03293657 -0.06601587 -0.03170008 -0.06929738 0.078558035 -0.03704469
-0.015238151 -0.058372635 0.081480354 0.06843536 0.04812619 0.041758023 0.07370545 -0.0025113095
-0.08412831 0.049337313 -0.071418226 -0.07863111 -0.026934786 0.050181028 0.01804905 -0.04826641
-0.016038435 0.032780744 0.00090756913 -0.058395132 -0.05910341 0.030182444 -0.007932079 -0.06510081
0.067786254 0.024513334 0.06195731 0.06698819 -0.035004936 0.049822852 0.044748403 0.014129067
0.02160497 -0.00075564027 0.06346249 -0.06614175 -0.018397046 -0.069095686 -0.0662469 0.0005823219
0.0125732375 -0.006329508 0.01243136 -0.026322044 -0.066032395 -0.0381869 -0.006566342 -0.02036364
0.08268888 0.081919186 -0.088336706 -0.04759439 -0.031588927 0.070175946 -0.065843344 0.05178048
-0.06253777 -0.0024300609 -0.010213962 -0.03926296 -0.031636793 -0.04365995 0.06808565 -0.032503743
0.04062814 0.058757827 -0.06562382 -0.03593927 0.049194403 -0.05285422 -0.037681915 0.032435592
0.036208283 0.082372494 0.012816983 0.03452875 -0.011027649 -0.037970476 -0.08806043 0.005473358
0.013993607 0.0029070156 -0.058601 -0.060908716 -0.013159731 0.049167722 -0.0589228 0.043479174
0.011084663 0.02929462 0.005413847 -0.044093106 0.028766898 0.027795214 -0.007319759 0.061142348
00000000: 15f0 5b3b d898 a1bd c979 513d b507 8f3d
00000010: 914a c83c e380 f5bc 4451 3fbc 95f9 f13c
00000020: 9d11 a43d 9e98 b6bc bbd3 53bd cf7e 1dbd
00000030: 9874 7f3c d8f0 97bd 6d3a 69bd 2316 253d
00000040: 9eb7 80bb 63ab fcbc bec6 5f3c 3e93 4c3c
00000050: be53 453d c560 60bd 8993 19bc 21a3 fb3c
00000060: 6cbb b2bd 90a7 8bbd 7fe8 06bd 5433 87bd
00000070: f1d7 01bd c9eb 8dbd 09e3 a03d 2cbc 17bd
00000080: 70a9 79bc 2518 6fbd 2cdf a63d d727 8c3d
00000090: f81f 453d 760a 2b3d e2f2 963d c894 24bb
000000a0: 774b acbd ec15 4a3d b843 92bd 5909 a1bd
000000b0: 57a6 dcbc 9f8a 4d3d 9adb 933c 00b3 45bd
000000c0: 0963 83bc 1a45 063d efe9 6d3a bc2f 6fbd
000000d0: 6b16 72bd 2c41 f73c 8df5 01bc 9353 85bd
000000e0: 85d3 8a3d 30d0 c83c f3c6 7d3d 1b31 893d
000000f0: 5661 0fbd 0c13 4c3d 1a4a 373d 9a7d 673c
00000100: e8fc b03c 2916 46ba 9ff8 813d 5375 87bd
00000110: 67b5 96bc 0a82 8dbd 74ac 87bd f6a6 183a
00000120: fbff 4d3c c367 cfbb e7ac 4b3c 54a1 d7bc
00000130: fe3b 87bd de69 1cbd 782a d7bb a6d1 a6bc
00000140: ca58 a93d 3fc5 a73d e0e9 b4bd 56f2 42bd
00000150: 6463 01bd 68b8 8f3d e0d8 86bd c517 543d
00000160: cd13 80bd a841 1fbb 7658 27bc 33d2 20bd
00000170: 9595 01bd c7d4 32bd 7d70 8b3d a522 05bd
00000180: b169 263d 0cac 703d c865 86bd 0e35 13bd
00000190: 1280 493d ab7d 58bd 5a58 1abd 2fdb 043d
000001a0: 234f 143d e9b2 a83d 53fe 513c 056e 0d3d
000001b0: 50ad 34bc ee86 1bbd 0759 b4bd db59 b33b
000001c0: 7145 653c a183 3e3b 9a07 70bd 6b7b 79bd
000001d0: ea9b 57bc 1864 493d 0959 71bd 3817 323d
000001e0: 729c 353c 45fb ef3c a466 b13b f99a 34bd
000001f0: 8fa8 eb3c cab2 e33c 97da efbb 6670 7a3d

exp_avg f4 [256, 23]
0.0019806782 0.0017011517 0.0009837804 0.0018339996 0.0011491028 0.0 -3.409125e-10 0.00024011565
0.00028084798 0.0018718817 0.0036063332 0.009373342 0.010663947 0.010735398 -1.7132919e-08 -1.2537572e-12
4.277793e-22 -4.2381793e-12 0.010343443 0.0 7.523963e-24 0.0 0.0 0.0014103019
-0.0004254836 0.0056180297 -0.0025356205 -5.4639768e-05 0.0 -0.0008565593 0.00020088525 0.004090048
-0.002623099 0.0050121793 0.012103294 0.015404926 0.020649422 -0.007197464 0.009741335 -0.009395685
0.005692446 0.013098146 0.0 5.3087257e-05 0.0 0.0 0.00064565195 0.0024870369
0.001660494 0.0015424184 3.2074013e-06 0.0 1.4096769e-26 1.3676859e-07 0.000111998714 0.00011477718
-0.002083199 6.032579e-07 2.7154937e-31 2.4856726e-25 6e-45 0.0016755159 -2.9965672e-38 2.2587481e-25
0.0065254746 0.0 3.213608e-35 0.0 0.0 -0.0018179453 -0.0027944045 -0.0035707725
-0.0042718844 -0.0010504437 0.0 9.389218e-05 -3.535621e-07 0.0005148028 0.0007883567 -0.006788668
0.0012017787 -0.002571179 3.9387913e-11 0.0 0.0059449477 0.006831611 0.0 -0.007221527
0.0 0.0 0.0 0.0 -0.0033882107 -0.003791745 -0.010436122 0.0008067114
-0.0077954726 0.0 -0.00056285184 -0.0018983595 -0.000859971 0.007091657 -0.023768127 0.04188834
-0.013121256 0.060240522 -0.08767117 -0.008855866 -0.041994955 0.0036880877 -0.012378728 0.0
0.00010650559 0.0 0.0 -3.6716727e-05 0.0004571226 0.0001555253 0.00026888214 -0.00069452653
0.0 -6.571919e-05 -0.0002617847 -0.0004420418 7.990296e-05 -0.0018218873 -0.0005245267 -0.0016027336
-0.0015503684 1.307756e-05 -0.0035892231 0.0010350052 -0.003489112 0.00076148 0.0 -6.9782254e-05
0.0 0.0 0.003573988 0.007365671 0.005926221 0.005899576 0.0012234105 0.0
-1.555462e-35 0.0 0.00054486253 -1.1258951e-06 1.5265236e-15 0.00040369589 0.001089726 0.0012025215
0.0 5.0157155e-34 0.0 0.0 0.024485221 0.0 0.0 0.0
0.0 -0.0032991772 -0.0076545877 -0.0054681064 -0.008455958 -0.0033315057 0.0 -0.0011351309
-0.0026361367 0.0031638516 -0.00081585837 -0.008480263 0.018129587 -1.6825652e-05 0.02667015 -0.032624666
-0.0041128923 -0.021955274 0.0008982829 -0.018788386 0.0 -1.9321576e-05 0.0 0.0
-0.0078599965 -0.004618143 -0.008627427 -0.0029725907 -0.00922342 0.0 0.00029955473 0.0019051507
-0.0037483939 0.001319171 -0.020238064 0.0008892736 -0.023403196 -3.0500348e-23 -0.025877468 -0.03676803
-0.05037486 -0.0027769378 -0.029566236 0.0 2.1189018e-25 0.0 0.0 0.0026994569
0.0009100434 0.0012699438 -0.0035416004 0.007685988 0.0 0.0003167364 0.0017851018 0.0072767735
-0.0004877254 0.016565165 0.019561043 0.029012518 0.01818038 0.030231472 0.056892972 0.061496694
-0.001786857 0.02017946 0.0 -5.0839815e-05 0.0 0.0 0.0063817315 0.008324697
0.004391043 0.007089629 0.004806011 0.0 0.0014375179 0.004853765 0.0056529054 0.005458523
0.028964704 0.031041488 0.04701267 0.0209509 0.036885902 0.06741437 0.09780713 -0.001468264
0.04605516 0.0 -3.5967318e-05 0.0 0.0 0.014287458 0.012354462 0.012631995
00000000: 44ce 013b 2ef9 de3a 31f2 803a d162 f03a
00000010: 7e9d 963a 0000 0000 2b6b bbaf 8ec7 7b39
00000020: c73e 9339 ed59 f53a 3b58 6c3b a592 193c
00000030: d6b7 2e3c 86e3 2f3c b02b 93b2 5d73 b0ab
00000040: d249 011c 201e 95ac 8b77 293c 0000 0000
00000050: dc88 1119 0000 0000 0000 0000 e1d9 b83a
00000060: 7113 dfb9 7317 b83b a72c 26bb 012d 65b8
00000070: 0000 0000 b98a 60ba b9a4 5239 cf05 863b
00000080: 4ce8 2bbb 353d a43b e54c 463c f164 7c3c
00000090: fa28 a93c b4d8 ebbb 1f9a 1f3c 5cf0 19bc
000000a0: b387 ba3b 9b99 563c 0000 0000 02aa 5e38
000000b0: 0000 0000 0000 0000 f840 293a 8efd 223b
000000c0: efa4 d93a f92a ca3a bc3e 5736 0000 0000
000000d0: 8e9b 8b14 aada 1234 dae0 ea38 88b4 f038
000000e0: 4886 08bb 91ef 2135 e13e b00c 0edb 9916
000000f0: 0400 0000 fc9c db3a 0d26 2381 4bcf 8b16
00000100: a6d3 d53b 0000 0000 5edd 2a06 0000 0000
00000110: 0000 0000 1f48 eeba 5422 37bb 9f03 6abb
00000120: 2afb 8bbb 0baf 89ba 0000 0000 fbe7 c438
00000130: 34d1 bdb4 d5f3 063a b9a9 4e3a 7a73 debb
00000140: 0085 9d3a 3a81 28bb d93a 2d2e 0000 0000
00000150: d6cd c23b b5db df3b 0000 0000 8fa2 ecbb
00000160: 0000 0000 0000 0000 0000 0000 0000 0000
00000170: be0c 5ebb ed7e 78bb 45fc 2abc 7c79 533a
00000180: 2a71 ffbb 0000 0000 598c 13ba 60d2 f8ba
00000190: ad6f 61ba 2161 e83b 60b5 c2bc 1c93 2b3d
000001a0: 89fa 56bc c4be 763d f18c b3bd 3218 11bc
000001b0: e702 2cbd d8b3 713b 26d0 4abc 0000 0000
000001c0: c15b df38 0000 0000 0000 0000 4900 1ab8
000001d0: f5a9 ef39 8114 2339 c0f8 8c39 e310 36ba
000001e0: 0000 0000 b9d2 89b8 2640 89b9 d9c1 e7b9
000001f0: 9391 a738 65cc eeba 6480 09ba d112 d2ba
00000200: bb35 cbba b167 5b37 2c39 6bbb 03a9 873a
00000210: 96a9 64bb 0f9e 473a 0000 0000 1058 92b8
00000220: 0000 0000 0000 0000 9239 6a3b ba5b f13b
00000230: bf30 c23b 3b51 c13b d85a a03a 0000 0000
00000240: b467 a585 0000 0000 1bd5 0e3a 761d 97b5
00000250: c8fe db26 25a7 d339 23d5 8e3a ed9d 9d3a
00000260: 0000 0000 fdac 2608 0000 0000 0000 0000
00000270: 3b95 c83c 0000 0000 0000 0000 0000 0000
00000280: 0000 0000 0237 58bb 56d3 fabb cd2d b3bb
00000290: dc8a 0abc 6455 5abb 0000 0000 acc8 94ba
000002a0: 09c3 2cbb 9f58 4f3b 54df 55ba cdf0 0abc
000002b0: 8084 943c d024 8db7 5c7b da3c 71a1 05bd
000002c0: 71c5 86bb 8cdb b3bc bf7a 6b3a 1aea 99bc
000002d0: 0000 0000 c514 a2b7 0000 0000 0000 0000
000002e0: 37c7 00bc cb53 97bb 0d5a 0dbc cccf 42bb
000002f0: d41d 17bc 0000 0000 8e0d 9d39 40b6 f93a
00000300: 9da7 75bb 09e8 ac3a 4cca a5bc 241e 693a
00000310: 0fb8 bfbc 9a7d 139a fcfc d3bc 139a 16bd
00000320: df55 4ebd 49fd 35bb e434 f2bc 0000 0000
00000330: 5727 8316 0000 0000 0000 0000 5fe9 303b
00000340: fb8f 6e3a 3e74 a63a 321a 68bb beda fb3b
00000350: 0000 0000 a40f a639 14fa e93a 0072 ee3b
00000360: 65b5 ffb9 abb3 873c 7b3e a03c a9ab ed3c
00000370: 05ef 943c fea7 f73c 9b08 693d f5e3 7b3d
00000380: f934 eaba 654f a53c 0000 0000 d63c 55b8
00000390: 0000 0000 0000 0000 d81d d13b 4f64 083c
000003a0: bde2 8f3b 1e50 e83b be7b 9d3b 0000 0000
000003b0: 196b bc3a 550c 9f3b 023c b93b 69dd b23b
000003c0: 6347 ed3c b84a fe3c 5c90 403d 39a1 ab3c
000003d0: ac15 173d 8c10 8a3d 1b4f c83d c472 c0ba
000003e0: 56a4 3c3d 0000 0000 9ddb 16b8 0000 0000
000003f0: 0000 0000 f115 6a3c 5f6a 4a3c 6df6 4e3c
