checkpoints/yahtzee_pretrain_incremental_100ep/checkpoint_ep49.pt (torch, 510781 bytes, 25 tensors)

shared.0.weight f4 [256, 23]
000000 ba 40 91 bc 64 f7 da bd 92 ee 4a 3e d0 1c 41 be
       -0.01773106 -0.10691717 0.1981757 -0.18858647
000010 1f 6d ba bd c2 74 59 3b ba c6 fb bc b7 8d 10 be
       -0.091028444 0.0033181165 -0.030734409 -0.1411656
000020 c8 a0 5f bc ef 87 30 3e 06 f4 0a 3a 98 b0 4d 3d
       -0.013649173 0.17239355 0.00053006446 0.05021724
000030 60 9d 8c 3d 22 8d 34 3e 7f a8 5c 3c 60 d4 45 be
       0.068659544 0.17631963 0.013467907 -0.19319296
000040 0a 85 db bd f0 d6 c3 3d 2d aa 1a be 73 dc bd bc
       -0.107187346 0.095624804 -0.1510398 -0.023176407
000050 10 0f 2c 3e 5a c5 68 bc 9e 2e 4b 3e ff c1 32 3d
       0.16802621 -0.0142072085 0.19842002 0.04364204
000060 07 85 4e be d7 22 56 be f1 07 09 3c a4 09 20 3d
       -0.20167933 -0.20911728 0.00836371 0.039071694
000070 0a 15 0b be 41 26 4b be c9 2d 57 be 54 aa 17 be
       -0.13582245 -0.19838811 -0.2101356 -0.14811069
000080 ec 93 3b 3e 0e 68 ba bd c3 4c 91 3d 57 cc bb bd
       0.18318146 -0.09101878 0.07094719 -0.09169834
000090 2e e3 95 3d d5 fa 5a 3c 35 38 b9 3d 7f cc 11 3d
       0.07318722 0.013365467 0.09043924 0.035595413
0000a0 34 e0 79 3c 12 2c 8f 3d 67 ab 53 3e f5 eb 2c be
       0.015251208 0.069908276 0.20670854 -0.16886885
0000b0 74 8d e3 bd ba 32 38 3e 56 1d 67 be fd 12 03 bd
       -0.111109644 0.179881 -0.22569785 -0.03200053
0000c0 24 75 60 be 23 a8 a1 3d dd 90 d4 bd 32 83 8f bb
       -0.21919686 0.07893398 -0.10379193 -0.0043796534
0000d0 15 67 2c 3e 5e af 2b 3e c2 79 d8 bd a6 bb 41 3e
       0.16836198 0.16766116 -0.105700985 0.18919238
0000e0 ff 67 05 3d 9d 55 0d be 13 dc 4c be 5c 04 ad bc
       0.03256988 -0.1380219 -0.20005827 -0.021120243
0000f0 a3 80 27 be 8e 1b a7 3c fb 05 6e bd c5 19 64 3d
       -0.16357665 0.020398881 -0.058111172 0.05568864
000100 ff a5 2f 3e ac cc 37 3e 28 10 83 3b 6b 25 6e 3d
       0.17153166 0.1794917 0.0039997287 0.058141153
000110 e8 f3 4f be b9 2b ff 3c b0 b5 e4 3d 08 6a a0 3d
       -0.20307887 0.031148778 0.11167467 0.07832724
000120 d8 c5 15 3e 94 81 32 3e 18 50 36 3d 27 07 4a bd
       0.14626253 0.17432243 0.044509977 -0.049323227
000130 3a 3f b6 3d 86 91 ad bc 97 76 b2 3d 06 94 2a 3e
       0.08898778 -0.021187555 0.087140255 0.16658029
000140 ae 02 dc 3b bd 4f ac 3c 06 39 1b be be 72 2e be
       0.0067141866 0.021034116 -0.15158471 -0.17035958
000150 9e 24 46 bc 53 4c b5 3c 89 2b 15 be 54 66 b0 bd
       -0.012093691 0.02213112 -0.14567389 -0.086132675
000160 b7 a0 a5 bd 53 e1 b6 3d 4b 76 35 3e 40 bc 08 bc
       -0.080872945 0.08929696 0.17720906 -0.008345664
000170 ec 4a 3d be 9c a9 95 3d ff 74 32 be 01 40 b1 bd
       -0.18485612 0.07307741 -0.17427443 -0.08654786
000180 e2 e4 15 3e b3 85 0c 3e ca a8 80 bd 96 45 16 3e
       0.14638093 0.13722877 -0.06282194 0.14674982
000190 4c a7 cb 3d c5 50 cd bd 4a d1 53 3e 25 17 07 3e
       0.09944019 -0.10025171 0.20685306 0.13192423
0001a0 8b 90 c6 bc ab 0c 8c bd 71 a9 c7 3d 51 54 44 3e
       -0.024238845 -0.06838354 0.09749115 0.19172789
0001b0 68 da 23 be 99 68 80 3d 2a d3 b8 3d ce 8c 2d be
       -0.16001284 0.062699504 0.09024651 -0.16948244
0001c0 c6 7b 09 bd 9b 7b 86 3b 2f 85 4b bd 53 0f be bd
       -0.033565305 0.0041040904 -0.04968756 -0.092802666
0001d0 0c 8b 86 bc 18 14 84 3d 13 95 c3 bd 8f f1 57 3e
       -0.016423725 0.06449145 -0.09549918 0.21088241
0001e0 9d b6 86 b9 cf b0 56 be dc d4 ed bd c8 f7 fc 3d
       -0.0002569453 -0.20965885 -0.11612865 0.12351948
0001f0 04 98 01 be 1e 0a 2a be f1 93 70 3e 19 e3 e5 bd
       -0.12655646 -0.16605422 0.23493935 -0.11224956
000200 7e 59 28 3e f3 9a f7 bd b8 8f d3 3d 67 72 40 3d
       0.16440389 -0.12090101 0.103301466 0.046984103
000210 47 ad b4 bc e0 f3 1b be 7a c5 fc 3c dc a2 45 bd
       -0.022055281 -0.1522975 0.030855883 -0.048251018
000220 7d 19 f8 bc 59 56 c5 bd 0b 12 97 3d 51 b5 2e be
       -0.030285591 -0.0963561 0.07376488 -0.17061354
000230 c4 c9 45 bd 58 85 ee 3d f7 13 77 3d 82 95 11 be
       -0.04828812 0.11646527 0.060321774 -0.14217189
000240 7f 88 a9 3b 91 8c 4a be 2c 51 ef 3d 31 22 3f be
       0.0051737423 -0.19780184 0.11685404 -0.18665387
000250 8d 90 2a be 23 08 03 bb 63 5b 2f be 3c 12 84 3d
       -0.16656704 -0.0019993864 -0.17124705 0.064487904
000260 b7 70 1b be f6 a8 98 bd 26 e0 d7 bd 7d e0 8a bd
       -0.15179716 -0.07454102 -0.105408 -0.06781099
000270 cb d6 35 3d 64 af ad bd a4 f1 87 bd f8 9b 9d bd
       0.044394296 -0.08480719 -0.06637886 -0.07695764
000280 c9 71 13 3e f0 54 47 3d a7 2f a7 bd a7 3a 0b 3c
       0.14398874 0.048664987 -0.08163386 0.0084978705
000290 14 c8 9c bd 84 2d 1c 3d 28 f6 ef bd 64 d4 30 be
       -0.076553494 0.038129345 -0.117168725 -0.1726852
0002a0 bd 65 8a 3c d4 54 02 3e 4c 29 b4 3d fa 96 68 bd
       0.016894216 0.12727672 0.08796939 -0.056784607
0002b0 3a 17 14 3e a3 b7 b8 bd 68 c6 0b 3d ab 23 1c 3e
       0.14461985 -0.09019401 0.03412476 0.15247981
0002c0 ce f2 c5 3d 44 7d 88 bc 37 63 75 3d 68 68 19 3e
       0.09665452 -0.016661294 0.05990907 0.14981234
0002d0 51 72 15 3e 97 43 30 3e b4 17 9d bc 23 45 4b be
       0.1459439 0.17213283 -0.019176342 -0.19850592
0002e0 04 bf cb bd 0f 29 41 3e 44 c5 08 be 15 e1 45 bd
       -0.09948543 0.18863319 -0.13356501 -0.048310358
0002f0 c6 dd e8 3c c8 2a 46 3e 76 c6 a2 3d dd 8e c8 bd
       0.028426062 0.19352257 0.0794801 -0.09792874
000300 8b 9b 71 3d 30 c6 0a 3e 8a e6 46 3d ab 7c 0b be
       0.058986228 0.13552165 0.048559703 -0.13621776
000310 1a 78 b0 bd e3 47 53 be 24 3d ca bd e2 85 05 3d
       -0.086166576 -0.20632891 -0.09874943 0.032598384
000320 14 17 48 3d df 78 8c 3d f4 59 ad 3d 83 b5 16 3e
       0.048850134 0.06858992 0.08464423 0.14717679
000330 49 5f 29 bd 38 a4 ee bd 32 23 ab 3d f9 0d 51 bd
       -0.041350637 -0.11652416 0.08356322 -0.051038716
000340 fd 32 96 3d 65 a2 9a 3d 7d d7 a3 bc db e8 66 be
       0.07333944 0.075505055 -0.020000214 -0.22549765
000350 de 05 d5 3d 42 38 54 be bc 66 23 3e 44 1f 42 be
       0.1040151 -0.20724586 0.15957159 -0.1895724
000360 4a 5a 4a 3d 01 d9 46 3e 43 3b 18 3e 31 68 7a 3d
       0.049402513 0.19418718 0.14866357 0.06113452
000370 33 34 ab bc 41 c4 2b 3d 4c 64 0f 3c 39 84 1c 3d
       -0.020898914 0.04193521 0.00875194 0.038212035
000380 83 30 12 3e 45 bc 8a 3d ed e4 8c bc c0 17 47 3e
       0.14276318 0.06774191 -0.017199004 0.19442654
000390 07 94 35 be e1 66 85 3d 2a bb 1d be 5e 0b ae 3d
       -0.17732249 0.06513763 -0.15403429 0.08498262
0003a0 ec 31 3b be 27 6a d7 bd 19 50 18 3e 04 0f 29 3d
       -0.18280762 -0.10518294 0.14874305 0.041274086
0003b0 7f a0 85 3d 47 58 26 3e 97 a3 2e bd 97 49 00 3e
       0.06524753 0.16244613 -0.04263648 0.12528072
0003c0 4f a9 39 3d 84 e5 8f bd 22 8f 38 3e 7d 67 6a 3d
       0.04532748 -0.070261985 0.18023351 0.0572276
0003d0 65 9d 42 3e ad ce e4 3d 68 ff e5 bc 5f 38 ed 3d
       0.19005354 0.11172233 -0.028075889 0.115830176
0003e0 cb 38 30 be fa 90 31 bc 56 65 25 3e ef cb 1f be
       -0.17209165 -0.010837788 0.16151938 -0.15605138
0003f0 6d 64 37 be 13 90 cc bd bc b4 0b 3e 83 15 d6 bd
       -0.17909403 -0.099884175 0.13643163 -0.10453322

shared.0.bias f4 [256]
000000 88 15 fd bd 08 5c 1d be 70 6a 2e be bd 5b 04 be
       -0.123576224 -0.15367138 -0.1703279 -0.1292562
000010 6a 5e 57 3d 87 cd 98 bd 4c c2 45 be 46 56 9c bd
       0.052580275 -0.07461076 -0.193124 -0.07633643
000020 8b fd ed bc ff 68 76 be 71 19 a7 3d 69 57 5b 3a
       -0.029051563 -0.2406349 0.081591494 0.0008367212
000030 51 c6 1d 3e 45 7d 61 be 0a f9 fe 3c e7 8e 11 3e
       0.15407683 -0.22020443 0.03112461 0.14214669
000040 3c bb 42 3e f2 47 98 3c b8 c3 08 3d b2 68 dd bd
       0.19016737 0.018588994 0.033389777 -0.10810985
000050 74 f5 36 be d8 56 5b 3d 6a 76 6f bc 8b 8b 30 be
       -0.1786707 0.053549618 -0.014615634 -0.17240731
000060 72 8e 12 bc a4 8e db bd 62 84 31 be 17 bb 32 3e
       -0.008945094 -0.10720566 -0.17335656 0.17454182
000070 08 91 b9 bd 24 91 f7 3d 18 55 42 be f1 5e 59 be
       -0.09060866 0.1208823 -0.18977773 -0.21227624
000080 4d 76 14 bd 97 6c 70 bd fe 0c 86 bd f7 11 4a 3e
       -0.036245633 -0.05869731 -0.06545447 0.19733416
000090 92 3d f3 3d 0a d2 43 3e e8 be 02 3e b3 24 a0 bd
       0.11876978 0.19123092 0.12768137 -0.078195
0000a0 27 19 8f 3d 4b c6 5a 3e 10 c7 18 be bd e6 13 be
       0.06987219 0.21364705 -0.14919686 -0.14443488
0000b0 d8 ff 45 3d 83 34 9f bd e5 34 d0 3d c3 2b bd 3c
       0.048339695 -0.07773688 0.10166339 0.023092156
0000c0 72 75 17 3e 0b e9 14 be c2 27 54 be a7 04 e6 bc
       0.14790896 -0.14542024 -0.20718291 -0.02807839
0000d0 3c b3 26 3e 8d 95 1a be 3c ea 92 3d f9 fe 97 bc
       0.1627931 -0.15096112 0.07173583 -0.018554198
0000e0 b8 09 65 be 3b ae 04 3d bc ff e4 bd 98 92 5d 3e
       -0.22366989 0.03239272 -0.1118159 0.21637952
0000f0 e3 56 78 bc c8 f6 e0 3d 0c d5 b8 bd e8 bc f6 bd
       -0.015157434 0.1098457 -0.090250105 -0.1204775
000100 01 0f 63 be 22 7f b1 bd 5f 6b 81 3d 09 d7 2f 3e
       -0.22173692 -0.08666827 0.063193075 0.17171873
000110 ff 32 3d bc 25 d1 64 be 60 63 23 be 49 3b 20 3e
       -0.011547803 -0.22345407 -0.15955877 0.15647615
000120 b8 9b 14 3c 6c 84 04 3e aa 10 0d bd fd 39 6f 3d
       0.009070329 0.1294114 -0.03443972 0.05840491
000130 81 fb 3f be 12 a9 2d be ed c1 7a 3d a6 09 b5 3b
       -0.18748285 -0.16959026 0.0612201 0.005524832
000140 02 e1 01 be d7 c4 3d 3e b7 15 0e be d2 30 57 3e
       -0.1268349 0.1853212 -0.13875471 0.21014717
000150 26 a7 49 3e 0e fa 6c 3d ef ba 23 3e ed a1 1f bd
       0.19692668 0.05785566 0.15989278 -0.038972784
000160 46 39 b0 bd 62 51 cc bd ad 16 92 bd 06 f1 1c be
       -0.08604674 -0.0997646 -0.07133231 -0.15326318
000170 24 e0 31 be b0 60 c3 bb 03 e8 48 bd e7 c3 3a be
       -0.17370659 -0.005962454 -0.04904939 -0.18238793
000180 35 16 20 bd 83 1e d3 3d 99 02 32 3c ac d5 d0 bd
       -0.03908368 0.10308554 0.010864877 -0.10197005
000190 b6 9a 23 3e 52 8e b5 3d db 63 0e 3e fa 82 e6 bd
       0.15976986 0.08865036 0.1390528 -0.112554505
0001a0 61 99 3b bd fd 05 1d bd 40 4f f4 3a 48 2b c6 3d
       -0.04580057 -0.03833579 0.0018639341 0.09676224
0001b0 28 bf 01 bd 50 a0 04 3e bf 16 4a be b7 dc eb bd
       -0.03167644 0.1295178 -0.1973524 -0.115167074
0001c0 e2 84 b6 3d aa 81 6b be 32 ee 18 be a4 e4 6f be
       0.08912064 -0.22998682 -0.14934614 -0.23427063
0001d0 a8 8a 1c be 21 34 26 be 02 d0 9d 3d 1f ea 2d be
       -0.15287268 -0.16230823 0.0770569 -0.16983841
0001e0 aa 70 52 3e 2f ac 27 3e ec 41 2d 3e 89 2e de 3d
       0.2055079 0.16374277 0.16919678 0.108487196
0001f0 ca 77 fa bd 84 e4 14 3e ba 6d 16 3e 41 79 bd bc
       -0.12229879 0.14540297 0.14690295 -0.023129107
000200 64 1b 31 bd 75 26 a0 bd c3 9a 5e bd 31 f0 15 3e
       -0.043239012 -0.07819835 -0.05434681 0.14642407
000210 df be 9e bc 7a cd 10 bd 0e 66 e6 3c f3 b5 71 bd
       -0.019378124 -0.035352208 0.028124835 -0.05901141
000220 85 d1 13 3e 81 60 5e 3d 25 30 5e 3e 57 9e d6 3c
       0.14435394 0.054291252 0.21698053 0.02619855
000230 7d b4 bb bd f3 67 a0 3d 46 17 8d bc 6c f6 26 3e
       -0.09165285 0.07832327 -0.017223012 0.1630494
000240 55 25 27 be 58 7c 61 be 72 17 09 be 1f 69 04 3e
       -0.16322835 -0.2202009 -0.1338785 0.12930726
000250 ac 9b 75 bd 03 56 16 be 82 46 23 bd 4e 72 05 be
       -0.059962913 -0.14681248 -0.039862163 -0.13031885
000260 ef a4 36 3e b6 72 07 be fc f1 c7 3c 52 15 34 3e
       0.17836355 -0.13227352 0.02440738 0.17586258
000270 da 4e c4 3d 32 13 50 3d 5f ed 95 bd 9c 45 4b be
       0.09585352 0.050799556 -0.073206656 -0.19850773
000280 c6 63 2d be ad 38 16 3e c6 56 35 be 9c 4b a6 bd
       -0.16932592 0.14670058 -0.17708883 -0.0811989
000290 0c 34 60 3e 7a bb 3c 3e f6 30 36 3e 49 df ed 3d
       0.21894854 0.18430892 0.17792115 0.11614854
0002a0 35 a5 93 bd a2 c6 23 bd 97 69 4b be 74 6e 8f 3d
       -0.07209245 -0.039984353 -0.19864498 0.07003489
0002b0 76 3e 08 be 9a 16 1e 3e bc cb ef 3d 68 a1 c9 3d
       -0.13305077 0.1543831 0.11708781 0.09845239
0002c0 0d 8b 5c bd 19 49 48 bd 01 fa 17 bd 79 92 29 3c
       -0.053843547 -0.048897836 -0.037103657 0.010349863
0002d0 07 3a 17 3e 53 77 fe 3d 05 ab bc 3c 81 be 22 be
       0.1476823 0.12425103 0.023030767 -0.15892984
0002e0 ff b0 29 be ab 4d 15 3e d8 bb 49 3e af 36 5f 3d
       -0.16571425 0.14580409 0.19700563 0.05449551
0002f0 1e d5 87 bd d1 56 26 3e cc eb 62 bd 80 1b 29 3d
       -0.06632446 0.16244055 -0.055400655 0.04128599
000300 2e 34 c7 3d 41 b3 21 3d 47 1a c0 3d 5e c1 ae bb
       0.09726749 0.03947759 0.09380012 -0.0053331098
000310 55 41 c2 3d 12 b5 4d be 9c a0 c6 bd d7 04 02 be
       0.09485117 -0.20088604 -0.096986026 -0.12697159
000320 10 1e 53 bd 76 33 07 3e 9e 34 5e 3e b1 64 03 3e
       -0.05154234 0.13203225 0.2169976 0.1283138
000330 2f 76 a0 3d f5 37 de 3b 97 76 2f bb 89 87 d5 3d
       0.07835042 0.006781573 -0.0026773566 0.10426242
000340 f1 5c d5 3d bd d4 4b bd e8 e3 80 bb 76 d2 0b be
       0.10418118 -0.04976343 -0.0039334185 -0.13654503
000350 40 c4 28 3b 8b 5e 2e 3e 87 9f 29 be e7 e8 d4 3d
       0.002575174 0.17028253 -0.16564761 0.10395985
000360 27 a1 17 3e 82 02 c3 bd d6 57 b3 3d bb 77 0a 3e
       0.14807568 -0.09521963 0.08756988 0.13522236
000370 82 e2 01 be 81 16 b9 3d 3f f6 aa 3d d7 da 9a bd
       -0.12684062 0.090374954 0.08347749 -0.07561272
000380 a6 f3 f1 bd d4 f2 b6 3d 10 9b b6 3d ab c0 04 3e
       -0.118140504 0.089330345 0.089162946 0.12964122
000390 c5 1b 06 be f7 17 5e bd 21 e7 7f bd 1c b0 89 3d
       -0.1309653 -0.054222073 -0.06247628 0.06723043
0003a0 93 a0 00 be 67 f0 0b bd dc 92 c8 bd 58 e8 47 3e
       -0.12561254 -0.034164812 -0.09793636 0.19522226
0003b0 41 69 2f be c5 03 a7 bc 7f e2 ad 3d 80 00 e3 3d
       -0.17129995 -0.02038754 0.08490466 0.1108408
0003c0 97 e5 c3 3c 7f 14 81 bd 61 af da 3d 8f fb 2e be
       0.023913188 -0.063027374 0.10677982 -0.1708815
0003d0 0f 84 36 3d 74 98 14 be 11 60 c3 3d 9d a8 22 bd
       0.044559535 -0.14511281 0.095398076 -0.039711583
0003e0 85 3f 03 bd 73 40 21 3e 44 a4 aa bd 72 4e 4e be
       -0.032043 0.15747242 -0.083321124 -0.20147112
0003f0 6f 03 17 3d fb 78 12 be 99 1b 03 3e f6 f2 4c bd
       0.03686851 -0.14303963 0.12803496 -0.050036393

shared.2.weight f4 [128, 256]
000000 38 6d 84 3c 4a 54 36 3d c0 2b e6 3c a1 6b 78 bc
       0.01616536 0.044513978 0.028097034 -0.0151623795
000010 dc a7 b0 3c 48 ab 22 3c b3 09 90 bc ce d0 90 bd
       0.021564417 0.009928532 -0.01758275 -0.07071076
000020 12 4f 15 bd 36 e0 7f bd f4 51 29 bd e0 ad 8d 3b
       -0.03645236 -0.062469684 -0.041337922 0.004323706
000030 8a 0d 3f 3d 7e 50 1c bd fd 71 13 bd 87 4a b9 3c
       0.04664377 -0.0381627 -0.03599738 0.022618545
000040 98 bf 6e bc a0 05 dc 3b 5a ea 0e 3d 16 55 17 3d
       -0.014572047 0.0067145377 0.034891464 0.03694638
000050 22 6b 50 3d 04 fe fe 3c b2 ce 45 bd 1e 63 37 3d
       0.05088342 0.031126983 -0.048292823 0.04477226
000060 2e 22 56 3d 10 f3 c6 3b 58 46 35 bc 5f 92 5d ba
       0.05227869 0.006071456 -0.011064135 -0.0008452292
000070 0e 67 2e 3d 88 5d dd 3c d8 b1 a2 3c 12 24 10 bc
       0.04257875 0.027022138 0.019860193 -0.008797662
000080 5a 84 10 bd c0 1d e9 ba 1e 13 0c bd 46 57 15 bd
       -0.03528247 -0.0017785355 -0.03419792 -0.036460184
000090 48 51 1e bd b8 5d 0e 3c 80 c7 33 bd d2 52 74 bd
       -0.038651735 0.0086893365 -0.04389143 -0.059649296
0000a0 54 c7 99 bc 64 1c 74 bd a5 3a 8c bd b0 dd dd bb
       -0.018771805 -0.059597388 -0.06847123 -0.006770812
0000b0 9a 58 ef bc 58 c3 14 bd 16 75 3e 3d 46 1a 0e 3d
       -0.029217053 -0.036319107 0.04649838 0.034693025
0000c0 e8 95 ee 3c 58 77 72 bd 1c 22 12 bd aa 13 d6 3c
       0.029124215 -0.059195846 -0.03567706 0.026132423
0000d0 a2 6d 3d 3d 70 76 c8 3b 16 d6 48 bd 60 df ee bc
       0.046247132 0.0061176345 -0.049032293 -0.029159248
0000e0 cc 98 0d bd 62 fa 78 3d ee 04 50 bd 0b 0b 1d bd
       -0.034569547 0.06078566 -0.05078595 -0.03834061
0000f0 30 47 76 3d e1 36 88 3a 27 2b c0 3c 2c c1 e1 3c
       0.060126483 0.0010392332 0.023458077 0.027557932
000100 2c ee 6c bd c6 89 56 bd 54 72 f4 bc 74 f0 b5 bb
       -0.057844326 -0.052377485 -0.029839672 -0.005552346
000110 ae 6a 3c 3d 32 61 3d 3d d4 38 92 bc ce f8 3f bd
       0.046000175 0.04623527 -0.017849363 -0.046868138
000120 64 a8 1a bd 96 a1 cf 3c 08 24 51 3c 8c 1e 7d bd
       -0.037758246 0.025345605 0.012764938 -0.06179671
000130 d8 0f f3 bc 58 6f a2 3c ba d0 71 bd d2 b4 6e 3c
       -0.02967064 0.019828483 -0.059036948 0.014569478
000140 52 89 03 3d 6e 70 a2 3c f1 33 57 bc 0b 33 15 3d
       0.03211338 0.019829001 -0.013134942 0.03642563
000150 dc 2a 14 bd 7c b3 5e bd 00 1c e4 3a 40 a2 7e 3d
       -0.036173686 -0.05437039 0.0017403364 0.062166452
000160 27 9e fc 3b f8 50 47 3d 80 80 28 bd 06 ea 90 bc
       0.007709283 0.048661202 -0.041138172 -0.017689716
000170 70 b7 6b bc a5 0e 6e bd b8 89 63 3c f4 72 c3 3c
       -0.014386997 -0.058119435 0.013887815 0.023858525
000180 3e 2f 9f 3c 2a 48 6f bd 8c 6f 68 3d b2 57 01 bd
       0.019431707 -0.05841843 0.056747004 -0.031577773
000190 40 55 24 3b c8 4c c6 3c d3 40 43 bd a0 eb ce 3b
       0.0025075227 0.024206534 -0.047669243 0.00631471
0001a0 30 39 5a 3c 6c 37 20 bd 42 06 96 ba 88 88 c7 bc
       0.013319299 -0.039115354 -0.0011445957 -0.024357095
0001b0 e8 4f 38 bd 44 d1 b1 bc a0 41 fe bb 48 b1 5a bd
       -0.04499808 -0.021706231 -0.007759288 -0.053391725
0001c0 48 f8 1f bd bc 4d 8e 3c 96 66 74 bd 10 db 1f 3d
       -0.03905514 0.017371051 -0.059668146 0.039027274
0001d0 1a 83 12 bc 88 40 03 3d 42 64 92 3c 2d 71 4f 3d
       -0.00894239 0.032043964 0.017870072 0.050645042
0001e0 5b 4c a3 3b 92 69 56 bc 80 2d 7c 3b fe fa 5b bd
       0.0049834675 -0.013086693 0.0038479269 -0.05370616
0001f0 40 f1 6f 3d 08 3a 74 bd e6 9d bb bc 8c fb 8b 3c
       0.058579683 -0.059625655 -0.02290244 0.01708772
000200 e6 85 10 bd 99 1c 67 bd de b1 76 3d 26 8d 38 bd
       -0.035283946 -0.056423757 0.06022822 -0.045056485
000210 60 45 a6 bc 24 79 72 bd b0 92 70 bc ec d2 5e bd
       -0.020296752 -0.05919756 -0.0146834105 -0.05440037
000220 13 04 f4 bc ee bf 58 3d b9 56 9f 3c 06 20 6a bd
       -0.029787099 0.052917413 0.019450532 -0.057159446
000230 3c 3c 23 3d a3 fa 56 3c 71 83 5a bd 21 a5 51 3d
       0.039852366 0.01312128 -0.05334801 0.05118287
000240 81 13 0a 3d 7b fb 87 bd 70 ac 56 bd e1 f5 25 3d
       0.033710007 -0.06639763 -0.052410543 0.04051769
000250 94 7e c2 3c a0 39 4e bd b8 96 ac bc 59 88 27 3d
       0.023741998 -0.050347924 -0.021067962 0.040901516
000260 1d fd db 3c c6 7a 3b 3d 82 4d d2 3c 92 0c 66 bd
       0.026854092 0.045771383 0.025671724 -0.05616433
000270 9e 2c 2a bd 24 3d af bc ea e3 62 bd 79 36 79 bd
       -0.041546457 -0.021391459 -0.055393137 -0.060842965
000280 a4 3c 10 bd 98 9d f8 3c 9c 61 34 3d 3e 5b 73 3d
       -0.03521408 0.030348584 0.0440384 0.059413187
000290 98 4f 00 3c 68 d2 fa 3c a7 1d 41 bd e8 45 81 bd
       0.007831477 0.030617908 -0.04714742 -0.06312162
0002a0 9f 3a 91 3b 7f 9b 0a bd 80 4c 03 bd e2 5f 1a bd
       0.004432037 -0.0338397 -0.032055378 -0.037689097
0002b0 1c 3c c9 3c 40 59 df bb 7c ea 8a bd 80 81 20 3d
       0.024564795 -0.0068160594 -0.067830056 0.039186
0002c0 50 09 e2 bb 58 75 1a 3c 14 9d 9f ba 37 ae bf bc
       -0.006898083 0.009427391 -0.001217755 -0.023398502
0002d0 de 09 e7 3c 80 a3 a6 3c d5 2b 65 bd 5c 8c db 3c
       0.028202947 0.020341635 -0.055950005 0.026800327
0002e0 6e e3 19 bd c3 cd bc 3c a0 2e 85 bb 08 61 5b 3d
       -0.03757041 0.023047334 -0.004064396 0.053559333
0002f0 62 88 48 3d 2f b6 2d 3d 8c e3 f8 bc cc 74 31 bd
       0.04895819 0.042410072 -0.03038194 -0.043324277
000300 e9 49 89 bd 6e 7e 89 bd 48 fd 4c bc d2 7c 40 bd
       -0.0670355 -0.06713568 -0.012511559 -0.046994038
000310 e4 2e 81 bc f0 98 46 3c e3 6d 39 bc 01 56 69 bd
       -0.01576943 0.012121424 -0.011317703 -0.056966785
000320 28 5e 43 bd a0 6a f0 3b d8 0d 71 bd 31 99 4d 3d
       -0.047697216 0.0073369294 -0.058851093 0.050194923
000330 20 e7 25 3c d0 c4 20 bd 06 1c 7e bd b0 c6 f2 bc
       0.010125905 -0.039250195 -0.062038444 -0.029635757
000340 3a 4c 32 bd 5b 94 81 3c 29 40 08 3b 00 48 fa 3b
       -0.043529727 0.015817812 0.0020790196 0.0076379776
000350 99 b4 9f bb 38 ec 72 3c 40 6d 92 3a 2a 4e 02 bd
       -0.004873824 0.014826827 0.0011171475 -0.031812824
000360 60 c4 54 bc 4a 9d 52 bd dd c0 f5 3b 17 63 3c 3d
       -0.012986273 -0.051419534 0.0074997977 0.045992937
000370 99 7b 5a 3d b4 d3 af 3c d4 9e 53 3d 1b f6 9c 3b
       0.05334053 0.021463253 0.051665142 0.0047900802
000380 e8 83 25 3d e0 12 64 3b bb 63 44 3c d6 50 90 bd
       0.040409 0.003480129 0.011986668 -0.07046668
000390 cc c7 3f 3d 46 f4 57 bd 9a a2 01 3d ba db 18 3d
       0.0468214 -0.05272319 0.03164921 0.037318923
0003a0 c8 e8 40 3d fc cc 5e bd de 94 3a 3d 02 46 47 3c
       0.047096997 -0.054394707 0.045552127 0.012162687
0003b0 25 34 52 3d c5 95 1a bb 4c 69 11 bd 96 10 68 3d
       0.05131926 -0.0023587805 -0.03550081 0.056656443
0003c0 12 a6 53 bc 90 e9 24 3c 28 ec 31 bc d3 d3 e0 bc
       -0.012918012 0.010065451 -0.010859527 -0.027444756
0003d0 12 27 30 3d f4 ad 14 bd 68 da 85 bc 8f fe db 3c
       0.04300601 -0.036298707 -0.016339496 0.026854781
0003e0 fb f5 3d bd ca 69 58 bd 16 4a 09 3d 28 64 60 bd
       -0.046377163 -0.052835263 0.03351792 -0.054783016
0003f0 6e 6a 4a bd 80 f2 00 bb fd b2 68 bd 00 ef d4 ba
       -0.049417906 -0.0019675791 -0.05681132 -0.0016245544

shared.2.bias f4 [128]
000000 ae 25 0f bd 82 48 06 3d e2 15 fe bc 85 78 84 3c
       -0.034948044 0.032783993 -0.031016294 0.01617075
000010 5f 6c 1f bd a2 36 9a bc bc fd 60 3c ac 9d 06 3d
       -0.03892171 -0.01882488 0.01373237 0.03286521
000020 5d b6 ac bb e6 74 1f bd 7e d2 13 3d d3 c2 65 3d
       -0.005270763 -0.038929842 0.036089413 0.056094002
000030 5c 5a 00 3d cd 0c 4d bd fa 65 8b bd 04 06 72 3c
       0.031336173 -0.050061036 -0.0680656 0.014771942
000040 ef c2 fb bc 5f 3e 7b bd 53 d2 29 3d 5a 6e 85 bd
       -0.0307326 -0.06133878 0.041460346 -0.065151885
000050 ff c6 33 bd 04 b1 8a bc ed 8c 4c 39 08 cf 0c bc
       -0.04389095 -0.01693011 0.00019507455 -0.008594282
000060 24 96 05 3c 4a 7e 19 bd 80 c0 b1 3c 24 22 49 bd
       0.008153472 -0.037473954 0.021698236 -0.049104825
000070 2b 75 08 3c 64 9d 86 bd c9 cc ec bc 29 de 85 bd
       0.008328716 -0.06572989 -0.028906243 -0.06536514
000080 70 dc 44 bc ac eb 8e bc 5f 20 15 3d cb 42 5a bd
       -0.012015447 -0.017446361 0.036407825 -0.053286355
000090 5b e6 db bb 4c 14 32 bd e1 0f 31 3d 71 12 26 bd
       -0.00671081 -0.043476388 0.043228034 -0.04054493
0000a0 2b e8 24 3d 68 89 bb bc 99 11 bb 3c 31 00 8e bd
       0.040260475 -0.022892669 0.02283554 -0.0693363
0000b0 f9 59 16 bd 85 e3 d4 bc 31 2c 5d bd 66 95 a4 3c
       -0.0367069 -0.025987396 -0.053997222 0.02009077
0000c0 30 2b 48 3c a9 64 be 3c 09 67 21 bc 47 72 f2 3c
       0.012217328 0.023241358 -0.009851226 0.029595507
0000d0 86 1a 19 3d d6 2b 61 bd d6 2e 3d bd c2 05 0e bd
       0.03737881 -0.054973446 -0.046187244 -0.03467346
0000e0 5a 22 3c bd 84 27 f6 3a f3 7c 25 3d 6b 58 61 3d
       -0.045931198 0.0018780087 0.040402364 0.055015963
0000f0 b8 72 2e bd 29 07 1a bb c0 95 1e 3d ac fd 90 bc
       -0.042589873 -0.0023502803 0.03871703 -0.017699085
000100 4f be ab bc 22 85 97 3c 79 fa f1 bc 80 a1 8d 3a
       -0.02096477 0.0184961 -0.02953838 0.0010805577
000110 36 36 56 3d 59 3b d5 3b fb 1b 44 3d 1f e0 0d 3c
       0.052297793 0.006507319 0.047878247 0.008659392
000120 1c c5 0e 3d 4d de 85 3c 53 e5 9f bc 4d 71 02 3d
       0.034855947 0.016341353 -0.01951853 0.031846333
000130 ba db d9 bc 42 37 b8 bc bc 2f 06 3d 12 83 26 3c
       -0.026594032 -0.022487286 0.032760367 0.010163086
000140 25 94 01 bd 75 f8 ae 3b f8 a8 2f bc a8 58 4c bd
       -0.031635422 0.005339677 -0.010721438 -0.049889237
000150 7b 62 60 bd a9 95 11 bd bc 56 1e 3d f9 6c a7 3c
       -0.05478142 -0.035543118 0.038656935 0.020437704
000160 22 e4 2b 3d 06 fb fc 3c d0 e6 00 bd 06 72 31 bc
       0.04196561 0.030881416 -0.03147012 -0.010830408
000170 9f 9c 51 3b 0c f0 5c bd 96 34 88 bc ca e9 07 3d
       0.0031984223 -0.053939864 -0.016626637 0.033181943
000180 24 c3 2b 3d a1 ca a4 3c f1 60 9c bd be f0 7e bb
       0.041934147 0.020116152 -0.076356776 -0.0038900818
000190 d4 90 3b bd c1 e4 b4 3c e6 bc 26 bd 87 15 d7 bc
       -0.045792416 0.022081735 -0.04070749 -0.026255382
0001a0 6c 31 87 bc 9d 65 15 bd ba b2 da bc 2f 20 b7 ba
       -0.016503058 -0.03647386 -0.026696552 -0.0013971383
0001b0 59 93 9a bd 70 e9 34 3d 25 88 17 3d f2 b3 14 bd
       -0.075476356 0.044167936 0.036995072 -0.03630442
0001c0 77 93 e2 3c 39 29 59 bc a2 31 ee bc d5 39 8e 3c
       0.027658207 -0.013254457 -0.029076401 0.01736156
0001d0 60 3b 86 bd 57 ff 96 bd a9 2b 66 bd 2b 0e 72 bd
       -0.06554294 -0.07372921 -0.05619398 -0.059095543
0001e0 bc 76 4f bd e9 32 42 bd 41 f3 d8 3c a7 36 8f bd
       -0.050650343 -0.047411833 0.02648318 -0.06992846
0001f0 8d 16 3a 3d d9 5b 10 3d 6b 26 18 3c e4 6a 19 bd
       0.045431662 0.035243843 0.009286503 -0.037455454

dice_policy.weight f4 [5, 128]
000000 76 74 83 3d 77 5c 96 3d c8 eb 8c 3c 0d 75 13 3c
       0.064186975 0.07341855 0.017202273 0.009000075
000010 ee c3 11 bd 45 8d 2b bd c7 d2 ae 3d a4 c0 54 3c
       -0.035587244 -0.041882772 0.08536296 0.012985382
000020 71 e3 40 bc d8 4e ac bd bd 29 67 3d 26 27 df 3d
       -0.011772976 -0.08413476 0.05643629 0.10896139
000030 e3 56 cf ba 39 97 43 3d 2c e9 81 bd 4a 6d 83 bd
       -0.0015818741 0.04775164 -0.06343302 -0.064173296
000040 46 e4 d8 bd ac 00 12 3c e9 c2 3f 3d 9f bb 67 3d
       -0.10590415 0.008911293 0.04681674 0.056575414
000050 ef 4d 2a bc 18 fd df bc 75 db 24 bd d7 fa 94 3d
       -0.010394557 -0.027342364 -0.040248353 0.072744064
000060 8c 09 48 3d 36 bf 11 3d 98 10 e5 bd f5 4a 85 bd
       0.04883723 0.035582744 -0.11184806 -0.065084375
000070 74 2e 2f bd 8d d8 1e bc 86 fb 11 bd 6c 57 43 3d
       -0.04276891 -0.009695184 -0.035640262 0.047690794
000080 42 dd 9d bd 57 d4 47 3d 2f 5b 9b bc 42 0a 14 bc
       -0.07708217 0.048786487 -0.018964378 -0.009035649
000090 3c c4 e3 3c 83 64 54 bd df 48 49 bd 79 c3 83 bd
       0.027803533 -0.051853668 -0.04914176 -0.06433768
0000a0 07 8f d4 3c b2 a8 7d bd c3 74 5b 3d 1d 97 88 ba
       0.025947107 -0.06192846 0.05357815 -0.0010421012
0000b0 d4 35 9b bd 9d e6 b4 bd 3b e5 4d 3d 7c 87 35 bd
       -0.07578626 -0.088330485 0.05026744 -0.04431866
0000c0 4b 47 67 38 5f 7f 90 3d 9b c4 d7 bd 90 16 6a bd
       5.514109e-05 0.07055544 -0.105355464 -0.057150424
0000d0 1c 9e b5 bc 3a d7 bd 3c b9 aa 65 bd cc ee ee bc
       -0.022170119 0.023173917 -0.056071017 -0.029166602
0000e0 12 a1 42 3d aa 4f 25 3d 2b c5 ab bd b3 55 4c bd
       0.04751689 0.040359177 -0.08387216 -0.049886417
0000f0 0b 78 7c 3b 15 d4 01 bc 3f f5 af bb c3 29 ab bd
       0.00385237 -0.007924099 -0.005369812 -0.08357575
000100 1f a5 8f 3b e5 e2 64 bd bb 7e 8c 3c 4b fc 56 3d
       0.0043836976 -0.055880446 0.017150274 0.0524867
000110 f7 a1 b8 3d 77 b6 ee bc 6d dc 86 bd 55 3f 60 bc
       0.09015267 -0.02913974 -0.06585012 -0.0136869745
000120 bf 84 c0 3d 10 bc ae 3c d7 3b 52 bb 06 9c 8e 3b
       0.09400319 0.02132991 -0.0032079124 0.0043520955
000130 0e 98 69 3a d8 c5 8b 3c 49 a1 9b 3c 66 9b 40 bd
       0.00089109025 0.017062113 0.018997805 -0.0470232
000140 3e 03 42 bd d3 95 89 3d 4e ec 4c bb d7 9d f6 bc
       -0.047366373 0.0671803 -0.0031268778 -0.03010456
000150 82 26 23 bd bc 76 aa 3c d5 53 53 bd b7 73 fe 3c
       -0.039831646 0.02080857 -0.05159362 0.031061037
000160 ec 67 8c bd c5 cd 9c bc 4f e1 04 bd cc 8a 11 3c
       -0.06855759 -0.019141087 -0.032441434 0.008883189
000170 00 7e 5d 3d 3d f1 80 bd 6b 52 85 3d bd a2 28 3d
       0.05407524 -0.062960126 0.065098606 0.041170824
000180 ea 65 4b 3c e2 c4 26 3d 29 df 05 3d 04 41 21 bd
       0.012414435 0.040715106 0.032683525 -0.039368644
000190 8b 70 88 3d fe d5 ae 3c 63 4c 99 3c ea 8a 88 bd
       0.06662091 0.021342274 0.018713182 -0.06667121
0001a0 c1 a0 69 bd 90 b0 56 bc 64 04 31 3c 8b 9c 18 bd
       -0.057038072 -0.013103619 0.010804269 -0.037258666
0001b0 f5 f0 68 3d 62 b6 68 3b 26 bc 70 bc b3 83 81 bc
       0.05687042 0.00355091 -0.014693296 -0.01580987
0001c0 bf 35 f0 bc 58 c4 81 bd 12 1e 1f bd 57 09 1a bd
       -0.029322503 -0.06336278 -0.038847037 -0.037606563
0001d0 29 5a 76 bd de f3 59 3d e5 dd 0f bd 52 d8 7b bd
       -0.060144577 0.053211085 -0.035123724 -0.061485596
0001e0 60 6c 2e bd d6 3d 16 bd 4f 89 8f bd 55 61 a3 bd
       -0.042583823 -0.036680065 -0.070086114 -0.07977549
0001f0 3d 06 9c bb 44 00 bd bc a7 18 a9 3d 01 2a 1f bd
       -0.004761486 -0.023071416 0.08256655 -0.038858417
000200 07 12 bb 3c f9 b7 5d 3d 9a c0 84 3d 19 82 08 3b
       0.022835745 0.054130528 0.06482048 0.0020829497
000210 ef 33 97 bd 1c 45 85 bc d8 e8 9e bc 7a 45 ca bc
       -0.073829524 -0.016268305 -0.019398138 -0.024691332
000220 dd 93 8d bd 8c fe 2e 3d 1f 08 29 bd 48 5b 68 bc
       -0.06912968 0.042723224 -0.04126751 -0.014181919
000230 99 e0 ae bc ad 58 b0 3c 1e 9a a7 3d f6 58 7a bc
       -0.02134733 0.021526659 0.081836924 -0.015279999
000240 55 61 9a bd 55 59 83 3c a9 03 df bc d8 29 f4 bb
       -0.07538096 0.016033808 -0.027223425 -0.007451277
000250 41 28 fe 3c 8c 50 75 bc e4 ae 4e 3d cc 94 4e bd
       0.031025054 -0.014972817 0.050459757 -0.050434873
000260 88 a8 b0 bd 41 67 f2 bc c4 46 a4 bd 66 15 85 bc
       -0.08625895 -0.02959025 -0.0802131 -0.016245555
000270 4b fc 98 3c d5 0d 94 3d ed f5 5c 3d a6 ec 57 3d
       0.01867499 0.07229201 0.05394547 0.05271592
000280 b7 84 a4 bd 6e d2 b1 3c 1a 97 1e 3d 32 9e d1 bd
       -0.08033126 0.021706786 0.03871832 -0.102352515
000290 95 2d 8f 3d 11 85 45 bd c1 c2 80 bd bc 26 c7 bc
       0.06991116 -0.048222605 -0.06287146 -0.024310462
0002a0 99 96 c4 bd 62 3b 7c bd 72 85 25 3c bc 66 8e bc
       -0.09599037 -0.06158007 0.010102617 -0.017382972
0002b0 5a e0 b6 3c cf 86 1c 3d 1d 86 7a 3d 53 5d 6b bd
       0.022323776 0.0382145 0.061163057 -0.057462048
0002c0 cd 3e 91 bc 7a 95 84 3d a3 bf c5 ba 96 a5 c2 ba
       -0.017730141 0.06473823 -0.001508702 -0.0014850374
0002d0 26 cb 13 bd 4b 1c 89 bd a0 c7 e7 3c 6b 84 42 3d
       -0.03608241 -0.066948496 0.02829343 0.047489565
0002e0 fe c9 b4 3d 9f a4 10 bd 76 66 f9 3c 37 46 55 3d
       0.088275895 -0.035313245 0.030444365 0.052068915
0002f0 0a 93 2f bd 68 82 66 bd ac fd 9e 3d d0 c6 24 3d
       -0.042864837 -0.05627671 0.07763228 0.040228665
000300 a8 d2 4f bd 40 59 90 bd 44 f4 17 bd b7 ed ae 3c
       -0.050738007 -0.07048273 -0.037098184 0.021353586
000310 74 68 d1 3c de 23 d1 3c 6a 3c 98 bd ba 2a fc bc
       0.025562502 0.025529798 -0.07433398 -0.030782092
000320 77 72 f4 39 1b e6 8c bd e9 b5 a6 3a cb 64 16 3d
       0.0004662459 -0.06879827 0.0012719008 0.036717217
000330 98 5c e6 3c ae c5 a1 bd 3e 38 e2 3b 56 67 72 3c
       0.028120324 -0.078990325 0.0069036772 0.014795145
000340 bb 0f b1 bd 09 fa a0 bc 72 eb 00 bd e8 50 5a bd
       -0.086455785 -0.019650476 -0.03147454 -0.053299814
000350 83 89 65 3d 78 e9 1d bc e8 eb aa bd d3 ec 9f 3c
       0.056039345 -0.009638183 -0.08345777 0.019522106
000360 36 83 bd bd 88 6d fc 3c f5 1e c9 bb 7d 42 63 bd
       -0.09253542 0.030813947 -0.0061377236 -0.05548333
000370 03 9f a5 3c 9b ed 18 3d 28 31 c9 3c 02 26 3c bc
       0.020217424 0.037335973 0.024559572 -0.011483671
000380 d4 f2 43 bd a2 1a 0e bd 6b bb 02 bc 31 50 46 bd
       -0.047839 -0.034693368 -0.007979254 -0.04841632
000390 4c a0 85 3d f3 db 71 bd de 97 99 bd 69 6b f0 3c
       0.06524715 -0.05904765 -0.074996695 0.029348092
0003a0 94 91 cd 3d 44 5e 8b bc 97 81 22 3a 25 3e ed bc
       0.100375324 -0.017012723 0.000619912 -0.028960297
0003b0 a5 d4 9e 3d bf a8 91 bc 24 4b 9f bb 39 3e 1a 3c
       0.077554025 -0.01778066 -0.0048612524 0.009414249
0003c0 e1 fd 09 3d fb 01 0d bd ac 6a 0f 3c 59 6e 92 bd
       0.033689383 -0.034425717 0.00875346 -0.071499534
0003d0 41 dd 83 3d a5 c1 c3 bb 57 8b 8c bd 59 d4 1a bc
       0.06438685 -0.005974012 -0.068625145 -0.009450042
0003e0 6e 1a 39 bd 43 17 63 bd a6 37 5b bd bf 3d 7d 3d
       -0.04519122 -0.055442106 -0.053519867 0.061826464
0003f0 da 91 43 3d 52 d4 0a bd 0f 4f 93 bc a9 30 2a 3d
       0.047746517 -0.03389389 -0.017982034 0.041550312

dice_policy.bias f4 [5]
000000 7f c5 1b 3c c8 b7 5c bd d5 29 9e bd a1 07 1a bd
       0.009507536 -0.053886205 -0.077228226 -0.03760493
000010 59 e4 4c bd
       -0.050022457

category_policy.weight f4 [13, 128]
000000 f3 88 67 3d 50 59 f3 3c f6 ca 88 bb 4e 5c 89 3c
       0.05652709 0.029705673 -0.0041745855 0.016767647
000010 14 81 d8 bd 50 a9 c8 bd 29 70 d2 bd df 77 07 3d
       -0.10571495 -0.09797919 -0.10275299 0.033073302
000020 e2 e1 c4 bd 16 04 09 bd 8a 14 04 bd c9 7d fe bd
       -0.09613396 -0.033451162 -0.03224615 -0.12426335
000030 5b e4 9f 3d 5d 29 3f 3d 1a 73 c3 3c 20 2a 35 3d
       0.07807227 0.046670306 0.023858596 0.044229627
000040 56 11 1d be 86 db 28 bd 4d ed 60 3d 8b f9 26 3d
       -0.15338644 -0.04122498 0.054913808 0.040765326
000050 09 3a 92 bd 4d 24 9b 3b 79 c5 22 bd cd f2 4b 3c
       -0.071399756 0.004734552 -0.039739106 0.012448025
000060 8a f8 5b bd 2f 4e 38 3d 88 a0 be 3a 45 59 23 bd
       -0.053703822 0.044996437 0.0014543692 -0.039880056
000070 70 34 4f bd 82 84 42 3d 1d 9e 72 3d cf 06 4a bd
       -0.050587118 0.04748965 0.05923282 -0.0493229
000080 7f 52 77 3d fa dd 07 bd 3a 87 2c bd 0e 08 96 bb
       0.06038141 -0.033170678 -0.04212115 -0.004578597
000090 1d 4d 3d bb 9e ef b3 bd 05 11 9b bd 42 5c 1e bc
       -0.0028885074 -0.08785938 -0.075716056 -0.009665551
0000a0 29 d7 8b bd 60 47 c0 bd 03 ed 81 3d 48 4e d1 bc
       -0.06828148 -0.09388614 0.063440345 -0.025550023
0000b0 59 47 80 bd aa 33 99 bd 3e 4f 17 3d f6 2a 55 bd
       -0.062636085 -0.07480557 0.036940806 -0.052042924
0000c0 9e e6 2c 3d dd c7 93 bd 53 ad 5a bc 63 36 bb 3b
       0.04221212 -0.07215855 -0.013346988 0.0057132705
0000d0 36 c5 b3 3a 1f b6 a5 3d 97 cf 96 bd 5e ff e4 3b
       0.001371539 0.080913775 -0.07363813 0.00698845
0000e0 3d 01 21 bc 1e bc 5a bc 60 11 82 3c 2a 66 10 3c
       -0.009826955 -0.013350515 0.015877426 0.00881342
0000f0 1f 4f 5a bd bf f1 24 3c 4d 54 8c bc 5d 48 a3 bd
       -0.053298112 0.010067402 -0.017130041 -0.079727866
000100 5b ba 90 bd e4 5f 00 bd e8 b6 da bd 04 df 64 bd
       -0.070667945 -0.03134145 -0.10679418 -0.055876747
000110 21 08 1d bd 84 8f c7 bc 0b d9 dc ba 21 f6 24 bb
       -0.03833783 -0.024360426 -0.0016849352 -0.0025171118
000120 4c 26 8b bd 4b 5a 57 3c 1c 63 e7 bd 06 98 b4 bc
       -0.06794414 0.013144086 -0.112982005 -0.022045147
000130 06 67 0e be 3f 96 29 3d c0 dd 2a bd 4d ec be bd
       -0.13906488 0.04140305 -0.041715384 -0.093224145
000140 76 2a 28 3d 1d 2c 3e 3d da 71 17 3d e4 37 b0 bd
       0.04105612 0.04642879 0.03697381 -0.0860441
000150 56 2d 0e 3d 6f 55 02 3d 22 18 1f bd c8 0a c3 3c
       0.034711204 0.031819757 -0.038841374 0.023808852
000160 b5 81 a7 bd 4c 94 fc 3c a5 8f d4 3c 7a f3 54 3d
       -0.081790365 0.030832432 0.025947401 0.05199001
000170 53 bd 53 3d 74 3a d2 bc b8 3c 18 3d e4 25 43 3c
       0.051694226 -0.025662638 0.03716728 0.011910889
000180 33 2e 11 bd 9e 73 9c bc a0 3e 00 bd 98 a4 8f bd
       -0.03544445 -0.0190981 -0.031309724 -0.07013816
000190 22 a6 62 3d 7b 05 b1 bd 16 24 6f 3d b2 ee 2a 3d
       0.055334218 -0.086436234 0.058384024 0.041731544
0001a0 bc c9 2e 3b e9 2a 42 bd f6 ba 06 bd 9d 08 04 bb
       0.0026670536 -0.047404204 -0.032893144 -0.0020146735
0001b0 0a 45 7c bc b8 9d 64 3d 3e ab d4 3c 3d d6 93 3d
       -0.01539732 0.055814475 0.02596056 0.07218597
0001c0 ed a1 82 3d 2f 1c 65 bc ff 5c e7 3c 86 dc 5a bd
       0.06378541 -0.01398377 0.028242586 -0.053432964
0001d0 18 0b 2a 3d 12 e8 a2 3d ba 06 0d 3d 5d 24 69 3d
       0.041514486 0.0795442 0.034430243 0.056919444
0001e0 60 71 9c bd 0e 9a 81 3d e8 f1 8c 3d 01 d2 c9 3c
       -0.07638812 0.06328212 0.068820775 0.02463627
0001f0 e6 45 90 3c b2 eb 60 3c d2 7a fd bd 1f 3a 5f bd
       0.017611455 0.013728069 -0.12376942 -0.054498788
000200 e3 6f 22 3d 19 1e 33 3d 0d 09 80 3d 1c 03 c5 bd
       0.039657485 0.043729875 0.06251726 -0.09619734
000210 07 c5 93 bd 04 db 04 3d b9 a9 d6 bd 6c 19 f6 3b
       -0.07215314 0.032435432 -0.10481591 0.0075103547
000220 18 6b 0a bd 47 24 75 bc d5 3b ad 3c e5 30 e3 bb
       -0.03379354 -0.0149622625 0.021146694 -0.006933319
000230 38 fa d1 bb c9 16 57 3d 3c 0d 25 3d 91 d8 89 bd
       -0.006408002 0.052511964 0.040295824 -0.0673076
000240 a5 69 da bd 69 08 f7 bb 80 09 53 3d c0 4b 50 bd
       -0.10664681 -0.0075388444 0.05152273 -0.05085349
000250 8d 4f 4b bd b7 ed ae bd 24 02 2a 3c 80 fb 9a 3d
       -0.049636412 -0.08541434 0.010376487 0.07567501
000260 a9 42 fe 3c bf a9 03 3d 7e db 04 be 09 6a 66 bd
       0.031037645 0.032144304 -0.12974355 -0.056253467
000270 39 25 7a 3d a3 ea 84 3c 09 fc 68 3d 77 39 46 bc
       0.061070655 0.016225165 0.056880984 -0.012098662
000280 ae bd 85 3d 07 ba 07 3d 7f d9 c5 bd 24 cd 0a bd
       0.06530319 0.033136394 -0.09660625 -0.033887044
000290 01 c1 3b bc 1f f6 3c bd 70 59 19 bd eb 46 bf 3b
       -0.01145959 -0.046133157 -0.03743881 0.0058373115
0002a0 32 41 e9 bd 4b 0e 7e bd 92 94 67 bc 35 4c b0 bd
       -0.11389388 -0.06202535 -0.014134543 -0.08608285
0002b0 bc 7b f1 ba 17 3d 96 bd 76 2c 8b 3b 34 42 dc 3c
       -0.0018423717 -0.07335871 0.0042472435 0.026887037
0002c0 9f 2a ad bd d2 99 fc bc bf 24 3e 3d ef 56 9f bb
       -0.08455395 -0.030835066 0.046421763 -0.004862658
0002d0 7a ea 0b bd ab d1 05 bd 26 ef 6d bc c6 6c e2 bc
       -0.03415916 -0.032670658 -0.014522349 -0.027639758
0002e0 cd 62 f3 bb 3e 3e 0a 3d d6 c5 9a bd 57 49 97 3d
       -0.0074275495 0.033750765 -0.075572655 0.07387035
0002f0 16 71 0a 3d 3f d5 95 3d b7 0b b2 bb 34 da e6 bc
       0.033799253 0.07316064 -0.0054335254 -0.02818022
000300 a6 af 96 bd 23 52 97 bc a3 72 05 be 95 35 10 3d
       -0.07357721 -0.018471783 -0.13032012 0.03520735
000310 d7 72 2d bc 44 85 07 bd 66 fd 8d 3c 4b 17 3a bd
       -0.010586462 -0.033086076 0.017332744 -0.04543237
000320 2b 84 0f bd e5 c9 8e bd 42 33 57 3d 43 c5 86 3d
       -0.035038155 -0.06972102 0.052539118 0.065805934
000330 51 44 d6 bd 98 e5 6a 3c 61 5f 42 3d 1b 86 19 bd
       -0.10462249 0.014336966 0.04745424 -0.03748141
000340 87 f6 f6 3c 8a e5 df 3c 31 b7 c1 bd 85 37 aa bd
       0.03014685 0.027331132 -0.09458769 -0.08311371
000350 82 24 42 3d dd 17 3b 3d be a5 41 3d eb d7 8d bd
       0.047398098 0.045677055 0.047277205 -0.06925949
000360 35 5f 91 bd e4 3a 2d bd 64 10 69 bb 4c a0 4f bd
       -0.070982374 -0.04229249 -0.0035562748 -0.05068998
000370 8b 7d a9 3c 3d f0 79 3c c9 ca aa bd 93 53 03 bd
       0.020689746 0.015255031 -0.083394594 -0.032062124
000380 67 18 1e bc fa b2 70 bc 1d f5 6a 3c 35 3a 20 bd
       -0.009649373 -0.014691109 0.014340666 -0.03911801
000390 b7 97 9c 3d 20 00 a9 bc df 0d a4 3c ec 5f 8a 3c
       0.07646125 -0.020629942 0.020026146 0.016891442
0003a0 72 fa bd bc ef f9 23 bd 28 83 5a bd fe 65 51 bc
       -0.02319071 -0.040033277 -0.053347737 -0.0127806645
0003b0 c3 7c 30 bd 36 18 54 bd 93 91 24 3d c1 11 1e bd
       -0.043087732 -0.0517809 0.040177893 -0.03859115
0003c0 b0 1a 11 3d f4 00 98 bd 5a 3a 13 bd 77 12 5f 3d
       0.03542584 -0.07422057 -0.03594432 0.05446097
0003d0 b2 6b 22 bc 46 c0 7b 3d ca 04 37 bd b7 6a 82 ba
       -0.009913372 0.061462663 -0.0446823 -0.0009950016
0003e0 fd ba 35 bd 65 22 88 3c 31 ba 34 3d f5 81 a3 3c
       -0.04436778 0.016617963 0.04412288 0.01995943
0003f0 6d 02 81 bc 5d 32 29 3d a6 34 f6 bd c1 58 2a bb
       -0.015748227 0.041307796 -0.12021761 -0.0025992843

category_policy.bias f4 [13]
000000 e4 6e dc bb d0 99 29 bc 76 53 10 3b f8 3d ee 3c
       -0.0067270864 -0.010351613 0.0022022403 0.029082283
000010 21 bf 8e bd d7 98 2c 3d 28 15 5d bb e2 23 74 3d
       -0.06970049 0.042137947 -0.0033734534 0.059604533
000020 99 e3 88 3d 3f 52 35 3d 8d 5e 8d 3d d2 df 68 3d
       0.06684036 0.04426789 0.069028 0.056854077
000030 ea 0d b7 3d
       0.08938201

value.weight f4 [1, 128]
000000 15 f0 5b 3b d8 98 a1 bd c9 79 51 3d b5 07 8f 3d
       0.0033559848 -0.07890481 0.051141534 0.06983892
000010 91 4a c8 3c e3 80 f5 bc 44 51 3f bc 95 f9 f1 3c
       0.024449619 -0.029968685 -0.01167709 0.029537955
000020 9d 11 a4 3d 9e 98 b6 bc bb d3 53 bd cf 7e 1d bd
       0.08011172 -0.02228957 -0.051715594 -0.038451012
000030 98 74 7f 3c d8 f0 97 bd 6d 3a 69 bd 23 16 25 3d
       0.015591763 -0.07418984 -0.056940485 0.040304314
000040 9e b7 80 bb 63 ab fc bc be c6 5f 3c 3e 93 4c 3c
       -0.003928139 -0.030843442 0.013658224 0.012486277
000050 be 53 45 3d c5 60 60 bd 89 93 19 bc 21 a3 fb 3c
       0.048175566 -0.054779787 -0.009373554 0.030717434
000060 6c bb b2 bd 90 a7 8b bd 7f e8 06 bd 54 33 87 bd
       -0.08727154 -0.068190694 -0.03293657 -0.06601587
000070 f1 d7 01 bd c9 eb 8d bd 09 e3 a0 3d 2c bc 17 bd
       -0.03170008 -0.06929738 0.078558035 -0.03704469
000080 70 a9 79 bc 25 18 6f bd 2c df a6 3d d7 27 8c 3d
       -0.015238151 -0.058372635 0.081480354 0.06843536
000090 f8 1f 45 3d 76 0a 2b 3d e2 f2 96 3d c8 94 24 bb
       0.04812619 0.041758023 0.07370545 -0.0025113095
0000a0 77 4b ac bd ec 15 4a 3d b8 43 92 bd 59 09 a1 bd
       -0.08412831 0.049337313 -0.071418226 -0.07863111
0000b0 57 a6 dc bc 9f 8a 4d 3d 9a db 93 3c 00 b3 45 bd
       -0.026934786 0.050181028 0.01804905 -0.04826641
0000c0 09 63 83 bc 1a 45 06 3d ef e9 6d 3a bc 2f 6f bd
       -0.016038435 0.032780744 0.00090756913 -0.058395132
0000d0 6b 16 72 bd 2c 41 f7 3c 8d f5 01 bc 93 53 85 bd
       -0.05910341 0.030182444 -0.007932079 -0.06510081
0000e0 85 d3 8a 3d 30 d0 c8 3c f3 c6 7d 3d 1b 31 89 3d
       0.067786254 0.024513334 0.06195731 0.06698819
0000f0 56 61 0f bd 0c 13 4c 3d 1a 4a 37 3d 9a 7d 67 3c
       -0.035004936 0.049822852 0.044748403 0.014129067
000100 e8 fc b0 3c 29 16 46 ba 9f f8 81 3d 53 75 87 bd
       0.02160497 -0.00075564027 0.06346249 -0.06614175
000110 67 b5 96 bc 0a 82 8d bd 74 ac 87 bd f6 a6 18 3a
       -0.018397046 -0.069095686 -0.0662469 0.0005823219
000120 fb ff 4d 3c c3 67 cf bb e7 ac 4b 3c 54 a1 d7 bc
       0.0125732375 -0.006329508 0.01243136 -0.026322044
000130 fe 3b 87 bd de 69 1c bd 78 2a d7 bb a6 d1 a6 bc
       -0.066032395 -0.0381869 -0.006566342 -0.02036364
000140 ca 58 a9 3d 3f c5 a7 3d e0 e9 b4 bd 56 f2 42 bd
       0.08268888 0.081919186 -0.088336706 -0.04759439
000150 64 63 01 bd 68 b8 8f 3d e0 d8 86 bd c5 17 54 3d
       -0.031588927 0.070175946 -0.065843344 0.05178048
000160 cd 13 80 bd a8 41 1f bb 76 58 27 bc 33 d2 20 bd
       -0.06253777 -0.0024300609 -0.010213962 -0.03926296
000170 95 95 01 bd c7 d4 32 bd 7d 70 8b 3d a5 22 05 bd
       -0.031636793 -0.04365995 0.06808565 -0.032503743
000180 b1 69 26 3d 0c ac 70 3d c8 65 86 bd 0e 35 13 bd
       0.04062814 0.058757827 -0.06562382 -0.03593927
000190 12 80 49 3d ab 7d 58 bd 5a 58 1a bd 2f db 04 3d
       0.049194403 -0.05285422 -0.037681915 0.032435592
0001a0 23 4f 14 3d e9 b2 a8 3d 53 fe 51 3c 05 6e 0d 3d
       0.036208283 0.082372494 0.012816983 0.03452875
0001b0 50 ad 34 bc ee 86 1b bd 07 59 b4 bd db 59 b3 3b
       -0.011027649 -0.037970476 -0.08806043 0.005473358
0001c0 71 45 65 3c a1 83 3e 3b 9a 07 70 bd 6b 7b 79 bd
       0.013993607 0.0029070156 -0.058601 -0.060908716
0001d0 ea 9b 57 bc 18 64 49 3d 09 59 71 bd 38 17 32 3d
       -0.013159731 0.049167722 -0.0589228 0.043479174
0001e0 72 9c 35 3c 45 fb ef 3c a4 66 b1 3b f9 9a 34 bd
       0.011084663 0.02929462 0.005413847 -0.044093106
0001f0 8f a8 eb 3c ca b2 e3 3c 97 da ef bb 66 70 7a 3d
       0.028766898 0.027795214 -0.007319759 0.061142348

exp_avg f4 [256, 23]
000000 ce 5c cf b9 8c 91 3c b9 bc 3e 39 38 5f 62 37 ba
       -0.00039551262 -0.00017983298 4.4165863e-05 -0.00069955544
000010 e2 73 10 b9 00 00 00 00 5f 30 4b 39 78 fc 02 2f
       -0.0001377608 0.0 0.00019377608 1.1913126e-10
000020 93 2b 86 b8 b9 0e 7d 3a 43 83 1f 39 15 37 18 b9
       -6.397734e-05 0.0009653378 0.0001521232 -0.00014516369
000030 67 26 69 ba 27 4a 69 ba 96 c9 82 37 53 7c c5 b9
       -0.0008893967 -0.0008899294 1.5591078e-05 -0.00037667397
000040 99 2f 3b b5 98 b7 24 ba b8 88 3a ba 00 00 00 00
       -6.973219e-07 -0.0006283461 -0.00071157096 0.0
000050 40 fe 52 b7 00 00 00 00 00 00 00 00 71 89 86 bb
       -1.2576173e-05 0.0 0.0 -0.0041057398
000060 d9 96 c3 ba 86 51 52 bb 13 3d 65 bb 72 56 73 ba
       -0.0014922275 -0.0032092049 -0.003497903 -0.0009282596
000070 00 00 00 00 66 30 91 38 7f 2e 83 b9 ff a5 d5 ba
       0.0 6.923154e-05 -0.0002502091 -0.0016300081
000080 36 d7 c9 ba 32 dc e0 bb 89 8f 84 39 ea 34 f7 bb
       -0.0015399221 -0.006862187 0.00025283944 -0.0075441496
000090 66 35 83 3b 28 c6 58 3b e3 2c bd bc 9a fe 2e bd
       0.0040041683 0.0033077095 -0.023092693 -0.042723276
0000a0 4d 91 b5 ba 02 36 62 bc 00 00 00 00 63 0c d9 b7
       -0.0013852507 -0.013806822 0.0 -2.5874184e-05
0000b0 00 00 00 00 00 00 00 00 34 20 fc ba b5 a7 f0 b8
       0.0 0.0 -0.0019235671 -0.0001147533
0000c0 10 d4 08 bb 2a b7 23 ba 84 f0 fa ba 00 00 00 00
       -0.0020878352 -0.000624525 -0.0019145166 0.0
0000d0 e9 d2 eb b6 24 26 84 b1 97 2a 47 b9 6c ff 27 39
       -7.028099e-06 -3.8460417e-09 -0.00018993985 0.00016021513
0000e0 bc 9c 0d b8 fb 32 f1 39 b3 aa 0b 3a 82 d0 5f 3a
       -3.376299e-05 0.00046005085 0.00053278654 0.0008537845
0000f0 5f 5f 84 27 ec 81 2a 3b 49 3a 8e b2 3c c0 c8 39
       3.674076e-15 0.002601738 -1.655748e-08 0.00038290198
000100 dd 32 d8 bb 00 00 00 00 4e f4 94 37 00 00 00 00
       -0.0065978603 0.0 1.7756738e-05 0.0
000110 00 00 00 00 32 62 a1 3c 6b 03 42 3c 87 d3 83 3c
       0.0 0.019700143 0.011841635 0.016092075
000120 cf 91 ac 3c 3d 25 24 3c 00 00 00 00 07 f5 9a 39
       0.02106562 0.010018644 0.0 0.00029555729
000130 4d 30 17 3a 82 42 5b 3c 89 cc 30 3c ec 08 91 3d
       0.000576739 0.013382556 0.0107909525 0.0708178
000140 64 c7 aa b9 2a 5d c1 3d 29 e3 cf 3b 00 00 00 00
       -0.00032573484 0.09441598 0.0063442183 0.0
000150 dd 1c bb 3d 20 11 ad 3d 00 00 00 00 fa 71 99 3d
       0.091363646 0.08450532 0.0 0.074924424
000160 00 00 00 00 00 00 00 00 00 00 00 00 00 00 00 00
       0.0 0.0 0.0 0.0
000170 08 d1 3c 3c 79 4b b6 3b a0 95 1a 3c ee 29 3c 3c
       0.011524446 0.0055631963 0.009435087 0.011484606
000180 54 08 d1 3b 00 00 00 00 46 9b a2 b7 1c 33 9f b9
       0.0063791666 0.0 -1.938421e-05 -0.00030364923
000190 e2 c1 b6 3b 3d 9f cb 3b 13 cd 09 3d 8a 5c f4 b9
       0.005577312 0.006214051 0.03364284 -0.00046608254
0001a0 36 0f 27 3d 65 4a 56 bb 91 44 54 b9 e2 5c 10 3d
       0.04078599 -0.0032698151 -0.00020243438 0.03524483
0001b0 a1 1c 67 3d 35 e5 b7 39 56 ef 1e 3d 00 00 00 00
       0.056423787 0.00035075253 0.038802467 0.0
0001c0 96 f8 52 36 00 00 00 00 00 00 00 00 25 93 fe 3a
       3.1437135e-06 0.0 0.0 0.0019422515
0001d0 f2 f9 17 3b ac 57 25 3b 86 fe 91 3a 71 c1 23 3b
       0.002318975 0.0025229258 0.0011138476 0.0024987126
0001e0 00 00 00 00 fb 8f 3a 3a 7b 45 bc 3a 84 16 08 3b
       0.0 0.00071167917 0.0014363969 0.0020765373
0001f0 af 8b 33 3c 4a 23 69 3b 8f 48 80 b9 50 af 6c 3c
       0.010958596 0.0035574012 -0.00024468123 0.014446095
000200 dd 36 6f 3c e5 dc 9a 22 86 c7 9d 3c ae a3 1e bb
       0.014600483 4.1975665e-18 0.01926018 -0.0024206447
000210 fe a0 40 bb 65 c1 3e 3c 00 00 00 00 c1 45 3d b8
       -0.0029392834 0.011642789 0.0 -4.5126075e-05
000220 00 00 00 00 00 00 00 00 3b 4c 2a bb b5 14 ae b9
       0.0 0.0 -0.0025985378 -0.00033203294
000230 77 27 28 bb 45 3d eb b9 dd ce 38 bb 00 00 00 00
       -0.0025658289 -0.00044868342 -0.0028199472 0.0
000240 d5 31 10 b7 00 00 00 00 aa 2b 1f ba d5 31 90 b8
       -8.594671e-06 0.0 -0.0006071875 -6.875737e-05
000250 4c 3e 34 b8 be 6b 51 38 00 00 00 00 2d 6f 24 39
       -4.2973363e-05 4.9929826e-05 0.0 0.00015681675
000260 00 00 00 00 66 4d 91 39 00 00 00 00 00 00 00 00
       0.0 0.00027714222 0.0 0.0
000270 ca 27 23 bc 00 00 00 00 00 00 00 00 00 00 00 00
       -0.009958217 0.0 0.0 0.0
000280 00 00 00 00 ae 92 d5 ba 1f 29 1f bb 07 8e 0d bb
       0.0 -0.0016294324 -0.0024285985 -0.0021599547
000290 cf 91 10 bb 30 c6 6d ba 00 00 00 00 e8 09 dc b8
       -0.0022059565 -0.0009070365 0.0 -0.00010492263
0002a0 d9 49 18 ba 03 50 21 bb 7c 99 d9 ba 12 a5 12 bc
       -0.0005809344 -0.002461434 -0.0016601528 -0.008950489
0002b0 53 a8 55 b9 be 91 29 bc 79 5b 1b bb 6f 22 4f 39
       -0.00020375969 -0.010349689 -0.0023705645 0.00019753886
0002c0 cd 0e 17 bd 46 3f 29 bc 49 5f e7 38 c2 8f 0a bc
       -0.03687935 -0.010330027 0.000110326866 -0.008457126
0002d0 00 00 00 00 65 2f 8f b6 00 00 00 00 00 00 00 00
       0.0 -4.2672496e-06 0.0 0.0
0002e0 6c e6 72 3c 5b 72 1f 3c b0 4c 3a 3c fa 92 59 3c
       0.014825445 0.009731854 0.011370823 0.013279671
0002f0 cd 79 f5 3b 00 00 00 00 1c e7 7b 39 73 11 00 3a
       0.0074913264 0.0 0.0002402332 0.00048854126
000300 ae ca 1b 3c 6f 1d 8c 3c 1c db 3c 3d ba 6f b3 b8
       0.009508772 0.017103879 0.046107396 -8.556196e-05
000310 fb f8 7e 3d 75 18 b0 3b a5 38 b3 ba 3c 5d 49 3d
       0.062249165 0.0053740093 -0.0013673498 0.04916118
000320 15 85 43 3d e4 43 9e ac e2 61 61 3d 00 00 00 00
       0.04773434 -4.4981675e-12 0.05502499 0.0
000330 8e 47 62 25 00 00 00 00 00 00 00 00 22 38 a7 ba
       1.9626619e-16 0.0 0.0 -0.0012757818
000340 9d ff 1b bb 2e 8a 91 ba a0 f1 ac bb d0 ae bc ba
       -0.002380348 -0.0011103803 -0.0052778274 -0.001439536
000350 00 00 00 00 11 0e a3 38 09 9b 6c 38 34 3f e1 ba
       0.0 7.775066e-05 5.6411172e-05 -0.0017184974
000360 0a 51 44 bb 86 df 41 bc 6f 9a 0a ba 6a 0d 81 bc
       -0.002995553 -0.011833077 -0.00052872946 -0.015753467
000370 06 8f 39 bb 06 37 70 bb f2 fd 02 bd 45 13 28 3c
       -0.0028314008 -0.003665389 -0.031980462 0.0102585
000380 1f 52 d1 b9 b6 4b fe bb 00 00 00 00 b8 32 8b b7
       -0.0003992477 -0.0077604903 0.0 -1.6593709e-05
000390 00 00 00 00 00 00 00 00 5e 97 7f ba de 32 83 ba
       0.0 0.0 -0.00097500335 -0.0010009666
0003a0 13 7a b0 ba 43 25 06 bb 94 a9 f9 37 00 00 00 00
       -0.0013464115 -0.0020468987 2.9762079e-05 0.0
0003b0 f8 1c 04 ba 90 32 1a ba e0 0c ac ba 4c 34 c7 bb
       -0.0005039717 -0.0005882168 -0.0013126396 -0.0060792323
0003c0 76 c5 e2 39 54 e7 17 3a 28 39 ce bb 9f 5f b6 bb
       0.000432532 0.00057946634 -0.0062934346 -0.005565598
0003d0 9a 27 87 3b 0c 7b 18 bd 07 d0 3c 3b 31 b6 82 3a
       0.004124594 -0.03722672 0.0028810517 0.000997251
0003e0 5a f0 9a bb 00 00 00 00 c9 47 3e 37 00 00 00 00
       -0.004728359 0.0 1.1341596e-05 0.0
0003f0 00 00 00 00 76 64 41 3b 99 8b 28 3b 6e 62 60 3b
       0.0 0.0029509342 0.0025717972 0.0034238356
