checkpoints/yahtzee_pretrain_faster/best_model.pt (torch, 783029 bytes, 19 tensors)

shared.0.weight f4 [512, 23]
000000 32 82 51 bd 4f d6 4d 3e 1c f0 7d bd 48 64 1c 3e
       -0.051149555 0.20101283 -0.061996564 0.1527263
000010 0e 0b 34 bd 10 6f fc 1e 4d a5 c7 be 88 c0 71 be
       -0.043955855 2.6727472e-20 -0.38993302 -0.23608601
000020 35 4b 8a be fa 89 7e be 79 0a 05 be b9 9c cb bd
       -0.27010503 -0.24857321 -0.12992276 -0.09942002
000030 20 04 6b 3b 31 64 64 3c e0 48 05 be 20 3f a8 3d
       0.0035860613 0.013939903 -0.13016081 0.08215165
000040 ad 3e cc 3c 4d a0 3a bd 70 e0 70 3e 70 4d fa 9c
       0.02493223 -0.04556303 0.23523116 -1.6563629e-21
000050 57 89 ea ba 6c 24 ac 9e a4 d4 0a 9f d7 0f 73 bd
       -0.0017893714 -1.8226272e-20 -2.939853e-20 -0.059341278
000060 fb 5e 87 3d 8b 1e 23 3d b1 45 db bd 2f 8d 50 be
       0.06609913 0.03982405 -0.10706652 -0.20366357
000070 79 98 c4 9f 27 85 92 3e 1c 07 9c 3e 2a 04 4a 3e
       -8.3261474e-20 0.28617212 0.30474174 0.19728151
000080 14 6d 4f 3e 3b 34 44 be 91 35 26 3e be de 58 3d
       0.20256454 -0.1916055 0.16231371 0.0529468
000090 a1 ef 96 bd 43 a9 aa 3d 3f 57 4b 3d 05 70 ae 3c
       -0.07369924 0.08333065 0.04964375 0.02129365
0000a0 2b f0 d1 3d 10 d1 a0 bb d4 c8 98 9e 46 aa 2a 3d
       0.102508865 -0.0049077347 -1.6176687e-20 0.04166629
0000b0 1e c8 6f 9f b4 9a 0c 1e ed 5b 31 3d f2 59 81 3d
       -5.0775752e-20 7.44353e-21 0.043300558 0.06315984
0000c0 05 dd 95 3d 98 9e 10 bd 43 a2 ac 3d 80 f7 1a 9e
       0.07317547 -0.035307497 0.084293865 -8.203874e-21
0000d0 4b 85 07 be 38 a3 bb 3e c7 dc 74 bf 79 e1 2a 3d
       -0.13234441 0.36647964 -0.9564938 0.041718934
0000e0 13 85 12 3d 4b c6 8b 3d 42 fc 4e be fa 63 1b 3e
       0.03577144 0.06824931 -0.20213416 0.15174857
0000f0 30 9b 7e 3d 20 fa 07 3d 58 ed 8b 3d e3 a6 63 3d
       0.062159717 0.033197522 0.06832379 0.055579077
000100 a0 f3 1c 3e dd fe 10 9d 1f 80 58 bd 94 98 89 9e
       0.1532731 -1.9190003e-21 -0.05285656 -1.4568544e-20
000110 f1 4d 6b 1f 25 86 1a 3e 14 c8 33 3d d4 44 1a 3d
       4.9827657e-20 0.15090235 0.04389198 0.037663296
000120 7c a1 b7 3c 65 3d ed 3d 8a cf 5e 9e 94 62 3c 3d
       0.022415869 0.11583976 -1.17955e-20 0.04599245
000130 7a 04 99 3c 57 8a d0 bc ea 14 4a 3c 3b aa ae 3d
       0.018678892 -0.02545659 0.012334088 0.08528563
000140 06 88 9f 3d d7 64 9c 3d 6a f4 2a 3d 4e 75 47 3d
       0.07789616 0.07636421 0.041736998 0.048695855
000150 41 4b 81 3d b6 03 34 3d 60 79 86 bb 28 08 eb bb
       0.06313182 0.04394885 -0.0041038245 -0.007172603
000160 e5 d8 13 9f fe d2 93 ba 20 94 85 9f e1 f7 03 a0
       -3.1307872e-20 -0.001127809 -5.6572743e-20 -1.1178148e-19
000170 3f ae 0f be 4d 2f 51 bd 2e 0c 12 be 26 fc 0c 3d
       -0.14031313 -0.0510705 -0.14262459 0.034420155
000180 5a 89 83 3d 78 cd 9a 1c 2a 9a ba 3e bd dc 9f 3e
       0.06422682 1.0243978e-21 0.36445743 0.31223097
000190 5a 79 6a 3e 8c 71 54 3e b0 74 43 3e ad 81 53 3e
       0.22897854 0.2074644 0.19087481 0.20654936
0001a0 23 6a c7 3c ae 28 54 3d 98 52 26 bd 51 fc 8d 3d
       0.024342602 0.051796608 -0.04060611 0.06932891
0001b0 ea f4 90 3c 64 27 a5 3d 3c 69 e1 bc c3 67 ae 9f
       0.01769491 0.08064154 -0.027516 -7.3863526e-20
0001c0 7f 5a eb 3c 4a 61 fa 9e ce ac 76 9f 36 3c 0c 3d
       0.028729675 -2.6510017e-20 -5.2235467e-20 0.03423711
0001d0 09 ae a3 3d 27 de 9f 3d fe c5 d4 3d bb e4 de 3d
       0.07992179 0.07806044 0.103893265 0.108834706
0001e0 a5 5e 88 9d e5 97 83 be 77 63 84 be ae c3 ba 3b
       -3.609676e-21 -0.25701824 -0.25857136 0.0056995964
0001f0 98 14 1d bd c1 69 31 be 61 dc 2b be 27 71 aa 3d
       -0.038349718 -0.17325498 -0.16783287 0.08322363
000200 e6 6f eb 3b 16 66 ed 3c da 20 ea 3c 9e e6 c8 3a
       0.00718497 0.028979342 0.028580118 0.0015327518
000210 ff 1e a9 3d 2f 06 25 3e 15 1a 2f 9f ce 08 db 3b
       0.08257865 0.1611564 -3.7079266e-20 0.006684399
000220 7a d2 3b 1f 16 8c 77 9d 55 e3 b2 3d d1 bb a8 3d
       3.9772892e-20 -3.27626e-21 0.087347664 0.08238948
000230 23 3e aa 3d c8 17 cf 3d cb 69 25 3e 37 8c fd 9f
       0.08312633 0.10111958 0.16153638 -1.07381634e-19
000240 12 d1 28 3d 2b f9 50 3c 47 fe b9 bc ff 00 36 3d
       0.04121501 0.012754719 -0.022704257 0.044434544
000250 ab 49 9f 3d 2a f6 ad 3d 90 60 5e 3d 65 d1 23 3d
       0.07777723 0.08494218 0.054291308 0.039994616
000260 7e fa f0 3b f3 a5 53 3d 8d ef 0a 3d 50 cb 77 bb
       0.0073540797 0.051671933 0.03391986 -0.0037810393
000270 7a d9 d7 39 4a 1b 14 20 ab f9 b7 b9 42 26 a3 9f
       0.00041170028 1.2545117e-19 -0.00035090497 -6.909648e-20
000280 68 ae f2 9e 4d 02 6a 3b 2d c5 54 3d d5 0c 29 3d
       -2.569488e-20 0.0035706938 0.051945854 0.041272003
000290 e5 80 bf 3c 5d 53 27 3d 47 15 8f 1e da 49 4b 3d
       0.023376891 0.040850986 1.5149514e-20 0.049630977
0002a0 5c 7d 87 3c 76 41 1b bc af ba 23 3d 09 97 ed 3d
       0.016539268 -0.009476056 0.039972957 0.11601073
0002b0 04 ed 95 3c 78 b9 f3 3c 75 4f 14 3d 2c a3 0e 3d
       0.018301494 0.029751524 0.03620859 0.03482358
0002c0 12 8a 3d 3d 5d 5b 10 3d 3d 70 25 bb 14 0f fe 3d
       0.046274252 0.03524338 -0.0025243901 0.1240522
0002d0 e0 16 45 9e eb a7 cb 39 c4 8e 6d 1e 8e 94 43 9f
       -1.0433824e-20 0.00038844286 1.2576199e-20 -4.1415738e-20
0002e0 a4 d0 86 3d 20 24 a4 3d 53 95 cc 3d 1a cf d1 3d
       0.06582764 0.08014703 0.09989419 0.102445796
0002f0 16 4a 06 3e f4 ba 0a 9e 7a 3b 30 3d 59 11 8d 3c
       0.13114199 -7.34432e-21 0.04302547 0.017220186
000300 ce 85 67 bb 82 b6 41 3d 36 f2 7e 3d c0 4d fb 3d
       -0.0035327557 0.047293194 0.06224271 0.12270689
000310 b0 28 48 3d ce 9f 30 3d 01 a9 67 3d 10 5e 50 3d
       0.048866928 0.04312115 0.05655766 0.050870955
000320 b0 d2 45 3d f7 a9 82 bb c3 7c 9a 3b 6f f0 82 1f
       0.04829663 -0.0039875465 0.00471458 5.5454906e-20
000330 1a 41 ef 3a 14 6a 90 9e 13 5d f3 9f dc 09 23 bd
       0.0018253655 -1.5290466e-20 -1.0306848e-19 -0.039804325
000340 e6 6c ea bd 5f 17 85 bd 23 f7 a1 3d b2 aa b8 3c
       -0.11446552 -0.06498598 0.07908466 0.022542331
000350 70 45 97 1c 6b f0 87 3e 16 20 a5 3e f9 21 94 3d
       1.0010291e-21 0.26550612 0.32251042 0.07233042
000360 f5 69 82 3e 71 22 fd 3d 2e 83 bf 3e 4c bb 42 bd
       0.25471464 0.12360085 0.3740477 -0.0475419
000370 d3 58 21 3d 6d fc 00 3e ca e8 eb 3d 55 6d a6 3d
       0.03939135 0.12596293 0.1151901 0.08126322
000380 34 44 de 3d d2 d4 43 bd 4a a5 46 a0 9d 6e 12 3d
       0.108528525 -0.047810383 -1.6825942e-19 0.03575002
000390 a1 36 00 9f 0a ca 54 9e 6a 65 f2 3d 62 40 90 3d
       -2.7150242e-20 -1.1264967e-20 0.118357494 0.0704353
0003a0 c2 77 a7 3d a7 c0 a5 3d 98 dd f7 3d 9c 24 21 20
       0.08177139 0.08093386 0.121028125 1.3649343e-19
0003b0 72 54 47 3d 1f ff a7 3c 7b ae b0 bc 9d 50 90 3d
       0.048664518 0.020507393 -0.021567574 0.07046626
0003c0 2c 47 8f 3d 7b 63 97 3d bf e2 fe 3c 67 44 30 3d
       0.06995997 0.07392021 0.03111398 0.043033984
0003d0 06 5a 12 3d 85 dd 02 3d fc 03 2e 3d 73 2c 83 bb
       0.035730384 0.03194954 0.04248427 -0.0040031015
0003e0 ad ca 0c 3d ba dc 9e 9e b1 38 a8 3a 18 f7 78 9e
       0.034372974 -1.6820191e-20 0.0012834278 -1.31801085e-20
0003f0 a4 ba 13 9f 65 76 20 bd c0 f7 a1 ba e3 e6 49 bc
       -3.1282846e-20 -0.03917541 -0.001235716 -0.012323114

shared.0.bias f4 [512]
000000 95 fe b9 3d a8 9a c7 3c f0 93 90 3d 72 45 ff bc
       0.09081761 0.024365738 0.07059467 -0.031161044
000010 98 3b 7d be e6 a2 b3 be 9a c2 21 bd bf d1 38 bd
       -0.24729764 -0.3508522 -0.039492227 -0.045121904
000020 81 63 24 bd 32 50 ac 3b 42 1c 28 bd 7a 0e 92 bd
       -0.040133957 0.0052585835 -0.041042574 -0.071316674
000030 fe f4 81 3d da eb 84 bd 3c c2 1b 3e 37 cc 1a 3e
       0.06345557 -0.064902976 0.15210813 0.15116964
000040 57 4e 1c bd 24 64 16 bd 04 2e c9 be af 9d 32 bd
       -0.03816065 -0.036716595 -0.3929292 -0.04360741
000050 1a 2f 23 bd 95 6b c3 bd 3e ae b7 bd a9 03 a2 3d
       -0.03983984 -0.09542004 -0.08968781 0.07910854
000060 d0 56 e9 bd db 2f d8 bc 9a 58 c0 bb 3a 5d bf bd
       -0.11393511 -0.026390007 -0.005869937 -0.093439534
000070 8d 12 15 bd b4 8d a2 bd 50 fb f3 bd 7e e0 95 3e
       -0.036394645 -0.07937184 -0.119131684 0.29272836
000080 fb 15 f1 bb 7e 54 bb 3c ca 3a e0 3e f3 e6 e7 bd
       -0.0073573566 0.022867437 0.43794852 -0.11323347
000090 41 c7 7a bb e9 2c 2e 3e bd 7e de be 40 60 9a 3d
       -0.0038265737 0.1700932 -0.4345607 0.075378895
0000a0 ca ab 47 3d 57 b5 9a 3d 0b 2b 2c bd 37 f7 2e bd
       0.048747815 0.07554119 -0.042033236 -0.04271623
0000b0 5d 48 61 bd aa 0a 53 3c 69 3f c6 be 15 8d dc be
       -0.05500065 0.0128809605 -0.38720253 -0.43076387
0000c0 63 ec 93 bc ca 60 83 bd b8 bc 93 3c 02 94 63 3d
       -0.018057054 -0.064149454 0.018034324 0.055561073
0000d0 6b 44 e1 bd 68 3c 12 bd 0c f0 c6 bb 4f 7f 35 bd
       -0.10999378 -0.03570214 -0.0060710963 -0.044310864
0000e0 52 c1 45 3e 86 fe ca be db 1b 2c bd b7 c7 cf bc
       0.19312027 -0.3964731 -0.042018753 -0.025363786
0000f0 29 91 a5 3e 3f ce fb bc 68 8e 48 3d d7 49 4b 3f
       0.3233731 -0.030737994 0.048963934 0.79409546
000100 33 f8 38 3e ee 73 ae be 2c 63 6e 3d 4d 00 e7 be
       0.1806343 -0.34072822 0.058200046 -0.45117417
000110 d7 b0 07 bd d7 37 4d 3e 82 ec 93 bd a4 f7 2a bd
       -0.033127632 0.20040832 -0.07222845 -0.041740075
000120 8b 72 d9 ba fd 55 0b bd de a0 51 3e 09 fc 08 3e
       -0.0016589923 -0.03401755 0.20471522 0.13377394
000130 8a a1 a7 bc d0 9e b0 bd a9 98 02 bd 4b 68 7f 3d
       -0.02046277 -0.08624041 -0.03188387 0.06235532
000140 a0 df 64 bc 10 33 14 bd 57 6d 35 bd 24 b0 cd 3c
       -0.013969332 -0.03618151 -0.044293728 0.025108404
000150 5a a6 25 3e 12 05 00 bd 66 a5 3b 3d eb ad 68 3e
       0.1617674 -0.031254835 0.045812033 0.22722594
000160 35 4e 49 bd 3e 13 2d bd ba 33 11 bd 65 79 eb bc
       -0.04914685 -0.04225468 -0.03544972 -0.028744409
000170 6f eb ba 3d 6c 31 aa be 7a 67 82 bd 2e ca 11 bc
       0.09126937 -0.3324083 -0.06367393 -0.008898301
000180 9f 84 f3 bc 4b c8 98 3d 7b 2c 81 3e 96 f8 96 3d
       -0.029726325 0.07460078 0.25229248 0.07371633
000190 f4 87 72 3d c6 b5 b1 3c 92 ac 17 be 9a 10 04 3e
       0.059211686 0.021693122 -0.14811924 0.12896958
0001a0 d1 40 61 3d 14 eb 96 bc 29 f6 c6 3d 80 ec 74 3e
       0.054993454 -0.01842264 0.0971492 0.23918343
0001b0 82 c8 2f bd 94 b1 c2 bd a7 60 15 bd 83 a1 28 3f
       -0.04291583 -0.095065266 -0.036469128 0.6587145
0001c0 ff f6 25 bd 35 d6 d0 bd 83 92 74 3e 84 6a 32 be
       -0.040518757 -0.10197107 0.23884015 -0.17423445
0001d0 22 bd 8e bd da 52 49 bd 15 62 30 bd df 4f f6 3d
       -0.06969668 -0.04915128 -0.04306229 0.12026953
0001e0 2e 65 41 be 94 68 d3 bd 2c 6e 8e bc a5 44 20 bd
       -0.18886253 -0.10322681 -0.017386518 -0.039127965
0001f0 81 50 5c 3e 8f 60 11 bd 5c 63 4c 3e a7 14 6f 3d
       0.21515085 -0.035492476 0.19959778 0.058369305
000200 9e b2 14 be 39 d4 83 bd 5b 14 0c bd 73 b3 68 bd
       -0.14521262 -0.06436963 -0.0341991 -0.05681176
000210 b3 61 37 be 16 69 da 3a 90 67 89 bd d8 2e 8f bd
       -0.17908363 0.0016663398 -0.06709206 -0.069913566
000220 57 ab 17 3e 42 9c b6 bd 0f 25 3b 3d fb 10 66 bd
       0.14811455 -0.089165226 0.04568964 -0.056168538
000230 bd c5 2e bd 79 9c 59 3d 78 23 09 3e 5b 38 3e bc
       -0.042669047 0.05312774 0.13392437 -0.011610116
000240 1b 7b 33 bd 16 85 cb bc 52 81 61 3e e2 61 a4 bd
       -0.043818574 -0.024843734 0.22021988 -0.08026482
000250 ee 99 81 3e 26 26 3a bd dc 58 0b bd c1 bd 06 bd
       0.25312752 -0.045446537 -0.03402029 -0.032895807
000260 ac 5c aa bd a3 2c 23 bd 18 03 be bd cf 80 6c 3d
       -0.08318457 -0.03983749 -0.09277934 0.05774003
000270 9d 50 10 bd 8e bf 1d 3d 9c f2 a2 bd 54 cf fa 3e
       -0.03523313 0.03851276 -0.0795643 0.48986304
000280 2c ca 84 3e 83 04 0c 3e a7 00 19 bd f9 e5 65 be
       0.25935495 0.13673596 -0.037354138 -0.22451009
000290 cf 67 2c bd 75 ea 15 bd 94 21 07 bf 1a 44 57 3d
       -0.042091187 -0.03660055 -0.5278561 0.05255518
0002a0 3f d7 20 bd 3c aa 78 bb b3 a2 57 3d cf e1 ce 3e
       -0.039267775 -0.0037943264 0.052645396 0.40406653
0002b0 c8 0b d3 bc 3c af 14 bd 54 da 12 be 4a 85 1d bc
       -0.025762454 -0.03629993 -0.14341098 -0.009614298
0002c0 ff e3 7d bd 7c fe d1 3d 3b 94 58 bd d7 0d 2e 3e
       -0.061985012 0.10253617 -0.05287574 0.16997467
0002d0 d8 8d 20 bd 76 fa 1e 3d 71 a0 d3 bc c1 0d 1b bd
       -0.039197773 0.038813077 -0.02583334 -0.037854914
0002e0 34 05 2a bd b4 6f 58 3e 8d b1 63 bc 96 89 03 bd
       -0.04150887 0.21136361 -0.013897312 -0.032113634
0002f0 c8 ac 4b 3d 1a 8c a0 3d 0d d7 c6 bd e2 a9 35 be
       0.049725324 0.07839222 -0.097089864 -0.17740586
000300 30 df 61 3e 9d f7 2b bd 96 07 5e be 7d f4 c1 3e
       0.22057796 -0.04198419 -0.21682581 0.37881842
000310 ae 21 0d bd 9c 49 3e be 6f 00 c1 be a2 e3 21 be
       -0.034455948 -0.18582767 -0.37695643 -0.15809491
000320 65 75 80 bd 99 c2 01 bf b0 43 1c bd 73 89 56 bd
       -0.06272391 -0.5068756 -0.03815049 -0.052377176
000330 31 34 9e 3e 6d 66 1c bd 52 a1 49 3e 6b 11 66 3e
       0.30899194 -0.03818362 0.19690445 0.22467582
000340 a5 7e 35 bd a9 07 32 bd cd bc 37 3d ec 19 e2 3c
       -0.04431023 -0.043464337 0.04485779 0.027600251
000350 5c ce cc bd 69 0a 79 3d f6 5b ae ba f8 25 aa 3c
       -0.100002974 0.060800944 -0.0013302553 0.020770058
000360 c6 f1 63 bd 9c cb 80 3e ad a0 02 3c 21 06 3c bd
       -0.055650495 0.25155342 0.007972878 -0.045904282
000370 a8 2a 11 bd b4 0a fd bc a5 78 19 bd bf 22 2f 3c
       -0.03544107 -0.030888893 -0.03746857 0.010689436
000380 ad 22 a7 3e 4f 60 06 3e bf 9f 27 bd 74 c8 9c bc
       0.32643643 0.13122676 -0.04092383 -0.019138552
000390 5c 79 22 bd f4 c0 b5 ba d3 c5 2d bd c0 e8 89 3c
       -0.03966652 -0.0013866709 -0.042424988 0.016834617
0003a0 d0 f6 0c bd f5 d5 b5 3b c3 28 5f bd 1a 43 96 3c
       -0.034415066 0.0055491873 -0.054482233 0.018342543
0003b0 68 fc c2 bd 36 79 0c bd 4b 3d ff 3d 1f 85 3e bd
       -0.09520799 -0.034295283 0.124628626 -0.046513673
0003c0 91 fd 89 be e5 d9 cb bc b7 82 16 3e 1d 1d 0d bd
       -0.26951268 -0.024884174 0.14698301 -0.034451593
0003d0 45 75 ba bc 01 3f 31 bd a4 77 83 bc 5b e7 9e 3d
       -0.022760997 -0.043272976 -0.01604826 0.07758971
0003e0 ab ff 20 3d a0 5c 1b bd 4a 10 38 bd 52 71 30 bd
       0.039306324 -0.03793013 -0.04493741 -0.04307682
0003f0 30 92 54 3c 74 32 c0 bc 84 38 06 bd 54 fc c7 3d
       0.012974307 -0.023461558 -0.03276874 0.09764925

shared.1.weight f4 [512]
000000 84 ae 6a 3f 93 a4 21 3f bc f5 3e 3f db 97 cd 3c
       0.9167254 0.63141745 0.7459371 0.025096824
000010 c7 e4 45 3f 7e 8f 23 3f cb 09 06 3d 19 d1 11 3d
       0.7730221 0.63890827 0.032724183 0.0355998
000020 0b 4b c2 3b fe b8 53 3f b1 ac e6 3b a0 0d 6c 3f
       0.005929356 0.8270415 0.0070396294 0.9220829
000030 cf 7f 5d 3f 55 5d 8f 3d e5 7c 47 3f ef 5a 52 3f
       0.86523145 0.070002235 0.7792495 0.82170004
000040 b6 f0 9f 3c 52 bc ac 3e 7c 67 34 3f 9b 2b 8e 3b
       0.01952396 0.33737427 0.70470405 0.0043386943
000050 7b 2a 75 3c 8d 57 0c 3f 71 0a 56 3e ee 46 06 3f
       0.014963741 0.5482109 0.2090242 0.5245198
000060 45 02 0b 3f 10 19 12 3e 72 f9 54 3e 30 90 46 3f
       0.5430034 0.14267373 0.20798281 0.7756376
000070 63 68 05 3d 65 c9 9d 3e f0 01 f3 3e d7 d5 5f 3f
       0.032570254 0.30817714 0.47462416 0.8743567
000080 83 02 a9 3e 80 26 f8 3e 09 4f 3c 3f 0c d0 6b 3f
       0.3300973 0.48466873 0.735581 0.9211433
000090 a1 f4 f7 3e 29 85 17 3f 34 ed 1e 3f f0 29 93 3e
       0.48428825 0.5918756 0.62080693 0.28742933
0000a0 83 67 0c 3f 3c 66 1a 3f d6 42 9d 3c a1 6e cd 3e
       0.54845446 0.6031225 0.019196909 0.40123466
0000b0 69 f6 00 3f 5d d9 a1 3e 2a 09 38 3f 7e b0 46 3f
       0.5037599 0.31611148 0.71888983 0.77613056
0000c0 d2 95 ea 3d b5 33 8e 3f a6 9a 5b 3e 04 0d 0f 3f
       0.11454357 1.110953 0.21445712 0.55879235
0000d0 77 47 7f 3f 2f 50 4c 3d 04 28 02 3f 59 1c 8f 3c
       0.9971842 0.049881157 0.5084231 0.017469572
0000e0 5f 5c 37 3f c9 2f 40 3f 5a f7 eb 3b 27 e8 48 3e
       0.7162532 0.75072914 0.0072011175 0.19619809
0000f0 60 fa 46 3f 3a 55 7c 3e f8 71 4e 3f c1 ed 65 3f
       0.7772579 0.24641886 0.8064265 0.8981591
000100 16 f7 5f 3f fe 54 61 3f d2 a3 31 3f 59 53 82 3f
       0.874864 0.8802031 0.69390595 1.0181686
000110 7c 2f fc 3d 71 0f 76 3f 59 7f fb 3e f9 0e d1 3c
       0.123137444 0.9611731 0.49120596 0.025519835
000120 9b 80 fa 3e 99 02 c6 3c e5 91 28 3f be 89 4f 3f
       0.48926243 0.02417116 0.6584762 0.8106955
000130 94 1d bf 3d 6a b3 cd 3e 1e 43 83 3d 85 a7 1a 3f
       0.093318135 0.40175945 0.06409286 0.60411865
000140 0e 30 10 3e 66 e1 28 3e e4 4d 8e 3a 0b 5c 9b 3e
       0.14080831 0.16492233 0.0010856953 0.3034366
000150 02 90 49 3f 6c 4c aa 3d c3 69 82 3e 8e 2b 2d 3f
       0.78735363 0.083153576 0.25471315 0.67644584
000160 71 16 2f 3f 6a fe f3 3b ac bb 7e 3f 17 1b 0d 3e
       0.6839362 0.0074461 0.99505115 0.13779865
000170 50 4b 5f 3f 61 4f 5b 3f b7 9e c5 3e ea 78 3f 3f
       0.8722429 0.85668 0.38597652 0.74793875
000180 dc 4a 6d 3f 01 6a 5d 3f 93 37 5f 3f cf c4 01 3f
       0.9269235 0.86489874 0.87194175 0.5069093
000190 4f 20 04 3f 77 84 16 3f ff 22 72 3f 27 ff 3a 3f
       0.516118 0.58795875 0.9458465 0.7304558
0001a0 67 2d 6e 3f 03 e3 b3 3e 1a 36 03 3f b5 e6 70 3f
       0.9303803 0.35134134 0.5125443 0.9410203
0001b0 5d b9 9b 3c 08 16 14 3f 44 6d 9b 3e b0 8e 33 3f
       0.019009287 0.57846117 0.303568 0.701396
0001c0 37 6e b5 3d c4 a8 df 3e 7d 69 08 3f 86 8d 66 3f
       0.088589124 0.43683445 0.5328596 0.900597
0001d0 f3 08 42 3e 9e 22 88 3e 4b 65 f8 3b 4b 23 40 3f
       0.18948726 0.2658891 0.0075804344 0.7505385
0001e0 5b a3 de 3e 92 e5 f5 3e 63 13 0f 3f 5a eb 54 3c
       0.43484005 0.4802671 0.55888957 0.012995565
0001f0 b4 1b 56 3f 89 54 43 3f 7f 90 55 3f 96 7e b1 3e
       0.8363602 0.76300865 0.8342361 0.3466689
000200 c4 a8 f8 3e dd 92 8d 3f 34 01 5f 3d 20 3d 26 3e
       0.48566258 1.1060444 0.054444507 0.16234255
000210 14 7b 01 3f fe b6 10 3e d1 24 7b 3f 28 e7 b7 3e
       0.5057843 0.14132306 0.9810305 0.35918546
000220 1b 0a b9 3e 49 ca 8a 3e df 5c 90 3e 39 36 27 3f
       0.36140522 0.27107456 0.28195855 0.6531711
000230 a6 dd 02 3d 79 57 b4 3e 91 3e e9 3e 3d 59 1f 3f
       0.03194966 0.35222986 0.45555547 0.6224554
000240 88 e3 34 3c a4 3d a4 3e 4e 68 6d 3f 10 7f dc 3e
       0.011040576 0.32078278 0.9273728 0.4306569
000250 e7 b5 03 3f 99 a0 d2 3b 05 32 12 3d 26 cd d6 3d
       0.51449436 0.006427836 0.035692234 0.10488348
000260 e4 ed 99 3e 09 05 2c 3d bc d5 97 3e 37 b0 cc 3e
       0.3006431 0.04199699 0.29655254 0.3997819
000270 09 aa b5 3e 8e de 98 3e 26 46 dc 3e 11 31 4a 3f
       0.3548129 0.29857296 0.4302227 0.7898112
000280 da b2 80 3f b7 17 10 3f c8 18 aa 3d b5 ea 53 3f
       1.0054581 0.56286186 0.08305508 0.8278001
000290 c7 ba 0b 3c c8 5c 08 3e b7 23 57 3f 3c 16 1f 3f
       0.008528418 0.13316643 0.8403887 0.621433
0002a0 38 d3 a6 3e 76 ee 5e 3f 1b 95 a5 3e d7 8e 0e 3f
       0.32583022 0.8708261 0.3234032 0.55686706
0002b0 46 fa ac 3e 3a 24 d7 3d e3 5b 48 3f ad b4 74 3e
       0.33784693 0.105049565 0.7826521 0.23897047
0002c0 91 c8 57 3f b7 96 41 3f 9e 52 4f 3e 29 bf 33 3f
       0.84290415 0.756206 0.2024636 0.7021356
0002d0 2c a2 81 3d 24 7c 54 3e 8c 52 41 3e 79 e8 ff 3d
       0.0632976 0.20750481 0.18879145 0.124955125
0002e0 f1 20 0d 3c 43 05 3c 3f fc 5a 39 3f 05 d5 d8 3d
       0.008613811 0.7344553 0.72404456 0.10587505
0002f0 02 91 11 3f 2a af 27 3f c7 fd 82 3f 17 0c 9e 3e
       0.5686189 0.65501654 1.0233697 0.308686
000300 51 ba 26 3f c7 0e 69 3f f6 8f 52 3f f7 aa 7c 3f
       0.65128046 0.91038173 0.82250917 0.9869837
000310 8b df 61 3d 8f 96 38 3f 62 a9 86 3f ff ed 01 3f
       0.055144828 0.72104734 1.0520442 0.5075378
000320 58 80 09 3e c1 e2 4b 3f 92 11 8b 3d c4 d1 9c 3e
       0.13427866 0.79642874 0.06790461 0.30628788
000330 46 b8 50 3f 59 26 52 3c 96 73 68 3f 76 4b 48 3f
       0.8153118 0.012826526 0.9080137 0.78240144
000340 9e a8 27 3b 11 6b 5b 3c 2a 76 4c 3f c6 8e 38 3f
       0.0025582681 0.013392226 0.79867804 0.72092855
000350 ef 59 88 3f 4e e9 4c 3e e0 17 61 3e 56 f0 29 3e
       1.0652446 0.20010874 0.21981764 0.16595587
000360 29 b5 48 3f 6f 38 2a 3f 1f c0 ed 3e 90 75 75 3b
       0.7840143 0.6649236 0.4643564 0.0037454106
000370 ce f1 5c 3d 4e a1 11 3e 90 01 f8 3d 29 0c 50 3f
       0.05394154 0.14221689 0.12109673 0.81268555
000380 f5 81 5b 3f 37 7c 2b 3f bb 59 b2 3d a6 7a bb 3d
       0.85745174 0.6698641 0.08708521 0.09154253
000390 00 bd b6 3c e0 7f 17 3f ee 2e 9f 3d c8 b2 50 3e
       0.02230692 0.59179497 0.07772623 0.203807
0003a0 27 fd 2e 3d 35 fd 5a 3e 57 93 87 3e c4 e8 f6 3e
       0.042721894 0.21385653 0.264796 0.4822446
0003b0 31 12 89 3e 3b d6 87 3d b9 fd 1a 3f 23 f1 2d 3c
       0.2677169 0.06632658 0.605434 0.0106165735
0003c0 ac 25 47 3f f1 c7 2a 3f 95 df 6b 3f e7 74 18 3e
       0.7779186 0.66711336 0.92138034 0.14888345
0003d0 26 56 1f 3f 48 68 d6 3b 09 12 73 3e 01 29 df 3e
       0.6224083 0.006543193 0.23737349 0.4358597
0003e0 48 15 b1 3e 6a 67 af 3c da 31 ca 3c f4 46 20 3c
       0.3458655 0.021411616 0.024681974 0.009782542
0003f0 33 96 b3 3e 62 80 ba 3d 2b 28 1a 3d f0 51 c8 3e
       0.3507553 0.09106518 0.037635963 0.39125013

shared.1.bias f4 [512]
000000 b9 94 b5 3c 79 23 67 bd ec 31 0d bd 6e 29 10 bd
       0.022165643 -0.056430314 -0.034471437 -0.03519576
000010 95 1d 9f bc 2b 33 e6 bd d5 49 ee bc 73 ef 74 bd
       -0.019423285 -0.11240228 -0.02908794 -0.05979867
000020 71 7c 71 bc d3 32 c4 3c ec 46 ea bc 27 b4 7e 3d
       -0.014739142 0.023950016 -0.028598271 0.062183525
000030 b9 92 5b 3c ed 0c 9e bd 8d f8 2c 3d 83 aa 2b bd
       0.013401681 -0.07717309 0.042229224 -0.04191066
000040 fe e2 04 bd ed 49 58 bd f0 5d 7f bd 6d b5 82 bc
       -0.03244304 -0.052804876 -0.062345445 -0.015955651
000050 03 fc bd bc 25 a8 8f bd 21 35 86 bd 97 27 34 bd
       -0.023191458 -0.07014493 -0.06553102 -0.04398307
000060 34 86 7f bd 97 66 bf bd 75 29 e2 bd 10 38 81 bd
       -0.062383845 -0.09345739 -0.110430636 -0.06309521
000070 2a 7e 09 bd 6d cb 00 bc 05 3d 22 bd 80 2b 94 bc
       -0.033567585 -0.0078610005 -0.039608974 -0.018087149
000080 17 72 da bc 61 dd ee bd f8 49 eb bd a4 2e 37 3d
       -0.02666573 -0.116633184 -0.11488718 0.044722214
000090 4c b1 be bd bf 49 cd bc 1b 8e af bd 59 b4 90 3c
       -0.093111604 -0.025059579 -0.08572026 0.017664121
0000a0 f2 4a 04 bd 1a 3d 3e bc 13 4c 02 bd 42 75 fd bd
       -0.032298036 -0.011611247 -0.03181083 -0.12375881
0000b0 7f cc c7 bc 9f e1 64 bd 15 38 59 bd a9 a0 25 3d
       -0.024389504 -0.05587923 -0.053032 0.04043642
0000c0 78 80 a4 bd 73 7a ca 3c 44 af 3e bd ec 0f 61 bd
       -0.08032316 0.024716591 -0.046553865 -0.054946825
0000d0 96 65 d5 3c 08 1b 46 bd 28 29 5e bd 6a 8e 17 bd
       0.026049417 -0.048365623 -0.05423847 -0.03700105
0000e0 cb ab 48 bd 61 cd 9a bd e2 1a 17 bd 26 42 a7 bd
       -0.04899196 -0.07558704 -0.03689087 -0.08166914
0000f0 8a 77 9a bd 48 ad bb bd bc 4f e5 ba aa d6 bd 3c
       -0.075423315 -0.0916391 -0.0017495076 0.023173649
000100 75 68 ef 3b cd 95 02 bc 36 09 20 bd 44 84 96 ba
       0.0073061534 -0.007970286 -0.039071284 -0.001148351
000110 1c b1 83 bd 3b 59 1b 3d ed 77 40 3b ca 8f 31 bd
       -0.06430265 0.037926894 0.0029368356 -0.04335002
000120 08 08 0b 3c 3a 96 10 bd eb 46 7d bd 0e 0a 39 3d
       0.0084858015 -0.035299517 -0.06183521 0.045175605
000130 2b e0 85 bd f7 af 9d bd 68 ca 3f bd e9 45 be 3c
       -0.06536897 -0.07699578 -0.04682389 0.023226695
000140 72 c6 3a bd 0e 40 ea bc 3e 87 42 bc 04 7a ae bd
       -0.04559941 -0.028594997 -0.011873065 -0.085193664
000150 77 c3 d5 bc c3 83 2f bd 82 5d d1 bc 46 7a cc bb
       -0.026094181 -0.042850267 -0.025557283 -0.006240162
000160 46 ab d5 bc c8 2d ea bc 79 db 8d bc cb 28 80 bd
       -0.026082646 -0.028586283 -0.017316567 -0.06257781
000170 b3 f7 69 3c 31 85 ce bd 0c 07 c1 bd a7 05 48 bc
       0.0142802475 -0.10083998 -0.09425172 -0.012208379
000180 aa 98 26 3d a7 1b 49 3c 0e de 7a bb 37 1e 42 bc
       0.040672936 0.012274659 -0.0038279328 -0.011848024
000190 9c bc 41 bd d0 14 d8 bb 25 70 c9 ba 62 db 4b b9
       -0.047299013 -0.006594278 -0.0015368505 -0.00019441315
0001a0 86 ab d0 3c ee d8 a2 bd 81 59 a5 bd f6 20 a7 3d
       0.025472414 -0.07951532 -0.08073712 0.08160584
0001b0 1b 78 20 bd 42 b7 0e 3d ce d9 66 bd d1 9a 35 bd
       -0.03917704 0.034842737 -0.05636006 -0.044337098
0001c0 dd 5c bf bd fa 27 ba bd 09 65 c7 bd 58 97 9f 3b
       -0.09343884 -0.09089656 -0.09736068 0.0048703365
0001d0 a3 12 8d bd 48 0b fe bd 14 22 c0 bc 19 0e a7 bc
       -0.0688832 -0.124044955 -0.02345375 -0.020392464
0001e0 c1 18 8a bd fb 32 86 bd 47 c1 8f bd ef 3e cf bc
       -0.06743003 -0.065526925 -0.070192866 -0.025298564
0001f0 10 ad 6b 3c 8c d6 cd bc 7d ec 70 bd 4d bc da bd
       0.014384523 -0.025126718 -0.058819283 -0.10680447
000200 52 48 44 3b 66 52 9a bb c2 c7 89 bd 9c d8 e6 bd
       0.0029950333 -0.0047095297 -0.06727554 -0.11271784
000210 24 04 72 bd 45 10 bf bd 75 56 44 3c 5e e5 7d bd
       -0.05908598 -0.09329275 0.011983504 -0.06198632
000220 8c 18 c9 bd 43 a6 55 bd 68 45 aa bc d8 52 99 bd
       -0.09819135 -0.052160513 -0.020785049 -0.07486504
000230 2f f7 71 bd d0 fb 11 bd 72 70 b4 bd c9 ef b0 bd
       -0.059073623 -0.035640538 -0.0881051 -0.086394854
000240 34 f4 d1 bc a3 c3 7b bc e8 fa 55 3d b7 15 38 3d
       -0.02562914 -0.015366468 0.052241236 0.044942584
000250 30 64 08 3a 89 d1 ac bc b9 8c 19 bd 47 1d 88 bd
       0.00052029174 -0.021096008 -0.03748772 -0.06646209
000260 14 7c a6 bd 12 68 39 bd 2e 3a 01 bd a0 46 b2 3b
       -0.08129135 -0.045265265 -0.031549625 0.005440548
000270 ca da 06 bd 46 2e 58 bd a2 00 80 bd 02 a3 89 bc
       -0.032923497 -0.052778505 -0.06250121 -0.016801361
000280 11 8e 61 3d a7 60 c2 3c 8f b6 4e bd 5d 95 71 bd
       0.055067126 0.023727728 -0.05046707 -0.058980335
000290 50 ec b1 bc a2 a4 ee bd 54 58 b6 bc c9 46 cb bb
       -0.021719128 -0.11652495 -0.022258915 -0.0062035066
0002a0 d5 0d b5 bc e6 2a 62 3d f3 66 f4 bc 22 24 73 bd
       -0.022101322 0.055216692 -0.029834246 -0.05936063
0002b0 b8 2b 60 bd 17 3e a3 bd 23 9c b4 bd 85 27 74 bb
       -0.054729193 -0.07970827 -0.08818843 -0.0037255
0002c0 5f 40 96 3c b8 70 01 bd 18 e4 03 be 68 b1 b0 3d
       0.018341241 -0.031601638 -0.1287998 0.086275876
0002d0 bc 26 8d bd c0 43 96 bd d4 df 81 bd 35 6f b9 bd
       -0.068921536 -0.07337141 -0.0634152 -0.09054414
0002e0 dd 52 9b bc 47 48 64 3d 42 45 44 3d 38 9a 70 bd
       -0.01896041 0.05573299 0.047917612 -0.058740824
0002f0 2d 4d 9f 3b 82 61 aa bd c1 02 9e bb 7b f2 db bd
       0.004861495 -0.083193794 -0.0048221056 -0.10739609
000300 5a c4 0e bc 7a b6 96 bd 25 f5 9b bd 4d 9a 8d 3c
       -0.008713806 -0.073590234 -0.07615117 0.01728549
000310 8e 94 6c bd f4 3a 83 bd a4 ca 2b bc 79 2b ab bd
       -0.05775886 -0.06407729 -0.010485325 -0.08357901
000320 36 40 56 bd 4e ba dc bd 36 4b 91 bd f1 4d a1 bd
       -0.05230733 -0.10777722 -0.070944235 -0.07876194
000330 62 7d 8f 3d 69 3d fa bc e6 53 f0 3c 75 d4 0a 3c
       0.07006337 -0.03054686 0.02933688 0.008473505
000340 b3 b1 fa bb 88 15 bb bc 3d 38 04 bd a8 ee 18 3d
       -0.007650578 -0.022837415 -0.032280196 0.037336975
000350 73 c0 26 bd fa c7 2c bd d9 df ce bc 6a ff a9 bd
       -0.040710878 -0.0421829 -0.025253223 -0.083006695
000360 89 74 85 bd 0d e5 36 bd d8 46 ae bd 9d 6a 8c bc
       -0.06516368 -0.044652034 -0.08509606 -0.01714068
000370 42 09 77 bd d6 3e a2 bd a5 bf a1 bd 1c 92 9a bc
       -0.060311563 -0.07922141 -0.078978814 -0.018868499
000380 15 2d 26 3c d6 28 9f bd 47 04 47 bd 73 ab 61 bd
       0.010142584 -0.07771461 -0.048588064 -0.055095147
000390 d5 ee f8 bc bf 62 a6 bd a4 96 78 bd 11 cc 78 bd
       -0.030387321 -0.08124303 -0.060690537 -0.060741488
0003a0 75 22 6f bd 61 fd 5c bd e5 aa 34 bd cb 8e 8a bd
       -0.05838247 -0.05395258 -0.04410829 -0.06765517
0003b0 f5 cd b4 bd df 07 88 bd e8 9e 6e bd b4 f1 c8 bc
       -0.08828346 -0.06642126 -0.058257014 -0.024529316
0003c0 a8 28 b9 bd b9 da ac 3c 08 c3 85 bc de 52 98 bd
       -0.09040958 0.021100389 -0.01632835 -0.07437681
0003d0 4f 6c c5 3c 81 21 69 bc c3 43 4f bd 61 e1 c7 bb
       0.024099497 -0.014229179 -0.050601732 -0.0060998653
0003e0 3f 11 db bb d8 e6 19 bd 32 53 4d bd 4f c4 9c bc
       -0.0066854055 -0.037573665 -0.05012817 -0.019136576
0003f0 6f 68 47 bd 95 6c b4 bd 1a 06 48 bd 01 e5 26 bd
       -0.04868358 -0.08809773 -0.048833944 -0.04074574

shared.3.weight f4 [256, 512]
000000 55 ce 23 3d f9 a5 a7 bd 3e 74 54 be 69 c0 75 ba
       0.039991695 -0.08185954 -0.20747468 -0.00093746796
000010 82 2a 4a 3c 6d 56 8b 3d 13 79 f7 ba dd e6 b6 b9
       0.012339236 0.06803594 -0.0018880687 -0.00034885752
000020 23 15 99 b4 36 fb 80 be 95 b0 f8 36 d3 3b 8d bd
       -2.851385e-07 -0.2519166 7.411533e-06 -0.06896176
000030 d4 ee 24 be 20 8b 52 b7 7d 5e ea 3d da 9c 88 be
       -0.1610673 -1.2549368e-05 0.114438035 -0.26682168
000040 8f b3 12 b8 4e f7 e5 3d d7 b8 c3 3d 41 28 b5 29
       -3.497634e-05 0.1122881 0.0955674 8.0449976e-14
000050 a8 77 3f 32 4e 03 ff 3d d7 ec 5d 3d cb c8 19 be
       1.114487e-08 0.12451802 0.054180946 -0.15018003
000060 98 f5 db 3c 43 6f cc bb 98 79 ea 3c 7d ca 06 3d
       0.026850507 -0.0062388494 0.028622434 0.03290795
000070 6d e4 c4 39 29 71 cd 3d f5 15 72 3c 1d 08 2c 3e
       0.00037554224 0.10031349 0.014775743 0.1679997
000080 e7 0e 97 bc 6d 38 86 bd 32 bc 32 bd 51 29 c9 3c
       -0.018439723 -0.06553731 -0.04363651 0.024555834
000090 de b5 a6 bd e6 c4 3a bc b7 f3 22 bd f5 b3 68 3b
       -0.08140157 -0.011399483 -0.039783206 0.0035507653
0000a0 7a 54 ad 3d 0d b5 ac bd ef 7b f8 b5 8d 73 b2 3c
       0.08463378 -0.0843297 -1.8513509e-06 0.021783615
0000b0 65 24 5e 3d ca 72 68 bd c8 8e d3 bd 3c 77 83 3e
       0.054233927 -0.056750096 -0.10329968 0.25676906
0000c0 ce 84 65 bc 55 95 83 3e 86 20 f0 bc 9e 58 4c be
       -0.014008714 0.2569987 -0.029312383 -0.1995568
0000d0 c3 d5 27 bd 0b 86 f4 bb 40 de 37 bc e6 23 77 b4
       -0.040975343 -0.007462268 -0.011222422 -2.3016727e-07
0000e0 e2 ff 04 3e 22 c8 1e be 55 ee 59 b2 2a 04 41 bc
       0.12988237 -0.15506032 -1.2685253e-08 -0.011780778
0000f0 5b 70 fd bb 35 47 06 bc 06 bf 75 3e 78 eb 2d bc
       -0.007734341 -0.008195688 0.23998651 -0.010615222
000100 7d 21 08 be 44 ac a8 bc f0 86 db 3c 8d 81 e5 bd
       -0.13294025 -0.020589955 0.026797742 -0.112063505
000110 5b 6a b8 bc e3 63 93 be dc cb 04 3e 95 ee 12 b5
       -0.022511652 -0.28787145 0.12968391 -5.473642e-07
000120 a5 c7 03 bd 4b 23 b2 b9 04 2c b9 bd 4d 3c 12 be
       -0.032172818 -0.000339771 -0.090415984 -0.14280815
000130 30 98 11 bc 96 90 4f 3d c9 86 04 ba 6a ae b5 3d
       -0.008886382 0.050674997 -0.0005055485 0.088711575
000140 c8 3e a3 bc 62 3c 9a bc 11 3f db 29 1a 5f f9 bc
       -0.019927397 -0.01882762 9.736494e-14 -0.030440856
000150 1d 01 10 3e 22 e2 cd bb 17 fa 15 3d 0e 90 a5 bd
       0.14062925 -0.0062830606 0.036615457 -0.08084117
000160 79 7d 52 3c fa d3 44 36 c2 96 12 3b 5c 1c 30 bc
       0.012847298 2.9329663e-06 0.002236769 -0.010748949
000170 45 c1 07 3e 5a ec 0a bd 54 67 26 3d 2c 76 83 bd
       0.1325732 -0.03391681 0.040625885 -0.06419024
000180 7d 3e 44 3e 32 b3 39 3e da 6e 9e 3d fb 5d c5 3c
       0.19164462 0.18134764 0.07735987 0.024092665
000190 ae 3e 31 be 78 fc 3d bd 59 27 37 be d0 58 84 3d
       -0.17309067 -0.04638335 -0.17886104 0.06462252
0001a0 f8 af 45 3d b8 49 0e ba 5b 7e 55 bd 59 c5 ec bc
       0.04826352 -0.0005427855 -0.052122455 -0.028902696
0001b0 b0 a7 41 39 ca 26 b0 bc 83 5d d2 bc 91 80 e9 39
       0.00018468383 -0.021502871 -0.025679355 0.00044537013
0001c0 84 b7 ee ba b0 de 03 be af 56 e5 3b 12 f7 f8 bc
       -0.0018212651 -0.12877917 0.006998859 -0.03039125
0001d0 34 4a 46 3d d9 ef 18 bc e6 f2 8b b5 3c 21 12 3e
       0.04841061 -0.009334528 -1.0427e-06 0.1427049
0001e0 64 2f 22 3a 42 21 7b bc 88 bf 6b be 9f d8 f3 37
       0.00061868713 -0.0153277535 -0.23022282 2.906873e-05
0001f0 b8 6f aa 3c d9 85 62 bd c9 be 2d 3e 61 58 26 3d
       0.020805225 -0.05530343 0.1696731 0.04061163
000200 55 f4 55 be 3a 8b 38 3c 69 e0 e9 b9 e3 8b 00 bd
       -0.20893987 0.011263663 -0.00044608422 -0.031383406
000210 52 d1 58 3c 84 bf c4 bb 18 db bb bc ce 31 eb bc
       0.0132335 -0.0060042758 -0.02293162 -0.028710272
000220 a1 aa 43 bd da 65 5a 3d 03 c7 3b bd b6 83 5d bd
       -0.047770146 0.05331979 -0.04584409 -0.054080687
000230 44 20 b0 b9 f8 51 b8 bc 6c c5 0e 3e 3b 07 a6 3d
       -0.00033593376 -0.022500023 0.13942498 0.08106848
000240 af 2f 1a af 0e 0f 1b bc e1 8b 3c 3e 39 07 8e bc
       -1.4023159e-10 -0.009464039 0.18412735 -0.017337428
000250 b1 a0 76 3c 5b 8e b9 30 aa 92 c4 ba 34 7e 2c bc
       0.01505296 1.3500981e-09 -0.0014997323 -0.010528136
000260 3f ba f8 3c a4 16 8d ba 9c 4f 60 3d 69 14 ce 3b
       0.030362247 -0.0010764194 0.05476342 0.006289054
000270 48 bc ba 3b 95 5a 18 3d 64 aa 8a 3d ea bf e6 bd
       0.0056987144 0.03719576 0.06770781 -0.112670735
000280 20 3a 91 bd 8a b4 c8 bd 17 44 57 bb 76 62 1a 3e
       -0.070911646 -0.0980006 -0.0032846981 0.15076622
000290 79 a4 19 b8 ca 93 ef bb a6 58 09 3e 43 51 b8 3d
       -3.663122e-05 -0.007311319 0.13412723 0.089998744
0002a0 ae 68 e2 3a 61 d9 8a bd 56 eb 18 bc 0a 31 37 3c
       0.0017273629 -0.06779743 -0.009333452 0.011181125
0002b0 13 a3 fa bd 2d 6b a6 bb 6e 8c ba 3c 35 5a 2a bd
       -0.12238135 -0.0050786943 0.02277204 -0.041589934
0002c0 f8 09 96 3d 3c 6e a6 3d 64 1c 75 bc 0b de ce bc
       0.0732612 0.08126494 -0.014960382 -0.025252363
0002d0 bf 48 f7 ba 6f 2e ab 3c 25 55 6d bb 68 bd a8 bc
       -0.0018866285 0.020896165 -0.003621408 -0.020598128
0002e0 e6 41 d7 b3 ce 18 06 be e6 3d f3 bd ad 17 71 bb
       -1.00237045e-07 -0.130954 -0.118770406 -0.0036787794
0002f0 aa 17 f5 bd 97 18 4c bd e3 9f 69 be 7e 02 c3 bc
       -0.11967404 -0.04982814 -0.22814898 -0.0238049
000300 e2 ff 6a bd 25 ef 9a bd 8a 6e fd bc c3 52 df 3c
       -0.057372935 -0.075651444 -0.030936498 0.027261144
000310 4f 6c 25 ba 14 d5 98 bb 2a d6 73 3d 6b 81 75 bd
       -0.000631039 -0.0046640728 0.059530415 -0.059937876
000320 f0 80 00 bc 77 0a 36 be d9 25 05 bb 67 3b 55 bd
       -0.007843241 -0.1777743 -0.0020316748 -0.052058604
000330 01 d5 41 bc bf d9 b8 b6 d0 db a1 bc 1f 13 db bd
       -0.011830569 -5.5089763e-06 -0.019758135 -0.106970064
000340 5e 0f b3 28 40 89 32 2f 47 8a 93 bd fe 10 1f be
       1.9879657e-14 1.6237767e-10 -0.07204109 -0.15533826
000350 c6 64 08 3e 70 c7 d7 3b 37 d9 86 bc ef c3 94 3b
       0.13319692 0.006585054 -0.016460998 0.0045399587
000360 6e 80 b8 3d 90 cb f6 bc 0f 21 0e 3b 8c 50 67 2c
       0.09008871 -0.030126363 0.0021687185 3.2871787e-12
000370 dc 39 1b b9 21 f5 f3 bb 05 89 25 3c 71 18 8e 3c
       -0.00014803506 -0.007444993 0.010103469 0.017345639
000380 1d 84 b8 3c 73 fb 13 3a ac 36 de 39 19 4a 09 bc
       0.022523934 0.0005645074 0.00042383873 -0.008379483
000390 ab e9 cc 34 a6 79 74 be d3 d1 91 bb 83 ab 0e bb
       3.8167977e-07 -0.2387453 -0.004450062 -0.002176971
0003a0 00 c6 15 b7 db 4b b0 bc 4e 8f 00 bd d5 b8 d3 3d
       -8.9271925e-06 -0.021520546 -0.031386666 0.10337988
0003b0 a2 6d 25 39 e1 11 42 bc 20 d1 2a be 65 fa 30 ae
       0.00015776468 -0.011845083 -0.16681337 -4.0240162e-11
0003c0 2a 7e 1f be ee 2b 5d be ce 36 11 3e b8 b2 0b 3c
       -0.15575472 -0.21598789 0.14181063 0.008526497
0003d0 a2 4c 05 bd 7b 70 ff 33 22 c9 c4 bc 1c fc 62 bd
       -0.032543786 1.1894823e-07 -0.024021689 -0.05541621
0003e0 a1 2d 5f bd 1e c5 cd b5 7f b6 97 b6 5b d9 bc ad
       -0.054486874 -1.5331059e-06 -4.521396e-06 -2.146965e-11
0003f0 56 6b c6 bc 3e 25 92 ba be a5 c6 ba f4 0b 86 bd
       -0.024221104 -0.0011150015 -0.0015155596 -0.06545249

shared.3.bias f4 [256]
000000 a2 4e 06 bd 36 fa aa 3a 95 76 3f 3c 30 82 13 3c
       -0.032789834 0.0013044539 0.011685987 0.009003207
000010 fe f7 ae bc 42 dd a6 3c 85 e7 7c 3d bf f0 52 bc
       -0.021358486 0.020369176 0.06174423 -0.012874781
000020 97 47 b4 3c c6 e7 b6 3c f6 c9 a8 3c f0 81 3c bb
       0.022006793 0.022327315 0.020604115 -0.0028763972
000030 0d 62 56 3c 28 b8 b6 3c b9 62 a6 bb 6f ae 9c 3b
       0.013084901 0.02230461 -0.0050776866 0.0047815363
000040 35 41 85 3c ad 8d 62 3c 0a 2f 0d bd 78 ad 8d 3d
       0.016266445 0.013827723 -0.034468688 0.06917852
000050 07 a0 9f 3c 04 20 40 bd 39 19 7c bd a7 52 a8 3c
       0.019485487 -0.046905532 -0.06154749 0.020547224
000060 8e 8a 44 bc f9 fb c3 3d 19 35 aa 3c 0a 58 b6 3c
       -0.011995925 0.09569544 0.020777272 0.022258777
000070 9c 0b f6 bc 5b d3 9c 3c ac 97 6b b9 a2 6c 5d 3c
       -0.030034833 0.01914375 -0.00022467849 0.01351467
000080 96 73 07 3d 9d 8e ce 3c 38 f3 2e 3d f1 50 9d bc
       0.033069216 0.025214488 0.04271242 -0.019203635
000090 92 1f 19 3a 0d 27 b6 3b f3 73 89 3c 40 29 b5 3c
       0.0005841191 0.0055588544 0.016778922 0.022114396
0000a0 3b f1 f4 bc 3d 35 04 3c 5d 9c 7d 3c 24 09 d6 3c
       -0.029900184 0.008069334 0.015479174 0.026127405
0000b0 b7 2c b6 3c 0a 0d b0 3c 80 63 99 b9 b9 c7 78 3b
       0.022238119 0.021490593 -0.00029256567 0.003796084
0000c0 57 d7 72 3b ff 9e 7e 3c 11 62 99 3c f4 59 b4 3c
       0.0037054622 0.015540837 0.01872352 0.02201555
0000d0 63 b5 aa 3c d1 9f 5d bb a2 25 35 3d 33 a3 66 3c
       0.020838445 -0.0033817182 0.044225343 0.014076996
0000e0 75 9c 44 bd 4a fa 81 3c 77 99 5e 3d ac 4e 0f 3c
       -0.04800077 0.015866417 0.054345574 0.008746784
0000f0 17 61 8b 3c f4 ba 7a bc 9a 85 75 3c 14 33 9e bc
       0.01701407 -0.015303362 0.014985466 -0.019311465
000100 c3 f6 5d 3c 33 92 ba 3c 63 78 de bc f9 8b ee bb
       0.013547602 0.022774791 -0.027157014 -0.0072798696
000110 1e 2d 46 ba 53 ba 74 3c e9 90 9c 3c 30 da 2c 3d
       -0.00075598236 0.014937001 0.019112067 0.042200267
000120 d7 97 54 bc 7f e7 36 bc e8 d6 a7 3c f0 38 b5 3c
       -0.012975655 -0.011163591 0.020488217 0.022121876
000130 d0 a7 d7 39 63 f0 e4 3b 7a d3 aa 3c 92 c8 ba 3c
       0.00041133026 0.006986664 0.020852793 0.022800718
000140 62 d9 a3 bb 46 79 95 3c 78 db 89 3d 52 61 77 3c
       -0.0050002793 0.018246304 0.067313135 0.015098887
000150 4a 9c eb bc 90 95 88 3b 87 fd ac 3c ac 74 95 3c
       -0.028761048 0.00416822 0.021116985 0.01824411
000160 be ff e7 3c 54 f7 cd 3c 5e e0 af 3c c5 ee f5 bc
       0.02832019 0.02514235 0.021469291 -0.03002108
000170 02 67 cc 3c 17 0b 0f bc 83 a3 b4 3c 1e ca b3 3c
       0.024951462 -0.008730671 0.022050625 0.021946963
000180 ab 75 80 bb 56 00 b6 3c 76 be fb 3b 7b ca 70 3c
       -0.003920277 0.022216957 0.007682617 0.014696713
000190 f0 fa 92 3c 13 26 b3 bc b8 5e a7 3c 8c 64 f6 bc
       0.017941922 -0.021868741 0.020430908 -0.030077241
0001a0 ba 24 14 3c 5b ec 48 3d ff 49 8b 3d 24 f7 11 bd
       0.009041959 0.04905353 0.06801223 -0.035636082
0001b0 47 60 34 3d 2b f1 b5 3c 8c fc a6 bc 54 ef 83 3c
       0.04403713 0.022209724 -0.020384096 0.016105331
0001c0 63 b5 85 3c 22 ac fe ba 19 82 b8 3c 39 96 22 bd
       0.016321843 -0.0019429962 0.022522973 -0.039694045
0001d0 ec ac 0d 3b d6 13 48 3d 50 22 34 bd fd f9 89 3d
       0.0021617962 0.048847042 -0.043978035 0.067371346
0001e0 e8 0c bf 3c 8c 41 86 3c 6b 5c 42 3d b1 ba b3 3c
       0.023321584 0.016388677 0.047451418 0.021939607
0001f0 48 e7 1e bc 2c 93 a8 39 08 15 09 bd 50 87 94 3c
       -0.009698696 0.0003215311 -0.033467323 0.018130928
000200 4e 4a 5f bd 41 70 97 bd ca 73 b3 3c ee 96 1b 3c
       -0.05451422 -0.073944576 0.021905798 0.009496434
000210 1f a3 92 3c 24 01 71 3d 69 41 8f 3d 06 78 b1 3c
       0.017900048 0.05883898 0.06994898 0.021663677
000220 99 df ae 3c 7a 92 a3 3c d8 c9 cc 3c ea b7 22 3d
       0.021346854 0.019967306 0.02499859 0.039726175
000230 84 e2 ad 3b aa be 89 3c 4f da ce 3c 63 ea 94 3c
       0.005306544 0.016814549 0.025250582 0.01817817
000240 d0 51 08 3d b2 8f ad bb 0d db 80 bd 50 63 c0 bd
       0.033281147 -0.005296671 -0.062917806 -0.09393942
000250 dd 9a b6 3c 67 7d e1 3c a4 a5 9e 3c d4 e1 38 bd
       0.022290641 0.027525617 0.019366093 -0.04513724
000260 2a 37 6b bc 58 46 a4 3c db af 4c 3d 7c 91 45 3d
       -0.014356414 0.020053074 0.049972396 0.048234448
000270 4e b4 ea bc 56 9c cc ba af 2e e7 bb ab 04 94 3c
       -0.02865043 -0.0015610557 -0.0070551257 0.018068632
000280 6c e8 2a bd df 98 0d bc 42 79 34 bc b7 30 59 3c
       -0.04172556 -0.008642404 -0.011015238 0.013256243
000290 95 6e bc 3c ef dc b4 3c 26 05 59 3b 2d 3c db 3b
       0.023001948 0.022078006 0.003311464 0.006690523
0002a0 d9 ae c3 bc 9e d9 27 3d 0c 3a b2 3c d3 f0 aa 3c
       -0.023887085 0.04097902 0.021756195 0.020866787
0002b0 22 45 4a 3c 7c 83 42 3d 31 e3 b4 3c c4 00 f9 3b
       0.012345584 0.047488675 0.02208099 0.007598968
0002c0 82 b5 e1 3c 62 82 05 3d b2 d3 91 bc a2 b7 3a 3c
       0.02755237 0.032595046 -0.01780114 0.011396321
0002d0 14 80 8f bc 6b 56 4e 3c af 05 a9 3c 5c 7c b1 3c
       -0.017517127 0.012593846 0.020632593 0.021665744
0002e0 10 e9 01 3d 45 30 b2 3c 9a 51 57 3b ca 11 e3 bd
       0.031716406 0.021751532 0.0032855035 -0.11087377
0002f0 c5 0a ad 3c 9a e0 de 3b 34 ac 22 3c 59 69 8e 3c
       0.0211233 0.006801677 0.009928752 0.017384218
000300 9a 38 fb 3b 5e 64 92 3c 9e 8d 01 3c 32 08 65 3c
       0.0076666595 0.017870124 0.007907299 0.013979005
000310 a0 5f 32 3c 94 6c 95 3c a7 fb 59 3c 3f fa 34 bb
       0.010887057 0.01824025 0.0133046275 -0.0027614979
000320 ec 04 6b 3c c8 87 29 bc 41 f2 a8 bc f3 9e 88 3c
       0.014344435 -0.010347314 -0.020623328 0.016677355
000330 dc 55 6f bb 68 1e 95 3c 1a 34 ab 3c a7 73 a0 bb
       -0.0036519682 0.018202975 0.020898867 -0.0048965993
000340 30 fb 5f 3c 5d 57 cf bb f3 70 af 3c 17 16 36 ba
       0.013670728 -0.006327553 0.021416163 -0.00069460407
000350 3a 67 0f bd 73 cc 96 3c 58 c1 a5 3c 98 8c b4 3c
       -0.035010554 0.018408036 0.020233795 0.022039697
000360 bc 80 c2 bc 87 01 8f bc b7 a3 1c 3d b3 4e dc 3c
       -0.023743026 -0.017456783 0.03824207 0.026892995
000370 b8 47 20 3d 78 31 38 3b 96 29 86 bd 3c 86 a0 bd
       0.039130896 0.0028105658 -0.06550901 -0.07838103
000380 b6 1f d1 3c 49 22 41 3d 88 8f 01 bc cc 73 40 3c
       0.025527816 0.047151837 -0.007907756 0.011746358
000390 cc de 40 bc 18 fe 95 3d 28 fe ce 3b d9 df a2 3c
       -0.011771869 0.07323855 0.006316919 0.01988213
0003a0 65 bf 23 bc e4 89 b5 3c 50 67 b3 3c 87 4d 24 3c
       -0.0099943625 0.022160478 0.02189985 0.01002825
0003b0 04 ad e1 3b 10 26 1f 3d c9 b7 c4 3b d1 50 c4 bc
       0.00688708 0.03885466 0.006003354 -0.023964318
0003c0 46 94 b7 3c ab 90 27 bd d4 50 cf 3b c3 35 36 bd
       0.02240957 -0.04090945 0.006326774 -0.044484865
0003d0 52 77 93 bc 9f bb 8a 3c 5a 87 bc 3b 66 14 ba bd
       -0.018001232 0.016935168 0.00575344 -0.09085922
0003e0 07 77 e6 bc 3b 62 f1 3c 9a ac ad 3c 96 09 75 3c
       -0.028132929 0.029465785 0.021200467 0.014955899
0003f0 7f 30 94 3c e5 28 9a 3c 72 55 26 3c ec 03 85 3c
       0.018089531 0.018818328 0.010152208 0.016237222

shared.4.weight f4 [256]
000000 2d 29 84 3f 1a 92 2e 3f 81 40 30 3f a7 0d c5 3d
       1.0325066 0.68191683 0.68848425 0.096217446
000010 28 ac 2a 3f ca a8 4a 3c ea 60 34 3f 2a 67 7d 3f
       0.6666894 0.012369344 0.7046038 0.9898554
000020 d0 e7 bf 3d 22 7c e5 3c f1 c8 0e 3b 9e d4 0e 3f
       0.093703866 0.028013293 0.002178725 0.5579318
000030 db b5 4e 3d 62 e2 82 3b 4b 2c 4a 3f dc b1 eb 3e
       0.0504664 0.003994272 0.78973836 0.46034133
000040 ce e1 c4 3c 6c 4f d6 3e 03 48 5c 3f b7 0a 62 3f
       0.024033453 0.4185747 0.8604738 0.882976
000050 64 5e 65 3d 96 05 11 3f 1d a6 10 3f 99 15 41 3a
       0.05599822 0.5664915 0.5650347 0.0007365584
000060 bf d4 18 3f 1c 3d 88 3f 36 10 77 39 5d f0 0d 3a
       0.59699625 1.0643649 0.00023561795 0.000541454
000070 0d 35 e4 3e b9 41 1d 3e 0f 93 c3 3e 81 e0 f5 3e
       0.44571725 0.15357102 0.38198134 0.48022845
000080 04 08 7f 3e 8f e4 7d 3f 21 c0 65 3f d9 69 0d 3f
       0.24905401 0.9917688 0.8974629 0.55239636
000090 b3 17 04 3f 6c 59 8f 3f a2 f8 5a 38 bb b2 db 3c
       0.5159866 1.1199164 5.2206808e-05 0.026818624
0000a0 2b c0 02 3f 5f ca 47 3f ff 7c 8e 3e 2e ad bd 3e
       0.51074475 0.7804317 0.2782974 0.37046188
0000b0 e5 d5 20 3a 9f 49 ce 3b 68 74 52 3f f2 63 41 3f
       0.00061353884 0.0062953974 0.8220887 0.7554313
0000c0 ad af 7a 3e 82 c0 3b 3f 5c c1 5a 3d a7 13 4b 3d
       0.24481077 0.7334062 0.053407058 0.04957929
0000d0 7a b5 b7 3d da d0 80 3d 3c bc 7e 3f e2 42 d1 3c
       0.08970161 0.06289835 0.9950597 0.025544588
0000e0 fc c8 3a 3f c0 1b 6d 3e ad 3d 37 3f 35 fb ba 3d
       0.7296293 0.23155117 0.71578485 0.09129945
0000f0 88 bf 27 3f db a5 71 3f 99 0e 40 3f 38 fb 24 3f
       0.6552663 0.943937 0.75022274 0.6444583
000100 f1 63 ff 3e 2c 92 ea 3d e1 33 5b 3f dd 40 82 3e
       0.49880937 0.11453661 0.85626036 0.25440112
000110 54 05 09 3f 72 1a 84 3e c1 98 d3 3d e9 af 51 3f
       0.53523755 0.25801426 0.1033187 0.8190904
000120 6c c4 0a 3f ae a6 50 3f b9 da 89 3d db f8 75 3c
       0.54205966 0.81504333 0.06731171 0.015012945
000130 b1 24 0d 3f 5c 1b ce 3e e9 e3 28 39 cf b0 06 3f
       0.5513411 0.4025525 0.00016106632 0.5261354
000140 e6 36 4f 3e cd c0 2e 3a 72 87 44 3f c1 aa 9a 3b
       0.20235786 0.0006666303 0.76769173 0.0047200625
000150 d5 34 5d 3f b0 48 98 3e 1a f2 2e 3a 17 43 57 3e
       0.8640874 0.29742956 0.0006673649 0.21021686
000160 95 e0 55 3e a0 04 30 3f 38 12 81 3c b1 25 1e 3f
       0.20886452 0.6875706 0.015755758 0.6177626
000170 61 2f 24 3e 03 30 28 3f 14 97 1b 3c 28 fa 88 3d
       0.16033699 0.6569826 0.009496469 0.066883385
000180 a6 84 67 3e 3c 19 96 3a be c5 ea 3e 72 52 54 3b
       0.22609195 0.0011451612 0.4585399 0.0032397774
000190 63 0b 97 38 5f 32 52 3f 33 09 21 3b 4a 0a c9 3e
       7.202362e-05 0.8210811 0.0024572134 0.39265662
0001a0 12 14 04 3f e6 2c 18 3f 57 90 24 3f bc 6a 33 3f
       0.51593125 0.5944351 0.64282745 0.7008474
0001b0 b3 d9 65 3f 23 90 ab 38 6a c5 38 3f 8a 2f 5c 3e
       0.8978531 8.180763e-05 0.7217623 0.2150251
0001c0 5e e5 d9 3e 6d 89 47 3f 1a 8a 21 39 59 c7 3e 3f
       0.42557806 0.7794407 0.00015405603 0.7452293
0001d0 71 56 02 3f 7f 05 25 3f 71 7c 3d 3f db 87 47 3f
       0.5091315 0.6446151 0.7401801 0.77941674
0001e0 f1 6b f7 3e b2 c1 ba 3a 45 e8 3f 3f 6d 5b a3 3d
       0.4832454 0.00142484 0.7496379 0.079764225
0001f0 97 e4 98 3e d6 e1 ef 3e c6 62 24 3f 38 b4 3d 3e
       0.298619 0.46851987 0.64213216 0.18525779
000200 dc e8 3b 3f 33 ba 9c 3f d1 78 36 3b 89 56 61 3e
       0.7340219 1.2244323 0.0027843008 0.22005667
000210 42 c9 8b 3e 6a 8d 52 3f 98 62 78 3f 4d d4 04 3a
       0.27301985 0.8224703 0.9702544 0.00050670357
000220 27 e0 ad 3c c9 0e 1c 3e 5d 4a fc 3e 3e 5d d8 3e
       0.021225048 0.15240015 0.49275485 0.42258638
000230 b1 bc 65 3f 0d 20 21 3e a7 8e 6f 3f aa f9 ba 3c
       0.89741045 0.15734883 0.93577045 0.022824127
000240 16 76 47 3f 41 75 08 3f 61 af 4e 3f 25 89 68 3f
       0.7791456 0.53303915 0.80736357 0.90834266
000250 9d 49 aa 3b 7e e6 14 3f 4d 4f e8 3d b5 91 1a 3f
       0.0051967637 0.58164203 0.113432504 0.6037858
000260 25 3a 31 3f 77 b8 d3 3a 4c c9 95 3f 18 9c 49 3f
       0.69229347 0.0016152997 1.1702056 0.78753805
000270 ac f4 89 3f 3a e6 77 3f b0 61 3e 3f a2 6f 1e 3b
       1.0777793 0.9683567 0.7436781 0.0024175425
000280 cf d4 e4 3e 73 62 56 3f 1f a2 24 3f 00 82 d9 3e
       0.4469361 0.8374397 0.6430988 0.42481995
000290 d8 20 33 3e 92 a9 c7 39 32 04 62 3d 45 b9 90 3e
       0.17492998 0.00038082578 0.055179782 0.2826635
0002a0 b7 c5 32 3f 28 de cb 3e bc 83 7e 3d d7 08 85 3d
       0.6983294 0.3981793 0.06213735 0.06495827
0002b0 bb 57 0f 3f 8c 77 72 3f c1 ec b3 3b c0 c4 18 3f
       0.5599324 0.94713664 0.0054908697 0.59675217
0002c0 6a 45 48 3f 95 f8 2f 3f 46 51 4f 3f cb 5e 36 3f
       0.7823092 0.6873868 0.8098339 0.7123839
0002d0 56 f3 e1 3e 37 c2 38 3f 06 80 ba 3d ed ea 15 3b
       0.44130963 0.7217135 0.0910645 0.0022875622
0002e0 fe 03 35 3f d1 47 43 3e 93 97 63 3f 44 ec 48 3f
       0.70709217 0.19070365 0.8890316 0.7848551
0002f0 47 0b b4 39 cf bf 56 3f 5f 06 90 3e 39 0d 3f 3f
       0.00034340678 0.83886427 0.2812986 0.7462955
000300 7a 16 37 3f fa 2c 46 3f 1c a0 af 3d 86 9d 2f 3b
       0.7151867 0.7741238 0.0857546 0.0026796772
000310 66 e5 06 3e 9f ef 39 3d 5c 35 55 3f ce c4 8c 3f
       0.13173446 0.045394536 0.83284545 1.099756
000320 db bb a8 3e af f9 09 3f 4b d1 29 3f e1 25 14 3d
       0.32955822 0.5389661 0.6633498 0.036168937
000330 00 cc be 3e d8 9f a8 3b be 85 58 3c cf 5e ff 3e
       0.37265015 0.005146008 0.01321548 0.4987702
000340 e0 4a 60 3f b8 94 ea 3e c2 fb ee 3a 6e 14 e9 3e
       0.8761425 0.45816588 0.0018232989 0.455234
000350 4b 52 11 3f 8e 94 5f 3d bb 11 18 3f be 28 59 38
       0.56766194 0.054585032 0.59402055 5.1774776e-05
000360 83 2f 22 3f 96 30 30 3f 82 11 26 3f 52 92 a3 3e
       0.6335375 0.68824136 0.64870465 0.3194757
000370 62 c6 24 3f 62 77 2c 3f 2c 8f a5 3f 9b 56 a3 3f
       0.6436521 0.67369664 1.2934318 1.2760805
000380 74 c0 1d 3f 0f 39 6d 3f 27 31 48 3f a4 15 b2 3e
       0.61621785 0.9266519 0.782 0.34782135
000390 e1 11 1b 3f 95 5e 7a 3f 3d f5 37 3f 78 b0 13 3a
       0.60574156 0.9780057 0.7185858 0.0005633901
0003a0 cc 3d 5a 3f 75 59 15 3c f2 58 27 3b 9b ef 34 3f
       0.85250545 0.0091155665 0.0025535193 0.7067811
0003b0 b7 77 82 3e 40 17 7f 3f d9 fc 65 3f b1 4e 25 3f
       0.2548196 0.9964485 0.8983894 0.645732
0003c0 6e bc 33 3f 22 7b 36 3f e3 e4 38 3f 65 77 49 3f
       0.70209396 0.71281636 0.72224253 0.78697807
0003d0 5c 11 25 3f 90 24 30 3e 35 49 2c 3e 6f db 2d 3f
       0.64479613 0.17201447 0.16824801 0.67912954
0003e0 46 78 32 3f 44 3f 4b 3f b0 e6 7e 3e 7c 37 26 3e
       0.6971477 0.7939341 0.24892688 0.16232103
0003f0 73 f3 52 3f 1e 96 2a 3b b6 54 42 3f 94 8f f5 3d
       0.82402724 0.0026029418 0.7591051 0.11990276
