checkpoints/yahtzee_pretrain_faster/checkpoint_ep999.pt (torch, 815349 bytes, 25 tensors)

shared.0.weight f4 [512, 23]
0.41113237 0.47340605 0.5009112 0.59691316 0.3353203 -3.150221e-10 0.042216815 0.065381475
0.22914305 0.33609712 0.18629186 0.5335871 -0.042811595 0.06554021 0.014387425 1.3025798
0.7413958 0.010694372 0.9790211 0.003200919 0.0019905074 -1.4938421e-05 2.185765e-09 0.33050877
0.5030223 0.5294522 0.59052455 0.32517964 -3.548561e-05 0.034076147 0.049567632 0.24948789
0.3461973 0.21102414 0.8476511 -0.008765131 0.10197973 0.04921962 1.6903906 0.78093326
-0.03942144 0.9944227 0.00014118094 -0.0011437337 -1.0681355 -0.013302565 0.049975324 0.05335425
0.10756894 0.07142523 0.029834013 -0.0006285298 0.039821442 0.033276726 0.07215458 0.16044298
0.09705339 0.10039125 0.052545365 0.044084214 -0.080892615 0.49588695 0.3022696 -0.00599787
0.059135612 0.00025443465 0.00048299573 6.194608e-05 0.00049175933 0.15890968 0.17636594 0.15947975
0.3459075 0.13794056 4.5407458e-10 0.04402159 0.052030824 0.27076748 0.3384791 0.22575527
0.91220534 -0.0031090192 0.031956546 0.044103555 1.7234807 0.96270776 -0.029333146 1.2910554
0.00013047518 0.0038209865 8.650837e-05 4.241644e-08 0.25557542 0.21184437 0.3819707 0.1871919
0.22424816 -0.025475219 0.06408529 0.07422961 0.23298544 0.3063408 0.11510193 0.46759206
0.088964865 0.0014753509 0.0300969 1.3016307 1.1907588 0.01007101 0.8317299 -0.0007281269
-0.00061417185 1.8095481e-09 5.063867e-07 -1.0362487 -1.3191979 -0.51287407 -1.2442434 -1.1275126
-9.709913e-05 0.0763482 0.090866104 0.63295585 -0.72653854 -0.5717643 -4.646434 0.2876379
0.42239136 -0.34682262 -6.795213 -8.261943 -0.10707236 -4.4844027 -1.1010594e-08 0.005619798
-0.0018436662 0.13493487 0.34729755 0.3218494 0.43586126 0.52704453 0.38168645 -3.4426775e-09
0.0151148075 0.06191607 0.21104394 0.25440675 0.17752515 0.53193337 0.054974146 0.037791524
-0.0040344596 1.7844999 0.36995506 -0.0021125083 0.860382 1.2430148e-06 0.0014289562 -0.00015525123
0.0005723628 0.3227778 0.49862993 0.55936915 0.5177124 0.37100893 1.3873516e-06 0.03996133
0.054257646 0.1445346 0.32470796 0.112002224 0.83038026 0.1315723 0.022556964 -0.08110207
1.4458886 0.7303003 0.0053389776 0.8791487 -5.017391e-07 0.0038287463 1.0260594e-05 -0.04627525
0.11396037 0.16771509 0.35970107 0.18576412 0.1344462 -0.14746925 0.05710274 0.035530373
0.22153595 0.16796428 0.13938087 0.7608228 0.048237856 0.12465232 0.032832954 1.2256752
0.55848604 -0.02949392 0.968848 -4.8687743e-06 -0.0042644795 9.195514e-09 -0.00038202936 0.1576736
0.16855279 0.19554317 0.18953082 0.13286676 6.202134e-08 0.016272044 0.02552756 0.08879754
0.27470788 0.03897113 0.5115105 -0.038013645 0.010425818 -0.04110544 1.4149742 0.5562471
0.011290641 0.41664445 -5.0393217e-05 -0.00040406012 1.2734463e-08 4.5249317e-06 0.15919913 0.105232075
0.12057544 0.25508568 0.05436636 -3.6778874e-05 0.01735107 0.023686305 0.057095136 0.12036382
0.0410305 0.27131084 0.11160448 0.06295677 0.07758147 1.695703 0.9908308 -0.022184875
0.3377485 2.6147418e-08 0.00808819 9.778347e-07 5.6446634e-09 0.173563 0.16765358 0.21271531
00000000: f17f d23e 4762 f23e b73b 003f 4dcf 183f
00000010: 1aaf ab3e 6b2f adaf 8aeb 2c3d b9e6 853d
00000020: 7aa4 6a3e ec14 ac3e 4bc3 3e3e 2a99 083f
00000030: 365b 2fbd f239 863d 3cb9 6b3c efba a63f
00000040: 1dcc 3d3f 7237 2f3c 20a1 7a3f 82c6 513b
00000050: 2c73 023b 08a0 7ab7 6234 1631 7238 a93e
00000060: 12c6 003f 2e8a 073f 9e2c 173f f27d a63e
00000070: 62d6 14b8 6e93 0b3d 6e07 4b3d c179 7f3e
00000080: c640 b13e b616 583e aaff 583f a09b 0fbc
00000090: c0da d03d 839a 493d b85e d83f 3eeb 473f
000000a0: 6078 21bd 7c92 7e3f f809 1439 56e9 95ba
000000b0: aab8 88bf 00f3 59bc edb2 4c3d fc89 5a3d
000000c0: 1b4d dc3d 6447 923d 7666 f43c ecc3 24ba
000000d0: cf1b 233d 2d4d 083d c8c5 933d 2a4b 243e
000000e0: eec3 c63d ed99 cd3d cf39 573d a691 343d
000000f0: 07ab a5bd e5e4 fd3e 15c3 9a3e c889 c4bb
00000100: 2f38 723d a465 8539 973a fd39 0ce9 8138
00000110: 69e9 003a 38b9 223e 4699 343e a94e 233e
00000120: ca1a b13e 4a40 0d3e 51a1 f92f fc4f 343d
00000130: 461e 553d 09a2 8a3e 224d ad3e 642c 673e
00000140: 4a86 693f b0c0 4bbb dee4 023d eea5 343d
00000150: 049b dc3f 0474 763f 114c f0bc 4e41 a53f
00000160: 2ad0 0839 8469 7a3b d46b b538 5e2d 3633
00000170: c8da 823e bbed 583e aa91 c33e 3caf 3f3e
00000180: 4fa1 653e 68b1 d0bc 263f 833d b205 983d
00000190: bc93 6e3e b4d8 9c3e 90ba eb3d 3a68 ef3e
000001a0: 3633 b63d 9060 c13a c68d f63c d69b a63f
000001b0: c96a 983f e100 253c 40ec 543f c5df 3eba
000001c0: 6000 21ba d0b3 f830 a1ee 0735 cca3 84bf
000001d0: 7adb a8bf b74b 03bf 5e43 9fbf 5552 90bf
000001e0: b3a1 cbb8 725c 9c3d 0218 ba3d 6509 223f
000001f0: 6efe 39bf 255f 12bf 96af 94c0 4645 933e
00000200: ae43 d83e bc92 b1be 6372 d9c0 eb30 04c1
00000210: c148 dbbd 3a80 8fc0 1b29 3db2 4826 b83b
00000220: 2ca7 f1ba 5e2c 0a3e fcd0 b13e 72c9 a43e
00000230: 3529 df3e 64ec 063f 686c c33e 3994 6cb1
00000240: 19a4 773c b49b 7d3d e71b 583e 9a41 823e
00000250: 27c9 353e c92c 083f 922c 613d 49cb 1a3d
00000260: 8033 84bb 7e6a e43f c06a bd3e 0272 0abb
00000270: ff41 5c3f aad5 a635 d04b bb3a efca 22b9
00000280: 9e0a 163a 2243 a53e 6c4c ff3e d132 0f3f
00000290: cd88 043f e2f4 bd3e 0a35 ba35 7eae 233d
000002a0: 443d 5e3d e100 143e 1f40 a63e 6c61 e53d
000002b0: cd93 543f e4ba 063e 62c9 b83c d818 a6bd
000002c0: e112 b93f f6f4 3a3f 97f2 ae3b e40f 613f
000002d0: 40af 06b5 b4eb 7a3b ea24 2c37 1e8b 3dbd
000002e0: 0e64 e93d 81bd 2b3e bd2a b83e f338 3e3e
000002f0: 44ac 093e 2e02 17be 90e4 693d 4c88 113d
00000300: 52da 623e d4fe 2b3e dcb9 0e3e 48c5 423f
00000310: 0f95 453d b749 ff3d d97b 063d ede2 9c3f
00000320: f1f8 0e3f 3c9d f1bc 6c06 783f 745e a3b6
00000330: 0cbd 8bbb 4cfa 1d32 1d4b c8b9 3075 213e
00000340: 1a99 2c3e 783c 483e 5e14 423e 390e 083e
00000350: 9830 8533 f34c 853c 2c1f d13c 7cdb b53d
00000360: 83a6 8c3e 31a0 1f3d 5af2 023f 32b4 1bbd
00000370: 0dd1 2a3c 2e5e 28bd e01d b53f 3666 0e3f
00000380: 61fc 383c 6c52 d53e 4e5d 53b8 08d8 d3b9
00000390: c3c6 5a32 ded4 9736 1905 233e ea83 d73d
000003a0: 42f0 f63d 979a 823e 43af 5e3d 0443 1ab8
000003b0: d523 8e3c c809 c23c 97dc 693d 4e81 f63d
000003c0: 990f 283d 41e9 8a3e e490 e43d 7bef 803d
000003d0: 09e3 9e3d cc0c d93f 16a7 7d3f 0ebd b5bc
000003e0: 5fed ac3e c89a e032 5484 043c 253e 8335
000003f0: fcf2 c131 80ba 313e 61ad 2b3e 0bd2 593e

shared.0.bias f4 [512]
0.2865619 0.2779977 0.04095573 0.13467392 0.23280132 -0.6025509 0.2809336 0.26017636
0.17500141 0.15297782 0.1071753 0.17584383 0.3493907 0.19044922 0.5224568 0.2791415
0.29020208 0.31738174 0.14841089 -1.148212 0.08245612 0.028140146 0.09591733 0.27275905
0.31846276 0.19495738 0.35392162 0.09933619 0.1550809 0.08963879 0.23069248 0.05592767
0.645092 0.2109705 0.17862186 0.07975047 0.15125318 0.08638913 0.16356786 0.287825
0.16847743 0.08886987 0.121082075 0.0562319 0.18077326 0.07151395 0.26468343 0.07478139
0.26598048 0.111361414 0.23357484 0.04424028 -4.450051 0.19467516 0.13375048 0.09146575
0.3233335 0.08768426 0.08002948 0.21594757 0.12207197 0.25621903 0.33363628 0.20053686
0.13463373 0.11652332 0.35234725 0.3521122 0.10546827 0.111806005 0.19963273 0.0075527467
0.15178046 0.15018927 -6.973842 0.1717853 0.0672369 0.2724164 0.2626214 0.2504595
0.14870474 0.28091475 0.013169618 0.054189734 0.06847785 0.045619354 0.21322715 0.24918732
0.30627322 0.023832051 0.13785677 0.2826926 0.1180957 0.117072895 0.21438754 0.08656767
0.08091506 0.11077932 0.14753121 0.25808537 0.24745095 0.1909813 0.2622084 0.093643874
0.028346675 0.29808104 0.077369034 0.2024176 0.2189236 0.11040777 0.1780926 0.3566734
0.08345106 0.027847273 0.24349631 0.06980411 0.19042546 0.33900875 0.09273729 0.060227152
0.16441564 2.201669 0.05807589 0.3489112 0.2979728 0.05037237 0.23695748 0.10382147
0.2768678 0.32138097 0.19135565 0.19122353 0.15167432 0.24865308 0.22682035 0.109987095
0.3612079 0.25216454 0.2916192 0.18887067 0.27977526 0.14918076 0.08372657 0.26373208
0.11122748 0.030021735 0.17724518 0.24471757 0.18682437 0.07018749 0.30734646 0.03294237
0.091599636 0.1923415 0.20167948 0.1527722 0.20044088 0.028141405 0.32431933 0.2830407
0.09352317 0.11055956 0.28034815 0.35429615 0.15396847 0.35680443 0.21545286 0.081091605
0.15880732 0.21713835 0.19131587 0.16224533 0.3264142 0.07117646 0.12002513 0.23073629
0.34284833 0.28049642 0.32387066 0.21204582 0.15093534 0.27140707 0.12761632 0.130821
0.09321948 0.041669935 0.35206157 0.03023531 0.0677229 0.19468325 0.092798814 0.24223343
0.17156647 0.22684643 0.10963031 0.03395477 0.20068252 0.2113346 0.047713935 0.32136965
0.08900074 0.17401141 0.3086531 0.26714733 0.08057691 0.17477684 0.10329909 0.13765243
0.15850668 0.19324458 0.3379654 0.17427899 0.024650028 0.33578217 0.26713422 0.14912434
0.34626907 0.2555897 0.041556574 0.3497314 0.33293766 0.19258974 0.33957714 0.24248132
0.09155101 0.3427648 0.2902674 0.02728578 0.08433207 0.35275656 0.2596925 0.052625135
0.19334106 0.009402034 0.35253775 0.22249481 0.31860915 0.19941555 0.2826366 0.20268112
0.05411222 0.35856715 0.02036009 0.36090657 0.3274428 0.28791863 0.110029854 0.33690593
0.11435964 0.15393814 0.3629216 0.2148656 0.119569965 0.05630978 0.17352052 0.20172293
00000000: 3eb8 923e b755 8e3e 32c1 273d f6e7 093e
00000010: 7863 6e3e c740 1abf 87d6 8f3e d635 853e
00000020: 9233 333e 38a6 1c3e b97e db3d 6810 343e
00000030: 56e3 b23e 1f05 433e bbbf 053f a2eb 8e3e
00000040: 5e95 943e dc7f a23e 06f9 173e 9cf8 92bf
00000050: c1de a83d 2a86 e63c 4e70 c43d 13a7 8b3e
00000060: 8d0d a33e e8a2 473e 3735 b53e c670 cb3d
00000070: 87cd 1e3e 8b94 b73d a63a 6c3e 6a14 653d
00000080: c024 253f a708 583e a6e8 363e 3754 a33d
00000090: 1de2 1a3e c9ec b03d 557e 273e cc5d 933e
000000a0: 5985 2c3e 6801 b63d e1f9 f73d 6c53 663d
000000b0: a01c 393e e875 923d 9684 873e fc26 993d
000000c0: 982e 883e 7411 e43d 3e2e 6f3e 4c35 353d
000000d0: d166 8ec0 ed58 473e e3f5 083e 6552 bb3d
000000e0: f88b a53e ce93 b33d 7fe6 a33d 5c21 5d3e
000000f0: de00 fa3d 242f 833e 60d2 aa3e 8959 4d3e
00000100: 6ddd 093e c7a3 ee3d dc66 b43e 0d48 b43e
00000110: c0ff d73d 8cfa e43d 866c 4c3e 087d f73b
00000120: 566c 1b3e 37cb 193e b729 dfc0 7ce8 2f3e
00000130: 80b3 893d 2a7a 8b3e 5076 863e 3a3c 803e
00000140: 0e46 183e 0fd4 8f3e 62c5 573c 0ef6 5d3d
00000150: 1d3e 8c3d 5cdb 3a3d 3858 5a3e f62a 7f3e
00000160: d8cf 9c3e 6f3b c33c 532a 0d3e 16bd 903e
00000170: 29dc f13d eac3 ef3d 6888 5b3e 644a b13d
00000180: ccb6 a53d 45e0 e23d 6c12 173e c423 843e
00000190: c863 7d3e 9a90 433e 2e40 863e 5cc8 bf3d
000001a0: 4937 e83c 149e 983e a873 9e3d 8f46 4f3e
000001b0: 822d 603e 781d e23d e85d 363e e59d b63e
000001c0: 64e8 aa3d f71f e43c 1957 793e 75f5 8e3d
000001d0: e4fe 423e 8e92 ad3e 0ced bd3d bfb0 763d
000001e0: 935c 283e 25e8 0c40 fce0 6d3d 7da4 b23e
000001f0: e48f 983e 4253 4e3d fba4 723e 5aa0 d43d
00000200: 9ec1 8d3e 0c8c a43e bcf2 433e 1ad0 433e
00000210: 8350 1b3e ea9e 7e3e 9843 683e ea40 e13d
00000220: 3ef0 b83e b61b 813e 1d4f 953e 5067 413e
00000230: b43e 8f3e d7c2 183e d678 ab3d e407 873e
00000240: 3ccb e33d 24f0 f53c c37f 353e 3e97 7a3e
00000250: e34e 3f3e 75be 8f3d 845c 9d3e 94ee 063d
00000260: 9798 bb3d 2cf5 443e 1185 4e3e 5170 1c3e
00000270: 6040 4d3e ce88 e63c 2f0d a63e b6ea 903e
00000280: 1389 bf3d 0d6d e23d cb89 8f3e 4e66 b53e
00000290: e9a9 1d3e 12af b63e ad9f 5c3e 5b13 a63d
000002a0: 639e 223e 8459 5e3e 4fe8 433e a423 263e
000002b0: c31f a73e f7c4 913d bccf f53d 2246 6c3e
000002c0: d189 af3e 3a9d 8f3e 60d2 a53e 8a22 593e
000002d0: cb8e 1a3e def5 8a3e daad 023e f1f5 053e
000002e0: dbe9 be3d 18ae 2a3d 6a41 b43e 0ab0 f73c
000002f0: 4eb2 8a3d 0c5b 473e 4e0d be3d 0a0c 783e
00000300: 1faf 2f3e 6e4a 683e db85 e03d 2814 0b3d
00000310: b87f 4d3e 1968 583e b06f 433d 908a a43e
00000320: 0546 b63d 0c30 323e c707 9e3e 89c7 883e
00000330: 8205 a53d b3f8 323e 798e d33d c2f4 0c3e
00000340: 934f 223e e8e1 453e cd09 ad3e 3176 323e
00000350: dbee c93c a4eb ab3e d1c5 883e 0db4 183e
00000360: 2e4a b13e a7dc 823e 3a37 2a3d fe0f b33e
00000370: ce76 aa3e 3f36 453e 0edd ad3e 064d 783e
00000380: 197f bb3d de7e af3e ee9d 943e 6e86 df3c
00000390: 4bb6 ac3d 829c b43e 6af6 843e 748d 573d
000003a0: 33fb 453e fd0a 1a3c d47f b43e aed5 633e
000003b0: bd20 a33e 9733 4c3e bfb5 903e a48b 4f3e
000003c0: c6a4 5d3d 1d96 b73e 34ca a63c bfc8 b83e
000003d0: 95a6 a73e 126a 933e 5557 e13d ef7e ac3e
000003e0: 6335 ea3d f6a1 1d3e dcd0 b93e ba05 5c3e
000003f0: 19e1 f43d 15a5 663d 5daf 313e 7590 4e3e

shared.1.weight f4 [512]
-2.6912376e-06 -5.390698e-07 0.00031550974 -0.02288688 6.813079e-14 -1.4773681 0.013434891 -3.1054086e-11
0.00017790638 -1.6094891e-27 0.0057248482 0.006214681 0.00237373 1.2739542e-15 0.5541364 -0.00011489704
0.0028522746 0.0043237726 1.2604485e-05 3.9208603 0.00019277699 2.086572e-06 -0.034153372 4.6390127e-05
0.1489594 0.045528527 2.421832e-10 -4.7381665e-20 3.0992173e-33 6.929509e-10 -6.182507e-14 6.5809536e-21
1.644935 -0.0022903304 -0.003540526 -2.0300082e-05 -3.4135658e-07 3.3175886e-05 0.0027654085 5.1045e-41
-2.975417e-17 1.0676316e-11 6.44055e-13 2.6463003e-06 0.00016006149 -0.008495649 -0.0050281254 -2.8129654e-07
4.7256035e-06 -4.7446183e-21 -1.6940135e-16 -0.002734332 -14.050095 -4.3424454e-05 0.0006635657 1.2207492e-24
-0.0027615058 0.0018705714 0.0003365682 0.7115112 9.073566e-13 0.011791945 -0.0372176 0.00021226928
-9.2102455e-06 4.7181564e-10 2.4648682e-12 0.0031638718 0.0046492745 -3.246961e-16 4.61e-41 -4.1048096e-08
2.5441888e-13 0.011071997 -9.992772 0.00014395817 -0.00013487824 0.017068213 -0.02588624 -3.5322977e-05
0.010811203 -0.00051177153 2.1757056e-24 -0.003546528 -0.004686814 0.00016586097 -6.808282e-05 0.0040466273
0.0009608824 -5.7422475e-19 7.8411614e-28 -0.0024921251 7.1720074e-11 -1.4751786e-05 0.016799446 -0.016486045
0.000680439 2.6384617e-11 -0.00058111036 0.024864182 -7.3064833 -5.3545288e-20 -0.036528524 -4.0858018e-07
-2.4794017e-06 0.0039660707 -3.5935318e-07 1.1267392e-17 -7.240224e-15 -0.0012072135 -1.7626424e-15 -0.042170353
-6.4526457e-15 -3.4040772e-13 0.0071990723 0.0012216882 -0.014455903 -0.0054461285 -1.4243809e-05 -7.441411e-27
-9.110929e-19 -0.3962171 0.0051021567 -0.0017919797 9.72604e-08 -1.8784427e-05 0.00011445458 -1.5419692e-22
-0.001457307 0.0034710257 -0.0004155144 -0.0010783975 0.003403372 -0.13952668 -0.018154513 1.5869839e-06
-0.00021457754 0.0027997666 0.013079154 -0.0010608821 0.00011713867 4.547828e-08 -0.0915592 -0.03965794
-0.004077354 -5.112015e-12 -8.896259e-07 9.474174e-05 -0.22644362 -2.3964261e-05 -1.2109321 7.2417113e-28
-8.164035e-22 1.93891e-06 0.0025484152 -1.4895258e-07 0.023308855 6.5896083e-06 -7.13674e-18 0.0035133434
9.1961805e-18 -0.015191106 0.00011882608 0.013358107 0.041913234 0.0007256698 5.8208407e-08 -1.2379462e-16
-0.0025213081 -2.8177766e-07 5.554977e-07 9.4952435e-11 -4.3754817e-06 -9.283617e-08 0.06193525 5.597939e-06
0.0074393805 -5.1600597e-05 1.9153301e-10 0.0001151244 0.001045624 1.3333753e-05 -9.526785e-07 -4.624293e-05
-3.987579e-12 4.2542467e-14 -1.968553e-09 0.021326713 6.1042447e-06 -1.2589963e-07 8.8868875e-13 0.014726255
-0.0006535804 -6.561132e-11 -0.011127781 -0.039085854 -0.0066213896 0.0009979908 -3.2740355e-17 -0.14841269
0.0015383996 0.0032826748 5.627414e-05 0.0013292467 0.0001372213 0.015185284 0.0023260803 -1.976286e-23
-0.00019100663 -0.0050092693 8.675652e-06 -0.0026752343 1.7904119e-06 -0.08427127 -3.737699e-05 -0.0127124945
-0.0012372491 5.853401e-11 4.66937e-08 0.03199219 -0.0023387007 -5.6265685e-07 0.0038427233 0.00025810278
4.985527e-28 -1.07660846e-07 -0.00028343324 -3.562774e-22 -1.6745673e-06 0.019436393 0.00014031937 -1.5271035e-31
0.00013805753 5.9377625e-17 -0.023404514 -0.519954 0.0540692 3.2847286e-25 0.00010481597 -0.009658773
-0.0010517226 -0.0012500947 -7.9259875e-27 -0.016428068 0.009484602 -0.08112982 0.28041354 0.0010795806
-0.0010423895 0.006856419 -0.017385585 -0.30787435 1.0159521e-12 -1.1990358e-07 -2.1630096e-14 1.3928227e-21
00000000: 1c9b 34b6 98b4 10b5 006b a539 447d bbbc
00000010: ba6a 9929 661a bdbf 041e 5c3c cb93 08ae
00000020: 618c 3a39 a208 ff92 8297 bb3b 86a4 cb3b
00000030: 9590 1b3b 9d98 b726 e2db 0d3f e1f4 f0b8
00000040: 3aed 3a3b 6fae 8d3b da77 5337 60ef 7a40
00000050: 2e24 4a39 0907 0c36 68e4 0bbd 0593 4238
00000060: d088 183e 1f7c 3a3d 4124 852f ebc0 5f9f
00000070: 88bc 8009 167a 3e30 ba37 8ba9 149f f81d
00000080: 3b8d d23f 5e19 16bb 2b08 68bb 184a aab7
00000090: b143 b7b4 5626 0b38 db3b 353b 4b8e 0000
000000a0: 8637 09a4 dad1 3b2d 0e49 352b 1897 3136
000000b0: 2ed6 2739 5631 0bbc f9c2 a4bb 1a05 97b4
000000c0: a090 9e36 223f b39d 744e 43a5 7b32 33bb
000000d0: 30cd 60c1 a722 36b8 24f3 2d3a dce6 bc17
000000e0: 61fa 34bb f62d f53a 6b75 b039 9925 363f
000000f0: ef65 7f2b 0133 413c 7b71 18bd 9a94 5e39
00000100: b485 1ab7 13b1 0130 1e73 2d2c f658 4f3b
00000110: f158 983b b02c bba5 8280 0000 dc4c 30b3
00000120: a039 8f2a 5267 353c 65e2 1fc1 7af3 1639
00000130: 1a6e 0db9 a3d2 8b3c 610f d4bc c227 14b8
00000140: 7921 313c 6828 06ba 4a56 2818 de6c 68bb
00000150: d893 99bb f7ea 2d39 b0c7 8eb8 9299 843b
00000160: bae3 7b3a 327b 29a1 0f7f 7812 ec52 23bb
00000170: d0b6 9d2e 707e 77b7 fe9e 893c be0d 87bc
00000180: 7d5f 323a e014 e82d a855 18ba f8af cb3c
00000190: b6ce e9c0 48dc 7c9f ef9e 15bd d55a dbb4
000001a0: cc63 26b6 d0f5 813b 20ed c0b4 c1d8 4f23
000001b0: a46d 02a8 5d3b 9eba 0706 fea6 d2ba 2cbd
000001c0: 277b e8a7 eca1 bfaa 32e6 eb3b 0e21 a03a
000001d0: 74d8 6cbc 7075 b2bb b2f8 6eb7 7064 1394
000001e0: 1e74 86a1 f8dc cabe fe2f a73b dce0 eaba
000001f0: 78dd d033 4093 9db7 5607 f038 a369 3a9b
00000200: 1c03 bfba 267a 633b 66d9 d9b9 0459 8dba
00000210: 1b0b 5f3b 15e0 0ebe c6b8 94bc 5a00 d535
00000220: 3800 61b9 4a7c 373b f349 563c 4c0d 8bba
00000230: 58a8 f538 e653 4333 6483 bbbd 5d70 22bd
00000240: 539b 85bb f0dc b3ac a0ce 6eb5 16b0 c638
00000250: d6e0 67be dc06 c9b7 d3ff 9abf be7f 6512
00000260: 29be 769c 381e 0236 5003 273b c6ef 1fb4
00000270: 36f2 be3c 4e1c dd36 4da6 03a3 1f40 663b
00000280: bca3 2923 1ee4 78bc 4432 f938 f6db 5a3c
00000290: 36ad 2b3d e03a 3e3a d200 7a33 b9b9 0ea5
000002a0: 883c 25bb 3a47 97b4 831d 1535 78cd d02e
000002b0: 1ad1 92b6 395d c7b3 d1af 7d3d eed5 bb36
000002c0: 0cc6 f33b b86d 58b8 c097 522f f16e f138
000002d0: 520d 893a 08b4 5f37 91bb 7fb5 f8f4 41b8
000002e0: eb4c 8cac 2098 3f29 2747 07b1 5cb5 ae3c
000002f0: 10d3 cc36 072f 07b4 c624 7a2b 6446 713c
00000300: 0a55 2bba e447 90ae 4c51 36bc 7d18 20bd
00000310: 3ef8 d8bb 04cf 823a fdfc 16a4 7ff9 17be
00000320: 20a4 c93a 2522 573b e607 6c38 1e3a ae3a
00000330: 10e3 0f39 b3cb 783c 2771 183b 7922 bf99
00000340: f448 48b9 cc24 a4bb a48d 1137 fc52 2fbb
00000350: 164e f035 6a96 acbd 3dc5 1cb8 1148 50bc
00000360: 312b a2ba b8b7 802e 448c 4833 3e0a 033d
00000370: e344 19bb 7c09 17b5 33d6 7b3b f851 8739
00000380: 66ff 1d12 2d33 e7b3 c499 94b9 425b d79b
00000390: b2c1 e0b5 1239 9f3c b222 1339 b83a 468c
000003a0: 89c3 1039 5dea 8824 d3ba bfbc b51b 05bf
000003b0: aa77 5d3d 9a50 cb16 a5d0 db38 d53f 1ebc
000003c0: f4d9 89ba 38da a3ba 88fd 1c94 2894 86bc
000003d0: 4e65 1b3c 6427 a6bd 5d92 8f3e b780 8d3a
000003e0: caa0 88ba d0ab e03b 376c 8ebc b5a1 9dbe
000003f0: 88fb 8e2b d8be 00b4 9bd3 c2a8 387a d21c

shared.1.bias f4 [512]
-5.9330555e-06 -2.012045e-06 0.023556497 -0.035278708 4.653992e-13 0.3309537 0.2824258 -2.1898919e-10
0.003010644 1.1225423e-25 0.08778684 0.04460836 0.0061803055 1.6006082e-14 -0.17934895 -0.0014495198
-0.02413588 -0.089775056 0.00021248736 -2.4081144 -0.002570234 -5.3166594e-05 -0.10553898 -0.0005150146
-0.94381094 -0.12745218 -1.7607285e-10 1.5784951e-18 -2.1049657e-31 -1.5008574e-08 -3.2446866e-12 2.0655585e-20
0.8271558 -0.04316429 -0.09571614 -0.0011398727 -1.57238e-06 -0.0022542619 0.014688676 -5.8909e-41
1.5353737e-16 3.0581515e-10 3.6078803e-11 -0.0003948839 -0.005581129 0.31027263 0.021319529 -1.4868213e-05
-5.9483295e-06 -9.255723e-20 -2.6634619e-15 -0.008318397 11.39411 -0.0005526181 -0.0038734337 -4.2369852e-23
-0.0023814663 -0.0030339845 0.0142508745 -1.2241148 1.006948e-10 -0.1779786 -0.27541655 -0.0053246203
-6.21913e-06 -6.836997e-09 -4.0488403e-13 -0.10457576 -0.09057968 2.4728483e-14 -5.4809e-41 7.022146e-07
4.2103838e-12 -0.07962725 5.810003 -0.0019043365 -0.001484968 -0.008662628 -0.0546169 0.00017919147
0.05933954 0.022473644 -3.315623e-23 -0.0047670957 -0.06824401 7.244473e-05 -0.009272099 0.010677405
0.004562101 -1.7268098e-16 3.7717357e-26 -0.032633677 -7.140133e-09 -0.00047136671 -0.41592506 -0.059995376
0.0022853038 5.147174e-10 -0.015931057 0.06402953 0.7489265 -6.8706846e-18 -0.23759353 -2.0938319e-06
-9.5933865e-05 -0.008991695 3.0476585e-06 -3.7617522e-16 -1.007562e-13 -0.017942019 -6.8979626e-14 0.104167536
1.3142756e-13 -7.590592e-12 0.33991706 0.009588238 -0.064666286 -0.05404865 0.0003837372 -9.021151e-25
-4.2136336e-17 -0.94550055 -0.30381027 -0.011962604 -2.3615453e-06 -0.0002724745 0.00032756082 -8.4355913e-22
-0.04402809 -0.0760269 0.085429005 0.0034408555 0.046992354 -0.5453673 0.35115415 4.7164693e-05
-0.0002217253 -0.011595579 0.19361831 -0.0029794157 -0.0006158913 1.2459902e-06 0.8834176 0.37469542
-0.059812605 -4.817198e-11 4.0225266e-05 -0.0003991862 -0.21195953 -2.9556479e-05 0.61526453 -3.4831463e-26
-1.1808994e-20 -0.00120454 0.0064096227 -7.5119306e-07 -0.07379482 -9.512292e-05 -6.921527e-17 -0.0033067274
-1.0174457e-16 0.9498286 -0.012979329 0.20089626 1.2201657 1.1356446 1.2316704e-08 -2.9522251e-15
-0.025355607 5.5750286e-07 -5.7220395e-06 1.9675923e-09 4.0117684e-06 -8.6574283e-07 0.5899042 -2.2717017e-05
-0.20854838 -0.00011557345 -1.857931e-08 0.0013720971 -0.0008360503 -0.0044938377 1.6075908e-06 -0.0010298291
-2.5912944e-11 -7.9657467e-13 -2.187347e-08 -0.039045088 -0.00047468068 -2.6754083e-06 1.5560539e-11 -0.07506466
-0.0015791301 -1.5854928e-08 -0.0118502155 0.009648528 -0.07722142 -0.07764122 -5.310906e-16 -0.16130373
0.018625738 -0.053486727 -0.001607401 -0.034678012 -0.001721666 0.20049435 0.023609838 -1.9287435e-23
-0.0024665 0.10006261 -2.0298785e-05 -0.018171936 -3.3107495e-05 -0.22640327 -0.00019880201 0.004380066
-0.002312576 -7.125367e-10 6.7951703e-07 -0.09789623 -0.011822864 -1.5939966e-05 -0.026708711 -0.0027553993
1.2949606e-26 -3.948153e-07 -0.0017735172 1.1146013e-20 -1.31178e-05 0.027020719 -0.023651866 -2.8606003e-31
-0.0021615967 -1.7284622e-15 0.0015216777 -0.2712683 -0.17672226 2.1183168e-24 -0.020369163 0.019529741
0.0001971228 -0.0035592574 -7.081641e-26 -0.080953926 -0.021770036 -0.3355535 -0.13903594 -0.0081413165
-0.0023303246 0.31404415 0.15612823 0.011793375 -3.8366272e-11 -8.250162e-07 -9.1291077e-14 8.667423e-20
00000000: 8f14 c7b6 ab06 07b6 8ef9 c03c 6880 10bd
00000010: 8cff 022b c372 a93e 1d9a 903e fac7 70af
00000020: 3a4e 453b c9f6 0a16 96c9 b33d 41b7 363d
00000030: 2984 ca3b 832b 9028 40a7 37be d0fd bdba
00000040: 9cb8 c5bc fcdb b7bd 24cf 5e39 8c1e 1ac0
00000050: 5f71 28bb 32ff 5eb8 d224 d8bd 0b02 07ba
00000060: 989d 71bf d382 02be 1a98 41af dcf1 e821
00000070: be9e 888c 34ec 80b2 1453 64ac 2416 c31e
00000080: 7cc0 533f 0acd 30bd d306 c4bd c867 95ba
00000090: 910a d3b5 3dbc 13bb c6a8 703c 37a4 0080
000000a0: 3c04 3125 a81f a82f 1fad 1e2e 6b08 cfb9
000000b0: e7e1 b6bb 0edc 9e3e 4ba6 ae3c 7d72 79b7
000000c0: c397 c7b6 6a8b da9f 33ec 3fa7 e349 08bc
000000d0: 464e 3641 93dd 10ba 6fd9 7dbb 56e3 4c9a
000000e0: 6012 1cbb d0d5 46bb 807c 693c cbaf 9cbf
000000f0: 226e dd2e 0640 36be 6603 8dbe 277a aebb
00000100: ebad d0b6 ddea eab1 f0ed e3aa d12b d6bd
00000110: d781 b9bd 00bc de28 c998 0080 d27f 3c35
00000120: c423 942c 9d13 a3bd 8beb b940 ee9a f9ba
00000130: 42a3 c2ba b2ed 0dbc f8b5 5fbd 58e5 3b39
00000140: 040e 733d a61a b83c 6d55 209a 4c35 9cbb
00000150: 84c3 8bbd 78ed 9738 00ea 17bc 48f0 2e3c
00000160: ad7d 953b 6e16 47a5 6ec4 3a15 e4aa 05bd
00000170: 4655 f5b1 c521 f7b9 21f4 d4be b6bd 75bd
00000180: 09c5 153b 047c 0d30 d981 82bc ea21 833d
00000190: a6b9 3f3f c87b fda2 b84b 73be c283 0cb6
000001a0: 1a30 c9b8 e751 13bc 6086 4c36 aad9 d8a5
000001b0: ffe1 e2a9 24fb 92bc 0c54 9ba9 ca55 d53d
000001c0: 6af9 132a fd88 05ad 9c09 ae3e fc17 1d3c
000001d0: c26f 84bd 1e62 5dbd 5630 c939 7698 8b97
000001e0: ce51 42a4 530c 72bf 058d 9bbe ccfe 43bc
000001f0: 0a7b 1eb6 e9da 8eb9 78bc ab39 3af3 7e9c
00000200: cc56 34bd feb3 9bbd 67f5 ae3d fa7f 613b
00000210: 0e7b 403d 319d 0bbf 7aca b33e b4d2 4538
00000220: ef7e 68b9 62fb 3dbc e143 463e 4d42 43bb
00000230: c473 21ba e63b a735 a827 623f 14d8 bf3e
00000240: 10fe 74bd d4dc 53ae 8db7 2838 dd49 d1b9
00000250: eb0b 59be 0ef0 f7b7 fa81 1d3f 207a 2c95
00000260: ca10 5f9e a8e1 9dba d007 d23b 98a5 49b5
00000270: bd21 97bd bb7c c7b8 7c99 9fa4 aeb5 58bb
00000280: 659b eaa4 f827 733f 40a7 54bc c0b7 4d3e
00000290: 642e 9c3f cd5c 913f 7099 5332 f1ba 54a7
000002a0: 90b6 cfbc 4ea7 1535 f2ff bfb6 4036 0731
000002b0: d49c 8636 6565 68b5 f603 173f 6c90 beb7
000002c0: b58d 55be 0660 f2b8 5698 9fb2 f0d7 b33a
000002d0: 632a 5bba 0b41 93bb 66c4 d735 55fb 86ba
000002e0: c3ee e3ad 4137 60ab 45e4 bbb2 beed 1fbd
000002f0: 90de f8b9 2a8b 33b6 38df 882d 80bb 99bd
00000300: d0fa ceba 5b31 88b2 6827 42bc dc14 1e3c
00000310: 4426 9ebd 5c02 9fbd 9213 19a6 ce2c 25be
00000320: 0195 983c e614 5bbd 6daf d2ba 880a 0ebd
00000330: 86a9 e1ba 644e 4d3e 6b69 c13c 6089 ba99
00000340: 01a5 21bb a0ed cc3d 4f47 aab7 50dd 94bc
00000350: e7dc 0ab8 42d6 67be 8275 50b9 a886 8f3b
00000360: 968e 17bb 50dc 43b0 0e68 3635 d27d c8bd
00000370: b0b4 41bc d1b6 85b7 3acc dabc ee93 34bb
00000380: 273f 8014 00f7 d3b4 5d75 e8ba d08a 521e
00000390: 8614 5cb7 8e5a dd3c 8fc1 c1bc e0a9 b98c
000003a0: 93a9 0dbb 0019 f9a6 0873 c73a aee3 8abe
000003b0: aef6 34be 96e5 2318 3bdd a6bc d6fc 9f3c
000003c0: c0b2 4e39 6e42 69bb 3b55 af95 2ccb a5bd
000003d0: 1357 b2bc abcd abbe 705f 0ebe 2863 05bc
000003e0: 5cb8 18bb 65ca a03e 14e0 1f3e 0039 413c
000003f0: 95bc 28ae ae76 5db5 b991 cda9 5ba7 cc1f

shared.3.weight f4 [256, 512]
2.028286e-07 1.39459075e-08 -6.9310045e-05 -0.003930824 -4.9254305e-15 0.07920045 -0.022650084 1.1547725e-12
-0.0001494017 6.471952e-25 -0.0041117156 -8.045584e-05 0.00028143893 9.8569846e-17 0.0010950975 2.8603317e-05
0.0012818938 -0.0007219156 -4.797544e-06 -0.018360391 6.0867955e-05 -1.3848862e-06 0.00026570912 1.8800163e-05
0.051161088 -0.011613855 8.092054e-12 -4.7985878e-20 -2.9587592e-32 2.6480873e-11 1.4063661e-14 6.808808e-23
0.024256907 0.003473505 -0.0004657535 -4.3994787e-06 -1.6989121e-08 -0.00033129702 -0.0011011709 -4.9058e-41
-6.053525e-17 -5.4894853e-13 -1.703625e-13 -4.856245e-06 -6.1818664e-06 -0.027825933 -0.0011022823 2.9688957e-07
1.0177074e-06 -2.0870762e-20 5.617056e-16 0.0002426609 -0.94136477 -6.882072e-06 -5.74492e-05 5.3414926e-25
-0.00065461936 -1.0470974e-05 -0.00030259427 0.16350947 -1.2290707e-14 0.0077827494 -0.063987784 -4.247765e-05
-3.333966e-07 9.503781e-11 -4.0699713e-14 -0.001198656 0.00042809738 -9.987622e-16 -5.1572e-41 -1.3195827e-07
-1.2013567e-14 0.001154467 -1.0670292 -1.9873428e-06 7.3357725e-05 0.0009646714 0.0013039126 -2.8619202e-06
-0.0038001263 -0.0003798037 -3.532046e-24 -0.001126881 0.00049833814 1.675418e-05 0.0005019837 0.0046201535
-1.3755038e-05 6.2602187e-19 -8.4954195e-28 -0.00075763563 -3.0560637e-11 -1.6080714e-05 0.047238942 -0.00046104146
-4.672022e-05 -1.4593964e-12 0.0035599917 -0.0016924076 -0.02617208 1.4767495e-19 -0.03807104 -2.7354268e-09
-2.2725437e-06 -0.00029690017 7.443542e-07 -1.3037405e-17 6.7105264e-16 -0.097172126 -3.0353029e-16 -0.003411478
-3.7348986e-15 9.350411e-13 0.0005422598 -2.7228218e-05 -0.0046057147 -0.006751502 -2.4136916e-05 -8.759105e-26
-4.9380816e-19 -0.008942084 -0.014650434 0.19473311 2.1170885e-08 -9.387077e-06 -4.1702316e-07 -3.9610385e-23
-0.00069030595 0.018971464 -0.00071221765 -0.0013364155 -0.00026210732 -0.035955437 -0.031077193 -1.428758e-06
-6.445356e-08 0.00013498399 -0.024184894 4.1388146e-05 1.824912e-05 -7.2663653e-09 0.14580119 -0.0066663064
0.0015171665 7.3330133e-13 -3.6362153e-06 2.1341755e-05 -0.003455406 -1.11152545e-08 0.08883087 -6.057202e-28
-3.3211322e-22 -5.0978524e-06 -0.006546814 -1.2866556e-08 -0.008093955 -7.0317907e-07 2.3804064e-18 0.00010386462
8.3701695e-18 -0.012094956 -0.00014060631 -0.001679518 -0.12616035 -0.016931728 -6.2357486e-08 -9.076714e-17
-0.01856457 3.400529e-08 1.0348964e-07 -2.8056676e-10 -8.184699e-07 -7.671739e-09 -0.011981736 -4.173411e-06
-0.041786328 -3.2438067e-05 -2.4045255e-10 -1.0633532e-05 -0.00013726583 4.7074636e-06 -3.1575223e-07 -1.9685398e-05
2.0586165e-14 -1.4573032e-14 7.858429e-11 0.0024692556 -1.5292862e-06 -4.3692346e-08 -2.6164498e-13 -0.09352251
-0.00054977555 2.3547574e-11 0.0029116068 6.669489e-05 -0.00021575938 -0.016517913 1.829522e-17 -0.026874386
-0.0008716173 -0.008549208 -5.974844e-05 -0.006991185 -0.10697199 -0.022321604 -0.0014077362 -1.4530464e-23
1.7841943e-05 -0.0014830566 -4.786168e-07 -0.00020488577 7.916109e-07 -0.005979406 -1.8345629e-05 -0.0009877795
-0.00029958974 -2.7848253e-12 3.8965542e-08 -0.01093708 -0.0005832634 1.393582e-07 0.00027620513 -0.00092065986
-2.6430086e-28 -2.209628e-09 2.2725317e-05 -4.830244e-22 -7.773828e-07 -0.0024657082 8.5950436e-05 -1.0707633e-31
4.5418215e-06 4.3458944e-18 -9.444839e-05 0.028118089 0.00040663092 -2.5214808e-26 -1.0215973e-05 -0.010694309
-1.5860656e-05 6.1514984e-05 1.33350725e-27 0.0007048581 0.0005054963 0.00090850703 -0.070466444 -0.00042601794
0.00027209645 -0.001232331 -0.041777033 -0.07263504 -2.2869381e-15 -8.4738005e-08 -2.0391881e-17 -1.5448791e-21
00000000: 1ac9 5934 c096 6f32 8c5a 91b8 24ce 80bb
00000010: 1475 b1a7 d833 a23d ab8c b9bc 1085 a22b
00000020: b7a8 1cb9 164c 4817 92bb 86bb 66ba a8b8
00000030: 188e 9339 5e49 e324 6089 8f3a 28f1 ef37
00000040: 3805 a83a f03e 3dba 97fa a0b6 8868 96bc
00000050: 784c 7f38 54e0 b9b5 e04e 8b39 0bb5 9d37
00000060: 4a8e 513d 0a48 3ebc 5f5b 0e2d 5e9b 629f
00000070: a8a0 198b a0ed e82d 3059 7d28 7ba0 a41a
00000080: 6cb6 c63c bea3 633b 6030 f4b9 3c9f 93b6
00000090: 79ef 91b2 efb1 adb9 2a55 90ba c188 0080
000000a0: b495 8ba4 e983 1aab a6cf 3faa d4f2 a2b6
000000b0: d46d cfb6 36f3 e3bc 757a 90ba 3164 9f34
000000c0: 2998 8835 681e c59e 8fe6 2126 ca72 7e39
000000d0: 48fd 70bf 8cec e6b6 9cf5 70b8 aa4f 2517
000000e0: c39a 2bba 7eac 2fb7 84a5 9eb9 076f 273e
000000f0: e268 5da8 6f06 ff3b 070c 83bd 082a 32b8
00000100: aefd b2b4 88fd d02e 934b 37a9 391c 9dba
00000110: 4272 e039 d2ef 8fa6 c38f 0080 6ab0 0db4
00000120: cd6a 58a8 7c51 973a 6a94 88bf 4a5e 05b6
00000130: a1d7 9938 00e2 7c3a 0ce8 aa3a 6a0f 40b6
00000140: 8a0b 79bb 6420 c7b9 b0a3 8898 dab3 93ba
00000150: e8a2 023a 548b 8c37 8e97 033a a864 973b
00000160: 70c5 66b7 e0c4 3821 849d 8692 119c 46ba
00000170: 3868 06ae 12e5 86b7 9f7d 413d f0b7 f1b9
00000180: 74f5 43b8 4c64 cdab c04e 693b c7d3 ddba
00000190: d466 d6bc 0458 2e20 61f0 1bbd 23fa 3bb1
000001a0: 0182 18b6 44a9 9bb9 a2cf 4735 687f 70a3
000001b0: f26a 4126 2e02 c7bd 2af9 aea5 1a93 5fbb
000001c0: 5c90 86a7 6898 832b 7026 0e3a 2768 e4b7
000001d0: 89eb 96bb b43b ddbb a279 cab7 6cdd d895
000001e0: 17bf 11a1 d281 12bc 6008 70bc 1e68 473e
000001f0: 45db b532 307d 1db7 3ae3 dfb4 488b 3f9a
00000200: a6f5 34ba 0b6a 9b3c 1eb4 3aba aa2a afba
00000210: 736b 89b9 0246 13bd 9995 febc c0c3 bfb5
00000220: b869 8ab3 7d8a 0d39 661f c6bc 2f98 2d38
00000230: b015 9937 a0ab f9b1 e84c 153e 0871 dabb
00000240: a9db c63a ee67 4e2b b405 74b6 1207 b337
00000250: 1874 62bb 68f5 3eb2 f6ec b53d dcf5 3f92
00000260: 08c0 c89b 380e abb6 a886 d6bb b60b 5db2
00000270: 829c 04bc 19c2 3cb5 9ba4 2f22 e5d1 d938
00000280: 0267 1a23 ec29 46bc b86f 13b9 4623 dcba
00000290: 2e30 01be 68b4 8abc 64e9 85b3 764b d1a4
000002a0: ba14 98bc 360d 1233 083e de33 433e 9aaf
000002b0: d3b4 5bb5 aacc 03b2 0b4f 44bc 5409 8cb6
000002c0: 2428 2bbd 1c0e 08b8 b030 84af ac66 32b7
000002d0: 04ef 0fb9 cef4 9d36 a884 a9b4 1222 a5b7
000002e0: 776c b928 2043 83a8 06cf ac2e 3cd3 213b
000002f0: e041 cdb5 3ea8 3bb3 044b 93aa bb88 bfbd
00000300: d01e 10ba 6c20 cf2d a8d0 3e3b 8cde 8b38
00000310: 783d 62b9 9350 87bc 5ebe a823 ac27 dcbc
00000320: 3f7d 64ba fa11 0cbc 669a 7ab8 4f16 e5bb
00000330: 2114 dbbd ccdb b6bc ca83 b8ba b087 8c99
00000340: 48ab 9537 1f63 c2ba 4c7a 00b5 9bd6 56b9
00000350: 167f 5435 e5ee c3bb f0e4 99b7 6178 81ba
00000360: 4112 9db9 f4f6 43ac 115b 2733 7031 33bc
00000370: 25e6 18ba 7ea2 1534 a0cf 9039 7058 71ba
00000380: 4485 a791 30d8 17b1 3fa2 be37 34fc 119c
00000390: 57ad 50b5 b897 21bb 4a40 b438 37fe 0a8c
000003a0: f365 9836 d055 a022 9812 c6b8 e857 e63c
000003b0: 1431 d539 22b7 f994 4565 2bb7 2f37 2fbc
000003c0: 800c 85b7 9b01 8138 7b4d d312 3ac6 383a
000003d0: 4883 043a e028 6e3a b650 90bd 295b dfb9
000003e0: 2ba8 8e39 2b86 a1ba 651e 2bbd aec1 94bd
000003f0: 90ca 24a7 36f9 b5b3 f814 bca3 9e74 e99c

shared.3.bias f4 [256]
-0.009061226 -0.05558384 -0.04265733 -0.056144964 -0.052582294 -0.02992231 -0.021589719 -0.044886734
-0.022546096 -0.020225111 -0.055815533 0.19269323 -0.05271068 -0.023628071 -0.3434494 -0.018546004
-0.019474238 -0.0087161865 -0.023854457 -0.056965273 -0.05667318 -0.054119274 -0.012343833 -0.013759008
-0.017094191 -0.046539918 -0.035465036 -0.049478535 -0.027524324 -0.031174468 -0.035584237 -0.029305138
-0.0073666605 -0.045656815 -0.057213284 -0.009260341 -0.026416093 -0.03223269 -0.015309383 -0.01591379
-0.04948607 -0.027027054 -0.05559596 -0.0522704 -0.024020411 -0.14226088 -0.031570237 -0.009286525
-0.04422219 -0.05593565 -0.05532424 -0.056174565 -0.05028807 -0.05547921 -0.017599743 -0.037487976
-0.0563688 -0.05648827 -0.057610177 -0.054296825 -0.058411032 -0.056643274 -0.054266144 -0.056615386
-0.057239696 -0.057808373 -0.004069888 -0.0532542 -0.06620446 -0.015601864 -0.020025712 -0.031093217
-0.022595415 -0.013888763 -0.0032150194 0.013281725 -0.006856394 -0.02947131 -0.055778343 -0.05855257
-0.008102641 -0.057437055 0.12852663 -0.05617599 0.0020370428 -0.024813138 -0.0025086305 -0.015314969
-0.03298462 -0.013820414 -0.010608741 -0.05799948 -0.003836352 -0.05802561 -0.015660815 -0.030556824
-0.021564115 -0.058875352 -0.027938722 0.10005723 -0.057611946 -0.034971908 0.012905905 -0.055315316
-0.02817149 -0.025564414 -0.038323693 -0.012228786 -0.05641446 -0.05622417 -0.058185924 0.04026989
-0.05628313 -0.052566398 1.845583 -0.078413494 -0.009795409 -0.05400705 -0.054977644 -0.03640984
-0.030835072 -0.010498222 -0.004777588 -0.024759134 -0.1852394 -0.06353669 -0.047612213 -0.022432672
-0.034461655 -0.05731896 -0.053347025 -0.019244848 -0.026206851 -0.058551934 -0.05000404 -0.02720162
0.07460502 -0.017078232 -0.003879297 -0.029151784 -0.025521468 -0.030368637 -0.056769457 -0.026135445
-0.027289594 -0.017170213 -0.05450918 -0.056848332 -0.010547835 -0.057495542 -0.040223315 -0.03018482
-0.03603032 -0.032243934 -0.046763018 -0.053647548 -0.016627876 -0.0026556575 1.5446177 -0.055400435
3.5216455 -0.056396116 -0.025474528 -0.011952659 -0.026550334 -0.03487596 -0.05772582 -0.02384465
-0.056338392 -0.014722243 -0.0075622066 -0.060251787 -0.044495862 -0.055306878 -0.047280554 -0.0116408365
-0.008093633 -0.034113076 -0.035928816 -0.00829291 -0.056525975 -0.05343746 -0.055932302 -0.057061095
-0.03961326 -0.055198602 -0.05724006 -0.05264903 -0.18461215 -0.02882081 -0.025928542 -0.05768011
-0.05387186 -0.054158516 -0.024626577 -0.020078542 -0.06679565 -0.0008076629 -0.051154893 -0.055881955
-0.057326872 -0.0573754 -0.67937845 -0.008417584 -0.057847016 -0.0023418178 -0.03699301 -0.055494055
-0.05784521 -0.05740182 -0.1323839 -0.04873889 -0.05404347 -0.03853411 -0.05864675 -0.018179873
-0.008805122 -0.058198664 -0.05541124 -0.015751276 -0.056158256 -0.01961184 -0.053677343 -0.022734744
-0.057642836 0.0076095066 -0.055134 -0.030294199 -0.053691924 -0.017543044 -0.057356946 -0.0037742434
-0.007950897 -0.057407066 -0.054215625 -0.05574468 -0.058214717 -0.030810162 -0.0579273 -0.053647164
-0.03403142 -0.05991655 -0.027164452 -0.021653295 -1.0322223 -0.0571895 -0.055502195 -0.0044021574
-0.04542231 -0.03497313 -0.021846265 -0.05631354 -0.002898243 -0.01371924 -0.025343273 -0.053465873
00000000: 8975 14bc e1ab 63bd 74b9 2ebd 43f8 65bd
00000010: 8860 57bd a21f f5bc ecdc b0bc 27db 37bd
00000020: 97b2 b8bc 22af a5bc d49e 64bd 6051 453e
00000030: 27e7 57bd a88f c1bc 9ad8 afbe caed 97bc
00000040: 7088 9fbc 56ce 0ebc 6c6a c3bc 6b54 69bd
00000050: 2322 68bd 2cac 5dbd ca3d 4abc 766d 61bc
00000060: 1e09 8cbc a4a0 3ebd c943 11bd 01aa 4abd
00000070: b17a e1bc 9961 ffbc c7c0 11bd 5411 f0bc
00000080: 0764 f1bb a402 3bbd 7a58 6abd afb8 17bc
00000090: 9066 d8bc 6d06 04bd 35d4 7abc a35d 82bc
000000a0: e8b1 4abd d767 ddbc 97b8 63bd 7d19 56bd
000000b0: 74c6 c4bc d6ac 11be cb4f 01bd 8226 18bc
000000c0: 5422 35bd c81c 65bd ac9b 62bd 4d17 66bd
000000d0: ddfa 4dbd 2b3e 63bd 562d 90bc fe8c 19bd
000000e0: f9e2 66bd 3f60 67bd a6f8 6bbd 5966 5ebd
000000f0: 6840 6fbd c702 68bd 2d46 5ebd 89e5 67bd
00000100: 2c74 6abd 79c8 6cbd b25c 85bb 1321 5abd
00000110: 3496 87bd f69e 7fbc f60c a4bc 34b7 febc
00000120: 051a b9bc b28d 63bc 13b3 52bb 989b 593c
00000130: 9aab e0bb d16d f1bc d577 64bd d2d4 6fbd
00000140: f1c0 04bc 1e43 6bbd 7c9c 033e cb18 66bd
00000150: e87f 053b ec44 cbbc d667 24bb a3eb 7abc
00000160: e21a 07bd 056f 62bc 49d0 2dbc dd90 6dbd
00000170: 4e6b 7bbb 43ac 6dbd 1c4b 80bc 4e52 fabc
00000180: 3aa7 b0bc 4827 71bd bfdf e4bc ceea cc3d
00000190: 81fa 6bbd b43e 0fbd 4a73 533c 5092 62bd
000001a0: e6c7 e6bc 766c d1bc 4ef9 1cbd 3f5b 48bc
000001b0: d912 67bd 514b 66bd 5d54 6ebd 0af2 243d
000001c0: 2489 66bd dd4f 57bd 103c ec3f 4197 a0bd
000001d0: ec7c 20bc 7f36 5dbd 3d30 61bd 7c22 15bd
000001e0: d599 fcbc bc00 2cbc 508d 9cbb abd3 cabc
000001f0: 66af 3dbe 861f 82bd 0605 43bd b9c4 b7bc
00000200: aa27 0dbd 49c7 6abd 6982 5abd 5fa7 9dbc
00000210: c0af d6bc 27d4 6fbd 09d1 4cbd efd5 debc
00000220: 84ca 983d a6e7 8bbc ce3b 7ebb b9cf eebc
00000230: 6612 d1bc a6c7 f8bc 1787 68bd 001a d6bc
00000240: 6d8e dfbc 8ca8 8cbc 0545 5fbd ccd9 68bd
00000250: d4d0 2cbc 7280 6bbd 34c1 24bd 2846 f7bc
00000260: 8794 13bd 3712 04bd 948a 3fbd 88bd 5bbd
00000270: 2f37 88bc 8a0a 2ebb 08b6 c53f 91eb 62bd
00000280: a462 6140 9dff 66bd f5af d0bc 16d5 43bc
00000290: 1680 d9bc 18da 0ebd e971 6cbd db55 c3bc
000002a0: 16c3 66bd 9035 71bc 63cc f7bb 94ca 76bd
000002b0: 4b41 36bd 7789 62bd 41a9 41bd 35b9 3ebc
000002c0: 289b 04bc 27ba 0bbd 182a 13bd fcde 07bc
000002d0: c887 67bd 3de1 5abd 4519 65bd e5b8 69bd
000002e0: 8441 22bd ee17 62bd 8e74 6abd 82a6 57bd
000002f0: f80a 3dbe 9f19 ecbc 1868 d4bc fb41 6cbd
00000300: bda8 5cbd 52d5 5dbd adbd c9bc c17b a4bc
00000310: 28cc 88bd 57b9 53ba cb87 51bd 7ae4 64bd
00000320: 95cf 6abd 7802 6bbd bfeb 2dbf e8e9 09bc
00000330: fef0 6cbd 2f79 19bb fc85 17bd bc4d 63bd
00000340: 19ef 6cbd 2c1e 6bbd a58f 07be 6ea2 47bd
00000350: b05c 5dbd f1d5 1dbd 9337 70bd f5ed 94bc
00000360: 5c43 10bc b961 6ebd e5f6 62bd d208 81bc
00000370: 3306 66bd 02a9 a0bc c6dc 5bbd 373e babc
00000380: e51a 6cbd 2b59 f93b 30d4 61bd 8a2b f8bc
00000390: 10ec 5bbd 6eb6 8fbc 1eef 6abd 4c59 77bb
000003a0: 7b44 02bc ac23 6bbd 3411 5ebd 8954 64bd
000003b0: 8e72 6ebd 9865 fcbc 2d45 6dbd 21bd 5bbd
000003c0: 8864 0bbd 0e6b 75bd fc87 debc 4062 b1bc
000003d0: dc1f 84bf 8a3f 6abd 4556 63bd f93f 90bb
000003e0: be0c 3abd fc3f 0fbd f0f6 b2bc 07a9 66bd
000003f0: 73f0 3dbb aac6 60bc b29c cfbc 08ff 5abd

shared.4.weight f4 [256]
2.155309e-11 -0.00014459554 -2.603626e-14 -1.1717311e-16 -0.001687395 -1.9068137e-05 -1.4113587e-06 0.13265957
3.3775475e-05 -1.9703151e-05 2.4880226e-06 -3.4313507 -5.922526e-10 1.2523766e-11 -1.3512883 -6.91497e-14
-7.5169787e-10 -0.0009819355 -0.99504834 -0.0035482217 2.6213262e-22 5.666229e-07 -0.012310326 -8.061587e-09
-3.733365e-05 -1.9363855e-13 -1.054473e-06 4.541809e-08 -0.00013784287 2.7250203e-06 -7.937258e-05 -0.00014435963
-4.507252e-11 -1.5971962e-07 6.6316898e-06 0.9098351 -0.05695398 8.6992105e-07 -0.00012732774 1.5075774e-11
5.983741e-07 1.5984839e-09 7.184762e-16 -0.42151737 2.255534e-07 -2.7581558 -4.2482927e-07 -3.8191193e-19
-0.66832846 3.8856098e-07 2.7418412e-09 -0.05612146 0.12926868 2.16772e-06 2.1114677e-09 -1.1999427e-16
0.00018766681 0.0017353356 -0.006537315 0.000104168146 -1.3331037e-08 8.435796e-17 0.15145344 0.00023502528
0.00094856985 0.01591015 4.892816e-05 -0.000583338 0.121335134 -0.031708863 1.4406129e-06 1.0157678e-12
6.304626e-08 -0.1905919 -0.20596513 1.1463165 -0.1364739 -1.6238179 1.0196446e-29 -0.36751023
-0.0003125139 -0.0037029355 0.95433724 0.025378369 -0.29934064 1.2272817e-11 -0.0014309848 -0.00016941791
1.8078161e-06 2.1379299e-07 -3.355456e-07 0.45101145 1.6597231e-07 -2.113868e-08 4.060432e-05 0.073743716
-2.0646389e-10 1.0052478e-08 1.0326158e-05 0.44897664 -1.3574022e-07 -0.0081511 -7.3733196 -0.3989292
1.3181767e-10 -4.6234484e-13 0.56299233 -9.3474666e-11 -0.00010909568 0.119336575 -0.013144981 -0.70109177
1.1830514e-05 1.1999055e-13 13.757703 1.7422076 -0.1331973 5.3499934e-06 0.69284505 3.3836474e-07
3.258568e-17 3.233392e-05 2.050703e-13 0.0019174599 -0.44467032 -0.07654138 2.8340079e-05 6.433788e-10
-1.1606171e-05 -0.00271921 -0.024736702 4.4162785e-10 -1.3768929e-05 0.068636596 -0.20911877 1.1867721e-10
0.0737296 -3.0281328e-13 -1.2852579e-08 -0.009691536 9.807247e-11 0.02047862 0.0006404274 -2.0144266e-06
8.260985e-09 1.3762533e-15 -0.044963725 -9.785723e-11 2.0405918e-11 -0.01338401 0.22626853 3.4133034e-08
0.0022454564 3.648818e-08 0.49706554 -1.051568e-07 -9.879605e-13 -3.7492842e-10 -4.925244 2.0041878e-16
-28.576702 0.001399488 -4.831791e-07 -0.04737603 -2.5178965e-12 1.6499781e-18 -1.325595e-05 -0.02328296
0.003068502 0.00018874214 -0.00021562458 0.84503186 -0.016787872 -0.035097077 1.828569e-17 -5.8126106e-13
-1.0974242e-07 1.6079355e-17 8.3749034e-14 1.2957327e-05 0.15443906 1.9667809e-08 5.8123533e-08 1.0799495e-12
-0.00013407678 3.5484452e-05 -0.0008179925 -0.013345644 -11.941998 -5.1029037e-05 -6.815751e-13 -0.0017719072
0.0001078972 0.008537345 4.576953e-07 -0.0014796113 -10.583322 6.794469e-09 -1.2648211e-06 -0.00024528417
-2.9594796e-07 -1.200427e-05 5.1917963 -8.761691e-19 -0.0038628078 0.010488629 0.027913887 -2.45867e-07
-4.008055e-05 5.895602e-06 6.157434 -1.36324015e-05 -4.9983196e-08 -0.3504674 0.022987682 -0.13800861
-1.6784976e-09 -0.01813899 0.068166256 1.2012522e-13 3.898512e-13 0.001822229 2.7928652e-07 0.00074601284
-0.061963256 -0.72545135 2.3306823e-09 -2.09884e-09 0.0020387126 0.0009869435 -1.7402323e-10 -1.1862148e-15
3.094434e-09 -1.3719605e-08 0.030334901 -0.00097209314 -0.0008187124 0.004044698 6.243282e-18 0.01529874
-0.02699193 0.00026579195 -5.447967e-08 0.11839125 15.686928 5.1796536e-09 0.023958813 -2.7977856e-09
0.103016526 -8.9580456e-14 -0.00015012293 0.003593162 3.1997263e-06 -0.004188449 1.0982141e-05 -1.07917675e-08
00000000: 3e95 bd2d 929e 17b9 8783 eaa8 6617 07a5
00000010: 952b ddba 83f4 9fb7 ea6d bdb5 e9d7 073e
00000020: 24aa 0d38 3248 a5b7 e7f7 2636 409b 5bc0
00000030: 12cc 22b0 0752 5c2d 04f7 acbf 17b6 9ba9
00000040: 09a0 4eb0 4ab4 80ba 7dbb 7ebf 4889 68bb
00000050: 0f73 9e1b 071a 1835 40b1 49bc 3c7f 0ab2
00000060: b496 1cb8 8304 5aaa 6b87 8db5 b811 4333
00000070: ea89 10b9 7edf 3636 d474 a6b8 3e5f 17b9
00000080: 253b 46ae 657f 2bb4 c885 de36 f4ea 683f
00000090: 9448 69bd 8584 6935 4883 05b9 a09b 842d
000000a0: f49f 2035 a7b1 db30 3016 4f26 20d1 d7be
000000b0: a62f 7234 a085 30c0 1714 e4b4 e670 e1a0
000000c0: 9317 2bbf 6a9b d034 fb6a 3c31 9edf 65bd
000000d0: 025f 043e 2579 1136 5519 1131 0f58 0aa5
000000e0: 6dc8 4439 3374 e33a f936 d6bb d974 da38
000000f0: 8506 65b2 2684 c224 9c16 1b3e 1e71 7639
00000100: 72a9 783a 0156 823c 3638 4d38 27eb 18ba
00000110: 8e7e f83d 27e1 01bd 155b c135 e4f4 8e2b
00000120: 0c64 8733 862a 43be 86e8 52be 80ba 923f
00000130: d0bf 0bbe 44d9 cfbf f9ce 4e0f 4d2a bcbe
00000140: e8d8 a3b9 f3ac 72bb 724f 743f 4ce6 cf3c
00000150: 2d43 99be dbe7 572d e28f bbba c6a5 31b9
00000160: 17a4 f235 f88e 6534 0925 b4b4 f9ea e63e
00000170: 1f36 3234 7394 b5b2 8e4e 2a38 f206 973d
00000180: 6b02 63af 44b3 2c32 833e 2d37 44e0 e53e
00000190: fdbf 11b4 318c 05bc 3cf2 ebc0 7340 ccbe
000001a0: 60ef 102f 7523 02ab 4420 103f 8f8d cdae
000001b0: 4cca e4b8 bc66 f43d 0c5e 57bc c07a 33bf
000001c0: ac7b 4637 ec18 072a 8d1f 5c41 a900 df3f
000001d0: df64 08be 1884 b336 4b5e 313f 7fa8 b534
000001e0: 6146 1624 489e 0738 7de3 662a 4753 fb3a
000001f0: d4ab e3be bac1 9cbd dbbb ed37 c2d9 3030
00000200: 20b8 42b7 c634 32bb a0a4 cabc 98c9 f22f
00000210: 1a01 67b7 5891 8c3d 3b23 56be aa7c 022f
00000220: 8bff 963d fe77 aaaa 3dce 5cb2 40c9 1ebc
00000230: e4a9 d72e c7c2 a73c 5be2 273a 962f 07b6
00000240: 32ec 0d32 c956 c626 e22b 38bd b930 d7ae
00000250: 0b7e b32d 9b48 5bbc f0b2 673e ab99 1233
00000260: 8228 133b 2eb7 1c33 607f fe3e 90d2 e1b3
00000270: 070b 8bab 7c1e ceaf 999b 9dc0 2f11 6725
00000280: 169d e4c1 066f b73a d1b3 01b5 5e0d 42bd
00000290: 642e 31ac 697e f321 df65 5eb7 e8bb bebc
000002a0: ec18 493b 15e9 4539 4819 62b9 0254 583f
000002b0: b886 89bc f4c1 0fbd dda7 a823 469c 23ab
000002c0: 89ab ebb3 4e4e 9423 0896 bc29 4c63 5937
000002d0: 4625 1e3e f8f1 a832 80a3 7933 48fd 972b
000002e0: f696 0cb9 24d5 1438 8c6e 56ba b0a7 5abc
000002f0: 6c12 3fc1 0308 56b8 a9d8 3fab 573f e8ba
00000300: de46 e238 38e0 0b3c 2ab9 f534 84ef c1ba
00000310: 4955 29c1 c874 e931 ecc2 a9b5 7c99 80b9
00000320: c7e2 9eb4 f265 49b7 3223 a640 bc4c 81a1
00000330: 2927 7dbb 80d8 2b3c aaab e43c b4ff 83b4
00000340: 2a1c 28b8 d6d2 c536 b309 c540 b8b6 64b7
00000350: 1bad 56b3 7770 b3be aa50 bc3c 2152 0dbe
00000360: e2b0 e6b0 3898 94bc c09a 8b3d bd3f 072a
00000370: 7b77 db2a dcd7 ee3a d9f0 9534 1390 433a
00000380: 2fcd 7dbd 2eb7 39bf cc29 2031 2f3b 10b1
00000390: ec9b 053b 545c 813a 2f57 3faf 9af3 aaa6
000003a0: dca5 5431 76b3 6bb2 e680 f83c 11d4 7eba
000003b0: dc9e 56ba 6389 843b 2256 e622 91a7 7a3c
000003c0: 2e1e ddbc fe59 8b39 08fd 69b3 1d77 f23d
000003d0: a8fd 7a41 b7f8 b131 4645 c43c 2a43 40b1
000003e0: 54fa d23d 9eb7 c9a9 516a 1db9 417b 6b3b
000003f0: e1ba 5636 423f 89bb f03f 3837 b266 39b2
