checkpoints/yahtzee_pretrain_faster/checkpoint_ep9999.pt (torch, 786859 bytes, 19 tensors)

shared.0.weight f4 [512, 23]
000000 85 12 43 bd 8c b0 4b 3e 8c 9c 97 bd cf cc 09 3e
       -0.047625083 0.19891566 -0.07402906 0.13457035
000010 45 99 50 bd d3 da 62 17 b3 5d c7 be 31 25 62 be
       -0.05092742 7.3300733e-25 -0.38938674 -0.220845
000020 a3 79 8a be 98 3d 92 be f0 2d 0d be 7e a4 eb bd
       -0.27045926 -0.28562617 -0.13787055 -0.11505984
000030 28 ff 63 bc b2 c5 1e 3d e4 72 0c be fa 02 b8 3d
       -0.013915814 0.038762756 -0.13715702 0.08984943
000040 38 5c f0 3c 24 52 86 bc 52 fb 6b 3e f3 49 25 97
       0.029340848 -0.01639659 0.2304509 -5.340771e-25
000050 29 96 e0 ba bd e7 84 97 a7 42 6a 18 ad e2 68 bd
       -0.0017134595 -8.588799e-25 3.0277442e-24 -0.0568568
000060 e9 09 8e 3d 8e 1e 1f 3d 43 dd 99 bd 40 64 08 be
       0.06935484 0.0388475 -0.075129054 -0.13319492
000070 04 a9 dc 97 d5 ac 93 3e 1d 5c 9c 3e bb 28 56 3e
       -1.4259832e-24 0.28842798 0.30539027 0.20913975
000080 23 92 52 3e 90 f3 46 be 00 6b 32 3e f3 a8 21 3d
       0.20563559 -0.19428849 0.1742363 0.039467763
000090 3b a4 b6 bd 3d 5a af 3d 4b e7 a4 3d 2f 05 b7 3c
       -0.08918043 0.085621335 0.08051928 0.022341339
0000a0 af 6b 1e 3e 37 74 49 3c 93 37 30 17 88 f0 c0 3c
       0.15470766 0.012295774 5.693881e-25 0.023552194
0000b0 80 8e da 97 e4 ec 30 97 55 f1 12 3e a6 4f 89 3d
       -1.4123892e-24 -5.7167665e-25 0.14349873 0.06704645
0000c0 45 e9 0d 3d 91 d0 f4 bc 43 8b 92 3d 24 28 e7 96
       0.03464629 -0.029884608 0.07155468 -3.7345395e-25
0000d0 2c f5 2c 3e 5b e4 bf 3e 96 a6 a4 bf 6c c8 fb 3d
       0.168904 0.3747891 -1.2863338 0.12294087
0000e0 56 5f b7 3d e2 ed 8f 3d 24 6d a0 bc 93 cf 06 3e
       0.08953731 0.070277944 -0.019583292 0.13165121
0000f0 98 07 0a 3e 4e d5 49 3d f7 16 09 3d 21 ea 6a 3d
       0.1347946 0.04927569 0.033469167 0.05735219
000100 00 78 28 3e 47 f3 85 95 37 9a 73 3d ac 5e 86 15
       0.16452026 -5.4102096e-26 0.059473243 5.4271535e-26
000110 d0 04 57 16 ec d1 08 3e 13 36 50 3d fe 17 6b 3d
       1.736908e-25 0.13361329 0.05083282 0.057395928
000120 5c c0 80 3d 57 50 e4 3d e0 cb 73 95 de 72 ca 3c
       0.0628669 0.11148136 -4.9234288e-26 0.024712976
000130 9c dd 94 3c ff 68 0d bd 92 be 1e 3c 75 78 8e 3d
       0.018172078 -0.03452396 0.00968899 0.06956569
000140 88 04 61 3d 33 d9 9e 3d 4d 8f 8d 3c 31 b1 1e 3d
       0.054935962 0.07756271 0.017280245 0.0387432
000150 b3 40 7f 3d 6d df 2e 3d 96 ea 82 3c e8 33 bf 3c
       0.06231756 0.042693544 0.015981 0.02334018
000160 24 8f 10 18 27 01 88 bb 0a c6 43 17 e8 26 3f 17
       1.8683831e-24 -0.004150528 6.325786e-25 6.1764535e-25
000170 1c 2e 0f be 3e 40 7c bd d7 cf 01 be 9c 24 d5 3c
       -0.13982433 -0.061584704 -0.12676941 0.026018433
000180 42 c3 5d 3d fe c8 cc 95 78 80 af 3e e2 45 8e 3e
       0.05414129 -8.2712054e-26 0.342777 0.2778769
000190 60 25 80 3e 2c f8 63 3e 84 61 5d 3e fc 3d 6e 3e
       0.25028515 0.22262639 0.2161923 0.23265833
0001a0 0b 4c 17 3d a8 65 9b 3c 08 ea 5b bd 71 ca 18 3d
       0.036937755 0.018969372 -0.053689986 0.03730244
0001b0 9b 10 b8 bb 51 7d 36 bd 7b cf fd bc f2 d7 87 98
       -0.005617214 -0.044553105 -0.030982723 -3.511473e-24
0001c0 9d 75 47 bc 78 79 a0 18 00 f3 b0 15 1c e8 82 3c
       -0.012174037 4.1481683e-24 7.146922e-26 0.015979819
0001d0 0d f7 bf 3d 09 4c b0 3d b3 08 d6 3d 73 59 e6 3d
       0.09373293 0.086082526 0.10450878 0.1124753
0001e0 eb e8 08 16 10 ff 83 be 3d fd 83 be ee 35 ac bb
       1.1059488e-25 -0.25780535 -0.25779143 -0.0052554524
0001f0 78 b5 21 bd 1e 14 16 be a8 d5 24 be f6 0e 7b 3d
       -0.039479703 -0.14656112 -0.16097128 0.061293565
000200 70 0b 07 3d f4 d8 5e 3c 69 18 35 bb 80 78 27 3d
       0.032969892 0.01360153 -0.0027632958 0.040886402
000210 9c 0f 03 3e 20 72 27 3e b1 72 98 97 d4 4b d5 bc
       0.12798923 0.16352129 -9.851722e-25 -0.026037134
000220 4d 49 d1 17 67 ef 63 96 4f 56 b2 3d 09 11 93 3d
       1.3524812e-24 -1.8412456e-25 0.08707868 0.071809836
000230 21 f5 ad 3d aa fd e6 3d f3 48 09 3e 16 f3 54 18
       0.0849402 0.11278851 0.13406734 2.7523085e-24
000240 fa 3b ce 3c a5 ea 6f 3c 6b ae 0d bd f0 87 ca 3c
       0.025175083 0.014643346 -0.034590166 0.024723023
000250 ed 10 7f 3d 10 7d 61 3d 7e 58 84 3d a5 f8 82 3c
       0.062272 0.05505091 0.06462191 0.015987704
000260 b0 84 fb bb 0b 7b 55 3d 80 51 12 3d 48 d2 7f 3c
       -0.0076757297 0.052119296 0.035722256 0.0156141
000270 c6 65 cc 3c 45 97 84 18 45 26 29 3b 65 77 5b 18
       0.024950873 3.4273943e-24 0.0025810164 2.8365365e-24
000280 84 d4 e9 15 87 d9 ea 3c 44 bb 41 3d e2 11 58 3d
       9.444324e-26 0.028668178 0.04729773 0.05275143
000290 93 62 69 3d ac 86 5c 3d b2 23 c0 96 3b 03 b9 3c
       0.056978773 0.05383937 -3.10418e-25 0.022584548
0002a0 2e 0e 53 3c 35 55 f1 bc d5 e2 a7 3c 2e d4 b9 3d
       0.012881799 -0.029459575 0.020493904 0.09073673
0002b0 69 44 37 3b 62 65 2b 3d 42 b9 56 3c 72 13 92 3c
       0.002796436 0.041844733 0.013105692 0.017831538
0002c0 17 6e 37 3d d0 d1 15 3d c4 bf 8a 3c c7 e1 00 3e
       0.044782724 0.036577046 0.016937144 0.12586127
0002d0 83 65 04 98 1f fd a5 3b 6b e2 b3 97 17 6e 77 98
       -1.711185e-24 0.005065575 -1.162476e-24 -3.1979583e-24
0002e0 22 2e 98 3d 95 98 8d 3d e7 cc bf 3d 0d 03 e8 3d
       0.07430674 0.06913868 0.09365254 0.11328707
0002f0 7e 07 e8 3d f8 fb 83 96 9a 05 c6 3c f9 fa 7b 3c
       0.11329554 -2.1323206e-25 0.024172593 0.015379661
000300 b8 6f cd bc af b9 d3 3c cc 9e 55 3d 94 7a a7 3d
       -0.025077686 0.025845377 0.052153394 0.08177677
000310 da e4 78 3d 82 33 89 3c 5d b7 d8 3c 0e 76 52 3d
       0.060765125 0.016748194 0.026454622 0.051382117
000320 41 49 41 3d 37 79 80 3c 98 d1 e4 3c 39 d3 ee 97
       0.047189 0.0156828 0.027931973 -1.543371e-24
000330 4a 57 0c bc 5c 97 8b 16 50 c8 be 17 a2 e1 39 bd
       -0.008565733 2.2552182e-25 1.2329028e-24 -0.045381196
000340 df f2 0e be 73 8e 88 bd 00 a3 86 3d 7e dc 62 3c
       -0.13959835 -0.06667795 0.065740585 0.013846515
000350 f6 a6 82 15 9d 83 a3 3e 95 db 9b 3e be 0c ba 3d
       5.277e-26 0.3193635 0.30440965 0.09084462
000360 9e 46 72 3e f7 88 16 3e da a4 c3 3e f2 7c 7f 3a
       0.23659751 0.14700685 0.3821171 0.00097460963
000370 20 d1 af 3c fa 55 1c 3e e2 b1 e7 3d 5d 9f 8a 3d
       0.021462023 0.15267172 0.11313225 0.067686774
000380 52 e0 49 bd a8 8c 6d bd cf b4 40 17 e3 42 6c 3a
       -0.049286194 -0.05799547 6.226676e-25 0.00090126524
000390 91 00 89 18 2a 0e 1c 97 79 16 d4 3d 0d b8 7e 3d
       3.541424e-24 -5.0424196e-25 0.10355849 0.062187243
0003a0 0f 92 a7 3d e9 75 c9 3d 1e a5 da 3d 4e 02 14 98
       0.08182155 0.09836943 0.10676025 -1.9129715e-24
0003b0 af 09 c0 3c 3f ea 83 3c 13 3f 0f bd be 34 2f 3d
       0.023442117 0.016102908 -0.03497226 0.04277491
0003c0 b5 42 64 3d b2 10 3a 3d 50 5a 40 3d ea 07 a3 3c
       0.05572768 0.04542608 0.04696113 0.019901235
0003d0 d7 35 50 3c 54 79 18 3d 77 7e 30 3d 9e d3 80 3c
       0.012708149 0.037225083 0.043089356 0.015725907
0003e0 9e dc 52 3d d0 b1 8c 15 00 b8 08 bc fc 2a ed 16
       0.05147993 5.682609e-26 -0.00834465 3.8316542e-25
0003f0 d0 41 08 18 26 81 68 bd 9a 9f 70 bc 98 25 43 bc
       1.7610815e-24 -0.05676379 -0.0146864895 -0.0119108185

shared.0.bias f4 [512]
000000 6e 7f b9 3d 94 fe 57 3d b4 79 ad 3d 4e 13 ae bc
       0.090575084 0.05273302 0.08470479 -0.02124944
000010 49 f6 8d be e6 52 fd be 56 2d b7 bc 22 ab e7 bc
       -0.27726963 -0.4947731 -0.022360485 -0.028279845
000020 a4 75 b3 bc 2b 7e 4b bc ca 04 c2 bc db 16 bf bd
       -0.021906681 -0.0124202175 -0.023683924 -0.09330531
000030 0e 2c 0c 3d 4f ad fd bc 9a 05 28 3e 58 40 2b 3e
       0.0342217 -0.030966429 0.16408387 0.16723764
000040 09 fc c2 bc bc 7c 1e bd 94 c9 e9 be 1f f2 c2 bc
       -0.02380182 -0.038693175 -0.45661604 -0.023797093
000050 24 15 bc bc 85 50 4d bd 16 1a 53 bd a0 a1 fb 3d
       -0.0229593 -0.050125618 -0.05153855 0.12286687
000060 e0 4b d6 bd 1a 26 9d bc ff 1a d6 bb 6a b7 e0 bd
       -0.10463691 -0.019183207 -0.00653398 -0.109724835
000070 be b4 ae bc 9e 14 62 bd 48 87 f5 bd d7 b8 c2 3e
       -0.021326419 -0.055195443 -0.119886935 0.38031647
000080 5f a0 8c bc dd 06 f0 3c 97 bb 31 3f eb f7 14 be
       -0.017166315 0.029300148 0.69426864 -0.14547698
000090 3a 23 ff 3c 1c ed 12 3e 55 00 02 bf f2 52 34 3d
       0.031144727 0.14348263 -0.50781757 0.044024415
0000a0 27 c9 9a 3d 0b 83 13 3e 9a 3a c8 bc 73 a2 57 bd
       0.07557898 0.14405458 -0.024442006 -0.052645158
0000b0 3e d8 5b bd 6c 16 28 ba 86 64 01 bf 53 b0 f7 be
       -0.05367302 -0.00064120325 -0.5054401 -0.48376712
0000c0 64 92 6c bc f6 b6 a8 bd 83 bc 5b 3c 19 9e 0e 3d
       -0.014439199 -0.08238022 0.013411644 0.034818742
0000d0 48 a4 16 be 8e 65 a8 bc 8a fa eb 3b e1 3b d1 bc
       -0.14711106 -0.020556238 0.0072014974 -0.025541248
0000e0 df 94 86 3e 01 b4 f4 be d3 02 c3 bc 31 ed 70 bc
       0.26285455 -0.47793582 -0.023805058 -0.014704988
0000f0 a4 65 b2 3e 6c fd 98 bc b8 6f ca 3d 36 57 79 3f
       0.3484317 -0.018675528 0.0988459 0.973987
000100 d0 cc 3f 3e 1d 65 d5 be 0d d9 cb 3d 2b 2b 19 bf
       0.18730474 -0.41678706 0.099535085 -0.59831494
000110 54 bf 9c bc 3b 42 58 3e af 5c 68 bd 5c 00 c5 bc
       -0.019134201 0.21119015 -0.056729015 -0.024048023
000120 70 8c af bc 7f bb b3 bc e2 3b 2f 3e a4 91 e7 3d
       -0.02142927 -0.021939991 0.17112687 0.113070756
000130 2e c5 99 bc a4 fb 8a bd 89 d0 b9 bc ba 93 f3 3d
       -0.01877078 -0.06786278 -0.022682445 0.11893411
000140 fa 7c 52 bc 39 22 bc bc a0 db cb bc 6c 9d 5f 3c
       -0.01284718 -0.022965537 -0.024884999 0.013648372
000150 13 ca 2d 3e b4 fd 9c bc 4c 96 f4 3c a8 7a 82 3e
       0.16971616 -0.019163944 0.029856823 0.25484204
000160 72 bc 68 bd 8b 53 d1 bc 6c d3 9a bd 98 1e b9 bc
       -0.05682034 -0.025552532 -0.07559857 -0.022597596
000170 9b 89 df 3d 9f 67 cd be f7 7b 44 bd 71 7c 4f 3b
       0.10914918 -0.4011812 -0.047969785 0.0031659866
000180 63 eb 97 bd 89 59 9b 3d af e5 ac 3e 5e 6d 59 3d
       -0.07417943 0.07585437 0.33768985 0.053082816
000190 68 1b 3d 3d f6 9f c1 3c 43 05 37 be 39 1f 84 3e
       0.046168715 0.023635846 -0.17873101 0.2580507
0001a0 45 51 66 3d 14 5d ba 3a e5 87 e1 3d 02 94 8b 3e
       0.05622985 0.0014218413 0.11012248 0.27261358
0001b0 1f 85 d6 bc bb 59 ba bd fa f9 dd bc 01 74 53 3f
       -0.026186524 -0.09099146 -0.027096737 0.8259888
0001c0 c4 64 cb bc c9 ae 1d be 20 31 ac 3e 07 79 5e be
       -0.024828322 -0.15398706 0.3363123 -0.21725856
0001d0 ce 2b 42 bd e3 45 bc bc b2 18 cc bc 32 39 51 3e
       -0.047405057 -0.022982543 -0.02491412 0.20431975
0001e0 06 01 48 be 54 bf fc bd f3 89 66 bc 93 a6 c7 bc
       -0.1953164 -0.123411804 -0.014070976 -0.024371421
0001f0 84 03 82 3e 9f 53 25 bd ca 1a 85 3e 9d c8 06 3d
       0.25393307 -0.04036295 0.25997 0.032906163
000200 66 bd 4e be b4 e3 dd bd 62 31 be bc 0f 0e cf bc
       -0.20189437 -0.108344465 -0.023216907 -0.025275258
000210 2c bb 29 be 3d 02 38 bc f7 15 bc bd 82 2d ac bd
       -0.16575307 -0.011231002 -0.09183877 -0.084071174
000220 80 5e 5d 3e 8f 88 8e bd e5 fb 85 bc 4a d8 a4 3c
       0.2161808 -0.0695964 -0.016355464 0.020122666
000230 d1 96 cf bc 5a 1f 21 3c 9a b6 14 3e 63 13 80 bd
       -0.02534047 0.009834135 0.14522782 -0.06253698
000240 90 50 cc bc c3 f0 01 bd 5b 75 7f 3e 9b 41 a1 bd
       -0.024940759 -0.03172375 0.24947111 -0.078738414
000250 f6 cd 7e 3e b5 8f d0 bc 02 57 ac bc bc 62 8e bc
       0.24883255 -0.02545915 -0.021037582 -0.017381065
000260 4b 2d 8d bd 6f aa c1 bc df ee c9 bd b9 25 96 3c
       -0.068934046 -0.02364084 -0.09860014 0.018328534
000270 95 1e e6 bc fc 4f 99 3d 83 c2 4c bd a0 59 1e 3f
       -0.028090755 0.07485959 -0.04999019 0.61855507
000280 63 93 90 3e 54 ee be 3d 23 cb b3 bc 23 e2 9d be
       0.28237447 0.09322801 -0.02194745 -0.3083659
000290 c5 50 d4 bc 43 c3 83 bc eb 7b 30 bf 7c 87 27 3d
       -0.02591742 -0.016084319 -0.68939084 0.040900692
0002a0 8d 38 19 bd 53 98 91 bc b6 83 38 3d 5e 2b 01 3f
       -0.037407447 -0.01777283 0.045047484 0.504568
0002b0 67 de 87 bc 94 d0 ca bc 89 f4 39 be b3 4f 1e bc
       -0.016585542 -0.02475766 -0.18159689 -0.009662556
0002c0 ae 85 b6 bd 27 3b 13 3e 3d e2 fb bc 6f 6c 3c 3e
       -0.08912216 0.14378034 -0.030747527 0.18400739
0002d0 5a 66 bc bc e6 5d a4 3c 5b d8 88 bc 11 5a 96 bc
       -0.022998024 0.020064306 -0.016704729 -0.018353494
0002e0 81 8c c0 bc b1 7a 67 3e 51 a3 3a bd 4b 9c 92 bc
       -0.023504497 0.22605397 -0.045565907 -0.017896792
0002f0 f4 45 41 3d d3 23 2f 3e 11 39 fb bd 32 2c 17 be
       0.047185853 0.1710351 -0.12266744 -0.14762953
000300 38 92 7e 3e fc 8d aa bd e6 20 89 be 23 26 e2 3e
       0.24860466 -0.083278626 -0.26782912 0.4416972
000310 3a 77 b4 bc e4 14 84 be 2f 73 f9 be 9b 32 2e be
       -0.022029508 -0.25797188 -0.4872069 -0.17011492
000320 bc f9 2c bd c4 7b 22 bf f3 77 bc bc 7e 7c 03 bd
       -0.042230353 -0.634701 -0.023006415 -0.032101147
000330 5a 22 d3 3e 6d f5 b0 bc 96 c6 8d 3e 45 23 8c 3e
       0.41237146 -0.021601403 0.27690572 0.2737066
000340 23 c5 c4 bc 25 fb c2 bc e4 69 7d 3d 22 52 d4 3c
       -0.024019783 -0.023801396 0.061868563 0.02591807
000350 65 ff 01 be 62 9d f2 3c 66 f0 e9 bb 91 8c c0 bb
       -0.12695082 0.029616062 -0.0071392534 -0.005876132
000360 d4 c5 c3 bc c1 98 b8 3e ba 36 67 3d 2f 6e d6 bc
       -0.023898043 0.36054042 0.056448676 -0.026175587
000370 f6 f9 c0 bc 2e 7b 91 bc 6c f9 c9 bc 15 f3 e1 3c
       -0.02355669 -0.017758932 -0.024655066 0.02758173
000380 8b e3 c7 3e a4 48 5f 3e 5d 99 d3 bc 3a d1 98 bc
       0.3904079 0.21805054 -0.025829965 -0.018654454
000390 51 1d b2 bc b6 0c 3b 3c 36 73 ca bc 3a b4 ec ba
       -0.021742495 0.011416605 -0.02471314 -0.0018059083
0003a0 56 6e ac bc a7 18 06 bc f4 32 16 bd 5f 9c 3f 3d
       -0.021048706 -0.0081845885 -0.036669686 0.046779986
0003b0 13 c2 59 bd c2 de a6 bc 63 86 cd 3d ce 9a d2 bc
       -0.0531636 -0.020369891 0.10035398 -0.025708582
0003c0 35 c6 aa be 3c 27 05 3c 0e 95 36 3e c4 fd a1 bc
       -0.33354345 0.00812703 0.17830297 -0.019774325
0003d0 cb 79 23 bb 87 2f bf bc d4 81 61 bc 90 79 f7 3c
       -0.002494442 -0.023338092 -0.013763864 0.030209333
0003e0 a8 b7 c3 3c a3 b9 b9 bc e7 e0 d7 bc f0 a6 c8 bc
       0.023891285 -0.022671526 -0.026352359 -0.024493665
0003f0 f2 b2 a0 3c 7d e8 9f bc 09 84 c1 bc 2c 5a 7a 3d
       0.019616578 -0.019520039 -0.02362253 0.06112115

shared.1.weight f4 [512]
000000 3c 1d 64 3f f5 0d 14 3f 55 98 42 3f 24 ff c4 3b
       0.8910711 0.57833797 0.7601369 0.0060118604
000010 e3 d5 3c 3f 1f 62 15 3f 03 b9 0f 3c 81 ff 5d 3c
       0.73763865 0.58352846 0.008772138 0.013549686
000020 3e 3a 53 3a 87 9d 49 3f eb 5a bc 3a 1e 1f 64 3f
       0.000805769 0.7875599 0.0014370357 0.8910998
000030 90 28 58 3f ce 42 e1 3c a8 fe 46 3f 00 06 4a 3f
       0.84436893 0.027497675 0.77732325 0.78915405
000040 e3 9f 9f 3b ac 2b 92 3e aa e6 27 3f 34 e9 43 3a
       0.004871355 0.28548944 0.6558634 0.00074734096
000050 cc e1 4d 3b a2 54 ef 3e 71 21 06 3e da 39 ef 3e
       0.0031415103 0.46744257 0.13098694 0.46723825
000060 28 fb dc 3e 12 d6 9b 3d e9 6b eb 3d aa 7f 41 3f
       0.43160367 0.0760919 0.114951916 0.75585425
000070 1e 47 02 3c 1b e0 7b 3e 89 5e c8 3e 46 c7 5a 3f
       0.007951526 0.24597208 0.39134625 0.8546032
000080 23 17 62 3e 4c b8 d0 3e 3b d6 3b 3f 7b 8f 67 3f
       0.22079138 0.40765607 0.73373765 0.9045331
000090 61 d7 de 3e 6f 4d 08 3f 0e 61 16 3f 06 dc 47 3e
       0.43523696 0.53243154 0.58741844 0.19517526
0000a0 cb 88 f0 3e 9d a8 0c 3f 7a 17 b3 3b 63 eb a0 3e
       0.46979365 0.54944783 0.005465445 0.31429586
0000b0 07 a8 e0 3e a3 a7 79 3e a1 d8 2d 3f 88 96 3e 3f
       0.43878195 0.24380355 0.67908674 0.7444844
0000c0 1a 7b 8e 3d 81 8b 88 3f 70 48 01 3e 49 12 f5 3e
       0.069570735 1.0667573 0.12625289 0.47865513
0000d0 78 0e 7f 3f ca b7 c3 3c ee 27 e7 3e 72 92 b2 3b
       0.9963145 0.023891348 0.4514765 0.0054495865
0000e0 03 4b 28 3f 96 65 46 3f a9 88 d5 3a 47 0f e6 3d
       0.6573946 0.7749876 0.0016291338 0.11233383
0000f0 44 3e 46 3f 14 0a 3a 3e f5 51 3f 3f 3a e0 68 3f
       0.7743876 0.18167907 0.7473443 0.9096714
000100 35 4b 5a 3f 42 d6 56 3f 6c e6 25 3f 12 40 84 3f
       0.85271007 0.8392068 0.6480472 1.0332053
000110 8e d5 54 3d 0b d8 6a 3f 8e ad e5 3e ee b1 10 3c
       0.051961474 0.91735905 0.44858974 0.008831484
000120 60 ba d7 3e 6f 57 ce 3b ee f2 19 3f 88 85 45 3f
       0.4213438 0.006297044 0.60136306 0.7715688
000130 db e7 2f 3d 50 a5 9e 3e 02 32 be 3c df 55 14 3f
       0.042945724 0.30985498 0.023217205 0.5794353
000140 35 58 8c 3d d5 97 ce 3d f1 ed a9 38 e8 c4 67 3e
       0.06852762 0.100875534 8.102868e-05 0.22633708
000150 8f e6 3c 3f d6 a2 0e 3d 57 f6 3e 3e f1 70 2c 3f
       0.73789304 0.03482326 0.18648659 0.67359835
000160 b4 8e 21 3f f8 6a cd 3a 80 9b 80 3f a7 d3 69 3d
       0.6310837 0.0015672138 1.0047455 0.057086613
000170 7e f3 56 3f 27 7e 53 3f 03 4c 98 3e 4b 4f 33 3f
       0.8396529 0.8261437 0.29745492 0.70042866
000180 1f a7 66 3f 7b a6 54 3f ea ec 57 3f 8f f8 e4 3e
       0.90098757 0.8306653 0.8434588 0.44720885
000190 d9 1b 01 3f 22 f5 05 3f ee c5 6b 3f 65 58 40 3f
       0.5043312 0.5232717 0.9209889 0.7513488
0001a0 7a a4 65 3f 3c 04 80 3e d6 26 ed 3e 1a fb 6a 3f
       0.89704096 0.2500323 0.46318692 0.917894
0001b0 75 11 9b 3b 46 08 07 3f fc 77 70 3e 80 8f 30 3f
       0.0047323056 0.52747 0.2348327 0.68968964
0001c0 88 de 58 3d d7 34 c2 3e 82 a5 fa 3e 94 fc 5c 3f
       0.052946597 0.3793094 0.48954397 0.86322904
0001d0 b6 57 da 3d be 2d 4a 3e 9a 0a cd 3a 75 7e 40 3f
       0.10661261 0.19744012 0.0015643418 0.7519296
0001e0 f4 00 b1 3e fc b9 00 3f 6b 05 06 3f a9 dc 14 3b
       0.3457104 0.5028379 0.5235202 0.0022714532
0001f0 78 34 50 3f c3 e7 3d 3f 01 5c 4f 3f ae 0f 8f 3e
       0.8133006 0.74181765 0.8099976 0.2794165
000200 69 26 e6 3e d0 01 8e 3f 01 67 b6 3c 26 69 de 3d
       0.4495118 1.1094303 0.022265913 0.10859899
000210 9a 86 e0 3e 9d ee ad 3d 7e 81 76 3f 70 36 a1 3e
       0.43852693 0.084927775 0.9629134 0.31486845
000220 d2 54 b5 3e bc b0 33 3e 4d 3b 82 3e 5e 2e 17 3f
       0.35416275 0.17547888 0.25435868 0.59055126
000230 66 bf 41 3c 01 c5 81 3e 00 ce c5 3e 89 14 18 3f
       0.011825418 0.25345615 0.38633728 0.59406334
000240 24 9a 32 3b 67 7d 73 3e de 86 68 3f 97 75 c0 3e
       0.002725252 0.23778306 0.9083079 0.37589714
000250 9b 7d 00 3f 7a 12 c6 3a 48 6c 69 3c e6 5c 2c 3d
       0.5019166 0.0015111708 0.014247008 0.042080782
000260 f3 03 7d 3e 67 ec 6b 3c 70 8b 3b 3e ed 00 a3 3e
       0.24708538 0.014399624 0.1831491 0.31836644
000270 f5 ef 93 3e f0 c6 87 3e 72 d9 c2 3e c7 bd 45 3f
       0.2889401 0.26518965 0.38056523 0.772427
000280 4e ad 7e 3f 2e 6d 03 3f 1f 17 21 3d b0 93 42 3f
       0.9948319 0.5133847 0.03932869 0.76006603
000290 c1 7d b2 3a 3c 09 c8 3d 9d c2 52 3f 60 b4 0c 3f
       0.00136178 0.09767386 0.82328206 0.5496273
0002a0 7c 64 63 3e cb aa 5a 3f ec 24 88 3e 35 2e 00 3f
       0.222063 0.8541686 0.2659067 0.50070506
0002b0 6a 48 92 3e c4 74 28 3d 48 d7 3b 3f 6c 7a 41 3e
       0.28570873 0.04112698 0.7337537 0.18894356
0002c0 0c e0 50 3f e6 ee 3a 3f e9 a7 02 3e a3 b9 2a 3f
       0.8159187 0.7302078 0.12759365 0.6668951
0002d0 57 22 f7 3c be 84 29 3e 2c 45 d6 3d c3 ce b6 3d
       0.030167742 0.16554543 0.10462412 0.089261554
0002e0 42 aa d8 3a 08 16 35 3f ec 70 28 3f b4 8b 34 3d
       0.0016530233 0.7073674 0.65797305 0.044078544
0002f0 8a a4 02 3f 3d fa 1b 3f 84 8b 83 3f 77 b8 86 3e
       0.51032317 0.6092871 1.0276952 0.2631261
000300 a0 c5 1f 3f 88 9d 62 3f 7e 60 4c 3f 17 ca 7d 3f
       0.62410927 0.88521624 0.79834735 0.9913649
000310 0e 2e b2 3c 5e ae 27 3f af 10 89 3f 13 f0 e4 3e
       0.021750476 0.6550044 1.0708216 0.44714412
000320 73 e6 d3 3d c4 ff 49 3f b0 8f e4 3c 6e 7e 5f 3e
       0.10346689 0.7890589 0.027900547 0.21825573
000330 5c 86 4e 3f eb 4f 3c 3b 6e 9f 6b 3f 9a 95 3f 3f
       0.80673766 0.0028734158 0.92040145 0.7483765
000340 19 6d 95 39 30 81 69 3b ef 89 43 3f 66 31 2c 3f
       0.0002850078 0.003562998 0.76382345 0.67262876
000350 6c cf 83 3f 6c 75 00 3e f1 ef f1 3d b3 2a ba 3d
       1.0297675 0.12544793 0.11813343 0.090901755
000360 00 50 3a 3f dc 4f 1e 3f b3 30 cf 3e 60 0e 1e 3a
       0.7277832 0.61840606 0.40466842 0.0006029364
000370 ac 63 a9 3c c7 ac b1 3d 0f fe 82 3d dc 58 46 3f
       0.02067741 0.08675533 0.06396114 0.7747934
000380 06 7b 5a 3f d7 f6 27 3f fc 65 0d 3d e2 01 28 3d
       0.8534397 0.6561102 0.034521088 0.04101742
000390 54 04 f1 3b ae 72 10 3f 69 b7 0d 3d a0 ec 06 3e
       0.0073552523 0.5642499 0.03459874 0.13176203
0003a0 5a 38 95 3c d3 f7 1a 3e 6f 20 1c 3e a0 b3 e2 3e
       0.018215347 0.151336 0.15246747 0.44277668
0003b0 31 16 65 3e f9 f0 fa 3c f0 6d 0a 3f f7 f9 37 3b
       0.22371747 0.030632483 0.54074 0.0028072575
0003c0 81 9f 40 3f 95 e1 2b 3f cb d8 65 3f 9d 05 96 3d
       0.75243384 0.67141086 0.89783925 0.073252894
0003d0 91 db 11 3f 6c 15 b1 3a db 23 f3 3d 33 f7 a2 3e
       0.56975657 0.0013510413 0.11872073 0.31829223
0003e0 e5 ea 9c 3e 2a 3e bf 3b 8d a4 1a 3c 84 ba 01 3b
       0.3064796 0.005836268 0.009438646 0.001979501
0003f0 6c 7d 91 3e ed bf 5e 3d 6d c3 6e 3c 16 92 8f 3e
       0.28416002 0.054382253 0.01457296 0.28041142

shared.1.bias f4 [512]
000000 46 2d 4f 3c 5f 26 dd bc 44 1e 50 3c a9 33 98 bc
       0.012645071 -0.026995836 0.012702528 -0.018579321
000010 a2 e1 b3 bc 92 92 00 be 09 85 4d bc 52 c3 eb bc
       -0.021958176 -0.12555912 -0.012543925 -0.02877966
000020 53 6d 78 bb 8c 78 ae 3c ab 69 58 bc c4 93 79 3d
       -0.003790696 0.021297716 -0.013208787 0.060931936
000030 79 a4 d4 3b a4 28 2a bd 23 49 14 3d cd af fe bc
       0.006489333 -0.041542664 0.03620256 -0.031089688
000040 a8 ba 57 bc 88 ef 98 bd 69 d9 7e bd d6 a4 82 bb
       -0.013167061 -0.07467562 -0.062219057 -0.003986935
000050 be a7 f1 bb ad 99 01 bd 9c 93 81 bd 62 90 0d bd
       -0.0073747328 -0.031640697 -0.063269824 -0.034561522
000060 6f 66 a0 bd 7f 39 91 bd 3f be df bd 52 c4 3d bd
       -0.07832038 -0.07091045 -0.109249584 -0.046329804
000070 37 e8 69 bc 4d d9 82 ba 59 91 5f bd 0e 23 c9 bc
       -0.014276556 -0.0009982974 -0.054581974 -0.024552848
000080 6c cc 27 bd fd f8 04 be 37 c4 91 bd 4f b2 ea 3c
       -0.040966436 -0.12985606 -0.07117503 0.028649477
000090 88 80 87 bd b5 34 64 bd 50 e2 ba bd 59 a1 24 bc
       -0.06616312 -0.055714328 -0.09125197 -0.010048234
0000a0 c3 8d b8 bc 76 a9 f0 bb 61 71 46 bc 86 28 21 be
       -0.022528535 -0.00734442 -0.012111993 -0.15738115
0000b0 84 4f 15 bd 85 b3 56 bd 0c d2 81 bd 98 f9 40 3d
       -0.036452785 -0.052417297 -0.063388914 0.04711303
0000c0 c6 61 53 bd d4 5c e8 ba eb 59 34 bd 10 62 8f bd
       -0.051606916 -0.001772786 -0.044031065 -0.07001126
0000d0 cf dd f2 3c 3f 9b bb bc b1 1d 33 bd 9a d1 6a bc
       0.029646782 -0.022901176 -0.043729488 -0.0143321995
0000e0 52 01 6e bd d8 cf 70 bd fc 94 7b bc c7 9f 89 bd
       -0.058106728 -0.058791965 -0.015355345 -0.06719928
0000f0 c1 39 cc bd 2e f4 ac bd 16 fe 5a bc d7 a3 1b 3d
       -0.09971953 -0.08445011 -0.013366243 0.037998047
000100 d4 6d 96 3c 15 27 46 3c 5a 9e 35 bd 80 d8 2e bc
       0.018362917 0.012094279 -0.04434047 -0.010671735
000110 42 2f 3e bd 7f 82 40 3d f2 15 46 3c 83 00 a2 bc
       -0.046431787 0.04699945 0.012090193 -0.019775635
000120 02 09 03 bc 79 cd 8c bc f9 bd 5d bd df ca 44 3d
       -0.007997753 -0.01718782 -0.05413625 0.048045035
000130 93 bf 3b bd 9c 4b c5 bd 7f f1 fd bc c5 06 96 3c
       -0.045836996 -0.09633562 -0.030998943 0.018313775
000140 e6 32 10 bd df 47 f9 bc c1 8d 42 bb ea 18 74 bd
       -0.03520479 -0.030429779 -0.0029686543 -0.059594072
000150 9d 29 16 bd 03 0b e1 bc ba e0 67 bc 00 0f 8b 39
       -0.03666078 -0.027471071 -0.0141527 0.00026523322
000160 8d 2b 0a bd c5 a0 2e bc b9 0e 90 bc c0 96 5e bd
       -0.03373294 -0.010658448 -0.017585145 -0.054342985
000170 70 4f 4f 3c 50 0d d4 bd da 67 cb bd ba b9 99 bb
       0.012653217 -0.10354102 -0.099319175 -0.00469133
000180 48 9e 2c 3c 32 c9 23 3c 2e 5b 65 3b ce 7b 30 bc
       0.010535784 0.009996699 0.0034996974 -0.010771705
000190 03 77 f5 bc b0 71 76 bb b8 38 56 bc 0f 9e ac 3c
       -0.029963976 -0.0037604384 -0.013075046 0.021071462
0001a0 06 49 c9 3c dc 08 7d bd be b1 a8 bd 49 37 af 3d
       0.024570953 -0.061776027 -0.08237027 0.08555467
0001b0 38 07 84 bc a7 c7 06 3d 36 1a 7b bd a2 85 18 bd
       -0.016116723 0.032905247 -0.061304294 -0.037236817
0001c0 a7 59 82 bd 5b 97 d9 bd 94 e8 ad bd 1c 48 37 3c
       -0.06364756 -0.10624572 -0.084916264 0.011186626
0001d0 cc 2b 86 bd 23 6e ca bd 33 53 0d bc 32 6f ea bc
       -0.06551322 -0.09884288 -0.008625793 -0.028617475
0001e0 e2 ef a6 bd 6b 62 96 bd b3 8f a0 bd dc 26 20 bc
       -0.08151223 -0.073429905 -0.078399085 -0.00977489
0001f0 7d 9a 00 bc 44 23 8b bc 89 73 88 bd e6 54 d9 bd
       -0.007849333 -0.01698459 -0.066626616 -0.10611896
000200 af 58 5f 3b a4 c7 2f bc 6e 78 25 bd 81 35 83 bd
       0.003407996 -0.01072875 -0.040398054 -0.064066894
000210 a5 ec 43 bd dd f3 a6 bd 2a e3 4d 3c b9 50 6e bd
       -0.047833104 -0.08151982 0.012566367 -0.058182452
000220 46 c8 2c bd 4e 7e 8f bd db e5 5d bc 7e 5a 55 bd
       -0.042183183 -0.070065126 -0.013543571 -0.052088253
000230 3d 26 ea bc 9b 4f 77 bd 68 9a a7 bd b6 7c 04 be
       -0.028582687 -0.060378652 -0.081837475 -0.12938198
000240 20 5d 11 bc f1 2d 07 bd 0e e8 4c 3d 16 80 03 3d
       -0.0088723 -0.033002798 0.050025992 0.032104574
000250 c8 9a d9 ba de dc ae bb 1d 32 c4 bc aa c6 48 bd
       -0.0016601915 -0.005336388 -0.023949677 -0.049017586
000260 d3 52 9e bd 51 a4 ba bc d3 d6 72 bd 6b 4e 77 bc
       -0.07730641 -0.02278343 -0.059286904 -0.01509438
000270 b6 2c d7 bc 47 0e 34 bd 8b 93 5e bd 13 54 69 bd
       -0.026266437 -0.04395893 -0.054339927 -0.056964945
000280 cf b0 85 3d 66 41 f6 3b ec cd 0f bd 11 3b a4 bd
       0.06527864 0.0075151203 -0.03510849 -0.080190785
000290 e0 2a e5 bb 76 e7 87 bd cb 24 20 bd 0b 62 17 bc
       -0.0069936365 -0.066359445 -0.03909759 -0.009239684
0002a0 e5 f6 89 bd 88 7a 53 3d 68 e6 c0 bc 51 49 db bc
       -0.067365445 0.051630527 -0.023547366 -0.026768358
0002b0 36 92 1c bd 86 13 63 bd 35 c2 c8 bd 31 73 a4 bc
       -0.038225375 -0.05543854 -0.09802667 -0.020074459
0002c0 6e 6b 84 3c 7e d3 d1 bc 2f 74 00 be ca a7 cb 3d
       0.016164508 -0.025613543 -0.1254432 0.099441126
0002d0 06 96 29 bd 5e 1d 58 bd d2 f7 66 bd b6 f9 76 bd
       -0.04140284 -0.05276238 -0.056388684 -0.060296737
0002e0 56 84 ab bb 42 d7 81 3d 72 58 3a 3d 37 70 3e bd
       -0.0052342815 0.06339885 0.045494504 -0.046493735
0002f0 96 4d ca bb d7 70 80 bd 3f 0e 0b bc ba f7 b4 bd
       -0.0061737997 -0.062715225 -0.008487283 -0.088363126
000300 02 7c ed 3c cd c8 ab bd 25 59 b3 bd 28 90 aa 3c
       0.028989796 -0.08387909 -0.08757237 0.020820692
000310 42 3b 07 bd 32 f4 b0 bd 35 42 5b bc 4f 52 9d bd
       -0.033015497 -0.086403266 -0.013382484 -0.07681715
000320 75 8d 2d bd 27 b3 c6 bd fd ad 1a bd 0d d7 98 bd
       -0.042371232 -0.09702139 -0.037763584 -0.07462893
000330 00 9b b0 3d 40 cc 5b bc 90 9e 23 3d 90 14 48 3c
       0.08623314 -0.013415396 0.03994614 0.012211934
000340 48 c6 a2 ba 50 4c e4 bb f3 9d 23 bd c8 4b 32 3d
       -0.0012418712 -0.006967105 -0.039945554 0.043529302
000350 08 45 2d bd 3e c4 11 bd 10 e9 ef bc 81 6c aa bd
       -0.04230216 -0.03558754 -0.029285938 -0.08321477
000360 cb 3a 81 bd e4 1c ba bc de 06 06 bd 27 01 8c bb
       -0.06310042 -0.022718854 -0.032721393 -0.0042725983
000370 73 72 0b bd 99 46 56 bd 55 81 83 bd 80 ad 84 bc
       -0.034044694 -0.05231342 -0.064211525 -0.016196012
000380 ec 6b e4 3c b3 4c 20 bd 11 30 01 bd cc c0 44 bd
       0.027883492 -0.039135646 -0.03153998 -0.048035428
000390 9e 86 48 bc c3 b9 94 bd 2f b5 0b bd 0e 49 82 bd
       -0.0122391265 -0.07261994 -0.034108337 -0.0636159
0003a0 9e 3e 07 bd 96 49 66 bd 21 98 84 bd 70 cc 6a bd
       -0.0330187 -0.05622252 -0.06474329 -0.057323873
0003b0 4f 8c 65 bd 78 10 17 bd fa 88 62 bd c7 3f f5 bb
       -0.05604201 -0.03688094 -0.055306412 -0.0074844095
0003c0 bd 64 9f bd 57 ca 22 3d 38 29 a4 bc 6c 48 67 bd
       -0.07782886 0.039743748 -0.020039186 -0.05646555
0003d0 5f 28 81 3c 83 7c 51 bb c6 1b 3a bd 0d 95 7a bd
       0.01576632 -0.0031965084 -0.045436643 -0.061177302
0003e0 6e bd b9 bb 7f 20 83 bc 53 ab c4 bc b5 75 bd bb
       -0.0056683337 -0.016006706 -0.024007475 -0.005781854
0003f0 9d 72 60 bc ea 76 75 bd 5e d3 e6 bc 13 04 81 bd
       -0.013699201 -0.05992786 -0.02817696 -0.06299605

shared.3.weight f4 [256, 512]
000000 9b 04 3a 3d 1f b6 9e bd 21 c4 1f be ae b7 92 b7
       0.04541455 -0.077495806 -0.15602161 -1.7490089e-05
000010 0a 8c 23 3d ee 6f ff 3c c5 62 22 ba 47 c4 83 b7
       0.039928474 0.031181302 -0.00061945274 -1.5707816e-05
000020 6c 30 ec 2c 9b ec 8a be a4 de 41 34 6a 56 b3 bd
       6.7128993e-12 -0.2713364 1.8055522e-07 -0.087567165
000030 3c 5f 15 be e9 c3 65 b8 48 d3 02 3e 0f 5b 9c be
       -0.1458711 -5.478031e-05 0.1277591 -0.30538222
000040 55 07 02 b5 5a 4a b4 3d 73 09 56 3d 14 0a 4b 22
       -4.8439443e-07 0.08803244 0.052255105 2.7516965e-18
000050 8c bb 60 29 46 9c c8 3d c0 99 9f 3c 6f 9b f6 bd
       4.9900662e-14 0.09795432 0.019482493 -0.12041365
000060 6c 57 1d 3c 49 8a c2 bb 5a 1f 15 3c 18 38 a9 bc
       0.0096033625 -0.005936895 0.009101713 -0.02065663
000070 1d c4 cc b8 b4 0d 75 3d 33 f3 67 bb 4f 35 2a 3e
       -9.764007e-05 0.05982752 -0.003539276 0.16621898
000080 72 fa 24 bd cc 9b 96 bd de af 5f bd 4c 4d 23 3d
       -0.040277906 -0.07353935 -0.05461108 0.039868638
000090 f0 e5 f1 bd 74 6d ee bc 9d 20 49 bd 5a 93 aa bc
       -0.11811435 -0.029104926 -0.049103368 -0.020822216
0000a0 e6 3e 44 3d 21 b4 7c bd 97 2f a4 b0 18 36 51 bc
       0.047911547 -0.06169522 -1.1946096e-09 -0.012769245
0000b0 3d 0a 90 ba 1c 2b 58 bd 84 c2 f6 bd 69 fb 65 3e
       -0.0010989379 -0.052775487 -0.1204882 0.22459187
0000c0 d5 37 aa bb 63 16 91 3e bf a8 c3 bc 72 24 2c be
       -0.005194644 0.28337392 -0.023884175 -0.16810778
0000d0 3b ac 8c bd f7 a4 d3 ba 3b 95 1e 3d 50 b2 6a ae
       -0.06868788 -0.0016147186 0.038716536 -5.3363813e-11
0000e0 98 c6 16 3e ad f0 4d be a9 9a 81 ab 1f b6 d6 bb
       0.14724195 -0.20111342 -9.208928e-13 -0.0065524722
0000f0 54 ef 16 bd 0f 3c 6d bc 69 5c 4e 3e d4 08 1d bc
       -0.036849335 -0.014479651 0.20152439 -0.009584624
000100 02 fb 03 be 4a 0d e7 bc ec 99 6e 3d cd da d5 bd
       -0.1288872 -0.028204579 0.05825226 -0.104421236
000110 c4 48 cb bb 22 56 9d be 23 fe b1 3d 44 85 84 b0
       -0.0062037427 -0.30729777 0.08691051 -9.64214e-10
000120 1a 4b 00 bd 1f ae 2e b6 40 70 18 be 26 b5 1f be
       -0.031321622 -2.6029372e-06 -0.1488657 -0.15596446
000130 18 d9 1d bb 48 30 3a 3d d1 73 18 b7 56 ec c4 3d
       -0.0024085697 0.0454562 -9.086872e-06 0.0961539
000140 d3 cf 17 bc bf 57 cf bc 59 ba 14 22 be a5 85 bc
       -0.009265858 -0.025310395 2.0156392e-18 -0.016314384
000150 3c 51 21 3e c5 b6 44 ba a3 eb 0b 3c 9e fc b2 bd
       0.15753645 -0.00075040414 0.008540067 -0.08739589
000160 40 68 81 3c 52 5a 2c 32 ac c9 be 3b a5 46 95 ba
       0.01579678 1.0032254e-08 0.005822381 -0.0011388852
000170 9f 8c e5 3d f8 93 59 bc 58 00 e2 3c 54 e3 74 bd
       0.11208462 -0.013279907 0.027588055 -0.05978711
000180 fd 69 4b 3e 0e 76 54 3e af 3a 81 3d ee 60 74 3d
       0.1986465 0.2074816 0.06310021 0.05966275
000190 e3 a0 2d be 1a 51 fa bc f0 ce 29 be 55 73 cd 3d
       -0.16955905 -0.03055625 -0.16582847 0.100317635
0001a0 e6 ee 38 3d 50 cd 6d 3c 0d 29 11 bd 64 69 17 bd
       0.045149706 0.014514282 -0.03543954 -0.036965743
0001b0 62 e3 05 37 27 38 87 bd 34 a8 d6 bc c3 e5 90 3c
       7.980359e-06 -0.06602507 -0.026203252 0.017687684
0001c0 31 e8 c8 b8 7f 21 91 bd c9 3a 54 3c c2 d6 30 bb
       -9.579992e-05 -0.07086467 0.012953469 -0.0026983474
0001d0 8e 8b 88 3c 31 8c 99 bb f1 b0 72 b1 93 58 0f 3e
       0.016668107 -0.0046859016 -3.5316214e-09 0.13998632
0001e0 2f 3f b0 bc 9f 72 8e bc e7 fe 72 be 57 2f d7 34
       -0.021514503 -0.01738864 -0.2373005 4.0081315e-07
0001f0 21 b6 f8 3c 5e 85 43 bd a8 78 0f 3e 72 f8 3f 3c
       0.030360283 -0.04773461 0.1401087 0.011716949
000200 41 d8 2f be 1f b9 69 bb 89 a5 aa b6 a1 8a 6e bc
       -0.17172338 -0.003566332 -5.0856656e-06 -0.014559419
000210 6e 9b 42 bc e3 19 3e bb 05 0a e7 bc 1c 3e fd ba
       -0.011877878 -0.002900713 -0.02820302 -0.0019320878
000220 3e 47 01 bd 86 ef c5 3c 06 56 76 bc d8 69 1e be
       -0.031562082 0.024162065 -0.015035158 -0.15470064
000230 5f 2e 95 b7 2c a7 00 bd 22 a8 d5 3d b9 89 62 3d
       -1.7783777e-05 -0.031409428 0.104324594 0.055307124
000240 86 f5 c1 a7 7f 75 c5 bc 29 3e 24 3e 98 1e 7d bd
       -5.383446e-15 -0.024103878 0.16039337 -0.061796755
000250 b9 59 6d 3d 27 a9 6a 28 1e 2e d4 b9 7f 10 19 ba
       0.057946894 1.30262885e-14 -0.0004047015 -0.0005838945
000260 78 9c 25 3b 30 8c c9 b8 ff 48 9e 3c 06 47 38 3d
       0.0025270265 -9.610539e-05 0.019321917 0.04498961
000270 63 df f5 bc 72 c4 70 3a c2 43 46 3d 64 2a b9 bd
       -0.030013746 0.0009184546 0.048404463 -0.090412885
000280 98 ca 5b bd 9c 99 f3 bd 12 7c a0 bb aa f3 17 3e
       -0.053660005 -0.11894533 -0.004897603 0.14839044
000290 a5 e5 65 b5 d1 bc 8f bb d5 f5 c5 3d cc bd ee 3d
       -8.5643325e-07 -0.0043865223 0.09666029 0.11657295
0002a0 4e f5 22 bd 7e 13 93 bd 78 56 d5 bc 7d bd 3e bc
       -0.039784722 -0.07181452 -0.026042208 -0.011641857
0002b0 1c 86 c5 bd e1 4c 7e ba a0 ce 62 3c 58 de 5e bd
       -0.0964472 -0.0009700787 0.013843209 -0.054411262
0002c0 38 ca 70 3d 6d c0 ae 3d c2 2c f7 ba d9 f4 07 bd
       0.0587866 0.08532796 -0.0018857943 -0.03319249
0002d0 2f e4 98 b7 35 59 5d 3c 73 07 12 bc 2a 66 df bb
       -1.8226068e-05 0.013510038 -0.008912909 -0.006817599
0002e0 6e 59 35 2c f6 7f 29 be f4 e4 ea bd 69 f8 44 bb
       2.577129e-12 -0.1655272 -0.114694506 -0.003005529
0002f0 9d 11 01 be c6 92 31 bd ca 6b 3e be a9 e0 d5 bc
       -0.12604375 -0.043352865 -0.18595806 -0.026108103
000300 f4 8c 00 be 48 56 c8 bd 00 a6 14 bd f2 50 4c 3d
       -0.1255377 -0.09782082 -0.036291122 0.049881883
000310 8f 5a 8b b7 88 65 73 3b ff 09 3b 3d 6e c6 5d bd
       -1.661226e-05 0.0037139375 0.04566383 -0.054144315
000320 cf 21 35 bc e1 59 30 be 6d 66 54 ba e5 a3 ad bc
       -0.011055424 -0.17221786 -0.0008102421 -0.021196315
000330 eb 96 18 3c 95 6e 96 b2 b6 40 31 3c 4c fc 9b bd
       0.009313325 -1.7512585e-08 0.010818651 -0.07616481
000340 f1 70 76 a0 e4 83 04 28 fa 60 58 bd 60 08 30 be
       -2.087438e-19 7.356071e-15 -0.05282686 -0.17190695
000350 cb 15 0e 3e b6 ca eb ba 1e 13 f7 bb fb e8 93 3b
       0.13875501 -0.001798949 -0.0075401207 0.0045138574
000360 4a 2e 3a 3d 73 f4 6d bd d8 24 8c bb 40 a9 93 25
       0.0454543 -0.058094453 -0.004276853 2.5615123e-16
000370 43 c4 d1 b6 2c 71 0e bc 44 44 2d 3b 3e 86 e8 3b
       -6.2515333e-06 -0.008693974 0.0026438395 0.007096081
000380 cf 0a 98 3d 02 dd 2e bc b4 e6 a9 ba 16 07 9a ba
       0.074239366 -0.01067281 -0.0012962432 -0.0011751379
000390 a8 37 10 ad 29 74 56 be a6 15 5f bb 8f 61 59 ba
       -8.1978105e-12 -0.20942749 -0.0034040003 -0.00082924304
0003a0 65 75 22 2f f6 f6 f4 bc 10 fb c0 bc a9 bc 2a 3d
       1.4775521e-10 -0.029902916 -0.023557216 0.041683827
0003b0 f8 c0 0a bc a1 14 fb ba ac 6f 16 be 6c 9b 1b 25
       -0.008468859 -0.0019155928 -0.14691037 1.3496766e-16
0003c0 a5 a9 22 be 41 38 0b be cf 7b 30 3e 49 12 8c 3b
       -0.15885027 -0.13595678 0.17234729 0.0042746407
0003d0 11 aa 8b bd e0 1c 13 aa f1 ed c3 ba 1c 13 51 bd
       -0.06819547 -1.3066241e-13 -0.0014948231 -0.051043615
0003e0 b5 17 01 bd 6d 7f 21 ae a2 98 00 b2 40 fa 65 26
       -0.03151675 -3.672034e-11 -7.485285e-09 7.9789487e-16
0003f0 2c f6 03 bd 98 7c 98 b8 56 99 2b b9 f1 e0 92 bd
       -0.03221719 -7.271132e-05 -0.00016364953 -0.071718104

shared.3.bias f4 [256]
000000 d5 f6 4f bd 45 db 91 bc 9d 27 87 bc 42 03 34 3c
       -0.050772507 -0.017804751 -0.016498381 0.010987105
000010 1d 5b 87 bb f0 bb 5e 3c d3 55 57 3d 7e 07 de bc
       -0.0041307346 0.0135946125 0.052572083 -0.027103182
000020 dd 59 41 3c d6 cc 38 3c 0a 6b 56 3c 14 16 a5 bc
       0.01180121 0.011279305 0.013087044 -0.02015213
000030 e9 15 53 3c 4a 68 38 3c 43 8b a9 bc 3a a4 3a 3c
       0.012883642 0.011255333 -0.020696288 0.011391694
000040 0c 41 62 3c f1 fb 89 3c 8f 76 c7 bc 7f ee 91 3d
       0.013809454 0.016843768 -0.024348525 0.07125568
000050 e3 44 4e 3c 5f 8c 0f bd c3 5d f5 bc 7f 87 75 3c
       0.012589666 -0.035045978 -0.029951936 0.014985918
000060 9b fe ae bc c1 28 cc 3d 29 56 5f 3c 10 7d 39 3c
       -0.02136164 0.09968711 0.013631382 0.011321321
000070 fd 65 23 3b 59 6a 3e 3c fc 6a 03 3b 67 b4 2e 3c
       0.0024932616 0.011622035 0.0020052781 0.010663128
000080 70 c6 1e 3c 64 07 0b 3a eb ce 26 3d 38 e7 13 3c
       0.009690866 0.00053035305 0.040724676 0.009027295
000090 95 9f 75 bc e8 9c f7 3a af 19 53 3c 20 b1 41 3c
       -0.014991661 0.0018891366 0.012884541 0.011822015
0000a0 7a ec 05 bd f6 34 f4 bb 91 6e 56 3c c7 c2 26 bb
       -0.032696225 -0.0074526025 0.0130878845 -0.0025445686
0000b0 80 b8 3c 3c 18 11 5f 3c 47 85 63 bc 14 25 8b b9
       0.011518598 0.013614915 -0.013886756 -0.0002653977
0000c0 89 97 fe 3b a4 e8 0a 3d 8e 79 46 3c 81 2d 40 3c
       0.0077695292 0.03391327 0.012113942 0.011729599
0000d0 37 a1 4b 3c 3d f7 4f 3b 00 3f 6e 3d 85 2f 64 3c
       0.012428573 0.003173306 0.05816555 0.013927345
0000e0 cd a9 1f bd 1c 6f 45 3c 89 99 5b 3d a9 2a 27 3c
       -0.038980294 0.012050416 0.05361322 0.010203042
0000f0 24 f8 23 3c 48 6a d9 bb 22 87 71 3c 3e 8a c2 bc
       0.010007892 -0.006634984 0.014741691 -0.02374756
000100 8d a7 80 3c 68 1a 4d 3c 8f 97 b6 bc 69 34 c3 3a
       0.015704894 0.012518503 -0.022289066 0.0014892939
000110 66 e8 7e 3b 03 b7 2f 3c d7 a1 43 3c 32 8b 27 3d
       0.0038895844 0.010724786 0.011940441 0.04090423
000120 4d 95 d8 3c 3a 81 e6 bb 77 60 86 3c 36 69 3e 3c
       0.02643838 -0.007034448 0.01640342 0.011621764
000130 2c ca c6 bb c2 25 57 3c a6 d6 4c 3c 7e 23 a3 3c
       -0.0060665812 0.013131561 0.012502348 0.019914385
000140 61 a4 ea 3a 87 39 52 3c 9d ae 3d 3d c6 c9 4b 3c
       0.0017901772 0.012831098 0.046309102 0.012438243
000150 2e 9d 4b bd 8c 1f ac 3b 03 b2 48 3c f4 e7 75 3c
       -0.049710445 0.005252784 0.012249473 0.015008915
000160 84 52 9a 3c a1 f3 39 3c d2 04 4d 3c 4f a3 00 bd
       0.018838175 0.01134959 0.012513356 -0.031405743
000170 0a aa 80 3c f0 c5 2d bd 6e 01 42 3c 49 d1 40 3c
       0.015706081 -0.042425096 0.011841161 0.0117686475
000180 5c 44 28 3b 09 b4 4c 3c fe a8 a2 3b 12 70 50 3c
       0.002567551 0.012494096 0.004963993 0.012722032
000190 cc ba 53 3c b5 67 06 bd 36 6e 56 3c f8 72 9c bc
       0.012922954 -0.032813746 0.0130878 -0.01909779
0001a0 84 2f 18 3c 4f 8e d5 3c 8c 00 1d 3d c6 8a e7 bc
       0.009288672 0.026068835 0.0383306 -0.028264415
0001b0 e2 15 17 3d 5b 12 3d 3c 70 80 57 bc d5 39 57 3c
       0.036886103 0.011540021 -0.0131531805 0.013136347
0001c0 f4 3f 45 3c 93 d9 08 bc 02 13 4f 3c be 98 1a bd
       0.012039173 -0.008352655 0.012638809 -0.037743323
0001d0 c4 38 a4 3c c6 32 75 3d 32 20 ac bd 79 ab 9d 3d
       0.0200466 0.059862874 -0.08404578 0.076987214
0001e0 9a ae f9 3c 95 b3 67 3c 94 1a 84 3d 57 5d 4c 3c
       0.030478764 0.014141937 0.06450382 0.012473426
0001f0 38 14 f4 b9 a9 b1 cd 3a d8 4f 2a bd e0 1d 6c 3c
       -0.0004655437 0.0015693206 -0.04158005 0.01441142
000200 0f d1 49 bd 00 b8 a1 bd 7d 70 3d 3c 77 82 2f 3c
       -0.04927164 -0.07896423 0.011562464 0.010712258
000210 2c 89 80 3c b6 5f 50 3d 44 fa 83 3d 26 7d 58 3c
       0.015690409 0.050872527 0.06444219 0.013213431
000220 39 fe 80 3c 7c 44 59 3c 59 a5 8f 3c 5a 45 b6 3c
       0.015746223 0.013260957 0.017534899 0.022249866
000230 01 cb 42 3c 3a 4d 4b 3c 0c e1 b0 3c c7 8d 55 3c
       0.01188922 0.012408549 0.021591686 0.013034291
000240 3b c2 e3 3c e4 e2 a6 3b 01 e1 60 bc b0 45 dc bd
       0.027802577 0.0050929654 -0.01372552 -0.10755479
000250 ee 05 3a 3c fb 16 d2 3c be a6 4a 3c 5c 32 0b bd
       0.011353953 0.025645724 0.012368856 -0.033983573
000260 b4 39 24 bc 5c ba 5f 3c 4d 92 42 3d e6 3d 92 3d
       -0.010023523 0.013655271 0.047502805 0.071407124
000270 92 ba c6 3c a0 c5 69 3c 2a 0d 35 3b a0 83 5a 3c
       0.024258886 0.014268309 0.0027626255 0.013337046
000280 96 5a 06 bd ef 05 3f bc 11 f0 b5 bc 89 ba 3f 3c
       -0.032801233 -0.0116591295 -0.0222092 0.011702188
000290 b6 a3 74 3c 6e 4a 4c 3c 28 b8 f0 3b 36 7b ff 3b
       0.01493161 0.012468917 0.007346172 0.0077966703
0002a0 6c 90 6f bc aa ea af 3c 77 5c 70 3c 83 a8 4c 3c
       -0.014621835 0.021474201 0.014670483 0.012491348
0002b0 3e a7 ce 3c d2 97 05 3d 80 0e 3d 3c f0 bc ce 3b
       0.025226232 0.03261549 0.011539102 0.006309144
0002c0 a9 3c 0e 3c 8a 21 fa 3c 74 c6 8c bc 99 aa 06 3c
       0.008681455 0.03053357 -0.017184474 0.008219385
0002d0 ac 44 90 bc 2f 3a 71 3c f4 7d 4b 3c 9f e2 52 3c
       -0.01761087 0.014723345 0.012420166 0.0128714135
0002e0 8e 65 a9 3c 3f 38 89 3c 16 f0 47 3c 08 f6 d4 bd
       0.020678308 0.016750453 0.012203237 -0.10398489
0002f0 ac 77 4a 3c a8 e2 5a 3a 92 81 30 3c 73 ba ac 3b
       0.012357634 0.00083498145 0.0107730795 0.00527125
000300 d3 26 49 3c a9 0f 2f 3a 6b c0 28 3c 0f cc 51 3c
       0.012277323 0.0006678054 0.010299782 0.012804999
000310 61 b4 40 3c 8a 91 5d 3c 0c a8 22 bb 3c 0d 28 3c
       0.011761756 0.013523469 -0.0024819402 0.010257062
000320 22 59 9c 3c bc 62 93 ba fe a9 3b bc 58 62 58 3c
       0.01908547 -0.0011244635 -0.0114541035 0.013207041
000330 4c b4 c4 3b 78 5d 54 3c 84 fe 5d 3c 88 61 21 bb
       0.0060029384 0.012961738 0.013549451 -0.0024624784
000340 fc 2a 03 3c be 6e 49 3a 6c 8e 70 3c 93 54 44 ba
       0.008005854 0.00076840434 0.0146823935 -0.0007489409
000350 23 98 1e bd 01 ee 4c 3c 90 48 e9 ba 13 ce 4a 3c
       -0.038719308 0.012507916 -0.0017798115 0.0123782335
000360 ef fc c7 bc e8 09 a5 bc e8 76 73 3d 01 fd ae 3c
       -0.0244126 -0.020146325 0.05943957 0.021360876
000370 d1 1b 69 3d 8c 5f 21 bc d8 32 3a bd f0 3b d3 bd
       0.056911293 -0.00984944 -0.045458645 -0.103141665
000380 61 ab c7 3c 7b 3b 2c 3d d7 04 90 3c 78 1b 5c 3b
       0.024373712 0.042048912 0.017580433 0.0033585709
000390 8a e9 96 3a 4a 0e ac 3d 60 cd 88 3c d2 c3 59 3c
       0.0011513692 0.08401163 0.016699493 0.013291316
0003a0 1b d6 d1 bb 8c 87 3c 3c 08 81 46 3c a6 f1 0b 3b
       -0.006403697 0.011506926 0.012115724 0.002135375
0003b0 ab a7 21 3c b7 fe fc 3c ea d3 67 3c a8 9e 0b bd
       0.009866635 0.030883176 0.014149645 -0.034086853
0003c0 7c 7e b1 b9 dc 65 9c bc 6f 89 9e 3b 53 68 58 bd
       -0.0003385431 -0.01909154 0.0048381607 -0.052833866
0003d0 e2 0f 83 bc e9 af 4d 3c 8f 88 19 3c 95 96 bd bd
       -0.015998784 0.012554147 0.009370937 -0.09257237
0003e0 7a c3 18 bc 26 0f c5 3c 24 fc 57 3c 06 84 63 3c
       -0.009323949 0.024055075 0.013182674 0.013886457
0003f0 fa b6 59 3b bb bd 83 3c 31 45 32 bb 21 d8 53 3c
       0.0033220635 0.016081681 -0.0027201886 0.012929947

shared.4.weight f4 [256]
000000 c9 5c 7f 3f e4 00 26 3f 57 17 21 3f 28 18 3b 3d
       0.99750954 0.6484511 0.6292624 0.045677334
000010 b0 78 20 3f 23 6d db 3a ec 9a 29 3f cf cb 7a 3f
       0.62684155 0.0016740899 0.6625202 0.9796724
000020 fb bb 21 3d ff fe f6 3b 93 5c 2d 39 ea 0d e7 3e
       0.039485913 0.007537722 0.00016533052 0.45127803
000030 97 8b 5a 3c 53 69 f9 39 21 04 3b 3f 32 13 ce 3e
       0.013338945 0.00047571454 0.73053175 0.4024902
000040 96 04 8b 3b 58 95 ad 3e ad f4 5b 3f 04 c5 59 3f
       0.00424249 0.33903003 0.8592022 0.85066247
000050 28 15 93 3c a1 b0 e9 3e 2c dc ee 3e 02 89 df 37
       0.017954424 0.4564257 0.46652353 2.664747e-05
000060 86 7f 0c 3f 38 d6 87 3f 28 b7 a7 36 36 20 bf 37
       0.54882085 1.0612249 4.99831e-06 2.2783974e-05
000070 16 ba be 3e 37 7a 69 3d 0c e5 90 3e 01 53 cf 3e
       0.37251347 0.05700132 0.2829975 0.40493014
000080 4c 12 ee 3d 6f c6 7f 3f 18 31 64 3f 5f bb fb 3e
       0.116245836 0.9991216 0.8913741 0.4916639
000090 71 0d bf 3e 75 ad 8c 3f b3 8b 0a 35 b8 94 e8 3b
       0.37314942 1.0990435 5.1612295e-07 0.007097807
0000a0 f5 c5 d6 3e ce e0 3a 3f 9e a5 3d 3e 2e 6a 82 3e
       0.41947904 0.72999275 0.18520209 0.25471634
0000b0 e8 b2 e3 37 4e 52 43 3a 6b 95 4a 3f 0c 43 35 3f
       2.7143818e-05 0.0007450924 0.79134244 0.7080543
0000c0 03 46 23 3e e2 1b 22 3f 58 61 83 3c a7 fa 8f 3c
       0.15944676 0.63323796 0.016037628 0.017575575
0000d0 a1 fd 06 3d 85 1e 92 3c 7f 44 81 3f a4 30 95 3b
       0.032956723 0.017836818 1.0099028 0.0045529176
0000e0 9d ab 37 3f c1 35 06 3e b2 af 33 3f 5d b8 e6 3c
       0.71746236 0.13106443 0.70189965 0.028164083
0000f0 3e 15 21 3f 2e 91 64 3f a2 b9 36 3f e8 62 1b 3f
       0.6292304 0.89284027 0.71377003 0.60697794
000100 56 14 db 3e de 58 50 3d b3 c5 4b 3f 54 86 5b 3e
       0.42788953 0.050866 0.7959854 0.21437961
000110 10 3e 04 3f f1 eb 26 3e 90 23 34 3d f3 24 40 3f
       0.516572 0.16300942 0.043979228 0.7505638
000120 5d 59 f3 3e ff 6e 58 3f 2d a0 93 3c 19 37 88 3b
       0.47529116 0.84544367 0.018020714 0.004156959
000130 7a 1c f6 3e 47 3d a7 3e c7 54 63 36 d2 d5 e0 3e
       0.480686 0.32663938 3.3874983e-06 0.43913132
000140 02 4a ed 3d 3e 85 d1 37 81 81 46 3f cc 2a e6 39
       0.115863815 2.4976787e-05 0.7754136 0.00043900905
000150 4c 91 5a 3f dc 97 79 3e 0c 55 fa 37 ca 80 d6 3d
       0.85377955 0.24374336 2.9841925e-05 0.10473783
000160 f0 69 03 3e 5e a5 26 3f 4e 7e 3f 3b 26 67 0e 3f
       0.1283338 0.6509608 0.002921957 0.5562614
000170 c4 56 9b 3d 83 40 18 3f 70 78 a5 3a 3f 94 d3 3c
       0.075849086 0.5947344 0.0012624394 0.025827525
000180 29 c9 f5 3d 68 77 89 38 56 a2 c8 3e bf de 7c 39
       0.12001259 6.55491e-05 0.39186352 0.00024115572
000190 e6 c2 52 35 d4 d7 57 3f 9d 0f 3e 39 6e fb a7 3e
       7.851471e-07 0.843137 0.00018125628 0.32809013
0001a0 3b 6a ea 3e 42 7a 0a 3f a7 0f 23 3f cd e4 28 3f
       0.45784172 0.540928 0.6369576 0.6597412
0001b0 63 af 60 3f 65 37 9c 35 e6 5e 2c 3f 62 5f 08 3e
       0.8776762 1.1639028e-06 0.67332304 0.13317636
0001c0 c0 1a a4 3e d0 55 36 3f bd cf 3a 36 b8 33 25 3f
       0.3205166 0.7122469 2.783708e-06 0.6453204
0001d0 c6 4a e5 3e 26 96 1b 3f dd 2e 2c 3f 30 77 47 3f
       0.4478361 0.60775983 0.6725901 0.7791624
0001e0 29 9d ce 3e 5e 7d 92 38 31 95 36 3f 4a 78 e4 3c
       0.4035428 6.985174e-05 0.713214 0.02788939
0001f0 cd 51 39 3e 25 ac bc 3e 5d f5 13 3f 7e de dc 3d
       0.18097611 0.36850086 0.5779627 0.107846245
000200 a3 f7 36 3f da f1 9b 3f 8e 29 7c 39 98 74 19 3e
       0.71471614 1.2183182 0.00024048073 0.14985883
000210 38 45 38 3e 80 f2 44 3f ca 39 74 3f df e6 86 37
       0.17995155 0.76932526 0.9540068 1.6081553e-05
000220 0d fd 64 3b da fd 98 3d e9 1c d1 3e d4 e0 b1 3e
       0.003494087 0.07470293 0.4084237 0.34741843
000230 28 a6 5a 3f d2 41 9e 3d ae 7e 63 3f 95 c2 4c 3a
       0.85409784 0.07727398 0.8886517 0.00078109774
000240 cf d7 39 3f 77 d4 e9 3e 76 0e 3f 3f 8b 95 6b 3f
       0.7259492 0.4566991 0.7463144 0.9202506
000250 e7 f2 0e 3a e1 fb 03 3f db 53 61 3d 35 03 03 3f
       0.00054530654 0.5155621 0.05501161 0.5117677
000260 84 6b 1f 3f de 59 b8 38 5e ac 95 3f 5b df 43 3f
       0.6227343 8.790543e-05 1.1693227 0.7651269
000270 31 d6 8f 3f b3 d9 7b 3f c0 2f 23 3f 25 a4 24 39
       1.1237241 0.9837906 0.63744736 0.00015701407
000280 c0 e4 a1 3e cd dd 46 3f c5 12 10 3f 36 0a af 3e
       0.31619835 0.7768219 0.5627864 0.34187478
000290 07 f9 bd 3d 51 ba 4d 37 a0 d7 56 3c 63 4d 44 3e
       0.09276014 1.2262332e-05 0.013112932 0.19170146
0002a0 91 57 28 3f 90 a0 a9 3e af 72 8d 3c 71 ae b5 3c
       0.65758616 0.33130312 0.0172666 0.022177907
0002b0 f5 dc fc 3e eb 3f 6e 3f b0 29 27 3a d2 80 0a 3f
       0.49387327 0.9306628 0.00063767564 0.54102814
0002c0 e6 cf 39 3f 18 51 28 3f 11 30 3e 3f 04 d3 28 3f
       0.7258285 0.6574874 0.74292094 0.65946984
0002d0 b7 4a b7 3e d3 5e 32 3f 91 ff 3c 3d b0 3f 34 39
       0.3579919 0.6967594 0.046142165 0.00017189863
0002e0 2f 3b 26 3f 89 af dd 3d ca b5 5c 3f ae a8 3b 3f
       0.64934057 0.10824496 0.8621489 0.7330426
0002f0 91 23 25 37 3f b2 5d 3f ea 93 44 3e 7b 36 2e 3f
       9.843047e-06 0.86600107 0.1919705 0.6805188
000300 56 9f 30 3f 4f cc 40 3f 0d dc f4 3c d1 91 40 39
       0.6899313 0.7531175 0.029890085 0.00018364868
000310 13 80 61 3d 60 50 74 3c 30 92 51 3f c3 c0 88 3f
       0.05505378 0.014911741 0.8186369 1.0683826
000320 53 29 76 3e 22 fa e1 3e 07 10 0b 3f 51 e1 fe 3b
       0.24039201 0.4413615 0.5432133 0.0077783247
000330 c4 11 92 3e 53 6e 11 3a 40 60 0e 3b d6 93 cc 3e
       0.2852918 0.00055477506 0.002172485 0.3995654
000340 6c 39 5a 3f f8 17 d2 3e 60 32 df 38 02 50 a4 3e
       0.8524387 0.41033912 0.00010642852 0.3209229
000350 b3 86 f4 3e 8d 52 a4 3c bd 98 08 3f 93 05 09 35
       0.47759017 0.020058895 0.5335806 5.104459e-07
000360 9d 20 1c 3f 33 25 26 3f 54 62 10 3f e5 02 55 3e
       0.60987264 0.6490051 0.56400037 0.20801885
000370 e1 2c 1b 3f e9 38 22 3f 3c 4e af 3f a5 2b a6 3f
       0.60615355 0.6336809 1.369575 1.2982069
000380 d3 99 0e 3f f0 0d 5e 3f a6 ca 40 3f 5d 90 7c 3e
       0.5570347 0.86740017 0.75309217 0.24664445
000390 43 fd 04 3f c9 53 78 3f 47 f8 36 3f d7 6a b2 37
       0.51948947 0.97002846 0.7147259 2.1269005e-05
0003a0 e3 51 5f 3f 13 f1 a5 3a ab ee 3e 39 95 8c 26 3f
       0.87234324 0.0012660347 0.00018208723 0.6505826
0003b0 71 95 3c 3e 87 3a 74 3f f8 ff 5b 3f 1f 04 01 3f
       0.18416382 0.95401806 0.8593745 0.50396913
0003c0 a7 4b 2b 3f e7 ae 30 3f 74 41 26 3f 37 dc 40 3f
       0.6691231 0.6901688 0.64943624 0.7533602
0003d0 05 0f 1b 3f 22 56 b3 3d 9d eb c1 3d 8f a1 19 3f
       0.60569793 0.08756663 0.09468768 0.60012144
0003e0 f9 80 36 3f e9 a5 56 3f 7a 2e 15 3e ce ab ce 3d
       0.71290547 0.8384691 0.1456851 0.10091363
0003f0 41 ff 4a 3f f2 1c 36 39 1d 93 39 3f 5d 68 71 3d
       0.79295737 0.00017367656 0.724901 0.05893742
