checkpoints/yahtzee_pretrain_faster/checkpoint_ep8999.pt (torch, 784619 bytes, 19 tensors)

shared.0.weight f4 [512, 23]
-0.060287192 0.1771836 -0.08630343 0.12880793 -0.06671911 3.7915785e-23 -0.37784314 -0.22731726
-0.28161952 -0.29901907 -0.15080464 -0.11975141 -0.029931227 0.037681773 -0.1412741 0.08667312
0.024663433 -0.019346884 0.21627198 -2.018873e-23 -0.0005821078 1.7307925e-22 5.003989e-22 -0.06036462
0.049145732 0.04493201 -0.0965382 -0.16708508 4.194923e-22 0.2839198 0.28280684 0.19286989
0.2022244 -0.18803798 0.17172791 0.00091098016 -0.10682959 0.08505094 0.07788499 0.024099639
0.1572431 -0.0015492585 -1.072772e-22 0.015824424 -1.8031987e-22 1.3862952e-22 0.07859213 0.060647316
0.047823332 -0.044892173 0.08109915 -1.6143133e-22 0.035087157 0.33861497 -1.1410743 0.09827386
0.06277034 0.058761846 -0.094242364 0.21950953 0.120305344 0.058734853 0.045318414 0.00014544625
0.14982173 -9.282579e-24 0.00083303155 3.039542e-23 -3.0227108e-22 0.14898477 0.050845057 0.061257213
0.05448107 0.11925173 7.5699284e-22 0.0027652602 0.01650225 -0.032515552 0.030258445 0.08605149
0.06310948 0.06167437 -0.006158904 0.041463014 0.060122296 0.041958403 0.04939194 0.012362018
3.5470917e-22 -0.00095169985 -3.5432307e-22 5.689359e-22 -0.14651346 -0.05632649 -0.13881779 0.03603991
0.073569894 6.2236815e-23 0.3387098 0.28623074 0.24292867 0.22443025 0.20224214 0.21825252
0.037488285 0.051430047 -0.06398073 0.05458103 0.008878288 -0.026151845 -0.027172428 -7.2180667e-22
-0.009361589 -6.991551e-22 -7.146026e-23 0.038307514 0.078669764 0.09462551 0.11409521 0.11797927
2.0103921e-23 -0.24808745 -0.25066483 -0.0042435494 -0.018728286 -0.16163838 -0.16983202 0.070713006
0.006390843 0.017198563 0.004751847 0.0072502 0.14087796 0.16436428 -1.7040805e-22 -0.008097394
1.6778044e-22 1.8440454e-23 0.09689621 0.08045657 0.10031164 0.11943504 0.15343624 -1.1171463e-22
-0.0052987887 0.011809685 -0.031372655 0.052674547 0.078237094 0.06557409 0.032488015 -0.022128314
-0.013443292 0.04931718 0.03214745 0.04952071 0.016476061 6.1344363e-22 -0.00081650063 -4.534323e-22
-1.3986457e-22 0.026100112 0.053681206 0.06312903 0.0532835 0.0554355 2.2754384e-22 0.012387741
0.013080393 -0.021186905 0.045030948 0.109299205 0.0071489853 0.014649831 -0.031303436 0.020499352
0.04354133 0.032301765 0.049023844 0.12857036 5.4663714e-22 -0.0007453432 -1.9895784e-22 6.851029e-22
0.08160244 0.07837826 0.11387713 0.12140072 0.12894925 -1.5199867e-24 -0.00040294946 0.013981406
-0.017460732 0.054333445 0.066541106 0.09802803 0.02793687 -0.008042684 0.032618504 0.048327465
0.04156757 0.049652833 0.020345032 -2.138371e-22 -0.00017373153 5.580608e-23 2.2311208e-23 -0.048558984
-0.12413819 -0.060496755 0.070854075 0.02440036 1.1145734e-23 0.28065923 0.3005772 0.08024701
0.23259681 0.1386585 0.3878999 -0.004327799 0.044324398 0.1405474 0.118396685 0.080703005
-0.046240605 -0.05119074 7.651041e-22 -0.002620994 4.43125e-23 4.951916e-23 0.11979155 0.06979717
0.09808763 0.102371685 0.12042566 -8.27794e-24 0.01175866 0.016006805 -0.03077419 0.07089355
0.071158364 0.055635124 0.015740829 0.005762948 0.014787288 0.031109199 0.0386592 0.04978726
0.046557073 -2.216487e-22 -8.681248e-05 -2.3844244e-22 -9.132359e-23 -0.059299625 -0.009771447 -0.0139249265
00000000: b4ef 76bd 9e6f 353e dabf b0bd 3ae6 033e
00000010: 07a4 88bd 7859 371a a874 c1be dbc5 68be
00000020: 6f30 90be 0719 99be 886c 1abe 3a40 f5bd
00000030: 5532 f5bc 3458 1a3d 28aa 10be ad81 b13d
00000040: f80a ca3c 5b7d 9ebc 6776 5d3e e040 c399
00000050: 9898 18ba 6f3d 511b 7d3c 171c e440 77bd
00000060: 094d 493d a10a 383d d2b5 c5bd 5a18 2bbe
00000070: 4a91 fd1b f05d 913e 0fcc 903e af7f 453e
00000080: ea13 4f3e 078d 40be 71d9 2f3e d8ce 6e3a
00000090: 79c9 dabd 302f ae3d 2a82 9f3d 9b6c c53c
000000a0: 5604 213e 7d10 cbba afb0 019b 39a2 813c
000000b0: 4cfe 599b c297 271b e9f4 a03d 5269 783d
000000c0: 66e2 433d dbe0 37bd 5017 a63d 9428 439b
000000d0: 8db7 0f3d f15e ad3e b90e 92bf ce43 c93d
000000e0: bc8d 803d 43b0 703d 2402 c1bd 1bc7 603e
000000f0: a662 f63d f593 703d cd9f 393d ee82 1839
00000100: de6a 193e 1b8d 3399 cd5f 5a3a b5fb 121a
00000110: 2fb6 b69b 778f 183e e842 503d d8e8 7a3d
00000120: 8b27 5f3d 403a f43d 7cc9 641c 5e39 353b
00000130: ba2f 873c 072f 05bd 8fe0 f73c c33b b03d
00000140: 8b3f 813d 449e 7c3d a2d0 c9bb 1fd5 293d
00000150: cc42 763d 93dc 2b3d 344f 4a3d 108a 4a3c
00000160: 9668 d61b 7f7b 79ba d72c d69b 48f3 2b1c
00000170: a007 16be 9bb6 66bd 4026 0ebe 969e 133d
00000180: d0ab 963d b97a 961a 5f6b ad3e d68c 923e
00000190: 4bc2 783e 0bd1 653e 9018 4f3e 977d 5f3e
000001a0: 518d 193d 50a8 523d 5408 83bd 5c90 5f3d
000001b0: 3d76 113c 653c d6bc b698 debc 1627 5a9c
000001c0: 5a61 19bc 814e 539c c2c7 ac9a 57e8 1c3d
000001d0: 9d1d a13d 05cb c13d c0aa e93d 1e9f f13d
000001e0: e66e c219 a30a 7ebe 2457 80be 790d 8bbb
000001f0: 106c 99bc 8884 25be 72e8 2dbe fbd1 903d
00000200: 476a d13b 00e4 8c3c 62b5 9b3b 1693 ed3b
00000210: 5042 103e 1c4f 283e bd02 4e9b efaa 04bc
00000220: 88d5 4a1b 5a58 b219 8571 c63d 6ac6 a43d
00000230: 3070 cd3d 5c9a f43d 641e 1d3e 010e 079b
00000240: 76a1 adbb 697d 413c 9d80 00bd 44c1 573d
00000250: c53a a03d b54b 863d 2712 053d 7046 b5bc
00000260: 4141 5cbc d000 4a3d 0bad 033d 3ad6 4a3d
00000270: cef8 863c e766 391c 6e0a 56ba a00a 099c
00000280: fd15 299b e7cf d53c d3e0 5b3d cb49 813d
00000290: cd3f 5a3d 5610 633d b48a 891b f4f5 4a3c
000002a0: 254f 563c 2990 adbc 5f72 383d 43d8 df3d
000002b0: 0942 ea3b d805 703c 0838 00bd 42ee a73c
000002c0: 6558 323d db4e 043d 3acd 483d f3a7 033e
000002d0: 0036 251c 2363 43ba 7886 709b 450f 4f1c
000002e0: 2e1f a73d c884 a03d 6a38 e93d f1a0 f83d
000002f0: 460b 043e e034 eb97 f642 d3b9 4412 653c
00000300: cf09 8fbc bf8c 5e3d b446 883d ebc2 c83d
00000310: dddb e43c 76c5 03bc fb9a 053d 05f3 453d
00000320: c242 2a3d c560 4b3d a0aa a63c b041 819b
00000330: b42b 36b9 4aee 861a e0c7 d719 c9e5 46bd
00000340: 2a3c febd 72cb 77bd f11b 913d 44e3 c73c
00000350: 0097 5719 91b2 8f3e 41e5 993e 8b58 a43d
00000360: dc2d 6e3e 7efc 0d3e d19a c63e 36d0 8dbb
00000370: 808d 353d a8eb 0f3e f679 f23d 9e47 a53d
00000380: ca66 3dbd 62ad 51bd 103d 671c fcc4 2bbb
00000390: 3848 561a c075 6f1a 4655 f53d d2f1 8e3d
000003a0: 2be2 c83d 3fa8 d13d baa1 f63d 601e 2099
000003b0: 65a7 403c b420 833c 271a fcbc a330 913d
000003c0: 7abb 913d a8e1 633d e9f2 803c 1dd7 bc3b
000003d0: 6246 723c b8d8 fe3c 1c59 1e3d baed 4b3d
000003e0: a1b2 3e3d 7afa 859b 180f b6b8 2e21 909b
000003f0: 90ce dc9a 2ae4 72bd 6b18 20bc 6025 64bc

shared.0.bias f4 [512]
0.074609496 0.031752292 0.06798857 -0.02158687 -0.2592104 -0.42515984 -0.023093887 -0.02889495
-0.021715704 -0.0007826683 -0.024406526 -0.0855575 0.038407177 -0.03783599 0.16790827 0.15736493
-0.024175428 -0.044328634 -0.43673164 -0.023905458 -0.02308685 -0.08292079 -0.06632514 0.08950828
-0.116646364 -0.017194709 0.003193846 -0.11338855 -0.022125494 -0.069703914 -0.11534722 0.33768564
-0.009814745 0.025252046 0.58728033 -0.13640557 0.023372814 0.17624861 -0.5039876 0.06220621
0.07059065 0.106901206 -0.02457138 -0.052733723 -0.044576842 0.0002761727 -0.47106683 -0.46823424
-0.011464639 -0.077154316 0.023990398 0.039453346 -0.133194 -0.021363724 -0.009219284 -0.025660118
0.23287031 -0.47999668 -0.023940472 -0.015061116 0.31609002 -0.027089002 0.07411926 0.90825355
0.20348665 -0.38137734 0.08375031 -0.53460455 -0.02126132 0.22195022 -0.07476478 -0.023602506
-0.0141720055 -0.022475705 0.21889384 0.12109283 -0.0153960865 -0.08282256 -0.02393409 0.095112555
-0.008137764 -0.026001496 -0.02537482 0.016241955 0.17901352 -0.01945587 0.042667516 0.26554546
-0.046589855 -0.026376816 -0.04930601 -0.022765225 0.11124893 -0.3588307 -0.055935472 0.0036895792
-0.05123892 0.08412113 0.28885084 0.051719386 0.053465717 0.027627451 -0.16368127 0.18845436
0.05264159 0.00054491474 0.11241025 0.2502702 -0.025395727 -0.09091434 -0.0071827457 0.76809233
-0.025811207 -0.12360476 0.27995828 -0.19463155 -0.06227669 -0.022807952 -0.025701996 0.16186115
-0.20795837 -0.08985502 -0.017935706 -0.024481136 0.24313165 -0.046672013 0.23646475 0.044237033
-0.1553773 -0.0825845 -0.023306092 -0.03684772 -0.16740909 -0.0015143586 -0.086049825 -0.06816397
0.18752943 -0.0856951 0.037359904 -0.02233755 -0.025538402 0.03264947 0.13838878 -0.010013009
-0.025644716 -0.034407735 0.22871377 -0.0840321 0.28743568 -0.025334721 -0.023158237 -0.018424356
-0.09133278 -0.024779228 -0.09957392 0.023298593 -0.031199327 0.06756762 -0.06558641 0.54475987
0.27372912 0.11286641 -0.02405312 -0.24464205 -0.026410187 -0.018400962 -0.60811484 0.025640793
-0.04648125 -0.0065897256 0.065706916 0.4605742 -0.055048134 -0.025689289 -0.1612276 0.00088021887
-0.07338894 0.1332079 -0.042578697 0.15766454 -0.022794405 0.020901937 -0.021114128 -0.02031036
-0.02313963 0.23000377 -0.027418764 -0.019068016 0.04558114 0.13318264 -0.10858016 -0.16418244
0.23020223 -0.058343794 -0.2317808 0.4127145 -0.021392496 -0.21946207 -0.44114858 -0.17013948
-0.045275465 -0.5748749 -0.021969995 -0.040577576 0.35284984 -0.022211313 0.2193624 0.23757914
-0.024089081 -0.023697907 0.04744393 0.0058700303 -0.11104788 0.045487627 -0.0036010132 0.009091765
-0.025049495 0.33418962 0.035992485 -0.026457919 -0.023312634 -0.01712394 -0.025982963 0.016851356
0.34758502 0.1740453 -0.028904395 -0.015367476 -0.021432662 -0.006163674 -0.028381545 0.006552819
-0.021172429 0.011471516 -0.043360807 0.031576324 -0.073911324 -0.020130686 0.12263186 -0.025495524
-0.3229086 -0.04233952 0.1638353 -0.022270678 -0.010183563 -0.023508098 -0.008475398 0.052688714
0.03688758 -0.023509406 -0.026076593 -0.02466115 0.0059652883 -0.016632523 -0.023131674 0.08759267
00000000: ddcc 983d b10e 023d 973d 8b3d f3d6 b0bc
00000010: 3ab7 84be 8dae d9be 642f bdbc 1ab5 ecbc
00000020: 22e5 b1bc fb2b 4dba 32f0 c7bc c538 afbd
00000030: d850 1d3d e9f9 1abd 25f0 2b3e 4624 213e
00000040: 8c0b c6bc f191 35bd 4a9b dfbe 61d5 c3bc
00000050: a220 bdbc 60d2 a9bd 7ad5 87bd 1e50 b73d
00000060: 4ae4 eebd ebdb 8cbc d84f 513b 4238 e8bd
00000070: 8640 b5bc edc0 8ebd 2a3b ecbd 22e5 ac3e
00000080: 06ce 20bc 61dd ce3c 0158 163f e7ad 0bbe
00000090: 5878 bf3c 847a 343e 5505 01bf f0cb 7e3d
000000a0: d591 903d 05ef da3d eb49 c9bc 51ff 57bd
000000b0: 3596 36bd 46cb 9039 ac2f f1be 66bc efbe
000000c0: 2ed6 3bbc 1503 9ebd 8387 c43c d599 213d
000000d0: 0264 08be fa02 afbc 7b0c 17bc 2b35 d2bc
000000e0: 8e75 6e3e 20c2 f5be cf1e c4bc e6c2 76bc
000000f0: 8dd6 a13e c1e9 ddbc d7cb 973d 4e83 683f
00000100: ce5e 503e e443 c3be 4885 ab3d d8db 08bf
00000110: 382c aebc eb46 633e 471e 99bd 0b5a c1bc
00000120: b331 68bc f81e b8bc b525 603e 85ff f73d
00000130: de3f 7cbc e09e a9bd 6d11 c4bc 5fca c23d
00000140: 4254 05bc 1701 d5bc dbde cfbc d90d 853c
00000150: 524f 373e eb61 9fbc 22c4 2e3d 93f5 873e
00000160: 01d5 3ebd 3114 d8bc 19f5 49bd 237e babc
00000170: 7bd6 e33d a8b8 b7be 981c 65bd decc 713b
00000180: e7df 51bd b347 ac3d 42e4 933e b5d7 533d
00000190: defe 5a3d f752 e23c 109c 27be 2efa 403e
000001a0: b59e 573d 9cd8 0e3a 5837 e63d 6a23 803e
000001b0: b30a d0bc 4c31 babd 3d5d ebbb b3a1 443f
000001c0: 0672 d3bc 7e24 fdbd b156 8f3e 7e4d 47be
000001d0: d815 7fbd bed7 babc fe8c d2bc eebe 253e
000001e0: 0af3 54be e905 b8bd e7ed 92bc aa8c c8bc
000001f0: 81f7 783e 272b 3fbd d123 723e e431 353d
00000200: 3a1b 1fbe 1022 a9bd 6bec bebc a3ed 16bd
00000210: 4a6d 2bbe 717d c6ba e43a b0bd 8d99 8bbd
00000220: b707 403e ea80 afbd b306 193d 3dfd b6bc
00000230: e935 d1bc 73bb 053d cab5 0d3e 9b0d 24bc
00000240: de14 d2bc 20ef 0cbd f133 6a3e 0619 acbd
00000250: c52a 933e c38a cfbc 58b6 bdbc adee 96bc
00000260: ae0c bbbd cffd cabc 69ed cbbd b1dc be3c
00000270: bb95 ffbc e460 8a3d 2b52 86bd 6275 0b3f
00000280: 3926 8c3e 8126 e73d 0c0b c5bc 7283 7abe
00000290: 2d5a d8bc 9dbd 96bc 6aad 1bbf a40c d23c
000002a0: 2063 3ebd a0ee d7bb 5991 863d 62d0 eb3e
000002b0: 277a 61bd 5872 d2bc d918 25be 7dbe 663a
000002c0: f14c 96bd a767 083e 0067 2ebd d072 213e
000002d0: 55bb babc 8a3a ab3c 89f7 acbc e961 a6bc
000002e0: 528f bdbc 1c86 6b3e 519d e0bc 8734 9cbc
000002f0: 4ab3 3a3d 0861 083e 465f debd 711f 28be
00000300: 22ba 6b3e e7f9 6ebd f257 6dbe 514f d33e
00000310: 513f afbc aaba 60be 3ade e1be 0b39 2ebe
00000320: c472 39bd 002b 13bf 6bfa b3bc ac34 26bd
00000330: bca8 b43e 80f4 b5bc 89a0 603e f247 733e
00000340: 7756 c5bc 1d22 c2bc 9154 423d 6259 c03b
00000350: 126d e3bd 3c51 3a3d fafe 6bbb a0f5 143c
00000360: 9934 cdbc e71a ab3e db6c 133d 47be d8bc
00000370: 23fa bebc 8147 8cbc 39da d4bc db0b 8a3c
00000380: aaf6 b13e ee38 323e e9c8 ecbc dec7 7bbc
00000390: 8d93 afbc a5f8 c9bb 6a80 e8bc 08b9 d63b
000003a0: cd71 adbc 07f3 3b3c 1a9b 31bd 2d56 013d
000003b0: d25e 97bd 1ce9 a4bc 6a26 fb3d fddb d0bc
000003c0: 4754 a5be 346c 2dbd 71c4 273e ff70 b6bc
000003d0: f6d8 26bc 0e94 c0bc 65dc 0abc 1fd0 573d
000003e0: 6e17 173d cc96 c0bc 949e d5bc 2e06 cabc
000003f0: 7778 c33b ee40 88bc a37e bdbc c963 b33d

shared.1.weight f4 [512]
0.9087875 0.5936886 0.72623533 0.012688225 0.76286435 0.6189483 0.01626485 0.022437017
0.0022907718 0.8085521 0.0032985723 0.90153027 0.85058695 0.044087432 0.7826168 0.7919388
0.010063848 0.2899242 0.6627451 0.001875548 0.007105588 0.5067069 0.16780618 0.48022646
0.48233786 0.10261909 0.17401417 0.7731183 0.016536236 0.2682167 0.4474309 0.87041706
0.28560287 0.44165325 0.72729945 0.9102537 0.4646565 0.5645302 0.588868 0.24072309
0.5188039 0.56936765 0.010536412 0.3407475 0.46972442 0.26667216 0.7016239 0.75902146
0.09257182 1.0687164 0.17904979 0.48313573 0.9963516 0.042659532 0.48056892 0.010014677
0.69028467 0.72868884 0.003543094 0.14744343 0.76604265 0.19174576 0.7900417 0.9074449
0.875956 0.8599798 0.65886885 1.0346979 0.07515725 0.94101137 0.4632658 0.015370972
0.46870542 0.012718204 0.66284263 0.79237163 0.063027635 0.33230934 0.039451897 0.61426127
0.107642874 0.14708951 0.0003160449 0.2543885 0.75988966 0.053004928 0.22445488 0.6864341
0.6673493 0.003540082 0.9990189 0.08921484 0.8490658 0.8557935 0.33317432 0.72913045
0.90475374 0.8515149 0.8585928 0.45622593 0.5145447 0.56138444 0.925976 0.7202161
0.9084497 0.3006184 0.5047986 0.9344147 0.009788099 0.56244993 0.3006239 0.7264469
0.069278695 0.40880942 0.512271 0.8835317 0.13476421 0.2392873 0.00357036 0.75001657
0.38162616 0.5240711 0.5131405 0.0056568454 0.82550067 0.7563957 0.8395419 0.30918697
0.46020368 1.1098051 0.03551025 0.12069778 0.48272696 0.11351831 0.9736996 0.3408895
0.35238144 0.20235093 0.28185 0.6157339 0.019870166 0.32057574 0.41606048 0.62113327
0.005662006 0.28078616 0.90792155 0.39899945 0.5180983 0.003220928 0.023750547 0.060942005
0.26542813 0.02519574 0.22458515 0.34103543 0.330021 0.2815834 0.38490066 0.76821125
1.0053761 0.55354047 0.06469704 0.80232006 0.003556521 0.113922164 0.8312031 0.5932435
0.24012801 0.8624691 0.30610177 0.5122687 0.2890883 0.061459865 0.75810665 0.24955194
0.8428901 0.74684924 0.14990862 0.6830717 0.04202452 0.17051543 0.13700731 0.10411525
0.0039194967 0.70827323 0.69393146 0.06764967 0.527043 0.6405338 1.0269189 0.2863355
0.6431294 0.8960075 0.8121255 0.9919937 0.03559779 0.68177557 1.0649352 0.46078268
0.12052119 0.79687756 0.05048107 0.25809392 0.8182108 0.0062814946 0.88792485 0.76709837
0.0008996904 0.007117233 0.77522796 0.6803995 1.0548347 0.14696601 0.1644278 0.12406913
0.78142226 0.66907537 0.42709818 0.0015679494 0.034111697 0.12074093 0.091021314 0.7856711
0.856111 0.6572889 0.054443665 0.056547105 0.013129408 0.553729 0.057007667 0.16551666
0.028439995 0.19546556 0.21158373 0.45341784 0.23414145 0.046117045 0.56035894 0.0056256824
0.75938684 0.66350085 0.9126675 0.10157793 0.5886633 0.00308263 0.18026058 0.38370213
0.32350597 0.011510987 0.015591079 0.0045647435 0.29339916 0.07253122 0.023915306 0.3493283
00000000: 4ca6 683f fafb 173f 8fea 393f 46e2 4f3c
00000010: 144b 433f 6573 1e3f dd3d 853c d6cd b73c
00000020: c620 163b 45fd 4e3f dc2c 583b b0ca 663f
00000030: 11c0 593f 0695 343d 9359 483f 80bc 4a3f
00000040: d7e2 243c f270 943e aaa9 293f f3d4 f53a
00000050: fed5 e83b 8bb7 013f 62d5 2b3e 3ee0 f53e
00000060: fdf4 f63e f529 d23d c530 323e 15eb 453f
00000070: 0077 873c b353 893e aa15 e53e a7d3 5e3f
00000080: 8a3a 923e 6020 e23e 4c30 3a3f 6306 693f
00000090: 75e7 ed3e 0d85 103f 0ec0 163f 1d80 763e
000000a0: 55d0 043f 14c2 113f eaa0 2c3c 7576 ae3e
000000b0: b87f f03e 4189 883e a09d 333f 3b4f 423f
000000c0: 4b96 bd3d b3cb 883f d458 373e 915d f73e
000000d0: e610 7f3f c3bb 2e3d 210d f63e 9a14 243c
000000e0: 7fb6 303f 5a8b 3a3f 4133 683b 69fb 163e
000000f0: 5f1b 443f 0059 443e 2c40 4a3f 4f4e 683f
00000100: a73e 603f a327 5c3f a1ab 283f fb70 843f
00000110: 0bec 993d 1fe6 703f 2d31 ed3e 88d6 7b3c
00000120: 28fa ef3e 0460 503c 0eb0 293f ded8 4a3f
00000130: a214 813d 7324 aa3e 5098 213d 3a40 1d3f
00000140: de73 dc3d a29e 163e d4b2 a539 363f 823e
00000150: 2188 423f b21b 593d 80d7 653e 25ba 2f3f
00000160: 67d7 2a3f b800 683b b4bf 7f3f 45b6 b63d
00000170: 605c 593f 4815 5b3f d395 aa3e 4ba8 3a3f
00000180: f19d 673f e1fc 593f bdcc 5b3f 7296 e93e
00000190: 34b9 033f e4b6 0f3f c30c 6d3f 1560 383f
000001a0: 2990 683f a8ea 993e 7b3a 013f cd35 6f3f
000001b0: 435e 203c b8fc 0f3f 60eb 993e 6df8 393f
000001c0: fde1 8d3d 784f d13e 3124 033f 222f 623f
000001d0: a1ff 093e bb07 753e b3fc 693b 1601 403f
000001e0: 8164 c33e 8629 063f 2d5d 033f 0f5d b93b
000001f0: 0354 533f 26a3 413f 38ec 563f c14d 9e3e
00000200: d19f eb3e 180e 8e3f 3273 113d 6630 f73d
00000210: fd27 f73e 4a7c e83d 6144 793f 1289 ae3e
00000220: 576b b43e 1535 4f3e a54e 903e bda0 1d3f
00000230: c2c6 a23c 8122 a43e e105 d53e 9702 1f3f
00000240: 5988 b93b 34c3 8f3e 8c6d 683f a849 cc3e
00000250: 17a2 043f 3416 533b 8290 c23c 539e 793d
00000260: 32e6 873e 4c67 ce3c a6f9 653e 329c ae3e
00000270: 83f8 a83e b32b 903e b311 c53e 7ea9 443f
00000280: 2ab0 803f d4b4 0d3f e27f 843d d964 4d3f
00000290: 8514 693b 0650 e93d bac9 543f cede 173f
000002a0: 1ee4 753e c6ca 5c3f 5fb9 9c3e 0b24 033f
000002b0: 6203 943e 57bd 7b3d 4713 423f 8b8a 7f3e
000002c0: a5c7 573f 8331 3f3f a581 193e c9dd 2e3f
000002d0: e721 2c3d 999b 2e3e a54b 0c3e 603a d53d
000002e0: 1f6f 803b 6551 353f 7ea5 313f e98b 8a3d
000002f0: 4aec 063f 06fa 233f 1472 833f 919a 923e
00000300: 21a4 243f bf60 653f 75e7 4f3f 4df3 7d3f
00000310: fdce 113d d888 2e3f cc4f 883f b5eb eb3e
00000320: d0d3 f63d 2b00 4c3f 3dc5 4e3d e324 843e
00000330: 4376 513f ffd4 cd3b 0b4f 633f 8f60 443f
00000340: 33d9 6b3a ad37 e93b 5775 463f a92e 2e3f
00000350: d304 873f 427e 163e c35f 283e f517 fe3d
00000360: 4a0b 483f 8648 2b3f 9dac da3e a783 cd3a
00000370: b5b8 0b3d 0547 f73d 6269 ba3d be21 493f
00000380: 172a 5b3f 1644 283f 5200 5f3d f09d 673d
00000390: ba1c 573c 2fc1 0d3f df80 693d 337d 293e
000003a0: fefa e83c 2028 483e 68a9 583e 6226 e83e
000003b0: c7c2 6f3e 3ae5 3c3d af73 0f3f a557 b83b
000003c0: 2d67 423f 31db 293f 94a4 693f 1708 d03d
000003d0: a3b2 163f f305 4a3b 3b96 383e 9b74 c43e
000003e0: 93a2 a53e 9498 3c3c ba71 7f3c d893 953b
000003f0: 6a38 963e 408b 943d 08ea c33c 29db b23e

shared.1.bias f4 [512]
-0.0014710845 -0.05339588 -0.013901007 -0.025929332 -0.018522182 -0.11472439 -0.020704191 -0.0421523
-0.007707797 0.024068087 -0.019767195 0.057927385 -0.00010364724 -0.058107637 0.049574733 -0.043275137
-0.021083185 -0.076016046 -0.0720389 -0.008230325 -0.013416889 -0.05442625 -0.06558062 -0.06629439
-0.06613282 -0.08552662 -0.10519198 -0.059880957 -0.022397844 -0.013588794 -0.036241245 -0.013490778
-0.036163718 -0.12497969 -0.09438984 0.033226907 -0.058759898 -0.040573515 -0.11260306 0.014620362
-0.0064409086 -0.01619402 -0.020052528 -0.15664892 -0.016134769 -0.06380179 -0.059715632 0.035945423
-0.06214699 0.008272213 -0.036736067 -0.06732664 0.029063994 -0.028900443 -0.060037415 -0.023515964
-0.05158949 -0.09354499 -0.024264209 -0.07650065 -0.10723388 -0.10645284 0.004558472 0.04865702
0.037756518 -0.002155134 -0.03222002 -0.0071776924 -0.064732194 0.04937959 -0.0028974726 -0.0297868
-0.0024739385 -0.025021538 -0.0141199855 0.04539201 -0.056784857 -0.10312267 -0.03843817 0.024024095
-0.033069585 -0.02774429 -0.006126262 -0.08448806 -0.024026282 -0.03563576 -0.006508085 0.0032564164
-0.021206588 -0.017840724 -0.016917627 -0.060349207 0.006853524 -0.09855611 -0.09901295 1.5328464e-05
0.022662416 0.0173143 -0.0013994987 -0.026998097 -0.042191874 0.0012347793 -0.006883897 -0.0017290346
0.024476808 -0.064580314 -0.06854919 0.07738782 -0.025624074 0.034056257 -0.019270761 -0.02679501
-0.07773639 -0.08595748 -0.09045246 0.013775086 -0.071614265 -0.09441632 -0.014542262 -0.024005394
-0.09240809 -0.03749819 -0.07478918 -0.016059456 0.004728874 -0.03233122 -0.05342308 -0.11314407
0.0134136295 -0.0064186165 -0.052709214 -0.101241864 -0.04965727 -0.090589136 0.002943487 -0.055059694
-0.06313688 -0.07821794 0.0035019282 -0.060214374 -0.04174733 -0.039432824 -0.08808633 -0.085319445
-0.015439293 -0.04257275 0.04784174 0.033029363 0.009517215 -0.010945421 -0.029981012 -0.06451826
-0.100603305 -0.032590173 -0.049908042 -0.017330363 -0.040626846 -0.04654708 -0.06858842 -0.055453144
0.06356215 0.0034568442 -0.046740077 -0.04075706 -0.012640334 -0.08938819 -0.02620228 -0.020710623
-0.07002307 0.054597236 -0.008026925 -0.050822556 -0.08065656 -0.0718642 -0.094654396 -0.0072242594
0.014130378 -0.02590596 -0.14363083 0.06780715 -0.05578142 -0.08918041 -0.06927951 -0.075551726
-0.01025509 0.06909582 0.04948944 -0.054754175 -0.009304093 -0.076204404 -0.009312692 -0.093723305
-0.0062879017 -0.07844416 -0.07567895 0.011251013 -0.044339933 -0.0689701 -0.015547818 -0.074589774
-0.03910814 -0.09078885 -0.048324198 -0.07960553 0.06832582 -0.020612383 0.021935685 0.0031522678
-0.0032154224 -0.012953692 -0.04046797 0.017787319 -0.038357187 -0.054510824 -0.027108839 -0.0917231
-0.050873775 0.0010431585 -0.061502997 -0.008831326 -0.045878097 -0.058369096 -0.070706375 -0.027131379
0.0056712576 -0.05823694 -0.04125437 -0.058243867 -0.019675968 -0.08816726 -0.048973083 -0.07023022
-0.04444207 -0.041631933 -0.054991696 -0.054223187 -0.07769493 -0.049912736 -0.05257462 -0.013914368
-0.086540855 0.0036724992 -0.016121265 -0.071686104 0.023347864 -0.006977616 -0.0307178 -0.040298272
-0.005418945 -0.024988364 -0.03525306 -0.010804653 -0.05283534 -0.07230776 -0.037538398 -0.050992385
00000000: 68d1 c0ba a3b5 5abd 0dc1 63bc c069 d4bc
00000010: d5bb 97bc 9ff4 eabd d69b a9bc e4a7 2cbd
00000020: b091 fcbb 702a c53c d0ee a1bc 4445 6d3d
00000030: 305d d9b8 4602 6ebd e00e 4b3d 4541 31bd
00000040: a5b6 acbc 4dae 9bbd 2189 93bd 7cd8 06bc
00000050: 83d2 5bbc 0fee 5ebd 224f 86bd 5ac5 87bd
00000060: a570 87bd 9528 afbd e56e d7bd bc45 75bd
00000070: af7b b7bc 88a3 5ebc b371 14bd 6d08 5dbc
00000080: 6820 14bd 5af5 ffbd 764f c1bd f018 083d
00000090: 38ae 70bd 6a30 26bd 6f9c e6bd 3e8a 6f3c
000000a0: 420e d3bb 52a9 84bc 3345 a4bc 9368 20be
000000b0: 102d 84bc 83aa 82bd 6198 74bd 823b 133d
000000c0: d88d 7ebd 2d88 073c 8f78 16bd 8de2 89bd
000000d0: 9d17 ee3c 9fc0 ecbc cbe9 75bd 8da4 c0bc
000000e0: 804f 53bd 8494 bfbd bcc5 c6bc 5fac 9cbd
000000f0: 709d dbbd f203 dabd 3c5f 953b 954c 473d
00000100: 94a6 1a3d 263d 0dbb 24f9 03bd d932 ebbb
00000110: 5092 84bd 4142 4a3d 86e3 3dbb 7203 f4bc
00000120: cd21 22bb f8f9 ccbc 8357 67bc f9ec 393d
00000130: 3d97 68bd fa31 d3bd 5871 1dbd 2ece c43c
00000140: f973 07bd fe47 e3bc cfbe c8bb 1308 adbd
00000150: c4d2 c4bc cdf6 11bd c641 d5bb 9a69 553b
00000160: 70b9 adbc b626 92bc d696 8abc bb30 77bd
00000170: 8793 e03b c9d7 c9bd 4dc7 cabd a095 8037
00000180: 88a6 b93c b8d6 8d3c 626f b7ba 1d2b ddbc
00000190: 63d1 2cbd 51d8 a13a 5092 e1bb c6a0 e2ba
000001a0: 9683 c83c af42 84bd 8563 8cbd 817d 9e3d
000001b0: 94e9 d1bc 937e 0b3d b7dd 9dbc 3581 dbbc
000001c0: 4234 9fbd 7a0a b0bd 243f b9bd e6b0 613c
000001d0: 80aa 92bd 585d c1bd ab42 6ebc f6a6 c4bc
000001e0: 7440 bdbd b497 19bd 122b 99bd 1f8f 83bc
000001f0: acf4 9a3b be6d 04bd 29d2 5abd 14b8 e7bd
00000200: d7c4 5b3c 4253 d2bb 9ee5 57bd e557 cfbd
00000210: 6c65 4bbd cc86 b9bd 84e7 403b 4686 61bd
00000220: e94d 81bd ba30 a0bd 9b80 653b 59a3 76bd
00000230: 40ff 2abd 5084 21bd 9b66 b4bd f6bb aebd
00000240: 17f5 7cbc c460 2ebd b3f5 433d cc49 073d
00000250: 18ee 1b3c 6c54 33bc bd9a f5bc 2622 84bd
00000260: 1b09 cebd 467d 05bd 606c 4cbd 68f8 8dbc
00000270: 5668 26bd 27a8 3ebd 1678 8cbd d622 63bd
00000280: df2c 823d 398c 623b 8672 3fbd e0f0 26bd
00000290: 6719 4fbc 2811 b7bd 2aa6 d6bc 53a9 a9bc
000002a0: 4168 8fbd 5aa1 5f3d 5d83 03bc 502b 50bd
000002b0: 442f a5bd 8a2d 93bd 2ada c1bd 7bb9 ecbb
000002c0: 1a83 673c bc38 d4bc f613 13be 7ade 8a3d
000002d0: 0f7b 64bd 38a4 b6bd 6ae2 8dbd ddba 9abd
000002e0: f704 28bc 1c82 8d3d 70b5 4a3d ea45 60bd
000002f0: 3270 18bc 0e11 9cbd 4394 18bc 01f2 bfbd
00000300: be0a cebb 55a7 a0bd 91fd 9abd 2b56 383c
00000310: ca9d 35bd 3240 8dbd 46bc 7ebc 86c2 98bd
00000320: db2f 20bd 81ef b9bd 98ef 45bd 3908 a3bd
00000330: 68ee 8b3d 4ddb a8bc 77b2 b33c 4796 4e3b
00000340: d6b9 52bb b93b 54bc bec1 25bd b6b6 913c
00000350: 6d1c 1dbd be46 5fbd 5b13 debc 52d9 bbbd
00000360: 0561 50bd 97ba 883a 91ea 7bbd 44b1 10bc
00000370: acea 3bbd 6f14 6fbd 81ce 90bd a042 debc
00000380: f5d5 b93b dc89 6ebd 58fa 28bd 1f91 6ebd
00000390: 7f2f a1bc 0991 b4bd 0098 48bd ddd4 8fbd
000003a0: e308 36bd 3f86 2abd f93e 61bd 2219 5ebd
000003b0: 851e 9fbd 4c71 4cbd 7c58 57bd 17f9 63bc
000003c0: 553c b1bd 50ae 703b be10 84bc 2ad0 92bd
000003d0: 0544 bf3c 7ca4 e4bb e5a3 fbbc cd0f 25bd
000003e0: 6891 b1bb 66b4 ccbc 8365 10bd 0006 31bc
000003f0: df69 58bd 1716 94bd ddc1 19bd 64dd 50bd

shared.3.weight f4 [256, 512]
0.037106257 -0.062169407 -0.18562996 -0.00014276207 0.020954994 0.048647176 -0.0024536357 -8.008907e-05
-1.8230394e-09 -0.24313658 1.2773745e-06 -0.05781294 -0.16783583 -0.00013047486 0.103405684 -0.27647582
-4.6418845e-06 0.12506977 0.07207721 3.9412906e-16 -8.006507e-12 0.110546604 0.03573961 -0.13315348
0.04142212 -0.010670752 0.02339738 0.0063257786 -8.547993e-05 0.07692792 -0.007549132 0.17009264
-0.059619892 -0.0627529 -0.066101156 0.035315108 -0.09168014 0.0014420619 -0.047449306 -0.028252127
0.07822909 -0.061694782 -6.416554e-08 0.017000904 0.042553753 -0.047066543 -0.100207925 0.2207744
-0.009202259 0.2506329 -0.03665763 -0.19015892 -0.066324554 -0.005351104 0.00936482 -5.4179274e-09
0.1260948 -0.16316321 1.7045743e-10 -0.013297062 -0.026696729 -0.007609662 0.22735521 -0.03557365
-0.14816426 -0.034377456 0.033192202 -0.120169654 -0.016534256 -0.34360328 0.10676034 -2.8842358e-08
-0.027954891 -3.439985e-05 -0.1417586 -0.12995788 -0.0046453034 0.057235487 -7.701751e-05 0.075055264
-0.022643754 -0.042276695 -8.538076e-16 -0.017372767 0.14908783 -0.002289241 -0.0048130113 -0.112862974
-0.006329524 2.0661516e-07 0.0042613596 -0.0029687344 0.16518885 -0.049345743 0.040836237 -0.06714811
0.16665809 0.18251431 0.06440462 0.022354057 -0.17986998 -0.033272102 -0.17599028 0.07065349
0.038745303 0.008957775 -0.02459754 -0.06768007 4.1589217e-05 -0.074750215 -0.053064536 0.022302805
-0.00046387405 -0.12586948 0.0045275097 -0.02185692 0.026697854 -0.0044701267 -7.313372e-08 0.13561273
-0.015304889 -0.07549397 -0.21105838 3.8500534e-06 0.028601691 -0.05516205 0.15499373 0.031072108
-0.19862694 -0.0072955796 -5.4083655e-05 -0.024548888 0.021409553 -0.004850612 -0.024125732 -0.01884873
-0.040752284 0.032819305 -0.041253902 -0.06303712 -8.32052e-05 -0.04220999 0.11489955 0.06453945
1.1209989e-12 -0.049759563 0.15256786 -0.06479068 0.023959434 -5.279442e-12 -0.0011831844 -0.002674195
0.006373362 -0.00034073455 0.023154419 0.020259663 -0.039090168 0.02189521 0.0514293 -0.10433657
-0.07161263 -0.15302299 -0.011505247 0.1444165 -6.193878e-06 -0.0042566606 0.11459531 0.095044486
-0.0517627 -0.08220782 -0.02545932 -0.02633067 -0.09128212 -0.0022492572 0.02735499 -0.07650718
0.03146428 0.085890986 -0.005412924 -0.03885952 -0.00021293505 0.020339001 -0.0041521606 -0.010569478
-5.054651e-10 -0.16342452 -0.12588459 0.00047191343 -0.11343016 -0.030884784 -0.2281702 -0.026134979
-0.13284713 -0.092610665 -0.024972184 0.018796438 -0.0003175133 0.0033039316 0.043970373 -0.05270986
-0.012483539 -0.16384956 -0.0008005286 -0.031031951 -0.00035000232 -3.7569308e-07 -0.008112674 -0.09880775
-8.7635855e-17 -2.8998709e-12 -0.061424 -0.14574106 0.115999535 -0.009788484 -0.024677936 0.007646199
0.07850516 -0.061019894 -0.0089749815 -4.7096594e-14 -3.2961892e-05 -0.008419571 0.004596379 0.00036358036
0.038020603 -0.0066683604 -0.0023289276 -0.0035724547 3.379387e-09 -0.1972304 -0.0079625575 0.0026120595
-3.8563273e-09 -0.045135923 -0.032742836 0.06650554 -0.005276064 -0.005034462 -0.15881985 1.6564153e-13
-0.14661494 -0.17666171 0.14201264 0.0034461052 -0.054383744 5.4668514e-10 -0.006215638 -0.067601256
-0.03532887 -2.0061286e-08 -2.3196974e-07 -1.3595663e-13 -0.018101742 -0.000103847546 -0.0005251765 -0.08369238
00000000: bbfc 173d 59a5 7ebd c815 3ebe 67b2 15b9
00000010: cfa9 ab3c 4342 473d 2dcd 20bb 7ef5 a7b8
00000020: 7f8e fab0 ccf8 78be 4172 ab35 43cd 6cbd
00000030: 28dd 2bbe 14d0 08b9 5cc6 d33d 3d8e 8dbe
00000040: 7cc1 9bb6 4a12 003e 379d 933d 2f33 e325
00000050: 1ada 0cad 4266 e23d b363 123d 6359 08be
00000060: 3eaa 293d 61d4 2ebc ddab bf3c 7a48 cf3b
00000070: b043 b3b8 638c 9d3d b65e f7bb c42c 2e3e
00000080: fd33 74bd 9884 80bd 0b60 87bd 93a6 103d
00000090: ccc2 bbbd 9103 bd3a 345a 42bd 0171 e7bc
000000a0: 9336 a03d abb3 7cbd 61cb 89b3 7b45 8b3c
000000b0: d84c 2e3d d9c8 40bd d039 cdbd af12 623e
000000c0: 12c5 16bc f552 803e 5026 16bd 05b9 42be
000000d0: 2bd5 87bd 5058 afbb e76e 193c 9828 bab1
000000e0: ff1e 013e 4214 27be 806b 3b2f ecdb 59bc
000000f0: 19b3 dabc 795a f9bb cecf 683e adb5 11bd
00000100: 5fb8 17be 60cf 0cbd 8cf4 073d 821b f6bd
00000110: d972 87bc c5ec afbe 2aa5 da3d 04c1 f7b2
00000120: a801 e5bc 8f48 10b8 2b29 11be ae13 05be
00000130: a137 98bb c26f 6a3d 7684 a1b8 93b6 993d
00000140: 657f b9bc 542a 2dbd e217 76a6 5551 8ebc
00000150: 7baa 183e 1707 16bb 77b6 9dbb b424 e7bd
00000160: e567 cfbb f1d9 5d34 e0a2 8b3b 198f 42bb
00000170: 4427 293e c31e 4abd e643 273d f384 89bd
00000180: 6ba8 2a3e 08e5 3a3e 92e6 833d db1f b73c
00000190: d62f 38be 5448 08bd cc36 34be c7b2 903d
000001a0: 65b3 1e3d a2c3 123c c880 c9bc d99b 8abd
000001b0: 1570 2e38 a416 99bd 335a 59bd 5fb4 b63c
000001c0: 1f34 f3b9 eee3 00be 815b 943b 490d b3bc
000001d0: 75b5 da3c 247a 92bb b00d 9db3 10de 0a3e
000001e0: 5bc1 7abc 959c 9abd b01f 58be b52f 8136
000001f0: 184e ea3c 9af1 61bd adb6 1e3e ef8a fe3c
00000200: dc64 4bbe c20f efbb e2d7 62b8 c01a c9bc
00000210: 1663 af3c e2f1 9ebb 54a3 c5bc a768 9abc
00000220: deeb 26bd 896d 063d daf9 28bd 9b19 81bd
00000230: 747e aeb8 62e4 2cbd 7550 eb3d 422d 843d
00000240: 3ec4 9d2b afd0 4bbd c03a 1c3e fab0 84bd
00000250: 9346 c43c fcc0 b9ac 1515 9bba 8c41 2fbb
00000260: a3d7 d03b 9ea4 b2b9 56ae bd3c 98f7 a53c
00000270: 031d 20bd 955d b33c 88a7 523d 69ae d5bd
00000280: a4a9 92bd 0fb2 1cbe 8180 3cbc ebe1 133e
00000290: 02d5 cfb6 757b 8bbb f2b0 ea3d afa6 c23d
000002a0: 2005 54bd 935c a8bd 1090 d0bc 6bb3 d7bc
000002b0: 1ff2 babd 4668 13bb 9217 e03c ccaf 9cbd
000002c0: b0e0 003d 9de7 af3d e65e b1bb 292b 1fbd
000002d0: 5147 5fb9 fa9d a63c d90e 88bb 9b2b 2dbc
000002e0: f2f0 0ab0 c258 27be e4e7 00be 266b f739
000002f0: 124e e8bd 1602 fdbc 73a5 69be 0619 d6bc
00000300: 1409 08be a9aa bdbd 7792 ccbc fdfa 993c
00000310: ea77 a6b9 c686 583b 471a 343d 4be6 57bd
00000320: c287 4cbc 2ec8 27be 91da 51ba b836 febc
00000330: 8480 b7b9 ddb2 c9b4 05eb 04bc b85b cabd
00000340: 1413 caa4 6e0f 4cac bb97 7bbd 253d 15be
00000350: 2a91 ed3d e15f 20bc 6229 cabc f78c fa3b
00000360: 50c7 a03d ffef 79bd cd0b 13bc ad1a 54a9
00000370: 9040 0ab8 3ef2 09bc 399d 963b ee9e be39
00000380: 7ebb 1b3d 4382 dabb eca0 18bb d81f 6abb
00000390: ce3a 6831 c4f6 49be 6375 02bc 162f 2b3b
000003a0: 9d80 84b1 72e0 38bd 5a1d 06bd 0e34 883d
000003b0: d5e2 acbb 21f8 a4bb aca1 22be ec7e 3a2a
000003c0: 3a22 16be cfe6 34be c36b 113e 0dd8 613b
000003d0: 7dc1 5ebd 8c45 1630 8dac cbbb 8772 8abd
000003e0: 01b5 10bd 3c53 acb2 5b13 79b4 d512 19aa
000003f0: 1b4a 94bc bac8 d9b8 00ac 09ba e966 abbd

shared.3.bias f4 [256]
-0.05773724 -0.021843793 0.006699046 0.014065291 -0.021356413 0.02031205 0.04778862 -0.020946266
0.019553564 0.02038812 0.020137006 -0.0027057747 0.015197951 0.020392762 -0.006698359 0.0052795312
0.017742699 0.021542476 -0.016574549 0.06590991 0.019575834 -0.020829197 -0.036907822 0.020491255
-0.0157094 0.11201812 0.020320114 0.020427095 -0.019351654 0.017139977 0.002064685 0.01998625
0.010348523 0.018219525 0.042034265 0.018470934 0.0025931299 -0.001992077 0.01821431 0.020492407
-0.036114343 -0.0016846857 0.020289075 -0.008680735 0.020424526 0.02083221 -0.007355866 -0.0019760185
0.008674932 0.05489044 0.019230025 0.020420318 0.019667022 0.0021792853 0.044002183 0.015908973
-0.013620916 0.016142601 0.055060014 0.012080276 0.01288717 -0.00062646973 0.009056962 -0.021407422
0.005455351 0.021103118 -0.012439829 0.0006348422 0.0029100522 0.010736563 0.018863924 0.046153475
0.0027985813 -0.02253946 0.020457085 0.020427711 -0.015651893 0.0045417417 0.020203497 0.03366049
-0.0014209885 0.018996269 0.046729397 0.017136669 -0.050581664 0.00012769859 0.020284113 0.018647563
0.027700188 0.030976448 0.020466652 -0.023803242 0.025603838 -0.002504151 0.020545244 0.020428374
0.0018396996 0.020711977 0.0045300517 0.01679917 0.018795077 -0.04875027 0.0200881 -0.035644434
0.012159076 0.03964167 0.059558533 -0.029043166 0.025942776 0.020446228 -0.024057109 0.024353167
0.00048839324 0.0018930855 0.021023517 -0.04941106 0.007599204 0.05484737 -0.09567772 0.07686263
0.0032026223 0.01770668 0.05229945 0.02021685 -0.0026508518 0.008699523 -0.04253295 0.020840356
-0.05552351 -0.084309965 0.02035143 0.0135573475 0.019654516 0.053422388 0.06584686 0.020725342
0.021096827 0.020860262 0.02167015 0.038267657 0.0071729184 0.018026788 0.021070743 0.018411424
0.039701533 0.0038163378 -0.030633241 -0.10343436 0.020388229 0.041259523 0.019460332 -0.040124573
-0.0047188415 0.019989524 0.0530533 0.05049395 -0.0071168556 -0.004913004 0.00032563158 0.018952625
-0.038264535 -0.031290058 -0.021482645 0.007024929 0.022654055 0.020718478 0.007861944 0.0069705173
-0.033081923 0.020857593 0.021404166 0.020146228 0.015778126 0.037099127 0.020369157 -0.0022173005
0.025604961 0.025106898 -0.021530619 0.018274272 -0.012259036 0.02419867 0.020037243 0.02057427
0.040451854 0.021491956 0.014558233 -0.107482485 0.020308703 -0.014589486 0.017319176 0.0039211363
-0.0026208407 0.01770606 0.012494795 0.016147861 0.013716692 0.018983515 0.013124468 0.0028731527
0.020731088 -0.00779905 -0.004400883 0.017965373 0.009371339 0.01903652 0.02047096 0.0047967695
0.009589858 -0.0050863223 0.020960456 0.010803918 -0.04703291 0.019346839 0.021893686 0.020662323
-0.029597552 -0.019978948 0.046971537 0.022771375 0.03996875 -0.017432414 -0.043496914 -0.07191112
0.0057395063 0.03878008 0.0040501035 -0.0011200145 -0.007023405 0.0693406 -0.0027364204 0.01982062
-0.018005772 0.02040588 0.020531567 0.020592125 0.011933578 0.02889999 -0.0017868986 -0.011185716
0.011734103 -0.020321796 0.014901078 -0.049390264 -0.01210025 0.022593815 0.012106603 -0.105450295
-0.029380329 0.046381157 0.016759893 0.020336183 0.005768583 0.019519232 0.0032143353 0.01971911
00000000: e27d 6cbd c1f1 b2bc ac83 db3b 1b72 663c
00000010: a5f3 aebc 7565 a63c 00be 433d 8197 abbc
00000020: cc2e a03c fd04 a73c 5df6 a43c 5e53 31bb
00000030: d400 793c b90e a73c e87d dbbb ebff ac3b
00000040: 2359 913c d979 b03c 59c7 87bc c6fb 863d
00000050: 805d a03c fea1 aabc a82c 17bd 47dd a73c
00000060: 00b1 80bc c269 e53d 5e76 a63c b956 a73c
00000070: 5c87 9ebc 2369 8c3c ab4f 073b 34ba a33c
00000080: da8c 293c 1d41 953c 1f2c 2c3d 5b50 973c
00000090: 80f1 293b 828d 02bb 2d36 953c b1df a73c
000000a0: a2ec 13bd acd0 dcba 4635 a63c a439 0ebc
000000b0: 5651 a73c 50a8 aa3c 7a09 f1bb 1780 01bb
000000c0: 4d21 0e3c ccd4 603d 4988 9d3c 8348 a73c
000000d0: bc1c a13c 57d2 0e3b a23b 343d 8953 823c
000000e0: 432a 5fbc 7d3d 843c 9c86 613d 5aec 453c
000000f0: b524 533c ac39 24ba a763 143c 9e5e afbc
00000100: cdc2 b23b 72e0 ac3c 6dd0 4bbc 8a6b 263a
00000110: 93b6 3e3b 69e8 2f3c 8488 9a3c 6d0b 3d3d
00000120: 6768 373b aca4 b8bc 9e95 a73c 0458 a73c
00000130: 6638 80bc e4d2 943b ce81 a53c 95df 093d
00000140: 7640 baba 109e 9b3c 5367 3f3d 3362 8c3c
00000150: b82e 4fbd d4e6 0539 de2a a63c c6c2 983c
00000160: 81eb e23c 52c2 fd3c aea9 a73c 04ff c2bc
00000170: 24bf d13c af1c 24bb 804e a83c 6859 a73c
00000180: 1322 f13a 2aac a93c d470 943b 6a9e 893c
00000190: 22f8 993c 5dae 47bd cd8f a43c e6ff 11bd
000001a0: dc36 473c 4e5f 223d a6f3 733d efeb edbc
000001b0: f285 d43c d97e a73c 6a13 c5bc 4b80 c73c
000001c0: 8407 003a 6921 f83a 8339 ac3c 4063 4abd
000001d0: be02 f93b a3a7 603d aef2 c3bd 286a 9d3d
000001e0: 16e3 513b 990d 913c f337 563d cf9d a53c
000001f0: eab9 2dbb 7288 0e3c 0837 2ebd 65b9 aa3c
00000200: 9f6c 63bd b4aa acbd 0bb8 a63c a31f 5e3c
00000210: 8202 a13c 6fd1 5a3d b8da 863d 31c8 a93c
00000220: 41d3 ac3c 24e3 aa3c 9985 b13c 8cbe 1c3d
00000230: cd0a eb3b eaac 933c 8d9c ac3c 8ed3 963c
00000240: 139e 223d 861b 7a3b 90f2 fabc 65d5 d3bd
00000250: 3705 a73c bfff 283d 466b 9f3c aa59 24bd
00000260: 83a0 9abb 12c1 a33c 6b4e 593d bed2 4e3d
00000270: 8334 e9bb 44fd a0bb 88b9 aa39 8942 9b3c
00000280: 46bb 1cbd 012a 00bd 5ffc afbc 6031 e63b
00000290: ff94 b93c ccb9 a93c 62cf 003c f068 e43b
000002a0: e980 07bd 8bdd aa3c ca57 af3c b409 a53c
000002b0: 2141 813c 41f5 173d 38dd a63c 2150 11bb
000002c0: 7fc1 d13c fbac cd3c fb60 b0bc edb3 953c
000002d0: 20da 48bc 4a3c c63c 2525 a43c 5f8b a83c
000002e0: d8b0 253d e60f b03c a885 6e3c c71f dcbd
000002f0: 705e a63c bd08 6fbc f2e0 8d3c e07c 803b
00000300: 69c2 2bbb 4d0c 913c f8b6 4c3c 8548 843c
00000310: fabb 603c 5183 9b3c 0208 573c 814b 3c3b
00000320: 3ed4 a93c 2c8f ffbb 4835 90bb 1e2c 933c
00000330: 3f8a 193c 7af2 9b3c b7b2 a73c 382e 9d3b
00000340: c81e 1d3c 2aab a6bb 43b5 ab3c eb02 313c
00000350: 95a5 40bd 437d 9e3c 635a b33c 0844 a93c
00000360: 9176 f2bc e4aa a3bc 3a65 403d 098b ba3c
00000370: 46b6 233d 6cce 8ebc d229 32bd 2346 93bd
00000380: 7812 bc3b dcd7 1e3d bbb6 843b 73cd 92ba
00000390: 9724 e6bb 7202 8e3d 8455 33bb da5e a23c
000003a0: d780 93bc 3b2a a73c d131 a83c d1b0 a83c
000003b0: 0e85 433c acbf ec3c 5e36 eaba 4b44 37bc
000003c0: 6540 403c e579 a6bc a723 743c 724d 4abd
000003d0: 2140 46bc aa16 b93c c65a 463c 53f6 d7bd
000003e0: 04af f0bc 2bfa 3d3d 0b4c 893c 1198 a63c
000003f0: 6206 bd3b cce6 9f3c 99a7 523b f989 a13c

shared.4.weight f4 [256]
1.0087398 0.6625633 0.64523965 0.07404673 0.6440441 0.0046078167 0.6967266 0.986427
0.05933563 0.014967739 0.0006392113 0.5078836 0.02638638 0.0014497638 0.7718602 0.42813966
0.009967723 0.39027852 0.8608774 0.87072015 0.032523 0.5291517 0.5201428 0.00015263987
0.5645403 1.0748917 3.8081926e-05 0.000120424964 0.4005244 0.09102754 0.33029428 0.4678972
0.15413493 0.9786647 0.8850477 0.52902114 0.4392437 1.1057731 5.9356053e-06 0.014217037
0.4623968 0.7482612 0.23272207 0.2863923 0.00013969743 0.0022782164 0.79934794 0.7374269
0.19935156 0.6700438 0.030065266 0.030206334 0.05481765 0.03366422 1.017392 0.010692759
0.72889084 0.17494558 0.7035856 0.04833355 0.6355733 0.9255871 0.7433252 0.62751013
0.463525 0.07808289 0.8304706 0.2344351 0.5468476 0.20200187 0.06647472 0.79067874
0.505724 0.7995723 0.033094414 0.008131625 0.51652634 0.3728733 2.5928692e-05 0.49563813
0.14931893 0.00014042751 0.76271176 0.0015242847 0.8608954 0.25771326 0.00015271474 0.1507233
0.1635199 0.67697525 0.0070538204 0.6012304 0.11923977 0.63860875 0.0036308817 0.04244445
0.16715139 0.0002942372 0.41720176 0.0009419218 8.563373e-06 0.83737785 0.0007113616 0.34655023
0.5101998 0.5621509 0.6540518 0.68938917 0.88322073 1.0992614e-05 0.69583523 0.17847706
0.3588004 0.7494778 2.3116183e-05 0.69704205 0.46929383 0.62137437 0.70472354 0.7734314
0.42822045 0.0003404162 0.73152417 0.046471808 0.2348387 0.4152018 0.61268914 0.14418554
0.725833 1.1949757 0.0008682778 0.18323243 0.22543545 0.78890413 0.97819364 9.877749e-05
0.00842996 0.110399954 0.45014623 0.38675207 0.8846019 0.11147552 0.9129495 0.0019660671
0.75270444 0.4878006 0.7847044 0.92379373 0.0017766006 0.5530498 0.0797958 0.5404899
0.64962 0.00040530338 1.1721985 0.77197367 1.0922328 0.9537131 0.6722367 0.0006591702
0.38303792 0.7821978 0.5952464 0.35423732 0.13684492 7.474068e-05 0.025505314 0.21986637
0.6615119 0.36083156 0.03362402 0.038881112 0.51771927 0.91437495 0.0019693433 0.57042253
0.7775446 0.6548726 0.77026355 0.69798666 0.40487048 0.75401384 0.065787636 0.0006680549
0.68080497 0.14317334 0.88264585 0.7665808 6.38383e-05 0.8522449 0.23590003 0.7109394
0.70818734 0.7404813 0.0517243 0.0007493573 0.0866708 0.026454845 0.8345372 1.0895274
0.29011324 0.49018607 0.6047057 0.01646478 0.33528468 0.0017818642 0.0055701947 0.45869645
0.8453371 0.43035236 0.00047280526 0.3965224 0.51008195 0.033831112 0.54238313 5.8790843e-06
0.6079756 0.6666742 0.58585423 0.25438598 0.60342026 0.653484 1.3564644 1.3033804
0.56910324 0.8946844 0.7766499 0.2912883 0.5588349 0.9788027 0.7230739 0.00011910032
0.850801 0.0035582497 0.000727544 0.6859007 0.21781795 0.974843 0.8823535 0.56795996
0.69487256 0.68274605 0.6848194 0.7728919 0.62987196 0.13431661 0.12773223 0.6384498
0.7119621 0.78399634 0.18886407 0.13350634 0.8208524 0.0007187839 0.7513617 0.08838379
00000000: 631e 813f c09d 293f 6d2e 253f d0a5 973d
00000010: 13e0 243f 2bfd 963b ad5c 323f 7b86 7c3f
00000020: eb09 733d 3f3b 753c bf90 273a a904 023f
00000030: 4028 d83c 0006 be3a a198 453f 1f35 db3e
00000040: a94f 233c 96d2 c73e 7662 5c3f 84e7 5e3f
00000050: d636 053d 7c76 073f 1428 053f f40d 2039
00000060: b785 103f 0d96 893f 28ba 1f38 a98c fc38
00000070: 8911 cd3e a66c ba3d 551c a93e 3990 ef3e
00000080: 8cd5 1d3e c589 7a3f 7c92 623f ee6d 073f
00000090: 8de4 e03e f989 8d3f 762a c736 93ee 683c
000000a0: 46bf ec3e 0c8e 3f3f b24e 6e3e 03a2 923e
000000b0: be7b 1239 214e 153b 11a2 4c3f 02c8 3c3f
000000c0: d122 4c3e fe87 2b3f 6f4b f63c 4673 f73c
000000d0: 7988 603d 7ee3 093d e739 823f af30 2f3c
000000e0: 9798 3a3f ef24 333e 301e 343f 67f9 453d
000000f0: efb4 223f 47f3 6c3f 8f4a 3e3f 81a4 203f
00000100: 2653 ed3e ece9 9f3d b999 543f c10f 703e
00000110: 34fe 0b3f 94d9 4e3e e623 883d ec69 4a3f
00000120: 2177 013f c5b0 4c3f 028e 073d 823a 053c
00000130: 123b 043f 40e9 be3e 7181 d937 48c4 fd3e
00000140: 10e7 183e b93f 1339 1441 433f 82ca c73a
00000150: a463 5c3f fef2 833e 0d22 2039 3557 1a3e
00000160: c371 273e 404e 2d3f bc23 e73b 3cea 193f
00000170: fb33 f43d dd7b 233f 16f4 6d3b 3bda 2d3d
00000180: bc29 2b3e d943 9a39 789b d53e 4deb 763a
00000190: 68ab 0f37 655e 563f ab7a 3a3a 086f b13e
000001a0: 749c 023f 1fe9 0f3f f06f 273f cf7b 303f
000001b0: c11a 623f eb6c 3837 4222 323f b1c2 363e
000001c0: b0b4 b73e c7dd 3f3f a0e9 c137 5971 323f
000001d0: 4847 f03e 6412 1f3f c368 343f 9aff 453f
000001e0: b63f db3e e479 b239 2b45 3b3f 3959 3e3d
000001f0: 8e79 703e 5595 d43e 32d9 1c3f 60a5 133e
00000200: 31d0 393f f7f4 983f 239d 633a 48a1 3b3e
00000210: 8dd8 663e 9ff5 493f e66a 7a3f c326 cf38
00000220: d11d 0a3c 5f19 e23d 9179 e63e 5e04 c63e
00000230: 4575 623f 474d e43d 0fb7 693f 22d9 003b
00000240: 3db1 403f 00c1 f93e 63e2 483f bf7d 6c3f
00000250: d3dc e83a ac94 0d3f fb6b a33d 8c5d 0a3f
00000260: 7f4d 263f e67e d439 9a0a 963f 11a0 453f
00000270: 49ce 8b3f 8b26 743f b417 2c3f 2acc 2c3a
00000280: 8c1d c43e 1d3e 483f 1162 183f 985e b53e
00000290: 1321 0c3e 19be 9c38 85f0 d03c a624 613e
000002a0: d858 293f eabe b83e 57b9 093d cd41 1f3d
000002b0: 4089 043f 7a14 6a3f 1910 013b 3607 123f
000002c0: 2a0d 473f bba5 273f fe2f 453f 41af 323f
000002d0: 2f4b cf3e 0d07 413f abbb 863d 6820 2f3a
000002e0: 3c49 2e3f 089c 123e 14f5 613f a43e 443f
000002f0: ede0 8538 b92c 5a3f c78f 713e 2000 363f
00000300: c44b 353f 2f90 3d3f dcdc 533d 8470 443a
00000310: 7680 b13d d5b7 d83c 3ba4 553f a275 8b3f
00000320: b989 943e abf9 fa3e fecd 1a3f 25e1 863c
00000330: 6faa ab3e 718d e93a 2e86 b63b 43da ea3e
00000340: 0368 583f 2557 dc3e d9e2 f739 fc04 cb3e
00000350: bb94 023f 7e92 0a3d 9fd9 0a3f f344 c536
00000360: 4aa4 1b3f 29ab 2a3f 8bfa 153f e13e 823e
00000370: c079 1a3f ba4a 273f a0a0 ad3f 2bd5 a63f
00000380: c0b0 113f 090a 653f 87d2 463f bd23 953e
00000390: ce0f 0f3f d092 7a3f 5f1b 393f 7fc5 f938
000003a0: 18ce 593f 8631 693b a7b8 3e3a 3097 2f3f
000003b0: ab0b 5f3e 508f 793f ebe1 613f d365 113f
000003c0: 2be3 313f 72c8 2e3f 5350 2f3f 3edc 453f
000003d0: 4a3f 213f 4b8a 093e 3dcc 023e 7271 233f
000003e0: 2643 363f fcb3 483f 9565 413e e3b5 083e
000003f0: 6223 523f c56c 3c3a 3e59 403f 8f02 b53d
