checkpoints/yahtzee_pretrain_faster/checkpoint_ep9999.pt (torch, 977429 bytes, 25 tensors)

shared.0.weight f4 [512, 23]
00000000: 0fdf 3536 f685 a936 aa76 4536 55df a736
00000010: 7af9 b036 1c12 0800 df51 4230 30e3 cd2f
00000020: 866d d2b0 28cc bfb1 d924 ee30 bb78 bfb0
00000030: 8ebe 9ab5 f7a4 1435 e08c 2732 56de b637
00000040: 5ce1 eb37 edb2 9130 4cf5 b430 d0b3 b2af
00000050: 1888 b6ae 0378 fa2d 0b49 92af 82db 3536
00000060: 9389 a936 e274 4536 a1e1 a736 12fb b036
00000070: 3849 4a2e ca85 4230 6e23 cf2f e86c d2b0
00000080: 0acd bfb1 320f ee30 14b8 bfb0 aa79 9ab5
00000090: d09d 1435 5d79 2732 52dd b637 dde1 eb37
000000a0: 60ab 9130 6831 b430 e8c0 4b36 f685 b6ae
000000b0: 5e3a b02e 5973 bfac 7f8f 3436 d4fd a936
000000c0: 03fc 4436 f736 a836 c439 b136 5117 f3b9
000000d0: 4c35 73af 2827 8230 29f5 d0b0 aa84 bcb1
000000e0: 01de c530 ad69 c8b0 76ea 8bb5 cf94 1435
000000f0: d9fb f831 9cd1 b537 73b4 ed37 6b79 c930
00000100: 20f5 002e a76c bab2 2081 b2ae 69ed 03ac
00000110: d407 7cba e0db 3536 9489 a936 0675 4536
00000120: 1ce1 a736 dbfa b036 650f 1830 9f97 4230
00000130: 118f cf2f 5f6c d2b0 b9cd bfb1 aa08 ee30
00000140: 60a9 bfb0 9286 9ab5 a09f 1435 5d73 2732
00000150: 28dd b637 ede1 eb37 749b 9130 3134 b430
00000160: 6198 b1b4 3883 b6ae a775 4eb9 f04c 43b2
00000170: 4edc 3536 0089 a936 4275 4536 07e1 a736
00000180: b4fa b036 f08f 9833 4479 4230 add1 ce2f
00000190: ad6c d2b0 cecc bfb1 1014 ee30 fba9 bfb0
000001a0: 4789 9ab5 679f 1435 ec7f 2732 a1dd b637
000001b0: bbe1 eb37 479b 9130 995f b430 5026 7db2
000001c0: 0786 b6ae cf88 0080 6e17 232a 111c 28b4
000001d0: e03d b334 e2e8 0136 52cb 9eb4 d100 8ab4
000001e0: cf9d f731 f9f0 7db0 a6ac 8430 3e45 e0b0
000001f0: 347e 8fb1 bee7 082f 9ac0 02b0 442f 83b6
00000200: fbc3 99b6 f60c 6931 9284 883c 6768 fa3b
00000210: c899 3a31 5053 b931 4eb5 013a eb49 2aae
00000220: db6b 6138 4d92 0080 1adc 3536 4689 a936
00000230: 2875 4536 16e1 a736 c5fa b036 8577 2bac
00000240: 4d85 4230 b71d cf2f 836c d2b0 2ccd bfb1
00000250: 8b0f ee30 89aa bfb0 7f87 9ab5 649f 1435
00000260: e57a 2732 6fdd b637 d2e1 eb37 e49a 9130
00000270: 3a4d b430 4443 3cb8 dd84 b6ae 0620 b3b1
00000280: 06f3 dcac 41dc 3536 1789 a936 3b75 4536
00000290: 0de1 a736 b8fa b036 7567 b02f d17c 4230
000002a0: 7ae7 ce2f 986c d2b0 eacc bfb1 b112 ee30
000002b0: 3caa bfb0 a888 9ab5 619f 1435 4e7e 2732
000002c0: 93dd b637 bce1 eb37 e49a 9130 405a b430
000002d0: d9b5 b9b3 aa85 b6ae 5ce7 0180 4ef2 ba38
000002e0: a9d6 3536 9ca4 a936 846e 4536 b1b6 a736
000002f0: 83f0 b036 1989 0000 8a70 3930 96c0 2b30
00000300: ef3f d2b0 93fa bfb1 5790 e430 9ba8 b8b0
00000310: f3c4 9fb5 6a1e 1535 5ae5 1b32 7682 b637
00000320: e01d ec37 c239 aa30 a0e7 9b30 7cec 15b2
00000330: 4ac2 b4ae c690 0000 3a38 fdb4 74dc 3536
00000340: 9f88 a936 5a75 4536 11e1 a736 a6fa b036
00000350: 676f 5f33 ce6a 4230 747a ce2f 4b6d d2b0
00000360: 3ecc bfb1 d619 ee30 24ab bfb0 9289 9ab5
00000370: 2b9f 1435 9384 2732 cbdd b637 a6e1 eb37
00000380: 1aac 9130 ae71 b430 5e91 d737 3f88 b6ae
00000390: 3e88 0dab 9a3b a7ac 59e1 3536 178f a936
000003a0: 9c75 4536 10cf a736 b3f5 b036 f496 e234
000003b0: 5ac5 4630 f86c fe2f 755a d2b0 c800 c0b1
000003c0: 821e eb30 34b0 bcb0 8cc5 9cb5 32f1 1435
000003d0: 1202 2432 50c0 b637 3eef eb37 604b 9530
000003e0: 5644 ae30 b881 81b3 3cce b5ae 9875 e137
000003f0: b643 5b30 d2db 3536 b989 a936 fc74 4536
2.710094e-06 5.0521876e-06 2.942436e-06 5.002987e-06 5.2742516e-06 7.4118e-40 7.0693135e-10 3.745071e-10
-1.5310639e-09 -5.5820415e-09 1.7327252e-09 -1.3931393e-09 -1.1529353e-06 5.537435e-07 9.752711e-09 2.1799624e-05
2.8119124e-05 1.0600992e-09 1.3166441e-09 -3.2505776e-10 -8.300577e-11 2.8475005e-11 -2.6609145e-10 2.7098872e-06
5.0526082e-06 2.9423322e-06 5.0032545e-06 5.274437e-06 4.5994514e-11 7.0766915e-10 3.7678255e-10 -1.5310464e-09
-5.582142e-09 1.7321098e-09 -1.3949397e-09 -1.1509303e-06 5.5363944e-07 9.748274e-09 2.1799151e-05 2.8119359e-05
1.0598846e-09 1.3110766e-09 3.0361643e-06 -8.300198e-11 8.0139215e-11 -5.4413527e-12 2.6905616e-06 5.066142e-06
2.9352966e-06 5.013189e-06 5.281736e-06 -0.00046365944 -2.2119656e-10 9.469874e-10 -1.520367e-09 -5.4866023e-09
1.4396734e-09 -1.458195e-09 -1.0424544e-06 5.535084e-07 7.2463817e-09 2.1674488e-05 2.833663e-05 1.4659184e-09
2.9321545e-11 -2.170266e-08 -8.11744e-11 -1.8748009e-12 -0.00096142036 2.7099086e-06 5.0526087e-06 2.9423404e-06
5.003194e-06 5.274412e-06 5.5319155e-10 7.0792255e-10 3.7754735e-10 -1.5310312e-09 -5.5822196e-09 1.7319242e-09
-1.3945218e-09 -1.1513059e-06 5.536658e-07 9.74691e-09 2.1799075e-05 2.8119388e-05 1.0594321e-09 1.3111557e-09
-3.307969e-07 -8.299711e-11 -0.0001968952 -1.1367987e-08 2.7099336e-06 5.0525414e-06 2.942354e-06 5.0031845e-06
5.2743944e-06 7.104234e-08 7.074912e-10 3.7620165e-10 -1.5310399e-09 -5.582115e-09 1.7322481e-09 -1.394539e-09
-1.1513847e-06 5.536626e-07 9.749765e-09 2.1799295e-05 2.8119297e-05 1.0594271e-09 1.3123894e-09 -1.47352495e-08
-8.30021e-11 -4.9078e-41 1.4485437e-13 -1.565643e-07 3.3386368e-07 1.9358054e-06 -2.9577728e-07 -2.5705097e-07
7.206587e-09 -9.2383307e-10 9.653334e-10 -1.6317825e-09 -4.1761954e-09 1.245146e-10 -4.756743e-10 -3.9096067e-06
-4.5825705e-06 3.391333e-09 0.016664777 0.0076418403 2.7153977e-09 5.39368e-09 0.0004947976 -3.8719177e-11
5.374463e-05 -5.2483e-41 2.7099218e-06 5.052573e-06 2.9423481e-06 5.0031913e-06 5.274402e-06 -2.4366908e-12
7.076622e-10 3.7674194e-10 -1.5310352e-09 -5.582157e-09 1.7321197e-09 -1.3945548e-09 -1.1513329e-06 5.536624e-07
9.748622e-09 2.1799204e-05 2.8119339e-05 1.0594161e-09 1.3118673e-09 -4.488534e-05 -8.300003e-11 -5.2132263e-09
-6.279757e-12 2.7099306e-06 5.052552e-06 2.9423525e-06 5.003187e-06 5.2743962e-06 3.2087724e-10 7.0754164e-10
3.7635656e-10 -1.5310375e-09 -5.5821276e-09 1.7322092e-09 -1.3945463e-09 -1.1513666e-06 5.5366223e-07 9.749398e-09
2.179927e-05 2.8119299e-05 1.0594161e-09 1.3122374e-09 -8.647812e-08 -8.300145e-11 -1.74832e-40 8.914304e-05
2.709605e-06 5.0557555e-06 2.9419616e-06 4.998256e-06 5.273208e-06 4.9181e-41 6.7462536e-10 6.248312e-10
-1.5297682e-09 -5.5873186e-09 1.6630207e-09 -1.3435683e-09 -1.1903743e-06 5.5551084e-07 9.074336e-09 2.1756841e-05
2.8147304e-05 1.2385544e-09 1.1343566e-09 -8.726712e-09 -8.219965e-11 5.1935e-41 -4.7165832e-07 2.7099422e-06
5.0524973e-06 2.9423595e-06 5.003189e-06 5.274388e-06 5.2022553e-08 7.072857e-10 3.755819e-10 -1.5310574e-09
-5.5820513e-09 1.7324122e-09 -1.394572e-09 -1.1513932e-06 5.5365916e-07 9.750823e-09 2.1799371e-05 2.8119259e-05
1.0599053e-09 1.3129033e-09 2.569769e-05 -8.300604e-11 -5.0282337e-13 -4.7530426e-12 2.7102271e-06 5.0532503e-06
2.9423745e-06 5.001093e-06 5.273812e-06 4.2205613e-07 7.2312434e-10 4.6279758e-10 -1.530522e-09 -5.5880243e-09
1.7107171e-09 -1.372888e-09 -1.16804e-06 5.548528e-07 9.546527e-09 2.1785643e-05 2.8125589e-05 1.08626e-09
1.2679588e-09 -6.030626e-08 -8.2675616e-11 2.6876849e-05 7.976796e-10 2.7099054e-06 5.0526255e-06 2.9423381e-06

shared.0.bias f4 [512]
00000000: b912 2b35 6012 2b35 09f8 2a35 6712 2b35
00000010: 7312 2b35 8c7a c234 6d12 2b35 7012 2b35
00000020: 160f 2b35 7912 2b35 d711 2b35 6412 2b35
00000030: 4013 2b35 66d4 b835 d611 2b35 7912 2b35
00000040: 9749 e135 6812 2b35 965b 8235 7012 2b35
00000050: 9412 2b35 4812 2b35 7012 2b35 7712 2b35
00000060: 960e 2b35 7712 2b35 7612 2b35 7812 2b35
00000070: 87a5 3835 5e0d 2b35 7412 2b35 0812 2b35
00000080: 7912 2b35 6c12 2b35 a712 2b35 8e12 2b35
00000090: 6312 2b35 b80b 2c35 5212 2b35 6f12 2b35
000000a0: 1e11 2b35 e1ec 2a35 0a88 2935 023d 6535
000000b0: 5a12 2b35 ba12 2b35 7a12 2b35 7412 2b35
000000c0: b42f 61b5 f011 2b35 7212 2b35 9912 2b35
000000d0: 6812 2b35 6e12 2b35 5b12 2b35 6a12 2b35
000000e0: be12 2b35 8f12 2b35 7712 2b35 6612 2b35
000000f0: 8912 2b35 6d12 2b35 6c12 2b35 7012 2b35
00000100: d1a8 b935 7112 2b35 6b0a 2b35 7412 2b35
00000110: 74f9 2a35 b14e 5335 ce01 2b35 171b 2b35
00000120: 7712 2b35 6e12 2b35 711a 2b35 7112 2b35
00000130: 6e12 2b35 7728 2935 9412 2b35 7e12 2b35
00000140: 10cd 4235 b40e 2b35 6a12 2b35 7a12 2b35
00000150: 679d b335 a212 2b35 b212 2b35 6e12 2b35
00000160: e814 2b35 4e12 2b35 415f 2a35 0a12 2b35
00000170: 7312 2b35 7912 2b35 7312 2b35 9d12 2b35
00000180: 7612 2b35 3c13 2b35 8212 2b35 7012 2b35
00000190: 4812 2b35 fd0f 2b35 406f 5c35 4e12 2b35
000001a0: 9b12 2b35 8799 3035 7012 2b35 e617 2b35
000001b0: 8212 2b35 4412 2b35 6b0d 2b35 7f16 2b35
000001c0: 8012 2b35 4b51 c33c 0a0f 2b35 6012 2b35
000001d0: 7012 2b35 1e11 2b35 b8cb 2a35 a965 2a35
000001e0: bc12 2b35 6e12 2b35 7212 2b35 4312 2b35
000001f0: 1b12 2b35 8c12 2b35 6f12 2b35 ceda 2a35
00000200: b312 2b35 11fb 2a35 d8ab 2a35 3012 2b35
00000210: 8b88 ff3a 8912 2b35 2712 2b35 7012 2b35
00000220: 98ec 2a35 7812 2b35 0612 2b35 6612 2b35
00000230: ebac 5f35 6e12 2b35 7b12 2b35 8b92 5235
00000240: 8faf 2a35 7612 2b35 2312 2b35 6d12 2b35
00000250: 10ac 2a35 6c12 2b35 d5af 2a35 b39c 2d35
00000260: 7712 2b35 0fa4 6b35 5494 2a35 1ff3 2a35
00000270: 7312 2b35 6918 2b35 7512 2b35 6f12 2b35
00000280: 9a12 2b35 10ef 8b35 d2ab 2a35 6712 2b35
00000290: 5619 2b35 8411 2b35 6a0f 2b35 8c12 2b35
000002a0: bfaf 2a35 b612 2b35 1866 9a35 5411 2b35
000002b0: 7612 2b35 7212 2b35 8312 2b35 7712 2b35
000002c0: 6912 2b35 6a12 2b35 fef3 2a35 7012 2b35
000002d0: 7412 2b35 d811 2b35 ee11 2b35 be11 2b35
000002e0: 160f 2b35 9112 2b35 8812 2b35 2912 2b35
000002f0: f871 2835 7112 2b35 0312 2b35 6412 2b35
00000300: 5412 2b35 7506 2b35 2412 2b35 7012 2b35
00000310: 6c12 2b35 b4fa 2a35 7912 2b35 6812 2b35
00000320: 6c12 2b35 7312 2b35 04a2 9035 7012 2b35
00000330: 7612 2b35 f811 2b35 c9d8 2a35 feab 2a35
00000340: a912 2b35 6c12 2b35 7612 2b35 6c12 2b35
00000350: 6812 2b35 8d12 2b35 6c12 2b35 8f12 2b35
00000360: 5612 2b35 7012 2b35 7412 2b35 7012 2b35
00000370: a812 2b35 3c14 2b35 d80c 2b35 6312 2b35
00000380: 6912 2b35 7012 2b35 e0a2 2a35 7012 2b35
00000390: 7012 2b35 9a3f 9535 f511 2b35 7012 2b35
000003a0: 1906 2a35 8312 2b35 5612 2b35 42ee 2a35
000003b0: 6612 2b35 a00d 2b35 7a12 2b35 7312 2b35
000003c0: 6812 2b35 1011 2b35 3812 2b35 0610 2b35
000003d0: f40b 933a 4412 2b35 5712 2b35 6c12 2b35
000003e0: ccb3 2a35 7112 2b35 6712 2b35 effa 2a35
000003f0: ba12 2b35 11c0 2a35 39af 2a35 7212 2b35
6.372971e-07 6.3729203e-07 6.3690874e-07 6.3729243e-07 6.372931e-07 3.622448e-07 6.3729277e-07 6.3729294e-07
6.3724417e-07 6.3729345e-07 6.3728424e-07 6.3729226e-07 6.3730477e-07 1.3770884e-06 6.372842e-07 6.3729345e-07
1.6785224e-06 6.372925e-07 9.71241e-07 6.3729294e-07 6.37295e-07 6.3729067e-07 6.3729294e-07 6.3729334e-07
6.372369e-07 6.3729334e-07 6.372933e-07 6.372934e-07 6.8786215e-07 6.3721916e-07 6.3729317e-07 6.3728703e-07
6.3729345e-07 6.372927e-07 6.3729607e-07 6.3729465e-07 6.372922e-07 6.4092046e-07 6.3729124e-07 6.372929e-07
6.3727373e-07 6.367464e-07 6.315537e-07 8.5397926e-07 6.372917e-07 6.3729715e-07 6.372935e-07 6.3729317e-07
-8.388845e-07 6.3728567e-07 6.3729306e-07 6.372953e-07 6.372925e-07 6.372928e-07 6.3729175e-07 6.372926e-07
6.372974e-07 6.372947e-07 6.3729334e-07 6.372924e-07 6.3729436e-07 6.3729277e-07 6.372927e-07 6.3729294e-07
1.3832706e-06 6.37293e-07 6.3717624e-07 6.3729317e-07 6.3692937e-07 7.8718136e-07 6.370509e-07 6.3741885e-07
6.3729334e-07 6.372928e-07 6.374094e-07 6.37293e-07 6.372928e-07 6.301629e-07 6.37295e-07 6.3729374e-07
7.2569037e-07 6.372386e-07 6.372926e-07 6.372935e-07 1.3382349e-06 6.372958e-07 6.372967e-07 6.372928e-07
6.3732887e-07 6.37291e-07 6.346855e-07 6.3728714e-07 6.372931e-07 6.3729345e-07 6.372931e-07 6.372955e-07
6.372933e-07 6.3730454e-07 6.3729397e-07 6.3729294e-07 6.3729067e-07 6.372573e-07 8.2118277e-07 6.37291e-07
6.372954e-07 6.578852e-07 6.3729294e-07 6.373724e-07 6.3729397e-07 6.3729044e-07 6.372199e-07 6.37352e-07
6.3729385e-07 0.023842474 6.372435e-07 6.3729203e-07 6.3729294e-07 6.3727373e-07 6.3626385e-07 6.347787e-07
6.3729726e-07 6.372928e-07 6.3729306e-07 6.372904e-07 6.372881e-07 6.3729453e-07 6.372929e-07 6.364834e-07
6.3729675e-07 6.3695285e-07 6.358e-07 6.372893e-07 0.0019495649 6.3729436e-07 6.372888e-07 6.3729294e-07
6.3674224e-07 6.372934e-07 6.372869e-07 6.372924e-07 8.33256e-07 6.372928e-07 6.3729357e-07 7.8444344e-07
6.3585406e-07 6.372933e-07 6.3728857e-07 6.3729277e-07 6.358032e-07 6.372927e-07 6.3585804e-07 6.467555e-07
6.3729334e-07 8.778306e-07 6.354578e-07 6.368372e-07 6.372931e-07 6.3737986e-07 6.372932e-07 6.372929e-07
6.3729533e-07 1.0425883e-06 6.3579967e-07 6.3729243e-07 6.373933e-07 6.372795e-07 6.3724895e-07 6.3729453e-07
6.358568e-07 6.372969e-07 1.1503607e-06 6.372768e-07 6.372933e-07 6.3729306e-07 6.37294e-07 6.3729334e-07
6.3729254e-07 6.372926e-07 6.368499e-07 6.3729294e-07 6.3729317e-07 6.372843e-07 6.3728555e-07 6.372828e-07
6.3724417e-07 6.372948e-07 6.372943e-07 6.372889e-07 6.2750723e-07 6.37293e-07 6.3728675e-07 6.3729226e-07
6.3729135e-07 6.371186e-07 6.372886e-07 6.3729294e-07 6.372927e-07 6.3694756e-07 6.3729345e-07 6.372925e-07
6.372927e-07 6.372931e-07 1.0775989e-06 6.3729294e-07 6.372933e-07 6.372861e-07 6.36454e-07 6.3580217e-07
6.372962e-07 6.372927e-07 6.372933e-07 6.372927e-07 6.372925e-07 6.372946e-07 6.372927e-07 6.372947e-07
6.3729146e-07 6.3729294e-07 6.3729317e-07 6.3729294e-07 6.372961e-07 6.373191e-07 6.3721154e-07 6.372922e-07
6.3729254e-07 6.3729294e-07 6.356695e-07 6.3729294e-07 6.3729294e-07 1.1119876e-06 6.3728595e-07 6.3729294e-07
6.333881e-07 6.37294e-07 6.3729146e-07 6.3676646e-07 6.372924e-07 6.372229e-07 6.372935e-07 6.372931e-07
6.372925e-07 6.3727293e-07 6.3728976e-07 6.372578e-07 0.0011218772 6.3729044e-07 6.372915e-07 6.372927e-07
6.3591574e-07 6.37293e-07 6.3729243e-07 6.369509e-07 6.3729715e-07 6.360943e-07 6.358492e-07 6.3729306e-07

shared.1.weight f4 [512]
00000000: 1b56 0280 978e 0180 613b 0100 8403 0000
00000010: b013 0080 a99b 0bb6 2dc0 0100 5c64 0100
00000020: a270 0100 d60d 0080 7a29 0400 764f 0580
00000030: 4d9b 0000 1405 31ba e71f 0580 0f24 0000
00000040: 823a 9d87 5b90 0280 f9ab 17b3 f629 0080
00000050: 4406 0000 892b 0300 7e26 0480 df26 0000
00000060: b06f 0080 6d02 0180 ca24 0000 0116 0100
00000070: 1763 0400 7528 0080 a613 0080 834b 0480
00000080: ed87 0100 df0f 0300 1c66 0480 9cab 0380
00000090: 84d7 0180 dee4 7081 1c59 0100 7915 0280
000000a0: 7d46 0380 0a2f 0080 ac8f 49b0 dbe5 0080
000000b0: 0440 0600 334b 0680 6b94 0180 990b 0000
000000c0: f4d3 043d 18ce 0200 c18a 0000 78ac 0200
000000d0: d995 0300 3e1b 0100 7037 0000 e35b 0300
000000e0: 0b0b 0100 c31b 0600 599e 0280 7418 0000
000000f0: 0e17 0200 c071 0000 360f 0300 84ef 0080
00000100: 7761 0db1 a50f 0080 2f9c 0100 6e18 0080
00000110: 10f6 0080 df3f 0080 1628 0080 1854 0280
00000120: fedd 0300 2b09 0000 5ee9 5530 6a18 0080
00000130: ab13 0080 a588 0100 f040 0080 a705 0200
00000140: 04ab 7202 cb9b 0080 2e83 0100 9978 0280
00000150: 0ce3 9613 5345 0000 b5d5 0380 0e6f 0200
00000160: 0400 0080 0e75 0500 207f 0380 b577 0400
00000170: 5c7f 0000 c558 0100 91ae 0180 9258 0580
00000180: 012e 0080 3923 0000 cf9b 0100 2730 0080
00000190: 3fd2 0280 7f25 0180 0b81 2702 a14b 0400
000001a0: 6a3b 0080 427b 0100 3a15 0000 aabc 0300
000001b0: 509f 0580 154d 0600 5f63 0200 083f 0600
000001c0: ac5f 0500 9ea1 bbbe b151 0000 dcd6 0080
000001d0: 1169 0000 e13d 0180 1025 1400 56ef 0680
000001e0: 536f 0100 dc13 0080 37e1 0380 d098 0300
000001f0: 1d62 0080 cd2f 0280 b99b 0480 46d3 0080
00000200: 464e 0200 4f09 0100 9514 0000 056b 0380
00000210: 64d7 36be 1148 0080 d554 0480 ec2b 0000
00000220: 9b3a 0080 a0e0 0000 934d 0080 f09b 0100
00000230: 3963 0400 3daf 0000 a13a 0200 c039 84b0
00000240: d388 0180 3a04 0080 666d 0400 000c 0000
00000250: d4bd 0180 ce28 0000 be9f 0180 e43e 0400
00000260: 7cd2 0180 35ac 0500 1445 0180 738a 0080
00000270: c16d 0000 048d 0280 4803 0080 6b03 0000
00000280: 4652 5e00 a133 9a9d 86f3 3280 97bd 0100
00000290: 0de6 0100 edae 0000 a7a3 0180 2d27 0000
000002a0: 7196 0180 9a34 0300 d61b 96b6 c5c6 0580
000002b0: 4351 0000 c880 0000 f477 0480 5ad7 0000
000002c0: 6f10 0080 6929 0080 7f98 0000 600e 0400
000002d0: 8787 0180 baaf 0480 1dfa 0380 040c 0880
000002e0: 9baa 0280 2100 0180 1a50 0000 f25d 0180
000002f0: 9712 1080 b370 0280 977e 0100 cfe6 0080
00000300: 2729 0200 aac8 0380 6d93 0100 5714 0000
00000310: 8b7e 0580 50a8 35b2 bdb0 0480 2f95 0200
00000320: 2d68 0000 9d17 0000 a825 82b9 7125 0080
00000330: bfa6 0300 bb6e 0580 2600 f4b0 0a89 0000
00000340: 0f27 0280 13e6 0180 510f 0780 118a 0080
00000350: bc14 0080 7c06 0080 2c8e 0180 c28c f832
00000360: c4ee 0080 5a9a 0080 4a3d 0080 0234 0200
00000370: 4244 0000 8a13 0380 d53a 0080 2f45 0000
00000380: 1c04 0380 e4c0 0000 4b97 0480 0525 0000
00000390: df18 0080 0b47 01af e77a 0300 8187 0180
000003a0: f590 0280 0f1f 0880 28f1 0680 c23f 0480
000003b0: baed 0700 350f 0080 7502 0280 4fc7 0100
000003c0: 240b 0000 62d9 6416 93ee 0300 00d0 9586
000003d0: aafd 1b3e e686 0180 e48f 0680 d746 0200
000003e0: ad36 0100 97ff 0000 d7b9 0100 eee5 2793
000003f0: 74a0 0000 bfae 0380 c580 0180 7f13 0180
-2.1456e-40 -1.42987e-40 1.13137e-40 1.261e-42 -7.063e-42 -2.080322e-06 1.60775e-40 1.27838e-40
1.3224e-40 -4.963e-42 3.82221e-40 -4.87683e-40 5.5711e-41 -0.0006752771 -4.70622e-40 1.2935e-41
-2.3657122e-34 -2.35456e-40 -3.5313835e-08 -1.5053e-41 2.248e-42 2.91124e-40 -3.8115e-40 1.3944e-41
-4.0066e-41 -9.2706e-41 1.3197e-41 9.9729e-41 4.02889e-40 -1.4513e-41 -7.049e-42 -3.9443e-40
1.40596e-40 2.812e-40 -4.03972e-40 -3.37068e-40 -1.69148e-40 -4.4245242e-38 1.23802e-40 -1.91374e-40
-3.00793e-40 -1.6874e-41 -7.3327544e-10 -8.2457e-41 5.73977e-40 -5.7799e-40 -1.45078e-40 4.16e-42
0.032428697 2.57603e-40 4.9776e-41 2.45541e-40 3.29262e-40 1.01608e-40 1.9887e-41 3.08469e-40
9.5797e-41 5.60972e-40 -2.40475e-40 8.772e-42 1.91941e-40 4.0806e-41 2.80963e-40 -8.5922e-41
-2.0573603e-09 -5.612e-42 1.47864e-40 -8.764e-42 -8.827e-41 -2.2913e-41 -1.438e-41 -2.13838e-40
3.55142e-40 3.289e-42 7.7820583e-10 -8.758e-42 -7.056e-42 1.40854e-40 -2.3295e-41 1.85699e-40
1.7828431e-37 -5.5888e-41 1.38894e-40 -2.26933e-40 3.808921e-27 2.4869e-41 -3.5217e-40 2.2351e-40
-6e-45 5.01169e-40 -3.2111e-40 4.10285e-40 4.5688e-41 1.2368e-40 -1.54458e-40 -4.9095e-40
-1.6503e-41 1.2636e-41 1.47729e-40 -1.7274e-41 -2.59093e-40 -1.05287e-40 1.2306256e-37 3.94473e-40
-2.1314e-41 1.36052e-40 7.615e-42 3.43186e-40 -5.16328e-40 5.78665e-40 2.19319e-40 5.73624e-40
4.93498e-40 -0.36646742 2.9305e-41 -7.7077e-41 3.7691e-41 -1.14033e-40 1.850005e-39 -6.3687e-40
1.31771e-40 -7.124e-42 -3.56298e-40 3.30325e-40 -3.5196e-41 -2.00819e-40 -4.23205e-40 -7.579e-41
2.1175e-40 9.5175e-41 7.383e-42 -3.13898e-40 -0.17855603 -2.5853e-41 -3.97774e-40 1.5756e-41
-2.1024e-41 8.058e-41 -2.7828e-41 1.47775e-40 4.02936e-40 6.2864e-41 2.04703e-40 -9.620678e-10
-1.40919e-40 -1.516e-42 4.06587e-40 4.305e-42 -1.59933e-40 1.4638e-41 -1.4914e-40 3.89903e-40
-1.67343e-40 5.20954e-40 -1.16616e-40 -4.9666e-41 3.9372e-41 -2.34258e-40 -1.177e-42 1.226e-42
8.662051e-39 -4.0816844e-21 -4.679135e-39 1.59848e-40 1.74362e-40 6.2752e-41 -1.50543e-40 1.4054e-41
-1.45804e-40 2.94376e-40 -4.473589e-06 -5.30483e-40 2.9151e-41 4.6198e-41 -4.10373e-40 7.7254e-41
-5.895e-42 -1.4855e-41 5.4705e-41 3.72499e-40 -1.40454e-40 -4.30381e-40 -3.6523e-40 -7.38994e-40
-2.44873e-40 -9.1882e-41 2.8735e-41 -1.25537e-40 -1.476037e-39 -2.241e-40 1.37247e-40 -8.2799e-41
1.98434e-40 -3.47491e-40 1.44722e-40 7.297e-42 -5.04573e-40 -1.05738565e-08 -4.30744e-40 2.37188e-40
3.7371e-41 8.471e-42 -0.00024823588 -1.3431e-41 3.35324e-40 -4.989e-40 -1.7753379e-09 4.916e-41
-1.97683e-40 -1.7437e-40 -6.48343e-40 -4.9529e-41 -7.438e-42 -2.326e-42 -1.42837e-40 2.8935009e-08
-8.5653e-41 -5.5371e-41 -2.1986e-41 2.02328e-40 2.4486e-41 -2.82516e-40 -2.1105e-41 2.4818e-41
-2.7698e-40 6.9196e-41 -4.21616e-40 1.328e-41 -8.922e-42 -1.1757721e-10 3.19596e-40 -1.40445e-40
-2.35672e-40 -7.45826e-40 -6.37524e-40 -3.90214e-40 7.28129e-40 -5.455e-42 -1.84552e-40 1.63334e-40
3.997e-42 1.8486287e-25 3.61091e-40 -5.63532e-35 0.15233484 -1.40228e-40 -6.02631e-40 2.09084e-40
1.1145e-40 9.1688e-41 1.58502e-40 -2.1191727e-27 5.756e-41 -3.38194e-40 -1.3803e-40 -9.883e-41

shared.1.bias f4 [512]
00000000: cd0a 0580 3201 0380 315d 0480 9235 0080
00000010: aed1 0080 baa6 63b0 16d1 0280 d9e7 0380
00000020: 3826 0380 3255 0480 9543 0280 22f4 0680
00000030: 916d 0180 de80 3032 f491 0280 d506 0280
00000040: ffc1 f5ae a9d0 0280 7b06 8429 a87b 0680
00000050: 7046 0080 9c42 0380 4903 0480 8bda 0080
00000060: 13df 0080 f351 0380 205d 0180 4a14 0380
00000070: 3926 0100 cd6d 0180 b38d 0180 0c6c 0880
00000080: 0b7d 0180 9a9e 0280 a4ec 0480 c503 0380
00000090: 3241 0680 ba1f e981 b00a 0380 4b2e 0780
000000a0: 064f 0480 a074 0480 5522 a232 de2b 0680
000000b0: 2f7e 0780 3a15 0380 2e59 0280 5963 0080
000000c0: 23b1 a6bb 4c7a 0180 1edd 0380 a658 0480
000000d0: 2e60 0480 2143 0680 a883 0280 4753 0580
000000e0: 2683 0280 c258 0480 8faa 0280 5b2e 0380
000000f0: 8b73 0380 7325 0280 dd04 0680 acf2 0180
00000100: 61a4 502d ff4a 0080 71c8 0380 1494 0080
00000110: 2b3f 0280 7c7b 0080 609b 0180 6a0e 0380
00000120: cabb 0680 b198 0080 9d83 f4b1 c7f7 0080
00000130: a6c1 0080 8cac 0280 17d3 0080 7963 0480
00000140: d18c 4e84 7258 0680 a20e 0380 126a 0480
00000150: fd3a 5091 8232 0780 f633 0380 c6b4 0180
00000160: 90e9 0080 5c84 0480 f50b 2a81 2b68 0280
00000170: c6c7 0280 fe27 0180 9754 0380 c0df 0580
00000180: 8861 0480 7918 0280 8cd1 0280 653d 0180
00000190: 0e4e 0280 5382 0680 da39 8d94 35ca 0380
000001a0: 26f1 0080 99b2 0580 d6d2 0080 4a99 0480
000001b0: 4c10 0480 4841 0380 5d60 0380 460b 0480
000001c0: 58eb 0680 8597 703d aae6 0780 3670 0180
000001d0: 8528 0480 0ab7 0780 e9d0 0380 eeb5 0580
000001e0: 8c19 0880 5639 0380 3a72 0380 d1c3 0280
000001f0: c51f 0180 102a 0380 a9ca 0480 e4c9 0280
00000200: f533 0780 8406 0280 5aba 0280 9ca4 0380
00000210: 1219 2ebe 4685 0280 3e05 0380 a996 0380
00000220: 8717 0180 8a07 0480 aa5b 0080 22d4 0280
00000230: f4e7 0180 9f9a 0280 d7f2 0280 b8fd 3b2b
00000240: fb47 0480 13c8 0080 d2ce 0280 0653 0080
00000250: 1f19 0680 aa10 0280 3244 0580 fa63 0200
00000260: 502a 0580 ae30 0280 d2d4 0180 2558 0380
00000270: f610 0380 58e3 0580 6a40 0080 ea40 0080
00000280: 6382 0780 a415 5196 72f7 0480 89ae 0380
00000290: e9c6 0580 073e 0780 306e 0380 6172 0480
000002a0: 4fb1 0380 ace8 0280 0085 c4b2 692b 0680
000002b0: eba4 0280 13ea 0280 daa1 0280 fa5d 0180
000002c0: 4702 0180 6b98 0080 f510 0080 5bce 0380
000002d0: d3b6 0380 4910 0780 6dd6 0280 1244 0680
000002e0: c521 0380 c18e 0180 4f6d 0080 75ef 0280
000002f0: 2377 0680 2e4c 0580 9aba 0280 5e50 0480
00000300: 7cf1 0580 48e6 0480 4cf3 0280 7061 0180
00000310: e35d 0680 b754 b5b4 297a 0780 83c9 0380
00000320: 9692 0380 34d7 0080 2408 f5ba e12b 0180
00000330: b0a2 0380 bc87 0580 87d2 a4b2 3825 0480
00000340: 39af 0280 657a 0280 df39 0580 90dc 0380
00000350: ba06 0180 4100 0180 7e7e 0380 01b6 8833
00000360: da3b 0380 5147 0280 5e7a 0180 5e41 0580
00000370: 2cc6 0380 2fda 0580 430b 0280 0a5c 0380
00000380: f916 0880 001b 0180 75a2 0480 20ee 0080
00000390: c480 0180 c7a0 f329 63af 0180 d6ce 0280
000003a0: 9499 0280 36d1 0680 5f10 0480 ca2b 0480
000003b0: 6a89 0780 d4a2 0180 0cd0 0380 47c2 0180
000003c0: 9bec 0380 28b7 0618 b5e5 0180 f790 b20b
000003d0: bf4e e5bd b77b 0780 be70 0480 3186 0780
000003e0: 7e0d 0680 ea3c 0580 d291 0280 5a42 7514
000003f0: a915 0380 3730 0780 86d0 0680 5527 0180
-4.63052e-40 -2.75935e-40 -4.00773e-40 -1.9217e-41 -7.5219e-41 -8.281905e-10 -2.58677e-40 -3.58678e-40
-2.89217e-40 -3.97904e-40 -2.07915e-40 -6.38591e-40 -1.3114e-40 1.0273849e-08 -2.36029e-40 -1.86122e-40
-1.1175771e-10 -2.58524e-40 5.863102e-14 -5.95372e-40 -2.5268e-41 -2.99401e-40 -3.6852e-40 -7.8398e-41
-8.0024e-41 -3.04904e-40 -1.25242e-40 -2.82785e-40 1.05547e-40 -1.31225e-40 -1.42668e-40 -7.73444e-40
-1.36692e-40 -2.40567e-40 -4.52233e-40 -2.76859e-40 -5.744e-40 -8.563621e-38 -2.7934e-40 -6.59455e-40
-3.9569e-40 -4.09179e-40 1.8874895e-08 -5.6675e-40 -6.88115e-40 -2.83121e-40 -2.15663e-40 -3.5639e-41
-0.0050870343 -1.35707e-40 -3.54828e-40 -3.99143e-40 -4.01845e-40 -5.75094e-40 -2.309e-40 -4.89052e-40
-2.30718e-40 -3.99182e-40 -2.44856e-40 -2.92136e-40 -3.16955e-40 -1.97105e-40 -5.52758e-40 -1.7889e-40
1.1859931e-11 -2.6904e-41 -3.47411e-40 -5.312e-41 -2.06331e-40 -4.4298e-41 -1.47574e-40 -2.80677e-40
-6.18379e-40 -5.4775e-41 -7.1162973e-09 -8.8886e-41 -6.9468e-41 -2.45569e-40 -7.5725e-41 -4.03026e-40
-2.4279843e-36 -5.82741e-40 -2.80756e-40 -4.05393e-40 -1.6426484e-28 -6.60967e-40 -2.94147e-40 -1.56685e-40
-8.3786e-41 -4.14824e-40 -3.1232647e-38 -2.2104e-40 -2.55336e-40 -1.06182e-40 -3.05852e-40 -5.39444e-40
-4.0233e-40 -1.9245e-40 -2.58842e-40 -1.1386e-40 -2.11672e-40 -5.97764e-40 -1.426018e-26 -3.48045e-40
-8.6508e-41 -5.23246e-40 -7.5634e-41 -4.22332e-40 -3.73188e-40 -2.98925e-40 -3.10075e-40 -3.71386e-40
-6.35438e-40 0.05873825 -7.25595e-40 -1.32089e-40 -3.81878e-40 -7.0851e-40 -3.5045e-40 -5.24442e-40
-7.43848e-40 -2.96075e-40 -3.16483e-40 -2.53917e-40 -1.03232e-40 -2.90596e-40 -4.40043e-40 -2.56096e-40
-6.61487e-40 -1.86008e-40 -2.50521e-40 -3.34557e-40 -0.17001751 -2.3148e-40 -2.77387e-40 -3.29553e-40
-1.00276e-40 -3.70046e-40 -3.2883e-41 -2.5977e-40 -1.75045e-40 -2.39139e-40 -2.70786e-40 6.678785e-13
-3.93164e-40 -7.1773e-41 -2.57864e-40 -2.9783e-41 -5.60025e-40 -1.89649e-40 -4.83641e-40 2.19536e-40
-4.74356e-40 -2.01134e-40 -1.68181e-40 -3.07127e-40 -2.81591e-40 -5.40733e-40 -2.3107e-41 -2.3287e-41
-6.89622e-40 -1.6889714e-25 -4.56109e-40 -3.38118e-40 -5.30533e-40 -6.651e-40 -3.15034e-40 -4.08373e-40
-3.39113e-40 -2.67138e-40 -2.2877884e-08 -5.66586e-40 -2.42832e-40 -2.67641e-40 -2.41732e-40 -1.25548e-40
-9.2652e-41 -5.4677e-41 -6.083e-42 -3.49533e-40 -3.41091e-40 -6.4869e-40 -2.60592e-40 -5.75432e-40
-2.87621e-40 -1.43046e-40 -3.9213e-41 -2.69572e-40 -5.93751e-40 -4.86506e-40 -2.50611e-40 -3.96172e-40
-5.45806e-40 -4.49951e-40 -2.7095e-40 -1.2679e-40 -5.84693e-40 -3.3775515e-07 -6.86671e-40 -3.47795e-40
-3.28092e-40 -7.72e-41 -0.0018694443 -1.07576e-40 -3.33868e-40 -5.0787e-40 -1.918785e-08 -3.80694e-40
-2.46529e-40 -2.27578e-40 -4.79938e-40 -3.5463e-40 -9.4249e-41 -9.1927e-41 -3.20883e-40 6.3661e-08
-2.96977e-40 -2.09254e-40 -1.35733e-40 -4.82627e-40 -3.46597e-40 -5.37447e-40 -1.87711e-40 -3.08524e-40
-7.42925e-40 -1.01521e-40 -4.2562e-40 -8.5423e-41 -1.38028e-40 1.0819258e-13 -1.54752e-40 -2.5787e-40
-2.38764e-40 -6.26064e-40 -3.73215e-40 -3.8305e-40 -6.92143e-40 -1.50247e-40 -3.5014e-40 -1.61529e-40
-3.60385e-40 1.7411564e-24 -1.74239e-40 6.8781225e-32 -0.1119666 -6.87229e-40 -4.07786e-40 -6.90987e-40
-5.55853e-40 -4.8103e-40 -2.35981e-40 1.23824245e-26 -2.83277e-40 -6.60145e-40 -6.25817e-40 -1.05945e-40

shared.3.weight f4 [256, 512]
00000000: ebf9 96b7 9aa6 0780 8543 a481 0c96 38b8
00000010: fc74 b52b 6640 26a5 8643 0e2b c8b8 5d33
00000020: 8aac 88b1 5ca8 0400 6df9 0300 a64f bcb4
00000030: 1ecc a428 a08e e7aa bd40 0480 3ea9 1039
00000040: 60c9 5a05 e1f6 662e f677 99a9 0aa4 69b4
00000050: 5c6b a137 5359 0800 f2b4 1d30 94d4 0000
00000060: c7fd 3a2d 6e7c 38b4 8643 19b6 3a70 0800
00000070: 2d46 2580 a8b5 0180 42c0 84ab df5d 0100
00000080: 6cf9 baaa 2cd6 5cb0 d11d 27b7 38f6 0634
00000090: 5076 00aa 2502 2401 2479 3f32 d6c6 18b0
000000a0: 813b 0100 8f06 0b8b 1c95 39b6 3dcb 5100
000000b0: aaec 932a 29b9 3e2c da28 56b7 44ef 29af
000000c0: 1069 a986 18b8 cdaf dd6c 7baa e033 3aaf
000000d0: 24b3 b433 6696 16b4 6049 3638 9bfd 0500
000000e0: d422 4339 070a 0c2d 6c91 4730 d6f3 b134
000000f0: 6959 57ab b0e5 01b0 9682 6628 f49a a0aa
00000100: 6e76 4b24 c43f 56b0 865f 65a3 43b6 b038
00000110: c430 0927 95b9 3c00 f0b4 0e2a 5d7b 97b6
00000120: 243d 1eb9 4c77 de36 ee27 9ab5 c81b 0080
00000130: fe92 0000 9461 0500 d910 0180 ce35 2938
00000140: 09b2 8201 a133 0380 e6e7 312e 466b adb0
00000150: 5eb8 988c 2e51 b6b9 9efd eeab 9a1c 0e39
00000160: 3e11 4f80 1847 7fb2 20e1 6e00 0301 0180
00000170: 79c5 c82e c961 0b2b 365b db2e 70c2 fa2f
00000180: ac58 122f 3a4d 8180 5060 bab7 a074 31ab
00000190: 7d7e 0780 c985 0700 4681 0000 0b9f 0680
000001a0: 8e6d 0200 0204 6e00 3e47 0438 9382 0280
000001b0: b9e4 0780 82f2 aeaf bfdd 0200 f444 0a00
000001c0: a20a 0430 0870 7435 f485 0300 e0b8 0100
000001d0: e81e 0200 a2c0 05ae eab2 1581 d0ca 3480
000001e0: 42a6 c0b0 ac56 bfb1 c8f2 d7b2 587f 0200
000001f0: 74c3 8031 a06f 6537 f44b f52b ca3c 32ab
00000200: 44f7 8736 3978 f781 027e 58ab 4207 6332
00000210: 9c3e 6b37 7e5f 07b3 55ca 0180 3fb7 f0b2
00000220: 3736 0029 feb7 36af fcfa 0180 f251 922e
00000230: b273 3600 a497 41ae 1802 0bae 1b7c ff25
00000240: 52c6 0100 6cda 1435 954d 0380 02b2 ba2f
00000250: 9e64 c324 fb67 1c37 9f1c 4115 e627 4580
00000260: 6cea a12c 3f88 df81 d235 2400 6c4b 5032
00000270: a3af 5630 73d6 9a2e 7371 0100 7819 ff33
00000280: a7c8 3a81 7df9 6f13 f57c 2a00 9d38 002b
00000290: c87d 0680 3a9b ce29 4506 1838 4682 0280
000002a0: 3bec c9ae 0bb3 9fac ab86 102b 0de0 0080
000002b0: 009a b9ae e967 06b6 406c 0600 4fca 0cad
000002c0: 3552 cd2c 28f0 3a34 4e05 8e81 8efa 0000
000002d0: 947f 0380 0e71 10ab acfe 1435 7160 28b9
000002e0: 202c b601 8c93 a933 ee2a 332c 46c6 8a30
000002f0: d639 0400 4c26 04b9 7c58 0cae 2045 06ad
00000300: 83f0 0280 cd9a 9100 701d 1ab4 2a86 b639
00000310: dd7e 3033 7080 1e2b 4b9e 8fac 6062 cb2c
00000320: 40b5 2bb3 7a45 0000 d6fd a484 5aab 2bab
00000330: 3b1a 3736 a694 d62c e611 29ae ae20 afb8
00000340: 51b7 2e2e dbaf 0100 969c 34af 834b 0280
00000350: de7c f039 b17f b1ad 0f90 ae37 06c6 17af
00000360: 00a4 0200 c8aa 0a32 d075 b2b4 68c6 edb0
00000370: cf84 0780 18f9 0680 015d 0000 d9b1 0100
00000380: fe67 b233 3cb7 52ac 3483 6081 e79d 0180
00000390: 1736 452c dc17 04a5 bcdd 0080 0aa3 fe2c
000003a0: a93c 2680 e412 4332 bf15 0180 36b7 0700
000003b0: 10e2 1fb4 9892 0300 11eb 0280 bfc7 18b6
000003c0: 0e3c 31af 997c c715 7088 0700 5858 c608
000003d0: d358 6f32 b6b1 7d38 cd1b 0280 da54 09ab
000003e0: e608 712f 3259 17ac a589 0200 2b43 1d91
000003f0: e435 aa2b 3ecb bc00 e74b 75b5 add1 a3b5
-1.799777e-05 -7.02614e-40 -6.034097e-38 -4.400876e-05 1.2893293e-12 -1.4420024e-16 5.054224e-13 5.162363e-08
-3.9777364e-09 4.27738e-40 3.64984e-40 -3.507568e-07 1.829618e-14 -4.113281e-13 -3.90566e-40 0.00013795958
1.02872975e-35 5.2515218e-11 -6.815375e-14 -2.1759493e-07 1.9242689e-05 7.66727e-40 5.7373406e-10 7.6259e-41
1.0629226e-11 -1.7181603e-07 -2.283808e-06 7.74943e-40 -3.423088e-39 -1.57001e-40 -9.432526e-13 1.2551e-40
-3.3213308e-13 -8.033989e-10 -9.960918e-06 1.2569296e-07 -1.1409732e-13 3.012358e-38 1.1145207e-08 -5.557984e-10
1.13181e-40 -2.677536e-32 -2.7653941e-06 7.511583e-39 2.6276664e-13 2.7103408e-12 -1.27649055e-05 -1.5455465e-10
-6.372511e-35 -3.742009e-10 -2.2331048e-13 -1.6935031e-10 8.414489e-08 -1.4024553e-07 4.3460517e-05 5.50154e-40
0.00018609624 7.960305e-12 7.2602435e-10 3.3146233e-07 -7.6507426e-13 -4.725633e-10 1.2795881e-14 -2.852923e-13
4.4118922e-17 -7.7943363e-10 -1.2434343e-17 8.426283e-05 1.9039005e-15 5.576704e-39 1.2674909e-13 -4.514512e-06
-0.00015090831 6.6300036e-06 -1.1485515e-06 -9.966e-42 5.2731e-41 4.94182e-40 -9.7879e-41 4.034285e-05
4.8009926e-38 -2.94027e-40 4.0451108e-11 -1.2617896e-09 -2.353027e-31 -0.0003477423 -1.698131e-12 0.0001355283
-7.26119e-39 -1.4859118e-08 1.0182664e-38 -9.2198e-41 9.130025e-11 4.9518424e-13 9.975169e-11 4.561289e-10
1.3310125e-10 -1.1874483e-38 -2.2217777e-05 -6.304488e-13 -6.88224e-40 6.90842e-40 4.6375e-41 -6.08067e-40
2.22972e-40 1.0103342e-38 3.1537602e-05 -2.30512e-40 -7.24899e-40 -3.1822728e-10 2.63219e-40 9.4309e-40
4.803643e-10 9.106011e-07 3.2356e-40 1.58156e-40 1.94758e-40 -3.041179e-11 -2.7495342e-38 -4.848201e-39
-1.4017092e-09 -5.568685e-09 -2.5139698e-08 2.29353e-40 3.7475107e-09 1.3675453e-05 1.7429378e-12 -6.3322665e-13
4.052099e-06 -9.090598e-38 -7.6913486e-13 1.3214789e-08 1.4021669e-05 -3.1518987e-08 -1.64419e-40 -2.8023008e-08
2.8468733e-14 -1.6618171e-10 -1.81872e-40 6.653868e-11 5.00062e-39 -4.4017803e-11 -3.16068e-11 4.4319546e-16
1.6298e-40 5.545214e-07 -3.03338e-40 3.3959685e-10 8.473822e-17 9.322534e-06 3.8998618e-26 -6.350962e-39
4.6019213e-12 -8.2112766e-38 3.325385e-39 1.2124342e-08 7.810234e-10 7.041203e-11 1.32533e-40 1.18789956e-07
-3.4306766e-38 3.0289048e-27 3.901917e-39 4.55533e-13 -5.96135e-40 9.175165e-14 3.6245463e-05 -2.30404e-40
-9.182385e-11 -4.5389296e-12 5.1345966e-13 -8.0374e-41 -8.440182e-11 -2.002804e-06 5.89846e-40 -8.003e-12
5.8355772e-12 1.7409968e-07 -5.2170174e-38 8.9882e-41 -3.21273e-40 -5.131597e-13 5.550489e-07 -0.00016057656
6.691956e-38 7.8965144e-08 2.546126e-12 1.0097174e-09 3.8809e-40 -0.00012602768 -3.1910904e-11 -7.632367e-12
-2.6995e-40 1.3371679e-38 -1.4353077e-07 0.00034813705 4.1093575e-08 5.631112e-13 -4.0818785e-12 5.780529e-12
-3.9978886e-08 2.4923e-41 -3.8789326e-36 -6.09892e-13 2.7284393e-06 6.098749e-12 -3.8442048e-11 -8.350737e-05
3.9725837e-11 1.5492e-40 -1.6426535e-10 -2.1076e-40 0.000458694 -2.0179277e-11 2.0809499e-05 -1.3803722e-10
2.42503e-40 8.071488e-09 -3.3240804e-07 -1.730041e-09 -6.90491e-40 -6.40371e-40 3.3364e-41 1.55635e-40
8.307687e-08 -2.994451e-12 -4.1236436e-38 -1.4848e-40 2.802541e-12 -1.1457259e-16 -7.9543e-41 7.237215e-12
-3.51151e-39 1.1354789e-08 -9.9637e-41 7.08572e-40 -1.489027e-07 3.28094e-40 -2.67997e-40 -2.2766033e-06
-1.6119392e-10 8.057204e-26 6.91793e-40 1.1937461e-33 1.3931827e-08 6.0485407e-05 -1.93644e-40 -4.878993e-13
2.1921984e-10 -2.1507904e-12 2.33049e-40 -1.2405814e-28 1.2094184e-12 1.7337983e-38 -9.1380065e-07 -1.220547e-06

shared.3.bias f4 [256]
00000000: 4e0e 4c37 8e05 5037 ec92 483e f2b8 5037
00000010: e191 4d37 d849 4e37 525d 5237 a516 4f37
00000020: 4374 5237 3c72 5237 1c52 5037 2bae 5237
00000030: 9a15 4f37 aac1 5237 5b26 4d37 9d3b 5137
00000040: afd5 5237 1812 5137 dfef 5037 2ad0 5137
00000050: 0cd7 4f37 1aa4 4f37 0a11 4f37 5c30 d63e
00000060: 97e0 4f37 3e37 5337 a8f8 3d37 2c43 5137
00000070: e034 4f37 e2bc 5137 7f42 5137 4bfb 5137
00000080: b23b 26be 5e97 4f37 fed1 4f37 a047 5037
00000090: 4ca8 5137 4d23 5137 7f4c 4f37 31f4 feb8
000000a0: bb6b 5037 b7df 5237 0e65 4f37 efcf 5137
000000b0: 0714 5037 69f3 4e37 123c 4f37 df4c 4f37
000000c0: 7332 5037 c4bd 4f37 63bc 4f37 91a8 4f37
000000d0: 79a1 5037 3dc6 4f37 5121 5237 3a50 4f37
000000e0: de50 4f37 8292 5137 8826 5337 06db 5037
000000f0: d044 5137 5cc6 4e37 fc3e 4f37 828c 5237
00000100: 4430 5037 48a7 4b37 742c 5137 f46a 5137
00000110: 0879 8fb8 9cb9 4f37 9568 4e37 cf43 5137
00000120: f40b 4737 d54e 4f37 ba44 5337 69c9 5137
00000130: 4041 5137 79eb 5137 98f8 4437 e70e 4f37
00000140: d178 4237 2033 5337 bfc7 5137 279b 5137
00000150: a533 5037 000b 5337 8fe3 4f37 1428 5237
00000160: 6156 5137 f092 4f37 75a7 4f37 fe19 4f37
00000170: 04f8 5237 cd94 5137 e60f 5137 1c49 d136
00000180: ac30 5037 5145 5237 a566 4f37 29f8 5237
00000190: ebc5 4e37 b80e 5237 f571 5137 ed21 5037
000001a0: cca9 4f37 7573 4f37 77cb 4f37 576c 5037
000001b0: 1f1b 5137 e43c 5237 adc1 5237 4e4a 4f37
000001c0: 0e26 4d37 efd0 5237 9b72 4637 e15b 4f37
000001d0: c319 5037 2db1 4f37 cb2d 5037 d696 5137
000001e0: 4a13 4a37 8dea cdb8 dcca 5237 9bb3 4f37
000001f0: 1e21 5337 b60d 4f37 c71d 4937 bba8 5237
00000200: 85c3 4e37 6cc3 5237 5245 4f37 06b4 343b
00000210: 07bb 5337 fc01 e335 9852 4e37 ce72 4f37
00000220: 1c33 5337 a1a9 5037 a907 4f37 ef50 5137
00000230: e91c 4f37 ea3c 5337 87b8 4537 9923 5137
00000240: 2447 5137 2f27 5037 54c9 a133 e789 5137
00000250: a1a5 4c37 e362 5037 c5ad 5237 286d 4f37
00000260: cfb0 5037 480b 4f37 3a52 5337 5e6a 77b9
00000270: 3a66 5137 2818 4137 9232 a2bc 2cfa 5237
00000280: 4edc 5037 19d4 4e37 77b1 4f37 c48f 5137
00000290: 964a 5037 01f9 4937 a7c8 5237 6934 5037
000002a0: 5bc2 4f37 b6b4 e2b8 5a33 5037 ac9e 5237
000002b0: 6dc1 5237 0d7f 5337 f837 4f37 db22 5337
000002c0: 9b49 5237 6945 5337 600b 4f37 930c 5237
000002d0: 6968 5137 397e 5037 81e4 4f37 bd5f 5037
000002e0: 0ec5 5037 728a 5237 6ad8 5137 ea1b 5237
000002f0: 27a4 4f37 ad5b 5037 864a 5037 3c50 5137
00000300: af17 4437 9852 5237 4846 4f37 159f 5037
00000310: 0d23 5137 96a8 4f37 50a0 4f37 0e4a 5137
00000320: a28a 4e37 3243 4f37 28e7 4d37 6a9d 5237
00000330: b9be 4f37 be2f 4937 cee6 5037 690a 4f37
00000340: f119 4f37 5be5 4e37 7548 5037 2626 4f37
00000350: c0e8 4d37 f4a4 4f37 a444 5037 8cce 5137
00000360: ad43 5037 e93b 4f37 a7bc 4f37 d73f 5137
00000370: 381c 4f37 e89d 4b37 dc48 4f37 8e93 4f37
00000380: cf66 5237 f837 4f37 4352 5037 e59d 5137
00000390: 08f3 5237 7d90 5237 e162 4f37 a331 5337
000003a0: 7aea 5237 9c7d 4637 97ab 4f37 7680 5237
000003b0: 650c 4f37 bba5 4f37 9955 4f37 32d6 bd3d
000003c0: a4f7 4b37 e981 5037 0a38 5137 91a1 5137
000003d0: 0383 5137 b98d 5037 3cfd 5137 c037 50b9
000003e0: d0fb 4f37 18fa 5137 5d8c 4f37 f3a3 4f37
000003f0: 4aad 4f37 9502 4637 ec13 5337 1c4a 5237
1.2162678e-05 1.2399059e-05 0.19587296 1.2440827e-05 1.2252917e-05 1.229575e-05 1.2538703e-05 1.2343434e-05
1.2544045e-05 1.2543573e-05 1.2416884e-05 1.2557527e-05 1.2343191e-05 1.2562066e-05 1.22278825e-05 1.2471251e-05
1.25667275e-05 1.24615835e-05 1.2453615e-05 1.2505838e-05 1.2388231e-05 1.2376369e-05 1.2342129e-05 0.4183377
1.2390453e-05 1.2589442e-05 1.1323173e-05 1.247301e-05 1.2350472e-05 1.25013485e-05 1.2472853e-05 1.25158795e-05
-0.1623371 1.2373404e-05 1.2387054e-05 1.2414443e-05 1.2496555e-05 1.246559e-05 1.2355972e-05 -0.00012157148
1.2422849e-05 1.2569063e-05 1.236169e-05 1.2505784e-05 1.2402429e-05 1.233523e-05 1.2352148e-05 1.2356059e-05
1.2409512e-05 1.2382345e-05 1.2382024e-05 1.2377409e-05 1.2435362e-05 1.2384317e-05 1.25247325e-05 1.2356841e-05
1.235699e-05 1.2491482e-05 1.2585551e-05 1.24487615e-05 1.2473392e-05 1.2324741e-05 1.2352826e-05 1.254969e-05
1.2409004e-05 1.2138691e-05 1.2467721e-05 1.2482273e-05 -6.841315e-05 1.2381377e-05 1.2302907e-05 1.2473159e-05
1.1864107e-05 1.2356516e-05 1.2592582e-05 1.2504265e-05 1.2472563e-05 1.2512196e-05 1.1740391e-05 1.2341631e-05
1.1591431e-05 1.25884835e-05 1.2503878e-05 1.2493495e-05 1.24097905e-05 1.2579141e-05 1.2391144e-05 1.2526307e-05
1.2477482e-05 1.2372373e-05 1.2377151e-05 1.2344213e-05 1.2574721e-05 1.2492016e-05 1.2461072e-05 6.2371964e-06
1.2409098e-05 1.2533114e-05 1.236206e-05 1.2574755e-05 1.2324638e-05 1.2520402e-05 1.2483903e-05 1.2405665e-05
1.2377695e-05 1.2365043e-05 1.2385534e-05 1.2422991e-05 1.2463685e-05 1.2531153e-05 1.2562069e-05 1.2355462e-05
1.22278125e-05 1.2565622e-05 1.1828403e-05 1.2359554e-05 1.2403764e-05 1.2379413e-05 1.2408428e-05 1.249249e-05
1.2044629e-05 -9.81885e-05 1.2564207e-05 1.2379979e-05 1.2584291e-05 1.2341354e-05 1.1987467e-05 1.2556261e-05
1.232408e-05 1.2562476e-05 1.2354301e-05 0.0027573123 1.2620126e-05 1.6913395e-06 1.2297787e-05 1.23648915e-05
1.258848e-05 1.2437261e-05 1.2339945e-05 1.2476215e-05 1.2344893e-05 1.2590763e-05 1.1785079e-05 1.2465659e-05
1.24739345e-05 1.2406889e-05 7.533768e-08 1.2489479e-05 1.2197911e-05 1.242079e-05 1.2557434e-05 1.2363576e-05
1.2438933e-05 1.2340788e-05 1.2595725e-05 -0.0002359538 1.2481172e-05 1.1509321e-05 -0.019799504 1.2575223e-05
1.244906e-05 1.232794e-05 1.2379481e-05 1.2490844e-05 1.2415132e-05 1.2038509e-05 1.2563693e-05 1.2409969e-05
1.2383413e-05 -0.0001081018 1.2409722e-05 1.2553919e-05 1.2562011e-05 1.2606161e-05 1.2351193e-05 1.25846955e-05
1.2534113e-05 1.2592741e-05 1.234081e-05 1.2519903e-05 1.2481681e-05 1.2427155e-05 1.2391364e-05 1.2420057e-05
1.24436465e-05 1.254921e-05 1.2507759e-05 1.2523475e-05 1.2376381e-05 1.2419111e-05 1.2415117e-05 1.2476052e-05
1.1688025e-05 1.2536206e-05 1.2354525e-05 1.2434805e-05 1.2465532e-05 1.2377413e-05 1.2375487e-05 1.2474613e-05
1.2310835e-05 1.2353807e-05 1.2272772e-05 1.2553626e-05 1.2382568e-05 1.1991649e-05 1.24515045e-05 1.2340585e-05
1.2344201e-05 1.2331958e-05 1.2414636e-05 1.2347044e-05 1.22731435e-05 1.2376568e-05 1.2413748e-05 1.2505461e-05
1.2413523e-05 1.235211e-05 1.23820855e-05 1.2472235e-05 1.2344732e-05 1.2136508e-05 1.2355125e-05 1.2372517e-05
1.2540912e-05 1.2351193e-05 1.2416919e-05 1.2494133e-05 1.25735605e-05 1.2550617e-05 1.23611835e-05 1.2588137e-05
1.2571569e-05 1.1830965e-05 1.2378113e-05 1.2546885e-05 1.2341047e-05 1.2376749e-05 1.2358091e-05 0.0926937
1.2157401e-05 1.2428013e-05 1.2470418e-05 1.2494988e-05 1.2487874e-05 1.24307635e-05 1.25163315e-05 -0.00019857194
1.2396791e-05 1.25156e-05 1.2370842e-05 1.2376334e-05 1.23785085e-05 1.1802321e-05 1.25812185e-05 1.253423e-05

shared.4.weight f4 [256]
00000000: cbf9 0180 96cc 0080 cbc0 febe f256 0280
00000010: 2edc c829 f6b1 0180 b113 0000 af1f 0000
00000020: 9027 0100 2103 0080 c91b 0080 111a 0000
00000030: a950 0000 3200 0080 a2aa 689e 332c 0000
00000040: 9824 0000 5460 0000 e85c 0000 2639 0000
00000050: 195e 0200 e34b 0080 3819 0000 506a 113f
00000060: 5189 0000 3d5f 0080 a433 0fa3 3c26 0000
00000070: f4d5 0300 e9c0 0000 602a 0000 3777 0000
00000080: 6256 263f 3700 0000 9d0f 0080 4b32 0000
00000090: 3830 0080 7351 0000 4638 0000 1332 a4bb
000000a0: 321b 0000 6a1f 0000 7c12 0000 c19d 0080
000000b0: 467c 0080 4fcd 0400 a928 0000 85b6 0080
000000c0: 7420 0000 e62b 0000 3b23 0080 3c89 0080
000000d0: 45ea 0400 d822 0000 7446 0080 c927 0080
000000e0: 1327 0080 f631 0000 be4e 0080 ff99 0280
000000f0: 0523 0000 0a20 0000 cd3a 0000 8608 0080
00000100: b71c 0080 ae1c 0000 c957 0000 e420 0000
00000110: d1f4 83bb 4d37 0080 ea8f 0180 4756 0100
00000120: f459 0100 197b 0280 7b2b 0080 5934 0000
00000130: e53b 0000 176b 0080 dbc5 1aaf 64b2 0080
00000140: 55fc 039e 5d1a 0080 abf6 0500 3b1b 0080
00000150: f64c 0080 cc00 0000 d01f 269b 1c19 0080
00000160: 609a 0000 1a67 0080 3da2 0000 5ab7 0000
00000170: bc60 0080 e370 0200 889a 180a 7575 27b8
00000180: 2125 0000 8f13 0080 c527 0000 471c 0000
00000190: 3af2 0080 e264 0080 4c38 0080 af4f 0080
000001a0: a619 0080 9c1a 0080 6860 0180 cf38 0080
000001b0: 6d2a 0000 f0ba 042b f553 0000 4c92 0000
000001c0: 31bd 0280 7731 0000 eb8e 5889 9a4f 0500
000001d0: d221 0000 a113 0000 8c44 0000 6f51 0080
000001e0: 3f81 5b96 0dd8 293a f6ae 0000 5b38 0280
000001f0: 340d 0000 b5f4 0000 91a0 0000 95da 0080
00000200: 710f 0300 c539 0080 5b1b 0000 ceef 693d
00000210: 3190 0080 2846 ceb8 ae66 8cb1 b597 0080
00000220: ec19 0000 876f 0080 ca62 0080 7118 0000
00000230: daa6 0180 fd4d 0000 1bdd 0000 f521 0080
00000240: 2994 0200 a613 0080 0c58 3436 3345 0280
00000250: 222e 0200 dc17 0000 8151 0080 58dd 0000
00000260: d72a 0000 9c77 0100 8b28 0000 2639 ec3b
00000270: 1248 0000 9295 0600 5b67 ee3b a40e 0000
00000280: c319 0000 7cb6 0180 21d7 0080 49a5 0080
00000290: c847 2036 e9ac 0080 9204 0400 4147 0180
000002a0: cd09 0000 8267 7fb6 5f1c 0000 3900 0000
000002b0: 8337 0080 7f47 0080 5860 0080 9f2d 0000
000002c0: ff91 5fb3 eba0 0000 18a7 0100 e84f 0200
000002d0: 090f 0100 f01a 0000 3808 0000 01bd 0000
000002e0: 107f af25 684a 0080 c48f 0080 a437 0080
000002f0: c616 0080 34d9 0100 dd02 0000 8d9b 0080
00000300: 3d24 8e1f 5b2f 0480 184f 0080 121f 0080
00000310: 9127 0080 953f 0000 cc02 0000 571e 0080
00000320: 313f 0100 c668 0000 2344 0080 151a 0080
00000330: 95e6 0100 9116 c59e 1811 0080 6a87 0080
00000340: 1196 0200 71ed 0080 272a 0080 dd21 0000
00000350: 0ffc 0000 650b 0000 601e 0080 c6e6 0200
00000360: f77b 0080 a6f2 0180 a60b 0080 751c 0080
00000370: 2a0b 0000 9ec1 0300 e607 0080 520e 0000
00000380: 9a2d 0000 bb42 0000 0c44 0000 5d4f 0000
00000390: b549 0000 9c3e 0000 8c3e 0000 fd1b 0080
000003a0: 9968 0100 1d55 0480 7a21 0080 4d23 0080
000003b0: 8662 0080 a032 0080 1631 0080 4fc1 723c
000003c0: 33e7 51a8 8700 0000 cb21 0080 4874 1683
000003d0: 4b23 0080 112f 0080 3b41 0000 4567 1f2e
000003e0: 9f57 0000 2a50 0080 547e 0000 907c 0000
000003f0: 6177 0380 6afc 78ae ea4f 0080 8228 0180
-1.81444e-40 -7.3392e-41 -0.49756464 -2.14861e-40 8.919979e-14 -1.55676e-40 7.064e-42 1.1366e-41
1.06028e-40 -1.122e-42 -9.967e-42 9.351e-42 2.8935e-41 -7e-44 -1.2317264e-20 1.5856e-41
1.3127e-41 3.4556e-41 3.3328e-41 2.0501e-41 2.17427e-40 -2.7223e-41 9.047e-42 0.56802845
4.926e-41 -3.4165e-41 -7.762981e-18 1.3716e-41 3.52258e-40 6.9203e-41 1.5201e-41 4.2766e-41
0.6497556 7.7e-44 -5.601e-42 1.8042e-41 -1.7298e-41 2.9218e-41 2.0187e-41 -0.005010852
9.756e-42 1.1269e-41 6.631e-42 -5.6591e-41 -4.4581e-41 4.40993e-40 1.4586e-41 -6.5476e-41
1.1642e-41 1.5748e-41 -1.2638e-41 -4.923e-41 4.51382e-40 1.25e-41 -2.5274e-41 -1.4272e-41
-1.4017e-41 1.7923e-41 -2.8247e-41 -2.38914e-40 1.2563e-41 1.1493e-41 2.1094e-41 -3.058e-42
-1.0301e-41 1.0288e-41 3.1491e-41 1.1799e-41 -0.004026987 -1.9838e-41 -1.43462e-40 1.22786e-40
1.24105e-40 -2.2783e-40 -1.5598e-41 1.8779e-41 2.1486e-41 -3.8417e-41 -1.4076511e-10 -6.3994e-41
-6.987263e-21 -9.457e-42 5.47665e-40 -9.768e-42 -2.7608e-41 2.86e-43 -1.3741477e-22 -9.008e-42
5.538e-41 -3.6986e-41 5.82e-41 6.5774e-41 -3.4702e-41 2.24167e-40 7.347598e-33 -3.9925293e-05
1.332e-41 -7.016e-42 1.4267e-41 1.0144e-41 -8.6895e-41 -3.619e-41 -2.0196e-41 -2.8585e-41
-9.201e-42 -9.546e-42 -1.2642e-40 -2.0379e-41 1.522e-41 4.715525e-13 3.0118e-41 5.2481e-41
-2.5154e-40 1.7745e-41 -2.6067254e-33 4.87733e-40 1.2132e-41 7.042e-42 2.459e-41 -2.9213e-41
-1.7731462e-25 0.00064790325 6.2764e-41 -2.03888e-40 4.736e-42 8.7784e-41 5.76e-41 -7.8412e-41
2.81046e-40 -2.0724e-41 9.813e-42 0.05711346 -5.1726e-41 -9.835913e-05 -4.0862096e-09 -5.4422e-41
9.299e-42 -4.0008e-41 -3.5439e-41 8.768e-42 -1.5169e-40 2.7977e-41 7.9318e-41 -1.2181e-41
2.36821e-40 -7.049e-42 2.687334e-06 -2.08495e-40 2.0022e-40 8.559e-42 -2.9238e-41 7.9403e-41
1.5368e-41 1.34743e-40 1.4544e-41 0.007208961 2.5854e-41 6.04669e-40 0.0072755045 5.252e-42
9.242e-42 -1.57299e-40 -7.7174e-41 -5.9293e-41 2.388364e-06 -6.2028e-41 3.68982e-40 -1.17397e-40
3.516e-42 -3.805821e-06 1.0178e-41 8e-44 -1.9914e-41 -2.5648e-41 -3.4562e-41 1.6366e-41
-5.2054016e-08 5.7726e-41 1.51777e-40 2.12336e-40 9.7229e-41 9.663e-42 2.948e-42 6.7802e-41
3.0443762e-16 -2.6692e-41 -5.1573e-41 -1.996e-41 -8.17e-42 1.69753e-40 1.027e-42 -5.5801e-41
6.019929e-20 -3.8433e-40 -2.8373e-41 -1.1146e-41 -1.4194e-41 2.2809e-41 1.003e-42 -1.0884e-41
1.14504e-40 3.7586e-41 -2.4443e-41 -9.356e-42 1.74553e-40 -2.086752e-20 -6.132e-42 -4.8577e-41
2.37505e-40 -8.5178e-41 -1.5121e-41 1.2148e-41 9.0422e-41 4.088e-42 -1.0896e-41 2.66457e-40
-4.447e-41 -1.78881e-40 -4.179e-42 -1.0208e-41 4.005e-42 3.44963e-40 -2.833e-42 5.137e-42
1.6359e-41 2.3938e-41 2.441e-41 2.847e-41 2.6441e-41 2.246e-41 2.2438e-41 -1.004e-41
1.29358e-40 -3.97875e-40 -1.2009e-41 -1.2664e-41 -3.5344e-41 -1.8161e-41 -1.7609e-41 0.014816596
-1.1651964e-14 1.89e-43 -1.2123e-41 -4.4214522e-37 -1.2661e-41 -1.6884e-41 2.34e-41 3.6244136e-11
3.1433e-41 -2.8757e-41 4.5318e-41 4.4685e-41 -3.18332e-40 -5.661286e-11 -2.8668e-41 -1.06367e-40
