checkpoints/yahtzee_pretrain_faster/checkpoint_ep999.pt (torch, 770577 bytes, 19 tensors)

shared.0.weight f4 [512, 23]
00000000: d87a f6bc a497 423e 1a8e aebd e048 f63d
00000010: 46ee abbc 2130 6739 3a55 31be 021b 6abe
00000020: 75b5 74be afcd 5dbe 12a2 e1bd c5b0 ebbc
00000030: 473d 913c 44de ca3c c8c6 31bd 989e dc3d
00000040: a182 bcbb 744c eeb9 cd7e 413e caa7 dab7
00000050: 5f4e 70ba 5ec8 3cb8 baad 813a 769d a13a
00000060: 205c cb3d bd04 b13d 0d81 d5bd f849 4abe
00000070: e28f acb9 9922 593e 47c6 9a3e 3718 1a3e
00000080: 89c6 303e ed05 9bbd 7443 f13d 8849 2cbd
00000090: ecbb c8bb c80f 1a3e d0f3 0b3d ead4 9a3c
000000a0: 82fa 3439 eaf8 123d 8e48 eb38 ef38 8b38
000000b0: 3dad d0b9 1c20 c939 c2c9 623b 2904 873c
000000c0: f8fd d33d b973 5fbe 7612 b33d 3c1d 85b9
000000d0: b436 403d d2b8 343e 245a 94be cad1 3abe
000000e0: 04d3 6bbd 4700 b53d e3c1 f0bc b220 ec3d
000000f0: 39c3 0b3e 2ac8 943d d833 863d f9c8 a3ba
00000100: badc 023e fed1 5537 043e cdb6 e8c0 a138
00000110: 6a1d 8739 8317 403e d94d a2bb 2d2d 16bd
00000120: 74e9 dcbd 4d4e d73d fee0 243a 4042 e33c
00000130: 6a59 b93c 500d 41bd d21b d4bb 039f 04bd
00000140: f76d bd3d 8518 f33d bcfd 01bd d586 033d
00000150: 97b7 8d3d 4db0 393d e904 523a 34ae 1dbe
00000160: e31d 38ba 6583 ef39 b00c 81ba 3dad 6239
00000170: 6579 1fbe 7f3c d7bc 8170 12be b3f9 a33d
00000180: 5cc9 053e c90b b838 4211 2c3e efcc 783e
00000190: 9366 433e 93c0 173e 9030 613c a628 1d3e
000001a0: eb58 8c3c 5e9f 033e 2373 96bd 235f 9d3d
000001b0: 8921 023c 0ee0 aa39 b618 2b3b fda1 7dba
000001c0: 01a2 653a 271d 8eba 8dcb cdb9 eb46 a53c
000001d0: 7442 d53d ba8b 6a3d e5ef d23d c4da 053e
000001e0: 6abd deb7 5ecc 83be cd4b 65be 6b21 1f3d
000001f0: 0616 7c3c 840f 10be 8f70 21be acc6 c93d
00000200: f1d0 43bd a971 663d acb9 093c b0b6 53bd
00000210: caf0 9337 3fb7 063e 73e3 9739 7132 52b8
00000220: db67 c2b9 22a4 ee37 1adb d93c 69ee b1bc
00000230: 00e0 b73c 4333 fa3d a38d 4b3e faae 173a
00000240: 307b 403d ab56 1a3d 7859 c4bd f582 bc3c
00000250: dd23 8e3d af3f 1a3c 50c1 eebc 7eff 31bd
00000260: b478 8abb 5810 093e 6c29 a23d dce6 8939
00000270: bc9d 0dbe 1d0f 843a 202a 7d39 2412 18ba
00000280: cdbb 4ab9 1f8e 3fbe 5838 7cbb 55ac 2abd
00000290: fa33 2abe 2b4e 07be 3a04 1038 7f2d 6b3d
000002a0: 45b2 873d fe69 e73d a4e5 34bc 9544 103e
000002b0: f7c5 f0bd 95fc 81bd 5a5b a6bb e1de 9d3d
000002c0: ae46 bb3d 87c4 353d 61da 8bb8 2569 c63d
000002d0: aa06 003a 32f4 2f38 c441 cbb9 1e3a aab9
000002e0: d4d2 f7bd d344 49bd ef33 b03d f4af 943d
000002f0: 1b6a 023e 2350 a038 7b71 b13d 291d e83d
00000300: cc98 c33d beee 14bc 810c 3fbd aa35 483e
00000310: 1503 72bd 5094 fd3d 2699 9e3d 3291 bf3d
00000320: 0126 4d3d 4bdc 3337 4b36 24be 2beb b2b9
00000330: e852 3bb6 ff2b 9d38 f677 c7b9 4a9c 81bb
00000340: 2e9b ccbd 3aed 30bd ee19 023e 2dd8 a03d
00000350: 90c2 e0b7 f85e 5d3e fd63 8e3e 5a6a 043e
00000360: f959 d43d 3eba a73d 5790 ab3e f03b debd
00000370: 0d29 ec3b 705c 1f3e 1987 5b3d 260a bc3d
00000380: 78e6 4a39 2d81 98bc a648 f438 82c7 bbb9
00000390: 086d 1339 8c79 7238 a42e 0a3e 74e5 5ebd
000003a0: 5464 413d 2a7e 723c 883c d63d abf9 703a
000003b0: 957c 2d3c dc88 3b3d e19e 06bb b0e8 9c3d
000003c0: 5e10 ac3c 7474 903c 9a8e a23b 710b f23d
000003d0: beed 173d 3225 8f3c 3aef 773c c0ac 46b7
000003e0: e0c6 e3bd bc3d 8939 1422 75b9 22d1 15b8
000003f0: c824 02ba 9f2c cdbc 4d31 be3c 90c8 d8ba
-0.030087873 0.19003159 -0.085231975 0.120256186 -0.020987641 0.00022047806 -0.17317668 -0.22861865
-0.23897345 -0.21660493 -0.110172406 -0.028770814 0.017729415 0.024764188 -0.043402463 0.10772437
-0.005752877 -0.0004545186 0.18896027 -2.6065758e-05 -0.00091669516 -4.50093e-05 0.0009893693 0.0012330252
0.09929681 0.08643482 -0.10425005 -0.1975478 -0.00032913598 0.21204604 0.302294 0.150483
0.17263235 -0.0756949 0.11780444 -0.042062312 -0.0061259177 0.15045083 0.034168065 0.018900353
0.00017259459 0.035881914 0.000112191876 6.638641e-05 -0.00039801924 0.0003836163 0.003460512 0.016481476
0.10351175 -0.21821488 0.087437555 -0.00025389518 0.04692717 0.17648628 -0.28975022 -0.1824409
-0.057574287 0.088379435 -0.029389327 0.11529674 0.1364869 0.07264741 0.06552857 -0.0012495808
0.12779513 1.2744682e-05 -6.1166957e-06 7.71301e-05 0.00025771122 0.18758969 -0.004953128 -0.036664177
-0.10786715 0.105129816 0.000628963 0.027741551 0.022625644 -0.047131836 -0.006473043 -0.032378208
0.0924949 0.11869911 -0.03173612 0.032111008 0.069197826 0.04533415 0.0008011596 -0.15398484
-0.00070234964 0.0004568353 -0.00098457 0.00021617576 -0.15573652 -0.026273964 -0.1430073 0.08006611
0.13065094 8.775999e-05 0.16803458 0.24296926 0.19082098 0.14819555 0.013744488 0.15347537
0.017132243 0.12853763 -0.07346179 0.076841615 0.007942566 0.0003259186 0.0026107258 -0.0009675322
0.0008759797 -0.0010842428 -0.00039252304 0.020175418 0.104130656 0.05726216 0.102996625 0.13071734
-2.6552665e-05 -0.25741857 -0.22392197 0.03885023 0.01538611 -0.14068419 -0.15765594 0.09852347
-0.047806684 0.05626074 0.008406084 -0.051687896 1.7635892e-05 0.1315584 0.00028970427 -5.011488e-05
-0.00037079942 2.8448241e-05 0.026593734 -0.021720128 0.022445679 0.12216809 0.19878249 0.00057862664
0.04699248 0.03768031 -0.09587377 0.023011664 0.06940434 0.009414597 -0.029144913 -0.043456547
-0.0042258147 0.13385141 0.07918057 0.0002630268 -0.13829702 0.0010075305 0.00024143653 -0.0005801043
-0.00019334182 -0.18706559 -0.0038485732 -0.041668255 -0.1662139 -0.13213412 3.433621e-05 0.057416435
0.06625799 0.11299513 -0.011041079 0.14088662 -0.11756509 -0.06347004 -0.005076808 0.077085264
0.091443405 0.044376876 -6.668713e-05 0.096880235 0.00048838055 4.1950676e-05 -0.00038768176 -0.00032468227
-0.12100759 -0.0491379 0.086036555 0.07260123 0.12735789 7.644321e-05 0.08664223 0.11333687
0.09550628 -0.009090124 -0.046642784 0.19551721 -0.05908497 0.12381804 0.077440545 0.09353866
0.05008507 1.0720522e-05 -0.16036336 -0.0003412602 -2.791343e-06 7.494538e-05 -0.00038045616 -0.0039553987
-0.09990536 -0.043194987 0.12705204 0.07853732 -2.6793481e-05 0.21618259 0.2781066 0.12931195
0.103687234 0.0818982 0.3350856 -0.10851276 0.007207042 0.15562606 0.053595636 0.09181623
0.00019350077 -0.018616283 0.000116483585 -0.00035816064 0.0001405963 5.7810495e-05 0.13494354 -0.054418042
0.04721482 0.014800588 0.10460764 0.0009192477 0.010588785 0.045784816 -0.0020541477 0.07661569
0.021003898 0.017633654 0.004960847 0.118185885 0.037091963 0.01747379 0.01513272 -1.1841941e-05
-0.11121917 0.00026176672 -0.00023377716 -3.571914e-05 -0.0004964587 -0.025045691 0.023216868 -0.0016539264

shared.0.bias f4 [512]
00000000: b95e c33d c879 963c 7cec 0e3e dc05 f83d
00000010: fac8 1bbe 7544 32be 48bc d7bd 9edd 9abd
00000020: 1573 3abd 32e2 16bc 943a 583c 0217 e1bc
00000030: 40fa 813d 05ae 28be 0ef7 223e 93d2 083e
00000040: d534 b43d 7a31 813d b959 83bd b42e 3c3b
00000050: 5a9b 85bd b5b0 a0bc 9340 a9bd 8e5b 8b3c
00000060: 7e20 a6bd 0fc6 68bd f6f7 1cbb dd7a a6bd
00000070: a949 c63c 4144 9c3c d617 b2bc 4c42 fa3d
00000080: 4e62 1ebd 939b 423d 324f 103e 5a22 cbbd
00000090: 3e7f 313c a750 283e b5fb 90bd d207 043e
000000a0: 0633 a5bd 80ce 67bd 1e26 c4bd 1660 b43d
000000b0: 7839 373c 41f0 db3d ff13 03be b194 f6bd
000000c0: 749f 853d b8ab 15bd 485b 103d 7526 353d
000000d0: dfe9 9dbd 680f 9abd 3248 ca3c 35b3 b73c
000000e0: e6c2 913d f376 1dbe 3715 b33c 37d1 773a
000000f0: 4b3b c33d de08 513d dae6 42bd 8813 e13d
00000100: ce30 803d d068 aebd 791b 813d c871 2ebe
00000110: d570 863d dbf4 e93d 0efa e83c 423b 173a
00000120: 19a6 fb3d fbce e63d 7f3e 623e b8ee 483e
00000130: 091d 95bc 3ea2 a9bd eb54 103d f723 d6bd
00000140: cff8 333e d08c 9cbd ceb0 9abd ef26 c23d
00000150: bfa3 053d d19b d0bd df73 9a3d 1bfa d6bc
00000160: 3c4c 0d3c f4cb 9d3d a68f 973d f9ca 723d
00000170: 12eb 013d 92d9 5cbe 40b4 f8bd c8b1 253d
00000180: 2a00 48bc ecf6 84bd 9c35 0f3e e008 c43d
00000190: b5a3 973c 4f95 cc3d 1a94 ebbd fa5a f5bd
000001a0: 5f93 a63d b98f 4dbd eb8b 81bd 39a6 813d
000001b0: 38d5 ccbb 08e3 96bd 8613 b3bd 2dc3 09bc
000001c0: 5bf9 fd3c 561f b63d 3d68 f9bc 9fa3 20be
000001d0: 4772 693d 60fe 14bd b961 d1bd 32bc b43d
000001e0: 9ece 21be 2e05 e23d 22ea 11bd 05eb f13c
000001f0: 30ec 0f3e 6ad4 b83c f413 583d 79f6 3bbd
00000200: fd18 1bbd 117d 393d 9ee6 963d d3d0 f6bd
00000210: 476b a5bd b59b c73d d4af 303c 5a95 0fbd
00000220: 3f05 17be a6b6 37bd e479 fd3d 3e49 35be
00000230: 6071 c33c 3ad2 2e3e f618 d73c ca49 0bbe
00000240: 56b9 15bd 36d1 93bc 1910 4f3e 9281 9cbd
00000250: 3355 a13c 0b37 3ebc c0cd cdbd b943 3dbd
00000260: 016d 28bd 65b3 d5bd 4d1a 05be 635b 943d
00000270: 267a 4d3e 34dd f5bc 3064 833d f583 203d
00000280: b98f 7a3e 78a4 5b3e 6a5d 44bd cf88 64be
00000290: 3907 8f3d fe32 96bd e157 2dbe c40a 7c3a
000002a0: fbfe 243d 6fa0 96bd 6df3 f03d d8fd 08bd
000002b0: f803 da3c 8175 ae3d e0ff 7cbb 0a5d ccbd
000002c0: 06a3 9abd 9757 13bc d2fd 22bd ebbf 1b3e
000002d0: 36a7 763d e435 b83d 965e db3d 747a 55bd
000002e0: 8bb9 0fbc e936 073e 05a2 df3d a2bf 18bd
000002f0: 6a50 52bd 3fef 323d 2531 93bd 6731 4a3c
00000300: 861a 8e3d 296d dc3d 1e3d d7bd d167 2c3e
00000310: 130e 6d3c e2d0 bbbc 1b1a 42be 37fc 25be
00000320: f51c 5abd ed53 23be 0999 c3bd fdf2 1dbe
00000330: 7d3a 23bd 48a2 163c 6bc5 af3d c16b e73d
00000340: eb46 cebc 9c3b 3b3d 3529 fbbc 8716 6f3c
00000350: 4ba9 07bd d57b eb3d f396 2e3d 122e 323d
00000360: 1598 f4bd ddca 203e 63ed c3bd 70db e93b
00000370: c14d bc3b 97e9 70bd 2731 303d b3b0 d4bc
00000380: 02ff 213e ffe8 963d cdc4 2c3c 90e5 e83d
00000390: 43d9 aa3c 126c 933c 5e9b 13be 715e 123e
000003a0: 4c0b 2b3d 70b5 283e 363c 19bd bd46 6a3c
000003b0: 5023 ef3d 4cf9 3f3b 50c3 d63d e8b3 123c
000003c0: 8412 61bd e77a bc3c cbfc d83d c3fd 77bd
000003d0: 21d1 75bd fa81 bbbc b96a a63b 9abc aa3d
000003e0: 8b19 293e 5705 04bc 27d9 63bd c638 86bd
000003f0: abd3 ca3d 3a02 19bc 4716 e93d bc7d cb3d
0.09539551 0.018368617 0.13957399 0.121104926 -0.15213385 -0.17408927 -0.10533959 -0.075618014
-0.045519907 -0.009209203 0.01319756 -0.027476791 0.063465595 -0.16472633 0.15914556 0.13361578
0.087991394 0.06308265 -0.064135976 0.002871436 -0.065237716 -0.01961551 -0.0826427 0.01701143
-0.08111666 -0.05682951 -0.0023951507 -0.08128903 0.024205046 0.019075515 -0.021739881 0.122196764
-0.03866797 0.04751165 0.1409271 -0.099186614 0.01083356 0.16437016 -0.07079259 0.12893608
-0.080663726 -0.056593418 -0.09577583 0.088073894 0.011183135 0.10739184 -0.12800597 -0.120400794
0.06524554 -0.036540717 0.035243303 0.04422613 -0.07710623 -0.0752247 0.024692629 0.02242432
0.07117252 -0.15377407 0.021860702 0.00094534777 0.095327936 0.051033847 -0.04758344 0.109900534
0.06259309 -0.08516085 0.06304068 -0.17035592 0.0656449 0.114236556 0.028439548 0.0005769023
0.1228754 0.11269947 0.22094153 0.19622314 -0.018202322 -0.08282898 0.035237234 -0.104560785
0.17575382 -0.07644045 -0.07553254 0.09480082 0.032626864 -0.101859696 0.07541632 -0.026242306
0.008624133 0.077049166 0.07400446 0.0592756 0.03171832 -0.21567371 -0.12143755 0.04045275
-0.01220707 -0.06492409 0.13985294 0.09572005 0.018510679 0.09989416 -0.115028575 -0.11980243
0.081335776 -0.050185893 -0.06325515 0.063305326 -0.0062510036 -0.073675215 -0.08743958 -0.00840835
0.031002691 0.088926956 -0.030445212 -0.15687416 0.05699375 -0.036375403 -0.10223717 0.08824958
-0.15801474 0.11036144 -0.035623677 0.029531011 0.14054942 0.022562224 0.052753404 -0.04588935
-0.037865628 0.04528529 0.073682055 -0.12051549 -0.08077102 0.09746496 0.010784108 -0.035054542
-0.14748095 -0.04485192 0.123767644 -0.17703721 0.023857772 0.17072383 0.02625702 -0.13602367
-0.036553703 -0.018044095 0.20220985 -0.07641901 0.019693946 -0.011609803 -0.10049009 -0.046207163
-0.04111958 -0.104346074 -0.12998314 0.07243993 0.20066127 -0.030012704 0.064155936 0.039188344
0.24468888 0.21449459 -0.04794065 -0.22317813 0.069837995 -0.07333945 -0.16928054 0.00096146413
0.04028223 -0.07354819 0.1176518 -0.03344521 0.02661322 0.08518506 -0.0038604662 -0.09978683
-0.075506255 -0.008993051 -0.039792843 0.1520993 0.06021806 0.08994654 0.107114 -0.052118734
-0.008772264 0.1320454 0.10919575 -0.03729213 -0.05134622 0.043685194 -0.07187108 0.01234088
0.06938653 0.10763008 -0.10509704 0.16836478 0.014468688 -0.022926752 -0.18955271 -0.16209494
-0.05325027 -0.15949984 -0.095506735 -0.15424724 -0.0398507 0.009193964 0.08582576 0.11299849
-0.0251803 0.045711145 -0.030659297 0.014592773 -0.033120435 0.114982285 0.042624425 0.043500967
-0.1194307 0.15702386 -0.09566762 0.0071367547 0.0057465737 -0.05881652 0.043015625 -0.025963163
0.15819934 0.07368659 0.010544968 0.113719106 0.020855552 0.017995868 -0.14414737 0.14293839
0.04175882 0.16475463 -0.037410937 0.014299092 0.11676657 0.002929288 0.10486472 0.008954026
-0.0549493 0.023007823 0.105950914 -0.06054474 -0.060013894 -0.022889126 0.0050786403 0.08336754
0.1651365 -0.008057914 -0.055627014 -0.065537974 0.09903654 -0.00933891 0.11381202 0.09936091

shared.1.weight f4 [512]
00000000: 9252 7b3f 8676 5d3f 6dd3 653f d797 373f
00000010: 2d9b 623f ce66 5d3f 745a 2d3f c26b 2d3f
00000020: a58c 223f 35f9 6a3f 4135 143f 021f 733f
00000030: 8291 703f 6af8 553f 220b 633f 0d58 623f
00000040: bc68 3d3f 4f38 1f3f 61a0 6a3f 4412 193f
00000050: 2f92 293f ee75 683f fa3b 3d3f 0d67 563f
00000060: a38d 5e3f 0b48 373f d1ff 4f3f 3805 683f
00000070: a93d 1c3f 208c 323f 8ab2 5d3f 48db 733f
00000080: c0c7 3e3f 18ab 603f 5d99 633f 2d9a 7a3f
00000090: c04a 593f 42bc 6d3f 3c19 6a3f 4c05 443f
000000a0: f746 5a3f 1263 553f d996 233f 5b4b 4a3f
000000b0: 3ba4 4c3f 514a 463f f0c5 583f 1d36 533f
000000c0: 824b 3d3f 45fb 853f 806e 353f 52ab 473f
000000d0: 5f01 6b3f a123 383f 44d5 493f 3849 183f
000000e0: 623f 5a3f 4841 533f d59f 163f 17bd 4a3f
000000f0: 6586 653f af38 323f c3d1 703f b63a 803f
00000100: 4956 5d3f 44ba 733f 3595 633f c22d 703f
00000110: 3ca6 433f 638b 773f 429f 3d3f 87a0 283f
00000120: 367f 463f 7e68 2a3f 51a3 5b3f b6ec 613f
00000130: 9937 463f c709 383f 5376 303f 6219 573f
00000140: f324 553f bb6b 463f 5b90 113f ff2b 4e3f
00000150: 6ada 693f 3ba9 383f a796 373f 4d13 4c3f
00000160: b4af 5f3f 8aed 133f eba0 723f 53bb 3a3f
00000170: 51f9 733f 64b0 703f d43b 3a3f 9d10 5f3f
00000180: 03ca 7e3f 3add 713f 2807 723f dde5 4a3f
00000190: 3821 4e3f ff1e 553f cd44 7c3f 36e8 6a3f
000001a0: d0eb 7c3f 4313 483f 8acf 5a3f e054 763f
000001b0: 9de9 283f df29 553f 1be5 553f 18ee 613f
000001c0: 11d0 183f fb2e 503f 3fc7 4f3f 3914 823f
000001d0: 1673 433f e1f6 3c3f fa06 183f 6401 693f
000001e0: 2a62 483f bba8 4b3f 7197 473f 4772 3e3f
000001f0: 3b53 6d3f 0a33 623f cfbf 743f d077 4f3f
00000200: 07da 3e3f 81a7 873f 7cf4 263f 4e2a 563f
00000210: 66e6 5e3f a5a2 423f ae8f 7a3f cc12 393f
00000220: 402d 383f 5a7a 563f 7069 483f 290a 593f
00000230: 9f48 1d3f 6fc9 503f 1aee 623f c6de 523f
00000240: fcb5 0f3f 1ef9 383f 928a 7a3f 1f4e 4b3f
00000250: 55bd 463f c67d 1c3f 75b9 2a3f 3513 3e3f
00000260: 51f3 463f 101c 223f e6e6 503f 0ca7 453f
00000270: 4150 5c3f 7873 4d3f ddb9 4e3f 0512 6f3f
00000280: cb78 7c3f dbb8 5a3f add6 3a3f 4cb9 7a3f
00000290: 1ddf 263f 0d3e 433f 4979 6c3f 1099 5c3f
000002a0: b3ee 3f3f e02f 763f 5496 523f 3556 663f
000002b0: 25df 323f ee56 423f 48e8 6d3f 5401 4a3f
000002c0: 79c9 723f 8647 6e3f 4e31 1d3f 0d0a 5c3f
000002d0: ec89 233f 44b7 343f a433 533f 106b 263f
000002e0: 523c 203f 6ed0 593f a929 5c3f 551c 383f
000002f0: e394 563f 3d3e 6a3f 6328 823f 1591 433f
00000300: b6f4 4f3f 986e 763f 0a6e 703f d5de 803f
00000310: c44e 2a3f 7369 653f 8203 7f3f f428 563f
00000320: 38d2 193f 5a5c 683f 0156 3b3f e114 523f
00000330: 41ae 723f acd3 253f 5892 6d3f 2874 653f
00000340: e4d5 1b3f 56c5 193f 96d9 733f 9ba4 5a3f
00000350: bb25 863f f246 353f 8769 463f 7128 423f
00000360: d276 6a3f 9b50 6a3f 2edb 643f ff96 243f
00000370: cda4 4c3f bc57 2f3f e343 403f fae8 773f
00000380: dd37 733f 108b 6a3f fd02 4e3f 4dfe 1d3f
00000390: fe6c 203f fa89 453f 88ee 443f 547f 3c3f
000003a0: b274 183f b90a 203f 420d 3d3f 3e3c 5e3f
000003b0: 9630 553f 6090 333f b2aa 643f 683c 163f
000003c0: fc48 543f b5ae 4f3f 087b 7f3f 6c68 3f3f
000003d0: e9f1 5a3f fc9a 1a3f 51bb 5a3f ce0d 4d3f
000003e0: eb7a 3e3f 092a 2a3f 28d5 293f 7c01 1a3f
000003f0: 673c 4f3f b76f 363f ca5a 413f 0b95 683f
0.9817287 0.8650898 0.89775735 0.71716064 0.8851803 0.8648499 0.67716146 0.6774255
0.63495857 0.9178651 0.5789376 0.9496919 0.9397203 0.83582175 0.8868886 0.88415605
0.73987937 0.62195295 0.9165097 0.59793496 0.66238683 0.90804946 0.7391964 0.83750993
0.8693487 0.71594304 0.8124972 0.90632963 0.61031586 0.69745064 0.86600554 0.9525647
0.74523544 0.8776107 0.8890589 0.97891504 0.84879684 0.92865384 0.91444755 0.7657058
0.85264534 0.83354294 0.6390205 0.79021233 0.79938096 0.7745715 0.8467703 0.82504445
0.7394334 1.0467306 0.70871735 0.7799579 0.9179897 0.71929365 0.7884104 0.5948672
0.85252964 0.82521486 0.58837634 0.7919478 0.89658195 0.6961774 0.9407007 1.0017917
0.86459786 0.95206094 0.88899547 0.9381982 0.7642553 0.9669706 0.74071133 0.65869945
0.7753786 0.6656569 0.85796076 0.8825182 0.77428585 0.7188992 0.6893055 0.84023106
0.83259505 0.77508134 0.56860894 0.8053588 0.913489 0.72133225 0.7171425 0.7971695
0.87377477 0.5778433 0.9477679 0.72942084 0.953023 0.9401915 0.7274754 0.87134725
0.99526995 0.9447819 0.9454217 0.79256994 0.8051944 0.8325042 0.9854248 0.91760576
0.9879732 0.7815439 0.8547293 0.9622326 0.65981466 0.83267015 0.8355271 0.8825393
0.59692484 0.81321687 0.811634 1.0162421 0.7634748 0.7381421 0.59385645 0.91017747
0.78274786 0.7955434 0.77965456 0.74393123 0.92705125 0.8835913 0.95605177 0.81042194
0.74551433 1.0597993 0.65216804 0.836583 0.8707031 0.76029426 0.9787549 0.72294307
0.71944046 0.83780444 0.78285885 0.8478113 0.61438936 0.81557363 0.88644564 0.82371175
0.5613706 0.7225512 0.9786769 0.7941608 0.7763265 0.61129415 0.66689235 0.7424806
0.7771502 0.6332407 0.81602323 0.7720802 0.8605996 0.80254316 0.80752355 0.9338687
0.98621815 0.8543832 0.7298382 0.9793899 0.65184194 0.76266557 0.92372566 0.86171055
0.749736 0.961668 0.8226063 0.8997529 0.6987174 0.75913894 0.9293256 0.78908277
0.9483867 0.93077886 0.6140336 0.85952836 0.6388233 0.7059214 0.8250067 0.65007114
0.6259204 0.85083663 0.8600107 0.7191823 0.83820933 0.9150122 1.0168575 0.7639325
0.81232774 0.962625 0.93917906 1.0068003 0.66526437 0.8961403 0.9961473 0.8365624
0.60086393 0.9076592 0.73178107 0.8206311 0.9479714 0.6477611 0.9280143 0.89630365
0.60873246 0.60066736 0.95253885 0.8540742 1.0480264 0.7081138 0.7750477 0.7584296
0.91587555 0.91529244 0.8939694 0.642929 0.79938966 0.6849325 0.75103587 0.9683987
0.95007116 0.9161844 0.8047331 0.6171616 0.6266631 0.7716366 0.7692647 0.7363179
0.5955306 0.6251636 0.73848355 0.8681067 0.8327726 0.70142174 0.8932296 0.5868592
0.82923865 0.81125957 0.99797106 0.7476871 0.85525376 0.6039274 0.8544207 0.8009919
0.7440631 0.6647039 0.66340876 0.60158515 0.8095154 0.71264213 0.7552916 0.9085242

shared.1.bias f4 [512]
00000000: 12a8 143d 42ba 80bd a56c 89bd 0238 023d
00000010: 2009 a9bc 38d1 a6bd d45c 1bbd 20fe adbd
00000020: 8dc4 b6bd dcc1 9c3c 4457 3fbb f50c 503d
00000030: c1e5 253c c010 6ebd ec73 283d cb2d 1cbd
00000040: aff1 2fbd 812e cbbc 095f 59bd 777c 66bd
00000050: 9190 25bd 4acb 58bd fc8f 643b a645 8fbc
00000060: cbdf 85bb 2fd0 cabd 4175 79bd f573 81bc
00000070: 5bf8 63bd 82b9 cabc e685 38bd 4048 1e37
00000080: 26c5 08bd 7255 51bd 8c5c 62bd 12f0 893d
00000090: 0638 f3bc 7cc9 e3bc 690b 55bd 440b 893c
000000a0: d537 f73c 3345 503d 777f c0bd d202 60bd
000000b0: 7d3e e6bc 08ba b0bc 719b 27bd 055c e73b
000000c0: 7e45 06bc bc2a c43c 9eb9 e5bc 58b3 99bd
000000d0: 8797 fd3c 9c0c e3bb d3c4 5abd 4df6 f1bd
000000e0: e122 6ebb 9583 c8bd d438 6cbd 2772 9dbd
000000f0: f83e 5ebd b8fc 53bd 956a 903c 70d4 913c
00000100: 6fb5 19bd 4c32 083d 8c12 3abc 78df 12bc
00000110: 6adc 13bd 01f2 003d 85cf 66bd ca94 95bd
00000120: e88c b93c eea5 e0bc 64f0 37bd b42f 433d
00000130: 61b6 69bd c3b5 13bd 6f4e 45bd e612 8e3d
00000140: c3c1 0cbc f211 e33c 645d 04bd 5ca6 cbbd
00000150: 389d 01bc 87c8 b4bc 9140 d03c ae66 babb
00000160: 0047 19bd efb8 83bd 6aab 61bc 9034 8bbd
00000170: 5126 ad3c 9efd 96bd 0433 86bd d56a 51bc
00000180: 2b46 733d c08b b03c cfbd 7e3c 87cd 99bb
00000190: 5c7b 50bd 48b7 9a3c e7dc 3f3c 84f3 333d
000001a0: b81a 703d e187 a0bd 5fdc a5bd bb01 b13d
000001b0: 85e8 a8bd 1668 cf3c 95fd 8dbc c982 d4bc
000001c0: 7a2e 7ebd e653 80bd 1b34 16bd 5199 913c
000001d0: e3d2 a4bd a22b 68bd a31f 09bd 2806 1d3a
000001e0: f0ca a0bd cc7a 273c b36a ecbc 0e26 44bd
000001f0: 8933 f83c 22a9 ca3b 1497 efbc c975 7fbd
00000200: efee 083d 87b5 d03c 6319 85bd d53c b4bd
00000210: 5c47 69bc fb87 2cbd ba0e 913c a0b4 26bd
00000220: 3545 a3bd f463 3abd defa afbb 908d 80bd
00000230: 29cb 96bd 41c8 60bc 595c 7bbd 7269 1dbd
00000240: 9170 bebd 6bc3 e2ba b8cb 8c3d abd2 6c3d
00000250: 7d10 ebbc 6e44 fcbd f3c3 3fbc 9750 11bd
00000260: b010 65bd f30c 74bd 2302 a8bc 2db1 f13c
00000270: 34c5 b63c f728 04bc 583b a3bb 5449 87ba
00000280: 0f82 a03d 1706 533d f166 aebc fccf b7bc
00000290: 8604 18bd b5fe cbbd 8c59 4e3c c5ac f2bc
000002a0: 923f 0f3c 6287 833d 7e16 dcbc 4296 1ebc
000002b0: d2d9 59bd a54b 03be 5dfc 73bd cd58 343b
000002c0: 5a7d 733d 937b 09bd d452 c8bd 0b19 c63d
000002d0: f45a 91bd 51e9 72bc 9194 4abd 0466 b0bc
000002e0: 2535 94bd b7b0 9e3d 9edd 483d 2f29 2ebc
000002f0: 4bb1 913c 53a7 2cbd 2d3c 183c 4180 efbc
00000300: a697 843c 6fe6 42bd 18db 61bd 8e67 d43c
00000310: c835 7abd 017a 57bd dc60 c1b8 cf54 87bd
00000320: c819 66bc 569a 8ebd 2b98 abbd c407 a3bd
00000330: eb1a 453d e29d d6bc d6c3 df3b 97d6 343c
00000340: 46f9 babd 8601 ddbd 82fa 87bc 38c2 403d
00000350: 183a 57bc 3629 2abb 413f 42bc 0756 68bd
00000360: 749e b0bc a223 44bc b1d9 f7bc 5b76 a1bd
00000370: 5adf b4bd 63b5 3abd a08a 80bd 7611 2b3c
00000380: b701 e53b 79b7 3bbd e011 08bd e515 c4bc
00000390: f67f c2bd b73d d0bc 3498 10bd c9df 39bd
000003a0: 0022 7fbd c760 48bc dcb0 fc3a 55c6 81bc
000003b0: eab7 edbc cfd6 c8bd 1af1 31bd 52b8 e1bd
000003c0: d0ec 36bd 1f81 253d 2d1d 263b 9794 66bd
000003d0: edc2 343d 22f5 e5bd f40a 7f3b 6201 64bb
000003e0: 7278 5e3d 01b2 7ebd 8f01 8ebd 87d5 d4bc
000003f0: 6f97 cbbc 8f2f ccbd 2e5f 08bd 9afb b1bb
0.036293097 -0.06285526 -0.067101754 0.031791694 -0.020634234 -0.08145374 -0.037930325 -0.08495736
-0.08924208 0.019135408 -0.0029196301 0.050793607 0.010125578 -0.058121443 0.041126177 -0.03812961
-0.042955097 -0.024802448 -0.05306915 -0.056271043 -0.040421072 -0.052928247 0.003487586 -0.017489266
-0.004085516 -0.09902989 -0.060902838 -0.015802363 -0.055656772 -0.02474666 -0.04504957 9.434356e-06
-0.03339114 -0.051106878 -0.05526404 0.06735243 -0.0296898 -0.027806036 -0.052012835 0.016729005
0.03017799 0.050847244 -0.09399312 -0.05469019 -0.028105969 -0.021573082 -0.040919725 0.00706053
-0.008195279 0.023946159 -0.02804261 -0.0750491 0.030956043 -0.0069289934 -0.053410362 -0.11814556
-0.0036336707 -0.09790722 -0.057671383 -0.076877885 -0.05425927 -0.051754683 0.017628947 0.017801493
-0.037526544 0.03325109 -0.011356961 -0.008964412 -0.036098875 0.031480793 -0.05635025 -0.0730377
0.022650197 -0.027422871 -0.04490699 0.047652915 -0.057058696 -0.036062013 -0.048170503 0.06937198
-0.008591118 0.027718518 -0.032315627 -0.0994384 -0.007911019 -0.022068275 0.025421413 -0.00568851
-0.037421227 -0.06431758 -0.013773778 -0.06797135 0.021136435 -0.073725924 -0.06552699 -0.012781818
0.05939309 0.021551013 0.015548184 -0.00469369 -0.050898895 0.018886223 0.011710382 0.043933406
0.05861923 -0.07838417 -0.08098673 0.08642908 -0.082474746 0.025318187 -0.017332831 -0.02594127
-0.062056042 -0.06266002 -0.036670785 0.017773302 -0.08048036 -0.056682236 -0.033477437 0.0005989992
-0.07851207 0.010222148 -0.028859472 -0.047887854 0.030298011 0.006184713 -0.029246844 -0.062368188
0.03343099 0.025477184 -0.06498983 -0.08800665 -0.014238205 -0.04212187 0.017707217 -0.0406996
-0.079721846 -0.04550548 -0.005370482 -0.06277001 -0.073629685 -0.013719619 -0.061367366 -0.03843064
-0.09298814 -0.0017300671 0.06874794 0.057818096 -0.028694386 -0.123177394 -0.011704433 -0.035477247
-0.055924118 -0.05958266 -0.020508831 0.02950343 0.02231083 -0.008066407 -0.0049814396 -0.0010321536
0.07837307 0.05151948 -0.02128932 -0.022438042 -0.03711369 -0.09960691 0.012594592 -0.029623399
0.008743184 0.064223066 -0.026866194 -0.009679379 -0.053186245 -0.12821825 -0.059566844 0.002751875
0.059445716 -0.033565115 -0.09781423 0.09672745 -0.07097426 -0.014826135 -0.04945809 -0.02153302
-0.07236699 0.077485494 0.049039476 -0.010629936 0.017784735 -0.04215176 0.009291691 -0.02923596
0.016185593 -0.04758304 -0.055140585 0.025928285 -0.061086446 -0.052606586 -9.2209986e-05 -0.06607973
-0.014044233 -0.06963031 -0.08378633 -0.079604656 0.048121374 -0.026198331 0.0068287654 0.01103749
-0.091295764 -0.10791306 -0.016598944 0.04706022 -0.013136409 -0.0025964505 -0.011855901 -0.056722667
-0.021559931 -0.011971386 -0.03025517 -0.07883903 -0.088316634 -0.04558314 -0.062764406 0.010441175
0.00698873 -0.04582927 -0.033220172 -0.023936221 -0.09497063 -0.025420053 -0.035301402 -0.045379434
-0.062288284 -0.012230105 0.0019278782 -0.015841642 -0.029018361 -0.098065965 -0.043442823 -0.110214844
-0.044659436 0.040406343 0.002534698 -0.05629405 0.04413121 -0.11228396 0.003891644 -0.0034790863
0.054314084 -0.062181477 -0.06933891 -0.025980724 -0.024852483 -0.099700086 -0.033293895 -0.0054316046

shared.3.weight f4 [256, 512]
00000000: 1a87 60bd 9149 e7bd 7898 fabd 6832 f0ba
00000010: 466a abbd 3097 ed3b 457f 2dbc 256b 5abc
00000020: 625f 59bc c1ee f4bd bc5d 8aba ec28 1fbd
00000030: 0e27 0bbe f5c5 1e3d 1fcb a33d 25c6 e9bc
00000040: 7936 f33c 0b72 723d 92d3 143d f340 a5bc
00000050: 82c4 69bc ea95 0a3e 3c1d fa3d 39f9 34be
00000060: f039 76ba c7ae aa3d 0b68 693d ab53 613d
00000070: d174 9a3d 9ca4 013e 6ac8 223d 5457 c73d
00000080: f03f 5b3d 062d a8bd 7707 24bd 2cbd 19bd
00000090: da61 f9bd b331 7abc a0e3 42bb df7f fe3d
000000a0: e531 be3d f4e3 92bd 84e5 9d3c cc2f 3fbc
000000b0: 2e42 b53d 2e4c 6c3c 9751 92bd 84b2 243e
000000c0: b83d e93c f1ae 023e 2ccb 1c3d e270 d8bc
000000d0: 48c0 413d 358c dabb 5745 30bd 1ec6 a23c
000000e0: a048 a63d 4d4a f4bc de70 1a3b 219c 1ebc
000000f0: 80ae 183d d15d 04bd 0ca2 203e e294 673d
00000100: 7a90 eabd 6201 aabd 9f32 eebc 3183 24bd
00000110: 2ad1 723d 8078 b9ba 1563 da3d 70cb c03c
00000120: 6c1c e4bc 3650 18bd af36 703d c52a a2bc
00000130: f418 ae3c 03d9 8abc c8c7 cb3c 3264 433d
00000140: 9a6d b13c b246 4abc 3ddf f8bc 04f9 fbbc
00000150: b620 b23d 43e7 65bb 9d91 f73d 995c 68bd
00000160: 4df3 f03c 9a8e 553c 9d7a e5bc 79d1 e63d
00000170: 08ec 833c c7b9 02bd 7ed5 7e3d c809 df3d
00000180: db29 f93d b0d1 0b3e 6a58 4e3d 3b4e adbd
00000190: 5c27 4c3c e66d 20be cb71 44bd b254 9ebd
000001a0: 1cd5 ecbc 91fd 87bc 49f0 3fbc 88de 153d
000001b0: 323c b63c b5e6 8d3d 60be fb3b 1038 d1bb
000001c0: ed7a 13bd 9ca7 8cbc 0ee5 73bc 72c6 9abd
000001d0: 25f8 f83d c0a7 eebd d750 e53b 2765 9b3d
000001e0: 90cb a53d 7cdd 7ebd ec42 ddbb 71e1 fdbc
000001f0: 6103 09bd a178 193e a0d2 c03d 65f6 a03d
00000200: d75d 34bd a67f 0b3d c6cb 9bbc 0307 a33c
00000210: 0ca7 0ebc abbc 0f3d 9941 743c e629 563c
00000220: 4c52 c83c ea6b 1f3e 55e1 8cbd b498 1fbc
00000230: d8df 6c3c b3a8 0a3d 1122 ee3d 4b48 e93d
00000240: ce89 f8ba 5193 d93d 337b 253e 1ea3 4f3d
00000250: 4a4f 85bd 6e6b 353d 98c5 c63c a833 fcbb
00000260: bac2 d03d 387e c9bd f708 073e d96e 84bd
00000270: a548 8c3d bbc1 5f3d 8fe2 8d3c 43a1 c7bc
00000280: f2b9 e63b a923 9e3d 7bad 303d ff83 c03d
00000290: 0169 303d 953c 3b3c d5f3 493d 626a 4bbc
000002a0: 37fc a03d 8c2d 90bd 207f 92bd a012 2d3d
000002b0: 1a0a 0dbe 991e efbb e060 a8bc ea84 023b
000002c0: cad5 073d 13ab 8c3d de50 23bd ee59 bb3d
000002d0: f1fc c7bc 6fb6 523d 7a0d d63c 7feb feba
000002e0: 9062 3cbd 4dfd 843d 4c21 a43c 81ae 8fbd
000002f0: cc1d 0dbe 9259 e0bd 3f5a 08be 6929 84bc
00000300: 7e15 0e3d ea84 b4bc de1e b3bb 6fb3 253d
00000310: 2479 4a3d c484 25bd 5b8f 1b3d 4729 f8bc
00000320: 4701 053d 4adf 68bd 1332 8e3d 51d2 803d
00000330: befd ff3b dc84 c73c 3f7b 033b 4387 b9bd
00000340: e0c5 6bbc 6fdd 943c 2b82 8dbd 5667 34bd
00000350: ee11 1d3d 3782 bf3d da29 9b3c 220b 053d
00000360: cc40 d83d 8076 45bc d364 423d e409 d3bb
00000370: 3491 963c c58f b43d a11b 8e3d 34b2 8b3d
00000380: ad7d 23bd 86e9 2b3d 24b6 f63c a7ac cd3c
00000390: cfbb fdbb 4d52 cabc f905 31bd 6de4 843d
000003a0: 219e 17bd 034c aa3c 8c28 84bd a510 743d
000003b0: 3638 ed3c 8c6c c8bb 106c 7dbd f39a e03b
000003c0: 93c9 f9bd d53f 59be 086c 923d c37f b6bd
000003d0: a029 a63d f6be 41bc c8e8 a4bc 06bb a83b
000003e0: 914b 0abd c986 81bd de20 94bc bbb5 1dbd
000003f0: 6581 343c 59c8 fdbc 2815 92bb 5f82 28bd
-0.054816343 -0.112933286 -0.12236112 -0.0018325569 -0.083698794 0.007250689 -0.010589425 -0.013331209
-0.01326737 -0.11959601 -0.00105565 -0.038857386 -0.13589117 0.038763005 0.07997727 -0.028536865
0.02968906 0.05919079 0.03633458 -0.020172572 -0.0142680425 0.1353375 0.12212607 -0.17673196
-0.00093927886 0.083341174 0.05698399 0.055011433 0.07541812 0.1266045 0.03974191 0.097334534
0.053527772 -0.082117125 -0.04004618 -0.037533924 -0.12176867 -0.015270638 -0.0029737726 0.12426733
0.092868604 -0.07172385 0.01927448 -0.0116691105 0.088505134 0.0144224595 -0.07144468 0.16083723
0.028471813 0.12762047 0.038279697 -0.026421014 0.047302514 -0.006669546 -0.043034878 0.01986986
0.08119321 -0.029820586 0.002356581 -0.009680779 0.03727579 -0.032316033 0.15686816 0.05653847
-0.11453338 -0.08301045 -0.029076872 -0.040164176 0.059281506 -0.0014150292 0.1066343 0.023534507
-0.027845584 -0.03718587 0.0586459 -0.019795785 0.021252133 -0.016949182 0.024875537 0.047702976
0.021658707 -0.012345957 -0.030379886 -0.030758388 0.08697645 -0.003508047 0.120883204 -0.056728933
0.02941289 0.013034487 -0.028012568 0.112704225 0.01610376 -0.031915452 0.06221532 0.108905375
0.121661864 0.13654208 0.050377287 -0.08462187 0.012460556 -0.15666923 -0.047960084 -0.07730998
-0.028910212 -0.016600402 -0.011715003 0.036589175 0.0222455 0.069287695 0.0076826066 -0.006384857
-0.036005903 -0.017169766 -0.014886154 -0.07557382 0.12156705 -0.116530895 0.0069981623 0.07587653
0.08095467 -0.062222943 -0.0067523625 -0.030991288 -0.033450488 0.14987423 0.094151735 0.07859496
-0.044034805 0.034057282 -0.019018065 0.019900804 -0.008706819 0.035092037 0.014908218 0.013071513
0.024453305 0.1556851 -0.06878916 -0.009740997 0.014457665 0.03385229 0.116275914 0.11390742
-0.0018961967 0.106238015 0.16160278 0.05069267 -0.06509264 0.044291906 0.024264142 -0.0076965876
0.10193391 -0.098385274 0.13187014 -0.06466455 0.06849793 0.054628115 0.017319946 -0.024368888
0.0070412094 0.077216454 0.043134194 0.09400176 0.04306889 0.011428018 0.049304802 -0.0124155
0.07860606 -0.070399374 -0.071531534 0.04225409 -0.13773385 -0.0072973487 -0.020554006 0.0019915649
0.03316287 0.06868567 -0.039872043 0.09148012 -0.024412604 0.051443513 0.026129473 -0.0019448845
-0.045992434 0.06493626 0.020035408 -0.07015706 -0.13780898 -0.10954584 -0.13315676 -0.016133027
0.034688465 -0.022036035 -0.005466326 0.040454324 0.049431935 -0.04040982 0.03797851 -0.03029312
0.03247192 -0.05685357 0.06943145 0.06290115 0.007812231 0.024355344 0.0020062474 -0.09059002
-0.014390439 0.018171994 -0.06909593 -0.04404386 0.038347177 0.093510084 0.018940855 0.03248132
0.10559234 -0.012052178 0.047459435 -0.006440388 0.018379785 0.08816484 0.069388635 0.06821099
-0.039914776 0.041970752 0.030116148 0.025106741 -0.007743336 -0.024697447 -0.043218587 0.06488881
-0.037016038 0.020788198 -0.06453046 0.059586186 0.028957468 -0.0061164554 -0.061870635 0.006854409
-0.1219665 -0.21215756 0.071495116 -0.08911087 0.08113408 -0.011825314 -0.02013053 0.005149248
-0.033763472 -0.06324536 -0.018082079 -0.03850339 0.011017178 -0.030979322 -0.0044580884 -0.041139957

shared.3.bias f4 [256]
00000000: 1368 513d a4e7 403d fd98 1f3d 1515 13bd
00000010: f155 b43b e1f8 95bc f9c8 663d a713 ccbc
00000020: 9c05 fbbc 6634 eabb ff6c 22bc 9355 883c
00000030: 99be 85bc 323d a03a 7e70 0db9 37bc cf3b
00000040: ca99 74bc a7c9 e13c 37f3 933c acce 5e3d
00000050: 744c e4bc d1f9 12bc 54e2 69bc dc18 723a
00000060: e86e 0e3c c060 d23c 0cf0 f8ba 0fdc c3bc
00000070: c01b 353c 2bd9 0bbd cf42 593d 2456 213d
00000080: a3f2 c1bc 06d4 a53c 7b2b 13bc 18c8 a4bb
00000090: 6164 70bc 7291 3dbc 4f16 57bd 24d2 523c
000000a0: d0b5 c0bc 40c2 343d d77c 173d db1f 15bd
000000b0: 4888 0abc 7459 233b bf4f 343a 4705 463c
000000c0: f499 77bc a6ef 803d b437 41bd 9a0c 9c3c
000000d0: 4c25 f5bc 9ec3 83bd 1f7d 28bc d943 36bc
000000e0: 2817 23bc 98ec b23b 1a5d 073d cd6d 4cbd
000000f0: 3625 ae3b 8e2f 55bc 7dce 6c3c a400 4f3c
00000100: 1c6a 97bc 694b 1cbc 8adb 58bc a894 0c3b
00000110: f86b cd3a 1788 10bc 696a ab3c 0bbe 4a3d
00000120: 2a28 d03c 0902 a1bc 0e16 773c acf3 d3bc
00000130: 6362 2b3d 7547 5f3c 848b 22bd a372 d93c
00000140: d4f0 cc3b 131c 63bd 2678 693d 60af 63bd
00000150: 3bf7 d03c 008e 1bbd c0ff 40bd bb74 373c
00000160: 5a90 a13c af33 ec3c 425f c9bc 096b 6a3b
00000170: dd94 133d b945 483d b22b fdbc afbf e7bb
00000180: 149d 47bd 326f b23c 2038 a3bb 3bfb 26bd
00000190: a3e5 5bbd 3fe4 20bc 7189 96bc 2b7a fdbc
000001a0: dce1 433d c82d 413b 09c8 473c 927c 113c
000001b0: 29d5 953c 1ff9 2f3c 916f 083c 02ad 25bc
000001c0: 3f77 373c 4a2b a33b 881f 5f3c e921 593b
000001d0: 3de0 b43c 3773 fb3c 0c29 c93b 98ec 243d
000001e0: 3c07 c3bc 6084 59bc 09c4 7b3d 757b 2d3d
000001f0: a28b 3b3c b303 f93c fd5c 74bc 3aa5 13bc
00000200: 71a5 28bd 88ba 943c adff 2bbd b0c8 58bb
00000210: e6ba 72bb 7e8b ae3c cab1 1f3d 4d41 aa3b
00000220: 20e9 593c 91dc 3f3c c55c bd3c 27a6 1b3d
00000230: aa2f 21bc 2e0c 87bb 851b be3c c7da ddbc
00000240: 2c7b fb3c f3a3 453c 66e3 dcbc 51fe 92bc
00000250: 315f c83c 718c eb3c c98f af3c d89f e43c
00000260: 7d22 043d 846d 35bc 36d4 8f3d 4da7 173d
00000270: 6fb7 86bd 71ee a63c b712 893c 381e 05bd
00000280: edd1 67bc daf6 7a3b cf6e 07bc b063 f43c
00000290: d4cd 393d 8fe0 0d3b f2a8 68bd 68cc 84b9
000002a0: 3350 25bc 8dc6 a13c ef62 1e3a 3297 143c
000002b0: 0ec6 b03c 9f6b 713c 983f 27bc 154b 0e3d
000002c0: 6133 a43b 2d59 d13c 5427 01bd 3f15 433d
000002d0: 41a8 163d 47af 5b3d 8e77 7e3c 5d27 543c
000002e0: be5f 6b3c 2f26 e83c c8c9 aa3c 320a 55bc
000002f0: 5158 3abd 428e 373c 9dfd fabc b7b4 0f3d
00000300: bb9f a43c 7a1e e6bb 63a3 5bbd 1751 07bd
00000310: 52ce 33bc fac7 92bc 1cf5 f33c d2fe 9abc
00000320: ff8f 04bb eda9 503c 87d6 373c dc32 a2bc
00000330: 856d 81bc be55 40bd 3639 383c 21a1 2a3a
00000340: 7957 bc3c 7281 993c 48cd 123c b549 3e3d
00000350: dcb9 f23c 959b 91bb aa70 82bc 111c 653c
00000360: b0a8 3d3c 4e24 5dbc 4c01 8e3c d69a 5c3c
00000370: 6082 833c 1eca a4bc 25a8 953c 0560 e7bb
00000380: efa9 e03b 1e50 f23c 8a1f 463d 383f 003d
00000390: 24be 85b9 ba8f 7e3d 31df 2e3c bde1 b2bc
000003a0: f74d 8dbb 9335 b0bc f995 6cbb ecc4 983b
000003b0: b4ee 9e3b d141 173d bdf8 5ebc 6843 613a
000003c0: add6 5c3c 3491 c339 b347 c63c 95eb 2e3d
000003d0: 4488 053d aa39 9a3c 9a5c 50bc 3811 e6bc
000003e0: 115f 1f3c eb41 ee3b 2dff f03c 16c1 9cbb
000003f0: 248b 7b3c 9f2c d73a 4f96 233c e90b 16bd
0.051124644 0.04709591 0.03896426 -0.035908777 0.005503409 -0.018307151 0.056344006 -0.024911715
-0.030642323 -0.0071473597 -0.009913682 0.016642367 -0.016326236 0.0012225269 -0.00013488714 0.0063395756
-0.014929244 0.027561976 0.01806031 0.054396316 -0.027868487 -0.008970694 -0.014275152 0.0009235272
0.008693434 0.0256809 -0.0018992438 -0.023908643 0.011053979 -0.034142654 0.05304223 0.03938879
-0.023675269 0.020242702 -0.0089825345 -0.005028736 -0.01467237 -0.011570321 -0.05251151 0.012867484
-0.023524195 0.044130564 0.03698429 -0.036407333 -0.008455344 0.0024925144 0.0006878338 0.012086219
-0.015112389 0.06295709 -0.047172263 0.019048978 -0.029925011 -0.064337954 -0.010283737 -0.011124575
-0.009954251 0.005460333 0.033047773 -0.0499094 0.0053144945 -0.013011826 0.0144535275 0.01263443
-0.018483214 -0.009539464 -0.013235936 0.002145091 0.0015672436 -0.008821509 0.020924764 0.049497645
0.025409777 -0.01965429 0.015080942 -0.025873028 0.041841876 0.0136278765 -0.039683834 0.02654392
0.006254295 -0.055446696 0.056999348 -0.055587173 0.025508514 -0.03797722 -0.047118902 0.011197264
0.019722153 0.028833238 -0.024581555 0.0035769364 0.03603064 0.048894618 -0.030904625 -0.007072411
-0.048733786 0.021781538 -0.004981056 -0.040766936 -0.053685796 -0.009820043 -0.018376084 -0.030942043
0.04782282 0.002947675 0.012193688 0.0088797975 0.01829012 0.010740547 0.008327381 -0.010112049
0.011197864 0.0049795257 0.0136183575 0.0033131784 0.022079581 0.030694587 0.0061389264 0.040264696
-0.02380716 -0.01327619 0.06146625 0.042354066 0.011446865 0.030397272 -0.014914748 -0.009011561
-0.041173402 0.018155351 -0.04199188 -0.0033078603 -0.003703767 0.02130675 0.038987912 0.0051957727
0.01330021 0.011710302 0.023115525 0.038000252 -0.009838024 -0.004121325 0.023206482 -0.02708186
0.030698381 0.012063014 -0.0269639 -0.017943533 0.024459453 0.028753491 0.021430867 0.02790825
0.032259453 -0.011073474 0.07022898 0.037024785 -0.06577956 0.02037737 0.016732557 -0.032499522
-0.014149171 0.0038294108 -0.008266165 0.029832691 0.04536231 0.002164874 -0.056801744 -0.00025329296
-0.010089922 0.019747997 0.0006041964 0.009069251 0.021578815 0.0147351315 -0.010208033 0.034739573
0.0050110077 0.025555218 -0.031531647 0.047627684 0.036781553 0.053633954 0.015531434 0.012948838
0.014366088 0.02833852 0.02084817 -0.013002919 -0.04549438 0.0112033505 -0.03063851 0.035084452
0.020095697 -0.007022676 -0.053622615 -0.033036318 -0.010974484 -0.017917622 0.029779963 -0.018920336
-0.002022743 0.012735826 0.011220581 -0.019799642 -0.015799293 -0.04695677 0.011244109 0.00065089954
0.022990929 0.018738482 0.008960076 0.04645701 0.02962964 -0.0044435957 -0.015922863 0.013983742
0.011575863 -0.013497425 0.017334603 0.01346465 0.016053379 -0.020115908 0.018268654 -0.007061007
0.006856195 0.029579218 0.04836992 0.03131029 -0.00025509403 0.062148787 0.01067333 -0.021836156
-0.0043122726 -0.021509921 -0.0036100133 0.004662147 0.004850233 0.036928 -0.0136091085 0.0008593113
0.013478917 0.00037301483 0.02420411 0.042705137 0.032600656 0.018826324 -0.01271739 -0.028084382
0.009727255 0.0072710416 0.029418552 -0.00478376 0.015352998 0.0016416496 0.009984567 -0.036632452

shared.4.weight f4 [256]
00000000: e0ae 813f 6494 6d3f 5d07 773f 2110 523f
00000010: 3935 723f 396b 4c3f e2e5 793f f110 803f
00000020: ac37 353f c892 163f f960 223f 2238 6a3f
00000030: a24e 5b3f 929f 1b3f bf8f 7f3f c5c9 473f
00000040: ee29 543f 558b 733f 1213 6d3f 353d 833f
00000050: ddc6 473f 8590 693f d0db 6c3f a148 2f3f
00000060: fe8d 6b3f 852e 883f 61c9 1e3f 1790 0e3f
00000070: eac0 5c3f 8623 393f 7e44 6e3f 1cc6 6c3f
00000080: 6a16 573f 4d3f 6a3f 9e64 643f 5e19 663f
00000090: 27cb 6c3f 224f 863f 9f32 113f a7da 203f
000000a0: 448e 703f 5ab0 773f 2543 433f 4fee 473f
000000b0: 88a9 103f fec9 283f 935a 783f c6de 6f3f
000000c0: 3bb0 563f c3f5 813f b551 3d3f a3cd 313f
000000d0: bbe0 353f c77d 5d3f 99e2 803f 8056 543f
000000e0: 54f4 743f 5fd6 683f cf23 603f 7740 613f
000000f0: d523 603f a3ad 843f 1560 743f 6fd9 733f
00000100: 89d3 583f 7ac4 1c3f 80dd 823f 2f16 223f
00000110: c86c 463f f5bd 403f 6361 383f dae2 7b3f
00000120: 73d9 6a3f 1155 793f 4873 5e3f 5cb5 0e3f
00000130: 2808 763f f974 5b3f 768f 153f eeef 6c3f
00000140: 02a2 523f 56dd 293f c5c7 673f cad3 423f
00000150: 1486 743f 8981 333f 328f 103f fa90 693f
00000160: 1235 513f 802f 703f 3d26 273f 5bf6 683f
00000170: d9a6 553f d8cd 713f 5513 373f a86d 213f
00000180: 3232 6a3f e509 2b3f c06d 6c3f e812 3f3f
00000190: 13bf 1a3f 1072 613f d2c9 2e3f 015d 3b3f
000001a0: b614 603f a63d 523f 7ec3 503f 293b 6e3f
000001b0: 6750 7e3f 4a36 143f f50e 773f c0a5 483f
000001c0: b85e 6c3f 001a 7c3f 2273 113f a0fc 573f
000001d0: f052 683f d106 4b3f 34a8 6b3f eba6 633f
000001e0: b0da 4b3f 10b0 363f 42bb 803f 90cc 4a3f
000001f0: d8fc 613f 259e 6d3f e037 713f 280f 393f
00000200: d76a 5b3f a2d0 823f 9084 1e3f c6d1 323f
00000210: e34f 643f 3182 753f 4531 833f 2cc1 283f
00000220: 4af4 523f 6fd4 313f 2907 4f3f d2b9 633f
00000230: 007e 833f 21d5 4f3f 04b4 813f 21bf 503f
00000240: 8bc8 713f 8afa 693f 8983 673f af29 453f
00000250: 191a 3b3f 6045 713f 28d3 333f 32c9 693f
00000260: fd44 773f d929 383f 4f97 913f e995 6c3f
00000270: 5b0b 6d3f c731 4f3f 043d 733f 3933 3b3f
00000280: f87f 683f 4418 7c3f dc9b 6b3f 27de 5c3f
00000290: 0307 5b3f 271d 113f 7d3c 5c3f 8335 523f
000002a0: 8fc9 7b3f 204e 403f 3bde 4b3f 97ad 453f
000002b0: 82f9 703f f1a0 6e3f d008 243f a281 6a3f
000002c0: 2870 653f d774 613f d897 723f a273 773f
000002d0: 8061 663f a6f8 803f 821b 273f 5954 193f
000002e0: fd97 563f f113 5b3f bc4d 733f 0e25 6f3f
000002f0: 049a 1f3f a892 653f 38ae 453f 41e3 763f
00000300: 6295 653f 7b79 3a3f 8e1e 613f a0a2 3d3f
00000310: 2622 653f 55f1 203f 545b 743f 9866 733f
00000320: 0b9c 6b3f 08b2 703f eeb5 773f 738d 573f
00000330: 9298 623f d73d 383f ff38 503f a540 6a3f
00000340: 1289 703f 1cd5 313f f63b 383f e55e 713f
00000350: 40ac 613f ad20 243f a5fd 4a3f 1fae 123f
00000360: 38e8 673f 385b 613f 9438 4b3f 5e05 673f
00000370: 988d 473f f18f 5c3f d6b2 763f 7e3e 833f
00000380: 5767 4e3f 02f9 823f 2ea7 753f 8f06 5c3f
00000390: c188 793f 154d 833f 943f 563f c7ef 1f3f
000003a0: 2585 6d3f 4f64 323f f647 373f c781 713f
000003b0: de66 213f 3e22 853f 1488 813f 631b 653f
000003c0: 2b74 763f 551e 713f cae3 6d3f 64df 6f3f
000003d0: a2a3 5b3f 4beb 493f 66ae 433f a67b 5f3f
000003e0: 77a0 483f 2e29 463f 8e4a 5e3f dd21 353f
000003f0: e60f 6f3f 04cc 3c3f 8ad3 6d3f e079 353f
1.0131493 0.9280455 0.9649561 0.8205586 0.9461246 0.7985111 0.976164 1.000517
0.70788074 0.5881772 0.6342922 0.914919 0.8566686 0.6079036 0.99828714 0.7804225
0.8287648 0.9513448 0.92607224 1.0253054 0.78037816 0.91236144 0.9252291 0.684702
0.9201354 1.0639197 0.6202603 0.55688614 0.86231863 0.7231983 0.9307326 0.9248979
0.84018576 0.9150284 0.8921603 0.8988246 0.92497486 1.04929 0.56717867 0.62833637
0.9396708 0.96753466 0.7627433 0.78098005 0.56508684 0.65933216 0.97013205 0.936993
0.83862656 1.0153126 0.739528 0.694544 0.71046036 0.86520046 1.0069152 0.8294449
0.95685315 0.90952104 0.8755464 0.8798899 0.87554675 1.036549 0.9545911 0.9525365
0.8469778 0.612373 1.0223846 0.633151 0.77509737 0.7528985 0.720236 0.98393023
0.9173805 0.97395426 0.86894655 0.5574548 0.96106195 0.8572536 0.5842203 0.92553604
0.82278454 0.66353357 0.905392 0.76104414 0.95517087 0.7011953 0.564685 0.9123684
0.81721604 0.9382248 0.6529272 0.9100091 0.83457714 0.9445472 0.71513873 0.6305795
0.9148284 0.6681197 0.92354965 0.74638224 0.60447806 0.8806467 0.68276703 0.7318879
0.875316 0.8212532 0.815483 0.9305902 0.99341434 0.5789534 0.965072 0.78377914
0.9233203 0.9847717 0.56816304 0.8436985 0.9075155 0.79307276 0.9205353 0.8892657
0.79630566 0.713624 1.0057147 0.7921839 0.88276434 0.92819434 0.94225883 0.7228875
0.857099 1.021992 0.61921024 0.6985134 0.891844 0.9590178 1.0249411 0.65919757
0.82404006 0.6946477 0.808703 0.88955414 1.0272827 0.81184584 1.0133061 0.8154164
0.9444663 0.9139792 0.9043508 0.7701673 0.73086697 0.9424648 0.70244074 0.91322625
0.9658964 0.71938854 1.1374301 0.92416245 0.9259545 0.8093533 0.9501498 0.73125035
0.90820265 0.98474526 0.920347 0.8627648 0.85557574 0.5668511 0.860298 0.821129
0.9835443 0.7511921 0.7963597 0.77218 0.9413072 0.9321433 0.64075947 0.91604054
0.8962426 0.8806891 0.94762945 0.96660817 0.89992523 1.0075881 0.6527635 0.5989433
0.83825666 0.85577303 0.9504049 0.93415916 0.62344384 0.89676905 0.7721896 0.9644051
0.89681065 0.72841614 0.8793725 0.7407627 0.8950523 0.62868243 0.95451856 0.9507842
0.9203498 0.94021654 0.9676198 0.8420021 0.88514054 0.7196936 0.8133697 0.9150489
0.9395915 0.69465804 0.71966493 0.9428542 0.8815346 0.6411236 0.7929328 0.5729694
0.9058871 0.88029814 0.79383206 0.90242565 0.7795043 0.8615714 0.9636663 1.0253446
0.80626434 1.0232241 0.9595822 0.8594751 0.97474295 1.0257899 0.8369076 0.62475246
0.9278129 0.6968431 0.7159418 0.9433865 0.6304759 1.0401075 1.0119653 0.89494914
0.9627101 0.9418691 0.92925704 0.9370024 0.8579656 0.78874654 0.76437986 0.8729805
0.7836985 0.77406585 0.8683251 0.70754796 0.93383634 0.73748803 0.9290091 0.7088909

shared.4.bias f4 [256]
00000000: a1a6 543c 4020 e8bc feb3 b5bb bc37 4dbc
00000010: 878c e4bc 372c 3dbd e084 bbba 11bf 91bb
00000020: fb25 88bd b36d d7bd 4e52 b2bc 82bd f7bc
00000030: 7d74 dcbc 193e 69bd 5c5b 9fba f644 32bd
00000040: 6036 d3bc 96d7 07bc 9a82 e83b 7b76 023c
00000050: edc7 cdbc 513d febc 53e2 cdbc 904b ccbc
00000060: 6c7e 523b 96cb bf3c ff5f babc af9e 48bd
00000070: 300c 54bc e2c7 5fbd e25b 06bd 59cf 28bc
00000080: bf1f 99bc 5c47 e5bc 3ec1 b9bb 8c8f 87bc
00000090: 1837 1cbd c4dc 9bba f91d c2bc 9803 84bd
000000a0: 1a4e b6bc b2b3 c4bc f4ef b5bc 3aa0 0ebd
000000b0: 14ed 3cbd 3f49 8cbd 681c 333c 0baf 84bc
000000c0: 3ef5 4fbd 3255 f23b 1128 05bd 4379 56bd
000000d0: 6a52 47bd a082 debc 8a9c b3bb 0a4d e0bc
000000e0: 1a49 04bc d4a9 bdbc e711 e7bc 4ae3 06bd
000000f0: 2264 f1bc ff36 bd3b 2384 c8bb 02b3 00bc
00000100: 64d4 fdbc 978e 41bd bfa8 09bc 4229 82bd
00000110: 7f20 a9bc 2e6b 80bd e708 12bd 1815 283c
00000120: 931f a8bc 78b2 f5bc 1869 dbbc 34a7 42bd
00000130: aea7 5dbc 7a9d ee3a ec09 adbc 5a62 22bc
00000140: d749 84bd 64c2 24bd 5cf6 e0bc 6763 c5bc
00000150: 94b7 8439 be94 f8bc 7c15 52bd dcf4 ddbc
00000160: 2be0 bdbc 3c08 9ebb 3337 6cbd 63af c93c
00000170: aac5 81bd fe7a 30bc 3026 96bd 2584 8abd
00000180: 0014 e6bc afa4 27bd 48a0 3bbc 739a ccbc
00000190: 6b34 bcbc c3e0 dabc b612 b4bc 3fd6 a8bd
000001a0: 8aa3 9d3b 73c4 ad3c 3ce1 0abd 5c03 25bd
000001b0: 87fc df39 9d6e 6fbd 04d3 91bb 581d 5abd
000001c0: ef5f 29bc 05e3 853c e6fe 1cbd b552 2cbd
000001d0: 50a7 26bd b849 5dbd 76c3 1abd 9bd8 ebbc
000001e0: 5cd1 2e3a d45a d6bc f8f1 8cba a873 11bd
000001f0: 6f38 2cbd 32c8 553b 6bef cebc a33a 2fbd
00000200: 376c 27bd 9371 2ebc c80b 3dbd e7df 4bbd
00000210: 570d 46bc 18fe 323c 8e76 b53c 0303 f1bc
00000220: f890 cfbc fdcd 05bd 69ba 2ebd bacb 623b
00000230: b231 793c 80b9 6fbd 0103 9a3c 4cee c0bc
00000240: 2913 f03c 53c6 9cbc 8171 34bc cd88 69bc
00000250: 519e 5fbd f3d6 513c f6ab 65bd e198 07bd
00000260: a46e 47bc b643 bfbc 1c6f 333d 050e cdbc
00000270: e534 c7bc 4dda 0ebd 8f41 543a 1c20 fbbc
00000280: 0245 1dbd 50d3 8e3a 1ffe 2e3c b05b 39bd
00000290: 2e7a 71bc c573 c9bc 6ca6 d9bc 82b4 03bd
000002a0: a669 073b 0db8 ec3a 82dc 64bc 88a3 64bc
000002b0: 7d14 6ebc a285 61bc 78aa 81bd 0133 ab3b
000002c0: 050f acbc 2d84 d7bb 19fb 9fbc 0449 b2bc
000002d0: 76fc adbc 5b59 ec3b 720a 0abd 6460 e0bc
000002e0: c316 16bd 796c 17bd 6c28 c3bc 6973 55bc
000002f0: 12a1 24bd 5ed2 1dbc e2ed 21bd bfad adbc
00000300: 0411 a63c 7eac 22bd 5715 d4bc b656 d3bc
00000310: df2c dbbc bd5d bcbc 76fe c9bc 0c8a 483c
00000320: 5d9e 38bc a5d9 05bd fce8 373b de3d 24bd
00000330: d589 21bd c28c fabc 7f44 b3bc 1a4e c2bc
00000340: cf55 e1bc f175 24bd acac c4bc e45f 40bd
00000350: 7450 25bd a750 a8bc 6ce3 86bc a89b 13bd
00000360: 255b c5bc dbbb cb3a b4af 5dbd a0ae 1ebc
00000370: 2f10 47bd 2f0d 9fbc 6841 54bc 3e5b 02bc
00000380: f6fb 10bd e809 d438 de89 2db9 3648 ffbb
00000390: c1d7 7cbc e33d 523c 8d2b c3bc 77a8 babc
000003a0: 6ad7 20bd 6aa6 1abd d886 09bd 974c 22bc
000003b0: 5e14 95bd b475 7a3a 18ed 853c d19b 8a3b
000003c0: d507 9cbc ad63 4dbc 4ba2 003c 31a7 d7bc
000003d0: 69c7 3ebd bfbd d9bc c72b 5abd 7602 77b9
000003e0: 18b2 4cbd 7a1d 1dbd e2e0 28bb c055 11bd
000003f0: 4294 3a3c 59e8 dbbc 7fe4 b13c 1f60 13bd
0.012979181 -0.02833569 -0.0055451384 -0.012525495 -0.02789904 -0.046184745 -0.0014306568 -0.0044478257
-0.06647869 -0.1051897 -0.021767762 -0.030241732 -0.026911015 -0.056943987 -0.0012157965 -0.043522798
-0.025782764 -0.008291146 0.007095647 0.007962818 -0.025119746 -0.031035097 -0.025132334 -0.024938375
0.003211881 0.023412507 -0.022750853 -0.048979457 -0.012942359 -0.054633982 -0.03280247 -0.010303342
-0.018691896 -0.027988128 -0.005668788 -0.01654794 -0.03813848 -0.0011891355 -0.023695933 -0.06445998
-0.022254039 -0.024011467 -0.022209145 -0.034820773 -0.046124533 -0.06849908 0.010932066 -0.016196748
-0.05077099 0.00739541 -0.032508913 -0.052361738 -0.04866258 -0.027161896 -0.0054813074 -0.027380485
-0.008074069 -0.02315227 -0.028206779 -0.032931603 -0.029466692 0.0057743783 -0.0061192675 -0.007855179
-0.030985065 -0.047255125 -0.008402049 -0.063555256 -0.020645378 -0.06270443 -0.03565302 0.010258935
-0.020522868 -0.029992327 -0.026783511 -0.04752274 -0.0135287475 0.0018204891 -0.021122895 -0.009911144
-0.06459396 -0.040224448 -0.027461223 -0.02409525 0.00025313778 -0.030344363 -0.05129002 -0.027094297
-0.02317818 -0.004822759 -0.05766983 0.024619764 -0.063365296 -0.010771511 -0.073315024 -0.06763486
-0.028085709 -0.04092854 -0.011451788 -0.02497599 -0.022974214 -0.026718503 -0.021981578 -0.08243989
0.004810755 0.021211838 -0.033906206 -0.040286407 0.00042722022 -0.0584551 -0.004450204 -0.05325064
-0.010337814 0.016343603 -0.038329028 -0.042071063 -0.040686905 -0.05402538 -0.037784062 -0.028789809
0.000666877 -0.026166357 -0.0010753265 -0.03551069 -0.042046007 0.0032620546 -0.025260648 -0.04278053
-0.040874686 -0.010647195 -0.046153814 -0.049774077 -0.012088141 0.0109248385 0.022151258 -0.029420381
-0.025337681 -0.03266715 -0.042658243 0.0034606294 0.015209602 -0.058526516 0.01880026 -0.023551129
0.029306011 -0.019137537 -0.01101339 -0.014253807 -0.05459434 0.012807596 -0.056072198 -0.03310478
-0.012172375 -0.023347717 0.043807134 -0.0250311 -0.024317214 -0.034876157 0.0008096927 -0.03065496
-0.03839589 0.0010896716 0.010680704 -0.045253456 -0.014738603 -0.024591336 -0.026568614 -0.032154568
0.0020662337 0.0018060223 -0.013968589 -0.0139550045 -0.014531252 -0.013764771 -0.063313425 0.005224586
-0.021003256 -0.006577036 -0.019528912 -0.021763332 -0.021238547 0.0072128004 -0.033701368 -0.027389713
-0.0366428 -0.036968682 -0.023822986 -0.013028004 -0.04019267 -0.009632675 -0.039533503 -0.021201013
0.020271786 -0.039715283 -0.025889082 -0.025798183 -0.026754795 -0.022993917 -0.02465747 0.012239944
-0.0112682255 -0.032678265 0.0028062453 -0.040098064 -0.039438087 -0.030584697 -0.021883247 -0.023718882
-0.027506737 -0.04015154 -0.024008118 -0.04696645 -0.04035993 -0.02054627 -0.016465865 -0.036037117
-0.024091313 0.0015543656 -0.05412264 -0.0096851885 -0.04859942 -0.019415466 -0.012955047 -0.007956324
-0.03539654 0.00010110793 -0.00016549925 -0.0077905906 -0.015432299 0.012832138 -0.023824478 -0.022785408
-0.039267935 -0.03775636 -0.033575863 -0.009905956 -0.07279275 0.00095542823 0.016348407 0.0042300005
-0.019046703 -0.012535972 0.007851194 -0.02632484 -0.04657689 -0.026579736 -0.053264406 -0.00023556672
-0.04997453 -0.03835819 -0.0025768806 -0.03548217 0.0113878865 -0.02684419 0.0217154 -0.03598034
