checkpoints/yahtzee_pretrain_faster/checkpoint_ep8999.pt (torch, 958933 bytes, 25 tensors)

shared.0.weight f4 [512, 23]
-2.2589588e-06 -1.959458e-06 -1.340738e-06 -9.72788e-07 -1.7612838e-06 -0.0013316572 -5.652502e-10 -4.513163e-09
-7.592854e-09 -3.4497234e-08 -9.6187955e-09 -2.839771e-07 -3.4374436e-06 -2.6580787e-07 4.133843e-06 -5.2874275e-06
-2.9842437e-09 8.0644793e-07 1.3462033e-08 -1.8887292e-09 7.130407e-08 -1.6999874e-12 1.1121051e-08 -2.3259179e-06
-1.9595916e-06 -1.3637066e-06 -9.779069e-07 -1.7731552e-06 -6.1386845e-07 -2.6727758e-09 -3.7011096e-09 -8.2587075e-09
-3.494376e-08 -9.472235e-09 -2.7436383e-07 -3.4617733e-06 -2.7300686e-07 4.203535e-06 -5.237545e-06 -3.6421974e-09
7.9831983e-07 7.568257e-09 -3.9659347e-09 7.159986e-08 -5.0458228e-11 2.0274694e-10 -2.2282088e-06 -1.958671e-06
-1.2579986e-06 -9.372444e-07 -1.7737215e-06 0.00043841748 -2.436766e-09 -4.7086264e-09 -6.287854e-09 -3.4612015e-08
-9.59178e-09 -2.844273e-07 -3.4428642e-06 -2.606967e-07 4.0833725e-06 -5.2958108e-06 -2.6986051e-09 8.1384223e-07
1.3819305e-08 1.7163568e-09 7.093998e-08 -4.1862215e-08 -1.3353265e-06 -2.2342929e-06 -1.9586955e-06 -1.2478959e-06
-9.373716e-07 -1.7697631e-06 1.6676244e-12 -7.997915e-10 -4.7553463e-09 -6.6620167e-09 -3.4492558e-08 -9.623574e-09
-2.772024e-07 -3.4442326e-06 -2.5070298e-07 4.052392e-06 -5.300523e-06 -2.6517828e-09 8.142199e-07 1.3866354e-08
9.347907e-09 7.101791e-08 5.008316e-10 2.9982181e-09 -2.2376923e-06 -1.9588274e-06 -1.2521729e-06 -9.400515e-07
-1.7684627e-06 9.406852e-13 -1.2359959e-09 -4.7455213e-09 -6.6729777e-09 -3.4401463e-08 -9.6356505e-09 -2.7290002e-07
-3.4427926e-06 -2.4848822e-07 4.048131e-06 -5.299083e-06 -2.6821971e-09 8.1141036e-07 1.3708638e-08 1.0442665e-07
7.1581056e-08 -4.9078e-41 -0.0010630763 -2.6021446e-06 -1.7522827e-06 -1.942747e-06 -1.1511834e-06 -1.6140506e-06
7.79268e-12 8.4161345e-10 -3.0922678e-09 -1.1209823e-09 -3.382751e-08 -1.1414525e-08 -1.478115e-07 -3.6009078e-06
-3.06362e-07 4.345179e-06 -5.053655e-06 -5.911167e-09 7.1924836e-07 -4.5791557e-09 1.1776557e-08 7.64352e-08
3.906921e-07 -5.2483e-41 -2.2318113e-06 -1.958546e-06 -1.2389553e-06 -9.364911e-07 -1.7699446e-06 -3.3756556e-10
-9.718661e-10 -4.674635e-09 -6.4489876e-09 -3.464e-08 -9.558152e-09 -2.8195515e-07 -3.44714e-06 -2.5662058e-07
4.0651116e-06 -5.297041e-06 -2.7132017e-09 8.146614e-07 1.39316905e-08 3.6996854e-09 7.075686e-08 1.7126535e-05
-3.0722233e-05 -2.2373777e-06 -1.9588108e-06 -1.2514962e-06 -9.3970687e-07 -1.7686108e-06 -5.443975e-12 -1.136448e-09
-4.7420303e-09 -6.6712253e-09 -3.4416914e-08 -9.632384e-09 -2.741645e-07 -3.442987e-06 -2.4857658e-07 4.048626e-06
-5.299282e-06 -2.678378e-09 8.118515e-07 1.3723332e-08 -0.00010445676 7.1369776e-08 7.0949405e-05 0.0024343703
-2.452399e-06 -1.9458635e-06 -1.841459e-06 -1.1197178e-06 -1.6830592e-06 4.9181e-41 -2.4233522e-09 -4.0960493e-09
-5.865483e-09 -3.4445478e-08 -1.0000636e-08 -2.8888337e-07 -3.4251545e-06 -2.8291277e-07 4.355517e-06 -5.2472265e-06
-3.914438e-09 7.8736514e-07 9.557816e-09 4.853198e-09 7.099132e-08 5.1935e-41 -2.45422e-06 -2.1824744e-06
-1.953671e-06 -1.6230917e-06 -1.1504494e-06 -1.7710518e-06 7.9218516e-08 -1.4580498e-09 -4.5195e-09 -5.811863e-09
-3.445069e-08 -9.510803e-09 -2.890855e-07 -3.4508353e-06 -2.621964e-07 4.25794e-06 -5.2751566e-06 -2.8676328e-09
8.047069e-07 1.2305892e-08 2.0348693e-08 7.1136746e-08 0.00012714142 0.00089880114 -2.509053e-06 -1.9463096e-06
-1.4722685e-06 -1.0243887e-06 -1.7109568e-06 1.7387269e-11 -2.6603337e-09 -2.4504534e-09 -6.236223e-09 -3.3307277e-08
-8.438917e-09 -2.1857058e-07 -3.4457012e-06 -2.4306178e-07 4.238852e-06 -5.137937e-06 -5.0529483e-09 7.628822e-07
-1.6490261e-09 2.3153297e-07 7.413108e-08 0.000988996 -3.1765737e-06 -2.22831e-06 -1.9585523e-06 -1.2448628e-06
00000000: 9e98 17b6 3b7f 03b6 68f3 b3b5 be90 82b5
00000010: 4065 ecb5 008b aeba f25f 1bb0 3412 9bb1
00000020: ba71 02b2 1c2a 14b3 e93f 25b2 8475 98b4
00000030: d5ae 66b6 5bb4 8eb4 71b5 8a36 a86a b1b6
00000040: 5f13 4db1 ae7a 5835 a646 6732 e0ca 01b1
00000050: d41f 9933 8040 efab e60e 3f32 f716 1cb6
00000060: 8781 03b6 9a08 b7b5 a040 83b5 26fd edb5
00000070: b8c8 24b5 f8ab 37b1 9c56 7eb1 2ee2 0db2
00000080: 1215 16b3 55bb 22b2 474c 93b4 d050 68b6
00000090: c791 92b4 170c 8d36 2bbe afb6 374a 7ab1
000000a0: 1f4c 5635 8c05 0232 bb44 88b1 70c2 9933
000000b0: eaea 5dae 31ec 5e2f 5688 15b6 b671 03b6
000000c0: 81d8 a8b5 f296 7bb5 9b10 eeb5 66db e539
000000d0: 0a74 27b1 84c9 a1b1 8c0c d8b1 50a8 14b3
000000e0: 18c9 24b2 64b3 98b4 f50b 67b6 e2f5 8bb4
000000f0: e703 8936 abb2 b1b6 5d72 39b1 d076 5a35
00000100: f269 6d32 f0e4 eb30 ab57 9833 fecb 33b3
00000110: 7839 b3b5 dcf0 15b6 2272 03b6 607d a7b5
00000120: b09f 7bb5 9988 edb5 80b2 ea2b 53d8 5bb0
00000130: 7864 a3b1 b8e7 e4b1 f824 14b3 ed54 25b2
00000140: 68d2 94b4 7723 67b6 5b98 86b4 c8f9 8736
00000150: 25db b1b6 a83a 36b1 c490 5a35 df38 6e32
00000160: 8898 2032 8282 9833 e4aa 0930 3609 4e31
00000170: 432b 16b6 6674 03b6 5510 a8b5 d957 7cb5
00000180: ea5b edb5 c263 842b bddf a9b0 0c0e a3b1
00000190: 2248 e5b1 cfc0 13b3 0a8a 25b2 1883 92b4
000001a0: ba0a 67b6 f667 85b4 2ed5 8736 c7ce b1b6
000001b0: b651 38b1 b2cf 5935 3a83 6b32 2841 e033
000001c0: 1ab8 9933 cf88 0080 ec56 8bba 81a0 2eb6
000001d0: fa2f ebb5 2460 02b6 5c82 9ab5 5ba2 d8b5
000001e0: 1c17 092d 4857 6730 c07f 54b1 0f11 9ab0
000001f0: be49 11b3 9d19 44b2 1eb6 1eb4 20a7 71b6
00000200: 137a a4b4 cecc 9136 9192 a9b6 2d1b cbb1
00000210: 5f12 4135 ae56 9db1 d851 4a32 b224 a433
00000220: 50c0 d134 4d92 0080 3ac6 15b6 906f 03b6
00000230: 2e4a a6b5 2e63 7bb5 d58e edb5 2194 b9af
00000240: 8092 85b0 869e a0b1 e595 ddb1 15c7 14b3
00000250: 3235 24b2 9f5f 97b4 6a55 67b6 aac5 89b4
00000260: 0b67 8836 3cbd b1b6 2673 3ab1 1baf 5a35
00000270: 3958 6f32 8e3d 7e31 fff2 9733 f4aa 8f37
00000280: bfdb 00b8 db25 16b6 1d74 03b6 15f9 a7b5
00000290: 2a40 7cb5 0161 edb5 f88a bfac 3631 9cb0
000002a0: 57ef a2b1 b838 e5b1 ccd1 13b3 ac7b 25b2
000002b0: e230 93b4 110e 67b6 1b74 85b4 6fd9 8736
000002c0: 7cd0 b1b6 860e 38b1 03ee 5935 dac3 6b32
000002d0: cc0f dbb8 f343 9933 acca 9438 f589 1f3b
000002e0: e593 24b6 ae95 02b6 0d28 f7b5 3649 96b5
000002f0: 79e5 e1b5 1989 0000 1088 26b1 3bbd 8cb1
00000300: 5689 c9b1 34f1 13b3 43cf 2bb2 d417 9bb4
00000310: b5db 65b6 3ce3 97b4 9b25 9236 5511 b0b6
00000320: c37f 86b1 525b 5335 b833 2432 2ec1 a631
00000330: e473 9833 c690 0000 2eb3 24b6 a076 12b6
00000340: d01b 03b6 02d9 d9b5 2469 9ab5 e0b4 edb5
00000350: d71e aa33 9164 c8b0 f149 9bb1 b0b1 c7b1
00000360: eff6 13b3 f464 23b2 9c33 9bb4 e694 67b6
00000370: 00c4 8cb4 6ddf 8e36 4001 b1b6 ee0f 45b1
00000380: 0903 5835 e369 5332 40cb ae32 d7c3 9833
00000390: 4451 0539 869d 6b3a 3461 28b6 589d 02b6
000003a0: c39a c5b5 ba7d 89b5 07a4 e5b5 a6f0 982d
000003b0: 16d1 36b1 d564 28b1 6646 d6b1 bd0d 0fb3
000003c0: c0fa 10b2 39b0 6ab4 b23c 67b6 287e 82b4
000003d0: 763b 8e36 8b66 acb6 349e adb1 dec8 4c35
000003e0: f3a3 e2b0 4c9b 7834 fe31 9f33 33a1 813a
000003f0: 1f2d 55b6 138a 15b6 ac6f 03b6 2915 a7b5

shared.0.bias f4 [512]
-2.5713496e-07 -2.45882e-07 -1.9108916e-07 -2.0869737e-07 -2.1283273e-07 -5.4402875e-07 -2.0431878e-07 -2.1272558e-07
-5.3861237e-07 -1.751298e-07 -3.8220315e-07 -1.9268742e-07 -2.1319954e-07 3.8049848e-08 -4.7352017e-07 -1.8355883e-07
-2.524191e-07 -2.0552187e-07 -4.869073e-07 -2.1176669e-07 -1.9404035e-07 -2.6269407e-07 -2.1912513e-07 -2.1945834e-07
-5.33162e-07 -2.0001573e-07 -2.1368697e-07 -2.1076318e-07 -4.2426507e-08 -5.4410043e-07 -2.1367038e-07 -5.449958e-07
-2.1100868e-07 -2.0108189e-07 -1.9603743e-07 -1.8537395e-07 -2.0913365e-07 -2.0636821e-07 -3.707877e-07 -2.003282e-07
-5.132969e-07 -1.9486737e-07 -3.2749728e-07 -2.0594882e-07 -2.0649895e-07 -1.91021e-07 -2.1997272e-07 -2.1263776e-07
-4.4952287e-07 -4.7341666e-07 -1.8891262e-07 -2.0262786e-07 -1.9028954e-07 -2.0803657e-07 -1.6816108e-07 -2.7399705e-07
-1.8786125e-07 -2.1468696e-07 -2.1067643e-07 -1.8743941e-07 -2.3367477e-07 -2.1244227e-07 -1.908897e-07 -2.1111589e-07
-2.0452609e-07 -2.121098e-07 -5.0189124e-07 -2.1436011e-07 -2.1127101e-07 -2.1252373e-07 3.6945607e-08 -2.0813133e-07
-2.710625e-07 -2.1173281e-07 -5.437548e-07 -2.1297438e-07 -2.121331e-07 -4.5436545e-07 -1.9198535e-07 -2.3487269e-07
-2.0155068e-07 -5.4238467e-07 -1.8961725e-07 -2.1473971e-07 0.03393652 -2.1072213e-07 -1.944735e-07 -2.0334755e-07
-5.307174e-07 -1.7807906e-07 -2.0995293e-07 -4.0859658e-07 -1.8684977e-07 -1.8384031e-07 -2.1718745e-07 -2.9827095e-07
-2.0927797e-07 -1.9956212e-07 -2.0221e-07 -2.130252e-07 -2.8679364e-07 -5.245941e-07 2.7594692e-07 -3.0358922e-07
-1.9633666e-07 -2.0950955e-07 -2.1111839e-07 -5.1514303e-07 -1.9504489e-07 -3.8263937e-07 -5.42881e-07 -4.752725e-07
-2.2355476e-07 -5.44262e-07 -4.0992057e-07 -1.9742174e-07 -2.0413643e-07 -5.1729944e-07 -2.4441403e-07 -2.173233e-07
-2.594498e-07 -2.1259234e-07 -4.2082374e-07 -3.1654622e-07 -2.11626e-07 -1.91727e-07 -1.9783465e-07 2.3029281e-07
-1.9206584e-07 -2.1605604e-07 -2.843213e-07 -3.2993933e-07 -0.00058582926 -1.9356673e-07 -3.4735245e-07 -1.914774e-07
-4.1474743e-07 -2.1141068e-07 -3.7929976e-07 -2.237889e-07 -1.9985106e-07 -1.9685939e-07 -1.956173e-07 -2.9465536e-07
-2.8686716e-07 -2.1235934e-07 -3.761278e-07 -2.1371415e-07 -2.0278083e-07 -2.1100891e-07 -2.9713277e-07 5.223271e-06
-1.362418e-07 -2.1341697e-07 -4.7313154e-07 -2.0923818e-07 -2.1325945e-07 -5.0085663e-07 -2.1813605e-07 -2.1304675e-07
-1.9376023e-07 -2.1568735e-07 -2.0471043e-07 -1.9316872e-07 -5.336333e-07 -4.422041e-07 -5.286081e-07 -2.343944e-07
-2.0116948e-07 -1.2600242e-07 -2.5789228e-07 -4.8956787e-07 -1.842327e-07 -2.0964927e-07 -2.0655938e-07 -1.7066492e-07
-1.8902625e-07 -2.0691084e-07 -2.1398125e-07 -2.1456191e-07 -1.9255913e-07 2.546592e-07 -3.8469346e-07 -5.396963e-07
-6.9809003e-06 -1.8993131e-07 -1.9095967e-07 -3.5946988e-07 -2.1863639e-07 -2.1747866e-07 -2.6147285e-07 -2.0126112e-07
-3.2718606e-07 -2.1118308e-07 -3.100622e-07 -2.137914e-07 -2.1161821e-07 1.2402634e-06 -1.8780065e-07 -2.1072753e-07
-2.1228192e-07 -2.1060094e-07 -2.0995662e-07 -2.114104e-07 -2.1472397e-07 -4.6101383e-07 2.939389e-07 -2.743214e-07
-1.342703e-07 -2.010816e-07 -2.0773166e-07 -2.1692148e-07 -2.1047555e-07 -1.9178674e-07 -2.104918e-07 -1.9721716e-07
-3.030541e-07 -2.119778e-07 -1.8461412e-07 -2.1138533e-07 -6.40149e-08 -5.010165e-07 -4.6549155e-07 -2.0853332e-07
-2.0861114e-07 -2.1063107e-07 -2.1035999e-07 -2.1373177e-07 -1.5743421e-07 -2.1487375e-07 -4.792409e-07 -1.9432713e-07
-1.9975681e-07 -2.2526478e-07 -2.8623793e-07 -1.9525822e-07 -2.0049947e-07 -5.4420417e-07 -1.8692117e-07 -2.1448932e-07
-1.9849443e-07 -2.1150748e-07 -5.114354e-07 6.805513e-08 -2.1111151e-07 -2.1640369e-07 -2.7658257e-07 -2.1024141e-07
-3.0848503e-07 -1.92161e-07 -1.8532347e-07 -1.740928e-07 -2.6102066e-07 -2.1017502e-07 -7.8301014e-08 -2.087948e-07
00000000: 5c0c 8ab4 c401 84b4 302e 4db4 4c16 60b4
00000010: 0487 64b4 5f09 12b5 b862 5bb4 9069 64b4
00000020: 2995 10b5 500b 3cb4 9a31 cdb4 84e5 4eb4
00000030: d8eb 64b4 406c 2333 1e38 feb4 4418 45b4
00000040: 3884 87b4 6cad 5cb4 04b4 02b5 fc61 63b4
00000050: 6859 50b4 6608 8db4 a848 6bb4 40a4 6bb4
00000060: 9d1e 0fb5 e8c3 56b4 d471 65b4 244e 62b4
00000070: 7038 36b3 4c0e 12b5 446d 65b4 d44b 12b5
00000080: a091 62b4 f8e8 57b4 5c7e 52b4 340b 47b4
00000090: 388e 60b4 1096 5db4 ac10 c7b4 cc19 57b4
000000a0: 7fc9 09b5 bc3c 51b4 e2d2 afb4 c822 5db4
000000b0: 00ba 5db4 741b 4db4 a431 6cb4 6c51 64b4
000000c0: f455 f1b4 e429 feb4 e8d7 4ab4 ec91 59b4
000000d0: 6452 4cb4 a860 5fb4 c48f 34b4 de19 93b4
000000e0: e8b6 49b4 b484 66b4 4c36 62b4 f442 49b4
000000f0: 08e8 7ab4 b01b 64b4 5cf7 4cb4 18af 62b4
00000100: b49b 5bb4 4cc0 63b4 b4b9 06b5 dc2a 66b4
00000110: bcd9 62b4 1432 64b4 20ae 1e33 b47a 5fb4
00000120: 8c86 91b4 ac58 63b4 8cf6 11b5 f4ad 64b4
00000130: b4c6 63b4 83ef f3b4 8824 4eb4 5031 7cb4
00000140: d469 58b4 6498 11b5 9899 4bb4 3493 66b4
00000150: 0501 0b3d dc42 62b4 78d0 50b4 c057 5ab4
00000160: 9f76 0eb5 0036 3fb4 6c6f 61b4 165d dbb4
00000170: e0a0 48b4 a465 45b4 0834 69b4 0c22 a0b4
00000180: e4b5 60b4 3847 56b4 101f 59b4 ecbb 64b4
00000190: 9ef8 99b4 d5d1 0cb5 db25 9434 fcfc a2b4
000001a0: 9cd0 52b4 8cf5 60b4 c8af 62b4 5c48 0ab5
000001b0: 886d 51b4 8e6d cdb4 80ba 11b5 f428 ffb4
000001c0: 440a 70b4 6619 12b5 0e13 dcb4 e0fa 53b4
000001d0: 9830 5bb4 8cdc 0ab5 0238 83b4 6059 69b4
000001e0: 824a 8bb4 f044 64b4 93ed e1b4 c8f1 a9b4
000001f0: 503b 63b4 84dd 4db4 606c 54b4 6846 7734
00000200: a83a 4eb4 08fd 67b4 d2a4 98b4 8422 b1b4
00000210: 5692 19ba 38d7 4fb4 c27b bab4 e898 4db4
00000220: 74aa deb4 2000 63b4 90a2 cbb4 a04a 70b4
00000230: a496 56b4 4c60 53b4 e00a 52b4 2031 9eb4
00000240: b902 9ab4 e404 64b4 9cee c9b4 4c79 65b4
00000250: f8bb 59b4 b091 62b4 9e85 9fb4 8e43 af36
00000260: dc49 12b4 9c27 65b4 b402 feb4 f4aa 60b4
00000270: 50fc 64b4 9b72 06b5 c838 6ab4 d8c1 64b4
00000280: 680c 50b4 b097 67b4 60ce 5bb4 d069 4fb4
00000290: 003f 0fb5 1268 edb4 ace5 0db5 d8ad 7bb4
000002a0: 0c01 58b4 484b 07b4 7274 8ab4 d96a 03b5
000002b0: 80d1 45b4 f41b 61b4 9cca 5db4 0440 37b4
000002c0: 24f7 4ab4 382b 5eb4 b8c2 65b4 5462 66b4
000002d0: 40c2 4eb4 18b8 8834 de87 ceb4 a6df 10b5
000002e0: 7a3d eab6 ecef 4bb4 980a 4db4 2afd c0b4
000002f0: 50c2 6ab4 1484 69b4 8e60 8cb4 3c1a 58b4
00000300: 1ca8 afb4 90c1 62b4 a076 a6b4 888e 65b4
00000310: 2c39 63b4 2077 a635 40a6 49b4 5844 62b4
00000320: 9cef 63b4 8c21 62b4 7070 61b4 0c00 63b4
00000330: e08e 66b4 4281 f7b4 a8ce 9d34 7246 93b4
00000340: f02b 10b4 e4e8 57b4 d80c 5fb4 ecea 68b4
00000350: 14ff 61b4 f0ed 4db4 8c03 62b4 a4c2 53b4
00000360: 70b3 a2b4 049c 63b4 583a 46b4 28f9 62b4
00000370: 9078 89b3 977d 06b5 ace8 f9b4 34e9 5fb4
00000380: 98fe 5fb4 d429 62b4 50df 61b4 247e 65b4
00000390: 300b 29b4 0cb8 66b4 2fa5 00b5 3ca8 50b4
000003a0: bc7c 56b4 50e0 71b4 3eac 99b4 2ca8 51b4
000003b0: e048 57b4 6d15 12b5 80b4 48b4 604e 66b4
000003c0: bc21 55b4 bc1a 63b4 9349 09b5 b425 9233
000003d0: e4ad 62b4 985c 68b4 387d 94b4 b8be 61b4
000003e0: dc9d a5b4 d054 4eb4 54fd 46b4 44ee 3ab4
000003f0: 6822 8cb4 78ac 61b4 7026 a8b3 1431 60b4

shared.1.weight f4 [512]
-2.1456e-40 3.6948323e-27 4.0293e-41 1.261e-42 -7.063e-42 -5.320989e-26 1.60775e-40 1.27838e-40
1.3224e-40 -4.963e-42 -3.2299785e-31 1.00285e-12 -2.7535479e-11 6.0072604e-16 -3.4657255e-20 1.2935e-41
0.0008915954 8.8058916e-35 1.5660262e-10 1.864626e-09 2.248e-42 1.3974069e-29 -3.8115e-40 1.3944e-41
-6.029983e-26 -9.2706e-41 1.3197e-41 4.072e-41 -3.17122e-40 -5.5095804e-18 -7.049e-42 2.318894e-39
1.40596e-40 2.812e-40 -1.1276561e-11 -4.3572e-41 -3.599401e-24 1.42055e-40 1.23802e-40 -1.91374e-40
2.102097e-34 -4.6611076e-10 -4.1226513e-30 4.979905e-10 -3.1057e-41 -8.579e-42 -4.835811e-18 4.16e-42
1.2798025e-31 -2.4870123e-13 4.9776e-41 1.420662e-39 3.29262e-40 1.5154408e-20 -2.13059e-40 5.6461527e-21
9.5797e-41 3.6168e-40 -1.550226e-14 8.772e-42 1.91941e-40 4.0806e-41 -2.5474633e-11 2.42482e-40
-5.4091944e-12 -5.612e-42 -1.712123e-11 -8.764e-42 -1.312092e-39 1.06171e-40 2.4850898e-08 6.756867e-23
4.9566365e-38 3.289e-42 -3.7436382e-19 -8.758e-42 -7.056e-42 1.9511759e-09 -2.3295e-41 -1.482816e-39
-3.89421e-40 2.599842e-15 1.38894e-40 -4.200427e-39 0.9481764 -2.24746e-40 -3.5217e-40 2.4927838e-12
-1.5703767e-22 -7.863418e-15 -1.44079e-40 3.1650881e-31 4.5688e-41 1.2368e-40 -1.54458e-40 -6.0595e-41
-1.6503e-41 -2.4369e-40 1.47729e-40 -1.7274e-41 3.6997946e-26 -3.462985e-18 -9.3712774e-11 1.1011246e-36
-2.1314e-41 -7.296607e-10 7.615e-42 -4.248343e-30 2.61494e-40 8.183968e-28 2.19319e-40 3.9491594e-27
-1.09139e-40 -7.836512e-08 1.9859992e-26 -7.7077e-41 3.7691e-41 -3.0112136e-28 1.81811e-40 -3.0775e-41
1.15697e-40 -7.124e-42 -3.7374175e-30 9.14863e-28 1.0197182e-23 -2.00819e-40 -1.14982e-40 -4.4714766e-06
8.0804e-41 -2.422966e-10 0.00046420522 2.153827e-12 1.1255062 -2.5853e-41 -2.3029337e-30 1.5756e-41
1.4412942e-17 8.058e-41 -2.4376918e-18 1.96206e-40 -4.420068e-19 6.2864e-41 2.04703e-40 2.754582e-15
1.1284798e-07 -1.516e-42 8.629236e-35 4.305e-42 5.884643e-05 1.4638e-41 0.020687738 0.10052439
5.1602853e-14 -1.307067e-39 3.238671e-32 -2.26206e-40 3.9372e-41 5.1059662e-28 -1.177e-42 1.226e-42
2.9146782e-31 1.24662e-40 1.06528e-40 1.59848e-40 1.4045869e-18 -1.4278585e-20 3.451684e-13 1.4054e-41
1.0724015e-05 2.94376e-40 1.3815081e-10 -1.7030648e-19 2.9151e-41 4.6198e-41 -4.10373e-40 7.7254e-41
-5.895e-42 -1.4855e-41 -1.6353752e-11 3.72499e-40 -1.40454e-40 1.6501318e-07 2.1132635e-29 1.0161571e-20
0.44533443 -9.1882e-41 2.8735e-41 -1.25537e-40 -6.378242e-23 -6.5438294e-11 2.2164548e-11 6.035904e-24
5.7236e-41 -2.8569372e-21 -1.9859327e-34 7.297e-42 -2.5281076e-11 0.09723356 1.8594926e-11 2.37188e-40
3.7371e-41 8.471e-42 -1.4595543e-21 -1.3431e-41 3.35324e-40 1.3651818e-17 1.2650747e-08 0.00062140444
6.6750624e-12 -1.7437e-40 3.32845e-40 -4.9529e-41 -7.438e-42 -2.326e-42 -1.42837e-40 -3.7186e-40
-8.5653e-41 -5.5371e-41 -2.1986e-41 2.02328e-40 4.534501e-18 2.9424637e-14 -4.8763335e-21 2.4818e-41
-4.651123e-20 6.9196e-41 3.134577e-10 1.328e-41 -8.922e-42 -2.14156e-40 -2.2425277e-26 -1.40445e-40
-8.51505e-11 2.76263e-40 -6.0006e-40 -2.855843e-21 -3.85702e-40 -3.9267587e-18 -1.84552e-40 1.63334e-40
1.02393174e-20 -3.5643164e-09 3.61091e-40 1.7554109e-16 2.7891367e-20 -3.92322e-40 -5.526723e-22 -3.54819e-40
0.0034859076 -1.4593203e-10 1.58502e-40 2.2117e-40 5.756e-41 3.78467e-40 6.568149e-18 -9.883e-41
00000000: 1b56 0280 0d5e 9213 5270 0000 8403 0000
00000010: b013 0080 c6bd 8395 2dc0 0100 5c64 0100
00000020: a270 0100 d60d 0080 39a3 d18c 7b23 8d2b
00000030: 6334 f2ad c225 2d26 0daa 239f 0f24 0000
00000040: f4b9 693a cb19 ea06 b82f 2c2f d922 0031
00000050: 4406 0000 c2b6 8d0f 7e26 0480 df26 0000
00000060: 8f4b 9595 6d02 0180 ca24 0000 8371 0000
00000070: 0274 0380 8444 cba2 a613 0080 2240 1900
00000080: ed87 0100 df0f 0300 1e61 46ad 7679 0080
00000090: be3e 8b98 fe8b 0100 1c59 0100 7915 0280
000000a0: 54b5 8b07 a11f 00b0 0f3c a78e f7e2 0830
000000b0: 9356 0080 ea17 0080 f268 b2a2 990b 0000
000000c0: bc20 260c a001 8caa c18a 0000 3a78 0f00
000000d0: d995 0300 1c21 8f1e ec51 0280 3d4e d51d
000000e0: 0b0b 0100 37f0 0300 c7a1 8ba8 7418 0000
000000f0: 0e17 0200 c071 0000 c613 e0ad f1a3 0200
00000100: b151 beac a50f 0080 9599 96ad 6e18 0080
00000110: 9449 0e80 f627 0100 b477 d532 fb5e a31a
00000120: b7ee 8601 2b09 0000 43fc dca0 6a18 0080
00000130: ab13 0080 7315 0631 f040 0080 7d25 1080
00000140: 8c3d 0480 9f56 3b27 2e83 0100 15bd 2d80
00000150: b0bb 723f 8072 0280 b5d5 0380 006a 2f2c
00000160: ced8 3d9b 9da7 0da8 a291 0180 0c6d cd0c
00000170: 5c7f 0000 c558 0100 91ae 0180 eaa8 0080
00000180: 012e 0080 4fa7 0280 cf9b 0100 2730 0080
00000190: 7834 3715 f085 7fa2 9a13 ceae be58 bb03
000001a0: 6a3b 0080 4f91 48b0 3a15 0000 5155 ac8e
000001b0: f0d8 0200 1eae 8112 5f63 0200 3c71 9c13
000001c0: 3c30 0180 ae49 a8b3 10af c414 dcd6 0080
000001d0: 1169 0000 bcdb be91 d1fa 0100 ca55 0080
000001e0: 8442 0100 dc13 0080 909b 978e 41f7 9012
000001f0: 003e 4519 cd2f 0280 8640 0180 b109 96b6
00000200: 40e1 0000 3734 85af 9260 f339 e68f 172c
00000210: 9610 903f 1148 0080 10d6 3a8e ec2b 0000
00000220: 99ef 8423 a0e0 0000 b2de 33a2 f122 0200
00000230: 1775 02a1 3daf 0000 a13a 0200 127d 4627
00000240: d556 f233 3a04 0080 8967 e506 000c 0000
00000250: e0d1 7638 ce28 0000 5579 a93c bbdf cd3d
00000260: 0a66 6829 923b 0e80 5229 280b 9276 0280
00000270: c16d 0000 85d0 2112 4803 0080 6b03 0000
00000280: 662c bd0c 825b 0100 f528 0100 97bd 0100
00000290: cb47 cf21 80db 869e 0250 c22a 2d27 0000
000002a0: 4beb 3337 9a34 0300 ffe5 172f fa0f 49a0
000002b0: 4351 0000 c880 0000 f477 0480 5ad7 0000
000002c0: 6f10 0080 6929 0080 60d9 8fad 600e 0400
000002d0: 8787 0180 7a2e 3134 754f d60f 58f2 3f1e
000002e0: e002 e43e 2100 0180 1a50 0000 f25d 0180
000002f0: 6837 9a9a 7ce6 8fae 20f6 c22d b380 e918
00000300: 8d9f 0000 34dd 579d e5fc 8387 5714 0000
00000310: ec5f dead 6422 c73d 0d90 a32d 2f95 0200
00000320: 2d68 0000 9d17 0000 c68f dc9c 7125 0080
00000330: bfa6 0300 e3d4 7b23 9356 5932 bfe5 223a
00000340: 9edb ea2c 13e6 0180 d69f 0300 118a 0080
00000350: bc14 0080 7c06 0080 2c8e 0180 980c 0480
00000360: c4ee 0080 5a9a 0080 4a3d 0080 0234 0200
00000370: 274b a722 4c84 0429 0139 b89d 2f45 0000
00000380: a0a4 5b9f e4c0 0000 4053 ac2f 0525 0000
00000390: df18 0080 fb54 0280 d516 de94 8187 0180
000003a0: 783f bbae 1c02 0300 b988 0680 0ac8 579d
000003b0: 2e33 0480 30df 90a2 7502 0280 4fc7 0100
000003c0: 4d6a 411e 1ef0 74b1 93ee 0300 9662 4a25
000003d0: 98b6 031f a245 0480 f308 279c 17dd 0380
000003e0: d373 643b 3774 20af d7b9 0100 8868 0200
000003f0: 74a0 0000 031f 0400 6a52 f222 7f13 0180

shared.1.bias f4 [512]
8.6914e-41 -1.6821867e-25 -8.66e-43 -1.9217e-41 -7.5219e-41 -1.1934575e-19 -1.130824e-39 -3.58678e-40
-2.89217e-40 -6.53981e-39 -1.0099702e-20 -1.00429984e-10 -2.4462552e-09 6.431023e-24 -5.6323416e-19 -1.86122e-40
-3.2757966e-05 1.8277665e-27 -3.0157044e-12 -1.2380016e-07 -2.5268e-41 -2.2380485e-27 2.266e-40 -7.8398e-41
5.0604117e-28 -1.2284218e-25 -1.25242e-40 1.53582e-40 -4.1991e-41 -1.972977e-15 -1.42668e-40 9.700472e-37
2.65612e-40 -2.40567e-40 -9.335175e-10 2.58884e-40 5.0304754e-23 2.3678e-40 -2.7934e-40 4.991e-42
9.282142e-34 4.0459973e-08 5.160561e-26 4.3185562e-08 2.37615e-40 1.0699e-41 8.9520755e-17 -3.5639e-41
-1.4711194e-23 -1.5137572e-15 -3.54828e-40 -3.9557442e-33 -4.01845e-40 4.2007146e-20 1.3497e-41 2.3541677e-21
-2.30718e-40 -1.5664059e-38 -6.9121174e-13 -2.92136e-40 2.82863e-40 -1.97105e-40 -4.7213247e-09 9.599e-42
1.1744751e-10 -2.6904e-41 -2.1792694e-15 -5.312e-41 -3.03998e-40 -1.7366e-41 -1.5899332e-10 -1.6018274e-22
7.1021093e-31 -5.4775e-41 -9.114637e-16 -8.8886e-41 -6.9468e-41 -2.9487184e-11 -7.5725e-41 -7.602459e-33
5.27482e-40 3.550947e-25 -2.80756e-40 -5.820499e-33 0.11853013 -8.1158e-41 5.0499e-41 1.2101643e-10
-6.950123e-17 -2.2864037e-16 9.1072e-41 -8.02689e-22 -2.55336e-40 -1.06182e-40 -2.834636e-39 1.37404e-40
3.11919e-40 7.3607e-41 -2.58842e-40 -1.1386e-40 -2.1929256e-24 -1.9847671e-17 -0.0015004668 -9.01126e-30
-8.6508e-41 1.6635582e-08 -7.5634e-41 -7.204834e-20 2.9821e-40 3.7635748e-30 9.517581e-37 -1.1703396e-19
2.92367e-40 -0.0014073087 -1.4245952e-20 2.21823e-40 -3.81878e-40 -3.164108e-26 -4.1756e-41 3.9737e-41
-9.704e-42 -2.96075e-40 -6.8260996e-17 -9.963595e-23 5.286399e-20 -2.90596e-40 3.0103e-41 -3.170607e-07
1.94059e-40 1.0942671e-08 2.699616e-09 -6.008045e-19 -0.0143354535 -2.3148e-40 -1.646175e-22 -3.29553e-40
1.1646214e-25 -3.70046e-40 -1.3786336e-18 9.7448e-41 -5.8193475e-18 -2.39139e-40 -2.70786e-40 -2.138064e-14
-3.3815815e-09 -7.1773e-41 -3.146324e-23 -2.9783e-41 -7.498261e-08 -1.89649e-40 -0.00078332593 -0.006955496
1.3179344e-11 -9.296e-42 -4.6691812e-23 -1.13986e-40 -2.81591e-40 -1.3173239e-19 -2.3107e-41 -2.3287e-41
-1.7053258e-30 6.9027e-41 -3.1501e-41 -3.38118e-40 4.0108446e-27 -1.6612542e-18 -1.4277164e-14 -4.08373e-40
0.001180538 -1.7908343e-22 -3.5912783e-12 -2.5371743e-18 -2.42832e-40 -2.67641e-40 -2.41732e-40 -1.25548e-40
-9.2652e-41 -5.4677e-41 -5.286794e-11 5.6119e-41 -3.41091e-40 4.505928e-16 -1.0793517e-20 -8.3033433e-16
0.01846016 -1.43046e-40 -3.9213e-41 -2.7580179e-24 2.4197298e-20 2.0239678e-08 1.5644464e-19 5.7826534e-22
-5.409e-42 2.0607308e-20 3.5776984e-27 -1.2679e-40 -1.4657584e-09 -0.007999636 -3.5871628e-10 -3.47795e-40
-3.28092e-40 -7.72e-41 3.498414e-21 -1.07576e-40 2.77639e-40 -7.8836645e-19 -4.871484e-06 1.7644233e-08
-1.4904236e-09 -2.27578e-40 1.01161e-40 1.04865e-40 -9.4249e-41 -9.1927e-41 4.79e-42 4.413e-42
-2.96977e-40 -2.09254e-40 -1.35733e-40 3.9008e-41 2.591087e-26 -3.441316e-15 -8.7738675e-18 -3.08524e-40
2.2542398e-19 -1.01521e-40 -6.16597e-08 -8.5423e-41 -1.38028e-40 -7.0959e-41 1.1420765e-29 -2.5787e-40
5.7259775e-09 8.1267e-41 -6.569654e-39 -2.7670497e-20 -2.13897e-40 4.9911294e-25 -3.5014e-40 -1.61529e-40
-6.2192996e-21 1.4826773e-07 8.9507e-41 -1.6150675e-12 -2.456471e-19 1.57045e-40 -1.1104306e-10 2.39672e-40
-3.6625136e-06 -1.2481672e-08 -2.35981e-40 -6.601781e-13 -2.83277e-40 -3.2956e-41 -2.556459e-18 -1.05945e-40
00000000: 48f2 0000 a03e 5096 6a02 0080 9235 0080
00000010: aed1 0080 0ae6 0ca0 4750 0c80 d9e7 0380
00000020: 3826 0380 5436 4780 29c7 3e9e 0ed9 dcae
00000030: fa1a 28b1 c4c9 f818 c53c 26a1 d506 0280
00000040: 9965 09b8 82cf 1013 1a36 54ac eeed 04b4
00000050: 7046 0080 0451 3193 ab77 0200 8bda 0080
00000060: f05e 2012 3e12 1896 205d 0180 20ac 0100
00000070: 0e75 0080 002b 0ea7 b38d 0180 840b a503
00000080: 6be4 0200 9a9e 0280 3a4d 80b0 aad1 0200
00000090: 4542 731a 0c94 0200 b00a 0380 ea0d 0000
000000a0: de39 9a08 36c6 2d33 e289 7f15 077b 3933
000000b0: 6096 0200 d31d 0000 ba6b ce24 5963 0080
000000c0: 2747 8e99 c927 daa6 1edd 0380 b050 a489
000000d0: 2e60 0480 865f 461f a025 0000 3ae0 311d
000000e0: 2683 0280 0691 aa80 0e8f 42ab 5b2e 0380
000000f0: 8214 0300 7325 0280 3639 a2b1 c21a 0000
00000100: 8922 012f ff4a 0080 6d08 1da7 1494 0080
00000110: 6c4f 0380 6930 0080 a4d0 2eaf 28a6 419b
00000120: 047a 660d b198 0080 135b 83a6 c7f7 0080
00000130: a6c1 0080 9eaf 01ae 17d3 0080 9be5 1d8a
00000140: 68be 0500 00cb db16 a20e 0380 29c6 f189
00000150: edbf f23d 3ce2 0080 c58c 0000 190f 052f
00000160: 4942 a0a4 5dcd 83a5 dffd 0000 0e99 729c
00000170: c6c7 0280 fe27 0180 d0dd 1e80 077f 0100
00000180: 8165 0300 30cd 0000 8cd1 0280 653d 0180
00000190: 5eab 2998 fd0f b7a3 50ab c4ba 23c5 368f
000001a0: 26f1 0080 08e6 8e32 d6d2 0080 8d1e aa9f
000001b0: 4a3f 0300 32ab 980e e9ee a103 582b 0aa0
000001c0: 002f 0300 7275 b8ba 998c 869e 5a6a 0200
000001d0: 8528 0480 d6ad 1c95 6674 0080 c56e 0000
000001e0: 0d1b 0080 5639 0380 2e66 9da4 aae7 f09a
000001f0: a4a4 791f 102a 0380 ea53 0000 7e38 aab4
00000200: f51c 0200 60fe 3b32 2684 3931 8153 31a1
00000210: 40df 6abc 4685 0280 a602 479b a996 0380
00000220: 532c 1016 8a07 0480 4e73 cba1 a50f 0100
00000230: 2fb2 d6a2 9f9a 0280 d7f2 0280 6694 c0a8
00000240: 6961 68b1 13c8 0080 9b25 189a 0653 0080
00000250: 2006 a1b3 aa10 0280 1d58 4dba eeea e3bb
00000260: 7dda 672d ea19 0080 aac9 619a bf3d 0180
00000270: f610 0380 ac85 1ba0 6a40 0080 ea40 0080
00000280: 3b5a 0a8e 6bc0 0000 d057 0080 89ae 0380
00000290: cce2 9e13 6928 f5a1 e698 80a8 6172 0480
000002a0: 48bc 9a3a a37f 589b b8b6 7cac de35 3ba2
000002b0: eba4 0280 13ea 0280 daa1 0280 fa5d 0180
000002c0: 4702 0180 6b98 0080 0284 68ae 709c 0000
000002d0: d3b6 0380 e1df 0126 3fe2 4b9e dc53 6fa6
000002e0: c339 973c c18e 0180 4f6d 0080 2c64 5598
000002f0: 7a89 e41e 86db ad32 7eb2 3820 1dc5 2e1c
00000300: 140f 0080 6aa1 c21e 2cba 8d13 7061 0180
00000310: ca73 c9b0 e810 03bc d434 c5af 83c9 0380
00000320: 9692 0380 34d7 0080 962a 841d e12b 0180
00000330: f205 0300 49af 68a1 bb75 a3b6 1490 9732
00000340: 9ed7 ccb0 657a 0280 ff19 0100 5224 0100
00000350: ba06 0180 4100 0180 5a0d 0000 4d0c 0000
00000360: da3b 0380 5147 0280 5e7a 0180 bd6c 0000
00000370: ee4d 0015 13f9 77a7 6bd9 21a3 0a5c 0380
00000380: 1c11 8520 001b 0180 c769 84b3 20ee 0080
00000390: c480 0180 cec5 0080 01a4 670f d6ce 0280
000003a0: 3bbe c431 8ae2 0000 8689 4780 94ab 029f
000003b0: 4254 0280 cd77 1a17 0cd0 0380 47c2 0180
000003c0: 60f5 ea9d 8633 1f34 82f9 0000 f04c e3ab
000003d0: 2401 91a0 c7b5 0100 af2f f4ae 1c9c 0200
000003e0: 81c9 75b6 f96e 56b2 d291 0280 d8d2 39ab
000003f0: a915 0380 de5b 0080 25a2 3ca2 5527 0180

shared.3.weight f4 [256, 512]
9.980747e-39 3.1380686e-32 3.75751e-40 -1.1615041e-06 -0.0004980123 1.086969e-39 1.5939955e-38 -1.2534631e-13
3.262638e-39 4.24906e-40 3.64984e-40 7.6077604e-18 1.442625e-13 5.2041144e-23 -2.9745e-40 1.0024937e-38
6.527686e-11 -6.566448e-32 -9.379798e-26 3.5091372e-15 4.121464e-39 7.594382e-33 -1.1356294e-38 7.6259e-41
-3.108203e-29 1.420325e-39 1.5438206e-10 -2.152488e-39 -2.75535e-40 -1.57001e-40 -1.7351513e-11 1.2551e-40
2.600555e-39 1.2241146e-38 2.0275428e-17 5.812457e-39 1.0168281e-24 9.148276e-39 7.246226e-39 -3.48529e-39
-9.33069e-36 -2.5689993e-12 3.4922769e-31 -1.2459599e-12 -1.681356e-39 -2.27796e-40 2.5791761e-20 4.450837e-08
7.167e-41 2.5716344e-20 5.610125e-06 -1.5798279e-37 2.2866924e-38 2.4171253e-20 1.653176e-39 4.861503e-21
-2.627411e-39 1.045638e-39 2.338124e-17 8.686851e-07 1.0918269e-38 1.0697834e-09 -3.6003019e-07 1.4203252e-38
1.4015498e-15 2.9290138e-08 3.2005171e-19 0.00010517802 3.4962517e-21 -8.948689e-39 -1.5749387e-17 -2.1787238e-22
4.0171607e-35 1.0950813e-11 -6.89063e-40 -9.966e-42 5.2731e-41 -5.935006e-17 -9.7879e-41 -1.6502408e-37
-3.021861e-39 -4.104888e-23 7.8253026e-10 4.062831e-37 2.5841673e-06 5.608519e-39 -5.417319e-39 1.2139842e-14
1.442481e-39 2.2478313e-22 5.5360544e-38 -9.2198e-41 -9.205179e-39 9.747694e-39 -6.285049e-39 -1.531556e-39
2.562929e-39 3.94861e-39 -2.1028608e-38 -0.00029588107 -1.3722445e-33 6.90842e-40 1.1169413e-22 -1.877056e-34
2.22972e-40 2.0775447e-13 -2.5747273e-05 -2.30512e-40 -7.24899e-40 -2.049923e-31 2.63219e-40 9.20799e-40
-9.14147e-40 7.800742e-24 3.2356e-40 1.7085556e-38 1.94758e-40 -1.5130478e-30 6.81781e-39 -1.1173186e-38
1.18832e-39 -3.950676e-10 1.998245e-39 2.29353e-40 -6.0205533e-21 1.4889942e-38 -6.600266e-39 -1.4157483e-23
-4.056784e-39 4.7047273e-13 3.9913016e-13 3.895212e-20 -7.732061e-06 1.5082072e-38 -1.64419e-40 -2.4652632e-06
6.9608716e-25 -6.9767456e-13 -1.81872e-40 8.36003e-40 1.4643999e-21 4.8586635e-19 -9.579453e-39 7.735085e-25
4.9219973e-16 -1.7775228e-08 -3.03338e-40 1.9779574e-05 -7.178726e-13 3.435897e-07 1.0312431e-11 1.1780265e-07
-7.7624693e-17 7.391188e-39 -2.59813e-40 -3.27203e-40 -1.1680956e-12 9.16755e-40 1.32533e-40 3.123544e-11
5.141834e-32 -2.827788e-39 -1.332465e-39 -1.4818603e-12 -7.810927e-26 -6.28013e-40 2.0138166e-29 -2.30404e-40
2.1863183e-08 -1.145189e-39 7.887532e-27 -8.0374e-41 -2.8254067e-38 -3.250945e-38 5.89846e-40 -1.68935e-39
-2.977815e-08 2.2235308e-10 -1.1069381e-16 8.9882e-41 -3.21273e-40 1.5990059e-15 -8.65228e-40 -6.2684e-41
2.60978e-07 -1.9241613e-38 -3.662259e-39 1.920261e-39 1.7936172e-21 1.6076235e-13 5.5133837e-20 7.922037e-26
-2.77697e-40 1.2230457e-21 -9.4877664e-32 7.872402e-06 -2.4715808e-14 4.8305765e-08 4.413038e-14 2.423596e-39
-1.08710076e-10 2.4923e-41 3.4616655e-22 1.4720056e-05 -2.0284712e-38 -1.9217532e-31 -1.5482296e-23 4.2001186e-12
-1.3445528e-15 1.5492e-40 2.698465e-39 -2.1076e-40 2.956312e-11 -1.1439422e-38 -1.6616463e-38 -4.44485e-39
2.42503e-40 1.6842726e-08 -1.3759155e-38 -2.626658e-39 -7.247504e-26 -8.319778e-30 3.9822e-41 1.55635e-40
-8.736114e-21 -1.570849e-38 3.9595436e-14 -1.4848e-40 5.808358e-39 -1.064728e-39 2.2819718e-33 6.077573e-39
-7.635792e-14 5.215927e-38 -9.9637e-41 -1.0790224e-21 -4.376503e-39 1.2349524e-25 -2.67997e-40 -3.02829e-39
1.5447411e-24 6.099533e-12 6.91793e-40 -2.85813e-40 1.0680781e-20 -1.0345998e-38 5.337627e-21 3.139221e-39
-6.576093e-11 -1.7056529e-13 2.33049e-40 -1.65338e-40 6.871694e-39 -2.236914e-39 2.971508e-23 3.83196e-39
00000000: 43ae 6c00 16f0 220b 7117 0400 fae4 9bb5
00000010: 0a8d 02ba 07d6 0b00 1c92 ad00 9d20 0daa
00000020: e886 2300 77a0 0400 6df9 0300 a256 0c23
00000030: d66c 222a d1a7 7b1a 2b3d 0380 7229 6d00
00000040: 9b8b 8f2e 8879 aa8b 883b e895 28dc 7c27
00000050: f7e0 2c00 a9ba 1d0a baa8 7b80 94d4 0000
00000060: c89a 1d90 4a77 0f00 b0be 292f 4370 1780
00000070: 1400 0380 a8b5 0180 22a0 98ad df5d 0100
00000080: 4a51 1c00 564b 8500 0002 bb23 c44a 3f00
00000090: b658 9d17 ac9d 6300 88e7 4e00 92f3 2580
000000a0: 1c71 4685 fac6 34ac 67a9 e20c 705a afab
000000b0: f04e 1280 017b 0280 a798 f31e 7829 3f33
000000c0: c9c7 0000 4ee2 f21e 9b3e bc36 f808 5782
000000d0: aeff f800 814a e41e 6200 1200 92a9 b71d
000000e0: 279c 1c80 d062 0b00 64a7 d723 962f 6935
000000f0: b1e3 7600 a807 9330 2c4a c1b4 e3a8 9a00
00000100: 10fc c926 b299 fb32 d9ec bc20 0593 dc38
00000110: ac15 841d 4e71 6180 3043 91a3 1eb2 839b
00000120: c296 5506 14a6 402d d480 0780 c81b 0080
00000130: fe92 0000 17da 88a4 d910 0180 809e 6082
00000140: b8e7 2080 0d80 469a ac19 5730 4040 0a03
00000150: a86b 2d36 4512 3d00 48fd 3a80 24b1 5a28
00000160: 0db5 0f00 81df 871b abb4 9601 0301 0180
00000170: 4b3c 6480 9b24 6a00 2970 4480 5bad 1080
00000180: 67e8 1b00 1eff 2a00 34fb e480 7c20 9bb9
00000190: d300 e488 c985 0700 a907 071b e880 7987
000001a0: 8e6d 0200 26e9 692a d9fb d7b7 9382 0280
000001b0: b9e4 0780 300c 858c bfdd 0200 d006 0a00
000001c0: 45f4 0980 67e3 1619 f485 0300 940b ba00
000001d0: e81e 0200 8c81 f58d 483d 4a00 4caa 7980
000001e0: 8df0 0c00 d230 d9af 4bc2 1500 587f 0200
000001f0: 3873 e39d 1a23 a200 dbde 4780 3bec 8899
00000200: aa2c 2c80 226d 042b b8b0 e02a 39f2 371f
00000210: f3b8 01b7 ae3a a400 55ca 0180 e670 25b6
00000220: b56d 5717 c060 44ab fcfa 0180 701a 0900
00000230: 3a4b dd1c 0667 0f21 9e4f 6880 a863 6f17
00000240: eedd 0d26 24b0 98b2 954d 0380 50ec a537
00000250: 2c10 4aab 9c76 b834 0f6b 352d b1fa fc33
00000260: 88fd b2a4 a07b 5000 41d4 0280 1c90 0380
00000270: 1465 a4ab 8afb 0900 7371 0100 fb5f 092e
00000280: 597d 850b b9ca 1e80 5f82 0e80 a58d d0ab
00000290: a263 c195 a5d6 0680 ab39 cc0f 4682 0280
000002a0: a6cd bb32 5278 0c80 8a3a 1c14 0de0 0080
000002b0: 6cd4 1981 8fff 3081 406c 0600 3865 1280
000002c0: d8ca ffb2 d47a 742f 183e ffa4 8efa 0000
000002d0: 947f 0380 e870 e626 e76b 0980 bdae 0080
000002e0: 8b1c 8c34 ca85 d180 e3e0 2780 e8e8 1400
000002f0: 9a85 071d 9800 352a 5c2e 821f e023 c415
00000300: 1b06 0380 4ad2 b81c 0651 f68b b613 0437
00000310: c69e dea8 c078 4f33 ddbe 4629 0064 1a00
00000320: 550e efae 7a45 0000 ae3e d11b 29f6 7637
00000330: 86e1 dc80 3475 798c 4fbc 9599 4ec7 932c
00000340: 3ec5 c1a6 dbaf 0100 3962 1d00 834b 0280
00000350: 1d05 022e 7490 7c80 f0ef b480 6f66 3080
00000360: 00a4 0200 8cad 9032 edd2 9580 0e9a 1c80
00000370: 8470 b395 c2be 288f 026f 0000 d9b1 0100
00000380: 4105 259e e10c ab80 6e52 3229 e79d 0180
00000390: 573f 3f00 0798 0b80 2c94 3d09 cd2d 4200
000003a0: 58f1 aba9 b5fd 8d01 bf15 0180 a80e a39c
000003b0: e9a7 2f80 34e1 1816 11eb 0280 a4f9 2080
000003c0: 8009 ef17 b69b d62c 7088 0700 bb1c 0380
000003d0: 16c1 491e 6fa8 7080 5ca6 c91d df2e 2200
000003e0: 1d9c 90ae 190a 40aa a589 0200 e5cc 0180
000003f0: 7dd3 4a00 9b5b 1880 7db1 0f1a f2b9 2900

shared.3.bias f4 [256]
4.082045e-07 2.9471488e-07 -0.122574754 2.1098833e-07 2.8841401e-07 2.8110756e-07 2.021355e-07 2.1229664e-07
2.0692259e-07 2.0872479e-07 2.0111553e-07 2.0935266e-07 3.3879022e-07 2.0183703e-07 5.2990464e-07 2.0268318e-07
2.0010782e-07 2.0822723e-07 2.0783332e-07 2.0408804e-07 2.1210509e-07 2.0342182e-07 2.0957324e-07 2.0291228e-07
2.0699274e-07 2.0438904e-07 4.977615e-07 2.1361622e-07 2.3248654e-07 2.01719e-07 2.1055106e-07 2.0860972e-07
0.00021128436 2.1171255e-07 2.0174983e-07 2.0893192e-07 2.1403088e-07 2.1029874e-07 2.779326e-07 2.0000564e-07
2.025875e-07 2.0479396e-07 2.0403772e-07 2.1295018e-07 2.0847533e-07 4.119483e-07 2.0862228e-07 2.6926762e-07
2.0225694e-07 1.9903027e-07 2.0111506e-07 1.9870349e-07 3.1005027e-07 2.0232825e-07 2.0071606e-07 2.0591507e-07
2.051939e-07 2.0494949e-07 2.1095614e-07 2.105118e-07 2.0475413e-07 2.0490376e-07 2.0298928e-07 2.157164e-07
2.0205222e-07 4.946417e-07 2.418591e-07 2.0434804e-07 2.3266404e-07 2.007771e-07 3.93744e-07 2.4462543e-07
3.547989e-07 2.0887748e-07 2.0649452e-07 2.040531e-07 2.1085201e-07 2.0282037e-07 2.2176609e-07 2.2094794e-07
2.0880098e-07 2.0143824e-07 2.095277e-07 2.1453893e-07 2.0622116e-07 2.0430085e-07 4.5682464e-07 2.119703e-07
2.0412256e-07 2.2788382e-07 2.0698529e-07 2.1635825e-07 2.0787061e-07 2.0666455e-07 2.3711958e-07 2.0577221e-07
2.087476e-07 2.056307e-07 3.1210482e-07 2.0303399e-07 3.0104644e-07 2.0421191e-07 2.0963458e-07 2.0095632e-07
1.9968158e-07 2.0461258e-07 2.883187e-07 2.0313657e-07 2.0624273e-07 2.5421792e-07 2.0384095e-07 2.0454223e-07
3.067358e-07 2.0203396e-07 2.1067193e-07 3.9416454e-07 2.0277062e-07 2.0746315e-07 2.0643785e-07 2.0396433e-07
-2.507859e-06 4.298988e-07 2.1019495e-07 2.1164271e-07 2.0526973e-07 2.112231e-07 4.888553e-07 2.043189e-07
3.8475287e-07 2.0374463e-07 2.1035646e-07 0.007339149 2.012022e-07 2.0418341e-07 2.3878047e-07 2.0621374e-07
2.0268017e-07 2.5562449e-07 2.2539851e-07 -2.063391e-08 2.1031343e-07 2.0648302e-07 -1.6080794e-05 2.0900278e-07
2.055675e-07 2.0271725e-07 1.991735e-07 3.1515853e-07 3.683554e-06 2.0459817e-07 2.1028742e-07 2.1321446e-07
2.0282832e-07 4.4555108e-07 2.0623938e-07 4.168749e-07 2.0555754e-07 2.513808e-07 3.2178508e-07 2.0474636e-07
2.106586e-07 2.2445653e-07 2.0359244e-07 2.134085e-07 2.0137045e-07 5.1081065e-07 2.0930007e-07 2.016245e-07
1.9948575e-07 -1.2179737e-06 2.0309062e-07 2.0453487e-07 2.0045607e-07 2.0441443e-07 2.0936858e-07 2.0562047e-07
2.0242446e-07 2.1029798e-07 2.1936151e-07 2.0757679e-07 2.0436678e-07 2.0563917e-07 1.9999533e-07 2.0198873e-07
4.8090106e-07 2.1153359e-07 2.0405203e-07 2.0908573e-07 2.076915e-07 2.0173711e-07 2.0121448e-07 2.0376923e-07
-5.355239e-05 2.03976e-07 2.0688924e-07 2.0953576e-07 2.0695202e-07 2.0319939e-07 2.0913367e-07 2.0662749e-07
3.4920348e-07 2.1024317e-07 2.4752535e-07 2.0647937e-07 1.6099206e-07 5.115744e-07 2.073277e-07 2.2743697e-07
2.2667624e-07 5.270778e-07 2.0598581e-07 2.0818966e-07 2.974123e-07 2.0808288e-07 2.0313526e-07 -1.9513816e-07
2.0340977e-07 3.1858778e-07 2.0035156e-07 2.0837659e-07 2.5806102e-07 4.4401622e-05 2.0759649e-07 2.1708706e-07
2.0697351e-07 2.1919277e-07 2.0861627e-07 2.0844355e-07 2.0775093e-07 2.0419871e-07 2.0873676e-07 2.0435813e-07
2.0503336e-07 0.008867164 2.0949156e-07 2.0539883e-07 3.3711484e-07 2.098717e-07 2.0914855e-07 2.0957731e-07
2.1131171e-07 2.0766458e-07 2.03188e-07 2.0937435e-07 2.102023e-07 2.02735e-07 2.1156106e-07 2.0748891e-07
2.0778229e-07 2.0110971e-07 2.0706855e-07 2.3749863e-07 2.7335042e-07 2.8683985e-07 2.0577805e-07 2.167038e-07
00000000: 3327 db34 4e39 9e34 7908 fbbd 088c 6234
00000010: 52d7 9a34 21eb 9634 950a 5934 a8f3 6334
00000020: 732e 5e34 d51d 6034 37f2 5734 6cca 6034
00000030: f9e2 b534 8ab8 5834 c53e 0e35 21a1 5934
00000040: 38dd 5634 1195 5f34 ca28 5f34 4b23 5b34
00000050: 01bf 6334 2a6c 5a34 0e07 6134 1ae0 5934
00000060: bb41 5e34 0876 5b34 e99d 0535 615e 6534
00000070: 6aa1 7934 1998 5834 d613 6234 34fe 5f34
00000080: 378c 5d39 1a53 6334 92a0 5834 c556 6034
00000090: 5cd0 6534 7ace 6134 c436 9534 22c1 5634
000000a0: d486 5934 56e5 5b34 7615 5b34 4da7 6434
000000b0: 43d9 5f34 be29 dd34 a801 6034 dc8f 9034
000000c0: f72b 5934 06b5 5534 16f2 5734 335b 5534
000000d0: fc74 a634 913f 5934 6984 5734 8119 5d34
000000e0: 4553 5c34 1610 5c34 2f83 6234 0b09 6234
000000f0: 63da 5b34 8403 5c34 45f5 5934 ac9f 6734
00000100: b1f3 5834 85c7 0435 ddd8 8134 c36a 5b34
00000110: 34d2 7934 3095 5734 c363 d334 1055 8334
00000120: 317b be34 ce47 6034 c8b8 5d34 b019 5b34
00000130: 8f66 6234 d7c6 5934 991e 6e34 b53d 6d34
00000140: c732 6034 ec4a 5834 89fa 6034 035c 6634
00000150: a46d 5d34 ca5d 5b34 8041 f534 f499 6334
00000160: c82c 5b34 3ab0 7434 af3f 5e34 1a50 6834
00000170: 0a33 5f34 85e7 5d34 ef9a 7e34 3cf2 5c34
00000180: 1a24 6034 56cb 5c34 5c8f a734 8f01 5a34
00000190: 829f a134 5845 5b34 ea17 6134 74c6 5734
000001a0: 0e68 5634 7ab3 5b34 38ca 9a34 c11d 5a34
000001b0: 9273 5d34 727b 8834 60df 5a34 24a0 5b34
000001c0: 73ad a434 acee 5834 0f35 6234 909d d334
000001d0: 2ab9 5934 09c3 5e34 34a9 5d34 4a01 5b34
000001e0: b14c 28b6 d7cc e634 f3b1 6134 e83f 6334
000001f0: 1d68 5c34 90cc 6234 e139 0335 c062 5b34
00000200: 0890 ce34 e6c4 5a34 58de 6134 3e7d f03b
00000210: 0a0a 5834 823d 5b34 bd31 8034 9a6b 5d34
00000220: 4da0 5934 c33c 8934 1205 7234 733e b1b2
00000230: 84d2 6134 9fb5 5d34 3ee5 86b7 3f6a 6034
00000240: f7b9 5c34 7eaa 5934 65dc 5534 0f33 a934
00000250: fa32 7736 84af 5b34 5ecb 6134 f2ef 6434
00000260: 06c9 5934 1334 ef34 a672 5d34 dace df34
00000270: 3ab7 5c34 84f5 8634 cec1 ac34 40d8 5b34
00000280: 6531 6234 2402 7134 109b 5a34 4825 6534
00000290: 4a38 5834 a41e 0935 f7bb 6034 1f7e 5834
000002a0: 3a32 5634 4279 a3b5 2011 5a34 1e9e 5b34
000002b0: f23c 5734 037d 5b34 ccce 6034 86c8 5c34
000002c0: 035a 5934 45ce 6134 a289 6b34 46e2 5e34
000002d0: ea6f 5b34 aacd 5c34 4cbe 5634 3de2 5834
000002e0: 4517 0135 e921 6334 6519 5b34 0c81 6034
000002f0: ce01 5f34 139d 5834 6a0d 5834 a9cb 5a34
00000300: 719d 60b8 7f04 5b34 4825 5e34 c0fc 6034
00000310: 8a36 5e34 062f 5a34 3a8e 6034 55dd 5d34
00000320: 297a bb34 34bf 6134 a0e3 8434 9eb4 5d34
00000330: 29dd 2c34 2053 0935 ce9d 5e34 6635 7434
00000340: 4a64 7334 837c 0d35 f32c 5d34 bd8a 5f34
00000350: 09ac 9f34 636d 5f34 651d 5a34 2b87 51b4
00000360: da68 5a34 5f0a ab34 3820 5734 1fbe 5f34
00000370: a38b 8a34 e13b 3a38 b0e7 5e34 7018 6934
00000380: 723c 5e34 405b 6b34 0100 6034 87d0 5f34
00000390: 2412 5f34 b741 5b34 2021 6034 896d 5b34
000003a0: 2427 5c34 9547 113c 9af0 6034 9a8b 5c34
000003b0: b6fc b434 1859 6134 5192 6034 2c08 6134
000003c0: ece4 6234 68fa 5e34 e42b 5a34 62d0 6034
000003d0: f8b3 6134 5faf 5934 7629 6334 1eca 5e34
000003e0: c31a 5f34 9ef0 5734 9256 5e34 2003 7f34
000003f0: ffc0 9234 f8fe 9934 d7f3 5c34 16af 6834

shared.4.weight f4 [256]
6.837441e-09 -7.3392e-41 -0.83979136 -2.14861e-40 3.67975e-40 2.4985558e-17 7.064e-42 1.1366e-41
4.685578e-09 -1.122e-42 -9.967e-42 9.351e-42 2.8935e-41 -7e-44 1.6272858e-07 1.5856e-41
1.3127e-41 3.4556e-41 3.3328e-41 2.0501e-41 2.17427e-40 -2.7223e-41 9.047e-42 3.9818412e-13
4.926e-41 -3.4165e-41 -6.311693e-38 1.3716e-41 7.6382495e-36 6.9203e-41 1.5201e-41 4.2766e-41
0.015564952 7.7e-44 -5.601e-42 1.8042e-41 -1.7298e-41 2.9218e-41 2.0187e-41 -3.261e-41
9.756e-42 1.1269e-41 6.631e-42 -5.6591e-41 -4.4581e-41 5.727767e-05 1.4586e-41 -6.5476e-41
1.1642e-41 1.5748e-41 -1.2638e-41 -4.923e-41 -1.3867974e-07 1.25e-41 -2.5274e-41 -1.4272e-41
-1.4017e-41 1.7923e-41 -2.8247e-41 -2.38914e-40 1.2563e-41 1.1493e-41 2.1094e-41 -3.058e-42
-1.0301e-41 1.43238e-40 3.1491e-41 1.1799e-41 -1.78673e-40 -1.9838e-41 4.3315984e-36 1.22786e-40
-2.4498e-40 -2.2783e-40 -1.5598e-41 1.8779e-41 2.1486e-41 -3.8417e-41 -3.7177599e-09 -6.3994e-41
1.88661e-40 -9.457e-42 -3.745404e-10 -9.768e-42 -2.7608e-41 2.86e-43 -1.1454119e-27 -9.008e-42
5.538e-41 -3.6986e-41 5.82e-41 6.5774e-41 -3.4702e-41 -7.4853865e-09 1.92614e-40 -2.7546687e-08
1.332e-41 -7.016e-42 1.4267e-41 1.0144e-41 -8.6895e-41 -3.619e-41 -2.0196e-41 -2.8585e-41
-9.201e-42 -9.546e-42 8.478084e-15 -2.0379e-41 1.522e-41 -1.59738e-40 3.0118e-41 5.2481e-41
2.42573e-40 1.7745e-41 3.5236752e-08 -8.1367753e-16 1.2132e-41 7.042e-42 2.459e-41 -2.9213e-41
-0.24191402 2.0858904e-34 6.2764e-41 -2.03888e-40 4.736e-42 8.7784e-41 4.68416e-40 -7.8412e-41
0.0026329446 -2.0724e-41 9.813e-42 1.0190859 -5.1726e-41 3.19635e-40 -1.1471e-40 -5.4422e-41
9.299e-42 -4.0008e-41 -3.5439e-41 1.97462e-10 -1.5169e-40 2.7977e-41 -0.07607465 -1.2181e-41
2.36821e-40 -7.049e-42 -3.348185e-07 -4.2603792e-06 -0.00019590258 8.559e-42 -2.9238e-41 7.9403e-41
1.5368e-41 1.34743e-40 1.4544e-41 1.3884998e-17 2.5854e-41 -1.3738e-40 1.4192e-40 5.252e-42
9.242e-42 -1.75908e-40 -7.7174e-41 -5.9293e-41 -2.02935e-40 -4.112e-41 -1.3543422e-07 -1.17397e-40
3.516e-42 -0.24306594 1.0178e-41 8e-44 -1.9914e-41 -2.5648e-41 -3.4562e-41 1.6366e-41
-6.7359e-41 5.7726e-41 1.51777e-40 2.12336e-40 9.7229e-41 9.663e-42 2.948e-42 6.7802e-41
1.25504e-40 -2.6692e-41 -5.1573e-41 -1.996e-41 -8.17e-42 1.69753e-40 1.027e-42 -5.5801e-41
-0.096204214 2.1189522e-36 -2.8373e-41 -1.1146e-41 -1.4194e-41 2.2809e-41 1.003e-42 -1.0884e-41
2.3328869e-07 3.7586e-41 -6.71421e-40 -9.356e-42 5.699618e-20 1.016171e-37 -6.132e-42 -4.8577e-41
2.37505e-40 0.0023035381 -1.5121e-41 1.2148e-41 1.02078e-40 4.088e-42 -1.0896e-41 3.4305e-41
-4.447e-41 -1.78881e-40 -4.179e-42 -1.0208e-41 -2.54619e-40 -0.1042278 -2.833e-42 5.137e-42
1.6359e-41 2.3938e-41 2.441e-41 2.847e-41 2.6441e-41 2.246e-41 2.2438e-41 -1.004e-41
1.29358e-40 -0.12144423 -1.2009e-41 -1.2664e-41 -3.5344e-41 -1.8161e-41 4.0992329e-25 -1.11657e-40
-5.0186e-40 1.89e-43 -1.2123e-41 4.8356e-41 -1.2661e-41 -1.6884e-41 2.34e-41 5.2769845e-30
3.1433e-41 1.4149e-40 4.5318e-41 4.4685e-41 3.2115976e-26 1.83172e-39 -2.8668e-41 -1.06367e-40
00000000: c4ee ea31 96cc 0080 91fc 56bf f256 0280
00000010: c401 0400 7b73 e623 b113 0000 af1f 0000
00000020: c8fe a031 2103 0080 c91b 0080 111a 0000
00000030: a950 0000 3200 0080 7eba 2e34 332c 0000
00000040: 9824 0000 5460 0000 e85c 0000 2639 0000
00000050: 195e 0200 e34b 0080 3819 0000 6128 e02a
00000060: 5189 0000 3d5f 0080 15d2 ab81 3c26 0000
00000070: 9672 2205 e9c0 0000 602a 0000 3777 0000
00000080: 2404 7f3c 3700 0000 9d0f 0080 4b32 0000
00000090: 3830 0080 7351 0000 4638 0000 e75a 0080
000000a0: 321b 0000 6a1f 0000 7c12 0000 c19d 0080
000000b0: 467c 0080 6e3d 7038 a928 0000 85b6 0080
000000c0: 7420 0000 e62b 0000 3b23 0080 3c89 0080
000000d0: ffe7 14b4 d822 0000 7446 0080 c927 0080
000000e0: 1327 0080 f631 0000 be4e 0080 ff99 0280
000000f0: 0523 0000 0a20 0000 cd3a 0000 8608 0080
00000100: b71c 0080 4a8f 0100 c957 0000 e420 0000
00000110: 11f2 0180 4d37 0080 ee3e b804 4756 0100
00000120: e8aa 0280 197b 0280 7b2b 0080 5934 0000
00000130: e53b 0000 176b 0080 867b 7fb1 64b2 0080
00000140: e90d 0200 5d1a 0080 e0e7 cdaf 3b1b 0080
00000150: f64c 0080 cc00 0000 6d7f b592 1c19 0080
00000160: 609a 0000 1a67 0080 3da2 0000 5ab7 0000
00000170: bc60 0080 1499 00b2 ee18 0200 ce9f ecb2
00000180: 2125 0000 8f13 0080 c527 0000 471c 0000
00000190: 3af2 0080 e264 0080 4c38 0080 af4f 0080
000001a0: a619 0080 9c1a 0080 43ba 1828 cf38 0080
000001b0: 6d2a 0000 49bd 0180 f553 0000 4c92 0000
000001c0: 32a4 0200 7731 0000 3857 1733 ce86 6aa6
000001d0: d221 0000 a113 0000 8c44 0000 6f51 0080
000001e0: 4fb8 77be 96a1 8a07 f6ae 0000 5b38 0280
000001f0: 340d 0000 b5f4 0000 c119 0500 95da 0080
00000200: 7b8d 2c3b c539 0080 5b1b 0000 6871 823f
00000210: 3190 0080 037b 0300 c43f 0180 b597 0080
00000220: ec19 0000 876f 0080 ca62 0080 9d1c 592f
00000230: daa6 0180 fd4d 0000 07cd 9bbd f521 0080
00000240: 2994 0200 a613 0080 1bc1 b3b4 61f4 8eb6
00000250: 336b 4db9 dc17 0000 8151 0080 58dd 0000
00000260: d72a 0000 9c77 0100 8b28 0000 0611 8023
00000270: 1248 0000 f67e 0180 9d8b 0100 a40e 0000
00000280: c319 0000 5cea 0180 21d7 0080 49a5 0080
00000290: b335 0280 a072 0080 e06b 11b4 4147 0180
000002a0: cd09 0000 47e6 78be 5f1c 0000 3900 0000
000002b0: 8337 0080 7f47 0080 5860 0080 9f2d 0000
000002c0: c5bb 0080 eba0 0000 18a7 0100 e84f 0200
000002d0: 090f 0100 f01a 0000 3808 0000 01bd 0000
000002e0: db5d 0100 684a 0080 c48f 0080 a437 0080
000002f0: c616 0080 34d9 0100 dd02 0000 8d9b 0080
00000300: b706 c5bd b142 3404 184f 0080 121f 0080
00000310: 9127 0080 953f 0000 cc02 0000 571e 0080
00000320: e87d 7a34 c668 0000 a64f 0780 151a 0080
00000330: 1494 861f 6450 0a02 1811 0080 6a87 0080
00000340: 1196 0200 f5f6 163b 272a 0080 dd21 0000
00000350: 8d1c 0100 650b 0000 601e 0080 a15f 0000
00000360: f77b 0080 a6f2 0180 a60b 0080 751c 0080
00000370: c6c5 0280 6375 d5bd e607 0080 520e 0000
00000380: 9a2d 0000 bb42 0000 0c44 0000 5d4f 0000
00000390: b549 0000 9c3e 0000 8c3e 0000 fd1b 0080
000003a0: 9968 0100 c1b7 f8bd 7a21 0080 4d23 0080
000003b0: 8662 0080 a032 0080 f0ba fd16 4137 0180
000003c0: fb76 0580 8700 0000 cb21 0080 cc86 0000
000003d0: 4b23 0080 112f 0080 3b41 0000 570f d60e
000003e0: 9f57 0000 6b8a 0100 547e 0000 907c 0000
000003f0: d607 1f15 17f2 1300 ea4f 0080 8228 0180
