checkpoints/yahtzee_pretrain_incremental_500ep/best_model.pt (torch, 517749 bytes, 25 tensors)

shared.0.weight f4 [256, 23]
000000 bc bc 01 3b f2 36 15 3e 89 7e 13 bd 23 8f 59 be
       0.0019796332 0.14571741 -0.036009345 -0.21246009
000010 7c eb 15 be a0 70 46 bd 25 1b 6b be bd ca ca bd
       -0.14640611 -0.04844725 -0.22959574 -0.099019505
000020 86 31 ae be 55 8c 4b be 76 02 45 3e a0 0d 2f 3d
       -0.34022158 -0.19877751 0.1923922 0.042737603
000030 51 7f be 3d ed 0f 07 3e 4d 90 d8 bc 75 38 9f bd
       0.093016274 0.13189669 -0.026435995 -0.0777444
000040 15 86 23 3e 58 0a 69 3c 28 36 bb bd 21 d6 49 bd
       0.15969117 0.014223658 -0.09141189 -0.049276475
000050 7f a1 d3 3c c1 de 15 bc 69 fe 99 3c a8 2a 37 3d
       0.025833843 -0.009147347 0.01879807 0.044718415
000060 b2 dd ae 3d 77 2d 70 be d4 16 57 be 55 f2 73 be
       0.08538379 -0.23454843 -0.21004802 -0.23822911
000070 73 11 2c bd 34 7a 01 3e 44 1c b0 3d 55 86 fb 3c
       -0.04200883 0.12644273 0.08599141 0.030703703
000080 7b b7 c2 be cd 8d bb 3d 12 0a 4d bd be b1 5a 3d
       -0.3803061 0.09157906 -0.050058432 0.053392164
000090 2b a4 fa 3d 74 86 0e be c1 a0 e2 3d d0 b8 a1 3c
       0.12238344 -0.13918477 0.110658176 0.019741446
0000a0 11 d9 b5 3c 6f ad 53 bd d3 9e 58 bb b7 87 ab bd
       0.022198232 -0.05167907 -0.003305365 -0.08375495
0000b0 82 2b ec 3d be c3 9d bd 30 11 a6 be ad a3 92 3d
       0.11531736 -0.077033505 -0.32434988 0.07160125
0000c0 cc 03 4b bd 3a 70 9d bd ab 9e cd 3d e8 69 14 3d
       -0.049564168 -0.07687421 0.10040029 0.036233813
0000d0 0c c5 c0 be 47 43 b9 bd 9a 10 cb 3d c3 f2 f5 3c
       -0.37650335 -0.09046035 0.09915276 0.030022984
0000e0 3f 0e 06 be 9f 59 9e 3a 45 03 9a be a3 a1 05 3d
       -0.13091372 0.0012081153 -0.3008062 0.032624852
0000f0 23 ac 0b be 19 f3 b8 3d 39 32 e2 3c c9 aa bc 3d
       -0.13639884 0.09030742 0.027611839 0.09212262
000100 49 46 46 bd f4 a4 26 bd fa e1 4c be a7 47 2c be
       -0.048406873 -0.040684655 -0.20008078 -0.16824208
000110 21 c0 03 3e 48 e2 59 be 5e dc aa 3d 0f 39 03 bd
       0.1286626 -0.21277726 0.08342813 -0.032036837
000120 8d a6 2c be c5 48 d2 3a ac 40 fb bd 74 c4 22 be
       -0.16860409 0.0016043416 -0.122681946 -0.15895253
000130 65 ad 57 3e b1 50 87 3d 0c 6b 95 3c c4 33 34 3e
       0.21062239 0.066071875 0.01823952 0.17597872
000140 93 ce 13 3e 28 c1 7d 3d a6 cb 8e be 9b 98 cc 3d
       0.1443427 0.061951786 -0.27889746 0.09990045
000150 54 c5 ea bd 8e 1c 25 3d 5d 33 e6 3c 4d 58 cb bc
       -0.114634186 0.040310435 0.028100664 -0.024822379
000160 72 b2 a3 bc 3c d6 d1 bd 3f 23 a3 bc d6 2a 03 3e
       -0.01998255 -0.1024594 -0.019914268 0.1280931
000170 15 7e a7 3d 00 6f 26 be 04 6e cd bd ae 18 04 bd
       0.08178345 -0.1625328 -0.100307494 -0.0322501
000180 50 e1 dc 3d 1a 16 df 3d 5e 85 ea be a7 5b f5 3b
       0.107851624 0.108928874 -0.45804876 0.0074877325
000190 8e f7 2c bd a3 9b c3 be 73 da ba 3d b8 8b 73 be
       -0.042228274 -0.3820468 0.09123697 -0.23783767
0001a0 a3 fb c6 bd 95 1d a3 be 54 07 b0 3d 84 9e c7 bd
       -0.09715965 -0.31858507 0.08595148 -0.09747031
0001b0 bf f3 0d 3e c2 45 6a bd ed 14 cb bc be a2 03 3d
       0.13862513 -0.057195432 -0.024790252 0.032137625
0001c0 36 29 03 3e 6a 62 b9 bd 97 b0 3a be 23 27 e5 3c
       0.1280869 -0.09051974 -0.18231426 0.027972763
0001d0 fb c7 a7 bc fe f1 6d be 26 ea 27 be a6 16 8c be
       -0.0204811 -0.23236844 -0.16397914 -0.2736103
0001e0 95 85 3f bd f2 68 16 3e 84 58 73 3d bf 75 3f bd
       -0.046758253 0.14688471 0.059410587 -0.04674315
0001f0 68 e2 b5 3d a4 c1 6f be 14 de ee 3d 53 92 57 be
       0.08881074 -0.23413712 0.11663452 -0.21051912
000200 4c d4 ad 3d 5c 3b c3 bc dc 8a 69 be 9a c4 d7 bd
       0.08487758 -0.023832016 -0.22806877 -0.10535546
000210 9f 93 c2 bd 39 81 f1 3d 90 f0 2c 3d d9 7b a7 3d
       -0.09500813 0.117922254 0.042221606 0.08177919
000220 f0 95 23 be 93 d4 10 3c 8f f0 b6 bd 8d 93 16 3c
       -0.15975165 0.008839744 -0.08932602 0.009190452
000230 3a 0f 6b bd f7 bb 0e be c7 80 2e be 6c d7 06 be
       -0.057387568 -0.1393889 -0.17041312 -0.13168114
000240 6d d5 92 3d 94 69 98 3d 00 37 b5 3e 8d 35 5e 3e
       0.07169614 0.074420124 0.35393524 0.21700116
000250 23 09 92 bb 74 94 b6 3d 3d c4 3a 3c 1a 3e 4c 3e
       -0.0044566556 0.08915034 0.011399326 0.19945565
000260 56 73 1a be f0 d6 17 3e fb 4f 81 3d 02 fe 41 3d
       -0.1508306 0.14828086 0.06314083 0.04736138
000270 a4 34 91 be 9e 7d 3b 3c 6f 4b e9 3d db 72 0e 3e
       -0.28360474 0.011443524 0.11391341 0.13911001
000280 f2 66 19 be b6 59 30 3d 64 d6 89 bd 4b 11 07 be
       -0.14980677 0.043054305 -0.06730345 -0.1319019
000290 2e f7 68 be df 65 9b bd 99 06 6b bd ea d0 2d 3d
       -0.22750542 -0.0758779 -0.05737934 0.042435564
0002a0 7b ef df 3b be 01 c0 3d 02 3d 4b bd 82 3c 07 3e
       0.006833968 0.09375332 -0.04961873 0.13206676
0002b0 7f 15 64 be 5b 40 da bd 02 6d 0d be ba 74 0a be
       -0.22273825 -0.10656806 -0.13811114 -0.1352109
0002c0 ed 26 b2 3c 1c 79 41 bd b5 b7 26 be 17 97 95 bd
       0.021747077 -0.04723464 -0.16281016 -0.07304209
0002d0 47 48 bf bd 8a f5 25 bc 77 fe 5b 3d 13 60 1e 3e
       -0.09339958 -0.010129342 0.053709473 0.15466337
0002e0 74 68 7e be 26 af 0b be c3 94 b4 3d 29 47 5a be
       -0.24844533 -0.13641033 0.088174365 -0.21316208
0002f0 22 af 1b be d5 71 6d bd 7e 57 98 3d 3c fe 98 bd
       -0.15203527 -0.057969887 0.07438563 -0.07470366
000300 fa 04 5b 3e a6 80 06 3e a2 ef cc 3d 73 c5 18 be
       0.21388617 0.13135013 0.10006644 -0.14919071
000310 3a a3 00 3c 8b bb 8f 3b 68 e3 5f 3d 45 91 50 be
       0.007851416 0.0043863705 0.05466023 -0.20367916
000320 e0 ee c6 bd 7a 70 26 3a 1f bf 0c be d8 aa eb 3d
       -0.097135305 0.0006349158 -0.13744782 0.11507195
000330 10 1a 2a be 08 3e 45 bd 7d f7 89 bd c8 90 7b be
       -0.16611505 -0.04815486 -0.06736658 -0.24566948
000340 19 20 ec bd c7 45 c0 bd c7 ea de 3d 78 fc 10 be
       -0.1152956 -0.09388309 0.10884624 -0.14158809
000350 f0 ff 4c be 3f 51 e6 3c a0 99 3b be f8 e6 71 3c
       -0.20019507 0.028114913 -0.18320322 0.01476454
000360 66 9a 5c be 2e ea 21 3c ce ee 37 3e 5d 68 4e 3c
       -0.21543273 0.009882493 0.1796219 0.012598124
000370 69 0c 1a 3e 90 4b 7c be dd 1e 8b be f6 45 91 bb
       0.15043797 -0.246382 -0.27171984 -0.004433389
000380 f8 b9 8e 3d de 49 6c be f1 15 a7 3d f8 a2 e0 bd
       0.069690645 -0.23075053 0.08158482 -0.10968584
000390 f3 8b b2 bd bd cb a3 bd ac bd 44 bd d1 86 14 bd
       -0.087180994 -0.07997844 -0.048032448 -0.036261383
0003a0 59 35 30 be 3d a3 80 be 38 b7 6b 3d f3 aa 7e 3d
       -0.1720785 -0.2512454 0.057547778 0.06217475
0003b0 02 09 87 3c 9f 7c 48 3e 03 ed 1e 3e 9e 83 d0 bd
       0.016483787 0.19578789 0.155201 -0.10181354
0003c0 25 35 3c be 36 16 da 3d 4f d1 1b 3c 22 76 54 3c
       -0.18379648 0.10648768 0.009510352 0.012967618
0003d0 29 53 56 bd 1c 50 ae bd 92 e0 b0 3d 8e 27 23 3d
       -0.0523254 -0.085113734 0.086365834 0.039832644
0003e0 56 13 7c be 1b 05 cc 3c b7 a4 26 be 11 48 52 3e
       -0.24616751 0.024904778 -0.16273771 0.20535304
0003f0 09 7f 1f be 75 c8 7e 3d f9 55 68 bc 45 c7 61 be
       -0.15575804 0.06220289 -0.014180654 -0.22048672

shared.0.bias f4 [256]
000000 43 f7 5f be 59 00 4c be 48 29 79 3c 92 82 9e bd
       -0.21871667 -0.19922008 0.015207596 -0.07739748
000010 ad c9 3e be 3e 07 8b 3d 11 51 e1 3b c6 28 80 bd
       -0.1863162 0.06788491 0.006876119 -0.06257777
000020 2b 30 d9 3c 82 e5 6d be 2c 3b 0d be b5 9d be bd
       0.026512226 -0.23232082 -0.13792104 -0.09307424
000030 c7 cd 4a bd 01 77 f3 bd 9b 18 03 be a1 96 49 3e
       -0.04951265 -0.118879326 -0.12802355 0.19686367
000040 ab de 87 be 29 29 f0 3d 01 ac 41 bd af 19 1f bd
       -0.2653707 0.11726601 -0.047283176 -0.038842853
000050 11 79 1a 3e 6d 6c 9c bd ff 5e 5f bd 19 e2 e2 3b
       0.15085246 -0.07637868 -0.054533955 0.0069239256
000060 e0 2a f7 3b 39 30 0b b9 d4 59 8d be 15 29 7c be
       0.007542953 -0.00013274037 -0.27607596 -0.24625047
000070 35 bb 16 3c 8f cb b2 3d 40 26 90 3d b5 99 4a bb
       0.009199907 0.08730232 0.070385456 -0.003091437
000080 54 54 81 be 96 36 ba 3d c4 54 62 be de ba 18 3e
       -0.2525965 0.09092443 -0.22102648 0.14915034
000090 34 2b 32 be d1 2b df 3a ec dc 32 3e 9b 58 ec 3d
       -0.17399293 0.0017026608 0.17467088 0.11540338
0000a0 d2 63 7e be 64 72 d4 3d c4 45 ac bd e7 79 a0 be
       -0.24842766 0.10373381 -0.08411744 -0.31343004
0000b0 e7 6a 25 be d2 fe 27 3e 0f 84 f8 3c 60 9d 49 3c
       -0.16154061 0.164058 0.030336408 0.0123055875
0000c0 5e 31 1d 3d 05 cc b0 be bc 72 dd bd 10 ca 87 3d
       0.03837716 -0.34530655 -0.108128995 0.06630337
0000d0 df 51 05 3e bc b5 86 bc 21 9b 02 be 15 1a e6 bd
       0.13019513 -0.01644408 -0.1275449 -0.112354435
0000e0 07 4f 1d 3e cc f5 75 bd 6e 42 49 be c2 00 78 be
       0.15362178 -0.060048863 -0.19654247 -0.24219039
0000f0 b6 78 82 3c bd b7 55 be f5 39 97 be 72 6e ba 3d
       0.0159267 -0.20870872 -0.29536405 0.09103097
000100 89 66 74 3d bc 90 f7 3d 84 2d 49 bc c0 f9 4a be
       0.059668098 0.12088153 -0.012278918 -0.19821835
000110 02 a5 ae bd 8e e9 93 3d 92 38 4b 3e 0e 67 06 3d
       -0.085275665 0.072222814 0.19845799 0.032813124
000120 a2 f4 4f 3e 8a a7 48 be f0 aa f1 3d 98 e5 f2 3d
       0.20308164 -0.19595161 0.11800182 0.11860198
000130 5a d7 39 be 54 2b cb bd e8 bf 9e bd 1d 21 0b be
       -0.18148556 -0.099203736 -0.07751447 -0.1358685
000140 42 86 9e be 23 c8 36 be 89 71 07 3e de be ca ba
       -0.30961806 -0.17849784 0.13226904 -0.001546826
000150 3b cc 52 be 78 ba 86 bd 2c 0a 41 3e a9 c3 2d be
       -0.2058572 -0.06578535 0.18851537 -0.1696917
000160 ab 6b ac 3d 94 49 87 be 68 72 cf bc 17 f3 8c be
       0.084189735 -0.26423323 -0.025323108 -0.27529213
000170 78 ae 7f be a7 ea b8 bd a0 c8 9a be cf e3 a1 bd
       -0.24968898 -0.090291314 -0.3023119 -0.07904779
000180 8a f4 26 be 2a 59 b9 3c 63 e9 1f be 6b 26 dc bd
       -0.16304222 0.022625525 -0.15616374 -0.10749515
000190 f5 96 8c 3c 60 6e 2d be a1 b8 bb bd 4b e8 77 be
       0.017161826 -0.16936636 -0.091660745 -0.24209706
0001a0 1e d3 84 be 69 d9 cc 3d e3 4b d2 bc 63 53 d3 3d
       -0.2594232 0.10002405 -0.025670951 0.10318639
0001b0 90 36 1f be 0d cf 0b be 3c 34 bb 3d 31 46 43 3d
       -0.15548158 -0.13653202 0.09140822 0.04767436
0001c0 f2 b4 61 be ca 4a 4f 3d 4c de 87 be 5b 71 c4 3d
       -0.22041681 0.050608434 -0.26536787 0.09591933
0001d0 7b f2 3f 3d aa a4 71 be bf 99 8d bb 06 fe 2a 3e
       0.046862107 -0.2359797 -0.0043213065 0.16698465
0001e0 ce 3f 1b be f4 ba 2e 3e e5 75 e5 bd 79 64 1c 3d
       -0.15161058 0.17063504 -0.11204127 0.038181756
0001f0 04 94 12 bc 57 9d 2e be c6 41 10 be c2 95 93 3d
       -0.0089464225 -0.17052208 -0.1408759 0.072062984
000200 d6 45 40 3e 36 3b 09 be 9b 59 33 3e 99 e7 17 be
       0.1877664 -0.13401493 0.1751465 -0.14834441
000210 7c 37 bf 3c 6f 9f 22 be 51 39 0d 3e 8f 84 90 3d
       0.023341887 -0.15881132 0.13791396 0.070565335
000220 33 83 7c be 55 c4 37 be 8d a6 3c be 64 ce 5c bd
       -0.24659424 -0.17945988 -0.18422909 -0.053907767
000230 21 4f 9f be fb 80 83 3d 71 bd 1b be f0 24 22 3d
       -0.31115058 0.064210854 -0.15208985 0.039586008
000240 59 4c 01 bb f1 c7 b7 3d 03 69 4f be 8d 57 7e be
       -0.0019729345 0.08973683 -0.20254903 -0.24838085
000250 ea e5 0e be e1 45 1a 3e 36 e0 9d be df 26 14 3d
       -0.13954893 0.15065719 -0.30835122 0.036169883
000260 71 94 97 bb 07 16 18 be ed e9 45 be d1 32 f3 3d
       -0.00462585 -0.14852153 -0.19327517 0.11874927
000270 ba 42 c9 bd 33 e6 09 bd d6 0c 64 be 08 14 32 bd
       -0.0982718 -0.0336668 -0.22270522 -0.043476135
000280 c6 93 30 be 91 3e 37 3e 90 a8 36 bd 4a 60 6a 3d
       -0.17243871 0.17894961 -0.044594347 0.057220735
000290 dc 2c fe bd 82 9f 47 be cd c6 4d be bc d5 09 3e
       -0.124109 -0.19494441 -0.20095368 0.1346044
0002a0 78 d8 5d 3d 36 f0 66 3d 4b b4 7e bc 8e f1 bb 3d
       0.05416152 0.056381427 -0.015545915 0.09176932
0002b0 21 eb 09 3c 13 df ec bd 98 88 20 be 85 d6 60 bd
       0.0084178755 -0.115659855 -0.15677106 -0.05489208
0002c0 e1 f0 10 bd dd 1a ef 3d 6a ac 43 be 21 8f 2c be
       -0.03538597 0.11675046 -0.1910874 -0.16851474
0002d0 9f 25 e5 bd 30 f3 af bd 85 93 83 be 00 76 86 be
       -0.11188816 -0.08591306 -0.25698486 -0.26261902
0002e0 b0 8b 26 be 19 2c 2e 3e 18 06 6d 3d 3d 3d 21 3e
       -0.16264224 0.1700901 0.05786714 0.15746017
0002f0 57 46 7c bd 92 00 f2 bd fc 23 fc 3d ae a5 24 3e
       -0.06159052 -0.11816515 0.12311551 0.16078827
000300 06 c6 fa bd 16 4d 12 be d9 1e 37 3c 0a f2 fb 3d
       -0.12244801 -0.14287218 0.011176788 0.12302025
000310 2d d3 9a 3d 09 78 28 3e 0c 69 93 3d ce 07 44 3e
       0.0755981 0.1645204 0.071977705 0.19143602
000320 62 66 72 be 89 8e 80 bd 63 62 99 bd 01 34 0c 3d
       -0.23671868 -0.062771864 -0.07489469 0.034229282
000330 1d da e4 3d f5 37 75 bd cf e0 de bd 27 75 95 bd
       0.11174414 -0.059867818 -0.108827226 -0.07297736
000340 17 00 b6 bd 11 dd 53 be fb 13 2f be 6a 17 99 be
       -0.08886736 -0.20689799 -0.17097466 -0.29900676
000350 aa 60 7e 3d 1c 7d 8c 3d 01 ee 07 be ad a3 32 be
       0.062103905 0.068598 -0.13274385 -0.1744525
000360 05 0d 42 bb 7a d1 7c be 80 81 81 3d b8 cb de bd
       -0.002960981 -0.24689284 0.06323528 -0.108787
000370 64 6f 67 be 23 84 45 3d 5f 3c 7c be 20 ae c8 bc
       -0.22601086 0.04822172 -0.24632405 -0.024497092
000380 fc e3 90 bd 2c 46 f4 bd 91 97 79 be b1 70 93 bd
       -0.070747346 -0.11927447 -0.24374224 -0.071992286
000390 71 81 fd bd 8f 49 62 be e0 80 3c 3d 1f cd 9e be
       -0.123782046 -0.22098373 0.046021342 -0.3101587
0003a0 84 5c 31 3e c3 4e 08 3e 06 85 24 3e e3 23 6a bd
       0.17320448 0.13311295 0.1606637 -0.05716313
0003b0 a2 24 67 be b7 3f e3 3c d3 6e c7 bd 05 aa a8 3d
       -0.22572568 0.027740343 -0.09737935 0.08235554
0003c0 b2 56 0e be 19 ce 58 be c8 1a fe bd f3 bc 31 3e
       -0.13900259 -0.2117237 -0.12407452 0.17357235
0003d0 fd b4 57 be df 79 64 bc 39 60 fc 3d 02 10 29 be
       -0.21065135 -0.013945072 0.123230405 -0.16510013
0003e0 35 0b 6f be a8 74 8d be 82 6f 75 be 47 fd fd bd
       -0.23344119 -0.27628064 -0.23968318 -0.124018244
0003f0 0b 3d 0b 3e e9 7a 14 3e 0e 59 f8 3b 11 05 1b be
       0.13597505 0.14500012 0.0075789755 -0.15138651

shared.2.weight f4 [128, 256]
000000 b0 93 c8 3b 8d 7b 98 3b 6e b8 96 bd 30 df b0 bd
       0.0061211213 0.0046534003 -0.07359396 -0.0863632
000010 01 23 c9 3b 95 86 89 3c eb 99 92 bd a0 ea c7 3c
       0.006138206 0.016787807 -0.07158264 0.02440387
000020 89 d7 3f bc 92 22 77 bc 0f 57 44 bd 92 48 11 3e
       -0.011709102 -0.015083926 -0.047934588 0.1418784
000030 42 12 5f bd b0 99 8f b5 af 8a de bc 21 1a 53 3e
       -0.05446077 -1.0699059e-06 -0.027165739 0.20615436
000040 07 b5 80 bd 28 6e 83 3d 05 09 60 3c 34 0b 3a bc
       -0.06284528 0.06417495 0.013674025 -0.01135521
000050 9d 4a 16 3e 52 d5 af bc 37 d6 e0 bc 12 61 b0 bc
       0.146769 -0.021464024 -0.027445896 -0.021530662
000060 92 dc aa bc 4a 8d 8b 3d c6 6c a2 3d 1d ae 25 3d
       -0.02085713 0.06814058 0.07930903 0.04044925
000070 ee 3c aa 3b bc 0b b9 bc 66 c2 15 be 6e 63 2d 3c
       0.0051952517 -0.022588603 -0.14624938 0.010582788
000080 9a cf af bc 8a 23 e0 bd 0e 88 44 bd ba ac 82 3d
       -0.021461297 -0.109442785 -0.047981314 0.06380601
000090 97 ae 7f bc f1 11 4a bd 29 de 43 3c f4 bd 00 3c
       -0.01560559 -0.049333517 0.011954823 0.007857788
0000a0 eb 40 94 3c 8a 8c f2 3d 5b 33 1e be 8c 17 9f bd
       0.018097362 0.11843212 -0.15449278 -0.07768163
0000b0 42 79 be 3d 8a 3c 73 3d d9 69 3b bc af 73 fe bc
       0.09300472 0.059383906 -0.01143881 -0.031061022
0000c0 c0 48 33 bc 07 f5 7d 3c 7c 8a 82 bc f7 dc 88 bd
       -0.010942638 0.015500314 -0.015935175 -0.06682771
0000d0 ea 70 9e 3d 7a 1c f3 bb b8 c2 90 ba 7b 7b 11 3d
       0.077363804 -0.007419166 -0.0011044359 0.03551815
0000e0 86 4c 52 bc 90 30 a5 bd d4 82 5b 3b b6 5d a0 bc
       -0.012835627 -0.08065903 0.0033494728 -0.019575935
0000f0 59 df 91 bd 4f 23 21 3d 2e 8e 11 bd 84 3f 9f 3d
       -0.07122678 0.039340314 -0.035535984 0.077757865
000100 94 e3 70 3d 0a 32 3e 3e 41 8f 9d bc be de 92 bc
       0.058810785 0.18573776 -0.019233348 -0.017928477
000110 2c 30 a6 bd c2 fe e4 3d 9b 37 2a bc da b1 b7 bd
       -0.08114657 0.11181404 -0.010389234 -0.08969469
000120 fc 0f 77 3d aa 5a c7 bb 97 77 03 bd 74 82 a0 3d
       0.06031798 -0.006083806 -0.03209647 0.07837382
000130 81 e7 0f bd 4c 53 0b 3d 6f 9c aa bd ff b3 80 bd
       -0.03513289 0.034014985 -0.083306186 -0.062843315
000140 01 fd 5a bd a0 b1 93 bd 64 e2 e8 bd 93 ad fa bd
       -0.05346394 -0.07211614 -0.113713056 -0.12240138
000150 be ab 31 3e e9 74 3b bd 26 11 06 3e f0 84 ab bd
       0.1735067 -0.04576579 0.13092479 -0.08374965
000160 05 05 f6 3d 40 d1 9d bc f8 46 28 3c 7f 80 f6 3c
       0.12012676 -0.019264817 0.0102708265 0.030090569
000170 97 6c 0b bd c7 37 5f bd 25 8e df 3b af 1b 1d bd
       -0.034039106 -0.054496553 0.006822365 -0.03835648
000180 6b 13 ab 3c 2e 65 43 3b cf 21 3b 3e db d8 30 3d
       0.020883283 0.0029814946 0.18274616 0.04317556
000190 a0 6b d0 3c 2f 60 9f bc 58 50 0c 3e 78 69 87 3c
       0.025441945 -0.019455044 0.13702524 0.016529784
0001a0 51 1b e7 3d 55 65 c0 3c c5 e3 8b bc bc b3 0d 3e
       0.11284507 0.023485819 -0.017076382 0.13838094
0001b0 58 57 9d bd 5b 6b 20 bd 19 fa da bd eb c1 ee 3c
       -0.07682675 -0.039164882 -0.106922336 0.029145202
0001c0 2b 6f 34 bd 6d bf bc bc 48 27 b0 3d a6 83 b5 bc
       -0.04405133 -0.023040498 0.08601242 -0.022157501
0001d0 b4 e8 20 bd a1 15 3e bd 91 ae fd ba fc c6 50 3e
       -0.039284423 -0.046407346 -0.0019354393 0.20388407
0001e0 d1 25 e3 39 b3 09 a0 bd f3 72 9b 3c 28 0c 1f be
       0.0004332499 -0.0781435 0.01897571 -0.15531981
0001f0 35 3b ca bc 5c d6 80 bc 27 ac 85 bd 9a 77 5b bd
       -0.024686435 -0.015727215 -0.06526976 -0.053580858
000200 4c 88 33 bd ed 24 81 bd dc 4b 1a bc 8d 80 fb bb
       -0.043831155 -0.06305871 -0.0094175 -0.0076752366
000210 1e d5 a5 3b b7 48 00 3d 3e a2 4b bd 74 0b 94 3d
       0.005060806 0.031319346 -0.049715273 0.07228747
000220 5a 0f 85 bd ba 71 76 bd e7 b2 2e 3d 04 22 8e bd
       -0.06497069 -0.06016705 0.042651083 -0.06940082
000230 71 8c a1 3d fb 92 3f 3d fa 9f 39 bc 3b 5b cc bd
       0.07888115 0.04677103 -0.011329645 -0.09978338
000240 92 7d 5f bd c3 61 46 bc 3a 48 ca bb 07 e8 f5 3d
       -0.054563113 -0.012108269 -0.006173161 0.12007146
000250 a1 78 b6 bc 47 87 fe 3b 7c 6e eb b9 78 d1 fc bd
       -0.022274317 0.007767591 -0.0004490501 -0.123446405
000260 74 f4 73 bd 8c 6f 70 3b f7 12 63 bc e7 3e a0 3c
       -0.0595593 0.003668758 -0.013859502 0.019561244
000270 ee bc cc bd 71 86 a5 bd e4 86 c6 bc 9c 18 b3 bd
       -0.09996973 -0.08082283 -0.024234243 -0.08744928
000280 eb 08 98 3a 9e 02 d9 3d bb 88 84 bc 45 4a 6b bd
       0.0011599337 0.10596202 -0.01617848 -0.057443876
000290 da 95 98 bd 9f c1 1b 3c 7f 39 78 bd 72 c7 0e bd
       -0.07450457 0.009506612 -0.060601708 -0.034858175
0002a0 95 b7 ad bd 50 ce 0f bc 6d d5 35 3d dd e0 01 be
       -0.08482281 -0.008777216 0.04439299 -0.12683435
0002b0 11 86 dd bc 37 2e 2d 3c bf 19 ba bc a5 88 7b 3d
       -0.027041467 0.0105701005 -0.022717355 0.06140961
0002c0 69 e4 a9 bc 51 5b 2d bd 84 a5 0e 3d a9 75 4a bd
       -0.020738797 -0.042323414 0.034825817 -0.049428616
0002d0 d8 6f 47 bc 25 21 8e 3d a7 a3 a0 bd 2f 7a 16 bd
       -0.012172662 0.069399156 -0.07843714 -0.036737617
0002e0 96 96 e3 3d 6b 67 98 3c b8 5a c5 bd 89 9a b2 bd
       0.11112706 0.018604001 -0.09636444 -0.087208815
0002f0 52 27 ca bd c6 0f 0a 3d 52 d3 ba bd 43 f6 31 3d
       -0.09870781 0.03370645 -0.091223374 0.043447744
000300 8c 74 1b bd ed 02 11 bd 1f e0 21 bc 42 02 d9 bd
       -0.037952945 -0.03540318 -0.009880095 -0.10596134
000310 23 d9 f7 bc 71 84 4a 3c 83 5d 74 3e 61 26 4d 3d
       -0.030254906 0.012360678 0.23863797 0.05008543
000320 c3 c9 8e bc c6 32 94 bd 94 62 81 3d d5 e3 c2 3d
       -0.017430192 -0.07236247 0.063176304 0.09516112
000330 6a a8 57 3d 99 51 6c 3c 8e 4a d2 bc c0 6b 87 bc
       0.052650847 0.014423751 -0.025670316 -0.016530871
000340 a7 e2 3c 3a dd 52 13 bc ca 36 e2 3c a7 f9 84 bc
       0.00072054047 -0.008991924 0.027614016 -0.016232325
000350 89 b4 c3 bd 15 87 e1 bd 2f 52 9b 3a 43 47 13 be
       -0.09555919 -0.11012093 0.0011850054 -0.14382653
000360 be 7c 19 bd 79 be 8f bd 9e cd 0c 3d b7 dc 96 bd
       -0.03747248 -0.07018752 0.03437578 -0.07366317
000370 f3 85 0e 3d 84 6c 13 3d 06 81 11 3c 4f 2b 9d bc
       0.034795713 0.03599216 0.008880859 -0.01918569
000380 2b 59 46 bd 94 e3 0f 3d 24 34 68 3c 48 28 7d bc
       -0.04842488 0.035129145 0.014172588 -0.015451498
000390 04 eb 18 bd 91 c8 ca bd e2 d2 d9 3b 1d 8f c6 3c
       -0.037333503 -0.09901536 0.0066474536 0.024238164
0003a0 c1 ce b5 bb 5c c4 ba bd 91 10 36 3e a6 79 49 bd
       -0.0055483286 -0.09119484 0.17779757 -0.04918828
0003b0 df 8d 19 3d 7b ae 09 3d 9b 3d 95 bd 64 ee 92 bd
       0.037488814 0.033613663 -0.07287141 -0.07174376
0003c0 5b fb 05 bd e0 f4 f1 bd 35 f1 a1 3d 04 0f c7 3d
       -0.032710414 -0.11814284 0.07907335 0.09719661
0003d0 fd 8d b2 3d 65 e3 98 bd cf 13 44 3c 56 df 2b bc
       0.08718488 -0.07465247 0.011967613 -0.010490259
0003e0 bc 05 d1 bd 9b 85 01 bd bc 8e 76 bd 86 59 ce bc
       -0.10206172 -0.031621557 -0.060194716 -0.025189172
0003f0 d6 a8 ee bd 7e 90 c2 3c 2c 6b 8e bd 14 8e ae ba
       -0.11653297 0.02375054 -0.06954035 -0.0013317489

shared.2.bias f4 [128]
000000 31 f7 77 bd 62 4a 65 3c dc 22 04 bc 45 79 b4 bc
       -0.060538474 0.013994785 -0.008064952 -0.022030482
000010 cc c0 9a bd af 7e ff bc d1 af 4e 3d eb 8c 51 bc
       -0.07556304 -0.031188337 0.05046064 -0.012789945
000020 68 d3 a4 bd 0f 26 07 bd ed 1d 3a bd e5 29 0e bc
       -0.08048135 -0.03299528 -0.045438696 -0.008676981
000030 b8 4a 76 3c 85 3e 1b 3c 5c d9 7c bd 3c 29 3c bd
       0.015032463 0.009475355 -0.061730728 -0.04593776
000040 b3 88 ed bb 5a ec ee 3c 7b 9e 15 3d c6 b8 a6 bd
       -0.007248962 0.029165436 0.036528092 -0.081407115
000050 80 54 bb bb 82 43 5a bc d5 00 ef 3c c2 12 37 bd
       -0.0057168603 -0.013321759 0.029175201 -0.044695623
000060 75 8e 8c bd b3 f6 3c bd 34 1b 02 bd ba 9a c4 3c
       -0.06863109 -0.04613371 -0.031764224 0.02399956
000070 42 af 44 b7 45 79 a1 bd 9f 83 17 bc e8 f2 0e 3c
       -1.1723316e-05 -0.078844585 -0.0092476895 0.008724906
000080 58 a4 9b bd da 1a b9 bd 44 e1 0e bd c3 4f 2a bd
       -0.075997055 -0.09038325 -0.0348828 -0.041579973
000090 d2 e1 37 bc a1 46 1b bd f7 3c 90 3d 58 a8 b8 3c
       -0.011223273 -0.037909154 0.07042878 0.02254121
0000a0 20 c7 e4 b7 59 f2 ef bc 4a 19 a1 bd 08 1f 9b bc
       -2.7272443e-05 -0.029290365 -0.07866152 -0.018935695
0000b0 23 72 87 bc 37 7b 1f 3c ce 17 8a bc af f4 a2 bd
       -0.016533917 0.009733967 -0.016857054 -0.07956826
0000c0 75 7e a3 3b 64 6b 36 3c 81 83 11 bd 99 1d 2b bd
       0.00498944 0.011134002 -0.035525803 -0.041776273
0000d0 c5 87 ad bc bd fa 1f 3d b8 f2 80 bd ca 81 ef 3b
       -0.021182904 0.039057482 -0.06296295 0.0073091732
0000e0 e8 54 98 bc fe 83 a0 3c 4f c5 ac bd a6 91 6a bd
       -0.018595174 0.019594189 -0.08436071 -0.057267807
0000f0 38 c6 31 3b a7 2a e2 bd 65 98 b6 bd 24 f6 5f 3b
       0.0027126204 -0.110432915 -0.08915786 0.003417381
000100 0a f6 3a bd 88 b6 a2 bd 9d 31 8c bd 93 3b e2 3a
       -0.045644797 -0.07944971 -0.068454005 0.0017260186
000110 e4 91 82 3c 21 8a 21 bd cd 03 a5 bd 3c 03 2a bc
       0.015938707 -0.03943837 -0.080573656 -0.010376748
000120 74 0e 62 bd 5e e8 ac bb 15 cf bf bd 13 72 74 3b
       -0.055189565 -0.0052767238 -0.0936567 0.003729944
000130 b2 bc 86 bd e7 0d d2 3c 5d 7d c0 bd 34 30 1c 3d
       -0.065789595 0.025641395 -0.09398911 0.038131908
000140 5e 05 b7 bd bb 04 97 bd 05 db 43 bd fc 69 e1 bd
       -0.089365706 -0.07373949 -0.047816295 -0.11006543
000150 0c c6 c4 bd 94 a4 92 3c 3c c5 01 bd f5 b5 8e bd
       -0.09608087 0.017900743 -0.031682238 -0.06968299
000160 00 4c 20 3c aa 8c be bd cd 39 a5 bc 2b 6d 11 bd
       0.009783745 -0.09304173 -0.020169163 -0.0355045
000170 ad 6f 39 bd 10 0e b7 3c d5 ec 30 3b 6b f7 13 bd
       -0.045272518 0.022345573 0.0026996632 -0.036124628
000180 90 09 8d bd 21 b9 4d 3c 1a 8d 5a bb 36 39 87 bd
       -0.068865895 0.012556345 -0.0033348263 -0.06602709
000190 6f d7 c4 bc cc 5a 1b 3c 9c 04 80 bd 28 2c bc 3c
       -0.024028508 0.009482097 -0.06250879 0.022970274
0001a0 df 26 54 bd 82 32 20 3c 10 8d 03 bd a0 31 9a bd
       -0.051794883 0.009777667 -0.03211695 -0.075289965
0001b0 a9 88 47 3c 6f ee 96 bd ae d7 27 ba 9d cc f9 3c
       0.012178578 -0.07369696 -0.0006402683 0.030493075
0001c0 18 d8 42 bd f7 06 16 bd fc 59 cd bb 51 a3 00 bd
       -0.047569364 -0.036627736 -0.0062668305 -0.03140575
0001d0 8f 9b 22 bd 2d 27 af bd e5 89 a7 ba 40 9d 92 bc
       -0.039699133 -0.08552394 -0.0012782185 -0.017897248
0001e0 f4 71 0f bd 81 a5 89 bd 9a 0d 1d bc 49 e0 0c bd
       -0.035020784 -0.067210205 -0.009585762 -0.034393582
0001f0 2c 56 05 3e d4 e2 ae bd d0 d4 b5 bd 46 6c 76 bd
       0.13021153 -0.08539358 -0.088784814 -0.06016185

dice_policy.weight f4 [5, 128]
000000 d1 61 eb 3d 0a 6c 90 bd 01 97 56 3d 13 c4 9a bc
       0.114932664 -0.07051857 0.052390102 -0.018892324
000010 6f 70 ca bd 21 44 93 bc e9 ba f7 bd 1b 9d f1 bc
       -0.09884726 -0.017976822 -0.12096197 -0.029493859
000020 a9 5a 36 bd 38 7c 9c bb 93 aa f5 3c b5 b7 a3 bd
       -0.044520054 -0.00477555 0.029988563 -0.07994024
000030 9d fd c0 3c 29 7c 98 bc 9a a1 ae bd 0c e3 a2 3d
       0.023558432 -0.018613892 -0.08526917 0.07953462
000040 20 1b 84 3b 1d fb 10 3d 96 33 47 bd 66 c4 95 3c
       0.004031554 0.03539573 -0.04863318 0.018282127
000050 7d 28 68 bd e5 82 85 bc 2d f7 8d 3d 44 d0 4b bc
       -0.056679238 -0.016297767 0.06931911 -0.012439791
000060 c5 01 8d bd 01 58 b1 3b 04 b9 e2 3a b6 ca db 3b
       -0.06885103 0.005412102 0.0017297571 0.0067075146
000070 72 da 80 3d 75 a7 d9 bd 7e 4a 64 3d 44 4f 1f 3b
       0.06291665 -0.10627643 0.055735104 0.002430872
000080 4c 4c cb bd 13 94 aa 3c 75 46 d0 3c 30 be ec 3c
       -0.09926662 0.02082256 0.025424222 0.028899282
000090 57 85 12 3e b9 e0 41 bd d1 eb 47 3c 88 21 87 bd
       0.14308678 -0.047333453 0.012202219 -0.065981925
0000a0 aa 20 8a bd 3e 0e 87 bd 64 9f 96 bc 2c e1 60 3d
       -0.067445114 -0.06594513 -0.01838655 0.05490224
0000b0 e4 e2 be bd 4a 4d 04 bd eb 66 15 3c 0c 14 56 bc
       -0.0932062 -0.03230027 0.009118776 -0.013066303
0000c0 c1 be 44 bb 78 4b 0e 3d 84 6e 72 3d 2e 8d 43 bd
       -0.0030020925 0.03473994 0.059187427 -0.04774206
0000d0 3b e0 8c 3d 09 88 00 be 3f b5 6e 3d da 9a 83 bd
       0.06878706 -0.12551893 0.05827832 -0.0642602
0000e0 85 55 5a 3d 8b bf d7 bd 22 50 c2 bc ea 9b 01 3e
       0.053304214 -0.10534581 -0.02371985 0.12657133
0000f0 04 0d b2 bb cd a6 11 be 1a 66 56 3c 76 3d 14 be
       -0.0054336805 -0.14223786 0.013085866 -0.1447657
000100 1c b3 1c 3c cc c9 73 3d be 1e bd bd 2b ef 25 3d
       0.009564187 0.05951862 -0.09234379 0.04051129
000110 64 f6 e4 3b 38 41 03 3e af 05 86 bd 38 44 0a be
       0.00698738 0.12817848 -0.06544053 -0.13502586
000120 f1 08 4f bd 10 08 8f bc 16 4a 39 be a5 bc b6 3b
       -0.050545637 -0.0174599 -0.18094668 0.0055766874
000130 bf ea 12 3b b3 fd 35 bd 71 1e 83 3c 2b 05 57 bd
       0.0022417752 -0.0444314 0.016005727 -0.052495163
000140 e5 ce 96 bd 2b c2 0d bd 56 7a ad bc 65 42 9c 3c
       -0.07363681 -0.034609 -0.021176498 0.019074628
000150 33 9e 7b 3d 40 0f 4e 3d fb 53 dd bb a1 1a a2 bd
       0.061430167 0.050307512 -0.006754396 -0.07915235
000160 9e df 5a bd 64 11 b6 bd c6 5c da bd ff 03 05 be
       -0.053435914 -0.08890036 -0.106622264 -0.12989806
000170 34 cf 50 bd 9c 78 75 3d c8 c7 83 bd 84 25 13 bc
       -0.050978854 0.059929475 -0.064345896 -0.008981112
000180 4c 6b 74 3d a4 9d 16 3d 73 de 14 3d 8d cf 66 bb
       0.05967264 0.03677143 0.036344957 -0.0035218925
000190 c0 00 a0 3d 46 d3 b7 3c bd 16 e0 3d 98 0b a0 3c
       0.07812643 0.02243961 0.10941837 0.019536778
0001a0 d2 aa 07 be 7d 9a 90 bd c9 87 64 3d 9d aa 64 bd
       -0.13248757 -0.07060716 0.055793557 -0.055826772
0001b0 20 5c b6 bc 7e 79 b6 bd 66 c3 e2 bd a1 e8 8b bd
       -0.022260725 -0.089098915 -0.110724255 -0.0683148
0001c0 b9 9a fc 3c b4 2b d6 bd 32 41 5b bc 5d e4 bd 3c
       0.030835496 -0.104575545 -0.013382243 0.023180181
0001d0 7e 0f 80 bd 04 b3 d1 bc b5 da 91 3d 7f 19 38 3d
       -0.06252955 -0.025598057 0.07121793 0.04494619
0001e0 ac 8a bf 3c db b8 41 3d 24 87 72 bc 75 e1 84 bd
       0.023381554 0.047295433 -0.014802728 -0.06488315
0001f0 2c d6 75 bd 66 e4 4a bd 01 54 6c 3d 4d 4c 56 3d
       -0.060018703 -0.049534224 0.0576973 0.05231886
000200 2c dd ff 3c 9b a3 11 bd 84 76 9b 3d d0 28 5e bd
       0.031233393 -0.035556417 0.075909644 -0.05423814
000210 6b 92 a1 bd 35 ee 17 bd 36 db 2e 3d a1 5c 91 3c
       -0.07889255 -0.037092406 0.042689525 0.017744364
000220 8e 65 73 bc 3e 77 a9 ba c0 12 9b bc e9 0f ad 3c
       -0.0148557555 -0.0012929214 -0.01892984 0.02112575
000230 a7 62 aa bc e0 b4 9c bd a2 90 87 3d 96 fc a6 bb
       -0.020798994 -0.07651687 0.066193834 -0.0050960286
000240 ea f7 48 3c 03 45 d1 3a 9c 8d 55 bd 76 d9 81 bc
       0.012266139 0.0015966002 -0.052137002 -0.015850764
000250 8e f3 d0 3d c2 c7 3e bd b7 e4 6c 3c 42 98 6f 3d
       0.10202704 -0.046577223 0.014458827 0.058494814
000260 43 6f 7e 3d 1f 2b e7 bc 7f d6 53 3c 90 a0 83 ba
       0.062117826 -0.028218804 0.012929558 -0.0010042358
000270 8b 30 55 bd f8 90 1f 3d ab 3f 8b bd 44 ce 2d bd
       -0.052048247 0.038956612 -0.06799253 -0.04243304
000280 63 d4 d3 3d 0a 92 92 3d e3 cc 02 3d c4 77 eb 3c
       0.10343244 0.07156761 0.031933676 0.028743632
000290 e6 7f 98 3d 9a 0a 36 3d 15 cd 80 3c 61 04 78 3d
       0.0744627 0.044443704 0.01572279 0.06055105
0002a0 fc 2f 30 3d 2b c7 c9 bd 09 f6 3b 3d 3f 4d ad 3c
       0.04301451 -0.098524414 0.045888934 0.021154998
0002b0 a0 4d b5 3d 0c 5d b1 bd 0c 75 cb bd f1 f9 2b 3d
       0.088526964 -0.086603254 -0.09934434 0.04198641
0002c0 dd 60 56 3d ae 4e c2 bc 20 6a 85 bc 85 5b 9b bd
       0.05233847 -0.023719158 -0.016285956 -0.07585815
0002d0 53 8f 2a bd b2 7a 1a be 77 26 82 bd da 91 8b bd
       -0.04164059 -0.15085867 -0.06354993 -0.06814928
0002e0 08 3f 61 3d 13 32 97 bd c4 98 6a 3d 4a 39 12 be
       0.054991752 -0.07382598 0.057274595 -0.14279667
0002f0 ec e2 13 bc e1 bc 05 3c 09 0b cc bd d8 b6 54 3c
       -0.00902627 0.008162708 -0.09963042 0.0129830465
000300 04 2e ea bc c6 95 60 bd 95 81 56 bd 76 99 fb bd
       -0.028586395 -0.054830335 -0.052369673 -0.1228513
000310 cb c6 0c 39 97 b1 94 3d 23 09 30 bd f3 93 63 3d
       0.00013425497 0.07260435 -0.042977463 0.055561017
000320 19 38 a8 bd e3 8d 28 bd 9d fe 9e bd 18 39 7b bd
       -0.08213825 -0.04115094 -0.077634074 -0.061333746
000330 29 e7 89 bd 8f ed 80 bc f6 27 18 3c c6 97 74 bd
       -0.067335434 -0.015738277 0.009286871 -0.059715055
000340 c0 2e a7 bb 55 b2 85 bd 09 b9 89 3b c9 6b 05 3c
       -0.0051020086 -0.06528155 0.004202966 0.008143374
000350 aa d8 23 3c 7e cf a3 3c 19 c1 7d bd 12 7e d4 bd
       0.010000387 0.0199964 -0.06195173 -0.103756085
000360 8b 78 13 bd 32 af 86 3d d9 6a f9 bd bb af e7 3c
       -0.03600363 0.065763846 -0.12178583 0.028282037
000370 94 da 90 bd fb 09 73 3d 27 01 9c bc 48 f6 dd bd
       -0.070729405 0.05933569 -0.019043518 -0.1083799
000380 92 bd d1 3d 36 c7 ad bd 8c 73 81 bb 7a 85 5f 3d
       0.10241236 -0.08485262 -0.003950542 0.054570653
000390 91 f1 fd 3c 63 08 b3 3d 3d 85 ef bc eb 73 74 bd
       0.030998977 0.08741834 -0.029238338 -0.05968086
0003a0 a1 6c 5e bc 5b 7b a3 bd af bb c2 3c 49 dd a4 bd
       -0.013575704 -0.079825126 0.023771135 -0.08050019
0003b0 a6 67 ae 3b f0 fa 5a 3c 87 8c 11 bd 78 d1 c7 bb
       0.0053224145 0.013365492 -0.035534408 -0.0060979687
0003c0 bb 4e ba 3c 6b 3d 02 3d 3b 97 53 bc ce 47 de 3d
       0.02274262 0.031796854 -0.012914474 0.108535394
0003d0 96 e2 41 bd f7 c9 99 3c 99 e4 73 3c 1c 84 20 bd
       -0.04733523 0.018773062 0.014886045 -0.03918849
0003e0 44 af 01 bd d1 81 4f 3d a2 f8 68 3d c2 79 f0 bd
       -0.031661287 0.050660912 0.05687774 -0.117419735
0003f0 9f 26 18 3d 1a 27 45 bd 2f 47 53 3c 90 88 44 bd
       0.037146207 -0.048132993 0.012895389 -0.0479818

dice_policy.bias f4 [5]
000000 68 8b a8 bd 3d 4c bd bd be dd f4 3a 9c 6d 8b bd
       -0.08229715 -0.09243057 0.0018681807 -0.06808016
000010 de a4 b4 3d
       0.088205084

category_policy.weight f4 [13, 128]
000000 4e 62 99 bd a3 e0 81 be f4 ba d8 bb 13 93 a3 be
       -0.07489453 -0.25366697 -0.0066140834 -0.31948146
000010 af d7 9f 39 e1 ad be bd 95 e4 df bc 17 de c2 bc
       0.0003048754 -0.093105085 -0.027330676 -0.023787541
000020 71 ec 1b 3d ab 49 39 bd cf d7 85 3d ac 67 99 3c
       0.038067285 -0.04523627 0.06535303 0.018726192
000030 1e ca 6a bc c3 60 0e bd d7 38 b6 ba 92 3b 19 bd
       -0.014330415 -0.034760248 -0.0013902438 -0.037410326
000040 09 83 16 3d 6d 53 c0 bd e2 e1 b7 bd c8 29 05 3d
       0.03674606 -0.09390912 -0.089786306 0.03251055
000050 8e 1d 8f bd 40 20 f6 bc 62 bd c0 bd 81 af 7c bd
       -0.06988059 -0.030044675 -0.09411122 -0.06169081
000060 b2 64 5b bd d7 5f f2 bd d6 e7 51 3d c9 c0 3a 3c
       -0.053562827 -0.11834686 0.051246487 0.011398503
000070 75 0c 59 bd a1 ba e1 bb 78 11 a0 bd 12 84 41 3d
       -0.052990396 -0.006888703 -0.07815832 0.047245093
000080 c7 6c e8 bc e2 f5 0a 3d 26 19 4d 3c 22 b4 b6 3c
       -0.028372182 0.0339259 0.012518203 0.02230269
000090 2e b1 ba 3c 97 28 4e bd 6f 3e 92 bd b4 dc ba bc
       0.022789564 -0.05033168 -0.071408145 -0.022810318
0000a0 dd 1c e0 3c 71 43 4f 3d 84 aa 57 bd ec a8 9b bd
       0.027357513 0.050601427 -0.05265285 -0.07600579
0000b0 64 da 80 bd ed 07 c4 bc 4e c5 9e bc 56 6b 84 bd
       -0.06291655 -0.02392956 -0.019381192 -0.06465785
0000c0 7b bc 87 bd 5b ee 40 3c 59 fc 8c bb 80 62 66 bd
       -0.06627747 0.011775578 -0.004302543 -0.05624628
0000d0 e6 58 09 bc ed 8d c8 bd 2d 65 63 3d 5e 90 8f 3d
       -0.008383011 -0.09792695 0.05551641 0.07009958
0000e0 2c 8b 86 bd 8a 46 e7 bc c8 9f 48 3d d7 1b a8 bc
       -0.06569514 -0.028231878 0.048980504 -0.020521088
0000f0 51 38 4c 3d e0 73 9f bd 8a 2c 10 3c 1f 8f b8 bd
       0.049858395 -0.07785773 0.008799681 -0.09011673
000100 c1 0f 89 3d 67 db a4 bd 50 37 cd 3c 9d 03 3b bd
       0.06692458 -0.0804966 0.02505079 -0.045657743
000110 ab d1 95 3c f2 23 01 bd 0b d5 68 bb ac ca 47 be
       0.018288454 -0.03152842 -0.0035527374 -0.19510907
000120 e1 7c 7d 3d b8 de 50 3d e7 89 14 be dc 48 09 bc
       0.061886672 0.05099365 -0.1450573 -0.008379187
000130 ea b1 9a bd 6a 11 38 3d f6 ee a5 bd ac cb c6 bb
       -0.07553466 0.044938482 -0.08102219 -0.00606676
000140 c2 77 dc 3c 2d 41 4c bc 87 1f 4d 3d fa 4f 34 be
       0.026912574 -0.012466711 0.050078895 -0.17608634
000150 fa cd c1 bd 6e 91 3f bd e2 53 8a 3d fb a2 a9 bd
       -0.09463115 -0.046769552 0.067542806 -0.08283039
000160 33 fc 3e bd 76 58 49 3d 51 01 1d be e6 a1 aa bc
       -0.046627235 0.04915663 -0.15332533 -0.020829152
000170 64 fe ab 39 00 5f b6 bd cd d4 7e bd fd fa f4 bc
       0.00032805197 -0.089048386 -0.06221466 -0.029904837
000180 38 c6 ac bd c8 47 2a 3d ab b4 e6 3c 67 7e 38 bd
       -0.08436245 0.041572362 0.028162321 -0.04504242
000190 ba 0c 89 bd 55 ed 86 bd c1 99 2a 3b 7e b7 c8 3c
       -0.066918805 -0.06588236 0.0026031586 0.024501558
0001a0 46 92 ef bc 98 bc 0d be b7 85 06 bc a9 39 ae bd
       -0.029244553 -0.13841474 -0.008210591 -0.085070916
0001b0 a8 b9 8c 3d dd 20 0d bd 6c b2 08 be b6 42 97 bc
       0.068713486 -0.03445517 -0.13349313 -0.018464427
0001c0 08 3d 81 bd d2 4a f5 bd 9a 96 d6 ba ac 3d b7 bd
       -0.06310469 -0.119771615 -0.0016371787 -0.0894731
0001d0 4b b9 49 3d 8e 68 06 bd 3f 0e 7b bc 8b aa 71 bb
       0.049248975 -0.032814555 -0.015323221 -0.0036875333
0001e0 34 dd ef bc 67 41 c4 3c 15 07 98 bc 06 66 f6 3c
       -0.029280283 0.023956968 -0.018558064 0.030077945
0001f0 fe dc 2b bf ea 00 3f 3d 44 bf 44 be a5 fb 04 3d
       -0.6713408 0.04663173 -0.19213587 0.03246655
000200 b8 d6 f8 bd ee 46 1b be 96 bc 2a bd e9 3e 7d be
       -0.12150329 -0.15163776 -0.041683756 -0.2473103
000210 0a 29 37 3d 6c a7 85 3a f1 54 3f bd 4a a1 3d 3a
       0.044716872 0.001019699 -0.046711866 0.0007233812
000220 e5 d5 9b bd a9 03 eb 3c 6c bb aa 3c 5c 1d 32 3d
       -0.076091565 0.028688269 0.020841323 0.04348503
000230 54 91 62 bd ef 71 3d bd 4f 49 45 bd 7d 6a d2 bd
       -0.055314377 -0.046251234 -0.048165616 -0.10274217
000240 57 2e 30 bb 2b 43 49 bd 5f fc 07 be 5c a7 40 3d
       -0.002688309 -0.049136322 -0.13279866 0.047034606
000250 d4 aa 20 bd 92 f3 b0 bc f1 ca a3 bd ce 88 65 bd
       -0.039225414 -0.021600518 -0.079976924 -0.05603867
000260 ba e7 4b bd 88 03 80 be 03 84 26 3d a2 38 8b 3d
       -0.04978154 -0.25002694 0.04065324 0.06797911
000270 f0 e2 50 bc 74 82 19 bd cd a0 dc bd 4d 3f 7b 3d
       -0.012749419 -0.037477925 -0.10772858 0.061339665
000280 0f a8 dd bd 36 2b a1 3a 59 0a db bc 21 21 8f 3c
       -0.1082307 0.0012296203 -0.026738333 0.017471852
000290 b6 5d 87 3c 87 3d 4c 3d 71 26 98 bd e1 c2 1a 3d
       0.016524177 0.049863365 -0.07429207 0.037783507
0002a0 85 f1 e7 bc a2 c3 ed bc 5d ee 6a 3d d7 13 87 bd
       -0.028313408 -0.029023949 0.057356227 -0.06595581
0002b0 b7 24 81 bd 81 e6 0c 3c 8d 84 af bd 5d ea 71 bd
       -0.06305831 0.008599878 -0.08570204 -0.059061397
0002c0 b5 62 fd bd 2c a2 8d 3c e7 b9 b9 3a 88 4c 59 3b
       -0.123723425 0.017289244 0.0014169783 0.0033157188
0002d0 c6 84 8e bd 14 b7 96 bd ca b5 9d bd 41 83 f9 3c
       -0.06958918 -0.07359138 -0.07700689 0.030458095
0002e0 f2 c6 6a bd aa 29 ce bd 20 5d 45 bd 25 cb 26 be
       -0.057318635 -0.100665405 -0.048184514 -0.16288431
0002f0 ac 46 e6 3c ba ed c3 bd 58 10 a7 bd 59 4d 5d be
       0.02810987 -0.09566827 -0.08157414 -0.21611537
000300 50 e1 1b bd 04 94 0d bc 11 74 2c 3d 13 6c 7b be
       -0.03805667 -0.008641247 0.042102877 -0.24552946
000310 a8 39 41 bc 2c f2 17 3d 1c 67 e9 bd 33 88 80 be
       -0.0117935315 0.037096187 -0.1139662 -0.25103912
000320 17 9b 91 bd cf 51 9a bd 0a d8 11 bd 47 da 7a 3c
       -0.07109659 -0.07535135 -0.03560642 0.01531083
000330 1a c9 bf 3c 79 28 b7 3c 31 4f be bd 66 92 24 ba
       0.023411322 0.022358166 -0.09292448 -0.00062779186
000340 8b 91 a5 bd 18 6c 0c bd 92 a0 9d 3b a2 8e 83 bd
       -0.08084401 -0.034282774 0.0048104012 -0.064236894
000350 26 62 86 bd 49 95 31 bc 02 5c 86 bc b1 12 f6 bb
       -0.06561689 -0.010838815 -0.016401295 -0.0075095524
000360 af 32 d9 3c 59 dd 7f bd 3d 91 01 be a7 11 c3 bd
       0.026513426 -0.062466953 -0.1265306 -0.09524851
000370 c7 d8 95 bd d9 79 68 3d da ed 5f 3d cd b0 2d bc
       -0.073167376 0.056756828 0.054670192 -0.010601235
000380 6d e2 12 be 68 97 86 3a 3e ff 1c 3d 1b 98 85 3d
       -0.14344187 0.0010268511 0.038329355 0.065231524
000390 bf 96 4b 3c 31 f3 2b be b4 48 90 bd 47 6e c4 bd
       0.012426077 -0.16791989 -0.07045117 -0.09591346
0003a0 ec 7d 0b bd a8 75 30 be ca 37 f7 3a 7a 8b c9 bc
       -0.034055635 -0.17232382 0.0018861231 -0.02460264
0003b0 80 62 79 3c 06 07 89 bd 33 d8 3b be d0 45 36 bd
       0.015221238 -0.06690793 -0.18344192 -0.044500172
0003c0 f3 fa 00 3d 7b 08 23 be b2 a7 a2 bd 66 08 19 bd
       0.031489324 -0.15921204 -0.079421416 -0.037361525
0003d0 3d 5d 15 bd 23 15 90 bc 72 37 85 3d 01 f8 53 3d
       -0.036465872 -0.017588204 0.06504716 0.051750187
0003e0 94 c7 6a 3d 21 21 4b 3d 8f 3e 8c 3c 95 70 17 3d
       0.05731924 0.04959214 0.017119674 0.0369726
0003f0 39 de 21 bf 94 9f cf ba ad 95 5f be 01 89 52 3d
       -0.6322971 -0.0015840405 -0.2183444 0.05140019

category_policy.bias f4 [13]
000000 4c 82 26 bd f6 c2 a0 bd 7f d8 b0 bc ea 06 4f 3d
       -0.040651605 -0.07849686 -0.021587608 0.050543703
000010 49 1c 8b 3d 33 09 5d bd c3 c2 8f 3c e3 17 83 3c
       0.06792504 -0.05396385 0.017548924 0.016002601
000020 9f af 98 3c 60 6c 3c 3c 66 e1 81 bb 1b a6 76 bb
       0.01863843 0.011500448 -0.003963637 -0.0037635628
000030 5e 3d 37 3d
       0.04473626

value.weight f4 [1, 128]
000000 73 df 5a bc 0b ab 94 bd da 25 87 bc f6 60 09 bd
       -0.0133589385 -0.07259186 -0.016497541 -0.033539735
000010 df 77 8a 3d c2 1b b4 bc d5 d8 8d bd 40 41 14 ba
       0.06761145 -0.021985892 -0.06926123 -0.0005655475
000020 82 a1 db bb b8 09 7f bd df cc 9a 3c 55 62 6e 3d
       -0.006702603 -0.062265128 0.018896518 0.058199245
000030 3e 17 4f bc 0b 30 e7 3c 73 73 fa bc cd 68 0a 3d
       -0.012639819 0.02822115 -0.030572629 0.033791352
000040 b6 fc 68 bd ca 07 f6 bc 24 b5 2f bc a0 3c 95 3a
       -0.05688163 -0.030033011 -0.01072434 0.0011385866
000050 b9 5b b0 3d af 0f 8b 3d 35 e4 b7 3c db 2c 16 bd
       0.08611245 0.06790101 0.022447685 -0.03666387
000060 be b0 44 bd 8f 15 e9 ba 6d 7e 1a bc 70 bc 84 3d
       -0.048020117 -0.0017782914 -0.009429556 0.06481254
000070 b8 a5 a5 bd 69 4b 88 3c 4a 46 31 bb 18 8e b3 bc
       -0.08088249 0.01663752 -0.0027049952 -0.021918342
000080 b6 e5 67 3d f6 65 eb 3c 81 a0 a6 3d 7b 6f 24 ba
       0.056615554 0.028735142 0.081360824 -0.00062727154
000090 b6 5f dd 3c 38 38 ac bd e7 cb 8e bd 70 91 c7 3c
       0.027023178 -0.084091604 -0.06972485 0.024361342
0000a0 a7 c6 13 3d b4 7e 8f bd 85 b3 15 3d 5f 3f 91 3d
       0.03607812 -0.070065886 0.036548156 0.07092165
0000b0 04 72 a5 bb 1c 25 6e bd d8 f2 2d 3c 1a 8c a7 3c
       -0.005048992 -0.05814086 0.0106169805 0.020452548
0000c0 00 55 21 3d 61 e9 94 3d 09 2f 2c bd e1 3d 8e 3d
       0.039387703 0.07271076 -0.042037044 0.06945396
0000d0 24 e3 38 3d 96 aa 57 3d 44 ec bd bc 5d 8d 40 bd
       0.045138493 0.052652918 -0.02318395 -0.047009815
0000e0 de 4b c4 bc b8 6b ac bd aa b6 44 3d a4 17 10 bc
       -0.023961958 -0.08418983 0.048025765 -0.008794699
0000f0 5a e4 63 bd 88 75 01 bd 78 2b ad bd 47 29 89 3d
       -0.055637695 -0.031606227 -0.08455557 0.06697326
000100 e0 79 ab bd 75 8e c6 bc b9 e8 75 3d 8b d4 7a 3b
       -0.08372855 -0.02423785 0.060036395 0.0038273658
000110 1d c1 12 3d 88 1d 55 bd bf d1 8b bd 39 a5 2e 3d
       0.0358287 -0.052030116 -0.06827115 0.042638037
000120 eb 2e 7b 3c 94 68 ab 3d 01 da 3a 3b 86 2e 07 bd
       0.01533101 0.08369556 0.0028511288 -0.033003353
000130 c5 ab 84 3d 44 fc 8a 3c 1c ce cc 3c 54 3b 93 3d
       0.06478075 0.016965993 0.025000624 0.0718905
000140 83 81 95 bd 85 05 4b bd c8 01 89 3d 62 45 82 3d
       -0.07300093 -0.04956581 0.06689793 0.0636089
000150 8b 40 89 3d a0 ce fd 39 6b a4 34 bd 53 07 63 3d
       0.06701764 0.00048409868 -0.044102114 0.055426907
000160 04 99 af 3d 97 83 b9 bb 09 23 26 3d 16 13 cf bc
       0.08574107 -0.0056614387 0.040560756 -0.025277656
000170 6d 2e 4e 3d 05 4d 15 bd bc 3a 8f bd b1 ac d2 3c
       0.050337244 -0.036450405 -0.069936246 0.025717111
000180 b1 1a 8d bd 64 ad 9f bd 12 ed d0 bc 66 12 84 bc
       -0.068898566 -0.077967435 -0.025503669 -0.016122054
000190 be a8 72 bb ef 3f 82 3d 6d 3f 77 bc 62 96 99 bd
       -0.0037026848 0.063598506 -0.0150908055 -0.07499386
0001a0 15 b2 e3 bc 1b 3b a9 bb e3 bd a7 ba 8c 8a a0 bb
       -0.027794877 -0.0051645166 -0.001279768 -0.0048993286
0001b0 ad 94 79 3d 46 b7 3d 3c 74 e7 97 bd 4e 96 76 bd
       0.060932804 0.01157934 -0.07417193 -0.060201935
0001c0 b9 32 9d 3d 41 fe 36 3d c0 13 81 3d 57 29 83 bc
       0.0767569 0.04467607 0.06302595 -0.016010923
0001d0 d1 e2 f2 3b 8d 73 75 3d 37 cc a2 3d bd 1a fc bc
       0.0074122925 0.05992465 0.07949107 -0.030774469
0001e0 a7 32 23 3c 50 91 a8 39 49 e6 a8 3d 8c 37 e4 3c
       0.009960807 0.00032151723 0.082470484 0.027858518
0001f0 b7 99 2b 3b 4b b5 9f bd 99 46 31 bc 3e ac 0e bd
       0.002618415 -0.07798251 -0.010820054 -0.03483223

exp_avg f4 [256, 23]
000000 df af d8 bc d0 fb c8 bc 17 59 df bc 7e f8 62 bc
       -0.02645105 -0.024534136 -0.027264161 -0.0138531905
000010 b3 af d8 bc 00 00 00 00 35 30 6a b6 96 ba 3a b9
       -0.026450967 0.0 -3.4896777e-06 -0.00017807851
000020 54 95 8b bc c2 41 8a ba 3a 72 ed ba e7 6e 08 be
       -0.017038979 -0.0010548162 -0.0018115707 -0.13323556
000030 98 f8 49 be 59 24 28 be 6b 15 0f be 5d 99 3f be
       -0.19723737 -0.16420116 -0.13973014 -0.18710847
000040 b3 83 85 be 51 7c 88 be 3f 81 d2 bd 00 00 00 00
       -0.2607704 -0.26657346 -0.10278558 0.0
000050 5b e0 14 ab 00 00 00 00 00 00 00 00 ce de 71 bc
       -5.289152e-13 0.0 0.0 -0.014762593
000060 86 84 16 bc 56 cb b0 bc f6 2d 1a bb 79 21 f9 bb
       -0.0091868695 -0.021581333 -0.002352593 -0.007602867
000070 00 00 00 00 ff 75 54 38 7b fd 9e ba 6a ea b6 bc
       0.0 5.065463e-05 -0.0012129986 -0.022328574
000080 d7 5b 30 39 4f 42 01 bb ce 06 98 bd 55 9c ec bd
       0.00016818881 -0.001972336 -0.07423173 -0.115532555
000090 82 c4 cb bd 4b f1 a2 bd dc e5 d8 bd dc 34 1d be
       -0.0994959 -0.07956179 -0.10590717 -0.15352196
0000a0 cf e2 24 be af 15 61 bd 00 00 00 00 c6 75 e9 2b
       -0.16102146 -0.05495232 0.0 1.6588334e-12
0000b0 00 00 00 00 00 00 00 00 5e 76 79 bb f2 6b 98 b9
       0.0 0.0 -0.0038064937 -0.00029072125
0000c0 8b 99 9f bb f7 b8 40 3a 5f c3 5f bb 00 00 00 00
       -0.0048705987 0.00073517807 -0.003414355 0.0
0000d0 df 16 37 38 c1 a9 5d 39 c4 95 a2 39 16 70 bc 3a
       4.36519e-05 0.0002113944 0.00031010632 0.0014376666
0000e0 d9 6e 19 3a af 14 68 ba ee 0d af b1 10 d1 da b1
       0.00058530044 -0.000885318 -5.094754e-09 -6.3684027e-09
0000f0 44 12 4f 05 35 2c bf bc 6c ee fa bc 9a b7 06 b5
       9.736448e-36 -0.02333651 -0.030631267 -5.0186065e-07
000100 f3 68 f6 bb 00 00 00 00 29 9e 41 9f 00 00 00 00
       -0.007519835 0.0 -4.1000167e-20 0.0
000110 00 00 00 00 d5 19 e2 ba 9c fb e3 ba a0 38 3a bb
       0.0 -0.001725013 -0.0017393711 -0.0028415099
000120 88 10 9e ba 9a 9b 5d 3a 00 00 00 00 3e 3a e6 36
       -0.001205937 0.00084536674 0.0 6.8613144e-06
000130 17 f2 5f b6 34 07 da b6 e1 6a c5 b7 4c eb ab b7
       -3.3370504e-06 -6.497745e-06 -2.3534e-05 -2.0494357e-05
000140 20 eb cb bb fc 88 51 bb 43 8a 8e 33 d8 b3 0f bd
       -0.0062230974 -0.0031972518 6.63754e-08 -0.03508362
000150 f1 1f 64 bb 87 d7 97 bb 02 91 ed 33 1f 71 c7 bb
       -0.0034809078 -0.004633847 1.1062549e-07 -0.006086483
000160 00 00 00 00 7d 04 e2 2a 00 00 00 00 00 00 00 00
       0.0 4.014878e-13 0.0 0.0
000170 8a 3b 0e 3c ea ba af bb 17 a0 19 3c 7f 56 03 bc
       0.008681187 -0.005362858 0.009376547 -0.008016228
000180 95 48 c2 3b 00 00 00 00 12 b5 d2 38 01 79 46 38
       0.0059290626 0.0 0.00010047307 4.7319572e-05
000190 c1 da 94 38 01 79 46 39 23 17 78 39 cb 07 9e 39
       7.097936e-05 0.00018927829 0.00023659742 0.00030141915
0001a0 b8 8b e0 32 04 00 00 00 76 9d a4 3a 63 f6 ca 3c
       2.6140569e-08 6e-45 0.0012559134 0.02477569
0001b0 26 0e 07 3d 04 00 00 00 62 4d 50 3c 00 00 00 00
       0.032972477 6e-45 0.012713762 0.0
0001c0 04 00 00 80 00 00 00 00 00 00 00 00 5b 97 58 3b
       -6e-45 0.0 0.0 0.00330492
0001d0 81 4a 33 3b 98 ba 4e 3b 9a 59 d9 3a 21 27 5e 3b
       0.002735764 0.0031544324 0.001658249 0.0033897834
0001e0 00 00 00 00 2b d6 ec 2a 47 20 93 2b 70 b0 dc 2b
       0.0 4.207063e-13 1.0453937e-12 1.5680911e-12
0001f0 f9 c2 d3 39 10 7a c9 28 9b 60 1e 3c 12 a3 85 ba
       0.00040390322 2.2368419e-14 0.009666587 -0.0010195693
000200 9a ff 8d ba 58 71 7b b3 04 00 00 00 04 00 00 00
       -0.0010833621 -5.8543577e-08 6e-45 6e-45
000210 6d b4 f6 2c eb 0d 56 3c 00 00 00 00 1c e4 9d 2a
       7.011772e-12 0.013064842 0.0 2.8047085e-13
000220 00 00 00 00 00 00 00 00 18 68 60 bb 40 30 93 3b
       0.0 0.0 -0.0034241732 0.004491836
000230 ef 99 86 bb bf b8 3d bb e4 16 8f ba 00 00 00 00
       -0.004107706 -0.0028949229 -0.0010916856 0.0
000240 76 a2 f9 b9 b7 e7 1c bb 38 33 3e 3c 04 85 cb ba
       -0.00047614024 -0.0023941824 0.011608891 -0.0015527313
000250 35 49 f0 ba 4d a9 50 3d b3 2d 1f 3d e9 b3 8c 3d
       -0.0018332364 0.050942708 0.03886194 0.06870253
000260 7c 13 5f 3d 35 9a 68 3d 0b 80 af 3d e6 08 48 3e
       0.05446194 0.05678769 0.08569344 0.19534644
000270 51 04 df 3c 00 00 00 00 1f 98 8c ab 00 00 00 00
       0.027223738 0.0 -9.98982e-13 0.0
000280 00 00 00 00 07 62 ee 07 07 62 ee 06 07 62 6e 07
       0.0 3.5867875e-34 8.966969e-35 1.7933938e-34
000290 07 62 ee 06 72 c9 b2 07 00 00 00 00 04 00 00 00
       8.966969e-35 2.6900862e-34 0.0 6e-45
0002a0 04 00 00 00 04 00 00 00 04 00 00 00 04 00 00 00
       6e-45 6e-45 6e-45 6e-45
0002b0 04 00 00 00 04 00 00 80 00 00 00 00 00 00 00 00
       6e-45 -6e-45 0.0 0.0
0002c0 dd 7b 5f 09 04 00 00 00 00 00 00 00 04 00 00 00
       2.6900889e-33 6e-45 0.0 6e-45
0002d0 00 00 00 00 00 00 00 00 00 00 00 00 00 00 00 00
       0.0 0.0 0.0 0.0
0002e0 62 cc 3e 03 75 7f ee 03 46 19 8f 03 62 cc be 02
       5.60706e-37 1.40176455e-36 8.410587e-37 2.80353e-37
0002f0 46 19 8f 03 00 00 00 00 04 00 00 80 04 00 00 00
       8.410587e-37 0.0 -6e-45 6e-45
000300 04 00 00 80 04 00 00 00 04 00 00 80 04 00 00 00
       -6e-45 6e-45 -6e-45 6e-45
000310 04 00 00 80 04 00 00 80 af 0f 15 05 04 00 00 00
       -6e-45 -6e-45 7.008827e-36 6e-45
000320 04 00 00 00 04 00 00 80 04 00 00 80 00 00 00 00
       6e-45 -6e-45 -6e-45 0.0
000330 04 00 00 00 00 00 00 00 00 00 00 00 74 4c 34 b9
       6e-45 0.0 0.0 -0.00017194619
000340 ec 4a 34 b9 79 63 e1 b9 20 50 b4 b9 90 3a 87 b9
       -0.00017194048 -0.00042989457 -0.00034391973 -0.0002579284
000350 00 00 00 00 bd 3e 53 2a e4 c2 9d 31 81 15 a1 aa
       0.0 1.8762331e-13 4.591458e-09 -2.8614266e-13
000360 36 52 b4 b9 69 e7 c2 33 b5 3c 07 bb 22 c6 1d bb
       -0.00034393527 9.075922e-08 -0.002063555 -0.0024074395
000370 8c 80 12 bb cc 31 84 0c 10 00 00 00 15 00 00 00
       -0.0022354452 2.036779e-31 2.2e-44 3e-44
000380 0f b2 bb 34 45 de 0c bb 00 00 00 00 b7 1d 76 ab
       3.496102e-07 -0.0021494788 0.0 -8.7437994e-13
000390 00 00 00 00 00 00 00 00 d4 95 c0 b5 8c fc d8 b6
       0.0 0.0 -1.434872e-06 -6.466702e-06
0003a0 4b 42 09 b7 16 dd 5a b6 fc 93 9d b6 00 00 00 00
       -8.181271e-06 -3.261322e-06 -4.6961923e-06 0.0
0003b0 87 15 1c a0 bf 0e 28 a1 08 17 f9 25 8f be 33 23
       -1.3220837e-19 -5.694013e-19 4.321022e-16 9.743962e-18
0003c0 94 03 1f 21 62 97 29 ad 50 47 1e ad 36 96 29 ad
       5.387603e-19 -9.6401515e-12 -8.997095e-12 -9.639891e-12
0003d0 86 14 c3 94 f0 1c e3 35 81 71 86 b8 c9 50 8d ad
       -1.9698063e-26 1.692124e-06 -6.41076e-05 -1.606572e-11
0003e0 cb ff f9 25 00 00 00 00 53 e2 b4 aa 00 00 00 00
       4.3367947e-16 0.0 -3.2131467e-13 0.0
0003f0 00 00 00 00 c5 9e 17 39 cf a5 e3 38 66 27 6e 39
       0.0 0.00014459628 0.00010855088 0.00022712126
