checkpoints/yahtzee_pretrain_incremental_500ep/checkpoint_ep49.pt (torch, 510781 bytes, 25 tensors)

shared.0.weight f4 [256, 23]
00000000: 0ddc a63d 218c 3b3e c24a 9c3c 3dd9 00be
00000010: bf37 b7bd a070 46bd 1d06 2bbe 5f6e 9ebd
00000020: 3889 4dbe 7518 bbbd 485e 403e 4337 2aba
00000030: 44ae 1a3e cc49 353e e058 3b3c cd34 cebd
00000040: 4712 183e e951 723d f87a a6bd 21d6 49bd
00000050: 38a4 923d c1de 15bc 69fe 993c 7ef9 c23d
00000060: 8b5e 033e a2f5 55be b73d 45be e0f5 41be
00000070: 7311 2cbd 6f8b 293e ace2 a93d a8a6 f23c
00000080: 027a 35be c606 1d3e 421a 84bd a020 963c
00000090: df14 d73d f166 02be 3285 f23d 107b 493d
000000a0: 1626 b23c ef21 38bd d39e 58bb b241 a2bd
000000b0: 822b ec3d bec3 9dbd b7ac 59be 1f1d 433e
000000c0: 9222 8d3c 16a4 e83c 2635 1e3e e869 143d
000000d0: be43 28be a5a6 79bd 825e 533e d4cf c03d
000000e0: 69e6 8d3c f10f 313d fbf4 29be 1bd0 d93d
000000f0: 4ef5 cdbb f3ba 413e fa7d 003e 4a17 1c3e
00000100: 6124 423d f4a4 26bd 9c6e 37be a747 2cbe
00000110: 21c0 033e ebe1 4fbe 6397 1c3e 5a7a 2e3d
00000120: 0f36 f3bd 7e96 893d ac40 fbbd d6c4 06be
00000130: b9a2 753e d594 4c3d fc1c 8f3c 5552 463e
00000140: 80e6 183e ff74 023e 7c7d 44be c417 093e
00000150: d96b b2bd c3f4 1e3d ac14 793d 20d9 b03c
00000160: 72b2 a3bc 6cab a93c 3f23 a3bc d62a 033e
00000170: 1cb7 d93d 6300 0abe d721 e2bd 6934 3dbd
00000180: 4563 d53d 1a16 df3d 8534 1cbe b740 2f3e
00000190: 8d85 333d 23ea 59be fecc 5c3d 9315 42be
000001a0: 9b3c b7bd 92c6 47be 5667 f33d c8d8 ccbd
000001b0: ca1e 083e 35e4 b3bc 4f44 39ba bea2 033d
000001c0: 21a4 c63d 6a62 b9bd 97b0 3abe 3104 d43d
000001d0: 8662 6d3d 0963 35be 5d1f e2bd 76e0 58be
000001e0: 9585 3fbd 661d 2d3e 93f3 8c3d 05ae dd3c
000001f0: 5d08 093e 6222 49be 87f8 103e 3a33 31be
00000200: a2d2 253e 9073 86bd b1d2 49be 8557 d1bd
00000210: d1b8 89bd 0d18 3a3e 90f0 2c3d e420 de3d
00000220: f095 23be 93d4 103c e76b 4fbd 2fac 073d
00000230: 7ae8 a0bc 9ff2 ddbd 8ffd efbd 6cd7 06be
00000240: f312 c5bd 576d d6bc 9f9c 243e 1dc1 233e
00000250: f81c e1bc 74b5 c93d 6114 103d 8c49 383e
00000260: 1d51 10be 1114 1d3e 466a 003e b932 a43d
00000270: c777 5abe 9e7d 3b3c 4d07 213e db72 0e3e
00000280: f266 19be b04a 903d 4b41 42bd 765c 03be
00000290: e533 57be 07ae 33bd 9906 6bbd 32a0 8f3d
000002a0: 1137 f33c 6805 f33d d76d 33bc cea4 193e
000002b0: 7573 50be 18db e4bd 026d 0dbe ba74 0abe
000002c0: 3ce2 3f3d b67f 39bd b5b7 26be d348 38bd
000002d0: 4748 bfbd 8af5 25bc 77fe 5b3d 1360 1e3e
000002e0: 7561 3ebe 762f 8abd 3daa 2d3e 55d6 fcbd
000002f0: f1b5 a3bd d571 6dbd b3c8 313d dd1e c7bd
00000300: a9e3 2f3e ddf3 0d3e 9d81 fb3d 4185 2abe
00000310: 528b 4b3d 4a3b 32bc 0429 0a3e 63b6 efbd
00000320: e6d3 95bd c8ae a93d a990 c2bd d8aa eb3d
00000330: d68b 82bd 083e 45bd 7df7 89bd f6eb 54be
00000340: 6a89 efbd 8e5e 7fbd 4244 163e 4bd5 d8bd
00000350: f0ff 4cbe a441 223e dece 15be dacb ca3c
00000360: 3b3d 3abe 40ae b33d 0537 373e acec 8f3d
00000370: 8d96 353e d792 3fbe f203 f3bd 8539 babb
00000380: 97a2 fe3d a20c 40be f115 a73d 236b f2bd
00000390: f38b b2bd bdcb a3bd e5df fc3c 8390 f83c
000003a0: 7bc8 f1bd 531b 2bbe e591 ff3d f3aa 7e3d
000003b0: f6df 803b 97cb 413e cf7b e33d ee77 c9bd
000003c0: df42 02be abe0 0b3e 1338 ab3d 5638 ca3d
000003d0: 614e 33bc 88f4 c13c 53e2 073e 6897 ff3d
000003e0: edb7 1dbe 1b05 cc3c 42ec cbbd 1148 523e
000003f0: 097f 1fbe 79cf 003e 8ac8 123d 10a6 2dbe
0.0814744 0.18315174 0.019078616 -0.1258287 -0.089461796 -0.04844725 -0.16701551 -0.07735895
-0.20071876 -0.09135524 0.18785965 -0.000649322 0.1510554 0.17703933 0.011434764 -0.10068665
0.14850722 0.059160147 -0.08128923 -0.049276475 0.071602285 -0.009147347 0.01879807 0.09520243
0.12829034 -0.20894483 -0.19261824 -0.1894145 -0.04200883 0.16557096 0.08295187 0.029620484
-0.17722324 0.15334615 -0.06450321 0.018326104 0.10502028 -0.12734582 0.11841811 0.049189627
0.021746676 -0.044954237 -0.003305365 -0.07922687 0.11531736 -0.077033505 -0.21257292 0.19054078
0.017228398 0.028398555 0.15449962 0.036233813 -0.16432092 -0.06094994 0.2064152 0.0941464
0.017321782 0.043228094 -0.16597359 0.10635396 -0.006285346 0.18918972 0.12548056 0.15243259
0.047397975 -0.040684655 -0.17913288 -0.16824208 0.1286626 -0.20301025 0.15292124 0.042597152
-0.11875545 0.06718157 -0.122681946 -0.13161024 0.23987855 0.049946625 0.017469876 0.19367345
0.14931679 0.12739943 -0.19188493 0.13387972 -0.087119766 0.03880764 0.06081073 0.021587908
-0.01998255 0.020711623 -0.019914268 0.1280931 0.106306285 -0.1347671 -0.11041611 -0.04619256
0.10419325 0.108928874 -0.1525441 0.1711453 0.043828536 -0.21280722 0.053906433 -0.18953542
-0.089471065 -0.19509342 0.11884944 -0.10002285 0.13292995 -0.021959404 -0.0007067369 0.032137625
0.09699274 -0.09051974 -0.18231426 0.10352362 0.057955287 -0.1771356 -0.11041138 -0.21179375
-0.046758253 0.16905746 0.068823956 0.027060518 0.13382097 -0.19642022 0.14157306 -0.17304698
0.16193631 -0.065650105 -0.19709279 -0.10221771 -0.06724704 0.18173237 0.042221606 0.10846117
-0.15975165 0.008839744 -0.050640013 0.03312319 -0.019642103 -0.10837292 -0.11718284 -0.13168114
-0.09622755 -0.026175184 0.16075371 0.15991636 -0.027479634 0.098490626 0.035175685 0.17996806
-0.14093442 0.15339686 0.1254054 0.08017487 -0.21334754 0.011443524 0.15725441 0.13911001
-0.14980677 0.070454955 -0.04742555 -0.1282824 -0.2101589 -0.043867137 -0.05737934 0.07012977
0.029689344 0.118662655 -0.010951481 0.15004274 -0.20356543 -0.11174601 -0.13811114 -0.1352109
0.046846613 -0.04528781 -0.16281016 -0.044991326 -0.09339958 -0.010129342 0.053709473 0.15466337
-0.18591864 -0.06747334 0.16959472 -0.12345568 -0.07993687 -0.057969887 0.043404292 -0.097226836
0.17176689 0.13862558 0.12280581 -0.16652395 0.049693413 -0.010878393 0.13492209 -0.117047094
-0.07315807 0.0828529 -0.09500248 0.11507195 -0.06374328 -0.04815486 -0.06736658 -0.20793137
-0.116961315 -0.062346034 0.14674476 -0.105875574 -0.20019507 0.15845352 -0.14629695 0.024755407
-0.1818742 0.0877347 0.17892082 0.070275635 0.17733212 -0.18708359 -0.11865987 -0.0056831264
0.12433355 -0.18754819 0.08158482 -0.11836841 -0.087180994 -0.07997844 0.03086848 0.030342346
-0.11805817 -0.16709642 0.12478999 0.06217475 0.003932948 0.1892532 0.11107599 -0.09837328
-0.12720822 0.13659923 0.08360305 0.098740265 -0.01094398 0.023676172 0.1326993 0.1248005
-0.15402193 0.024904778 -0.09957172 0.20535304 -0.15575804 0.12579145 0.03583578 -0.16957879

shared.0.bias f4 [256]
00000000: 7579 13be 777a 34be 76a3 043e ad77 03bd
00000010: c28c 16be 2f07 de3d a700 1b3d 53dc 05bd
00000020: ec97 ba3d 03cb 41be 93eb 74bd 14b8 2fbd
00000030: 2924 03bc fe5a f5bd baf6 aabb b67a 1f3e
00000040: 1052 2dbe c545 023e 0f99 27bd 2024 4b3d
00000050: acc4 f13d ef90 d1bb ae19 73bc 1330 953d
00000060: 2877 c23d 81ce 273d bb9e 70be ef55 53be
00000070: 903d ca3d 6f80 c93d 6233 9e3d 1f52 333c
00000080: 50b3 50be 0d99 133e f543 18be 47d8 2c3e
00000090: 64fd d4bd 3fe6 bd3d 2b70 403e d593 433e
000000a0: 5916 2cbe 49b0 1a3e dfb5 08be 955d 54be
000000b0: cdcb f9bd 046a 303e 078b 993d c1bc 1c3e
000000c0: 4cbe 4c3d aef0 63be d8cd 47bd fa76 bc3d
000000d0: 324f 143e 13be 1bbc 7c31 73bd aed9 50bd
000000e0: 247b 4a3e ca74 a73c ffa9 06be 8dcc 61be
000000f0: 5a45 6a3d c195 5dbe 498e 31be 55dd 0b3e
00000100: 28da b33d 6af3 313e 73f8 a53c 38f6 2bbe
00000110: 330b 97bc 2c7c 0b3e 774c 5d3e 49ef db3d
00000120: 44fd 433e e669 39be 10d0 b53d 5854 f53d
00000130: bc15 2dbe cf14 c9bb dc37 1dbc 4e54 82bc
00000140: 8154 51be f5fa 96bd 6330 273e 686e f73d
00000150: f941 29be 112c 3f3c 96b3 2e3e ced9 1cbe
00000160: bd68 f93d bc42 55be e774 23bc 337a 45be
00000170: c893 51be d635 5ebd 9451 35be 2986 99bd
00000180: afe3 87bd 784e 353d 2535 25be 0c59 55bd
00000190: 8446 643c bf8c 12be 39a8 9fbd b975 3abe
000001a0: 7bcb 34be ce7c 413e c12d 5e3c 2f66 053e
000001b0: a8b8 a6bd c0a9 80bd c6bf 263e a3be 3a3d
000001c0: f2ec 40be 1687 d13d 4462 43be c7c8 133e
000001d0: 2694 dd3d 11f2 48be 2e02 dd3d 7a48 6d3e
000001e0: 1b42 e8bd 1649 3f3e 1074 92bd 8334 733d
000001f0: ba15 af3d 7f98 37be 8735 0abd 75c7 883d
00000200: 12ac 483e 5bc2 38bd 85a3 613e cb45 febd
00000210: b608 9e3d fbbb f8bd 9ebd ed3d 9370 ae3d
00000220: c61b 3dbe 8919 c5bd c568 0dbe d6f2 b1bc
00000230: d24c 6dbe ef1a 043d fe7e a8bd a5c0 533d
00000240: 78ab c43d 63d7 5e3d 74a8 51be 0db6 4fbe
00000250: c9b1 e8bd 7934 e33d 31f9 43be c4ca 863d
00000260: d84e b8ba 6e55 07be 23d5 09be 9185 3b3e
00000270: 2093 23bd 9ed4 a23c e687 46be 07a3 9ebb
00000280: f25c 19be 5ef0 513e 88fb aebb 64e6 0a3e
00000290: c088 f8bd 8971 2cbe bfb9 48be 552a 493e
000002a0: 3995 033e eaff 3b3d 47d4 cc3d 4b9b 073e
000002b0: cbdf 553d cdd3 bfbc 4044 02be 1b66 dcbd
000002c0: a8ba 3cbd cab9 333e a044 0fbe b622 0dbe
000002d0: de0b a3bd 2951 24bc ed74 3cbe 7ea1 38be
000002e0: 191f 00be 0328 303e 8d7e 513d 7e21 263e
000002f0: 45cd b3bc fe17 81bd b263 ff3d 08c9 123e
00000300: 04f1 65bd 16b2 b5bd bb09 82bb e077 d93d
00000310: dc79 a03d 6303 393e c410 723d b095 263e
00000320: cd06 f7bd ab69 4d3c 4303 a0bc 56f0 123d
00000330: bd5b 303e 77be 28bd 93ef aabd c33f 9cbc
00000340: 3117 4abc 04c2 12be a248 dabd 5cc0 56be
00000350: 0691 ef3d 81be 773d 76de 9cbd aaa2 00be
00000360: 3fa4 573d 4b66 21be 5646 1c3e b03b a9bd
00000370: 0bc9 47be e7a1 cb3d 654f 24be 92db 983c
00000380: de72 8e3c d4d4 d9bd ab5c 2ebe 1151 6dbd
00000390: d451 73bd 2c9b 4fbe 9d3a 733d 19a4 69be
000003a0: 6dec 063e c5cd 0f3e c50c e53d 47bc 03bc
000003b0: 7931 37be 333b f03d 83cc 33bd 9bef fe3d
000003c0: baaf b6bd 36da 63be 72e2 dbbd c776 003e
000003d0: bd38 40be 12bf 7d3d 3799 323e 0cab 5fbd
000003e0: 23d0 24be 6655 4dbe 15e5 43be 6716 28bd
000003f0: cdad 243e 0653 263e 0ddd e7ba ccbe 09be
-0.14401801 -0.17624842 0.1295298 -0.032096554 -0.14702132 0.10841214 0.03784242 -0.03268082
0.09111008 -0.18925099 -0.059794974 -0.04290016 -0.008004227 -0.11980246 -0.0052174004 0.15574154
-0.16925836 0.12721927 -0.040917452 0.049595 0.1180509 -0.0063954513 -0.0148376655 0.0728456
0.094953835 0.04096842 -0.23498051 -0.2063825 0.09875023 0.0983895 0.07724644 0.010944872
-0.20380902 0.14413853 -0.14869674 0.16879378 -0.10399893 0.092724316 0.18792789 0.19099362
-0.168054 0.1510631 -0.13350628 -0.20738824 -0.12197075 0.17227942 0.074972205 0.15306379
0.04998617 -0.22259781 -0.048780292 0.092023805 0.14483336 -0.009505766 -0.059373364 -0.050988846
0.19773537 0.020441432 -0.13150786 -0.22050686 0.057195045 -0.21639158 -0.17339434 0.1365865
0.087818444 0.17378011 0.020260071 -0.16793144 -0.018437957 0.13621587 0.216112 0.107389994
0.19139582 -0.18106803 0.088775754 0.11978978 -0.16902822 -0.006136514 -0.009595837 -0.01590934
-0.20442392 -0.07372085 0.16327052 0.12081605 -0.16529073 0.011668221 0.17060694 -0.15317461
0.1217818 -0.20826238 -0.009976602 -0.19284897 -0.2046653 -0.05425056 -0.17706901 -0.07496292
-0.06635224 0.044264287 -0.16133554 -0.052086875 0.013932828 -0.14311503 -0.07795758 -0.1820897
-0.17655747 0.18895265 0.013560713 0.13027261 -0.08140689 -0.06282377 0.16284093 0.04559196
-0.18840387 0.10230844 -0.19080454 0.14432059 0.10819273 -0.19623591 0.10791431 0.23172179
-0.113407336 0.18680224 -0.071510434 0.05937625 0.08549066 -0.17929266 -0.033742454 0.066786684
0.1959689 -0.045107227 0.22035034 -0.12415656 0.07716505 -0.121452294 0.11608432 0.085175656
-0.18467626 -0.09624011 -0.13809498 -0.021722239 -0.23173836 0.03225225 -0.08227347 0.051697392
0.096030176 0.054404628 -0.20474416 -0.2028429 -0.11362035 0.11093993 -0.19138028 0.06581643
-0.0014061583 -0.13216183 -0.13460211 0.1831267 -0.03993523 0.019876774 -0.19387779 -0.0048412117
-0.14976862 0.20501849 -0.0053400435 0.1356445 -0.12135458 -0.16840185 -0.19602107 0.19645055
0.12849893 0.045898356 0.10001426 0.13242833 0.05221538 -0.023416424 -0.12721348 -0.107616626
-0.046076447 0.17551342 -0.13991022 -0.13782772 -0.07961248 -0.010029116 -0.18403979 -0.18030354
-0.12511863 0.17202763 0.05114608 0.16223714 -0.021948466 -0.06303404 0.12470187 0.143345
-0.056138054 -0.08871858 -0.003968445 0.106185675 0.07835743 0.18067698 0.05909802 0.16268039
-0.12061844 0.0125374 -0.019532805 0.035873733 0.17222495 -0.041197266 -0.083464764 -0.019073373
-0.012334631 -0.14331824 -0.10658385 -0.20971817 0.11697583 0.060484413 -0.076596186 -0.12562051
0.05264687 -0.15761678 0.15261206 -0.082633376 -0.19510286 0.0994299 -0.16045912 0.018659387
0.017388757 -0.10636297 -0.17027538 -0.05793864 -0.05940421 -0.20274037 0.05938207 -0.22816505
0.13176127 0.14043339 0.11184076 -0.008040494 -0.17889966 0.11730041 -0.04389621 0.12448045
-0.08920236 -0.2225121 -0.107365504 0.1254531 -0.18771644 0.061949797 0.1744126 -0.054606482
-0.16095023 -0.20052108 -0.19130357 -0.04103699 0.16081925 0.16242608 -0.001768978 -0.1345169

shared.2.weight f4 [128, 256]
00000000: 3e62 f43b 163d c03c c10a f6bc ab68 c1bc
00000010: 2ca1 36bd 9586 893c 28ce 9ebb 6d3b 9f3c
00000020: 7ab6 57bd c0cd b2bc a2d5 02bd 8895 c53c
00000030: f797 6ebc 9a21 363c 5b0b c13c dc2e 803c
00000040: 117d 52bc 3edf ec3c 3130 64bc ec7b ffbb
00000050: 8d92 a23c 67b2 a4b8 e3ff 643c 76c0 12bd
00000060: 2e12 f0bc 6431 adbc 9018 403d 1dae 253d
00000070: 4cf7 7f3d 726a 21bd 37fd 89bd 4d00 d53a
00000080: a2c9 c43a f656 1dbd dbb4 7bbb 1037 c2bc
00000090: a61e 29bc 79b2 83bd 3ac9 7ebd 132e 303d
000000a0: 2ef4 1fbc cfea db3c c0ff 66bd ef8b 9abd
000000b0: c6bd 8f3b 5875 9c3c 8db4 643d 9f21 c9bc
000000c0: c048 33bc aa21 4a3d 7c8a 82bc 3619 d6bc
000000d0: f804 7d3c f2d2 12bb 8c8c 563d 2a12 55bd
000000e0: da4c c73c 25c1 75bd bce2 703b 7b5f 3d3d
000000f0: d6df aabd 1ee5 50bd e40a 8bbc 2944 f23c
00000100: 98b9 8cbc c099 133d 8144 263a 0feb c3bc
00000110: fd0f 76bd 5740 633d 88ae 533d 27a4 1e3b
00000120: 023e 033d b642 833c 36fb 18bd 2ef7 2f3d
00000130: f7b1 e13b 0aa8 5dba cb81 27bd 11b1 6dbd
00000140: 819b eabc fc95 56bd 2289 37bd 9137 39bd
00000150: 2c48 1cbd 4775 f6bc 046f 2e3d 7b83 11bd
00000160: 9c63 5f3d b49e fa3b 3249 4e3d 109a 543d
00000170: e831 15bc f060 e43b f2ad f73c 74d1 90bc
00000180: bb96 f0bc ed23 11bd 905d 5b3d 6dae 6bbd
00000190: f90c 103d 8a33 0b3c 8c63 753c 6dfc c3bc
000001a0: 2813 8e3d 4d66 cb3c ee57 1a3c 1d31 8bbd
000001b0: 63c0 0a3c 41ac 0bbd 0825 45bd c47c 843d
000001c0: 4813 1dbd 3354 c43c 4c93 9f3c fb73 aa3c
000001d0: 72c3 52bd 6cd0 c2ba b708 b3ba 4051 293d
000001e0: c1e0 48bc 3a77 63bd 7efd e13c 7864 3abd
000001f0: 554d 79bc f48c dabc 5849 46bd c0f4 6dbd
00000200: ef8d 13bb 7d81 15bd 4245 35bd fb90 60bd
00000210: 34f9 bc3c 1fa0 673b 9408 b2bc 6715 42bb
00000220: f5a0 30bd 0362 3bbd 4a4e 063d 49a8 1dbd
00000230: 53ab 08bd 90b6 453d 4945 27ba 5d24 6bbd
00000240: 1868 f0bc ab51 6fbd a45d 353d 010a eb3c
00000250: 8a5f 283d b22d 043c 653b 653d a6c9 70bd
00000260: 7be8 5b3d 91fe 5ebd 0341 fa3c 9626 ad3c
00000270: aeb7 b4bc c4c8 1dbd 6193 5bbc ce1b 33bd
00000280: a1a9 80bd 1725 403d c552 95bc 8acb b5bc
00000290: 4626 8fbc 736f c23c ba72 75bc 235d c3bc
000002a0: f877 29bd a598 243d cb99 393d ee9a 98bd
000002b0: dadc 25bc a7f4 81bb ca69 01bd 7273 edbc
000002c0: c94f 203d 2f5e 94bd 680e 813c 8ee9 98bd
000002d0: a85d 7dbd 7300 023d 1b03 f4bc 0ac7 043c
000002e0: b23f 8abc b28c 96bc 070c 71bd dfb5 3dbd
000002f0: 3d73 23bd c60f 0a3d 521d a0bd b9f5 a0bc
00000300: b933 1abc 1cb8 323b 5036 773d b0df f8bc
00000310: b2c1 02bd 636f 073c 3c38 31bd ea6d 1ebd
00000320: 8abe d7bc 80f5 5cbd b9a7 8fbb 8a59 9a3c
00000330: 4ef3 5c3d ade5 1dbd d81f d1bc 2ffb 01bd
00000340: 0b0d 353b b85b 373d 129b 9dbc e857 b9bc
00000350: 9067 8bbd 9b87 62bd 0241 1c3d 263b 66bd
00000360: 1774 a7bb 5d98 47bd 9b4b 26bc fe17 45bd
00000370: 68d6 d8bc d2c2 6a3d 6232 6c3d 38a7 1d3d
00000380: 21be aebc af0c 3f3d a42e 343d 4828 7dbc
00000390: 0e56 89bd 9277 1bbd 84f3 31bd 998c a83c
000003a0: 6814 1b3d 37d4 6dbd 9762 223d 6d36 1bbd
000003b0: e120 243d 94d3 343d 3fe1 8fbd f613 4fbd
000003c0: a5ce bf3c de6a 21bc 56ee 1b3d 00d0 f13c
000003d0: fdd5 573d f490 9bbc c4c5 aabb 30d3 133d
000003e0: 2c3a 93bc a439 563c 2196 94b9 2856 ad3c
000003f0: faeb 2abd dbfd 6ebb 7d73 b13c a67a ccbc
0.0074580004 0.023466628 -0.030034425 -0.02360948 -0.0445873 0.016787807 -0.004846353 0.019437516
-0.052664258 -0.021826625 -0.031942017 0.024119154 -0.014562598 0.01111641 0.023564985 0.015647344
-0.012847201 0.028915044 -0.013927505 -0.007796755 0.019845271 -7.8533594e-05 0.013977024 -0.035828076
-0.029305544 -0.021141715 0.046898425 0.04044925 0.0624917 -0.039408155 -0.0673775 0.00162507
0.0015013705 -0.03841301 -0.0038407359 -0.023707896 -0.010322249 -0.06430525 -0.062203623 0.04301269
-0.009762807 0.026845364 -0.056396246 -0.075462215 0.0043866364 0.019098923 0.05583625 -0.024552165
-0.010942638 0.04934851 -0.015935175 -0.026135068 0.015443079 -0.0022403565 0.05238013 -0.052019276
0.024328638 -0.05999865 0.0036756238 0.046233635 -0.083434746 -0.050999753 -0.016972966 0.029573517
-0.017178342 0.0360353 0.00063426053 -0.023915796 -0.06007384 0.05548128 0.051680118 0.002420673
0.032041557 0.016023021 -0.03734895 0.04296034 0.00688767 -0.0008455521 -0.040895265 -0.05803019
-0.028638603 -0.05238913 -0.044808514 -0.045219008 -0.038154766 -0.03008522 0.04258634 -0.03552578
0.054538354 0.0076483134 0.050362773 0.051904738 -0.009106137 0.0069695637 0.03023431 -0.017678
-0.029368749 -0.035434652 0.053556025 -0.057539392 0.03516862 0.008496175 0.014977347 -0.023924077
0.069372475 0.024829054 0.009420378 -0.06796477 0.00846872 -0.03409982 -0.04813102 0.0646911
-0.038348466 0.02396593 0.019479416 0.020807257 -0.051455922 -0.001486314 -0.0013659213 0.04133725
-0.012260617 -0.055533625 0.027586695 -0.04550597 -0.015216191 -0.02667854 -0.04840979 -0.05809474
-0.002251502 -0.036500443 -0.044255503 -0.054825764 0.023068048 0.0035343242 -0.021732606 -0.0029614808
-0.04312225 -0.045747768 0.032789506 -0.038490567 -0.033366513 0.04826981 -0.0006380869 -0.057407726
-0.02934651 -0.058427494 0.044278756 0.028691294 0.04110674 0.008067535 0.055964846 -0.058786057
0.053688508 -0.054441992 0.030548578 0.021136563 -0.022060242 -0.038521543 -0.013401837 -0.04372769
-0.06282354 0.04691037 -0.018227944 -0.022191782 -0.017474305 0.023734784 -0.014980966 -0.023848122
-0.041374177 0.040184636 0.045312684 -0.074514255 -0.010123456 -0.0039659324 -0.03159503 -0.028985713
0.03913859 -0.072445266 0.01575394 -0.07466422 -0.061856896 0.03173871 -0.029786637 0.008104095
-0.016876075 -0.018377636 -0.05884936 -0.046316024 -0.03990482 0.03370645 -0.078180924 -0.01964842
-0.009411746 0.0027270382 0.06035453 -0.0303801 -0.031923003 0.008266303 -0.04326652 -0.03867904
-0.026335973 -0.053945065 -0.004384008 0.018841524 0.05394297 -0.038549114 -0.02552788 -0.031733688
0.0027626182 0.044765204 -0.019238982 -0.022624925 -0.06806862 -0.055305105 0.038147934 -0.056208752
-0.0051102745 -0.04872929 -0.010149862 -0.048118584 -0.026469424 0.0573147 0.057665236 0.03848955
-0.021330895 0.046642955 0.043989792 -0.015451498 -0.06705867 -0.037955828 -0.043445125 0.020574855
0.037861258 -0.058063712 0.039644804 -0.0378937 0.04007042 0.04414709 -0.07025384 -0.050556146
0.023413965 -0.009852139 0.03806909 0.029518127 0.05269431 -0.018990017 -0.005211564 0.036090076
-0.017972074 0.013075266 -0.00028340615 0.021159247 -0.04172895 -0.0036467228 0.021661514 -0.024960827

shared.2.bias f4 [128]
00000000: 1c7f 21bd 2e7e 8eb8 51a5 873b c304 ebba
00000010: e2fb 7dbd aacb 74bb d641 383d 91b3 363d
00000020: 7318 3bbd 2e1d 8abc 245f 31bd 4271 38bc
00000030: 66f2 7cbc de3e 23ba c0be 67bd 8364 003c
00000040: 306c d4bb b602 bbbb e7f5 a63c 9bc0 92bd
00000050: e235 333d 907f dabb c5b2 c23b 1f29 0bbc
00000060: f85d 88bc 5caf 0f3c a91a 02bd a446 203d
00000070: 404b c23c a898 88bd 03cd cd3c e8f2 0e3c
00000080: abc2 52bd 6681 75bd ebb2 78ba bb90 81bd
00000090: 1878 9c3c 6402 cbbc 462b 6b3d 1ea9 b83c
000000a0: 9086 f53c 736b c6bc 5389 59bd b637 0f3d
000000b0: 26a2 fd3b 3dc4 bdbc 1708 af3c 135b 41bd
000000c0: 917e 513d 79b3 1e3d 8183 11bd 02fd b6ba
000000d0: e21e 473c 3d86 cb3c a5e9 80bd 6fdc 2e3c
000000e0: 9e3d 363d 2460 313d 112c 66bd 8b1b 49bd
000000f0: 3a56 a63c 7c7d 2bbd 93e4 a23c fc63 2e3d
00000100: 0af6 3abd c3df 45bd 2940 27bd 70b1 3f3d
00000110: c4b7 063d 7e1b 803c 897d 2bbd e90c 123c
00000120: af6b 37bd c25d e83b 8ac2 21bd 9393 8b3c
00000130: 3e60 55bd dcab 3a3d c621 64bd 6af0 343d
00000140: 5fab 7fbd 5128 05bd 820c 2fbd c957 63bd
00000150: 2a1d 4cbd 28ae 243d 3cc5 01bd 1af1 5dbd
00000160: cfc3 c53c d7c1 2cbd 0506 b43c 23e1 1a3b
00000170: 1dd0 15bd fb0f 3a3d 4522 df3c a3f0 fabc
00000180: 8e7a 0ebd 02bb 4d3c 3a2e 863c 1093 32bd
00000190: 2bea 883b 4154 483c 0246 1ebd 282c bc3c
000001a0: b487 56bd c27e 013d d94f a7bb 87c5 7dbd
000001b0: 36fc 2e3d f31c 29bd 2000 d0bb 2f0e 363d
000001c0: 8002 0bbd bcc9 5c3d cd5b 623c 1564 263c
000001d0: b7f8 72bc 1626 80bd 7111 ab3c 9e7a 693c
000001e0: 9aef ccbc 8438 07bd 9de0 d43b 8fa0 16bd
000001f0: 5a30 883d ff42 35bd c59e 35bd fd13 38bd
-0.03942786 -6.7945904e-05 0.0041395803 -0.0017930496 -0.062007792 -0.0037352839 0.04498466 0.04460484
-0.045677613 -0.016859617 -0.043303624 -0.0112574715 -0.015438652 -0.00062273245 -0.056578398 0.007836464
-0.0064826235 -0.0057071103 0.020380927 -0.07165643 0.04375256 -0.0066680387 0.005941721 -0.008493691
-0.01664637 0.008769836 -0.031763706 0.03912987 0.023717523 -0.06669742 0.025122171 0.008724906
-0.05145518 -0.059937857 -0.000948711 -0.06326433 0.019100234 -0.024781413 0.057414316 0.022541579
0.029971391 -0.024221158 -0.05310948 0.03496524 0.007740277 -0.023164863 0.021366162 -0.047205996
0.051146094 0.038745377 -0.035525803 -0.00139609 0.012153359 0.024844283 -0.06294564 0.010672673
0.044492356 0.043304577 -0.05619437 -0.049098533 0.020304788 -0.041867718 0.019884383 0.04257582
-0.045644797 -0.0483091 -0.040832672 0.046800077 0.032890096 0.01563811 -0.041867767 0.008914211
-0.04478043 0.007091255 -0.039492168 0.017038142 -0.052093737 0.045574054 -0.05569627 0.04417459
-0.06241929 -0.03250915 -0.042736538 -0.05550364 -0.0498325 0.04020515 -0.031682238 -0.05418501
0.02414122 -0.042177048 0.021975527 0.0023632727 -0.036575425 0.045425396 0.02723802 -0.030632323
-0.034784846 0.012556793 0.016379464 -0.04359728 0.0041783056 0.012227119 -0.038640983 0.022970274
-0.05237551 0.031615026 -0.005105954 -0.061955955 0.042720996 -0.041287374 -0.006347671 0.04444712
-0.03393793 0.053903326 0.013815832 0.010155697 -0.014829806 -0.06257264 0.02088234 0.014250426
-0.025016595 -0.033012882 0.0064965026 -0.036774214 0.06649847 -0.044253346 -0.044340868 -0.044940937

dice_policy.weight f4 [5, 128]
00000000: 5d58 9c3d 490e 89bd 5762 643d 920d f3bc
00000010: fb9c cbbd 198a 5cbd 9bb7 8dbd b838 643d
00000020: 38cd 32bd d6ee 4a3c 9b52 92bd 095f e8bd
00000030: 4baa 553d a4c5 693b d322 acbd c35d 863c
00000040: 825b 96bc 2fa0 72bd 748e e3bc 63cb 3b3d
00000050: cb84 3dbd dbc4 af3a 5cbc 9b3c 9247 02bd
00000060: dafe 513c 19a5 a03c e4c6 e23a beac c13d
00000070: fba3 8a3d 26e7 c8bd b674 223c 444f 1f3b
00000080: 7549 97bd 8d95 b23c 8f18 20bd 807f c73c
00000090: efa7 6c3d 0ad9 41bd 166b 42bc 5721 87bd
000000a0: 1daa 92bd 16f0 65bd 266f 8d38 cc26 6abd
000000b0: e450 a4bd 8b3a 6c3d 39ba 313c 611e 553d
000000c0: 3584 8dbc 5e2e 1b3d 846e 723d c039 54bd
000000d0: 4fb5 3b3d 66b3 55bd 72c5 6e3d cb71 f4bc
000000e0: 844d 1b3d b031 bcbd 597d b1bc a21e f23d
000000f0: ce21 b0bb f242 2cbd 08f9 cbbd 87b7 15be
00000100: 1cb3 1c3c 7f24 433d a225 c4bd 4160 993c
00000110: 36f5 c53c e9a3 373d 8283 89bd b27d 793d
00000120: b617 aebc 1d89 9abc c685 8ebd 5e72 393d
00000130: 69cc 89bc 4f8a 85bd 3228 233d 39a8 0ebd
00000140: 32d3 60bc 30d8 143d 4875 7cbd e6a1 803d
00000150: 8886 21bc ead3 8a3d fb53 ddbb c207 b0bc
00000160: e573 27bd fae7 b4bc 8d5b 1fbd 8371 b5bd
00000170: 7b92 50bd f5b7 813d c007 83bd b312 46bd
00000180: c9a3 6c3d 1a9e 163d 8261 da3b dee4 9a3c
00000190: d558 0c3d 8aba cfbb 1c35 af3d 980b a03c
000001a0: a3f7 edbd d20c adbd a8f4 efba a97a 8abb
000001b0: bf5f 7cbc 9cb5 adbd fce8 ecbd b252 c1bd
000001c0: 1bb1 043d 7aec b8bd 07f9 49bc ad7e d83b
000001d0: 4250 a5bd 30dd d93c f6ad 953d 382c 9f3c
000001e0: ee23 c33c 2b9c 6e3d 1002 ccbc 3a87 e4bb
000001f0: 2659 37bd 3885 8dbb f332 cd3c 0459 403d
00000200: d211 1f3d 4cbd 36bd fa30 a23d 8ed6 6bbd
00000210: 836f a3bd 4c47 ecbc 3184 903d bf1d b43c
00000220: f033 64bc 17f4 c6bc 7dd9 1abd 532e 71bd
00000230: d02e b3bc 12cb 80bd 6a97 8c3d 761b 8dbc
00000240: 0f7e e63c e56c a2bd d810 57bd 5c29 2bbd
00000250: 2bf0 6a3d 38b3 ecbc 7026 2f3d 4cf0 ab3d
00000260: 98cb a63d 0d20 d7bc bdd7 533c e125 3e3d
00000270: e3f5 54bd 81b8 363d b912 78bd 44ce 2dbd
00000280: fefa 273d 3073 933d 0f10 8d3c 4a60 15bc
00000290: 40f2 a33c 5415 363d 683e b73c cd04 783d
000002a0: 0208 a03d c1b7 a9bd 7c11 8e3d 1fab 02bd
000002b0: 715f 853d 1694 e4bd 24fc 33bd 9dd8 78bc
000002c0: 68c7 ef3c 5b04 17bd 206a 85bc ca41 b23d
000002d0: ff04 95bd c337 acbd 4431 82bd 7e4a 49bd
000002e0: 5594 953d 8d79 4cbd 0d41 fc3c 0c44 273d
000002f0: d02c 1abc 50b5 053d 1d8b 83bd 95bb f6bc
00000300: 042e eabc b901 19bd d257 99bd df78 88bd
00000310: e971 c3bc 3dad 8d3d a617 b9bc da40 babc
00000320: 2981 23bd 9919 2ebd 4f9f 0ebd 76fe eb3c
00000330: 449d 9fbd 6c28 e23c 2d1f 5abc 2a8f 91bd
00000340: 4172 de3c 5777 ae3c 4071 2b3d efef 2e3d
00000350: 4031 e4bc 848a 473d 19c1 7dbd 7bbe c5bd
00000360: fa2c b4bd 89cd 853d 51d2 52bd 9136 863a
00000370: 2b1e 91bd 124a 933d f439 98bc 245a b2bd
00000380: feb3 4f3d fdc6 adbd 44a4 7e3c 6cb2 9d3d
00000390: 241f e33b 0fbb 3b3c e585 59bd eb73 74bd
000003a0: 4a63 75bd c1b6 a0bd 9b73 41bc eca9 b1bd
000003b0: 19fb a2bc f4ce 71bc 477c d2bb da56 723c
000003c0: 0783 ca3c dc77 aa3d f880 40bc 5948 7f3d
000003d0: a6ca 0ebd fe48 c83c 477d 7a3c 9e9f 8dbc
000003e0: e8cc 53bd d4c6 f83c c12a 583d 4c0f 83bc
000003f0: 35e7 503d d843 3fbd 3da6 01bd 7868 133c
0.076340415 -0.06692178 0.055757847 -0.029669557 -0.09942051 -0.053842638 -0.069197856 0.055718154
-0.043652743 0.0123860445 -0.07144662 -0.113462515 0.052164357 0.0035670782 -0.0840508 0.016402131
-0.018354181 -0.059234794 -0.027777888 0.04584826 -0.04626922 0.0013410108 0.019010715 -0.031806536
0.012817109 0.019609975 0.0017301706 0.09456776 0.06769558 -0.09809713 0.009915521 0.002430872
-0.07387058 0.021799827 -0.03908592 0.024352789 0.05777734 -0.047326125 -0.011866352 -0.06598156
-0.07161353 -0.056137167 6.744107e-05 -0.057165906 -0.08023241 0.05767302 0.010847622 0.052030925
-0.017274955 0.037886016 0.059187427 -0.051812887 0.045827206 -0.05217304 0.058293767 -0.029839417
0.03791572 -0.09189165 -0.021666216 0.11822249 -0.0053751236 -0.04205603 -0.09959608 -0.14620791
0.009564187 0.047642227 -0.095774904 0.018722655 0.024164777 0.04483405 -0.06714536 0.060910888
-0.02125154 -0.018864209 -0.06959109 0.045275085 -0.016821103 -0.06520521 0.039833255 -0.0348284
-0.013722228 0.036338985 -0.061635286 0.0628088 -0.009858735 0.06778701 -0.006754396 -0.021488074
-0.04088201 -0.022083271 -0.03890567 -0.08859541 -0.050920945 0.06333915 -0.063979626 -0.048357677
0.057773385 0.03677187 0.006664456 0.01890796 0.034264404 -0.006339376 0.08555052 0.019536778
-0.116194986 -0.08449711 -0.0018307166 -0.004226048 -0.015403687 -0.08481905 -0.11567876 -0.09439601
0.032395463 -0.09029479 -0.012327439 0.006606898 -0.080719486 0.026594728 0.07308571 0.019430265
0.023820844 0.058254402 -0.024903327 -0.006974128 -0.044762753 -0.0043188594 0.025048709 0.046959892
0.038835354 -0.04461412 0.07919498 -0.057577662 -0.079802535 -0.02884259 0.070564635 0.02198684
-0.0139283985 -0.024286313 -0.03780507 -0.05888207 -0.021872908 -0.062887326 0.068648174 -0.017225008
0.028136281 -0.07930926 -0.052506298 -0.04178749 0.05735795 -0.028894052 0.042761266 0.08395442
0.08144301 -0.0262604 0.012929854 0.046422843 -0.05199231 0.04460955 -0.06056473 -0.04243304
0.04101085 0.07199705 0.017219571 -0.009117195 0.020012975 0.044453934 0.022368625 0.060551453
0.07814027 -0.082870014 0.06936929 -0.031901475 0.06512345 -0.11161058 -0.043941632 -0.015188363
0.029269889 -0.036869388 -0.016285956 0.087039545 -0.072763436 -0.08409073 -0.06357053 -0.049143307
0.07303683 -0.049920607 0.030792737 0.04083638 -0.009410098 0.032643616 -0.06423018 -0.030118743
-0.028586395 -0.03735516 -0.074874535 -0.06663679 -0.023858028 0.06917808 -0.022594284 -0.022736002
-0.0399181 -0.04250488 -0.034819897 0.02880786 -0.07793668 0.027607165 -0.013313097 -0.071073845
0.02715409 0.02129714 0.04185605 0.042709287 -0.027855515 0.048716083 -0.06195173 -0.09655472
-0.08797641 0.06533343 -0.051470105 0.0010239651 -0.07085832 0.07191862 -0.018582322 -0.08708599
0.050708763 -0.0848522 0.015542094 0.07700047 0.0069312025 0.011458172 -0.053106207 -0.05968086
-0.059909143 -0.078473575 -0.011807348 -0.08674988 -0.019895123 -0.014758814 -0.0064235064 0.014791215
0.024720682 0.083236426 -0.011749499 0.062324855 -0.03486123 0.024448868 0.0152886575 -0.017288025
-0.051709086 0.030368246 0.05277515 -0.015998505 0.051001746 -0.04669556 -0.031652678 0.008997075

dice_policy.bias f4 [5]
00000000: 2745 73bd dfa6 9abd 80a4 163d d0a4 afbd
00000010: bc13 783d
-0.05939212 -0.075513594 0.036777973 -0.08576357 0.060565695

category_policy.weight f4 [13, 128]
00000000: 268a 2dbd de40 a7bd 0534 d8bb 788d 9bbd
00000010: f911 403a aca1 85bd 1ff8 2cbd 0ca0 4dbb
00000020: ee2e 1d3d c3fe 9e3b 06b0 893d da22 b0bb
00000030: 6ee4 6abd fd8f 0abd f036 543c 186d 7f3b
00000040: 6d39 bb3c 5c53 81bd a725 a2bd 3831 413d
00000050: 6397 6e3d 3711 24bd fda5 26bd 417e 54bd
00000060: a204 3f3d 147a 4fbd 12e8 513d 39e7 81bc
00000070: c664 55bd 0213 d7bb 69b4 0fbd 1284 413d
00000080: a69a 823c 8ebc 173d a4a7 23bc 2679 f3bc
00000090: 48f5 193c 7c28 4ebd 3a6d 04ba d7db babc
000000a0: b820 773d b509 5d3d 9ea4 d1bc 1e3b 6abd
000000b0: 5706 07bd 4173 59bd e7fa 083d 6299 9abd
000000c0: 836f 8cbb 1b84 743c 59fc 8cbb ead3 a7bd
000000d0: 03ce 6c3c 942b b5bd d875 633d b094 093d
000000e0: ebdd 9fbc 6448 95bc a439 5b3d 41d9 223d
000000f0: aa5c 4c3d e2e7 0b3c d24d f13b 60f3 d7bd
00000100: c10f 893d 3ccf e3bb e4f7 a63d d209 543c
00000110: 4e7a 8fbb cb78 66bd ae81 47ba eeaf ea3c
00000120: 2b8e 773d f483 523d 8eed 723c e2eb 43bd
00000130: 1f35 78bd 6b84 963d b6a6 dcbc 1dd3 c8bc
00000140: d033 933d dd0a 823d 74aa 833d 1031 1ebe
00000150: ba04 30bd 9279 163c e253 8a3d 20be 90bd
00000160: 71e8 05bd 6e41 203d 57dd f3bc 9006 943c
00000170: f397 c339 ef27 9dbd 7a05 82bd 7a82 9cbd
00000180: 64dd 29bd 3e48 2a3d dda4 543d 0b3f b9bc
00000190: 7a39 7abd c181 63bd a6d9 d83c 7eb7 c83c
000001a0: dc0e d3bc 7271 55bd 3873 493c 9151 2bbd
000001b0: 694f a13d 8159 21bd 49a7 87bd 2189 573c
000001c0: a481 7dbd 39e2 3d3d d880 ae3a 5a92 8abd
000001d0: 3b16 683d 515d b2bb 0d72 41bc 722b b33c
000001e0: b7e3 163d 72e5 3a3d ea72 80bc 1641 3b3c
000001f0: e8d8 0dbe d7ee a73d 40fa 8ebd 88e9 1f3d
00000200: 5184 bcbd 307c cfbd f1b1 2abd 5e40 8dbb
00000210: b663 393d ccd9 6f3d ceb7 d6bc 1832 a5bc
00000220: 44c9 9abd 816f a33d cc23 cb3c 59ad 1b3d
00000230: 0d42 14bd 4280 babc 85cd 41bd c7a7 99bb
00000240: f9d0 55bc 1f5e c7bc a190 90bd 108b af3d
00000250: abbe 163c cb51 86bb 5a55 52bd 8ef4 7abd
00000260: 2a6b f5bc 6cce 7abd 7084 263d 7803 913d
00000270: 7236 2ebc 8a12 19bd 8199 763a 4d3f 7b3d
00000280: 6ecc 6fbd 7aac 483b 04f2 84bd 7ede 813d
00000290: 9fc9 8dbc 963d 4c3d dc95 d2bd 53c3 1a3d
000002a0: a597 86bd ed51 a5bc 206f 8f3d d79e 93bd
000002b0: ba24 63bd 4f68 bc3c 6e45 d7bc 0e0a 46bd
000002c0: 64b2 35bd 9139 c53c e7b9 b93a 5e5d 3b3c
000002d0: f450 7dbd 90f2 c1bd 8faf 9dbd e1b5 5d3d
000002e0: 7e4b 72bd 2e03 94bd ce6d 3abd 5512 d1bd
000002f0: 729f e63c df85 3ebd f715 00bd fa9f f1bd
00000300: 50e1 1bbd 0ba2 bbbc 8e06 233d bd39 50bd
00000310: 01e3 09bd 3372 2d3d 6c06 e6bd 6c52 a7bc
00000320: bf5b fcbc 640d 99bd 829e 953c 7b25 b63d
00000330: 2828 923d 6b76 963c 603a 8fbc c59b 8e3c
00000340: 4c75 3e3d 9f1f 27bd 48c6 24bc eb08 55bd
00000350: 8f1b 8cbd 508b c1bc 025c 86bc 8b3a 803d
00000360: 26ce 633d bff3 95bd 42f1 9dbd 0c54 e9bd
00000370: 5ac4 95bd 6eb3 983d 89a3 603d 4930 e73c
00000380: a339 bcbd 83a6 863a 2b0e 803d bc87 b33d
00000390: 02a2 42bb 5c03 dcbd 3dce 3ebd 476e c4bd
000003a0: 637e 833a 1870 a8bd 5061 9f3c 9eb8 b23c
000003b0: 4be8 1f3d c488 90bd 0702 f5bd 5244 9abd
000003c0: 68ec 043d 52cc ed3b 7435 9cbd 5ad3 30bc
000003d0: a01a 03bd bb47 ff3c 8550 863d db17 a23d
000003e0: 2752 613d 8922 473d ea45 963c daca 4d3d
000003f0: 0402 37be ed56 c3bc 37cd f1bd a798 703d
-0.042368077 -0.08166669 -0.006597998 -0.075953424 0.0007326897 -0.06524977 -0.042228814 -0.0031375913
0.038374834 0.0048521473 0.06723027 -0.0053752484 -0.057346754 -0.033828724 0.012952551 0.0038974937
0.022854531 -0.06314728 -0.07917338 0.04716608 0.058249842 -0.04005548 -0.040685643 -0.051878218
0.046635278 -0.050653532 0.05124671 -0.015857326 -0.05209806 -0.006563545 -0.035084162 0.047245093
0.015942883 0.037045054 -0.009988699 -0.029720854 0.0093968585 -0.050331578 -0.00050516764 -0.022809906
0.060333937 0.053964335 -0.02559119 -0.057185285 -0.03296503 -0.05308843 0.033442404 -0.07548787
-0.004285754 0.0149240745 -0.004302543 -0.08194716 0.014453414 -0.088462025 0.055532306 0.033589065
-0.019514998 -0.018222995 0.053521767 0.03975797 0.04989306 0.008539172 0.007364013 -0.10544467
0.06692458 -0.0069521945 0.0815275 0.0129417945 -0.0043785935 -0.05626754 -0.00076105713 0.028648343
0.060438316 0.05139537 0.014827145 -0.047832377 -0.060597535 0.073494755 -0.026934963 -0.02451473
0.07187617 0.06349728 0.06428996 -0.15448403 -0.042973258 0.009184258 0.067542806 -0.070675135
-0.032692377 0.0391249 -0.029768629 0.018069535 0.0003730651 -0.07673632 -0.06348701 -0.07642074
-0.0414709 0.0415728 0.05191504 -0.022613069 -0.06108997 -0.055543665 0.02647097 0.024501558
-0.025763921 -0.052110143 0.012295537 -0.041825835 0.078764744 -0.039392 -0.06623704 0.013155253
-0.061891213 0.04635832 0.0013313545 -0.067661956 0.056661826 -0.005443253 -0.011806977 0.021871302
0.03683826 0.045628972 -0.015679795 0.011429092 -0.13852274 0.08199852 -0.06981325 0.039041072
-0.09204925 -0.10131109 -0.041673604 -0.0043106517 0.045261107 0.058557317 -0.026210692 -0.020165488
-0.075579196 0.07980252 0.024797343 0.038007114 -0.036195803 -0.022766236 -0.04731514 -0.00468919
-0.013050311 -0.024336873 -0.07058836 0.08571446 0.009200732 -0.004099106 -0.05135093 -0.06126838
-0.029958326 -0.061232015 0.040653646 0.0708074 -0.010633098 -0.037371196 0.0009407029 0.061339665
-0.05854457 0.0030620382 -0.06491473 0.06341265 -0.017308054 0.04986342 -0.1028249 0.037783932
-0.06571893 -0.020180667 0.07003617 -0.07208031 -0.055454947 0.022998957 -0.026278224 -0.048349433
-0.04435958 0.024075301 0.0014169783 0.011435835 -0.06184478 -0.09470093 -0.07699501 0.05412853
-0.059154026 -0.07227169 -0.045514874 -0.10208575 0.028152201 -0.04651439 -0.031270947 -0.11798091
-0.03805667 -0.022904417 0.039801173 -0.050836314 -0.033663753 0.042345237 -0.112316936 -0.020425044
-0.030805467 -0.07473257 0.018264059 0.088938676 0.071365654 0.018367013 -0.01748389 0.017408261
0.04649858 -0.04080164 -0.01005704 -0.052010458 -0.06841194 -0.023626 -0.016401295 0.06261166
0.05561652 -0.073218815 -0.07712032 -0.11392984 -0.07312842 0.074560985 0.05484346 0.028221266
-0.09190681 0.0010273013 0.06252702 0.08766124 -0.0029698615 -0.10742828 -0.046583403 -0.09591346
0.0010032173 -0.08224505 0.019455582 0.021816548 0.03903989 -0.07057336 -0.11963277 -0.07532562
0.032452017 0.007257023 -0.07627383 -0.010792578 -0.032007813 0.031162133 0.06558327 0.07914706
0.055009987 0.04861692 0.018343884 0.050242282 -0.17871863 -0.02384516 -0.1180672 0.05873933

category_policy.bias f4 [13]
00000000: 6be3 6ebd 355a a6bd de03 89bc ec79 303d
00000010: cc36 613d 61f0 e3bc 52a0 ca3c 3ee0 7a3d
00000020: 6d4b 893c f278 b0bc ebe9 453b d38e 6d3c
00000030: f055 c03c
-0.05832235 -0.081226744 -0.016725477 0.043085024 0.0549839 -0.027824583 0.02473465 0.06124901
0.016759599 -0.021542046 0.003019924 0.014499384 0.023478478

value.weight f4 [1, 128]
00000000: 73df 5abc 0bab 94bd da25 87bc f660 09bd
00000010: df77 8a3d c21b b4bc d5d8 8dbd 4041 14ba
00000020: 82a1 dbbb b809 7fbd dfcc 9a3c 5562 6e3d
00000030: 3e17 4fbc 0b30 e73c 7373 fabc cd68 0a3d
00000040: b6fc 68bd ca07 f6bc 24b5 2fbc a03c 953a
00000050: b95b b03d af0f 8b3d 35e4 b73c db2c 16bd
00000060: beb0 44bd 8f15 e9ba 6d7e 1abc 70bc 843d
00000070: b8a5 a5bd 694b 883c 4a46 31bb 188e b3bc
00000080: b6e5 673d f665 eb3c 81a0 a63d 7b6f 24ba
00000090: b65f dd3c 3838 acbd e7cb 8ebd 7091 c73c
000000a0: a7c6 133d b47e 8fbd 85b3 153d 5f3f 913d
000000b0: 0472 a5bb 1c25 6ebd d8f2 2d3c 1a8c a73c
000000c0: 0055 213d 61e9 943d 092f 2cbd e13d 8e3d
000000d0: 24e3 383d 96aa 573d 44ec bdbc 5d8d 40bd
000000e0: de4b c4bc b86b acbd aab6 443d a417 10bc
000000f0: 5ae4 63bd 8875 01bd 782b adbd 4729 893d
00000100: e079 abbd 758e c6bc b9e8 753d 8bd4 7a3b
00000110: 1dc1 123d 881d 55bd bfd1 8bbd 39a5 2e3d
00000120: eb2e 7b3c 9468 ab3d 01da 3a3b 862e 07bd
00000130: c5ab 843d 44fc 8a3c 1cce cc3c 543b 933d
00000140: 8381 95bd 8505 4bbd c801 893d 6245 823d
00000150: 8b40 893d a0ce fd39 6ba4 34bd 5307 633d
00000160: 0499 af3d 9783 b9bb 0923 263d 1613 cfbc
00000170: 6d2e 4e3d 054d 15bd bc3a 8fbd b1ac d23c
00000180: b11a 8dbd 64ad 9fbd 12ed d0bc 6612 84bc
00000190: bea8 72bb ef3f 823d 6d3f 77bc 6296 99bd
000001a0: 15b2 e3bc 1b3b a9bb e3bd a7ba 8c8a a0bb
000001b0: ad94 793d 46b7 3d3c 74e7 97bd 4e96 76bd
000001c0: b932 9d3d 41fe 363d c013 813d 5729 83bc
000001d0: d1e2 f23b 8d73 753d 37cc a23d bd1a fcbc
000001e0: a732 233c 5091 a839 49e6 a83d 8c37 e43c
000001f0: b799 2b3b 4bb5 9fbd 9946 31bc 3eac 0ebd
-0.0133589385 -0.07259186 -0.016497541 -0.033539735 0.06761145 -0.021985892 -0.06926123 -0.0005655475
-0.006702603 -0.062265128 0.018896518 0.058199245 -0.012639819 0.02822115 -0.030572629 0.033791352
-0.05688163 -0.030033011 -0.01072434 0.0011385866 0.08611245 0.06790101 0.022447685 -0.03666387
-0.048020117 -0.0017782914 -0.009429556 0.06481254 -0.08088249 0.01663752 -0.0027049952 -0.021918342
0.056615554 0.028735142 0.081360824 -0.00062727154 0.027023178 -0.084091604 -0.06972485 0.024361342
0.03607812 -0.070065886 0.036548156 0.07092165 -0.005048992 -0.05814086 0.0106169805 0.020452548
0.039387703 0.07271076 -0.042037044 0.06945396 0.045138493 0.052652918 -0.02318395 -0.047009815
-0.023961958 -0.08418983 0.048025765 -0.008794699 -0.055637695 -0.031606227 -0.08455557 0.06697326
-0.08372855 -0.02423785 0.060036395 0.0038273658 0.0358287 -0.052030116 -0.06827115 0.042638037
0.01533101 0.08369556 0.0028511288 -0.033003353 0.06478075 0.016965993 0.025000624 0.0718905
-0.07300093 -0.04956581 0.06689793 0.0636089 0.06701764 0.00048409868 -0.044102114 0.055426907
0.08574107 -0.0056614387 0.040560756 -0.025277656 0.050337244 -0.036450405 -0.069936246 0.025717111
-0.068898566 -0.077967435 -0.025503669 -0.016122054 -0.0037026848 0.063598506 -0.0150908055 -0.07499386
-0.027794877 -0.0051645166 -0.001279768 -0.0048993286 0.060932804 0.01157934 -0.07417193 -0.060201935
0.0767569 0.04467607 0.06302595 -0.016010923 0.0074122925 0.05992465 0.07949107 -0.030774469
0.009960807 0.00032151723 0.082470484 0.027858518 0.002618415 -0.07798251 -0.010820054 -0.03483223

exp_avg f4 [256, 23]
00000000: 7902 6e3b d84e a83b efd0 103c 1a14 8f3b
00000010: 842c 123c 0000 0000 94b9 d938 c88f 61ba
00000020: 44df ba3b fc10 94bb 6826 3a3b ed45 8f3c
00000030: 6d51 203d cb9d 313b fc24 333d 3081 55bc
00000040: aee2 ddbc 5a1d ed36 d33a 023d 0000 0000
00000050: 3a87 7c34 0000 0000 0000 0000 0010 91b9
00000060: 80c0 bcb9 7582 fb38 fa23 40b9 2c76 f1b9
00000070: 0000 0000 4818 dd38 5246 bc37 0fbd b939
00000080: e54f 9e3a cf75 3b3a adad 013b e671 3a3b
00000090: 2b4a 2e3b ae22 8539 59f2 b339 db1a 363b
000000a0: 0d31 0bb6 3912 a73a 0000 0000 7172 26b4
000000b0: 0000 0000 0000 0000 d489 063b 7ea3 4e39
000000c0: 72ae bc3a db56 a93a f445 703a 0000 0000
000000d0: 1ac4 da38 dc8f 5039 1983 203a 8c89 3c3a
000000e0: d169 633b 2320 a53a 211b a9b9 bc1c e53a
000000f0: 977e babb 8a2a 2a3c 16dd 063c 4d42 4f32
00000100: fb38 dd39 0000 0000 6c49 2532 0000 0000
00000110: 0000 0000 decf 43bb c288 2abb f3db 11bb
00000120: 45c4 81b9 cc19 673b 0000 0000 4ab1 18b9
00000130: 1fe5 52bb 81a6 7bbb 5faa 14bc 8421 86bc
00000140: a272 2fbc 8b3b 38bc cc6b 59bb c44e 6abb
00000150: 0e8c 61bd 2f4f 2f3c efb5 d636 0d0b fcba
00000160: 0000 0000 01c8 9c34 0000 0000 0000 0000
00000170: af7f 8eba 6466 8bba e2bb fdba 43e8 9dba
00000180: f29e f3ba 0000 0000 701c ab2b ddd5 f738
00000190: 66e0 b939 d901 f839 3ce9 1b3a 72dd 393a
000001a0: e9da 7cbb 0000 0000 a9ef 1ebc 0f64 e93a
000001b0: a5e9 1a3b 4b55 5b35 62c7 d6bb 0000 0000
000001c0: 0000 0000 0000 0000 0000 0000 e425 3fba
000001d0: e192 0eba ca5f 5aba 449d 0dba 4a3e 50ba
000001e0: 0000 0000 53c3 78b7 65a1 8fb3 a793 cfb6
000001f0: a9d4 3c35 b748 8f35 9520 2c39 3037 4f3a
00000200: f389 0f3a 3980 fbbb dfff 4ab2 2409 fa1e
00000210: 25ed 0b36 e3a4 68bb 0000 0000 3ff3 c5b2
00000220: 0000 0000 0000 0000 ec28 2ebb 191f 86bb
00000230: 9cb4 99bb 5d21 cdba 0cd5 d7bb 0000 0000
00000240: 7d52 c838 bfcc 08bb 880b c1bb 6213 02bc
00000250: 6f1b 28bc 3357 2fbc fc9b 9ebc a4f6 0f3b
00000260: 62b2 d1bc e4dd f4bc 0216 88bb d71a 46b6
00000270: 21b2 7dbc 0000 0000 b7cf 9db4 0000 0000
00000280: 0000 0000 70f3 4537 34f3 4537 9b40 9136
00000290: eda6 7a36 efe0 2e37 0000 0000 6227 8b2b
000002a0: 6163 c32a 1a39 4e2d 0083 1e2a 70f3 c537
000002b0: 118a 6d37 f750 421d 0000 0000 0000 0000
000002c0: 4c76 9438 5947 c02d 0000 0000 db27 3238
000002d0: 0000 0000 0000 0000 0000 0000 0000 0000
000002e0: f260 54bb cd50 5fbb b79e bebb 2fc2 f7ba
000002f0: 1a90 77bb 0000 0000 5637 d533 656b abba
00000300: 1fb6 97bb 7864 28b8 1d1c 39bc 2537 2cbc
00000310: 8821 bbbc c083 1236 fd02 bdbc ed1a 7835
00000320: a724 a535 d356 8236 6c32 80bc 0000 0000
00000330: 9969 7d34 0000 0000 0000 0000 1a08 edb8
00000340: 922b d4b8 fcdc 2cb9 5ba3 16b9 4b05 4db9
00000350: 0000 0000 6c87 b2b7 d0ce 52b3 4df6 b2b8
00000360: d7c2 6fb4 62a8 46b9 d221 02ba e767 34ba
00000370: a038 34ba 3b6a ddb4 e1c1 94ba 22d5 2635
00000380: 9fbb 68b6 13a2 25ba 0000 0000 e34b 8fb4
00000390: 0000 0000 0000 0000 5702 b13b 1306 c43b
000003a0: 839b 013c dc07 3e3b 746a e53b 0000 0000
000003b0: d9ea bf38 02b0 133b 2867 c13b afbe 073c
000003c0: fa60 413c e5c6 703c e560 073d 45b7 fe3a
000003d0: 02f3 123d 6ede 653d 8e71 0fbc c4d6 9c35
000003e0: abfb ca3c 0000 0000 5126 e033 0000 0000
000003f0: 0000 0000 1d63 55ba 9a7e 5dba 5206 8aba
0.0036317392 0.005136352 0.008838876 0.00436641 0.008921746 0.0 0.00010381933 -0.0008604494
0.005702885 -0.0045186263 0.002840424 0.017489398 0.039140154 0.0027102109 0.043736443 -0.013031289
-0.027085628 7.0665674e-06 0.03179438 0.0 2.3518524e-07 0.0 0.0 -0.00027668476
-0.00036001578 0.00011992912 -0.00018323949 -0.00046055147 0.0 0.00010542624 2.2444092e-05 0.0003542681
0.0012078254 0.0007151039 0.0019787357 0.0028449236 0.00265945 0.00025393575 0.00034322104 0.0027787003
-2.0741165e-06 0.001274652 0.0 -1.5501588e-07 0.0 0.0 0.002052893 0.00019706597
0.001439525 0.0012919562 0.0009165697 0.0 0.00010431577 0.00019890018 0.00061230507 0.0007192127
0.0034700523 0.0012598078 -0.00032254405 0.0017479877 -0.00569136 0.010386119 0.008231422 1.2064061e-08
0.00042194859 0.0 9.620958e-09 0.0 0.0 -0.0029878537 -0.0026021455 -0.0022256344
-0.0002475103 0.003526318 0.0 -0.00014561895 -0.0032180024 -0.0038398805 -0.009073823 -0.016373403
-0.010708483 -0.011244665 -0.0033175824 -0.0035752514 -0.055065207 0.010700031 6.398877e-06 -0.0019229368
0.0 2.9202786e-07 0.0 0.0 -0.0010871793 -0.0010635373 -0.0019358362 -0.0012047369
-0.0018586798 0.0 1.2158174e-12 0.00011817713 0.0003545314 0.00047303623 0.00059475354 0.0007090188
-0.003858263 0.0 -0.009700694 0.0017806309 0.0023637798 8.1707975e-07 -0.00655453 0.0
0.0 0.0 0.0 -0.0007291718 -0.0005438757 -0.0008330314 -0.00054021575 -0.0007943852
0.0 -1.4827429e-05 -6.688314e-08 -6.1862697e-06 7.034492e-07 1.0675493e-06 0.00016415336 0.0007904647
0.0005475573 -0.0076751974 -1.1816126e-08 2.647356e-20 2.085065e-06 -0.003549867 0.0 -2.3044434e-08
0.0 0.0 -0.0026574684 -0.0040930626 -0.00469072 -0.0015650202 -0.0065866765 0.0
9.552108e-05 -0.0020873991 -0.005891267 -0.007939192 -0.010260447 -0.010701942 -0.019361489 0.0021967078
-0.025597755 -0.029890962 -0.004153014 -2.9519922e-06 -0.015484364 0.0 -2.939466e-07 0.0
0.0 1.1798795e-05 1.179874e-05 4.328858e-06 3.7350067e-06 1.042358e-05 0.0 9.887475e-13
3.4707916e-13 1.1722423e-11 1.4078669e-13 2.359759e-05 1.4158447e-05 2.5717544e-21 0.0 0.0
7.0792245e-05 2.1859558e-11 0.0 4.2475625e-05 0.0 0.0 0.0 0.0
-0.0032406417 -0.003407526 -0.00581726 -0.0018902476 -0.00377751 0.0 9.928651e-08 -0.0013078271
-0.004629865 -4.014789e-05 -0.011298207 -0.010511194 -0.022843137 2.1832384e-06 -0.023072714 9.242638e-07
1.2304125e-06 3.8844096e-06 -0.015649043 0.0 2.3600877e-07 0.0 0.0 -0.0001130255
-0.00010117063 -0.00016485521 -0.0001436597 -0.00019552295 0.0 -2.1282314e-05 -4.908253e-08 -8.5335785e-05
-2.2329492e-07 -0.00018945479 -0.0004964146 -0.0006881938 -0.0006874893 -4.124175e-07 -0.0011349284 6.214997e-07
-3.4679904e-06 -0.00063184014 0.0 -2.669104e-07 0.0 0.0 0.0054018903 0.0059821694
0.007910612 0.0028996384 0.0070012156 0.0 9.1513335e-05 0.0022535329 0.0059021898 0.008285209
0.011802906 0.014695858 0.03305139 0.0019433281 0.03587628 0.05612033 -0.008755101 1.1685411e-06
0.024778208 0.0 1.04377825e-07 0.0 0.0 -0.0008140074 -0.0008449346 -0.0010530448
