checkpoints/yahtzee_pretrain_incremental_500ep/checkpoint_ep499.pt (torch, 518949 bytes, 25 tensors)

shared.0.weight f4 [256, 23]
000000 38 0e 91 38 44 95 12 3e e8 f0 2b bd 7b eb 63 be
       6.916787e-05 0.14314753 -0.041977793 -0.22257797
000010 e3 03 18 be a0 70 46 bd 6b e1 79 be 72 68 03 be
       -0.14845233 -0.04844725 -0.24402396 -0.12832811
000020 90 1d b2 be 2c 95 68 be 21 46 56 3e e2 19 f4 3c
       -0.3478818 -0.22713155 0.2092519 0.029797498
000030 78 85 d6 3d 5c 79 da 3d 9f 84 79 3b 1e 06 ac bd
       0.10474676 0.10667679 0.0038073433 -0.08399604
000040 bf e1 18 3e 30 fb f5 3c 39 1e b9 bd 21 d6 49 bd
       0.14929865 0.030027002 -0.09038968 -0.049276475
000050 96 8f c3 3b c1 de 15 bc 69 fe 99 3c e4 8c 15 3d
       0.0059680445 -0.009147347 0.01879807 0.036511317
000060 f8 dc aa 3d 95 12 78 be 9f 62 50 be bc a6 75 be
       0.08342928 -0.24225838 -0.20350121 -0.23989385
000070 73 11 2c bd 07 73 0d 3e 3b a3 de 3d c0 5d 4b 3d
       -0.04200883 0.1381341 0.108709775 0.049649954
000080 58 bd c7 be 4b 16 d2 3d 95 85 02 bd cd 3b 2a 3d
       -0.39011645 0.10258158 -0.031865675 0.041560937
000090 4f c3 01 3e e6 74 c6 bd 94 63 04 3e ef fc 3c 3d
       0.1267216 -0.09690265 0.12928611 0.046139654
0000a0 25 12 18 3d 89 93 29 bd d3 9e 58 bb 2d 6f b5 bd
       0.03712668 -0.041400466 -0.003305365 -0.08859096
0000b0 82 2b ec 3d be c3 9d bd 47 3c a6 be 21 f3 85 3d
       0.11531736 -0.077033505 -0.32467863 0.06540514
0000c0 80 24 44 bd d1 10 81 bd 6e f8 b2 3d e8 69 14 3d
       -0.04788637 -0.063020356 0.087387905 0.036233813
0000d0 92 d2 c1 be 97 c4 da bd 5c 65 d1 3d 3f 0d 1e 3d
       -0.37855965 -0.10682028 0.10224411 0.03858685
0000e0 8f 17 08 be 0c aa 48 3d 2b 02 96 be ef fa 3e 3d
       -0.13290237 0.048990294 -0.2929853 0.046626028
0000f0 4b 97 f2 bd 19 54 96 3d ec df 1a 3d 60 bf 10 3e
       -0.11845263 0.07340259 0.037811205 0.14135504
000100 24 01 58 bd f4 a4 26 bd 66 9e 35 be a7 47 2c be
       -0.052735463 -0.040684655 -0.17736205 -0.16824208
000110 21 c0 03 3e c7 da 42 be 3c bd c3 3d 88 79 c7 bc
       0.1286626 -0.1902877 0.09557578 -0.024349943
000120 53 1c 1f be 79 8a e3 39 ac 40 fb bd 3e f3 23 be
       -0.15538149 0.00043399984 -0.122681946 -0.16010758
000130 5f 35 44 3e 3b 4e ce 3d e7 dc c0 3c 2d a6 51 3e
       0.19160984 0.10073515 0.023542834 0.20473547
000140 e4 3e 02 3e 5a da 98 3d a2 1f 9a be 73 50 db 3d
       0.12719303 0.07463522 -0.3010226 0.10708704
000150 1d 0a d1 bd 09 b8 15 3d da ee 88 3d c4 be 88 bc
       -0.10207007 0.036552463 0.06686182 -0.016692527
000160 72 b2 a3 bc a6 fb c6 bd 3f 23 a3 bc d6 2a 03 3e
       -0.01998255 -0.09715967 -0.019914268 0.1280931
000170 98 40 7d 3d 53 ef 3d be 74 e4 05 be 20 01 7b bd
       0.06182918 -0.18548326 -0.13075429 -0.06128037
000180 1f e0 a0 3d 1a 16 df 3d f3 9a e8 be 29 f4 8e b9
       0.07855248 0.108928874 -0.45430717 -0.00027266264
000190 78 33 80 bd fc d9 d4 be 75 24 ba 3c 46 f7 7c be
       -0.06259817 -0.4157256 0.022722462 -0.24703702
0001a0 5f a9 d1 bd 95 1d a3 be ee 7d 81 3d ab 40 05 be
       -0.10237383 -0.31858507 0.06322847 -0.1301295
0001b0 79 97 d9 3d c2 45 6a bd 54 76 7f bd be a2 03 3d
       0.10624594 -0.057195432 -0.062368706 0.032137625
0001c0 36 29 03 3e 6a 62 b9 bd 97 b0 3a be 06 e9 29 3d
       0.1280869 -0.09051974 -0.18231426 0.041481994
0001d0 03 63 4e bc ae 7a 61 be 5c 76 1e be 1b cb 8a be
       -0.012596848 -0.22019455 -0.15474838 -0.27108082
0001e0 95 85 3f bd ef 74 21 3e 44 f8 8b 3d e7 9a 1c bd
       -0.046758253 0.15767263 0.06834462 -0.038233664
0001f0 4b c3 8f 3d 5d e4 65 be 57 f3 eb 3d b7 37 58 be
       0.07019671 -0.22450395 0.11521023 -0.21115004
000200 25 f6 a2 3d 58 3b c3 bc dc 8a 69 be 9a c4 d7 bd
       0.079571046 -0.023832008 -0.22806877 -0.10535546
000210 d9 23 be bd 70 01 00 3e 90 f0 2c 3d d9 7b a7 3d
       -0.09284181 0.12500548 0.042221606 0.08177919
000220 f0 95 23 be 93 d4 10 3c f4 2c bd bd 0c 8a d0 3b
       -0.15975165 0.008839744 -0.0923709 0.0063641127
000230 83 2d 57 bd b4 f4 12 be 92 0e 2f be 6c d7 06 be
       -0.052533638 -0.1435116 -0.17095402 -0.13168114
000240 3c 1f c3 3d b2 20 cb 3d be bc b4 3e fd b5 57 3e
       0.09527442 0.099183455 0.3530025 0.21065517
000250 42 2d 8b 3c db 41 ad 3d a6 02 99 3a e3 52 5b 3e
       0.016989354 0.084598266 0.0011673763 0.21418338
000260 15 29 0b be 27 da 17 3e 53 e1 9d 3d 27 89 65 3d
       -0.1358989 0.14829312 0.07708993 0.056039
000270 37 7d 92 be 9e 7d 3b 3c 48 a1 ed 3d db 72 0e 3e
       -0.28611156 0.011443524 0.116030276 0.13911001
000280 f2 66 19 be b6 59 30 3d 64 d6 89 bd 4b 11 07 be
       -0.14980677 0.043054305 -0.06730345 -0.1319019
000290 2e f7 68 be df 65 9b bd 99 06 6b bd ea d0 2d 3d
       -0.22750542 -0.0758779 -0.05737934 0.042435564
0002a0 7b ef df 3b be 01 c0 3d 02 3d 4b bd 82 3c 07 3e
       0.006833968 0.09375332 -0.04961873 0.13206676
0002b0 7f 15 64 be 5b 40 da bd 02 6d 0d be ba 74 0a be
       -0.22273825 -0.10656806 -0.13811114 -0.1352109
0002c0 ed 26 b2 3c 1c 79 41 bd b5 b7 26 be 17 97 95 bd
       0.021747077 -0.04723464 -0.16281016 -0.07304209
0002d0 47 48 bf bd 8a f5 25 bc 77 fe 5b 3d 13 60 1e 3e
       -0.09339958 -0.010129342 0.053709473 0.15466337
0002e0 74 68 7e be 26 af 0b be c3 94 b4 3d 29 47 5a be
       -0.24844533 -0.13641033 0.088174365 -0.21316208
0002f0 22 af 1b be d5 71 6d bd 7e 57 98 3d 3c fe 98 bd
       -0.15203527 -0.057969887 0.07438563 -0.07470366
000300 fa 04 5b 3e a6 80 06 3e a2 ef cc 3d 73 c5 18 be
       0.21388617 0.13135013 0.10006644 -0.14919071
000310 3a a3 00 3c 8b bb 8f 3b 68 e3 5f 3d 45 91 50 be
       0.007851416 0.0043863705 0.05466023 -0.20367916
000320 e0 ee c6 bd 7a 70 26 3a 1f bf 0c be d8 aa eb 3d
       -0.097135305 0.0006349158 -0.13744782 0.11507195
000330 10 1a 2a be 08 3e 45 bd 7d f7 89 bd 33 9a 84 be
       -0.16611505 -0.04815486 -0.06736658 -0.25898895
000340 d5 3c f9 bd f3 18 c8 bd 11 5b db 3d 65 e7 14 be
       -0.12169806 -0.09770384 0.10710729 -0.14541395
000350 f0 ff 4c be e0 36 8d 3c 12 2d 49 be b9 f5 2d 3b
       -0.20019507 0.01723808 -0.19646099 0.0026544167
000360 9c f1 6f be b3 f3 90 bc ea d7 1f 3e e1 eb 5e 3b
       -0.2343201 -0.01769433 0.15609708 0.0034015107
000370 4e c0 0e 3e 90 4b 7c be dd 1e 8b be 62 84 0c bb
       0.13940546 -0.246382 -0.27171984 -0.002144121
000380 45 52 5a 3d c6 6f 80 be f1 15 a7 3d 5b 93 01 be
       0.053301115 -0.25085276 0.08158482 -0.12653868
000390 f3 8b b2 bd bd cb a3 bd c6 65 39 bd 58 96 13 bd
       -0.087180994 -0.07997844 -0.045263074 -0.03603205
0003a0 81 b6 2e be 30 06 80 be 89 04 7b 3d f3 aa 7e 3d
       -0.17061807 -0.2500472 0.061283622 0.06217475
0003b0 02 09 87 3c 1b ef 49 3e f7 ca 1d 3e 91 2f ce bd
       0.016483787 0.19720118 0.15409456 -0.10067666
0003c0 b3 23 38 be 42 80 df 3d 27 52 31 3c a0 65 74 3c
       -0.17982368 0.10913135 0.010822809 0.014916807
0003d0 29 53 56 bd b9 52 c6 bd b3 01 9c 3d 30 f3 34 3d
       -0.0523254 -0.09683747 0.076175116 0.044177234
0003e0 50 7a 7a be 1b 05 cc 3c c8 b8 24 be 11 48 52 3e
       -0.24460721 0.024904778 -0.16086113 0.20535304
0003f0 09 7f 1f be 45 25 ab 3d bf 37 56 bc 0c e7 4a be
       -0.15575804 0.08356718 -0.013074814 -0.198147

shared.0.bias f4 [256]
000000 10 59 5d be 6c 9e 45 be 65 db 59 3c 2d 09 71 bd
       -0.21616006 -0.19298714 0.013296937 -0.05884664
000010 5d bf 61 be d5 02 9f 3d bf 76 06 3c c6 28 80 bd
       -0.22045656 0.07764212 0.008207022 -0.06257777
000020 2b 30 d9 3c b4 17 76 be 69 76 09 be 1c 1e b6 bd
       0.026512226 -0.2403248 -0.13424076 -0.08892462
000030 3c 4d 60 bd 0e 62 0e be b7 db ed bd 7a 57 4f 3e
       -0.054761156 -0.13904592 -0.11614173 0.20248213
000040 40 88 8a be 40 b6 ac 3d 04 36 52 bd 32 13 8f bd
       -0.27057076 0.08433199 -0.051321045 -0.06986083
000050 58 72 13 3e 6e cf 7d bd 28 ac 8f bd 8d f6 37 bc
       0.14399087 -0.0619654 -0.07015258 -0.011228216
000060 fa e0 a0 bc de 32 b3 bb e3 05 9b be a6 9a 85 be
       -0.019638527 -0.0054687103 -0.3027793 -0.2609455
000070 b4 5e 77 3c a4 3f 03 3e 03 f5 85 3d bd dc c1 bb
       0.015098263 0.12817246 0.06540873 -0.0059162066
000080 95 57 80 be 1a 6d be 3d b7 41 68 be 44 03 29 3e
       -0.2506682 0.09298153 -0.22681318 0.16505152
000090 f0 51 3a be 6e 08 42 bb ec dc 32 3e f5 31 17 3e
       -0.18195319 -0.0029607075 0.17467088 0.14765151
0000a0 59 43 7f be f4 22 d0 3d 20 88 c5 bd 0c 45 97 be
       -0.24928035 0.10162917 -0.096451044 -0.29544866
0000b0 f1 89 30 be 7a 68 2c 3e 5e 0a ea 3c a0 d2 61 bc
       -0.1724012 0.1683673 0.028569397 -0.013783127
0000c0 5e 31 1d 3d d7 d1 a9 be e6 b6 b0 bd cf e3 65 3d
       0.03837716 -0.33167908 -0.08628635 0.05612546
0000d0 2e 15 ee 3d 33 3b 34 bb 7c be e0 bd e8 fd 0c be
       0.116251335 -0.0027501106 -0.10973832 -0.13768733
0000e0 b3 b4 0c 3e 6e ac ca bd 9d fa 42 be 20 d5 86 be
       0.13740806 -0.098961696 -0.19040914 -0.26334476
0000f0 75 00 ba 3b 02 f9 40 be 95 88 83 be 78 ef 86 3d
       0.005676324 -0.18844989 -0.2569014 0.06588644
000100 7d 6c 53 3d 46 7d df 3d 7a 7b 79 bc 61 94 64 be
       0.051617134 0.10912566 -0.015227193 -0.22322227
000110 81 84 d9 bd af a4 cb 3d cb a3 39 3e 2e 60 0e 3b
       -0.10620976 0.0994352 0.18128888 0.0021724808
000120 b6 d3 86 3e 9c f5 50 be 2b 72 bd 3d bc 49 f9 3d
       0.26333398 -0.20406193 0.092502914 0.12172267
000130 69 5b 45 be 29 8f c0 bd a1 c7 29 bd 79 51 0a be
       -0.19273151 -0.09402306 -0.041450147 -0.13507642
000140 6b d8 99 be 23 c8 36 be 64 74 03 3e 64 45 a6 bc
       -0.30047926 -0.17849784 0.12837368 -0.02029676
000150 89 f4 53 be 10 2a 58 bd 2b be 34 3e 88 9f 43 be
       -0.20698752 -0.05277449 0.17650668 -0.19103825
000160 e2 8b ac 3d 29 d1 85 be a8 4d 08 bd bc 90 96 be
       0.08425118 -0.2613614 -0.033277184 -0.294073
000170 8b 83 91 be 4e 50 a1 bd ee 1d a4 be ab d5 db bd
       -0.28420672 -0.07876645 -0.32054085 -0.10734113
000180 f0 b5 2b be ac bd 02 3c 7f 13 12 be 78 85 d7 bd
       -0.16768622 0.007979792 -0.1426525 -0.10523504
000190 ca 91 4a bb 51 da 2b be 40 28 f1 bd d5 f6 79 be
       -0.003090965 -0.167825 -0.11775255 -0.24410565
0001a0 fe b4 88 be bf 34 af 3d c5 5f 42 bd 37 46 dd 3d
       -0.26700586 0.085549824 -0.047454614 0.10804408
0001b0 37 77 13 be 6e 8c 11 be 38 ee b4 3d 98 62 e6 3c
       -0.14400946 -0.14213726 0.08834499 0.028123185
0001c0 7e 9c 6e be 53 48 d9 3c a8 71 80 be 0c 8d de 3d
       -0.23301885 0.026523745 -0.25086713 0.10866746
0001d0 ff 26 41 3d 2b fd 6f be b8 d4 27 ba 78 ef 34 3e
       0.04715633 -0.2343642 -0.0006402242 0.17669475
0001e0 45 21 1b be 08 30 16 3e 41 08 fa bd a1 26 09 3d
       -0.1514941 0.1466676 -0.122086056 0.033484105
0001f0 8c 30 ae 3c 02 bb 2c be 74 84 f6 bd 38 30 76 3d
       0.021263383 -0.16868213 -0.12036982 0.06010458
000200 f0 b8 38 3e a5 0d 04 be bf bc 21 3e c5 1f 4b be
       0.18039298 -0.1289583 0.15794657 -0.19836338
000210 5d 99 ab 3c fd 48 38 be dc ac 00 3e 57 90 d2 3d
       0.020947153 -0.17996593 0.1256594 0.10281437
000220 4e 1e 83 be d3 f3 17 be f2 3b 43 be 32 f4 64 bd
       -0.25609058 -0.14839105 -0.19065836 -0.055896945
000230 d5 ab a4 be 4c ce 92 3d a3 9f 16 be ce 4e 15 3d
       -0.32162347 0.07168254 -0.14709334 0.036452107
000240 be 28 82 bc f7 8a 98 3d 87 a4 4c be 7a 90 88 be
       -0.015888568 0.074483804 -0.19984637 -0.26672727
000250 5a 97 23 be aa 69 2c 3e b1 76 92 be 83 8b 1a 3d
       -0.15975705 0.16837183 -0.2860618 0.037730705
000260 81 8e ae bc c2 b1 08 be ba e1 36 be f9 f3 e3 3d
       -0.021308186 -0.13349059 -0.17859545 0.111305185
000270 4a fc 02 be 06 00 3b bd f8 42 54 be 9f 31 9a bd
       -0.12791553 -0.04565432 -0.20728672 -0.07528996
000280 ac 27 2c be 52 b7 2c 3e e7 74 61 bd b4 b4 4c 3d
       -0.16812009 0.16866806 -0.055043127 0.04997702
000290 85 9c 09 be 1c be 65 be 88 6c 73 be e5 48 0e 3e
       -0.13438614 -0.22435802 -0.2377187 0.13894995
0002a0 66 7b 56 3d e2 76 b3 3d 88 c4 78 bc 01 9a 9d 3d
       0.052363776 0.087629095 -0.015183575 0.076953895
0002b0 ba 8c cb 3b 26 97 0a be 12 c0 21 be 2c 4d 23 bd
       0.0062118443 -0.13534221 -0.15795925 -0.03986852
0002c0 5c 96 04 bd 8b 52 f4 3d 09 5f 38 be bb 8b 27 be
       -0.032369956 0.11929806 -0.18005003 -0.16361897
0002d0 72 bd ea bd 7f 16 b0 bd 5b 5b 81 be f6 11 88 be
       -0.11461915 -0.08598041 -0.2526501 -0.26576203
0002e0 2c 92 26 be 22 42 31 3e dd 9c 3c 3d c4 5d 02 3e
       -0.16266698 0.17310384 0.046048034 0.12731081
0002f0 1c 8f 85 bd 78 95 c8 bd b7 1e ab 3d 56 b6 28 3e
       -0.065214366 -0.09794134 0.08355468 0.16475806
000300 64 37 d5 bd e8 40 22 be be 40 9a 3c 40 41 c7 3d
       -0.104109555 -0.15845072 0.0188297 0.09729242
000310 ba 5c 49 3d e4 67 24 3e a4 91 6f 3d e6 61 33 3e
       0.049160697 0.16055256 0.058488503 0.17517814
000320 62 66 72 be d0 40 5d bd 34 eb a7 bd 5c 10 41 3c
       -0.23671868 -0.05401689 -0.08199158 0.011783686
000330 02 35 da 3d 65 3d b2 bd 01 08 12 be f7 3a 9a bd
       0.10654642 -0.08703116 -0.14260866 -0.07530778
000340 06 61 a4 bd 05 61 69 be 7b 66 27 be 85 fb 96 be
       -0.08026318 -0.22790916 -0.16347687 -0.2948877
000350 4e 13 35 3d df 13 8f 3d 7d 50 17 be e1 e8 3c be
       0.044207864 0.06986212 -0.14776798 -0.18448211
000360 32 00 df 38 cf 07 81 be 23 c0 73 3d af 1b eb bd
       0.00010633505 -0.2520127 0.059509408 -0.114798896
000370 6a f1 59 be 0e 6e 72 3d 78 2d 84 be ba 0e d4 bc
       -0.21283498 0.059186988 -0.2581594 -0.025885928
000380 ba ee 5c bd e5 15 e9 bd 91 97 79 be b1 70 93 bd
       -0.053938605 -0.11381129 -0.24374224 -0.071992286
000390 8f b0 06 be fc 92 55 be 13 ba 08 3d a0 2f 9d be
       -0.1315329 -0.20856851 0.03338058 -0.30700397
0003a0 9e 01 0c 3e bd ec 08 3e 9f 8e 22 3e b4 1b 46 bd
       0.13672492 0.13371558 0.15874718 -0.048366264
0003b0 8a 3a 68 be ba 78 cb 3c f1 92 0e be 24 dc b0 3d
       -0.22678581 0.02483784 -0.13923241 0.086357385
0003c0 1e 6c 0b be f7 e1 56 be 42 5c 1e be 17 a4 1f 3e
       -0.13615462 -0.20984636 -0.15464881 0.15589939
0003d0 5e e9 34 be 08 0b 29 bd c6 70 08 3e 9a a2 2e be
       -0.17667148 -0.041270286 0.1332427 -0.17054215
0003e0 69 bf 7b be 86 3a 96 be 0f bc 86 be e5 91 01 be
       -0.24584736 -0.29341525 -0.26315352 -0.1265331
0003f0 a1 7e 17 3e 9e 2e 28 3e 7e da 81 bb 22 47 0d be
       0.14794399 0.16424033 -0.003962814 -0.13796666

shared.2.weight f4 [128, 256]
000000 b3 5c 2d 3c 6a ca 5b 3b c0 d0 67 bd 94 3d aa bd
       0.010581183 0.0033537396 -0.056595564 -0.08312526
000010 46 8c e2 3c 86 eb 1c bc b9 f3 d5 bd a0 ea c7 3c
       0.027654778 -0.009577638 -0.10446877 0.02440387
000020 89 d7 3f bc f6 8d 17 bc 26 3f a3 bd 2c 2e 3a 3e
       -0.011709102 -0.009250155 -0.07971029 0.18181676
000030 64 27 91 bd 1a 76 3a 3d 07 5a 2f bd 22 eb 41 3e
       -0.07087591 0.045522787 -0.042810466 0.18937352
000040 5e 1a 80 bd f1 a3 5f 3d 60 25 ee 3b 78 f2 08 bd
       -0.06255029 0.054599706 0.007267639 -0.03343436
000050 99 13 0a 3e a3 62 64 bd 82 eb c6 bc 8e 58 90 3b
       0.13484038 -0.05575813 -0.02428222 0.004405088
000060 d3 3b 86 bb 73 d3 a1 3c e3 e4 b3 3d 1d ae 25 3d
       -0.004096487 0.019754147 0.08783891 0.04044925
000070 e0 0b 23 3d 5f 49 10 bd 4e 9a 38 be 7c aa ba bc
       0.039806247 -0.035226222 -0.18027613 -0.022786371
000080 ab 91 8f 3b 71 44 e9 bb 4d 9c 99 bd 6d e4 0c 3d
       0.0043813786 -0.0071187546 -0.07500515 0.03439753
000090 15 a2 80 bc 56 0a 39 bd 29 de 43 3c 76 d0 83 3d
       -0.015702287 -0.045175873 0.011954823 0.06436245
0000a0 f7 e8 4b 3d df 22 fa 3d d8 ae a8 bd 8c 12 04 be
       0.04978272 0.122136824 -0.08236474 -0.128977
0000b0 cf 36 9e 3d 7a 8e 0f 3d d4 5c 97 bc bc c8 4f bd
       0.07725298 0.035047986 -0.018476881 -0.050728545
0000c0 c0 48 33 bc d6 9d 1a 3b 68 8d 21 bd b4 18 ac bb
       -0.010942638 0.0023592613 -0.039441496 -0.0052519683
0000d0 c6 b1 9e 3d c7 b3 58 bd 6c c7 47 3d 9f fb a2 3d
       0.07748751 -0.052905824 0.048774168 0.07958149
0000e0 76 4b 8c bd 57 eb a4 3c 69 f7 ec bc 06 a3 dd bc
       -0.068503305 0.02013175 -0.028926568 -0.027055275
0000f0 61 08 02 bd 75 6c 42 3c 28 61 2c bc 6a e9 a2 3d
       -0.031746272 0.0118666785 -0.010521211 0.079546764
000100 54 7c 1b 3d 3d 47 10 3e b8 e9 48 3b f8 d8 a8 3c
       0.037960365 0.14089675 0.0030656885 0.020611271
000110 45 0e df bd 55 fe b5 3d 33 5f 69 bc 1f c4 b0 bc
       -0.108913936 0.088864006 -0.014243889 -0.021577893
000120 6e 24 08 bb e0 bb 1c bc ae 85 53 bd 6d 94 de 3d
       -0.0020773667 -0.009566277 -0.05164116 0.10868154
000130 e3 68 d0 3c 8e 29 f3 3c 32 47 f7 bd e8 ba 6f bc
       0.025440639 0.0296829 -0.12074126 -0.014631964
000140 01 fd 5a bd a0 b1 93 bd 44 9f 0b be 1b db eb bc
       -0.05346394 -0.07211614 -0.13634974 -0.028791001
000150 f6 26 24 3e 0b 55 8a bd 53 e0 1a 3e fa c5 d9 bd
       0.16030487 -0.06754502 0.15124635 -0.10633464
000160 5f 9b 25 3e 22 3c 8b 3d 20 36 a3 3c d9 d7 2c 3d
       0.1617255 0.06798579 0.01992327 0.042198036
000170 85 79 0f bd 68 8a 50 3d 20 26 f0 3b 43 86 b7 3c
       -0.035028 0.050913244 0.0073287636 0.022402888
000180 6b 13 ab 3c d4 7d 70 3a ee c2 34 3e fd cb d4 3c
       0.020883283 0.0009174023 0.17652485 0.025976175
000190 89 50 a5 3d 2f 60 9f bc 6f c6 0c 3e 3b e6 b0 3d
       0.080720015 -0.019455044 0.13747571 0.08637663
0001a0 51 1b e7 3d 87 a9 2d 3d d2 f4 05 bd 01 58 1c 3e
       0.11284507 0.042398002 -0.032704182 0.15267946
0001b0 c9 0d 7a bd 02 92 72 bc de 4f 93 bd 55 ae 3e 3d
       -0.061048303 -0.014805319 -0.07192968 0.046552975
0001c0 17 aa a3 bd 4e 75 51 bd 01 28 1c 3d 88 67 4f 3d
       -0.079914264 -0.05113726 0.03812409 0.050635844
0001d0 b4 e8 20 bd ab 93 3d bd 2d 02 99 3c e3 dd 4f 3e
       -0.039284423 -0.046283405 0.018677795 0.20299487
0001e0 c8 86 8c bd ee ae b5 bd 8a 1b 92 3c 4a 8b c3 bd
       -0.06861645 -0.08871256 0.017835397 -0.09548052
0001f0 94 ea 89 bd 4e 56 82 bd b9 5e 18 bd 7e 63 09 bd
       -0.06734195 -0.063641176 -0.03719971 -0.03354215
000200 66 04 93 bd a3 40 b4 bd 1c 7d 03 3a c6 eb 33 bc
       -0.07178573 -0.08801391 0.0005015896 -0.010981506
000210 c7 1a 8d bb 28 4e 3c 3d c1 be e0 bc aa 73 a6 3d
       -0.0043061706 0.045972973 -0.027434709 0.0812753
000220 ec 71 a0 bd 8c aa cd bd ea d4 76 3d ac fc 4f bd
       -0.07834229 -0.10042295 0.060261644 -0.050778076
000230 0d 0a ad 3d 1a 67 a8 3d 7b cd f3 bc 36 3d 13 bd
       0.08449183 0.0822279 -0.029761067 -0.035947047
000240 cb 97 85 bd 70 26 21 bd 56 66 26 3d 02 5a 9c 3d
       -0.06523093 -0.039343297 0.04062494 0.07634355
000250 b1 74 f3 bb 4d 7a 71 3d 25 1a 3f bd 08 a5 b2 bd
       -0.007429682 0.058954526 -0.046655793 -0.087228835
000260 29 6f 01 bd ff b5 3d 3d 49 ec 75 3c d9 95 7d bb
       -0.03160015 0.046316143 0.015009948 -0.0038694052
000270 34 ff a7 bc 2c ba 8d bc 8b 32 7b bd 0c 14 59 bd
       -0.020507433 -0.017300688 -0.0613275 -0.052997634
000280 ea ed fa 3d 78 2b fb 3d 80 67 dd bc 3f 8b 6b bd
       0.1225241 0.122641504 -0.027026892 -0.057505842
000290 eb a5 a1 bd 5a f8 23 bd 93 aa 82 bd 1c d4 88 3d
       -0.078929745 -0.04003177 -0.06380191 0.06681082
0002a0 35 9e d8 bd 87 6f 2d 39 e3 58 35 3d c9 67 0f bd
       -0.105770506 0.00016540113 0.044274222 -0.035011087
0002b0 c5 4a 98 bd dc 26 c1 3d f4 c9 a3 bd 08 66 51 3d
       -0.07436136 0.0943124 -0.07997504 0.051122695
0002c0 a6 d7 72 bc 10 fa b6 bd e3 b4 61 3c 05 a2 92 bd
       -0.014821922 -0.089344144 0.013776037 -0.07159809
0002d0 2e d9 d1 bc 97 00 37 3d a7 a3 a0 bd 37 a2 36 ba
       -0.025616255 0.044678297 -0.07843714 -0.0006966921
0002e0 cc 24 de 3d 5b 12 ef 3b fb 13 86 bd a0 f1 a8 bd
       0.10846862 0.0072958893 -0.0654678 -0.08249211
0002f0 ca e3 04 be fe 1a 0a 3d 50 92 89 bd 1f be 6c 3d
       -0.1297752 0.033717148 -0.0671736 0.0577985
000300 a9 d8 0b bc 54 1c 64 bd 20 80 88 bc e7 f5 d8 bd
       -0.0085355425 -0.05569108 -0.016662657 -0.10593777
000310 61 cf 94 bc 14 a4 ff 3c b9 ce 83 3e 41 f9 9a 3c
       -0.018165292 0.031206168 0.25743654 0.018917682
000320 c3 c9 8e bc 4a a4 ce bd 5a af 93 3d 04 12 ec 3d
       -0.017430192 -0.100899294 0.0721118 0.11526874
000330 3a db 0e 3d 8a ee ba 3d 14 e7 6d bd 40 df 0b bd
       0.03487704 0.09127529 -0.0580817 -0.034148455
000340 2b 46 ea bc 9f ef cc 3c 4c f5 5b 3d d1 56 1a bd
       -0.028597912 0.025016604 0.05370073 -0.03768045
000350 6d e1 81 bd 33 2c cf bd d1 40 f0 bb 70 5d 00 be
       -0.06341825 -0.10115852 -0.0073319455 -0.12535644
000360 b6 09 0e bd 6b 40 84 bd dd 45 09 3d 14 33 3f bd
       -0.03467723 -0.06457599 0.033513892 -0.04667957
000370 4d c9 5b 3d 84 6c 13 3d b2 e8 2d bb 87 42 21 bd
       0.053658772 0.03599216 -0.0026536402 -0.039370086
000380 ba 7d 47 3d 21 bb 2a 3b 24 34 68 3c 48 28 7d bc
       0.048703887 0.002605148 0.014172588 -0.015451498
000390 54 12 1d bd 6d f9 02 be 6f 6d 35 bd c1 ad c0 3d
       -0.038347557 -0.12790461 -0.044293817 0.09408141
0003a0 e8 f8 bd bc c1 ed 19 bd 45 f9 0b 3e 33 60 23 bd
       -0.023189977 -0.037580255 0.13669308 -0.039886665
0003b0 df 8d 19 3d b9 37 01 3d 41 e3 33 bd 15 cb d7 bd
       0.037488814 0.031547282 -0.043917898 -0.10536782
0003c0 1b 7c 24 bc fc 5c d8 bd ec 49 c0 3d 4e 75 c5 3d
       -0.010039355 -0.1056461 0.093890995 0.09641515
0003d0 2f b0 d1 3d e4 f3 67 bd 90 ae 56 bd 39 76 d7 bc
       0.102386825 -0.056629077 -0.05241257 -0.02630149
0003e0 87 44 28 bd 06 bb d0 bc 4c 03 e8 3a 8e 89 b3 bc
       -0.041080978 -0.025479805 0.0017701178 -0.021916177
0003f0 b3 bf 33 be 4e 6c f4 bb 69 9f 8a bd a1 15 09 bd
       -0.17553596 -0.0074592 -0.06768686 -0.033467893

shared.2.bias f4 [128]
000000 3c 61 27 bd 26 bc 0d bb c1 ad 18 bd fb 89 12 bd
       -0.040864214 -0.0021627038 -0.03727508 -0.03577612
000010 c9 01 da bd c1 3b 05 bd 67 2c 8f 3d e1 ed c8 bb
       -0.10644872 -0.03252769 0.06990891 -0.006131873
000020 68 d3 a4 bd 0f 26 07 bd fb 80 3b bd c6 82 fd ba
       -0.08048135 -0.03299528 -0.045777302 -0.0019341342
000030 db d3 5f 3a 15 fb 59 3c 5c d9 7c bd 41 29 3c bd
       0.0008538344 0.0133044915 -0.061730728 -0.04593778
000040 ae b8 26 bc 62 b7 62 3d 11 2c 9f 3c 6f af a9 bd
       -0.010175867 0.05535067 0.019430192 -0.082854144
000050 80 54 bb bb 6d f9 e0 bc 1b e1 04 3c c2 12 37 bd
       -0.0057168603 -0.027462685 0.00811031 -0.044695623
000060 75 8e 8c bd d7 60 46 bd 34 1b 02 bd ba 9a c4 3c
       -0.06863109 -0.048432197 -0.031764224 0.02399956
000070 42 af 44 b7 45 79 a1 bd 9b 87 51 bc e8 f2 0e 3c
       -1.1723316e-05 -0.078844585 -0.0127886785 0.008724906
000080 19 16 c0 bd da 1a b9 bd 35 04 c3 bc 7c 7d fa bc
       -0.09379215 -0.09038325 -0.023805717 -0.030577414
000090 61 4f 39 bc a1 46 1b bd 9b e5 82 3d 58 a8 b8 3c
       -0.011310429 -0.037909154 0.0639145 0.02254121
0000a0 25 49 03 bc eb 8b 66 bd 4a 19 a1 bd e8 99 94 bc
       -0.0080130445 -0.05628578 -0.07866152 -0.018139794
0000b0 23 72 87 bc 0e c7 5d 3c 01 5f 25 bc af f4 a2 bd
       -0.016533917 0.013536228 -0.0100934515 -0.07956826
0000c0 fe bc 2c 3c 64 6b 36 3c 81 83 11 bd 96 c5 e0 bc
       0.010543106 0.011134002 -0.035525803 -0.027437966
0000d0 c5 87 ad bc f6 05 8a 3c 51 54 38 bd e5 05 73 3c
       -0.021182904 0.016848546 -0.045002285 0.014832948
0000e0 ac 3b e4 bb fe 83 a0 3c 4f c5 ac bd bf 76 9b bd
       -0.0069651213 0.019594189 -0.08436071 -0.075910084
0000f0 71 cc df bc a7 2a e2 bd b2 0d ae bd 18 30 8e 3c
       -0.027319165 -0.110432915 -0.08498706 0.017356917
000100 0a f6 3a bd 88 b6 a2 bd b5 78 83 bd af f9 66 bc
       -0.045644797 -0.07944971 -0.064195074 -0.014097615
000110 94 48 1e bc fe 20 3e bd cd 03 a5 bd 2b 06 46 bc
       -0.009660859 -0.046418183 -0.080573656 -0.0120864315
000120 74 0e 62 bd 5e e8 ac bb 15 cf bf bd f5 9e d2 3c
       -0.055189565 -0.0052767238 -0.0936567 0.025710562
000130 b2 bc 86 bd 78 19 93 3c df 3b b0 bd 22 6a d0 3c
       -0.065789595 0.01795648 -0.086051695 0.025441233
000140 47 3c d7 bd bb 04 97 bd 21 f1 5a bd fc 69 e1 bd
       -0.10509544 -0.07373949 -0.053452615 -0.11006543
000150 12 92 7c bd 94 a4 92 3c 8a 1f 81 bd 30 24 7e bd
       -0.06166274 0.017900743 -0.06304844 -0.06204623
000160 3a 2a 7a ba 55 69 a7 bd c6 60 18 bd 66 a2 31 bd
       -0.00095430354 -0.08174387 -0.037201665 -0.043367766
000170 ad 6f 39 bd 10 0e b7 3c d5 ec 30 3b 7f 5e 1a bd
       -0.045272518 0.022345573 0.0026996632 -0.037687775
000180 4c 84 a1 bd 21 b9 4d 3c a0 1e 83 bc 36 39 87 bd
       -0.07886562 0.012556345 -0.016005814 -0.06602709
000190 73 1c cc bc 71 bf 3a 3c 9c 04 80 bd 28 2c bc 3c
       -0.02491591 0.011398182 -0.06250879 0.022970274
0001a0 9c 57 58 bd 58 31 9e 3c 10 8d 03 bd a0 31 9a bd
       -0.052817926 0.019310638 -0.03211695 -0.075289965
0001b0 a9 88 47 3c 6f ee 96 bd 38 0b 30 bb ee 4a 22 3d
       0.012178578 -0.07369696 -0.0026862156 0.03962224
0001c0 c8 7a 22 bd f7 06 16 bd fc 59 cd bb ed 2b 3f bd
       -0.039667875 -0.036627736 -0.0062668305 -0.04667275
0001d0 8f 9b 22 bd 0e da c5 bd e5 89 a7 ba 40 9d 92 bc
       -0.039699133 -0.09660731 -0.0012782185 -0.017897248
0001e0 f4 71 0f bd 81 a5 89 bd 9a 0d 1d bc e2 6a 27 3c
       -0.035020784 -0.067210205 -0.009585762 0.010218354
0001f0 f9 60 d9 3d d4 e2 ae bd ab 65 a3 bd 46 6c 76 bd
       0.10614199 -0.08539358 -0.07978376 -0.06016185

dice_policy.weight f4 [5, 128]
000000 18 ec d2 3d 80 04 55 bd 12 4e 49 3d 95 48 98 bc
       0.102989376 -0.052006245 0.04914672 -0.018589297
000010 35 48 d0 bd 11 63 90 bc 37 a2 f8 bd 2e 2e ca bc
       -0.101700224 -0.017625364 -0.12140315 -0.024680223
000020 a9 5a 36 bd 38 7c 9c bb 05 c3 1c 3d f0 de 97 bd
       -0.044520054 -0.00477555 0.038271923 -0.07415569
000030 34 45 3d bb e0 b2 8d bd 9a a1 ae bd 0c e3 a2 3d
       -0.002888036 -0.06918883 -0.08526917 0.07953462
000040 dc 9a 1f 3c ad e1 ac 3b b7 53 39 bd dd 10 41 3c
       0.009741511 0.005275926 -0.045245852 0.011783806
000050 7d 28 68 bd 34 39 19 bd 26 d6 89 3d 44 d0 4b bc
       -0.056679238 -0.03740807 0.06730299 -0.012439791
000060 c5 01 8d bd b3 5c da 3b 04 b9 e2 3a b6 ca db 3b
       -0.06885103 0.0066638826 0.0017297571 0.0067075146
000070 72 da 80 3d 75 a7 d9 bd ce ed 59 3d 44 4f 1f 3b
       0.06291665 -0.10627643 0.053205304 0.002430872
000080 4c 00 c8 bd 13 94 aa 3c 93 ce d5 3c 9b fe 51 3d
       -0.097656816 0.02082256 0.026099479 0.0512682
000090 95 c5 2b 3e b9 e0 41 bd 93 e8 9f bb 88 21 87 bd
       0.1677459 -0.047333453 -0.00488002 -0.065981925
0000a0 cd 30 9e bd d8 23 97 bd 64 9f 96 bc ed 06 75 3d
       -0.07724152 -0.073798835 -0.01838655 0.059821058
0000b0 e4 e2 be bd 4d ae 3b bd 50 cd 62 3c 0c 14 56 bc
       -0.0932062 -0.045820523 0.013842896 -0.013066303
0000c0 a4 29 aa bb 78 4b 0e 3d 84 6e 72 3d 9f ff 6b bd
       -0.005192952 0.03473994 0.059187427 -0.057616826
0000d0 3b e0 8c 3d b9 12 d6 bd 5e 37 c2 3d 37 4d 79 bd
       0.06878706 -0.1045279 0.09483217 -0.060864653
0000e0 f5 4a 71 3d 8b bf d7 bd 22 50 c2 bc 8a 7f e7 3d
       0.058909375 -0.10534581 -0.02371985 0.11303623
0000f0 9a db 39 bb cd a6 11 be 06 50 d9 3b a1 88 15 be
       -0.0028359652 -0.14223786 0.006631854 -0.14602901
000100 1c b3 1c 3c cc c9 73 3d be 2a d2 bd fa 7c 50 3d
       0.009564187 0.05951862 -0.10262059 0.050900437
000110 7f 65 12 3c 29 66 e0 3d af 05 86 bd 45 46 2a be
       0.008935331 0.109569855 -0.06544053 -0.16628368
000120 f1 08 4f bd 10 08 8f bc 16 4a 39 be 88 4a a8 bc
       -0.050545637 -0.0174599 -0.18094668 -0.020543352
000130 bf ea 12 3b 57 21 3d bd d9 f2 48 3c e0 fb 13 bd
       0.0022417752 -0.046174373 0.012264931 -0.03612888
000140 4b 2b a5 bd 2b c2 0d bd c4 b1 39 bd 65 42 9c 3c
       -0.08064898 -0.034609 -0.045335546 0.019074628
000150 aa c8 98 3d 40 0f 4e 3d a5 b4 16 bd b9 45 99 bd
       0.07460149 0.050307512 -0.03679337 -0.07484002
000160 9a 96 31 bd 4b de b4 bd 26 58 e4 bd 86 4a 1d be
       -0.043356515 -0.088314615 -0.111496255 -0.1536046
000170 34 cf 50 bd 9c 78 75 3d c8 c7 83 bd 95 28 6c bc
       -0.050978854 0.059929475 -0.064345896 -0.014413972
000180 c2 e6 2b 3d a4 9d 16 3d 13 41 0f 3e 8d cf 66 bb
       0.041968115 0.03677143 0.13989668 -0.0035218925
000190 22 36 78 3d ce f0 b4 3c bd 16 e0 3d 98 0b a0 3c
       0.0605985 0.02208748 0.10941837 0.019536778
0001a0 fd 9e 0a be 01 f3 9a bd c9 87 64 3d 9d aa 64 bd
       -0.13537212 -0.075658806 0.055793557 -0.055826772
0001b0 20 5c b6 bc 7e 79 b6 bd 02 16 d2 bd a0 9e a5 bd
       -0.022260725 -0.089098915 -0.10258104 -0.08086896
0001c0 54 7d e8 3c b4 2b d6 bd 32 41 5b bc 59 e0 d4 3b
       0.028380074 -0.104575545 -0.013382243 0.006496471
0001d0 7e 0f 80 bd 51 7e bb bc b5 da 91 3d 7f 19 38 3d
       -0.06252955 -0.02288738 0.07121793 0.04494619
0001e0 ac 8a bf 3c db b8 41 3d 24 87 72 bc 6f e7 b5 bd
       0.023381554 0.047295433 -0.014802728 -0.08882033
0001f0 cb 2e 42 bd 66 e4 4a bd b3 f0 e3 3c 4d 4c 56 3d
       -0.047407907 -0.049534224 0.027824735 0.05231886
000200 4f 36 83 3d 25 9e 05 bd a3 94 92 3d 39 86 87 bd
       0.06406843 -0.03262152 0.071572565 -0.06617398
000210 db 92 b0 bd ea c8 87 bc 20 a8 00 bd 1b 34 3a 3c
       -0.086217605 -0.016575295 -0.031410336 0.011364962
000220 8e 65 73 bc 3e 77 a9 ba c5 5c e3 3b 8c d5 80 3d
       -0.0148557555 -0.0012929214 0.006938549 0.06290731
000230 b1 06 61 bd b8 d1 c8 bd a2 90 87 3d 63 fc a6 bb
       -0.054938022 -0.09805626 0.066193834 -0.005096005
000240 54 5b da 3b 51 63 e0 3c b7 6a 6a bd 2b 8e 54 bc
       0.006663719 0.027391108 -0.057230677 -0.012973349
000250 8e f3 d0 3d e7 c3 8a bd 60 95 56 3c 42 98 6f 3d
       0.10202704 -0.06775647 0.013097137 0.058494814
000260 43 6f 7e 3d 15 2b dc bc 7f d6 53 3c 90 a0 83 ba
       0.062117826 -0.026876012 0.012929558 -0.0010042358
000270 8b 30 55 bd f8 90 1f 3d d9 45 86 bd 44 ce 2d bd
       -0.052048247 0.038956612 -0.06556291 -0.04243304
000280 c8 ae f7 3d 0a 92 92 3d 0d e0 32 3d 11 b7 e2 3c
       0.12093884 0.07156761 0.043670703 0.027675183
000290 b7 42 b3 3d 9a 0a 36 3d 41 a8 62 bc 61 04 78 3d
       0.08752959 0.044443704 -0.01383406 0.06055105
0002a0 43 a5 f4 3c db d5 77 bd 09 f6 3b 3d 4c db 01 3d
       0.02986396 -0.060506683 0.045888934 0.03170328
0002b0 a0 4d b5 3d f0 34 a4 bd 39 95 dd bd f1 f9 2b 3d
       0.088526964 -0.080179095 -0.108194776 0.04198641
0002c0 2e 29 56 3d ae 4e c2 bc 20 6a 85 bc e2 6d d9 bd
       0.052285366 -0.023719158 -0.016285956 -0.106166616
0002d0 53 8f 2a bd 19 fc fe bd e0 9e 32 bd 90 a1 41 bd
       -0.04164059 -0.124504276 -0.043608546 -0.04727322
0002e0 f3 52 7e 3d 13 32 97 bd c4 98 6a 3d 6b 82 18 be
       0.062090825 -0.07382598 0.057274595 -0.148935
0002f0 18 32 2b bc e1 bc 05 3c 61 3f e7 bd 47 e5 e4 3b
       -0.010448955 0.008162708 -0.112913854 0.00698534
000300 04 2e ea bc c6 95 60 bd b5 9c 39 bd 7c 88 dc bd
       -0.028586395 -0.054830335 -0.045315463 -0.1076822
000310 21 66 95 bb 76 ae a8 3d 23 09 30 bd 47 26 4a 3d
       -0.004559294 0.08236401 -0.042977463 0.04935291
000320 19 38 a8 bd e3 8d 28 bd 9d fe 9e bd 6e fb 24 bd
       -0.08213825 -0.04115094 -0.077634074 -0.040278845
000330 29 e7 89 bd a8 fa 29 bc bb c6 09 3c 72 83 b6 bc
       -0.067335434 -0.0103747025 0.008409197 -0.022279475
000340 40 46 8c bc 55 b2 85 bd 35 ea 8d 3a c9 6b 05 3c
       -0.017123342 -0.06528155 0.0010827245 0.008143374
000350 91 2b ae 3c 7e cf a3 3c dd fe f9 bc 36 4d 02 be
       0.021261008 0.0199964 -0.030517036 -0.12724766
000360 e6 0c 0d bd a2 05 96 3d 2d d9 09 be d7 57 32 ba
       -0.03443613 0.07325293 -0.13461752 -0.000680325
000370 94 da 90 bd fb 09 73 3d 27 01 9c bc 46 8c e6 bd
       -0.070729405 0.05933569 -0.019043518 -0.11257224
000380 6f 2a b1 3d 36 c7 ad bd e9 44 0c 3c 7a 85 5f 3d
       0.08650672 -0.08485262 0.008561351 0.054570653
000390 1d 92 bd 3c 82 7f b0 3d 3d 85 ef bc eb 73 74 bd
       0.023140961 0.0861807 -0.029238338 -0.05968086
0003a0 e3 ec d7 bc b4 3c ca bd af bb c2 3c 49 dd a4 bd
       -0.026358074 -0.098748595 0.023771135 -0.08050019
0003b0 a6 67 ae 3b f0 fa 5a 3c 48 c7 3a bd 09 21 3a bd
       0.0053224145 0.013365492 -0.045600206 -0.04544166
0003c0 7a 91 ae 3c 6b 3d 02 3d 3b 97 53 bc aa 21 c9 3d
       0.021309603 0.031796854 -0.012914474 0.09820874
0003d0 96 e2 41 bd 0c 6b 51 3d 99 e4 73 3c 1c 84 20 bd
       -0.04733523 0.05112748 0.014886045 -0.03918849
0003e0 44 af 01 bd d1 81 4f 3d a2 f8 68 3d 2c 4d 0b be
       -0.031661287 0.050660912 0.05687774 -0.13603657
0003f0 ad bd 3e 3d 1a 27 45 bd 97 d8 a8 3a 90 88 44 bd
       0.046567608 -0.048132993 0.0012881932 -0.0479818

dice_policy.bias f4 [5]
000000 3b 23 b6 bd f7 a2 b6 bd 12 0d 6c bc 65 80 8e bd
       -0.088934384 -0.08917802 -0.014407413 -0.06958083
000010 f7 af b9 3d
       0.09066766

category_policy.weight f4 [13, 128]
000000 4c 91 46 be d2 98 8b be 5e ad 88 bc 21 28 9e be
       -0.19391364 -0.2726503 -0.01668423 -0.3088999
000010 0d 67 9e 39 d9 4a 9d bd 19 62 1d bd 06 97 cb bc
       0.00030212887 -0.07680292 -0.03842363 -0.024852287
000020 71 ec 1b 3d ab 49 39 bd f0 5b 87 3d e0 fe 47 3b
       0.038067285 -0.04523627 0.066093326 0.0030516908
000030 0b 84 ba bb 27 07 de bc d7 38 b6 ba 92 3b 19 bd
       -0.0056920103 -0.02710302 -0.0013902438 -0.037410326
000040 22 a3 0b 3d 2b 64 0f be 9e bb bc bd bf 5a 0b 3d
       0.034091122 -0.14003055 -0.09215473 0.03402209
000050 8e 1d 8f bd f1 6a a4 bc 80 1a e2 bd 81 af 7c bd
       -0.06988059 -0.020070525 -0.11040211 -0.06169081
000060 b2 64 5b bd 7d a6 f3 bd d6 e7 51 3d c9 c0 3a 3c
       -0.053562827 -0.118969895 0.051246487 0.011398503
000070 75 0c 59 bd a1 ba e1 bb da f3 a3 bd 12 84 41 3d
       -0.052990396 -0.006888703 -0.08005495 0.047245093
000080 5e f2 f1 bc e2 f5 0a 3d 6a 0a 0b 3c 17 dc c1 3c
       -0.029534515 0.0339259 0.00848637 0.023664517
000090 13 09 e8 3b 97 28 4e bd 48 7e b3 bd b4 dc ba bc
       0.00708116 -0.05033168 -0.087643206 -0.022810318
0000a0 a0 bb 1d 3d 28 f7 91 3c 84 aa 57 bd 65 ae 9f bd
       0.03850901 0.017818049 -0.05265285 -0.07796935
0000b0 64 da 80 bd 16 6b fc bc 36 9c 9f bc 56 6b 84 bd
       -0.06291655 -0.030812781 -0.019483667 -0.06465785
0000c0 bb c3 87 bd 5b ee 40 3c 59 fc 8c bb f1 50 49 bd
       -0.066291295 0.011775578 -0.004302543 -0.049149457
0000d0 e6 58 09 bc 51 74 cc bd 70 35 23 3d 99 56 73 3d
       -0.008383011 -0.09983123 0.039845884 0.059408758
0000e0 42 ec 88 bd 8a 46 e7 bc c8 9f 48 3d 53 c7 00 bd
       -0.066856876 -0.028231878 0.048980504 -0.03144009
0000f0 18 ef 46 3d e0 73 9f bd 9b 03 fb 3b 5c 2c c3 bd
       0.04856786 -0.07785773 0.007660342 -0.09529945
000100 c1 0f 89 3d 67 db a4 bd 7d 35 3a 3c ff 05 3c bd
       0.06692458 -0.0804966 0.011365292 -0.045904156
000110 76 6e 80 3c 32 30 21 bd 0b d5 68 bb 0a 4d 61 be
       0.015677672 -0.039352603 -0.0035527374 -0.22002044
000120 e1 7c 7d 3d b8 de 50 3d e7 89 14 be d8 c2 42 bc
       0.061886672 0.05099365 -0.1450573 -0.011887275
000130 ea b1 9a bd c5 ea 4c 3d c5 f1 a5 bd e3 e8 76 bc
       -0.07553466 0.05002858 -0.081027545 -0.015070173
000140 52 ad bf 3c 2d 41 4c bc 84 cb 46 3d fa 4f 34 be
       0.023398075 -0.012466711 0.04853393 -0.17608634
000150 61 74 dc bd 6e 91 3f bd 5c 96 14 3d f1 35 a2 bd
       -0.10764385 -0.046769552 0.036276206 -0.07920445
000160 87 78 5b bd eb 36 49 3d 18 3f 2f be 6d ab f5 bc
       -0.05358174 0.04912464 -0.17113912 -0.029988969
000170 64 fe ab 39 00 5f b6 bd cd d4 7e bd b3 b1 18 bd
       0.00032805197 -0.089048386 -0.06221466 -0.037278842
000180 2b 64 b6 bd c8 47 2a 3d 05 8b 86 3c 67 7e 38 bd
       -0.08905824 0.041572362 0.016423712 -0.04504242
000190 e9 05 a6 bd 77 94 89 bd c1 99 2a 3b 7e b7 c8 3c
       -0.08106596 -0.067177705 0.0026031586 0.024501558
0001a0 0f 7f 2f bd 74 20 1a be b7 85 06 bc a9 39 ae bd
       -0.042845782 -0.15051442 -0.008210591 -0.085070916
0001b0 a8 b9 8c 3d dd 20 0d bd 94 6a 00 be cb b2 29 bc
       0.068713486 -0.03445517 -0.12540656 -0.010357569
0001c0 55 fa 7e bd d2 4a f5 bd 9a 96 d6 ba 23 ef b1 bd
       -0.062250454 -0.119771615 -0.0016371787 -0.0868819
0001d0 4b b9 49 3d 64 30 4c bd 3f 0e 7b bc 8b aa 71 bb
       0.049248975 -0.049850836 -0.015323221 -0.0036875333
0001e0 34 dd ef bc 67 41 c4 3c 15 07 98 bc 80 ae cb 3c
       -0.029280283 0.023956968 -0.018558064 0.024863482
0001f0 4f 37 32 bf ea 00 3f 3d b7 39 52 be a5 fb 04 3d
       -0.69615644 0.04663173 -0.20529829 0.03246655
000200 66 e8 2f be b6 72 13 be 6f 4d 80 bd c1 f9 84 be
       -0.17178497 -0.14399227 -0.06264769 -0.25971797
000210 97 27 37 3d 6f c8 40 bb 97 b4 b4 bd be 2e 09 b9
       0.04471549 -0.0029416343 -0.08823507 -0.00013082751
000220 e5 d5 9b bd a9 03 eb 3c 82 e9 a4 3c 17 fb 51 3d
       -0.076091565 0.028688269 0.020130876 0.05126485
000230 f5 0f 9c bd 88 eb 62 bd 4f 49 45 bd 7d 6a d2 bd
       -0.07620231 -0.0554004 -0.048165616 -0.10274217
000240 e6 8f 94 3c 02 98 9b bd c4 d2 07 be 08 73 1c 3d
       0.018135022 -0.075973526 -0.13263994 0.03819564
000250 d4 aa 20 bd 2d 5c 2e bd b6 d2 c1 bd ce 88 65 bd
       -0.039225414 -0.042568374 -0.09464018 -0.05603867
000260 ba e7 4b bd 62 ca 80 be 03 84 26 3d a2 38 8b 3d
       -0.04978154 -0.25154406 0.04065324 0.06797911
000270 f0 e2 50 bc 74 82 19 bd 49 a8 e2 bd 4d 3f 7b 3d
       -0.012749419 -0.037477925 -0.11067254 0.061339665
000280 4e 79 df bd 36 2b a1 3a 49 be 41 bd 21 96 88 3c
       -0.10911809 0.0012296203 -0.04730061 0.01667315
000290 3c dc 49 3c 87 3d 4c 3d 8a 8a c3 bd e1 c2 1a 3d
       0.012320574 0.049863365 -0.095479086 0.037783507
0002a0 1a c5 3a bd 9a a6 8b bd 5d ee 6a 3d 68 d9 62 bd
       -0.045598127 -0.06818886 0.057356227 -0.055383116
0002b0 b7 24 81 bd 81 23 24 3c c3 a9 af bd 5d ea 71 bd
       -0.06305831 0.01001823 -0.08577301 -0.059061397
0002c0 c7 65 fd bd 2c a2 8d 3c e7 b9 b9 3a 89 51 62 bb
       -0.12372928 0.017289244 0.0014169783 -0.0034533462
0002d0 c6 84 8e bd f9 c1 97 bd a0 b0 d8 bd ae 03 67 3c
       -0.06958918 -0.07410044 -0.105805635 0.014099998
0002e0 64 db 73 bd aa 29 ce bd 20 5d 45 bd de 69 3b be
       -0.0595354 -0.100665405 -0.048184514 -0.18302104
0002f0 fc fa e0 3c ba ed c3 bd f2 3a a9 bd f7 4f 62 be
       0.027463429 -0.09566827 -0.08263196 -0.22100817
000300 50 e1 1b bd 04 94 0d bc 53 99 2e 3d 2c 9b 7b be
       -0.03805667 -0.008641247 0.04262669 -0.24570912
000310 97 db 88 bc 83 8d 46 3d 1c 67 e9 bd a4 75 84 be
       -0.016706271 0.0484748 -0.1139662 -0.25871003
000320 17 9b 91 bd cf 51 9a bd 0a d8 11 bd 18 7e 3f 3c
       -0.07109659 -0.07535135 -0.03560642 0.011687778
000330 1a c9 bf 3c ee 4e 94 3c 95 4f be bd a4 9f b0 3c
       0.023411322 0.018104043 -0.09292523 0.021560498
000340 e3 0e a2 bd 18 6c 0c bd 03 72 05 3b a2 8e 83 bd
       -0.07912996 -0.034282774 0.0020362146 -0.064236894
000350 de 02 8a bd 49 95 31 bc e5 48 43 bd f7 56 18 bc
       -0.06738828 -0.010838815 -0.04767694 -0.009298078
000360 7d bc d2 3c 6d f1 7f bd 55 c6 fb bd 17 71 cf bd
       0.025724644 -0.0624861 -0.12293688 -0.10128992
000370 c7 d8 95 bd d9 79 68 3d da ed 5f 3d be 78 90 bc
       -0.073167376 0.056756828 0.054670192 -0.0176357
000380 95 b3 16 be 68 97 86 3a 2b df cb 3c 1b 98 85 3d
       -0.14716943 0.0010268511 0.024886688 0.065231524
000390 d9 6d 0f 3c 3a d2 27 be b4 48 90 bd 47 6e c4 bd
       0.008754217 -0.16388789 -0.07045117 -0.09591346
0003a0 0c 61 e5 bc 02 5e 37 be ca 37 f7 3a 7a 8b c9 bc
       -0.028000377 -0.17906955 0.0018861231 -0.02460264
0003b0 80 62 79 3c 06 07 89 bd 32 46 4e be 2e 03 8a bd
       0.015221238 -0.06690793 -0.20143965 -0.06738888
0003c0 76 bb ad 3c 7b 08 23 be b2 a7 a2 bd b1 53 20 bd
       0.021207552 -0.15921204 -0.079421416 -0.039142314
0003d0 3d 5d 15 bd ed 83 91 bc 72 37 85 3d 01 f8 53 3d
       -0.036465872 -0.017763102 0.06504716 0.051750187
0003e0 94 c7 6a 3d 21 21 4b 3d 8f 3e 8c 3c f3 bc 02 3d
       0.05731924 0.04959214 0.017119674 0.031918477
0003f0 df 69 22 bf 94 9f cf ba 1c 7c 6a be 01 89 52 3d
       -0.63442796 -0.0015840405 -0.22898906 0.05140019

category_policy.bias f4 [13]
000000 0a 0d 29 bd 19 5b a6 bd 7f c7 bd bc 08 7b 79 3d
       -0.0412722 -0.08122844 -0.023166416 0.060908347
000010 c2 8d 91 3d 56 61 6f bd c4 e5 0f 3d d2 24 02 bb
       0.07107116 -0.058442436 0.03513123 -0.0019858372
000020 e4 d4 7c 3c 3b 4a f8 3b ef 8e 6b bc 53 b5 ee 3a
       0.015431616 0.0075772083 -0.01437734 0.0018211998
000030 63 b1 5d 3d
       0.054124247

value.weight f4 [1, 128]
000000 73 df 5a bc 0b ab 94 bd da 25 87 bc f6 60 09 bd
       -0.0133589385 -0.07259186 -0.016497541 -0.033539735
000010 df 77 8a 3d c2 1b b4 bc d5 d8 8d bd 40 41 14 ba
       0.06761145 -0.021985892 -0.06926123 -0.0005655475
000020 82 a1 db bb b8 09 7f bd df cc 9a 3c 55 62 6e 3d
       -0.006702603 -0.062265128 0.018896518 0.058199245
000030 3e 17 4f bc 0b 30 e7 3c 73 73 fa bc cd 68 0a 3d
       -0.012639819 0.02822115 -0.030572629 0.033791352
000040 b6 fc 68 bd ca 07 f6 bc 24 b5 2f bc a0 3c 95 3a
       -0.05688163 -0.030033011 -0.01072434 0.0011385866
000050 b9 5b b0 3d af 0f 8b 3d 35 e4 b7 3c db 2c 16 bd
       0.08611245 0.06790101 0.022447685 -0.03666387
000060 be b0 44 bd 8f 15 e9 ba 6d 7e 1a bc 70 bc 84 3d
       -0.048020117 -0.0017782914 -0.009429556 0.06481254
000070 b8 a5 a5 bd 69 4b 88 3c 4a 46 31 bb 18 8e b3 bc
       -0.08088249 0.01663752 -0.0027049952 -0.021918342
000080 b6 e5 67 3d f6 65 eb 3c 81 a0 a6 3d 7b 6f 24 ba
       0.056615554 0.028735142 0.081360824 -0.00062727154
000090 b6 5f dd 3c 38 38 ac bd e7 cb 8e bd 70 91 c7 3c
       0.027023178 -0.084091604 -0.06972485 0.024361342
0000a0 a7 c6 13 3d b4 7e 8f bd 85 b3 15 3d 5f 3f 91 3d
       0.03607812 -0.070065886 0.036548156 0.07092165
0000b0 04 72 a5 bb 1c 25 6e bd d8 f2 2d 3c 1a 8c a7 3c
       -0.005048992 -0.05814086 0.0106169805 0.020452548
0000c0 00 55 21 3d 61 e9 94 3d 09 2f 2c bd e1 3d 8e 3d
       0.039387703 0.07271076 -0.042037044 0.06945396
0000d0 24 e3 38 3d 96 aa 57 3d 44 ec bd bc 5d 8d 40 bd
       0.045138493 0.052652918 -0.02318395 -0.047009815
0000e0 de 4b c4 bc b8 6b ac bd aa b6 44 3d a4 17 10 bc
       -0.023961958 -0.08418983 0.048025765 -0.008794699
0000f0 5a e4 63 bd 88 75 01 bd 78 2b ad bd 47 29 89 3d
       -0.055637695 -0.031606227 -0.08455557 0.06697326
000100 e0 79 ab bd 75 8e c6 bc b9 e8 75 3d 8b d4 7a 3b
       -0.08372855 -0.02423785 0.060036395 0.0038273658
000110 1d c1 12 3d 88 1d 55 bd bf d1 8b bd 39 a5 2e 3d
       0.0358287 -0.052030116 -0.06827115 0.042638037
000120 eb 2e 7b 3c 94 68 ab 3d 01 da 3a 3b 86 2e 07 bd
       0.01533101 0.08369556 0.0028511288 -0.033003353
000130 c5 ab 84 3d 44 fc 8a 3c 1c ce cc 3c 54 3b 93 3d
       0.06478075 0.016965993 0.025000624 0.0718905
000140 83 81 95 bd 85 05 4b bd c8 01 89 3d 62 45 82 3d
       -0.07300093 -0.04956581 0.06689793 0.0636089
000150 8b 40 89 3d a0 ce fd 39 6b a4 34 bd 53 07 63 3d
       0.06701764 0.00048409868 -0.044102114 0.055426907
000160 04 99 af 3d 97 83 b9 bb 09 23 26 3d 16 13 cf bc
       0.08574107 -0.0056614387 0.040560756 -0.025277656
000170 6d 2e 4e 3d 05 4d 15 bd bc 3a 8f bd b1 ac d2 3c
       0.050337244 -0.036450405 -0.069936246 0.025717111
000180 b1 1a 8d bd 64 ad 9f bd 12 ed d0 bc 66 12 84 bc
       -0.068898566 -0.077967435 -0.025503669 -0.016122054
000190 be a8 72 bb ef 3f 82 3d 6d 3f 77 bc 62 96 99 bd
       -0.0037026848 0.063598506 -0.0150908055 -0.07499386
0001a0 15 b2 e3 bc 1b 3b a9 bb e3 bd a7 ba 8c 8a a0 bb
       -0.027794877 -0.0051645166 -0.001279768 -0.0048993286
0001b0 ad 94 79 3d 46 b7 3d 3c 74 e7 97 bd 4e 96 76 bd
       0.060932804 0.01157934 -0.07417193 -0.060201935
0001c0 b9 32 9d 3d 41 fe 36 3d c0 13 81 3d 57 29 83 bc
       0.0767569 0.04467607 0.06302595 -0.016010923
0001d0 d1 e2 f2 3b 8d 73 75 3d 37 cc a2 3d bd 1a fc bc
       0.0074122925 0.05992465 0.07949107 -0.030774469
0001e0 a7 32 23 3c 50 91 a8 39 49 e6 a8 3d 8c 37 e4 3c
       0.009960807 0.00032151723 0.082470484 0.027858518
0001f0 b7 99 2b 3b 4b b5 9f bd 99 46 31 bc 3e ac 0e bd
       0.002618415 -0.07798251 -0.010820054 -0.03483223

exp_avg f4 [256, 23]
000000 1a d3 e1 3c 37 a8 20 3d 03 29 07 3d 22 09 0e 3d
       0.027566481 0.039222922 0.032998096 0.03467668
000010 a5 c8 5a 3c 00 00 00 00 7f 55 1f 39 c0 26 05 3a
       0.013353501 0.0 0.00015195271 0.00050793216
000020 4b 5c ff 3c e5 d3 0b 3a c6 19 3c 3d a5 80 c4 bb
       0.031171938 0.0005334004 0.045923017 -0.005996781
000030 9c b7 2f 3d aa 57 a5 3d ef 6b 10 3b 2a fa 9b 3e
       0.042899713 0.08073361 0.002203699 0.30464298
000040 51 00 ce 3e 1f c3 85 3e 28 a6 01 3e 00 00 00 00
       0.40234616 0.26125428 0.1266104 0.0
000050 2d 7f d1 36 00 00 00 00 00 00 00 00 a4 78 7f 3d
       6.2434906e-06 0.0 0.0 0.06237091
000060 d4 ba 39 3d 21 7c 13 3d c0 98 6d 3d 3b 6c 55 3d
       0.04534419 0.03600705 0.058007002 0.05210517
000070 00 00 00 00 60 c4 69 bb a7 bd 82 bb 15 59 da 3c
       0.0 -0.0035670027 -0.0039898935 0.026653806
000080 07 98 06 bb 5b 9c d9 3d 87 a8 87 bc ca aa 41 3e
       -0.0020537393 0.106255256 -0.016559852 0.18912807
000090 64 48 a4 3e 9c b7 00 bc 95 e0 94 3e 8a dc de 3e
       0.3208648 -0.007856276 0.29077592 0.43527633
0000a0 5d f3 02 3f d3 bc 62 3e 00 00 00 00 fa 8f f7 35
       0.5115259 0.22142343 0.0 1.8444837e-06
0000b0 00 00 00 00 00 00 00 00 da 46 bb bc c7 0c bb bc
       0.0 0.0 -0.022860933 -0.022833241
0000c0 a3 e8 95 bc f6 bf b0 bc 15 5c 8d bc 00 00 00 00
       -0.018299406 -0.02157591 -0.017255822 0.0
0000d0 b7 18 eb 38 d5 05 ed b7 22 35 15 bc d5 de dc 38
       0.00011210277 -2.8255317e-05 -0.009106906 0.00010531923
0000e0 3e 1b ae bc bf 49 89 ba 2d be a7 bd 02 6b cc bd
       -0.021253224 -0.0010474249 -0.0819057 -0.099813476
0000f0 0a b7 61 ad 43 20 45 bd 80 e0 79 bd f5 b4 89 be
       -1.2830412e-11 -0.04812647 -0.061005116 -0.26895872
000100 5f 12 66 bd 00 00 00 00 f1 56 e3 b5 00 00 00 00
       -0.056169864 0.0 -1.6938121e-06 0.0
000110 00 00 00 00 bf 9b 9a bc 94 2a 84 bc 6c 1e a8 bc
       0.0 -0.018873094 -0.016133584 -0.020522319
000120 f6 d0 82 bc 61 70 29 bc 00 00 00 00 19 bf 11 39
       -0.015968781 -0.010341735 0.0 0.00013899467
000130 50 60 03 3a 60 fb 19 bc 7d 6c 9f 3a 09 e3 bb bc
       0.0005011605 -0.009398311 0.0012163069 -0.022935407
000140 e2 fe a7 3a 8e 04 b6 3a 3c 02 3e 3b 60 82 a2 3a
       0.001281705 0.0013886855 0.002899303 0.0012398474
000150 13 34 95 bd 4d e7 d2 bd fe b3 65 be 36 fc 53 bd
       -0.07285323 -0.102980234 -0.22431943 -0.0517542
000160 00 00 00 00 47 20 dc 35 00 00 00 00 00 00 00 00
       0.0 1.6400671e-06 0.0 0.0
000170 e5 8e 4b b1 35 33 1d b1 46 56 15 b1 04 c0 48 b1
       -2.9621614e-09 -2.2875615e-09 -2.1731394e-09 -2.9212979e-09
000180 00 ef 42 b1 00 00 00 00 4a 8d e7 8f d2 e3 a5 26
       -2.8366571e-09 0.0 -2.2832781e-29 1.1510926e-15
000190 d2 e3 25 26 9d 4b 19 af 2b 23 71 2e d2 e3 a5 26
       5.755463e-16 -1.3942132e-10 5.482829e-11 1.1510926e-15
0001a0 f0 51 85 a9 04 00 00 00 e9 b2 96 b2 9a 1f f7 2e
       -5.9206004e-14 6e-45 -1.7543657e-08 1.1237873e-10
0001b0 4e 05 bf b0 04 00 00 00 5b ff 09 b0 00 00 00 00
       -1.3898587e-09 6e-45 -5.020319e-10 0.0
0001c0 04 00 00 80 00 00 00 00 00 00 00 00 68 d2 6f 3a
       -6e-45 0.0 0.0 0.00091484794
0001d0 60 5b 47 3a 1a e7 1e 3a ce 6b 27 3a b0 42 e7 39
       0.00076048635 0.00060616585 0.00063866086 0.0004410944
0001e0 00 00 00 00 94 38 30 9c 2e cd 2b 9c c8 fa a6 ad
       0.0 -5.830664e-22 -5.684434e-22 -1.8983384e-11
0001f0 47 42 9a 31 fe 99 d5 aa f9 03 64 34 34 53 cc 34
       4.4895248e-09 -3.7943254e-13 2.12356e-07 3.80585e-07
000200 02 54 cc 34 dc 36 10 82 04 00 00 00 04 00 00 00
       3.8059085e-07 -1.0595193e-37 6e-45 6e-45
000210 22 4e a2 95 d0 4b 5c 3b 00 00 00 00 6a 01 00 00
       -6.555455e-26 0.0033614524 0.0 5.07e-43
000220 00 00 00 00 00 00 00 00 ed ae 91 3d 31 d6 39 3d
       0.0 0.0 0.071134426 0.045370284
000230 56 1f 3b 3d 9b b3 91 3d 4c 29 62 3d 00 00 00 00
       0.04568418 0.07114335 0.055215165 0.0
000240 18 45 9c bb b8 11 c4 b9 f0 47 07 3d 9e c3 b4 bb
       -0.004768979 -0.00037397235 0.03302759 -0.0055164834
000250 6b 70 1b 3e 04 50 2c bc f0 0d 2a 3e 79 c4 a8 3e
       0.15179603 -0.010517124 0.16606879 0.32962397
000260 3e d6 8e 3b d0 eb d3 3e f5 ee 11 3f 52 e5 08 3f
       0.0043590358 0.41390848 0.57005244 0.53474915
000270 c3 bf a6 3e 00 00 00 00 d9 30 83 b6 00 00 00 00
       0.32568178 0.0 -3.909791e-06 0.0
000280 00 00 00 00 04 00 00 00 04 00 00 00 04 00 00 00
       0.0 6e-45 6e-45 6e-45
000290 04 00 00 00 04 00 00 00 00 00 00 00 04 00 00 00
       6e-45 6e-45 0.0 6e-45
0002a0 04 00 00 00 04 00 00 00 04 00 00 00 04 00 00 00
       6e-45 6e-45 6e-45 6e-45
0002b0 04 00 00 00 04 00 00 80 00 00 00 00 00 00 00 00
       6e-45 -6e-45 0.0 0.0
0002c0 04 00 00 00 04 00 00 00 00 00 00 00 04 00 00 00
       6e-45 6e-45 0.0 6e-45
0002d0 00 00 00 00 00 00 00 00 00 00 00 00 00 00 00 00
       0.0 0.0 0.0 0.0
0002e0 04 00 00 00 04 00 00 00 04 00 00 00 04 00 00 00
       6e-45 6e-45 6e-45 6e-45
0002f0 04 00 00 00 00 00 00 00 04 00 00 80 04 00 00 00
       6e-45 0.0 -6e-45 6e-45
000300 04 00 00 80 04 00 00 00 04 00 00 80 04 00 00 00
       -6e-45 6e-45 -6e-45 6e-45
000310 04 00 00 80 04 00 00 80 04 00 00 00 04 00 00 00
       -6e-45 -6e-45 6e-45 6e-45
000320 04 00 00 00 04 00 00 80 04 00 00 80 00 00 00 00
       6e-45 -6e-45 -6e-45 0.0
000330 04 00 00 00 00 00 00 00 00 00 00 00 4a 91 88 ba
       6e-45 0.0 0.0 -0.0010419276
000340 92 c8 59 ba 8e 22 6c ba d3 24 80 ba 98 11 93 ba
       -0.00083077804 -0.00090078346 -0.00097766 -0.0011220453
000350 00 00 00 00 d1 3d d3 2b 0d 78 7d 36 24 50 69 39
       0.0 1.5009609e-12 3.7769817e-06 0.00022250466
000360 05 2d 10 37 9b 28 44 38 be 07 c0 38 bc 70 86 38
       8.593551e-06 4.676786e-05 9.1567155e-05 6.410616e-05
000370 a9 45 ae 38 04 00 00 00 04 00 00 00 99 8d 66 ba
       8.309942e-05 6e-45 6e-45 -0.00087949034
000380 0d 38 8f bc bc 70 86 38 00 00 00 00 04 d6 39 36
       -0.017482782 6.410616e-05 0.0 2.7691722e-06
000390 00 00 00 00 00 00 00 00 be 4a 94 3a cd dc 80 3b
       0.0 0.0 0.0011313779 0.0039325715
0003a0 2b 84 44 3b d4 62 07 3b 2a 00 50 39 00 00 00 00
       0.0029986005 0.0020658271 0.00019836487 0.0
0003b0 04 00 00 80 c9 79 00 b5 21 7c 37 3b c9 79 80 b5
       -6e-45 -4.7860937e-07 0.002799757 -9.572187e-07
0003c0 5a e4 70 b6 5a e4 f0 b6 d6 9f a8 b6 5a e4 f0 b6
       -3.5895705e-06 -7.179141e-06 -5.0253975e-06 -7.179141e-06
0003d0 04 00 00 80 76 1d 56 3d b7 a4 8b 3d 46 89 9a 3c
       -6e-45 0.05227419 0.06818526 0.018864285
0003e0 d6 9f a8 b6 00 00 00 00 c9 79 80 b4 00 00 00 00
       -5.0253975e-06 0.0 -2.3930468e-07 0.0
0003f0 00 00 00 00 87 0e 5a 3d 25 6e 85 3d e1 9c 6e 3d
       0.0 0.05323651 0.06515149 0.05825508
