checkpoints/yahtzee_pretrain_incremental_500ep/checkpoint_ep99.pt (torch, 511165 bytes, 25 tensors)

shared.0.weight f4 [256, 23]
000000 34 7a 86 3d 8d 90 28 3e 6d 8f c2 bb 71 26 19 be
       0.06566277 0.16461392 -0.005937508 -0.1495607
000010 aa 4e d9 bd a0 70 46 bd ed 58 13 be 96 56 85 bd
       -0.10610707 -0.04844725 -0.14389391 -0.065106556
000020 08 c4 45 be 7e c3 da bd 8f d6 5b 3e 8a 69 0e bc
       -0.19313061 -0.106818184 0.21468566 -0.008692155
000030 20 f8 0d 3e 03 a6 3b 3e 70 31 27 bb 95 7b c2 bd
       0.13864183 0.18325047 -0.0025511645 -0.09496228
000040 0a 2d 18 3e 10 8e 8c 3d 02 7e a9 bd 21 d6 49 bd
       0.14860931 0.06863034 -0.08275987 -0.049276475
000050 c2 bf 82 3d c1 de 15 bc 69 fe 99 3c 3d 9c a0 3d
       0.06384231 -0.009147347 0.01879807 0.078423
000060 6b db ef 3d 97 2c 66 be 04 69 50 be 37 51 4e be
       0.117117725 -0.22477947 -0.2035256 -0.20148169
000070 73 11 2c bd a8 ce cd 3d ed 9b 92 3d e2 f1 14 3d
       -0.04200883 0.10049182 0.07158647 0.03636349
000080 6a 6a 4c be c6 f5 0e 3e 0b 37 73 bd e4 4e 79 3c
       -0.19962469 0.13960943 -0.059378665 0.015216563
000090 3d 8b d7 3d a9 6e 11 be 06 c3 c7 3d 3d 60 1d 3d
       0.105246045 -0.1420237 0.09753995 0.038421858
0000a0 99 e4 00 3d fc 59 56 bd d3 9e 58 bb bf 16 96 bd
       0.031468008 -0.05233191 -0.003305365 -0.07328557
0000b0 82 2b ec 3d be c3 9d bd d7 20 85 be b9 74 1d 3e
       0.11531736 -0.077033505 -0.26001617 0.15376557
0000c0 15 d2 93 bc ec 3e d7 bb 3d 2e fa 3d e8 69 14 3d
       -0.01804451 -0.00656878 0.122158505 0.036233813
0000d0 c0 ca 85 be f4 54 87 bd a2 0b 3e 3e 9f 70 6b 3d
       -0.26131248 -0.066080004 0.18559125 0.05748045
0000e0 08 0d ae bc 13 86 85 3c 8f 75 38 be 63 40 b8 3d
       -0.021246448 0.016299283 -0.18013595 0.08996656
0000f0 ad 9f 32 bd 6a 2b 20 3e 6d 29 a9 3d a0 29 07 3e
       -0.04360931 0.15641561 0.082598545 0.13199472
000100 4c 6f 17 3b f4 a4 26 bd 24 9c 3e be a7 47 2c be
       0.002310711 -0.040684655 -0.1861425 -0.16824208
000110 21 c0 03 3e af d4 48 be 3c 1d 1b 3e 43 75 4a 3d
       0.1286626 -0.19612382 0.15147871 0.049428236
000120 b9 1e fe bd f7 00 4a 3d ac 40 fb bd 50 1c d3 bd
       -0.12408204 0.049317326 -0.122681946 -0.103081346
000130 03 20 60 3e 71 73 50 3d a1 ff 2a 3d 64 6f 45 3e
       0.21887212 0.050891344 0.041747693 0.19280773
000140 f5 f6 14 3e 76 7d da 3d 32 e2 4a be d1 a0 ea 3d
       0.14547332 0.10668461 -0.19812849 0.114564545
000150 77 cf a9 bd 7f 6e 1d 3d 7c 0f 4d 3d 40 59 e4 3c
       -0.08291524 0.038435455 0.050063595 0.027874589
000160 72 b2 a3 bc d0 4b af 3b 3f 23 a3 bc d6 2a 03 3e
       -0.01998255 0.0053496137 -0.019914268 0.1280931
000170 58 4a d9 3d 62 d3 07 be 0b 1b ed bd a3 f2 5f bd
       0.10609883 -0.1326423 -0.11577424 -0.054674756
000180 36 44 bd 3d 1a 16 df 3d 92 67 41 be 96 d8 19 3e
       0.09241526 0.108928874 -0.18887165 0.15024027
000190 d6 bd 07 3d b8 38 5e be 74 d8 7f 3d b5 b8 43 be
       0.033140026 -0.21701324 0.062462285 -0.19113429
0001a0 0d 95 a7 bd ab 58 7c be f6 50 d8 3d 0b f5 c5 bd
       -0.08182726 -0.24643199 0.10562317 -0.09665879
0001b0 82 78 11 3e b5 a8 fd bc e7 33 dc 3b be a2 03 3d
       0.14206126 -0.030964235 0.0067200544 0.032137625
0001c0 21 a4 c6 3d 6a 62 b9 bd 97 b0 3a be 35 4d c0 3d
       0.09699274 -0.09051974 -0.18231426 0.09389726
0001d0 d2 e3 43 3d 76 45 48 be e7 58 f9 bd 7a 6b 64 be
       0.04782469 -0.19557747 -0.1217516 -0.22306624
0001e0 95 85 3f bd 87 03 2a 3e ec ad 54 3d 46 83 00 bc
       -0.046758253 0.16602908 0.051923677 -0.007843798
0001f0 e4 d0 fa 3d 20 78 46 be 28 a1 02 3e f4 cd 2e be
       0.12246874 -0.19381762 0.12756789 -0.17070752
000200 b3 76 05 3e 8b 4d 98 bd 64 a4 4d be c9 dd da bd
       0.13033561 -0.07436665 -0.20082241 -0.106868334
000210 45 e4 b1 bd f9 7c 31 3e 90 f0 2c 3d 8f 11 dd 3d
       -0.08686117 0.1733283 0.042221606 0.10794365
000220 f0 95 23 be 93 d4 10 3c db ec 83 bd c2 fa 00 3d
       -0.15975165 0.008839744 -0.06441661 0.03148914
000230 63 c1 95 bc 7f e4 fa bd 3c 46 ff bd 6c d7 06 be
       -0.01828069 -0.122506134 -0.12464568 -0.13168114
000240 4f 88 a4 bd 93 0e f3 bc 49 b8 3e 3e 18 c4 2c 3e
       -0.08033811 -0.029670035 0.18624987 0.16871679
000250 9b 15 0f bd 24 3a e9 3d 94 61 32 3b 05 33 36 3e
       -0.034932714 0.113880426 0.0027218806 0.177929
000260 41 91 20 be 00 6b 2c 3e 6c 5a d4 3d 1b b1 a9 3d
       -0.1568041 0.16837692 0.10368809 0.08285733
000270 c4 48 69 be 9e 7d 3b 3c f8 fe 2d 3e db 72 0e 3e
       -0.22781664 0.011443524 0.16991794 0.13911001
000280 f2 66 19 be ae 3f 84 3d 30 dc 68 bd aa a0 f7 bd
       -0.14980677 0.064574584 -0.056850612 -0.12091191
000290 46 57 5a be 48 9e 65 bd 99 06 6b bd fc 1c 4e 3d
       -0.21322355 -0.056059152 -0.05737934 0.05032061
0002a0 71 81 d9 3c 90 95 d4 3d 51 b4 d2 bc 13 ee 1b 3e
       0.02655098 0.10380089 -0.025720747 0.15227537
0002b0 ec 06 64 be 5b 40 da bd 02 6d 0d be ba 74 0a be
       -0.22268265 -0.10656806 -0.13811114 -0.1352109
0002c0 54 d8 21 3d 1c 79 41 bd b5 b7 26 be 7b e4 66 bd
       0.039512947 -0.04723464 -0.16281016 -0.05637024
0002d0 47 48 bf bd 8a f5 25 bc 77 fe 5b 3d 13 60 1e 3e
       -0.09339958 -0.010129342 0.053709473 0.15466337
0002e0 da 6b 4a be 9d 57 9b bd 61 8a 19 3e 32 24 13 be
       -0.19767705 -0.0758507 0.14994194 -0.14369276
0002f0 7b 6f c2 bd d5 71 6d bd c6 85 60 3d 7c 22 fc bd
       -0.094939195 -0.057969887 0.054815076 -0.12311265
000300 55 23 4e 3e bf 08 13 3e 98 60 13 3e 3a 85 26 be
       0.20130666 0.14358805 0.14392316 -0.1626176
000310 18 86 61 3d f6 b9 ce bc 06 c1 f9 3d 40 2a f7 bd
       0.055059522 -0.025235157 0.121950194 -0.120686054
000320 07 d4 95 bd 81 39 9f 3d 6d 7c a7 bd d8 aa eb 3d
       -0.07315832 0.0777464 -0.08178029 0.11507195
000330 16 8c 82 bd 08 3e 45 bd 7d f7 89 bd 95 64 5a be
       -0.063743755 -0.04815486 -0.06736658 -0.21327431
000340 72 df 09 be 56 d8 8e bd fd e1 05 3e 23 56 f3 bd
       -0.13464144 -0.069748566 0.13074489 -0.11881664
000350 f0 ff 4c be 8e 32 1b 3e 27 92 25 be 3f d7 1e 3c
       -0.20019507 0.15156004 -0.16169034 0.009694873
000360 62 05 37 be 55 f3 a6 3d 90 99 56 3e 42 c4 40 3d
       -0.17873147 0.08151881 0.20957017 0.047062166
000370 39 ce 32 3e f3 fa 39 be 45 99 04 be 0a c5 2a 3c
       0.1746148 -0.18162136 -0.12949093 0.010422954
000380 54 3e fe 3d 0e a4 2e be f1 15 a7 3d 94 91 ea bd
       0.12414232 -0.1705477 0.08158482 -0.11453548
000390 f3 8b b2 bd bd cb a3 bd dd 6e a1 3b 6b 65 7b bb
       -0.087180994 -0.07997844 0.004926546 -0.003836001
0003a0 eb 99 0d be 12 ee 47 be f2 10 e2 3d f3 aa 7e 3d
       -0.13828246 -0.1952441 0.11038388 0.06217475
0003b0 44 9c 86 bc 8a 75 3b 3e c3 41 e9 3d 76 1a ef bd
       -0.016431935 0.18306556 0.11389496 -0.11674969
0003c0 f6 64 17 be be cb fa 3d ea a8 4d 3d ab 98 86 3d
       -0.14784607 0.12245892 0.050209917 0.06572088
0003d0 4c c0 c8 bc 72 4e cf 3b 0b 1f fd 3d f0 15 bc 3d
       -0.024505757 0.00632649 0.123594366 0.09183872
0003e0 8c bf 2f be 1b 05 cc 3c d0 6d c4 bd 11 48 52 3e
       -0.17162913 0.024904778 -0.095912576 0.20535304
0003f0 09 7f 1f be a7 3a b3 3d b9 45 23 3b d4 83 50 be
       -0.15575804 0.087514214 0.0024913384 -0.20362788

shared.0.bias f4 [256]
000000 95 a8 24 be 92 a8 48 be f5 9a 9b 3d df 51 d6 bc
       -0.16079934 -0.19595554 0.07597915 -0.026162086
000010 73 41 24 be 82 f4 cc 3d 1b c7 17 3d 08 7f 3a bd
       -0.16040592 0.10007574 0.037055116 -0.045531303
000020 95 2e 92 3d f3 bf 48 be 7d c1 9e bd 50 b4 8c bd
       0.07137791 -0.19604473 -0.07751749 -0.068703294
000030 48 c1 c9 bc 06 ac da bd ed 79 31 bd 04 88 31 3e
       -0.024628296 -0.10677342 -0.043329168 0.17337042
000040 f4 a8 3f be 5b 09 ff 3d 9f b8 d5 bc 6f b0 24 3d
       -0.18716794 0.12452956 -0.02608901 0.040207323
000050 8e a0 d9 3d 88 1c bb bb b5 c7 b5 bc 91 b3 9c 3d
       0.106263265 -0.0057101883 -0.022189954 0.07651437
000060 9f 93 6b 3d 68 6f 6d 3c 3d a0 80 be 6f df 62 be
       0.05751383 0.014491893 -0.25122252 -0.22155546
000070 cc 63 90 3d 06 6b f2 3d 72 19 88 3d 6d 70 2a 3b
       0.07050285 0.11836819 0.06645478 0.0026006952
000080 98 72 5c be 60 73 02 3e 00 53 29 be ec 33 10 3e
       -0.21528089 0.12739325 -0.16535568 0.14082307
000090 e3 5a 05 be d0 b1 8c 3d 92 24 4b 3e 80 93 42 3e
       -0.13022952 0.068698525 0.19838169 0.1900158
0000a0 32 43 41 be cc 6d 14 3e e8 f4 d4 bd ba 7c 64 be
       -0.18873289 0.14495009 -0.10398275 -0.22313204
0000b0 bf f4 f4 bd c9 5a 13 3e 3f f5 68 3d 23 2e f7 3d
       -0.11960744 0.143901 0.05687451 0.12069347
0000c0 24 e9 d5 3c ce fd 88 be 18 51 86 bd ee 28 8f 3d
       0.026112147 -0.26756138 -0.06558436 0.069902286
0000d0 8c fd 15 3e 9f 41 c7 bc 40 cd a5 bd 06 d6 85 bd
       0.14647502 -0.024323283 -0.08095789 -0.06534962
0000e0 bf 9a 45 3e e6 7a dd bb ee 77 20 be c0 33 6f be
       0.19297312 -0.0067590354 -0.1567075 -0.23359585
0000f0 4a a0 46 3d 0b c2 6a be db d1 50 be 7c ea ff 3d
       0.048492707 -0.22925584 -0.20392554 0.12495896
000100 90 85 99 3d 3f 92 1c 3e db 20 dd 3b f6 c0 3e be
       0.07496178 0.15290163 0.0067483014 -0.18628296
000110 6b 7f 40 bd 1f ee c4 3d 0b 68 56 3e 9b 2e c6 3d
       -0.046996515 0.096157305 0.20938127 0.09676858
000120 2f 19 57 3e cb e2 3b be 83 8e b5 3d 60 81 eb 3d
       0.210057 -0.18348233 0.088650726 0.11499286
000130 b9 be 30 be 41 87 1c bd 97 95 a5 bc 3a e2 1f bd
       -0.17260255 -0.038214926 -0.020212932 -0.039034106
000140 c5 32 67 be 37 4f bf bd aa 37 30 3e 9a 88 a4 3d
       -0.22577961 -0.09341281 0.17208734 0.08033867
000150 03 b1 46 be 20 49 db bc 8b 8b 38 3e 75 8d 18 be
       -0.19403462 -0.026768267 0.18021981 -0.14897712
000160 d9 56 ec 3d a6 16 60 be f3 98 93 bb c0 79 5f be
       0.115400024 -0.2188364 -0.004504317 -0.21823788
000170 3e 44 5a be 00 85 b3 bd be 1e 52 be b4 06 a3 bd
       -0.21315095 -0.08765602 -0.2051954 -0.07960263
000180 2c 99 bd bd e4 77 4f 3d 68 95 05 be 38 6e a8 bd
       -0.09257731 0.050651446 -0.13045275 -0.082241476
000190 24 7d df 3c a6 0c f7 bd 8b bd 83 bd f3 21 32 be
       0.027281351 -0.120629594 -0.06432637 -0.17395763
0001a0 b0 41 48 be d2 ed 24 3e 2a f7 23 3c 87 02 12 3e
       -0.19556308 0.16106346 0.010007659 0.14258777
0001b0 cc 4b bc bd d4 17 b4 bd 5c f2 0f 3e ee b8 4d 3d
       -0.091941446 -0.08793607 0.14057297 0.05022519
0001c0 2a 9e 47 be ae 04 b7 3d b5 5f 75 be 50 d0 e7 3d
       -0.19493929 0.089364395 -0.2396229 0.11319029
0001d0 e5 6f c1 3d ec 1e 54 be 3e e1 b6 3d 35 2e 61 3e
       0.0944517 -0.20714921 0.0892968 0.21990283
0001e0 9d 3a 16 be 4e 52 31 3e ab 60 ac bd 48 22 8f 3d
       -0.14670797 0.17316553 -0.084168755 0.069889605
0001f0 95 9c 9b 3d a0 6c 38 be 7e b6 85 bd 8a a1 9e 3d
       0.07598225 -0.18010187 -0.06528948 0.07745655
000200 02 fc 33 3e b4 d4 86 bd 6e 9e 50 3e 59 fc 07 be
       0.17576602 -0.06583539 0.20372936 -0.13279857
000210 bc 8d 98 3d 54 04 02 be d6 da 0a 3e 82 e7 a2 3d
       0.07448909 -0.12696964 0.13560042 0.07954313
000220 e6 15 41 be 21 ee fb bd 04 5b 13 be 8f 00 f8 bc
       -0.1885601 -0.12301279 -0.14390188 -0.030273704
000230 24 77 7e be fb 6d 9a 3d 77 bf d0 bd aa de 27 3d
       -0.24850136 0.07540508 -0.10192769 0.040983833
000240 d1 84 88 3d 1a f3 ac 3d 14 c1 55 be e1 3a 57 be
       0.06665958 0.084448054 -0.20874435 -0.21018554
000250 1d 58 0a be f7 90 d9 3d c2 4f 4f be c5 a4 65 3d
       -0.13510175 0.10623353 -0.20245269 0.05606534
000260 83 87 90 3c e9 ec 0c be cc 05 11 be 1b f6 1d 3e
       0.017642742 -0.13762249 -0.14162368 0.15425913
000270 e7 3e 81 bd ab 5c f0 3b 7d c3 33 be 11 65 bf bc
       -0.06310826 0.0073352656 -0.17555042 -0.023363622
000280 6a 8b 0e be 8d 42 6d 3e 96 5d 8a bc 46 32 00 3e
       -0.1392037 0.23169918 -0.016890328 0.12519178
000290 65 48 f0 bd 3a 25 3b be 80 66 5f be 33 8d 38 3e
       -0.11732558 -0.1827592 -0.21816444 0.18022613
0002a0 a7 74 f0 3d 56 ed ba 3d d4 fa 8e 3d fc 9e e7 3d
       0.11741 0.091272995 0.069814354 0.11309621
0002b0 7d af 1e 3d 20 18 a7 bc aa c2 1b be 9d 41 78 bd
       0.038741577 -0.020397246 -0.15210977 -0.06060945
0002c0 c9 2f 46 39 6e 50 23 3e 0a 10 28 be c1 63 2b be
       0.00018900553 0.1594865 -0.16412368 -0.16737272
0002d0 2a 7f c9 bd fd 05 46 bd dd 79 43 be fe e9 53 be
       -0.09838708 -0.048345555 -0.19089456 -0.2069473
0002e0 f6 2a fd bd 6a a8 4e 3e 01 1a 5a 3d bf 1a 23 3e
       -0.1236171 0.20181432 0.053247456 0.15928172
0002f0 d8 65 3e bd a1 51 c0 bd d7 ad 17 3e 41 f3 0f 3e
       -0.046483845 -0.093905695 0.14812408 0.14057638
000300 00 a0 87 bd 94 38 c5 bd f7 8f 10 3d 66 63 dd 3d
       -0.066223145 -0.09629932 0.035293546 0.10809974
000310 c4 6e d9 3d 01 a1 47 3e 61 b9 79 3d d5 e6 3a 3e
       0.1061683 0.19495012 0.060967807 0.18252118
000320 8d c5 24 be 2a 21 ad 3b cd 2d 9c bc 6a 2b fd 3c
       -0.16090985 0.0052834945 -0.019064808 0.03090449
000330 c8 01 22 3e e0 77 10 bd 57 7c bd bd 29 01 58 bd
       0.15820992 -0.03527057 -0.092522316 -0.05273548
000340 26 56 44 bd c1 a3 2b be 80 d4 ef bd 04 cf 73 be
       -0.04793372 -0.16761686 -0.11710453 -0.23809439
000350 92 70 eb 3d ec 2c 7f 3d 23 b0 d4 bd 8a 26 f5 bd
       0.114960805 0.0622987 -0.10385158 -0.11970241
000360 5c d6 17 3d ae cb 47 be f3 40 08 3e 87 5a b7 bd
       0.037069663 -0.19511291 0.13306026 -0.089528136
000370 6d 0b 5b be 82 a8 ae 3d 4e 61 1e be 5c 1b 2d 3c
       -0.21391077 0.08528234 -0.15466806 0.010565605
000380 f8 d5 82 bc 14 66 e4 bd b0 87 3f be b1 70 93 bd
       -0.015971169 -0.11152282 -0.18704104 -0.071992286
000390 32 1a 88 bd 98 d3 50 be 42 34 36 3d 22 c5 80 be
       -0.06645621 -0.20393217 0.04448343 -0.251504
0003a0 1b 2e f8 3d 60 46 02 3e 57 da 25 3e 95 a7 08 bd
       0.12118169 0.12722158 0.16196571 -0.033362944
0003b0 cc 9f 4e be 8e 38 b6 3d a1 2f 99 bd 7d cf 00 3e
       -0.20178145 0.08897506 -0.074797876 0.1257915
0003c0 14 17 d6 bd 07 32 62 be c1 96 d0 bd 47 ca 15 3e
       -0.104536206 -0.22089396 -0.10185004 0.14627944
0003d0 6b 26 47 be e7 9d 28 3d 9c 93 18 3e 2e cb b1 bd
       -0.19448249 0.041166212 0.14900059 -0.086813316
0003e0 fd 95 30 be df b8 62 be f5 3c 4c be 3b 31 4c bd
       -0.17244716 -0.22140835 -0.19945128 -0.049851637
0003f0 77 39 2f 3e 44 10 1d 3e b7 f6 b3 3c 81 47 2b be
       0.17111765 0.15338236 0.021968229 -0.16726495

shared.2.weight f4 [128, 256]
000000 73 4a 76 bc d4 9a 2a 3c ba 7b 0f bd 27 ed 34 bd
       -0.0150323985 0.01041289 -0.035030104 -0.04417148
000010 f9 05 34 bd 95 86 89 3c 76 19 c4 bc a0 ea c7 3c
       -0.04395101 0.016787807 -0.023937922 0.02440387
000020 f1 2b ef bc f2 b0 bd bc 81 29 3b bd 02 33 a7 3d
       -0.029195758 -0.023155663 -0.045693878 0.08164026
000030 9e 9c 14 bd 50 ac 82 3d 44 81 42 bb 2d 37 bf 3d
       -0.036282174 0.06380522 -0.00296791 0.09336696
000040 07 b5 80 bd 94 36 91 3d 70 32 2c bc 34 0b 3a bc
       -0.06284528 0.07090488 -0.010510072 -0.01135521
000050 71 ae 9a 3c 6a bd 87 bc b3 9f 84 3b 70 90 cf bc
       0.018882008 -0.016569812 0.004047358 -0.025337428
000060 26 98 f7 bc fe 1d 17 3b f5 e1 35 3d 1d ae 25 3d
       -0.030223917 0.0023058648 0.044404943 0.04044925
000070 2d 5b dc 3b 79 f5 63 bd e9 da 8a bd 0f b5 10 bc
       0.006724736 -0.055654023 -0.06780035 -0.00883223
000080 b3 9c ea bc bd 1e 89 bd b0 df ec bc 75 cd 3b 3c
       -0.028639173 -0.06695316 -0.028915256 0.011462559
000090 a3 7c 99 bc c1 37 8a bd 3a c9 7e bd 69 58 c4 3d
       -0.01873619 -0.067489155 -0.062203623 0.095871754
0000a0 2e f4 1f bc 7e 1f 19 3d 40 9b 8a bc 77 c0 c3 bd
       -0.009762807 0.03738355 -0.016919732 -0.09558194
0000b0 c1 d5 10 3d 58 75 9c 3c 22 c3 24 3d cb 60 58 bd
       0.0353601 0.019098923 0.040225156 -0.052826684
0000c0 c0 48 33 bc 7c 15 26 3d 7c 8a 82 bc 0f 4f 30 bd
       -0.010942638 0.040547833 -0.015935175 -0.043044146
0000d0 59 a2 93 3d 9f c0 e5 3b c6 59 45 3c 93 83 72 bc
       0.072087 0.0070114876 0.012045329 -0.014801878
0000e0 be 84 ce 3b 58 b8 ad bd 2e 48 32 bb d4 03 f0 3c
       0.006302445 -0.084824264 -0.0027203667 0.0292987
0000f0 02 eb 6e bd 1e e5 50 bd ac ca f7 bc df 3b f8 3c
       -0.05832959 -0.050999753 -0.030248009 0.030301986
000100 99 90 e3 3c 04 15 cd 3d 77 0e bc 3c 08 75 c0 bc
       0.02777891 0.10013774 0.022956116 -0.023493305
000110 2c 30 a6 bd 8b 1d aa 3d a8 ba f0 3c ff 69 ce bb
       -0.08114657 0.08306416 0.02938588 -0.006299257
000120 02 3e 03 3d bf ea 2d 3d a6 68 fc bc bd da 9b 3d
       0.032041557 0.0424602 -0.030811619 0.076100804
000130 dd 99 98 bc 58 73 cd bb c5 97 89 bd de b7 99 bd
       -0.018628055 -0.0062698536 -0.06718401 -0.07505773
000140 84 35 2a bd 00 d2 93 bd b2 67 49 bd bf 9d 7a bd
       -0.041554943 -0.07217789 -0.049171157 -0.061185595
000150 d2 74 4a 3d fa b9 2b bd e8 20 e6 3d a6 5a 17 bd
       0.049427815 -0.041925408 0.11236745 -0.036951683
000160 f8 8b 6a 3d 40 d1 9d bc 1e 43 eb 3c da 7e ed 3c
       0.05726239 -0.019264817 0.028718527 0.028991152
000170 2a 13 8e bc 1e f3 cc bc 1f a8 f3 3b 01 22 22 bd
       -0.017343123 -0.025018271 0.007435813 -0.03958321
000180 97 2c 05 bd 42 d4 b5 3b 59 25 d4 3d 8a f0 2d bd
       -0.032513227 0.0055489847 0.10358686 -0.042465724
000190 02 1e b9 3b 25 ec 53 3d 4b cf bf 3d 31 97 84 bc
       0.005649329 0.051738877 0.0936571 -0.016185375
0001a0 1a 62 c7 3d 55 65 c0 3c 4e f1 20 bc 63 cd 51 3b
       0.09735508 0.023485819 -0.0098231565 0.003201329
0001b0 9e 4d f5 bc d0 84 03 bd bd ae d1 bc ea ba d7 3d
       -0.029944237 -0.03210908 -0.025596017 0.10533698
0001c0 67 bd 5e bd f8 eb a5 3a 88 27 9c 3d f2 24 dc bb
       -0.054379847 0.0012658825 0.076247275 -0.0067182714
0001d0 b2 86 d4 bc 5c 3b bc 3a 7a 43 f6 bb 5f 46 bb 3d
       -0.025943134 0.0014360952 -0.007515368 0.091442816
0001e0 27 2c 2f bc 2a 2c 37 bd 54 fc e1 3c 70 7d e1 bc
       -0.010691679 -0.044719853 0.02758614 -0.027525634
0001f0 ba cc d2 bc d2 f6 27 bc f2 df 87 bd 63 36 94 bd
       -0.025732387 -0.010251718 -0.06634511 -0.07236936
000200 df c5 46 bc 1b 80 6a bd 43 8c a7 bc 41 5e 83 bc
       -0.012132137 -0.057251077 -0.020452624 -0.016036155
000210 91 c1 bc 3c 4e bc 82 3b 03 bb b3 3c 47 50 2f 3a
       0.023041518 0.003989733 0.02193976 0.00066876825
000220 d9 45 48 bd b1 0e 47 bd 4a 4e 06 3d 17 d4 a3 bd
       -0.048894737 -0.048597995 0.032789506 -0.07999437
000230 a8 d3 44 3c 8a 88 e5 3d b2 87 1d 3b b8 ab b3 bd
       0.012013353 0.112076834 0.002403718 -0.08772987
000240 a0 9b 2c bd 33 41 4d bc b3 54 24 3c fb 8f a1 3d
       -0.042140603 -0.012527752 0.0100299595 0.0788879
000250 4a 6a b8 3c b7 ff 13 3d 55 28 27 3d 9b 63 b8 bd
       0.02251162 0.03613254 0.040809948 -0.09003373
000260 34 90 83 3d 8b ea c6 bc fe 47 09 3c c2 5a 82 3a
       0.06423989 -0.02428176 0.008378981 0.0009945261
000270 12 54 f9 bc d5 b1 74 bd fc 14 b9 bc 83 17 82 bd
       -0.030435596 -0.059739906 -0.022593014 -0.06352141
000280 31 a0 ce bb f1 f8 bc 3d 70 1a 19 bd 51 ad 62 bd
       -0.0063057174 0.09227169 -0.03737873 -0.05534107
000290 c8 f1 cf bc da 5d 14 3d b9 4d 15 bd db bb 34 bd
       -0.025383845 0.036222316 -0.036451075 -0.044124465
0002a0 9a 28 74 bd dc f6 ea 3c bd 86 39 3d 41 8e bd bd
       -0.059609033 0.028682165 0.045294512 -0.092556484
0002b0 88 e4 e5 bc c6 89 77 bb 89 02 0c bd f4 8f 6d 3c
       -0.028063074 -0.0037771328 -0.034182105 0.014499653
0002c0 3b a6 68 3d 45 eb 80 bd a4 9b 08 3d 4c 39 c1 bd
       0.056799155 -0.06294874 0.033351555 -0.09434757
0002d0 a2 0b 8b bd 73 00 02 3d 60 56 54 bd 4d d9 22 bc
       -0.06789328 0.03173871 -0.051840186 -0.009939504
0002e0 17 68 85 3d e9 15 3e 3c d6 b8 ad bd da e2 95 bb
       0.06513994 0.0116019035 -0.0848252 -0.004574162
0002f0 f0 a4 59 bd c6 0f 0a 3d 0b 1a 75 bd 69 b1 53 bc
       -0.053135812 0.03370645 -0.05983929 -0.012920716
000300 b6 bc 2d bd ed 02 11 bd f1 8c 78 3d 4b fe b0 bb
       -0.042416297 -0.03540318 0.060681287 -0.005401408
000310 4f 14 d8 3c db a5 b2 3c 7d 33 8c 3d ea 6d 1e bd
       0.026376871 0.021807602 0.06845758 -0.03867904
000320 5b 8b ea bc 73 36 9e bd ed 99 68 3d 65 ff a5 3c
       -0.028630903 -0.07725229 0.05678742 0.020263383
000330 c0 50 5b 3d 2b a8 c3 3c 21 21 21 bd 2f fb 01 bd
       0.053543806 0.0238839 -0.039338235 -0.031733688
000340 8c e1 9f bc 70 16 ed 3c b7 a7 aa bc 61 e5 f6 b9
       -0.019516729 0.028941363 -0.020831926 -0.00047091677
000350 26 be c9 bd fb 77 46 bd a3 07 83 3b 7d f4 f8 bc
       -0.09850721 -0.048454266 0.003998713 -0.030390019
000360 0f 18 00 bc 79 be 8f bd 9b 4b 26 bc f9 46 8e bd
       -0.007818236 -0.07018752 -0.010149862 -0.06947131
000370 62 ca 17 bd 6a 97 13 3d 2c 56 6f 3c c7 df 05 3c
       -0.03705824 0.03603307 0.014607947 0.008171028
000380 2b 59 46 bd b2 56 4e 3d 04 36 cd 3b 48 28 7d bc
       -0.04842488 0.050375648 0.0062625427 -0.015451498
000390 97 36 97 bd 08 d7 6c bd eb b5 2e bd 63 f3 e7 3b
       -0.07383459 -0.057822257 -0.04265396 0.0070785745
0003a0 66 e4 73 3c 24 71 9a bd d6 4b 88 3d 30 a6 47 bd
       0.014885997 -0.07541111 0.066550896 -0.048742473
0003b0 2b 46 25 3d 0c 65 ee 3c aa 5a 92 bd f6 13 4f bd
       0.04035012 0.029100917 -0.07146199 -0.050556146
0003c0 78 d6 31 3c 62 ce f5 3c 5a e3 b2 3d 3a eb 58 3d
       0.010854356 0.030005638 0.0873477 0.052958705
0003d0 ac f8 a2 3c 7d 7c 24 bd 90 f8 bb bb 24 d2 56 3c
       0.019893967 -0.040157784 -0.005736418 0.013111625
0003e0 96 71 17 bd 0c 1a 15 bc a3 57 99 bc 35 e6 d6 3a
       -0.03697356 -0.009100448 -0.018718546 0.0016395511
0003f0 4b 07 5d bd 44 cd 39 3d 42 68 87 3c 78 cc 66 bd
       -0.053962033 0.045361772 0.016529206 -0.05634734

shared.2.bias f4 [128]
000000 cf 5a 3d bd a5 73 f9 3a dc 22 04 bc 07 2b bf 3b
       -0.04622918 0.0019031657 -0.008064952 0.0058339867
000010 d0 5e 83 bd 30 18 ed bb b8 41 38 3d 91 b3 36 3d
       -0.064145684 -0.0072355494 0.04498455 0.04460484
000020 7d 6f 64 bd 51 81 05 bd 12 41 43 bd 3c fc 35 bc
       -0.055770386 -0.03259403 -0.047669478 -0.011107501
000030 ce 7a 2b bc 9c c5 81 3c 5c d9 7c bd a8 12 d3 ba
       -0.010466291 0.015841298 -0.061730728 -0.0016103582
000040 89 9c ad bb 02 8a 4a 3c 81 ad d4 3c 67 12 a1 bd
       -0.0052982015 0.012362005 0.02596164 -0.07864838
000050 3d ff f7 3c 90 7f da bb 7c a7 75 3c 92 ac d6 bc
       0.030273074 -0.0066680387 0.014993545 -0.026205335
000060 2e f3 f7 bc 5c af 0f 3c 34 1b 02 bd eb 42 20 3d
       -0.030267324 0.008769836 -0.031764224 0.039126318
000070 3d 5b b5 3c 45 79 a1 bd 71 e0 ae 3c e8 f2 0e 3c
       0.022138232 -0.078844585 0.021347256 0.008724906
000080 39 f9 2a bd a8 2f 84 bd d2 df 70 bb a7 15 69 bd
       -0.041741583 -0.06454402 -0.00367545 -0.056905415
000090 c2 20 f4 bb 6c 02 cb bc f4 2f 7b 3d 58 a8 b8 3c
       -0.007450194 -0.024781428 0.06132503 0.02254121
0000a0 e5 0b 96 3c 73 6b c6 bc 53 89 59 bd 3f 70 ca 3c
       0.018316219 -0.024221158 -0.05310948 0.024711726
0000b0 26 a2 fd 3b 60 8e fb bc 14 3f 25 3c 55 5d 68 bd
       0.007740277 -0.030707538 0.01008584 -0.056729633
0000c0 65 2d 1f 3d 79 b3 1e 3d 81 83 11 bd ad 53 d7 bc
       0.03886165 0.038745377 -0.035525803 -0.026285017
0000d0 6c 16 f6 3b b8 01 8d 3c b8 f2 80 bd bb fc cb 3b
       0.007509997 0.017212734 -0.06296295 0.006225196
0000e0 53 91 ed 3c 24 60 31 3d 99 31 5c bd fe 95 4c bd
       0.02899996 0.043304577 -0.053758238 -0.04994773
0000f0 3a 56 a6 3c 7c 7d 2b bd cc bd 27 3c 9d 0c 34 3d
       0.020304788 -0.041867718 0.010238122 0.04395734
000100 0a f6 3a bd 95 a5 51 bd c6 18 54 bd 70 b1 3f 3d
       -0.045644797 -0.051183302 -0.05178144 0.046800077
000110 02 7b 85 3c 23 0f 2e 3c 55 0c 51 bd e9 0c 12 3c
       0.016294006 0.010623726 -0.05103715 0.008914211
000120 74 0e 62 bd c2 5d e8 3b 8a c2 21 bd 6b 42 8f 3c
       -0.055189565 0.007091255 -0.039492168 0.017487725
000130 e8 9d 5e bd ce 80 38 3d c6 21 64 bd c6 27 50 3d
       -0.05434981 0.045044713 -0.05569627 0.05081918
000140 5f ab 7f bd 51 28 05 bd 84 40 08 bd 51 0e aa bd
       -0.06241929 -0.03250915 -0.033264652 -0.08303512
000150 fa 41 65 bd 94 a4 92 3c 3c c5 01 bd cb 89 5e bd
       -0.055971123 0.017900743 -0.031682238 -0.05433063
000160 49 e3 d2 3c ab a6 3b bd 64 d4 4d 3c 1b f2 b7 bb
       0.025743144 -0.045813244 0.012562845 -0.005613578
000170 ad 6f 39 bd 75 9d 26 3d 45 22 df 3c 11 38 00 bd
       -0.045272518 0.040677506 0.02723802 -0.03130347
000180 8e 7a 0e bd 21 b9 4d 3c ac e9 7b 3c 36 39 87 bd
       -0.034784846 0.012556345 0.015375536 -0.06602709
000190 01 d6 d3 bb 9e fa 14 3c 9c 04 80 bd 28 2c bc 3c
       -0.0064647202 0.009092955 -0.06250879 0.022970274
0001a0 ad fe 70 bd 65 19 0c 3d 49 7e 8b bc 87 c5 7d bd
       -0.058836628 0.034203906 -0.01702799 -0.061955955
0001b0 53 d2 bd 3c 8a f1 42 bd fc b9 de 3b d6 13 43 3d
       0.02317158 -0.04759363 0.0067970734 0.04762634
0001c0 be d7 42 bd bc c9 5c 3d fc 59 cd bb ef 2e 2b 3b
       -0.04756903 0.053903326 -0.0062668305 0.0026120504
0001d0 8f 9b 22 bd 89 c9 98 bd ae c4 a0 3c be a3 2e 3c
       -0.039699133 -0.07460315 0.019625034 0.010659156
0001e0 9a ef cc bc d1 76 65 bd ae dc d4 3b c1 cb fd bc
       -0.025016595 -0.056021515 0.0064960336 -0.030980946
0001f0 0e ce b4 3d 0c ea 58 bd 5c 6d 3d bd 46 6c 76 bd
       0.08828364 -0.05295758 -0.04624687 -0.06016185

dice_policy.weight f4 [5, 128]
000000 2b cf 83 3d 71 c8 97 bd 01 97 56 3d a6 86 3f bd
       0.064359985 -0.07411278 0.052390102 -0.04675927
000010 9a b6 c9 bd 22 12 55 bc a8 b7 8d bd b8 38 64 3d
       -0.098492816 -0.0130048115 -0.06919795 0.055718154
000020 99 d6 33 bd 59 61 9c bb 3c 8e c2 bc a4 26 86 bd
       -0.04390583 -0.004772347 -0.023749463 -0.06550339
000030 8b 3a 8c 3d 18 18 2f 3d 9a a1 ae bd df 76 21 bc
       0.06847104 0.042747587 -0.08526917 -0.009855001
000040 a8 7e bf bb b9 60 2e bd f6 13 a6 bb b0 0d 16 3d
       -0.005843956 -0.04257271 -0.0050682975 0.036634147
000050 5c 17 1a bd db c4 af 3a a9 b8 80 3d c2 be 24 bc
       -0.037619933 0.0013410108 0.06285221 -0.010055246
000060 91 08 71 bd 19 a5 a0 3c 04 b9 e2 3a 80 af c1 3d
       -0.05884606 0.019609975 0.0017297571 0.09457302
000070 2e 8f 8a 3d 75 a7 d9 bd 04 c0 ca ba 44 4f 1f 3b
       0.067655906 -0.10627643 -0.0015468602 0.002430872
000080 09 7c 99 bd 4d 33 ae 3c 9d 98 09 ba 95 a4 9f 3c
       -0.07494361 0.021264696 -0.00052488764 0.019487659
000090 46 86 6e 3d 0a d9 41 bd d9 10 eb bb 88 21 87 bd
       0.058233522 -0.047326125 -0.0071736393 -0.065981925
0000a0 a8 34 4e bd 16 f0 65 bd 26 6f 8d 38 70 77 6b bd
       -0.050343186 -0.056137167 6.744107e-05 -0.05748695
0000b0 e4 50 a4 bd 12 6b ca 3c 46 b2 13 3c 2c 3b 4b 3d
       -0.08023241 0.024709258 0.009014672 0.049616978
0000c0 6e 58 ba bc 5e 2e 1b 3d 84 6e 72 3d eb d1 0a bd
       -0.022747245 0.037886016 0.059187427 -0.0338916
0000d0 07 eb a0 3d bd 17 74 bd 3f b5 6e 3d 25 57 43 bd
       0.07857328 -0.05959295 0.05827832 -0.04769053
0000e0 ab 66 4e 3d b0 31 bc bd 8c 72 c2 bc 83 13 dd 3d
       0.05039088 -0.09189165 -0.02373626 0.10794737
0000f0 ce 21 b0 bb f2 42 2c bd 23 66 e0 bd 3a 3c 21 be
       -0.0053751236 -0.04205603 -0.10956981 -0.15745631
000100 1c b3 1c 3c 3a 25 71 3d 8c 0c 9c bd 41 60 99 3c
       0.009564187 0.058873393 -0.076195806 0.018722655
000110 92 de 19 3d e8 5d 65 3d 76 69 84 bd b2 7d 79 3d
       0.037565775 0.05599776 -0.064654276 0.060910888
000120 f1 08 4f bd 1d 89 9a bc c6 85 8e bd f7 72 c6 3c
       -0.050545637 -0.018864209 -0.06959109 0.024224741
000130 65 01 04 bb a9 57 51 bd 32 28 23 3d ef d6 44 bd
       -0.0020142433 -0.05110899 0.039833255 -0.04805654
000140 32 d3 60 bc 30 d8 14 3d 32 8b 7a bd 7e 76 b8 3c
       -0.013722228 0.036338985 -0.061167903 0.022517439
000150 ef 5d 79 bc 40 0f 4e 3d fb 53 dd bb 46 e9 4c bd
       -0.015220149 0.050307512 -0.006754396 -0.050027154
000160 2d 8e 8a bb ab e1 61 bd b0 a6 fb bc f4 6c ab bd
       -0.0042283745 -0.055146854 -0.030719131 -0.083703905
000170 34 cf 50 bd 50 d1 5b 3d c0 07 83 bd c5 ae 7d bd
       -0.050978854 0.053666413 -0.063979626 -0.06193425
000180 c9 a3 6c 3d a4 9d 16 3d 71 ee 81 3d 8d cf 66 bb
       0.057773385 0.03677143 0.06344307 -0.0035218925
000190 e4 08 a9 3d ac 97 1d bc bd 16 e0 3d 98 0b a0 3c
       0.08253649 -0.009618681 0.10941837 0.019536778
0001a0 82 6e ad bd e6 2f d2 bd 36 24 64 3d a9 7a 8a bb
       -0.08468343 -0.10263042 0.055698596 -0.004226048
0001b0 19 b0 a3 ba 92 d5 ad bd ab af e1 bd 88 cc 6c bd
       -0.0012488394 -0.08488001 -0.11019834 -0.057812244
0001c0 cb 9a fc 3c 7a ec b8 bd 32 41 5b bc 21 68 86 bc
       0.03083553 -0.09029479 -0.013382243 -0.016407074
0001d0 7e 0f 80 bd a8 33 bd ba 01 b2 94 3d 9b 65 9d 3c
       -0.06252955 -0.001443495 0.07260514 0.019213488
0001e0 ee 23 c3 3c 71 b8 43 3d c6 02 cc bc 31 6a 95 bc
       0.023820844 0.04778332 -0.024903666 -0.018239113
0001f0 38 f8 74 bd 3b 9a 3e bb 6d 0d dc 3c 4d 4c 56 3d
       -0.059807032 -0.0029083628 0.02686187 0.05231886
000200 7f 77 32 3d ba 80 bd bd 84 76 9b 3d 98 48 90 bd
       0.04357099 -0.09253068 0.075909644 -0.07045096
000210 57 bb a4 bd f1 f8 8b bc 45 84 90 3d bf 1d b4 3c
       -0.08043545 -0.017086478 0.070564784 0.02198684
000220 b6 30 68 bc 8a 51 a5 ba b7 59 9a bc 70 3e 8c bd
       -0.01417177 -0.0012612802 -0.018841607 -0.068478465
000230 d7 60 49 bd aa 9c 83 bc a2 90 87 3d d9 2d 15 bd
       -0.04916462 -0.016065914 0.066193834 -0.036420677
000240 3f 44 97 3c b7 6c 86 bd 0b 59 61 bd 68 43 24 bd
       0.01846516 -0.065637045 -0.05501656 -0.040103346
000250 db 55 82 3d 38 b3 ec bc 2b 06 54 3d 56 25 81 3d
       0.06364032 -0.028894052 0.051763695 0.063059494
000260 89 9e 90 3d 0d 20 d7 bc 7f d6 53 3c cd 24 3e 3d
       0.07061488 -0.0262604 0.012929558 0.046421815
000270 ed 3e 55 bd f8 90 1f 3d 3a f6 59 bd 44 ce 2d bd
       -0.052061964 0.038956612 -0.053213336 -0.04243304
000280 18 8a 45 3d 58 fb 96 3d 2c f0 cc 3c a8 1e 95 ba
       0.0482274 0.07372159 0.025016867 -0.0011376934
000290 74 6d dc 3c 54 15 36 3d cf b3 c9 3c 61 04 78 3d
       0.02690766 0.044453934 0.024621872 0.06055105
0002a0 8e c4 33 3d c1 b7 a9 bd 7c 11 8e 3d 7f 4a 04 bd
       0.04388862 -0.082870014 0.06936929 -0.032297608
0002b0 71 5f 85 3d ed f7 cc bd 56 11 60 bd 94 8b ad bc
       0.06512345 -0.100082256 -0.054704033 -0.02118472
0002c0 d7 e5 1a 3d 5b 04 17 bd 20 6a 85 bc 0c 9f 94 3d
       0.03781685 -0.036869388 -0.016285956 0.07256898
0002d0 3f 31 49 bd 3a dd e3 bd 77 26 82 bd 12 11 14 bd
       -0.04911923 -0.1112618 -0.06354993 -0.036149092
0002e0 1a aa 49 3d 8d 79 4c bd 3f 36 26 3d a8 ab ba 3c
       0.049234487 -0.049920607 0.040579077 0.02278693
0002f0 d0 2c 1a bc 50 b5 05 3d 63 7f ad bd 32 d1 55 bd
       -0.009410098 0.032643616 -0.08471563 -0.052201457
000300 04 2e ea bc 15 92 55 bd d3 f6 67 bd df 78 88 bd
       -0.028586395 -0.052141268 -0.056631874 -0.06663679
000310 ee 09 56 bd 4e 27 77 3d 37 cc 30 bd da 40 ba bc
       -0.052255563 0.06034022 -0.043163504 -0.022736002
000320 19 38 a8 bd 99 19 2e bd 4f 9f 0e bd 75 ff a6 3c
       -0.08213825 -0.04250488 -0.034819897 0.020385483
000330 50 cc 7f bd 0b 3f 5a 3c 2d 1f 5a bc 3f 18 0f bd
       -0.062450707 0.013320695 -0.013313097 -0.034935232
000340 41 72 de 3c 57 77 ae 3c 04 ab 4e 3c 98 f9 cb 3c
       0.02715409 0.02129714 0.0126140155 0.024899289
000350 67 c0 f7 bc 7e cf a3 3c 19 c1 7d bd 79 cc bb bd
       -0.030243112 0.0199964 -0.06195173 -0.091698594
000360 ed ea bc bd ca 12 41 3d 9f 26 9d bd 98 34 ff 3a
       -0.09224496 0.04713706 -0.07673382 0.001947063
000370 94 da 90 bd 73 81 41 3d f4 39 98 bc f1 0d cd bd
       -0.070729405 0.047242593 -0.018582322 -0.10012425
000380 fe b3 4f 3d 36 c7 ad bd eb 5b dc 3c 7a 85 5f 3d
       0.050708763 -0.08485262 0.026899299 0.054570653
000390 c4 51 13 3c fd 18 de 3c 3d 85 ef bc eb 73 74 bd
       0.008991662 0.027111525 -0.029238338 -0.05968086
0003a0 88 b8 7d bd ff a1 b5 bd 97 1d c4 3c ec a9 b1 bd
       -0.06194356 -0.08868789 0.02393989 -0.08674988
0003b0 67 a4 94 bb 32 34 63 bc d2 43 53 bb e9 e6 04 3a
       -0.0045362 -0.013867425 -0.003223647 0.00050698087
0003c0 d3 4e ba 3c dc 77 aa 3d 3b 97 53 bc 7a 23 84 3d
       0.022742664 0.083236426 -0.012914474 0.06452079
0003d0 96 e2 41 bd 3e 4f c5 3c 55 e5 86 3c 65 71 95 bc
       -0.04733523 0.024085637 0.016466776 -0.018242547
0003e0 e8 cc 53 bd 33 ff 50 3d 6d 2a 58 3d fe 63 3d bc
       -0.051709086 0.051024627 0.052774835 -0.0115594845
0003f0 09 1b ef 3c 13 00 3a bd ef a7 ff 3b 90 88 44 bd
       0.029187696 -0.045410227 0.0078020017 -0.0479818

dice_policy.bias f4 [5]
000000 71 5d 2d bd 85 98 a1 bd 07 ef 45 3d c1 d6 91 bd
       -0.04232544 -0.07890419 0.048323657 -0.07121039
000010 9e 6c a3 3d
       0.079797015

category_policy.weight f4 [13, 128]
000000 69 c7 40 bd 13 11 cc bd f4 ba d8 bb d9 27 fe bd
       -0.047065172 -0.09964194 -0.0066140834 -0.12409944
000010 02 31 15 3a 90 e6 b9 bd 34 f8 2c bd 0c a0 4d bb
       0.00056912017 -0.090771794 -0.042228892 -0.0031375913
000020 23 2a 1d 3d 60 0b 39 bd 34 8c 8d 3d 3c ed 8b bc
       0.038370263 -0.045176864 0.06911507 -0.017080896
000030 c5 d3 5e bd 03 b7 02 bd d7 38 b6 ba 22 e1 0b bd
       -0.054401178 -0.031912815 -0.0013902438 -0.03415025
000040 a2 fc cb 3c a2 b3 86 bd c6 bb c2 bd 0b ec 3c 3d
       0.024900738 -0.06577231 -0.09508471 0.046123546
000050 b7 7e 45 3c 37 11 24 bd 07 de 08 bd a9 11 7a bd
       0.012054137 -0.04005548 -0.033414867 -0.061052
000060 2e 54 c7 bc 14 7a 4f bd d6 e7 51 3d 3f e0 81 bc
       -0.024332132 -0.050653532 0.051246487 -0.015854
000070 40 65 55 bd a1 ba e1 bb 2a fa 31 bd 12 84 41 3d
       -0.052098513 -0.006888703 -0.043451466 0.047245093
000080 28 c3 1a 3c 90 e5 14 3d 05 d7 3c bc 51 3a c5 bc
       0.009445943 0.03635174 -0.011525874 -0.024075659
000090 b8 13 9d 3c 7c 28 4e bd 9c 50 74 bc b4 dc ba bc
       0.019174442 -0.050331578 -0.014911797 -0.022810318
0000a0 37 54 16 3d b5 09 5d 3d 9e a4 d1 bc ad 77 6a bd
       0.036701407 0.053964335 -0.02559119 -0.057243038
0000b0 57 06 07 bd ba ce 4f bd 48 a7 74 3c 0f df 5e bd
       -0.03296503 -0.05073426 0.014932461 -0.054411944
0000c0 2a 17 2e bc 1b 84 74 3c 59 fc 8c bb b5 c0 a7 bd
       -0.01062564 0.0149240745 -0.004302543 -0.08191053
0000d0 34 e9 f8 bb e2 39 c2 bd 2d 65 63 3d 34 28 ea 3c
       -0.0075961594 -0.094836965 0.05551641 0.028583623
0000e0 41 82 07 bd 64 48 95 bc c3 b1 50 3d cb 36 27 3c
       -0.033083204 -0.018222995 0.050950777 0.010205935
0000f0 aa 5c 4c 3d e2 e7 0b 3c 6d 0a 9d bb 70 ea b4 bd
       0.04989306 0.008539172 -0.0047925026 -0.08833778
000100 c1 0f 89 3d 06 9b 33 bd 79 d0 8e 3d d2 09 54 3c
       0.06692458 -0.043849014 0.06973357 0.0129417945
000110 e3 66 f2 bb 04 5c 5a bd ef b4 67 bb ee af ea 3c
       -0.007397519 -0.05331041 -0.0035355648 0.028648343
000120 e1 7c 7d 3d f4 83 52 3d 8e ed 72 3c 57 ac 44 bd
       0.061886672 0.05139537 0.014827145 -0.04801592
000130 05 76 94 bd a7 da 6c 3d b6 a6 dc bc 40 80 ce bc
       -0.07249073 0.05782571 -0.026934963 -0.025207639
000140 d0 33 93 3d dd 0a 82 3d 65 9a 6b 3d 0d 37 2b be
       0.07187617 0.06349728 0.05752029 -0.16720219
000150 51 ab 23 bd 6e 91 3f bd e2 53 8a 3d 88 86 95 bd
       -0.039958302 -0.046769552 0.067542806 -0.073010504
000160 72 b4 fa bc bb 69 e6 3c 28 ab 15 bd 11 09 0c 3c
       -0.030603621 0.028126588 -0.03654018 0.0085470835
000170 64 fe ab 39 86 e8 9e bd 7a 05 82 bd 5e cf 9f bd
       0.00032805197 -0.07759194 -0.06348701 -0.07803224
000180 64 dd 29 bd c8 47 2a 3d 32 99 4e 3d 67 7e 38 bd
       -0.0414709 0.041572362 0.050439067 -0.04504242
000190 70 93 82 bd 2e 4d 81 bd c1 99 2a 3b 7e b7 c8 3c
       -0.06375778 -0.06313549 0.0026031586 0.024501558
0001a0 84 3b e0 bc e4 74 d0 bd 2b 3b 0b bc 91 51 2b bd
       -0.02737213 -0.10178545 -0.008497993 -0.041825835
0001b0 51 cd 9c 3d 71 44 22 bd bc db b3 bd d2 c4 b0 3b
       0.076563485 -0.039616052 -0.087821454 0.0053945566
0001c0 08 3d 81 bd 39 e2 3d 3d 9a 96 d6 ba fe 28 5b bd
       -0.06310469 0.04635832 -0.0016371787 -0.05350589
0001d0 4b b9 49 3d e9 34 26 bc 32 61 4f bc 29 08 b3 3c
       0.049248975 -0.010144451 -0.0126574505 0.021854477
0001e0 b7 e3 16 3d da 75 c5 3c d5 72 80 bc b5 6d e5 3b
       0.03683826 0.024104048 -0.015679756 0.0070016035
0001f0 50 e2 70 be 75 a0 a6 3d 2e 1c 9f bd a5 fb 04 3d
       -0.23523831 0.081360735 -0.07769047 0.03246655
000200 3d 55 d2 bd 5e 40 bd bd 96 bc 2a bd 90 ee 30 bd
       -0.10270164 -0.09240793 -0.041683756 -0.04319626
000210 be 0d 38 3d 69 4f 44 3d 1e b8 d6 bc 18 32 a5 bc
       0.04493498 0.047927294 -0.02621084 -0.020165488
000220 db c9 9a bd aa ee eb 3c c3 fe aa 3c 0e 7b 3d 3d
       -0.07558032 0.028800327 0.020873433 0.046259932
000230 49 9d 3f bd c2 08 de bc 4f 49 45 bd 90 45 34 bd
       -0.04678086 -0.027103785 -0.048165616 -0.044011652
000240 5e 06 ca bb f7 ee f5 bc 1d 22 a9 bd 14 02 99 3d
       -0.00616531 -0.030021174 -0.0825846 0.074710995
000250 2b 5e a2 3c cb 51 86 bb e8 e3 00 bd 26 f1 64 bd
       0.019820293 -0.004099106 -0.03146735 -0.05589404
000260 cb 68 28 bd 6c ce 7a bd 03 84 26 3d 27 02 91 3d
       -0.041115563 -0.061232015 0.04065324 0.07080489
000270 18 37 2e bc 74 82 19 bd 8d 56 81 bb 4d 3f 7b 3d
       -0.010633253 -0.037477925 -0.0039470852 0.061339665
000280 d3 c1 85 bd 5e c6 2b 3b af 41 4d bd 6b c3 c7 3c
       -0.0653111 0.0026210765 -0.05011147 0.024385175
000290 e0 15 3d bc 96 3d 4c 3d 43 66 b4 bd e1 c2 1a 3d
       -0.01154086 0.04986342 -0.088085674 0.037783507
0002a0 42 dd 3f bd ed 51 a5 bc 20 6f 8f 3d d6 a7 93 bd
       -0.046841867 -0.020180667 0.07003617 -0.072097465
0002b0 ba 24 63 bd 11 49 05 3d b2 0a e8 bc 51 ce 60 bd
       -0.055454947 0.032540385 -0.028325412 -0.05488426
0002c0 c0 0a 45 bd 91 39 c5 3c e7 b9 b9 3a cf 1a ad bb
       -0.048105955 0.024075301 0.0014169783 -0.005282737
0002d0 06 2d 8e bd 86 62 95 bd ca b5 9d bd 6b c7 31 3d
       -0.06942181 -0.072941825 -0.07700689 0.04340307
0002e0 2a ef 44 bd 2e 03 94 bd 6f a2 40 bd 97 ab f8 bd
       -0.048079647 -0.07227169 -0.04702991 -0.12142103
0002f0 72 9f e6 3c df 85 3e bd 82 8b 64 bd 97 cb 37 be
       0.028152201 -0.04651439 -0.055797108 -0.17948757
000300 50 e1 1b bd 1d 54 bf bc 0d 77 f2 3c bd 39 50 bd
       -0.03805667 -0.023355538 0.029597783 -0.050836314
000310 1f 68 f3 bc 42 f0 0b 3d 3b 62 e9 bd 6c 52 a7 bc
       -0.029712735 0.034164675 -0.11395689 -0.020425044
000320 17 9b 91 bd 64 0d 99 bd 82 9e 95 3c 1e 00 70 3d
       -0.07109659 -0.07473257 0.018264059 0.05859386
000330 1f da 05 3d 1d ae 83 3c 60 3a 8f bc ca e6 50 bb
       0.03267872 0.016074235 -0.01748389 -0.0031875842
000340 4c 75 3e 3d 9f 1f 27 bd 20 26 a0 3b 9d 48 af bd
       0.04649858 -0.04080164 0.0048873574 -0.08558772
000350 84 a6 39 bd 49 95 31 bc 02 5c 86 bc bf 6a 80 3d
       -0.045324817 -0.010838815 -0.016401295 0.0627036
000360 af ae 21 3d 42 d5 a5 bd ca 63 91 bd 4c 96 d4 bd
       0.039473232 -0.08097316 -0.070991114 -0.10380229
000370 c7 d8 95 bd 92 eb 97 3d 89 a3 60 3d db 73 b2 3b
       -0.073167376 0.07417978 0.05484346 0.00544594
000380 a3 39 bc bd 68 97 86 3a f2 d9 68 3d 1b 98 85 3d
       -0.09190681 0.0010268511 0.056848474 0.065231524
000390 5c 37 6d 3c fe e8 1d be b4 48 90 bd 47 6e c4 bd
       0.014478531 -0.1542091 -0.07045117 -0.09591346
0003a0 d3 5e 3f bc b1 73 d7 bd eb 37 1f 3b 9e b8 b2 3c
       -0.011680323 -0.10520113 0.0024294804 0.021816548
0003b0 fe cf 13 3d e5 11 91 bd 88 41 fe bd bb c1 94 bd
       0.03608703 -0.07083491 -0.12414843 -0.07263514
0003c0 f6 fa 00 3d 52 cc ed 3b b2 a7 a2 bd 6e 97 e8 bc
       0.031489335 0.007257023 -0.079421416 -0.02839252
0003d0 3d 5d 15 bd 6d 13 87 3c 38 2f 86 3d e2 14 a2 3d
       -0.036465872 0.016488755 0.06551975 0.07914139
0003e0 27 52 61 3d 90 85 4b 3d d6 45 96 3c 9d 13 2f 3d
       0.055009987 0.049687922 0.018343847 0.042743314
0003f0 9d 22 9a be 99 fa b0 bc 04 09 10 be 01 89 52 3d
       -0.30104533 -0.02160387 -0.14065939 0.05140019

category_policy.bias f4 [13]
000000 68 eb 8d bd 1e b5 9d bd c0 b5 36 bc 51 97 4d 3d
       -0.06929666 -0.07700561 -0.011151731 0.050193135
000010 ba e9 76 3d c3 3c 19 bd 13 48 bc 3c 82 3b 76 3d
       0.060281493 -0.037411463 0.022983586 0.060115345
000020 72 fc 52 3c e9 3a 5f bc c0 18 c9 3b 93 06 0d 3c
       0.01287757 -0.013624885 0.0061369836 0.008607524
000030 9e 70 8f 3c
       0.017509755

value.weight f4 [1, 128]
000000 73 df 5a bc 0b ab 94 bd da 25 87 bc f6 60 09 bd
       -0.0133589385 -0.07259186 -0.016497541 -0.033539735
000010 df 77 8a 3d c2 1b b4 bc d5 d8 8d bd 40 41 14 ba
       0.06761145 -0.021985892 -0.06926123 -0.0005655475
000020 82 a1 db bb b8 09 7f bd df cc 9a 3c 55 62 6e 3d
       -0.006702603 -0.062265128 0.018896518 0.058199245
000030 3e 17 4f bc 0b 30 e7 3c 73 73 fa bc cd 68 0a 3d
       -0.012639819 0.02822115 -0.030572629 0.033791352
000040 b6 fc 68 bd ca 07 f6 bc 24 b5 2f bc a0 3c 95 3a
       -0.05688163 -0.030033011 -0.01072434 0.0011385866
000050 b9 5b b0 3d af 0f 8b 3d 35 e4 b7 3c db 2c 16 bd
       0.08611245 0.06790101 0.022447685 -0.03666387
000060 be b0 44 bd 8f 15 e9 ba 6d 7e 1a bc 70 bc 84 3d
       -0.048020117 -0.0017782914 -0.009429556 0.06481254
000070 b8 a5 a5 bd 69 4b 88 3c 4a 46 31 bb 18 8e b3 bc
       -0.08088249 0.01663752 -0.0027049952 -0.021918342
000080 b6 e5 67 3d f6 65 eb 3c 81 a0 a6 3d 7b 6f 24 ba
       0.056615554 0.028735142 0.081360824 -0.00062727154
000090 b6 5f dd 3c 38 38 ac bd e7 cb 8e bd 70 91 c7 3c
       0.027023178 -0.084091604 -0.06972485 0.024361342
0000a0 a7 c6 13 3d b4 7e 8f bd 85 b3 15 3d 5f 3f 91 3d
       0.03607812 -0.070065886 0.036548156 0.07092165
0000b0 04 72 a5 bb 1c 25 6e bd d8 f2 2d 3c 1a 8c a7 3c
       -0.005048992 -0.05814086 0.0106169805 0.020452548
0000c0 00 55 21 3d 61 e9 94 3d 09 2f 2c bd e1 3d 8e 3d
       0.039387703 0.07271076 -0.042037044 0.06945396
0000d0 24 e3 38 3d 96 aa 57 3d 44 ec bd bc 5d 8d 40 bd
       0.045138493 0.052652918 -0.02318395 -0.047009815
0000e0 de 4b c4 bc b8 6b ac bd aa b6 44 3d a4 17 10 bc
       -0.023961958 -0.08418983 0.048025765 -0.008794699
0000f0 5a e4 63 bd 88 75 01 bd 78 2b ad bd 47 29 89 3d
       -0.055637695 -0.031606227 -0.08455557 0.06697326
000100 e0 79 ab bd 75 8e c6 bc b9 e8 75 3d 8b d4 7a 3b
       -0.08372855 -0.02423785 0.060036395 0.0038273658
000110 1d c1 12 3d 88 1d 55 bd bf d1 8b bd 39 a5 2e 3d
       0.0358287 -0.052030116 -0.06827115 0.042638037
000120 eb 2e 7b 3c 94 68 ab 3d 01 da 3a 3b 86 2e 07 bd
       0.01533101 0.08369556 0.0028511288 -0.033003353
000130 c5 ab 84 3d 44 fc 8a 3c 1c ce cc 3c 54 3b 93 3d
       0.06478075 0.016965993 0.025000624 0.0718905
000140 83 81 95 bd 85 05 4b bd c8 01 89 3d 62 45 82 3d
       -0.07300093 -0.04956581 0.06689793 0.0636089
000150 8b 40 89 3d a0 ce fd 39 6b a4 34 bd 53 07 63 3d
       0.06701764 0.00048409868 -0.044102114 0.055426907
000160 04 99 af 3d 97 83 b9 bb 09 23 26 3d 16 13 cf bc
       0.08574107 -0.0056614387 0.040560756 -0.025277656
000170 6d 2e 4e 3d 05 4d 15 bd bc 3a 8f bd b1 ac d2 3c
       0.050337244 -0.036450405 -0.069936246 0.025717111
000180 b1 1a 8d bd 64 ad 9f bd 12 ed d0 bc 66 12 84 bc
       -0.068898566 -0.077967435 -0.025503669 -0.016122054
000190 be a8 72 bb ef 3f 82 3d 6d 3f 77 bc 62 96 99 bd
       -0.0037026848 0.063598506 -0.0150908055 -0.07499386
0001a0 15 b2 e3 bc 1b 3b a9 bb e3 bd a7 ba 8c 8a a0 bb
       -0.027794877 -0.0051645166 -0.001279768 -0.0048993286
0001b0 ad 94 79 3d 46 b7 3d 3c 74 e7 97 bd 4e 96 76 bd
       0.060932804 0.01157934 -0.07417193 -0.060201935
0001c0 b9 32 9d 3d 41 fe 36 3d c0 13 81 3d 57 29 83 bc
       0.0767569 0.04467607 0.06302595 -0.016010923
0001d0 d1 e2 f2 3b 8d 73 75 3d 37 cc a2 3d bd 1a fc bc
       0.0074122925 0.05992465 0.07949107 -0.030774469
0001e0 a7 32 23 3c 50 91 a8 39 49 e6 a8 3d 8c 37 e4 3c
       0.009960807 0.00032151723 0.082470484 0.027858518
0001f0 b7 99 2b 3b 4b b5 9f bd 99 46 31 bc 3e ac 0e bd
       0.002618415 -0.07798251 -0.010820054 -0.03483223

exp_avg f4 [256, 23]
000000 61 56 1d bc dd 35 60 bc 50 ad 5a bc a6 9d c5 bc
       -0.009603114 -0.013684717 -0.013346985 -0.024123024
000010 d0 60 8a bc 00 00 00 00 8f 3c 8c 39 b1 be a3 bb
       -0.016891867 0.0 0.00026748 -0.0049970974
000020 a6 7e 33 bc 6a 80 24 b8 29 12 69 3a e1 14 8e bd
       -0.010955488 -3.9220242e-05 0.00088909507 -0.06937576
000030 33 c6 d3 bd 23 c0 e5 bd 4e fb 5f 3b 17 e3 6d bb
       -0.10340538 -0.11218288 0.003417689 -0.0036298686
000040 82 95 9e bb 1b 61 10 b5 8a 38 d2 bd 00 00 00 00
       -0.0048396 -5.378549e-07 -0.1026469 0.0
000050 e9 69 a8 2b 00 00 00 00 00 00 00 00 7d 7e e6 3a
       1.1966514e-12 0.0 0.0 0.0017585304
000060 2f 49 8a 39 65 23 66 3a 78 ba 97 3a 00 e2 04 3a
       0.00026375937 0.0008779078 0.0011575958 0.0005069077
000070 00 00 00 00 5c e7 da 38 d4 13 85 3a 9e 5d ce 3a
       0.0 0.00010438144 0.0010153004 0.0015744453
000080 1e 0b 0b 3a 54 96 6c 39 5c 5e 1a 3c 76 ca 57 3c
       0.0005304086 0.00022562715 0.009421911 0.013170829
000090 2c 7b 67 3c 7d eb 19 b4 40 2b 55 3a 71 72 3d 36
       0.014128488 -1.4334906e-07 0.000813175 2.8229808e-06
0000a0 ac 91 aa b4 ae 16 61 3c 00 00 00 00 6d 3b d3 aa
       -3.1770958e-07 0.013738317 0.0 -3.7522364e-13
0000b0 00 00 00 00 00 00 00 00 11 fa 15 b9 a7 ea 83 ba
       0.0 0.0 -0.00014302904 -0.0010064439
0000c0 03 c5 a4 ba 6e f6 19 bb b4 5a 89 ba 00 00 00 00
       -0.0012570921 -0.002349283 -0.0010479302 0.0
0000d0 96 f9 72 39 fc e5 26 b2 4a 5e 9f 39 1b 96 1c 3a
       0.00023171896 -9.714764e-09 0.00030397094 0.0005973295
0000e0 ee 19 96 b9 7e 1e ab 3a 3a 80 0c 3a 01 0d 32 ba
       -0.0002862955 0.0013055352 0.00053596834 -0.0006792099
0000f0 f7 dd a9 3a f6 5b cd 3a 06 71 6d 3a 9c 19 bf b3
       0.0012959827 0.0015667665 0.00090576743 -8.898789e-08
000100 38 5a 2f bc 00 00 00 00 2d 26 c4 2b 00 00 00 00
       -0.010702662 0.0 1.3937234e-12 0.0
000110 00 00 00 00 ca 15 e6 3b b7 7f eb 3b bb 45 01 3c
       0.0 0.0070216404 0.0071868557 0.00789016
000120 df 5d 08 3c 61 b7 15 3c 00 00 00 00 ce e3 31 3a
       0.008323162 0.009137959 0.0 0.00067859597
000130 e6 ff ea 3a f6 0a c4 3a 65 d7 fa 39 c9 2c ad 3b
       0.0017929047 0.001495688 0.00047844197 0.00528488
000140 ee 82 bd 3c 57 34 41 3d 55 c3 d5 3c 05 47 d8 3b
       0.023133721 0.047169056 0.026094118 0.006600263
000150 f7 6f 06 bc ab 62 57 bb 8f e8 f3 32 cf f6 25 3d
       -0.008205405 -0.0032865207 2.8394679e-08 0.04051858
000160 00 00 00 00 3b 6f 12 2c 00 00 00 00 00 00 00 00
       0.0 2.0809593e-12 0.0 0.0
000170 a9 cd 09 3a b1 d7 95 3a cd c2 87 3a b5 bd 5f 3a
       0.0005256781 0.0011432079 0.0010357738 0.00085350435
000180 40 66 9e 39 00 00 00 00 41 87 ad 39 99 73 a9 9f
       0.0003021229 0.0 0.00033097903 -7.1765524e-20
000190 ce 6f 0d 3a de b8 3c 3a 2a 37 40 3b 09 84 0d 3b
       0.00053953833 0.0007199178 0.0029329755 0.0021593592
0001a0 5d be 04 3b 1f 37 02 28 85 e6 9f 3b 0e e8 b0 3b
       0.0020255067 7.228402e-15 0.004879775 0.005398757
0001b0 1e d0 eb 3b 26 d7 39 15 ba 5e 4d 3b 00 00 00 00
       0.0071964404 3.7530175e-26 0.003133698 0.0
0001c0 00 00 00 00 00 00 00 00 00 00 00 00 c7 5e 19 3c
       0.0 0.0 0.0 0.009360976
0001d0 f0 56 54 3c e8 2d 44 3c cc f6 02 3c 24 5e 65 3b
       0.012960181 0.0119738355 0.007993411 0.003499874
0001e0 00 00 00 00 29 34 9a b6 e3 63 9a 3b 1a f7 4a 3c
       0.0 -4.59563e-06 0.0047116145 0.012388015
0001f0 21 64 b2 b7 f0 c3 e6 b7 95 d1 7e 3d 6f b1 b8 3d
       -2.126588e-05 -2.7509377e-05 0.06221159 0.09018218
000200 da f7 df 3d 7c 38 86 30 41 90 90 b8 69 10 32 22
       0.10935946 9.765837e-10 -6.8933245e-05 2.4132186e-18
000210 22 ce 72 2d 71 9d b9 3d 00 00 00 00 da 64 1b 2b
       1.3801878e-11 0.09063233 0.0 5.520702e-13
000220 00 00 00 00 00 00 00 00 8b b8 75 bc e3 1a 81 bc
       0.0 0.0 -0.014997612 -0.01575989
000230 c4 2a 74 bc 38 91 37 bc 2f c8 50 bc 00 00 00 00
       -0.014902774 -0.011204056 -0.01274304 0.0
000240 08 ed 69 ba f8 eb c5 bb 5a 4a 70 bc 58 63 2c bb
       -0.0008923565 -0.0060400926 -0.014666164 -0.002630433
000250 89 8f 94 bb 2a 20 ac bd a2 e2 ee bd d9 dd ee bd
       -0.0045337123 -0.08404572 -0.116643205 -0.11663408
000260 23 fd b5 bb fd 08 74 bc 0f 83 11 bc de 79 80 36
       -0.005553858 -0.014894721 -0.008881344 3.8288845e-06
000270 31 b6 fa bd 00 00 00 00 5c 02 0f ad 00 00 00 00
       -0.122417815 0.0 -8.129133e-12 0.0
000280 00 00 00 00 59 4b ab 37 87 5b 14 38 16 52 46 38
       0.0 2.0419875e-05 3.537119e-05 4.7283327e-05
000290 bd e2 42 37 d8 b0 45 38 00 00 00 00 29 8b 02 37
       1.1616093e-05 4.713316e-05 0.0 7.781005e-06
0002a0 11 17 57 29 69 34 63 38 0d 29 1c 38 52 56 bd 38
       4.7759597e-14 5.416983e-05 3.723153e-05 9.028301e-05
0002b0 69 34 63 38 a8 a1 24 a9 00 00 00 00 00 00 00 00
       5.416983e-05 -3.655553e-14 0.0 0.0
0002c0 00 78 8f 39 e2 25 33 28 00 00 00 00 b9 6b 52 39
       0.00027364492 9.944711e-15 0.0 0.0002006729
0002d0 00 00 00 00 00 00 00 00 00 00 00 00 00 00 00 00
       0.0 0.0 0.0 0.0
0002e0 88 f6 2b ba b9 ac ab ba c3 84 03 ba 90 61 31 39
       -0.00065598683 -0.001309774 -0.00050170365 0.0001691638
0002f0 42 68 c0 ba 00 00 00 00 18 90 37 ba 38 57 f9 b1
       -0.0014679509 0.0 -0.00070023676 -7.2567694e-09
000300 3e a1 ba ba c5 98 94 ba 49 ae 3c bb 91 1f 05 bb
       -0.0014238728 -0.0011337033 -0.0028790405 -0.0020313004
000310 90 3b c6 bb 42 95 d4 2d 8c 5e d8 bb 0f f0 04 30
       -0.006049581 2.4167893e-11 -0.0066030677 4.8362464e-10
000320 5b 6f 3d 04 c9 26 31 2e 51 44 49 bb 00 00 00 00
       2.2267975e-36 4.027959e-11 -0.0030710886 0.0
000330 16 58 11 03 00 00 00 00 00 00 00 00 c7 a9 a9 ba
       4.271279e-37 0.0 0.0 -0.0012944274
000340 1a 10 a0 ba bf 18 81 ba ee ff 2a 3a df 18 ac ba
       -0.001221183 -0.0009849294 0.0006523122 -0.0013129971
000350 00 00 00 00 92 b8 c5 b2 da 6d 7e ba b7 7e 91 ba
       0.0 -2.3017751e-08 -0.00097057 -0.0011100386
000360 31 f6 da ae 1d 74 33 b4 21 7f fe bb c4 cd 37 bc
       -9.9572246e-11 -1.6712916e-07 -0.00776662 -0.011218492
000370 ab df 3e bc ae 8b 95 b4 82 71 b3 b4 aa 40 ef b4
       -0.011650006 -2.7855043e-07 -3.3423936e-07 -4.4564268e-07
000380 38 85 15 b5 b7 cd 37 bc 00 00 00 00 25 ef 70 2b
       -5.5700684e-07 -0.01121848 0.0 8.559701e-13
000390 00 00 00 00 00 00 00 00 54 63 3f 3b ed ff 32 3b
       0.0 0.0 0.0029203491 0.0027313188
0003a0 93 13 1c 3b 78 64 39 3b 4d 71 9c 3b 00 00 00 00
       0.0023815378 0.0028288644 0.0047742487 0.0
0003b0 4d f9 a1 39 f8 29 7a 3a c2 6b 3d 3b 14 9a 35 3a
       0.00030894057 0.0009542997 0.002890334 0.00069275615
0003c0 71 db 17 3b 87 1d 85 3c e8 d1 c1 3c 6b 15 b3 3c
       0.0023171569 0.016249431 0.023659661 0.021860799
0003d0 e0 58 7d 3b f5 01 a1 3b 83 a6 ca 3b 6a e7 4d 35
       0.003865771 0.0049135634 0.0061844005 7.6705203e-07
0003e0 4d 81 bf 3c 00 00 00 00 6d 12 8f ac 00 00 00 00
       0.023377085 0.0 -4.06635e-12 0.0
0003f0 00 00 00 00 46 2c bd b8 1f 0e b7 b8 fd 04 34 b9
       0.0 -9.020469e-05 -8.72875e-05 -0.00017167996
