checkpoints/improved_pretrain_pretrain/best_model.pt (torch, 802613 bytes, 25 tensors)

shared.0.weight f4 [512, 23]
-0.11973109 -0.0028793807 -0.19716774 0.13043743 -0.081636906 -0.0006469029 -0.07373949 0.056730933
0.19417356 0.17412789 0.04903729 -0.12766331 -0.07779402 0.13397892 0.14658296 -0.08964414
-0.06252186 0.0027413967 0.107404575 -0.00019411574 -0.023172786 0.008344921 2.1226785e-09 -0.120836325
-0.17043747 0.03473116 0.10370477 0.100135714 -2.6076014e-10 -0.04592329 0.19959164 0.0054403488
-0.14210914 -0.076871306 0.0010966475 0.062006433 0.07606555 0.1364046 0.02421119 -0.119943
-0.03566846 0.12975945 -0.0019697796 -0.058726385 0.0068283803 -0.0014585512 0.12777059 -0.015080865
-0.03410623 -0.119652905 0.076506175 -6.012117e-10 -0.06845258 0.03224452 0.20789649 0.22658409
0.15450947 0.14060256 0.073097005 -0.053611867 0.029744454 0.08239391 -0.041242097 0.06536885
-0.15695322 0.0026690704 0.024411406 0.00012631394 -0.0017634736 -0.052846458 0.11472139 0.03426529
0.013699121 -0.1654519 -0.0010207654 0.0018482696 -0.050852794 -0.068021424 0.049257677 -0.20672342
-0.1024166 -0.11352666 0.002127046 0.10037089 -0.10492137 -0.06746797 0.099489085 0.14436795
-0.015384492 -0.012917221 2.4326648e-05 -0.00583191 -0.14155914 -0.10890837 -0.19211969 -0.040104125
0.047483176 0.004792337 0.08493286 0.033827554 -0.13778633 -0.11296059 -0.09914543 0.038727988
0.07208731 0.09880347 -0.086296104 -0.05069026 0.1784152 -0.09987029 0.051016036 -0.00023359567
0.009427906 0.007301054 0.013339398 0.06735887 0.15982933 0.042318508 0.0008575553 -0.09044627
-0.015647883 0.049610082 0.0061438438 0.14130382 0.037039146 -0.031398755 -0.07877129 -0.06909359
0.13239452 0.060161714 0.18488 -0.13081941 -0.066463076 -0.11806692 -0.015536422 -0.0044844723
-6.729473e-05 -0.0027753217 0.112625375 0.16136487 0.019610459 0.05110214 -0.035279322 -2.8576501e-09
-0.18515004 -0.06915088 0.093261324 -0.1845576 -0.11988102 -0.14895198 -0.017069926 -0.20362276
0.06391794 0.08679661 -0.050520904 0.060846493 0.1636786 0.00033172857 0.013808044 5.408085e-08
0.00013473694 0.1889627 0.18513282 0.027098374 0.03007228 -0.085961916 0.0026195352 0.06359855
0.034064993 -0.124561764 -0.18066776 -0.18358988 0.104836926 -0.04957725 -0.055358626 -0.073228985
0.15898281 -0.028122397 -0.03776111 -0.21099351 -0.008857145 0.009981165 -6.867044e-08 -4.7772697e-05
0.1828189 0.14266741 -0.12096894 -0.15640618 0.0389636 -1.0958419e-05 0.096165255 -0.08313339
0.105212316 -0.2318977 0.23726971 0.06317648 -0.069851525 0.10058871 0.18421596 -0.011878055
-0.008683246 0.105535306 0.12784757 -0.020088065 0.067404166 -0.003128832 -6.1942758e-09 -0.061850835
0.041391816 -0.11072026 0.048309244 -0.09084394 -0.017799772 -0.03907384 -0.00088072324 0.051157758
-0.1455777 0.018121855 0.07663548 0.08397953 0.1813023 -0.017536018 -0.1280249 0.11228836
0.021851674 0.0978621 -0.017391857 -0.029388875 -1.2590696e-07 1.9219204e-09 0.13652223 0.01186398
0.11547973 0.12473208 0.0034599088 1.8029437e-08 0.11965539 0.20516682 0.17305723 -0.12406928
0.016131708 -0.17871489 0.18529285 -0.1874313 0.06985179 -0.08354546 -0.06523495 0.15463018
0.100398116 -0.0022764644 0.08422345 0.018982839 -1.8998352e-09 -0.018271752 0.16023974 0.16095813
00000000: 9335 f5bd feb3 3cbb 57e6 49be 6491 053e
00000010: 4031 a7bd eb94 29ba bb04 97bd b25e 683d
00000020: 6fd5 463e 954e 323e 53db 483d 2cba 02be
00000030: 7952 9fbd c531 093e d819 163e 5997 b7bd
00000040: 760b 80bd 01a9 333b eef6 db3d 8c8b 4bb9
00000050: dbd4 bdbc 23b9 083c 8ede 1131 0979 f7bd
00000060: 2987 2ebe 4342 0e3d 2b63 d43d f413 cd3d
00000070: ba5a 8faf 0f1a 3cbd c061 4c3e f444 b23b
00000080: 0f85 11be b46e 9dbd 62bd 8f3a 75fa 7d3d
00000090: 41c8 9b3d a6ad 0b3e 8c56 c63c ada4 f5bd
000000a0: 1719 12bd a9df 043e 6b17 01bb 148b 70bd
000000b0: 9bc0 df3b db2c bfba 4bd6 023e bb15 77bc
000000c0: f9b2 0bbd 950c f5bd 45af 9c3d 8342 25b0
000000d0: de30 8cbd d412 043d d1e2 543e a905 683e
000000e0: bb37 1e3e 1efa 0f3e e2b3 953d 1e98 5bbd
000000f0: a4aa f33c 23be a83d 79ed 28bd 1be0 853d
00000100: 58b8 20be 92eb 2e3b 6efa c73c 2473 0439
00000110: 5b24 e7ba 8775 58bd 0cf3 ea3d c359 0c3d
00000120: 4772 603c 396c 29be 34cb 85ba a341 f23a
00000130: 054b 50bd d14e 8bbd 6bc2 493d 4eaf 53be
00000140: cbbf d1bd aa80 e8bd e965 0b3b 418f cd3d
00000150: 04e1 d6bd a62c 8abd efc0 cb3d 31d5 133e
00000160: 3d0f 7cbc c0a2 53bc 1411 cc37 9b19 bfbb
00000170: e1f4 10be 5a0b dfbd 06bb 44be 3944 24bd
00000180: b87d 423d 0909 9d3b 48f1 ad3d c38e 0a3d
00000190: dc17 0dbe e257 e7bd c20c cbbd 3da1 1e3d
000001a0: 83a2 933d 7959 ca3d 03bc b0bd 97a0 4fbd
000001b0: 79b2 363e cb88 ccbd 31f6 503d 5cf1 74b9
000001c0: 8177 1a3c ae3d ef3b 7e8d 5a3c 72f3 893d
000001d0: 4daa 233e 2c56 2d3d 90cd 603a e53b b9bd
000001e0: fd2f 80bc f133 4b3d 4c52 c93b f3b1 103e
000001f0: 5cb6 173d fb9b 00bd d852 a1bd f180 8dbd
00000200: 6e92 073e 216c 763d 2f51 3d3e 86f5 05be
00000210: cb1d 88bd 12cd f1bd 7a8c 7ebc 7bf2 92bb
00000220: 9520 8db8 2ce2 35bb 22a8 e63d d53c 253e
00000230: 1da6 a03c 7a50 513d 0d81 10bd 5060 44b1
00000240: f997 3dbe fa9e 8dbd cbff be3d abfc 3cbe
00000250: 2e84 f5bd de86 18be 3bd6 8bbc 7c82 50be
00000260: 69e7 823d 6cc2 b13d 02ef 4ebd 2c3a 793d
00000270: 5d9b 273e dbeb ad39 223b 623c 8646 6833
00000280: 2c48 0d39 707f 413e 7593 3d3e 69fd dd3c
00000290: 245a f63c cd0c b0bd 82ac 2b3b f53f 823d
000002a0: bc87 0b3d 3d1a ffbd f800 39be fcfe 3bbe
000002b0: beb4 d63d 8411 4bbd babf 62bd 14f9 95bd
000002c0: 64cc 223e f160 e6bc 65ab 1abd af0e 58be
000002d0: 8f1d 11bc 0a88 233c f977 93b3 8b5f 48b8
000002e0: e134 3b3e 6817 123e 90be f7bd f128 20be
000002f0: 4c98 1f3d 0dda 37b7 4af2 c43d d741 aabd
00000300: 8e79 d73d 9776 6dbe d5f6 723e ac62 813d
00000310: 510e 8fbd 7401 ce3d 1ca3 3c3e 2c9c 42bc
00000320: 2c44 0ebc e522 d83d 79ea 023e ba8f a4bc
00000330: 320b 8a3d 170d 4dbb 6dd5 d4b1 4d57 7dbd
00000340: 778a 293d 4ec1 e2bd eadf 453d 630c babd
00000350: d4d0 91bc e40b 20bd 56e0 66ba cc8a 513d
00000360: 5212 15be 4974 943c 10f3 9c3d 76fd ab3d
00000370: 4fa7 393e b2a7 8fbc f618 03be 71f7 e53d
00000380: 4802 b33c ed6b c83d 5e79 8ebc f0c0 f0bc
00000390: 0b31 07b4 c812 0431 7ccc 0b3e 2461 423c
000003a0: a380 ec3d 8873 ff3d a3bf 623b 27df 9a32
000003b0: e30d f53d 4017 523e ea35 313e 0918 febd
000003c0: a526 843c 0901 37be 69bd 3d3e feed 3fbe
000003d0: 750e 8f3d e219 abbd e799 85bd 6057 1e3e
000003e0: 879d cd3d bc30 15bb 587d ac3d e681 9b3c
000003f0: 418e 02b1 a4ae 95bc e315 243e 35d2 243e

shared.0.bias f4 [512]
0.014334431 2.9876348e-05 -0.097662434 0.10355661 0.1169904 -0.16481252 -0.06623796 0.020197144
-0.035742458 0.14256805 -0.04454566 -0.18103595 -0.16285606 0.032206554 0.17193364 -0.0145332655
-0.03675695 0.11039145 0.09636091 0.022943124 0.060093097 -0.08543912 0.0472916 -0.13522285
0.05965877 0.033958733 -0.025550984 0.06479093 -2.388305e-05 0.14614618 0.06655252 -0.16146958
-0.09120093 -0.022022424 0.16874312 -0.09932266 0.10191116 -0.03443636 -0.15244232 -0.14076602
0.11556382 -0.1715758 -0.014067911 0.024811635 -0.020700809 -0.014411725 0.12979867 -0.1148062
-0.119461976 -0.13781244 0.006997305 -0.0707969 0.10075348 0.103373416 -0.11746952 0.027420994
-0.08625575 0.18165994 0.0617714 0.038764272 -0.048927296 -0.006142848 0.13633917 0.17833991
0.0777895 0.025590554 0.11107894 -0.072736785 0.1762507 0.14985898 -0.17710593 -0.13617903
0.13433851 -0.1534126 -0.17319657 -0.12813336 0.02202673 0.027366687 -0.090355486 -0.09237446
0.034069594 0.019956363 -0.10578659 0.0457737 0.04076481 -0.013582801 -0.09616473 0.13389224
-0.12087177 0.10557668 -0.09737862 0.06084468 0.15972689 0.055798657 0.02691129 -0.06283252
0.018387757 0.15809777 -0.0475992 -0.08650442 0.103033155 -0.13790108 0.17419149 0.0027324297
0.08681433 -0.1263674 -0.117690556 -0.14175269 -0.1848575 -0.10187956 -0.12218311 0.008742645
-0.16256307 0.08155717 0.16247456 -0.16480479 0.09513801 -0.17182903 0.082069725 -0.16625366
0.076297045 -0.13800393 -0.06871105 0.15961659 0.17356786 0.053915527 -0.082329154 0.10744406
-0.035998877 0.051619958 -0.031100815 0.12686291 0.007178734 -0.13784762 0.124454886 -0.19192432
0.03645311 0.18080191 0.038081154 -0.1527418 0.09244791 -0.12662195 -0.091621265 0.04245103
0.11355161 0.039409872 -0.01356783 -0.06782043 0.12439694 -0.07573501 -0.03149852 0.017300043
-0.008656019 0.15728447 -0.20614992 -0.005035355 0.117726445 0.14606665 0.20673051 -0.0053283325
0.12586613 -0.047778867 -0.04216579 0.056053977 0.05950101 0.0870887 -0.013917664 0.19042253
-0.019994577 0.014391516 -0.024891641 0.13516735 -0.08328507 0.1350466 -0.16664177 -0.10305287
0.17051509 0.13439146 0.018344896 -0.079872824 -0.0020370013 0.035082914 0.05005628 -0.1363828
-0.052515928 -0.059409034 -0.03994483 0.02010176 -0.17742072 -0.047881946 0.01379867 -0.11121274
-0.13559017 -0.019872544 0.18352367 0.023227537 0.025889546 0.013482378 0.09941892 -0.03972203
-0.061647717 -0.03583922 -0.18758388 -0.023834813 0.08995174 -0.07832079 0.13511449 0.14192134
-0.14725353 0.18608788 0.14515695 -0.09316014 0.12138735 0.13093384 -0.049357917 -0.15326841
0.15122105 -0.085036784 0.1610936 0.0046035904 -0.016935121 -0.17282496 0.07519466 0.1509513
-0.004575083 -0.015327924 0.13058102 0.067884035 0.08441275 -0.10144571 0.1638343 0.1538586
-0.010901078 -0.029916888 -0.029200166 0.03493414 -0.10375886 0.1084569 -0.19366178 0.06842655
0.09034787 0.024232917 0.07093116 0.06268373 0.055721007 0.07762026 0.054889064 0.060192585
-0.13873485 -0.024674589 0.012285213 0.17956494 0.14899491 0.1032876 0.06533723 0.1918949
00000000: f6da 6a3c f89e fa37 3e03 c8bd 7d15 d43d
00000010: aa98 ef3d 9dc4 28be c4a7 87bd 7b74 a53c
00000020: af66 12bd 5cfd 113e 8375 36bd 7d61 39be
00000030: bdc3 26be 05eb 033d 5f0f 303e ef1c 6ebc
00000040: 758e 16bd ea14 e23d de58 c53d 38f3 bb3c
00000050: 2e24 763d b5fa aebd d6b4 413d dc77 0abe
00000060: c15c 743d 5018 0b3d 4c50 d1bc 1bb1 843d
00000070: 7658 c8b7 58a7 153e b04c 883d 4858 25be
00000080: 8ec7 babd 5f68 b4bc ffca 2c3e ae69 cbbd
00000090: ccb6 d03d 240d 0dbd d719 1cbe f824 10be
000000a0: b9ac ec3d 91b1 2fbe 187d 66bc c541 cb3c
000000b0: be94 a9bc 281f 6cbc f1e9 043e 831f ebbd
000000c0: 7ba8 f4bd b41e 0dbe a649 e53b f7fd 90bd
000000d0: d757 ce3d 71b5 d33d dc93 f0bd fea1 e03c
000000e0: dba6 b0bd 1005 3a3e 0204 7d3d 49c7 1e3d
000000f0: fd67 48bd f249 c9bb 7f9c 0b3e bd9e 363e
00000100: 1a50 9f3d 48a3 d13c 5b7d e33d 06f7 94bd
00000110: 107b 343e a274 193e 425b 35be 8472 0bbe
00000120: 0990 093e 3118 1dbe 715a 31be 6435 03be
00000130: 6771 b43c 1a30 e03c 4c0c b9bd d22e bdbd
00000140: 8f8c 0b3d 877b a33c a4a6 d8bd 347d 3b3d
00000150: 00f9 263d 668a 5ebc 04f2 c4bd 0c1b 093e
00000160: 9e8b f7bd 9638 d83d 716e c7bd 4538 793d
00000170: 728f 233e 228d 643d 1175 dc3c 56ae 80bd
00000180: eca1 963c 62e4 213e 61f7 42bd 3b29 b1bd
00000190: 0c03 d33d f135 0dbe 415f 323e 9012 333b
000001a0: b6cb b13d 7566 01be bf07 f1bd 9e27 11be
000001b0: 494b 3dbe 3ba6 d0bd 233b fabd 503d 0f3c
000001c0: ef76 26be 7207 a73d bb5f 263e 96c2 28be
000001d0: b8d7 c23d f3f3 2fbe 2c14 a83d 663e 2abe
000001e0: a041 9c3d e750 0dbe 61b8 8cbd 8872 233e
000001f0: c6bb 313e 87d6 5c3d 309c a8bd a20b dc3d
00000200: 8f73 13bd 736f 533d 23c7 febc 5ae8 013e
00000210: 963b eb3b ed27 0dbe 34e2 fe3d cf87 44be
00000220: db4f 153d 2324 393e fcfa 1b3d 5968 1cbe
00000230: 5455 bd3d 2fa9 01be eea3 bbbd 22e1 2d3d
00000240: bf8d e83d 3f6c 213d 9b4b 5ebc 70e5 8abd
00000250: d3c3 fe3d f51a 9bbd 9804 01bd d2b8 8d3c
00000260: fad1 0dbc 2e0f 213e f718 53be 9fff a4bb
00000270: 901a f13d 7f92 153e 2ab1 533e 4b99 aebb
00000280: 0de3 003e c6b3 43bd 09b6 2cbd db98 653d
00000290: 55b7 733d 8f5b b23d ea06 64bc 20fe 423e
000002a0: abcb a3bc 65ca 6b3c 8ee9 cbbc 4f69 0a3e
000002b0: 5d91 aabd a849 0a3e 24a4 2abe 620d d3bd
000002c0: 829b 2e3e ea9d 093e 0948 963c 5d94 a3bd
000002d0: 367f 05bb 1ab3 0f3d d007 4d3d efa7 0bbe
000002e0: f11a 57bd e356 73bd 319d 23bd 72ac a43c
000002f0: c7ad 35be dc1f 44bd d113 623c 81c3 e3bd
00000300: 26d8 0abe bfcb a2bc a1ed 3b3e ad47 be3c
00000310: 5016 d43c 31e5 5c3c 269c cb3d 91b3 22bd
00000320: 5182 7cbd 25cc 12bd fd15 40be 3a41 c3bc
00000330: 9e38 b83d a666 a0bd 745b 0a3e d453 113e
00000340: a1c9 16be d28d 3e3e 06a4 143e beca bebd
00000350: ee99 f83d 8513 063e 872b 4abd 65f2 1cbe
00000360: b1d9 1a3e c427 aebd b8f5 243e b7d9 963b
00000370: 86bb 8abc 07f9 30be a8ff 993d fa92 1a3e
00000380: 94ea 95bb f921 7bbc 08b7 053e c906 8b3d
00000390: 98e0 ac3d c5c2 cfbd 2ec4 273e 1c8d 1d3e
000003a0: 6f9a 32bc 4314 f5bc 3035 efbc 1a17 0f3d
000003b0: 867f d4bd a71e de3d 464f 46be 3823 8c3d
000003c0: 4e08 b93d 1c84 c63c 5b44 913d 5460 803d
000003d0: b63b 643d 5ff7 9e3d 5bd3 603d 808c 763d
000003e0: 8210 0ebe 5d22 cabc eb47 493c dfdf 373e
000003f0: 1f92 183e 7388 d33d 87cf 853d 1980 443e

shared.1.weight f4 [512]
0.9389331 0.9287149 0.9606819 0.8760866 0.9383544 0.93608856 0.9929949 0.97041845
0.9750349 0.9573653 0.9725313 0.9716953 0.9911139 0.9419595 0.96587133 0.8995465
0.9729287 0.9140861 0.95095503 0.9445603 0.9081953 0.94641095 0.8461307 0.944381
0.8624443 0.875958 0.9707108 0.95524555 0.93891215 0.8295316 0.96673816 0.93934786
0.96954554 0.9365466 0.8809777 0.9438597 0.9672649 0.98315126 0.9184704 0.9743446
0.9684054 0.95826334 0.9589201 0.9944402 0.9399185 0.9616274 0.9338467 0.8993465
0.9635597 0.9601302 0.8489299 0.94549316 0.97965825 0.9732509 0.9925564 0.99809617
0.9789347 1.0031778 1.0012681 0.9505135 0.95434666 0.9615913 0.9734243 0.8956476
0.9478693 0.95551026 0.95522815 0.998787 0.93492687 0.9453409 0.9813949 0.9590524
0.9557602 0.9520302 0.99288917 0.9032643 0.9304417 0.98453444 0.9517973 0.90341926
0.965481 0.94396704 0.95974994 0.96486455 0.9494744 0.86419636 0.9000533 0.9170697
0.9536894 0.949299 0.96852195 0.986369 0.9357007 0.974845 0.8644371 0.983911
0.9306918 0.9615116 0.96343565 0.93669474 0.9497614 0.9395543 0.93508714 0.92310125
0.9663835 0.91038924 0.87196136 0.9121917 0.98441994 0.9763158 0.8368458 0.8620209
0.9759125 0.942023 0.80813795 0.9454612 0.9972102 0.9720091 0.84745127 0.944779
1.0128073 0.9713219 0.9557307 0.99211836 0.88823646 0.95682144 0.95384365 0.99338955
0.9522493 0.9450651 0.95357245 0.99512136 0.91458815 0.972955 0.94378453 0.9512893
1.0263855 0.95080465 0.9527153 0.866508 0.99611825 0.93846035 0.8448601 0.95782197
0.79004246 0.97738326 0.7562876 0.9261409 0.9655316 0.89901 0.9345449 0.9910393
0.9409888 0.96567357 0.9863783 0.955065 0.9593237 0.94854575 0.9151202 0.9713355
0.93013287 0.7959753 0.9511265 0.88318497 0.9466148 0.81537026 0.8631291 0.92381924
0.98816234 0.94025636 0.95397437 0.96545684 0.94315296 0.9212023 0.946762 0.9545389
0.9395699 0.96843845 0.9888001 0.98688275 0.89382666 1.0044785 0.95990723 0.9539265
0.9505998 0.9159738 0.93122613 0.86533177 0.97603285 0.907936 0.95671886 0.87275434
0.96246654 0.90921605 0.95599824 0.81307274 0.91975266 0.91865003 0.94150597 0.787437
0.8047612 0.7965608 0.96597725 0.9480737 1.0049708 0.97561264 0.96391755 0.93809205
0.9633147 0.975092 0.95577574 0.87124604 0.9710383 0.9494633 0.88055867 0.99259204
0.9930645 0.91368115 0.9236639 0.9799425 0.9209372 0.9941597 0.9594625 0.9458248
0.93385875 0.7424999 0.96785945 0.9679921 0.9402853 0.9272731 0.988658 0.9563847
0.73512423 0.83204687 0.9242247 0.97549784 0.9618422 0.9902405 0.93940043 0.9686176
0.8521103 0.90796673 0.95761234 0.91149634 0.9735479 0.9547281 0.92425597 1.0097796
0.9549113 0.96607834 0.9529798 0.9684009 0.8684286 0.80395335 0.9880226 1.0220648
00000000: eb5d 703f 42c0 6d3f 40ef 753f 3647 603f
00000010: fe37 703f 80a3 6f3f ea34 7e3f 586d 783f
00000020: e39b 793f e415 753f d0f7 783f 06c1 783f
00000030: a4b9 7d3f 4224 713f 5843 773f ae48 663f
00000040: db11 793f 8c01 6a3f ca71 733f b4ce 713f
00000050: 7d7f 683f fd47 723f 069c 583f f4c2 713f
00000060: 26c9 5c3f c93e 603f 8180 783f f98a 743f
00000070: 8c5c 703f 2f5c 543f 277c 773f 1a79 703f
00000080: 2334 783f 85c1 6f3f c187 613f caa0 713f
00000090: ac9e 773f cdaf 7b3f e020 6b3f a66e 793f
000000a0: 6be9 773f bf50 753f ca7b 753f a293 7e3f
000000b0: 809e 703f 372d 763f 9410 6f3f 923b 663f
000000c0: d9ab 763f 18cb 753f 7853 593f d70b 723f
000000d0: e2ca 7a3f f926 793f 2d18 7e3f 3b83 7f3f
000000e0: 779b 7a3f 2168 803f 8e29 803f da54 733f
000000f0: 1050 743f d92a 763f 5632 793f 2949 653f
00000100: 90a7 723f 529c 743f d589 743f 81b0 7f3f
00000110: 5e57 6f3f dc01 723f b23c 7b3f 7584 753f
00000120: b3ac 743f 40b8 733f fc2d 7e3f 543c 673f
00000130: 6d31 6e3f 730a 7c3f fda8 733f 7c46 673f
00000140: c329 773f d3a7 713f 2cb2 753f 5d01 773f
00000150: c110 733f f93b 5d3f e569 663f 14c5 6a3f
00000160: fd24 743f 4205 733f 0ef1 773f ae82 7c3f
00000170: 158a 6f3f 718f 793f c04b 5d3f 97e1 7b3f
00000180: d141 6e3f a025 763f b8a3 763f 3acb 6f3f
00000190: 9023 733f a186 703f df61 6f3f 5d50 6c3f
000001a0: e964 773f 450f 693f dc38 5f3f 6585 693f
000001b0: f202 7c3f d5ef 793f 873b 563f 67ad 5c3f
000001c0: 67d5 793f 6b28 713f 21e2 4e3f bf09 723f
000001d0: 2b49 7f3f 97d5 783f 91f2 583f 09dd 713f
000001e0: aba3 813f 8da8 783f c4aa 743f 78fb 7d3f
000001f0: 7763 633f 40f2 743f 192f 743f c74e 7e3f
00000200: 9cc6 733f c9ef 713f 531d 743f 46c0 7e3f
00000210: 7322 6a3f 9413 793f dd9b 713f b287 733f
00000220: 9a60 833f ef67 733f 26e5 733f 78d3 5d3f
00000230: 9b01 7f3f f03e 703f c048 583f d233 753f
00000240: 3940 4a3f ca35 7a3f 109c 413f 9217 6d3f
00000250: 142d 773f 8525 663f 563e 6f3f c0b4 7d3f
00000260: a4e4 703f 6236 773f 4a83 7c3f 247f 743f
00000270: 3d96 753f e5d3 723f 5145 6a3f 71a9 783f
00000280: 301d 6e3f 0ac5 4b3f 077d 733f 6918 623f
00000290: 5955 723f 1bbc 503f 07f6 5c3f 6b7f 6c3f
000002a0: 35f8 7c3f a4b4 703f aa37 743f 2e28 773f
000002b0: 7972 713f ead3 6b3f ff5e 723f a95c 743f
000002c0: a787 703f 95eb 773f 0122 7d3f 59a4 7c3f
000002d0: d3d1 643f c092 803f 7bbc 753f 8734 743f
000002e0: 825a 733f 427d 6a3f d664 6e3f 6286 5d3f
000002f0: 4add 793f 7e6e 683f 87eb 743f d46c 5f3f
00000300: 3564 763f 62c2 683f 4dbc 743f 8925 503f
00000310: e974 6b3f a62c 6b3f 8906 713f 7995 493f
00000320: d404 4e3f 69eb 4b3f 494a 773f f5b4 723f
00000330: e2a2 803f c0c1 793f 4dc3 763f cd26 703f
00000340: cb9b 763f a19f 793f b8ad 743f fb09 5f3f
00000350: f795 783f 0710 733f 4b6c 613f 831a 7e3f
00000360: 7a39 7e3f 02e7 693f 3d75 6c3f 83dd 7a3f
00000370: 8ac2 6b3f 4081 7e3f 569f 753f 9321 723f
00000380: 5e11 6f3f 7914 3e3f a3c5 773f 55ce 773f
00000390: 8ab6 703f c561 6d3f b118 7d3f a1d5 743f
000003a0: 1a31 3c3f 0601 553f fd99 6c3f 3aba 793f
000003b0: 4a3b 763f 6780 7d3f 8c7c 703f 53f7 773f
000003c0: e723 5a3f 8270 683f 1526 753f d357 693f
000003d0: 6f3a 793f 1069 743f 0a9c 6c3f 7540 813f
000003e0: 1175 743f e950 773f 7cf6 733f 1fe9 773f
000003f0: 5651 5e3f e3cf 4d3f 0def 7c3f 05d3 823f

shared.1.bias f4 [512]
-0.0061371047 -0.032741103 0.0042019603 -0.0008942195 -0.015087469 -0.010030904 -0.010387695 0.028065832
-0.012293127 -0.009387045 0.003347838 -0.018620586 -0.00574234 -0.033636987 -0.017807376 -0.030609906
0.0018012422 -0.010818631 0.00081114867 -0.022491837 0.019721339 -0.011701644 0.012895236 -0.00975702
0.034455072 -0.022983491 0.011692657 -0.029035693 -0.021259032 0.0029130308 0.0115655055 -0.013630832
-0.010530473 -0.03250176 0.0027638949 -0.01803678 -0.012480729 0.00074331445 -0.029295502 -0.022140231
-0.020907952 -0.027783973 0.0017685007 0.013841819 -0.005771591 -0.032374807 -0.019054718 -0.034734182
-0.027503269 -0.0077513033 0.021938294 0.008309704 -0.015891716 0.0021081986 0.014459871 -0.01465282
-0.0014368988 0.020589892 0.029482456 -0.009110248 0.015358113 -0.03734215 -0.021837128 -0.0037225012
-0.024019638 -0.022546653 -0.021529661 -0.0130559495 0.0032182415 -0.024093492 -0.01629213 -0.005311957
-0.017464306 -0.020934802 -0.0034367717 -0.027129762 -0.0015792905 0.009185079 -0.020335399 0.025604703
0.018995255 -0.015226658 -0.0005151633 -0.01338896 -0.019780666 0.019007655 -0.025254007 -0.009740086
-0.008749162 -0.017614001 -0.0038029857 0.0003452667 0.018338606 -0.009070865 -0.006456838 -0.0074640727
-0.025396356 0.01320517 -0.028026855 0.01859556 -0.036234006 0.007075736 0.0033239068 -0.017321248
-0.022054233 -0.002526572 0.029828098 -0.0045267507 -0.019573634 -0.016831493 0.008105082 0.012354489
-0.020543132 0.006427725 -0.014467749 -0.028999042 0.008166544 -0.002031699 -0.003953472 -0.010908881
0.029620215 -0.017677125 -0.012600458 0.011895431 0.043523114 -0.02891366 0.0030775047 0.03656425
0.024449263 -0.0055151638 -0.020526601 0.014084223 0.017431958 -0.030203843 -0.02452336 -0.025543593
0.01969277 0.005556145 -0.028640306 0.0028172412 0.019912122 0.0032632407 -0.0019769245 -0.017002374
-0.0042768554 0.015991034 -0.005680838 -0.009432982 -0.011996919 0.022652023 -0.021148225 -0.020582065
0.00184869 -0.011096026 -0.020954255 -0.009847822 -0.01524174 -0.0072317664 0.038731907 -0.023488244
0.04146979 -0.0019959875 -0.00755421 -0.00016437893 -0.04787632 -0.037044503 0.001719267 0.024921786
0.0056459582 -0.029637503 -0.027918402 0.002842271 0.0023426788 0.016942663 -0.023889724 0.0029475922
0.013138357 -0.030567374 0.0067102406 0.02687856 0.015479531 0.007342997 -0.026629219 0.02693745
-0.03917668 -0.004701067 -0.01719303 0.0012207921 -0.011631395 0.010664035 -0.0052402825 0.009766312
0.030073136 0.0064804843 -0.0028706605 0.006287057 -0.011313395 -0.012974304 -0.027670106 -0.028234221
0.012374546 0.0042970576 -0.02041579 -0.031076338 0.012370087 -0.018773103 0.031349253 -0.023487765
-0.010589603 0.0072045475 -0.010494501 -0.0043834457 -0.0039562234 -0.006468785 0.009486012 0.011578073
-0.0031290934 -0.0065152557 -0.008558165 0.014152502 -0.023046464 0.018340496 -0.026687915 -0.0052370406
-0.00039092384 0.0032805041 -0.0040895636 -0.024183635 -0.017210262 -0.034171373 -0.012589237 0.021905284
-0.010391876 -0.00020769212 -0.02138593 -0.010370908 -0.013202052 0.012821704 -0.029413754 0.004509929
0.005012537 -0.009617916 -0.029948775 -0.0039023242 0.0024200636 -0.025039427 0.010169995 0.006058477
0.00400481 0.014752788 -0.036962803 -0.018901708 -0.007902983 0.033921853 -0.015829535 0.011741558
00000000: c419 c9bb 891b 06bd 99b0 893b 0e6a 6aba
00000010: 6e31 77bc a958 24bc 2731 2abc 51ea e53c
00000020: 1d69 49bc 1fcc 19bc 6767 5b3b 338a 98bc
00000030: 3d2a bcbb f0c6 09bd c6e0 91bc a0c1 fabc
00000040: a917 ec3a a140 31bc 44a3 543a cd40 b8bc
00000050: a58e a13c 41b8 3fbc 8a46 533c e8db 1fbc
00000060: c320 0d3d e047 bcbc 8f92 3f3c 43dc edbc
00000070: 6c27 aebc 8ce8 3e3b 3f7d 3d3c da53 5fbc
00000080: 0188 2cbc 9120 05bd 7622 353b dfc1 93bc
00000090: f97b 4cbc fdda 423a 1ffd efbc 6e5f b5bc
000000a0: 2747 abbc 379b e3bc 09cd e73a ccc8 623c
000000b0: 9d1f bdbb 729b 04bd a418 9cbc 6e45 0ebd
000000c0: 894e e1bc a5fe fdbb f0b7 b33c 6d25 083c
000000d0: 582f 82bc b429 0a3b 18e9 6c3c 6212 70bc
000000e0: 5356 bcba 22ac a83c 3185 f13c 2643 15bc
000000f0: 98a0 7b3c 15f4 18bd c7e3 b2bc 35f5 73bb
00000100: d5c4 c4bc c2b3 b8bc f95e b0bc 9fe8 55bc
00000110: 22e9 523b b75f c5bc 1377 85bc ed0f aebb
00000120: 4e11 8fbc 767f abbc 763b 61bb 3c3f debc
00000130: 3200 cfba 037d 163c 6c96 a6bc f4c0 d13c
00000140: f09b 9b3c 3c79 79bc 060c 07ba 5e5d 5bbc
00000150: 100b a2bc f1b5 9b3c 7ee1 cebc e294 1fbc
00000160: a558 0fbc 3d4b 90bc 833b 79bb e904 b539
00000170: d83a 963c f79d 14bc e293 d3bb 2e95 f4bb
00000180: 050c d0bc 7f5a 583c 9398 e5bc b755 983c
00000190: 1c6a 14bd 93db e73b e7d5 593b 4ae5 8dbc
000001a0: 14ab b4bc d894 25bb 0e5a f43c 2355 94bb
000001b0: e358 a0bc 33e2 89bc 2ecb 043c 7c6a 4a3c
000001c0: 124a a8bc aa9f d23b 230a 6dbc 668f edbc
000001d0: f8cc 053c 4126 05bb 208c 81bb 2abb 32bc
000001e0: 18a6 f23c 9ecf 90bc 2772 4ebc 0ee5 423c
000001f0: 4b45 323d 57dc ecbc f6af 493b 65c4 153d
00000200: d249 c83c 8cb8 b4bb 6727 a8bc 83c1 663c
00000210: 77cd 8e3c 0d6e f7bc 37e5 c8bc cc40 d1bc
00000220: bb52 a13c 5310 b63b 139f eabc 77a1 383b
00000230: bf1e a33c 18dc 553b 4a8f 01bb 9048 8bbc
00000240: dd24 8cbb a1ff 823c 5326 babb cb8c 1abc
00000250: ba8e 44bc bc90 b93c 0b3f adbc b89b a8bc
00000260: be4f f23a 1bcc 35bc 42a8 abbc c258 21bc
00000270: 7eb8 79bc 74f8 ecbb 59a5 1e3d 6b6a c0bc
00000280: 3adc 293d 1dcf 02bb 4e89 f7bb 225d 2cb9
00000290: f619 44bd fabb 17bd 0759 e13a c628 cc3c
000002a0: bb01 b93b 59ca f2bc 22b5 e4bc 6545 3a3b
000002b0: a187 193b 57cb 8a3c 62b4 c3bc 642c 413b
000002c0: 4342 573c 6e68 fabc 94e1 db3b 6d30 dc3c
000002d0: dc9d 7d3c 869d f03b 8525 dabc edab dc3c
000002e0: ba77 20bd 690b 9abb 66d8 8cbc fc02 a03a
000002f0: 9b91 3ebc 34b8 2e3c adb6 abbb e202 203c
00000300: f05b f63c 3e5a d43b b121 3cbb a803 ce3b
00000310: d15b 39bc 2d92 54bc 6bac e2bc 744b e7bc
00000320: 9cbe 4a3c 55ce 8c3b 043f a7bc ce93 febc
00000330: e8ab 4a3c 0dca 99bc 1368 003d 6a69 c0bc
00000340: 0480 2dbc 2014 ec3b 21f1 2bbc 02a3 8fbb
00000350: 35a3 81bb 1af8 d3bb 386b 1b3c f5b1 3d3c
00000360: 7a11 4dbb ed7d d5bb 8c37 0cbc e5df 673c
00000370: f0cb bcbc cf3e 963c 9da0 dabc 7b9b abbb
00000380: e9f4 ccb9 bafd 563b bf01 86bb c21c c6bc
00000390: 89fc 8cbc 48f7 0bbd 1643 4ebc b672 b33c
000003a0: b042 2abc eec7 59b9 8c31 afbc beea 29bc
000003b0: 6b4d 58bc 2012 523c 1df5 f0bc 07c8 933b
000003c0: 3540 a43b 7794 1dbc 2257 f5bc 23be 7fbb
000003d0: ee99 1e3b 7c1f cdbc 0da0 263c 3086 c63b
000003e0: c83a 833b adb5 713c 4f66 17bd c1d7 9abc
000003f0: 837b 01bc a4f1 0a3d f1ac 81bc aa5f 403c

shared.3.weight f4 [256, 512]
-0.011390892 -0.03997761 -0.0143311005 0.031982873 -0.0187764 0.016960839 -0.0056188665 0.029853199
0.04087419 -0.039742306 0.048024684 -0.015542081 0.057359066 0.025753874 -0.01626802 -0.018553901
0.014406946 0.03371679 0.01761698 -0.040061273 0.01908294 -0.016376013 0.013712135 -0.016231202
0.003676505 -0.049637683 0.010001931 0.020328576 -0.0052692285 0.06578256 0.04004438 -0.03984144
0.034347687 0.015075127 -0.0017072156 0.033507004 -0.026777564 -0.020969076 0.016776718 -0.027814053
0.025655858 0.009591693 -0.04796939 -0.014721782 -0.012339712 0.0147668915 0.01327379 0.014507415
-0.019901723 0.026499946 0.0010300463 -0.010702856 -0.025847046 0.03525036 -0.03957836 0.0042023645
0.0048859976 -0.039864033 0.010061435 -0.003843059 -0.0025821785 -0.040239494 0.013710244 0.048793256
0.036878366 0.0056953207 0.028684195 -0.023145273 0.00028167956 0.017017087 0.036875617 -0.026453627
0.027795635 -0.03452294 -0.007733827 -0.027456712 0.0144877145 -0.016110523 -0.038529422 -0.0019568505
0.059930965 0.031877767 0.055219308 -0.045410827 -0.017134355 0.04478614 0.038422126 0.0135156745
0.013838169 -0.019455448 -0.025964295 -0.017384382 -0.0028863903 0.017573053 0.0068129473 0.01632965
0.010273478 0.04656307 -0.027741974 0.03988582 -0.0026546316 0.00928551 0.015945677 0.01351285
-0.032889005 -0.002803836 0.008463209 -0.0051088873 -0.052938722 -0.016954118 0.0053325947 0.017826913
0.023799105 0.00902686 0.00070381875 -0.004496531 -0.024211314 0.04342645 0.014083921 -0.031446297
0.018488571 -0.01688753 -0.0038565723 -0.0022520584 0.019219622 -0.020883188 0.009954031 0.0066121146
0.011212215 -0.033215836 0.032960642 -0.006981329 -0.008349381 0.0029994757 -0.006974343 0.025366498
0.039683655 -0.017908784 -0.027351787 0.043749794 0.005851791 -0.0024491532 0.020436786 0.01530675
0.039802376 -0.0028057115 0.00035512532 -0.012832878 -0.029318793 -0.013960743 -0.027320797 -0.04582967
-0.0016160044 0.00632214 0.03010075 0.035932966 0.005476792 -0.0066757933 -0.008598461 -0.02567251
-0.019515514 0.009825695 -0.012739816 0.03550962 0.017852558 -0.031133235 0.028278638 0.012045758
0.011834345 0.03403958 -0.0441636 0.002464318 0.0066425866 0.012086446 -0.0037175529 -0.004826564
0.017915566 0.021754364 -0.00039429014 0.009369698 0.039786372 0.007439555 0.038423445 0.050407045
0.015243739 -0.026507435 0.02576744 0.014877918 0.017135419 0.022339066 -0.029491236 -0.012485726
-0.0020606234 0.019755512 0.046224453 -0.022869647 0.00872731 -0.052279696 -0.028516226 -0.0076848515
0.0344247 -0.008867562 0.022686282 0.004553726 0.03606316 0.025624003 -0.012607006 0.01337415
0.022858672 0.043537125 0.02467495 0.039761145 0.028718282 -0.019252427 -0.007639255 0.0139657
0.03014403 0.009160593 -0.006730917 -0.032884564 -0.02130933 -0.008380193 0.012149042 0.018089687
-0.028439013 0.03669353 0.022507222 -0.027408054 0.048500966 0.035298005 0.021679357 -0.017631005
0.030443832 -0.019802438 0.0011296385 -0.0033760164 -0.03759015 -0.00012078565 -0.045620553 0.03126392
-0.001664819 0.051589817 -0.040022142 -0.0045479913 0.023261728 -0.047265157 -0.0054717665 -0.01286846
0.025783092 0.0066766925 0.012806175 -0.018206654 0.0065717325 0.011779961 -0.0035168105 -0.03064866
00000000: dda0 3abc 90bf 23bd fecc 6abc 7900 033d
00000010: f7d0 99bc 75f1 8a3c 781e b8bb b28e f43c
00000020: b26b 273d d4c8 22bd 88b5 443d 36a4 7ebc
00000030: 57f1 6a3d caf9 d23c 8344 85bc 5afe 97bc
00000040: 1c0b 6c3c 9e1a 0a3d 7c51 903c 4a17 24bd
00000050: d353 9c3c fd26 86bc dda8 603c 4cf7 84bc
00000060: 85f1 703b e250 4bbd 24df 233c 1d88 a63c
00000070: 7ea9 acbb 02b9 863d 9305 243d c730 23bd
00000080: 29b0 0c3d aafd 763c a6c4 dfba a43e 093d
00000090: 9f5c dbbc 57c7 abbc 546f 893c 4cda e3bc
000000a0: 3c2c d23c 7a26 1d3c 8d7b 44bd a133 71bc
000000b0: 812c 4abc d5f0 713c 4f7a 593c 82b0 6d3c
000000c0: f008 a3bc 6a16 d93c 9e02 873a 085b 2fbc
000000d0: 2fbd d3bc ae62 103d eb1c 22bd fdb3 893b
000000e0: b81a a03b 7848 23bd b8d8 243c d5db 7bbb
000000f0: c439 29bb 2bd2 24bd eea0 603c 70db 473d
00000100: c50d 173d d09f ba3b 1efb ea3c 289b bdbc
00000110: 64ae 9339 6b67 8b3c e30a 173d 47b5 d8bc
00000120: acb3 e33c ed67 0dbd 0b6c fdbb e6ec e0bc
00000130: e15d 6d3c 37fa 83bc 07d1 1dbd 813e 00bb
00000140: 2c7a 753d 4392 023d a42d 623d b400 3abd
00000150: 595d 8cbc ac71 373d 8560 1d3d d970 5d3c
00000160: 7db9 623c 0861 9fbc 13b3 d4bc b169 8ebc
00000170: 9829 3dbb 5df5 8f3c 253f df3b c2c5 853c
00000180: 1752 283c ebb8 3e3d 2343 e3bc 505f 233d
00000190: 54f9 2dbb 4022 183c 82a0 823c 0065 5d3c
000001a0: 9fb6 06bd 90c0 37bb 45a9 0a3c 7468 a7bb
000001b0: 46d6 58bd 5de3 8abc 0cbd ae3b bf09 923c
000001c0: 57f6 c23c 65e5 133c 7a80 383a a357 93bb
000001d0: ce56 c6bc efdf 313d 3fc0 663c d5cd 00bd
000001e0: 5875 973c b857 8abc 8cbe 7cbb 4597 13bb
000001f0: 7872 9d3c 3813 abbc 3b16 233c 70aa d83b
00000200: 70b3 373c 540d 08bd bd01 073d a2c3 e4bb
00000210: d8cb 08bc da92 443b 0889 e4bb 67cd cf3c
00000220: 548b 223d 71b5 92bc db10 e0bc fc32 333d
00000230: 61c0 bf3b f981 20bb 0c6b a73c 2ac9 7a3c
00000240: d107 233d 07e0 37bb 1d30 ba39 fe40 52bc
00000250: f72d f0bc 9abb 64bc ddcf dfbc e4b7 3bbd
00000260: 1cd0 d3ba f429 cf3b d995 f63c 722e 133d
00000270: a976 b33b 9dc0 dabb 8fe0 0cbc 284f d2bc
00000280: 00df 9fbc f4fb 203c a9ba 50bc 8972 113d
00000290: 873f 923c 200b ffbc 9aa8 e73c 925b 453c
000002a0: d7e4 413c 166d 0b3d e4e4 34bd 6580 213b
000002b0: 0eaa d93b 3b06 463c 30a2 73bb 2728 9ebb
000002c0: aac3 923c 3536 b23c bab8 ceb9 5d83 193c
000002d0: 09f7 223d 83c7 f33b e761 1d3d 9e77 4e3d
000002e0: e0c0 793c 1f26 d9bc 3d16 d33c 83c2 733c
000002f0: 945f 8c3c 6b00 b73c 9b97 f1bc ee90 4cbc
00000300: 860b 07bb 50d6 a13c da55 3d3d 2059 bbbc
00000310: fefc 0e3c 3c23 56bd dc9a e9bc 35d1 fbbb
00000320: ea00 0d3d 4049 11bc 95d8 b93c 6c37 953b
00000330: f7b6 133d 6ee9 d13c 9e8d 4ebc 401f 5b3c
00000340: 1c42 bb3c fc53 323d 1f23 ca3c 95dc 223d
00000350: 9a42 eb3c 44b7 9dbc b752 fabb 64d0 643c
00000360: 9df0 f63c 5016 163c 068f dcbb f7b1 06bd
00000370: e790 aebc 144d 09bc c70c 473c d330 943c
00000380: eff8 e8bc f44b 163d 1161 b83c db86 e0bc
00000390: f3a8 463d a494 103d e898 b13c e66e 90bc
000003a0: 5865 f93c b938 a2bc 6110 943a 2840 5dbb
000003b0: 21f8 19bd 4d4e fdb8 9edc 3abd 990e 003d
000003c0: 0e36 daba d84f 533d 42ee 23bd 5107 95bb
000003d0: 618f be3c 1c99 41bd 814c b3bb 3cd6 52bc
000003e0: 1037 d33c 28c8 da3b fed0 513c 1f26 95bc
000003f0: b057 d73b bd00 413c 4a7a 66bb e612 fbbc

shared.3.bias f4 [256]
-0.013437587 -0.0069683213 0.008207792 0.005757431 -0.017158745 0.044577528 -6.0399143e-05 0.015980212
0.031765006 0.0008349536 0.04393511 0.0019484847 0.03375292 0.003945515 -0.03366112 0.026279442
-0.029910183 -0.010309324 0.021779818 -0.03434617 0.033092644 0.00870467 0.002447174 0.017111687
0.034476724 0.03328697 0.02590387 0.016210005 0.039847147 -0.0290787 0.020034207 -0.032472108
0.017670967 0.014277856 0.0218562 -0.020216865 0.028286947 0.02314988 0.025428586 -0.0025869901
-0.044383556 0.043928597 -0.008716054 -0.013800464 0.019325722 0.03674981 0.03688787 0.010947407
0.016969936 -0.017714921 -0.015899679 0.042258732 -0.019410763 -0.015683573 -0.02249875 -0.02163624
0.0064900657 -0.0011860781 0.01859244 0.01921322 -0.028679313 -0.0044415216 -0.039396275 0.0057076775
0.03322532 -0.046903837 0.005162944 0.017754642 -0.0002903476 -0.027590979 -0.0016579182 -0.017602177
-0.033588022 -0.013614811 -0.0052420045 -0.0052543976 0.02571769 -0.04753138 -0.01946839 0.001558553
0.028094983 -0.0010030619 0.02978372 0.03354657 0.02256388 -0.0041448404 0.018800382 -0.015592959
-0.01859483 0.015600525 0.001457258 0.014256232 0.0344003 0.046073683 -0.04191563 -0.024783399
0.03954437 -0.017122388 0.013142012 -0.0055061853 0.016611174 -0.039358888 0.02984359 -0.03719027
-0.0333203 0.02622704 0.0074471086 0.022873482 -0.011249299 0.019213334 -0.031034436 -0.0073059923
-0.01948397 -0.025236834 0.02257877 0.006548269 -0.037904624 -0.022619901 0.013475698 0.033003554
-0.024975488 -0.015964063 0.014694373 0.033186693 0.0077225766 -0.035717085 0.013982605 0.01015914
-0.038732514 0.0005290152 0.00084756693 -0.0031850808 0.011565335 0.032725755 -0.03024704 0.04250063
-0.0011709156 0.005446396 0.011389848 0.003997149 -0.039921846 0.04439634 0.027538413 0.0006348171
-0.022630678 0.012230712 0.03272674 0.033890724 0.02318984 0.025559671 -0.04536025 -0.0053271274
-0.01695962 -0.027732719 -0.02281656 0.004395754 -0.02131396 -0.03523813 -0.00062159396 0.0009177589
0.0056190994 0.029875668 -0.036285628 -0.01804683 -0.00068135647 -0.033064365 0.012038832 0.041168697
0.016042108 0.015179127 0.025941562 -0.031065365 -0.03389079 0.036156375 0.030886166 0.039058484
0.01634989 0.0031279079 0.03757296 -0.019217236 0.022682056 0.036366522 0.013066314 0.04316388
-0.04385774 -0.026806623 -0.038643364 -0.037419487 -0.0032557128 0.036508594 -0.029063594 -0.0015077573
-0.024421193 -0.02721283 0.029511824 0.036781896 0.016686631 -0.021520942 -0.0041440884 0.040218472
-0.023406679 0.016814405 0.021888323 -0.03840428 -0.020212028 -0.020187853 0.030250559 0.008712878
-0.0012299739 -0.005120571 -0.017514773 -0.02324584 -0.022224085 0.0008623789 0.03728615 0.025346013
-0.023449358 0.04159287 0.02298085 -0.009190994 -0.016358215 0.03291374 -0.045684587 0.018242558
-0.04644988 0.006672266 0.022724118 0.02548577 -0.0073957476 -0.012500641 0.023121037 0.014588616
0.021866735 0.0032937077 -0.010663772 0.023946054 0.00038950206 -0.0009112464 0.03233548 0.013276638
0.035105255 -4.2860273e-05 0.00031408877 0.016336897 -0.011475965 -0.039439548 0.04111311 -0.023700876
0.03858418 -0.013600516 -0.03259938 -0.014750143 0.019600905 -0.034298275 0.035442166 -0.014578396
00000000: 5329 5cbc 8456 e4bb fa79 063c d5a8 bc3b
00000010: 7f90 8cbc ed96 363d 1655 7db8 efe8 823c
00000020: 061c 023d cae0 5a3a 4df5 333d 4c64 ff3a
00000030: 8040 0a3d 6149 813b 3ee0 09bd fc47 d73c
00000040: 3306 f5bc 70e8 28bc 976b b23c 92ae 0cbd
00000050: 278c 073d 089e 0e3c c460 203b cf2d 8c3c
00000060: 7737 0d3d eb57 083d 5a34 d43c d8ca 843c
00000070: c336 233d 7436 eebc c71e a43c 7901 05bd
00000080: b4c2 903c abed 693c c60b b33c d79d a5bc
00000090: 07ba e73c d1a4 bd3c 9c4f d03c 7e8a 29bb
000000a0: 88cb 35bd 79ee 333d c8cd 0ebc 571b 62bc
000000b0: fa50 9e3c f886 163d bc17 173d c15c 333c
000000c0: 8904 8b3c e21e 91bc 0b40 82bc 7e17 2d3d
000000d0: 5203 9fbc d67a 80bc 4c4f b8bc 7c3e b1bc
000000e0: 9eaa d43b 2d76 9bba 2c4f 983c 0b65 9d3c
000000f0: e1f0 eabc 2f8a 91bb fd5d 21bd 7807 bb3b
00000100: 4617 083d 3d1e 40bd ea2d a93b 2f72 913c
00000110: cc39 98b9 7a06 e2bc 814e d9ba 7132 90bc
00000120: 9893 09bd a810 5fbc 1fc5 abbb 152d acbb
00000130: e8ad d23c 44b0 42bd 2c7c 9fbc 5c48 cc3a
00000140: 7327 e63c 2c79 83ba fdfc f33c 2168 093d
00000150: e3d7 b83c 71d1 87bb 4203 9a3c 9c79 7fbc
00000160: 2f54 98bc 5899 7f3c 7701 bf3a f992 693c
00000170: 54e7 0c3d c2b7 3c3d b9af 2bbd 8e06 cbbc
00000180: 47f9 213d 4044 8cbc 9851 573c 3b6d b4bb
00000190: 2814 883c c936 21bd 8b7a f43c d354 18bd
000001a0: de7a 08bd 17da d63c e006 f43b 2b61 bb3c
000001b0: fb4e 38bc 4865 9d3c ee3b febc 1b67 efbb
000001c0: d99c 9fbc 7abd cebc 1df7 b83c dd92 d63b
000001d0: e141 1bbd 5f4d b9bc 2dc9 5c3c bc2e 073d
000001e0: 6599 ccbc 11c7 82bc abc0 703c c5ee 073d
000001f0: ab0d fd3b 144c 12bd 4c17 653c 8672 263c
00000200: fca5 1ebd 9cad 0a3a 412f 5e3a cabc 50bb
00000210: 887c 3d3c 710b 063d a4c8 f7bc 2415 2e3d
00000220: 6879 99ba ae77 b23b 7c9c 3a3c 84fa 823b
00000230: 1785 23bd f0d8 353d 3d98 e13c db69 263a
00000240: f963 b9bc 5363 483c 790c 063d 00d1 0a3d
00000250: 9ff8 bd3c 8462 d13c abcb 39bd 2f8f aebb
00000260: e7ee 8abc ba2f e3bc cbe9 babc 420a 903b
00000270: 9d9a aebc db55 10bd 77f2 22ba c295 703a
00000280: 6c20 b83b d1bd f43c 3da0 14bd f2d6 93bc
00000290: 0f9d 32ba 806e 07bd 853e 453c 82a0 283d
000002a0: bd6a 833c e0b1 783c 6683 d43c cb7c febc
000002b0: 12d1 0abd b518 143d fc04 fd3c cafb 1f3d
000002c0: 34f0 853c 96fd 4c3b 1be6 193d 776d 9dbc
000002d0: b8cf b93c 10f5 143d 1814 563c 9ccc 303d
000002e0: 2ca4 33bd 9099 dbbc 8148 1ebd 2d45 19bd
000002f0: cc5d 55bb 098a 153d c616 eebc f19f c5ba
00000300: f40e c8bc 71ed debc c8c2 f13c 9da8 163d
00000310: 67b2 883c b04c b0bc 22cb 87bb 20bc 243d
00000320: 5dbf bfbc 5dbe 893c 244f b33c ce4d 1dbd
00000330: b293 a5bc ff60 a5bc 05d0 f73c 76c0 0e3c
00000340: 1337 a1ba 76ca a7bb 247b 8fbc 0f6e bebc
00000350: 490f b6bc 4511 623a 5db9 183d 71a2 cf3c
00000360: de18 c0bc 495d 2a3d 5642 bc3c d395 16bc
00000370: aa01 86bc 8fd0 063d c31f 3bbd 6b71 953c
00000380: 3b42 3ebd 06a3 da3b ee27 ba3c 89c7 d03c
00000390: 0758 f2bb 7dcf 4cbc 5468 bd3c 1705 6f3c
000003a0: de21 b33c 3fdb 573b 1ab7 2ebc 842a c43c
000003b0: 1536 cc39 b6e0 6eba 3572 043d 4286 593c
000003c0: 87ca 0f3d dec4 33b8 48ac a439 f5d4 853c
000003d0: b005 3cbc 5d8b 21bd 3866 283d 5728 c2bc
000003e0: 720a 1e3d b3d4 5ebc ed86 05bd 95aa 71bc
000003f0: 1492 a03c 597c 0cbd ce2b 113d 3ada 6ebc

shared.4.weight f4 [256]
0.9049917 0.84707123 0.94447535 0.9975743 0.9273662 0.99176085 0.8314573 0.9933818
1.004682 0.83387995 0.96771175 0.94032276 0.9097054 0.9299743 0.94908106 0.93875986
0.96778107 0.81544966 0.9645682 0.98376423 1.0161091 0.98128337 0.9383338 0.92371166
0.97597724 0.98916763 0.9822034 0.9585515 0.96862525 0.88032204 0.9615528 0.9904177
0.9757174 0.9737375 0.98123384 0.9626536 0.9972326 0.98739666 0.9462247 0.9726486
0.8551705 0.98009086 0.99965477 1.0054134 0.9730849 0.86230195 0.997195 0.97079635
0.86964643 0.90657514 0.9298406 0.9932051 0.86188173 0.9970433 0.9822307 0.95532537
1.0050272 0.979714 0.9500055 0.9629654 0.9674623 0.89325225 0.99588066 0.9926884
0.92421997 0.92755705 0.9661707 0.9835416 0.88425577 0.88106245 0.8976057 0.9713914
0.9399067 0.9604846 0.9372189 0.98750854 0.99669975 0.8181392 0.9838643 0.8632716
0.98445815 0.94233096 0.92995274 0.9341244 0.97644496 0.84063816 0.9935586 1.0025682
0.98318696 0.84685904 0.97572845 0.8566434 0.97752756 0.95139575 0.9672514 0.93828976
0.9788942 0.9855589 0.9697043 1.0143474 0.9019591 0.98866284 0.8829624 1.0048493
0.950837 0.9671553 0.965284 0.9487464 0.96833056 0.9809228 0.9943638 0.9238918
0.9942393 0.97402304 1.001489 0.8811797 0.9916008 0.9988989 0.93940115 1.0075974
0.98231316 0.96551585 0.94376886 0.966799 0.9458321 0.9294273 0.9198844 0.8624864
0.99778455 0.7882406 0.97369814 0.99589515 0.9910549 0.99995404 0.97876257 0.96258825
0.9793635 0.8937431 0.97627145 0.93249124 1.0108867 0.9919262 0.9824227 0.9574485
0.9195319 0.9785468 0.86908025 0.90335256 0.98675925 0.9746564 0.79742223 0.87288433
0.9395824 0.76292616 0.9425287 0.9554385 0.9624999 0.9988037 0.8788458 0.9619274
1.0170823 0.8514591 1.0082855 0.96125156 0.8254233 0.9725149 1.0082712 0.9991974
0.8619814 0.97342706 0.94419074 0.996222 0.97265595 0.98745847 0.7932314 1.0028034
1.0141276 0.9841883 0.88464844 0.9616976 0.98247576 0.9640051 0.89846116 0.9098443
0.92904025 0.8689264 0.99983454 1.0192428 0.9649625 1.0051458 0.9081794 0.9874705
1.002616 0.99913913 0.9916796 0.9190682 0.94688743 0.97378194 0.99879646 0.894057
0.99762 0.92738277 0.9398683 0.9671618 0.9355657 0.9528987 0.9380337 1.0003998
0.9836986 0.9062021 1.0030541 0.90674365 1.0148054 0.9060188 0.96983486 0.962832
0.99486697 0.9511445 0.940869 0.980084 0.97256994 0.9864977 0.8760425 1.0053399
0.8813833 0.9008751 0.9616717 0.86488813 0.96938735 1.0130023 1.0049918 0.96041036
0.99329865 1.0202968 0.94339097 0.8438198 1.008635 0.9279006 1.0001353 0.9072671
0.8808171 0.9874239 0.93707514 0.8547588 0.94344276 0.9415664 0.9566391 0.9855611
0.9864984 1.0050596 0.9528288 0.9935822 0.9588712 0.9926176 0.9964339 0.8881246
00000000: 89ad 673f a9d9 583f 23c9 713f 0861 7f3f
00000010: df67 6d3f 0ae4 7d3f 63da 543f 454e 7e3f
00000020: 6b99 803f 2879 553f f5bb 773f feb8 703f
00000030: 74e2 683f cc12 6e3f faf6 723f 9152 703f
00000040: 80c0 773f 4fc1 503f f1ed 763f f9d7 7b3f
00000050: dd0f 823f 6335 7b3f a536 703f 5e78 6c3f
00000060: a5d9 793f 173a 7d3f af71 7b3f a263 753f
00000070: d3f7 773f c95c 613f 5328 763f 048c 7d3f
00000080: 9ec8 793f dc46 793f 2432 7b3f 7770 763f
00000090: a34a 7f3f 07c6 7c3f c83b 723f 80ff 783f
000000a0: 74ec 5a3f 3ce7 7a3f 60e9 7f3f 63b1 803f
000000b0: 181c 793f d2bf 5c3f 2c48 7f3f 1c86 783f
000000c0: 26a1 5e3f 4f15 683f 090a 6e3f b042 7e3f
000000d0: 48a4 5c3f 3b3e 7f3f 7973 7b3f 3490 743f
000000e0: bba4 803f 89ce 7a3f 8f33 733f e784 763f
000000f0: 9cab 773f 2eac 643f 09f2 7e3f d420 7e3f
00000100: ae99 6c3f 6174 6d3f f756 773f 62c9 7b3f
00000110: 965e 623f 4f8d 613f 7dc9 653f 1bad 783f
00000120: ba9d 703f 52e2 753f 94ed 6f3f 5ccd 7c3f
00000130: b727 7f3f 9271 513f 88de 7b3f 5eff 5c3f
00000140: 7305 7c3f 9a3c 713f 6211 6e3f c722 6f3f
00000150: 4cf8 793f 1034 573f db59 7e3f 2854 803f
00000160: 24b2 7b3f c1cb 583f 57c9 793f fb4c 5b3f
00000170: 3f3f 7a3f ac8e 733f ca9d 773f c233 703f
00000180: cf98 7a3f 974d 7c3f 8a3e 783f 23d6 813f
00000190: cbe6 663f 0219 7d3f d309 623f e79e 803f
000001a0: 0e6a 733f 7d97 773f da1c 773f 0be1 723f
000001b0: 83e4 773f c21d 7b3f a08e 7e3f 2c84 6c3f
000001c0: 7786 7e3f 9359 793f cb30 803f fe94 613f
000001d0: 8dd9 7d3f d7b7 7f3f 987c 703f f4f8 803f
000001e0: e078 7b3f 0c2c 773f d69a 713f 2480 773f
000001f0: 0d22 723f f3ee 6d3f 8b7d 6b3f e9cb 5c3f
00000200: cf6e 7f3f 23ca 493f 4844 793f fcf2 7e3f
00000210: c6b5 7d3f fdfc 7f3f 2f90 7a3f 2f6c 763f
00000220: 91b7 7a3f 59cc 643f edec 793f bfb7 6e3f
00000230: bc64 813f e0ee 7d3f 0e80 7b3f 581b 753f
00000240: 7166 6b3f 0b82 7a3f 0b7c 5e3f 1d42 673f
00000250: 419c 7c3f 1583 793f dd23 4c3f 5975 5f3f
00000260: 7988 703f 214f 433f 9049 713f 9e97 743f
00000270: 6566 763f 99b1 7f3f 0afc 603f e040 763f
00000280: c12f 823f 39f9 593f 800f 813f 9514 763f
00000290: f14e 533f bdf6 783f 080f 813f 67cb 7f3f
000002a0: d0aa 5c3f 8432 793f 7cb6 713f 6808 7f3f
000002b0: fbff 783f 14ca 7c3f 3711 4b3f dd5b 803f
000002c0: efce 813f c4f3 7b3f 5278 623f d031 763f
000002d0: 8883 7b3f 0ac9 763f 8d01 663f 8eeb 683f
000002e0: 95d5 6d3f f671 5e3f 28f5 7f3f 8c76 823f
000002f0: c807 773f 9ea8 803f 727e 683f deca 7c3f
00000300: b955 803f 95c7 7f3f b7de 7d3f 0e48 6b3f
00000310: 3767 723f c649 793f 20b1 7f3f ebe0 643f
00000320: 0664 7f3f f568 6d3f 359b 703f ea97 773f
00000330: 3c81 6f3f 2bf1 733f fa22 703f 1a0d 803f
00000340: acd3 7b3f dcfc 673f 1464 803f 5a20 683f
00000350: 25e5 813f d9f0 673f 1947 783f 287c 763f
00000360: 9aaf 7e3f 357e 733f cadc 703f c9e6 7a3f
00000370: 58fa 783f 1d8b 7c3f 5244 603f faae 803f
00000380: 56a2 613f c09f 663f 1e30 763f 4f69 5d3f
00000390: c529 783f 0faa 813f 92a3 803f 74dd 753f
000003a0: d248 7e3f 1699 823f 1282 713f 9304 583f
000003b0: f41a 813f e58a 6d3f 6f04 803f a842 683f
000003c0: 3b7d 613f d0c7 7c3f 28e4 6f3f 79d1 5a3f
000003d0: 7785 713f 7f0a 713f 4de6 743f bb4d 7c3f
000003e0: 298b 7c3f cba5 803f 97ec 733f 675b 7e3f
000003f0: 9578 753f 301c 7e3f 4b16 7f3f 225c 633f
