checkpoints/improved_pretrain_pretrain/checkpoint_ep9999.pt (torch, 815445 bytes, 25 tensors)

shared.0.weight f4 [512, 23]
0	0xbdb379de	-0.08763479
1	0x3b8eee83	0.004361929
2	0xbe5ecd51	-0.2175801
3	0x3e0f48e4	0.1399265
4	0xbd85de8c	-0.06536588
5	0x9efff212	-2.7099293e-20
6	0xbcdad102	-0.02671099
7	0x3d2fef2d	0.042952705
8	0x3e8760fc	0.2644118
9	0x3e44039e	0.19142005
10	0x3d7df77f	0.06200361
11	0xbdcbfd51	-0.09960426
12	0xbd93bca9	-0.072137184
13	0x3e144685	0.14480026
14	0x3e0fab15	0.14030106
15	0xbd9a002c	-0.07519564
16	0xbd8e7a80	-0.06956959
17	0x3cc9e515	0.024645368
18	0x3e063d9e	0.13109443
19	0xbc0158b9	-0.007894688
20	0x3c2b25aa	0.0104459915
21	0x2ce59add	6.5257647e-12
22	0x954e4ede	-4.1663584e-26
23	0xbdcd2849	-0.100174494
24	0xbe2d5433	-0.1692665
25	0x3d1c36e1	0.038138274
26	0x3dc33e53	0.09533372
27	0x3d9fc552	0.07801308
28	0x14e64298	2.3250332e-26
29	0x3d8e14a5	0.069375314
30	0x3eba9752	0.36443573
31	0xbc144885	-0.009050493
32	0xbe4c3883	-0.19943433
33	0xbdbd3847	-0.0923925
34	0x3b52138f	0.0032055115
35	0x3d5dcd5d	0.054150928
36	0x3db0939e	0.08621906
37	0x3ded4949	0.11586244
38	0x3cf28619	0.029604958
39	0xbd248e48	-0.040174752
40	0xbb851838	-0.004061725
41	0x3df0639c	0.11737749
42	0xbbb18970	-0.005417995
43	0xbb65468f	-0.0034984683
44	0x2a005f65	1.140178e-13
45	0xa380efc3	-1.3979331e-17
46	0x3df82029	0.12115509
47	0xbb0cb6f0	-0.0021471344
48	0xbce57e05	-0.028014192
49	0xbde233f6	-0.11045067
50	0x3d86f0af	0.065888755
51	0x96475ca7	-1.6104328e-25
52	0x3d55385c	0.0520557
53	0xbcd3a240	-0.025834203
54	0x3e78627a	0.24256316
55	0x3e87d4c9	0.2652953
56	0x3e1fb482	0.15596202
57	0x3e259b9b	0.1617264
58	0x3d9ed7fa	0.07756038
59	0xbd314b2b	-0.043284576
60	0x3d1c9a0b	0.038232844
61	0x3da7a5c8	0.08185917
62	0xbc52fedc	-0.012878146
63	0x3d3aa429	0.04556671
64	0xbe17667e	-0.14785191
65	0x3af2872d	0.001850342
66	0x3b741929	0.0037246442
67	0x1e458d46	1.0458308e-20
68	0x23163d8e	8.144551e-18
69	0xbce3f3a5	-0.02782614
70	0x3df3c8fd	0.1190357
71	0x3d8274cc	0.063699335
72	0x3d214a71	0.039377633
73	0xbde4eae1	-0.11177612
74	0x219f1db5	1.0782122e-18
75	0xbc365eb4	-0.011130977
76	0x3cca09ec	0.024662934
77	0xbced0260	-0.028931797
78	0x3cc40803	0.023929602
79	0xbddec79d	-0.10877917
80	0xbdbc763f	-0.09202241
81	0xbdf2209c	-0.11822626
82	0xbcd5be89	-0.02609183
83	0x3dd157be	0.102218136
84	0xbde98e8a	-0.1140414
85	0xbc8192c1	-0.015817048
86	0x3da2b91c	0.07945463
87	0x3e236e62	0.15960076
88	0x3a74e736	0.00093423144
89	0xbb89687c	-0.0041933637
90	0x1cdebdeb	1.473982e-21
91	0x2a066c7f	1.1939233e-13
92	0xbe1d89ce	-0.153846
93	0xbde03d11	-0.109491475
94	0xbe3c26af	-0.18374132
95	0xbd94b15f	-0.07260393
96	0x3ccf226d	0.02528497
97	0xa8cd16ac	-2.2769404e-14
98	0xbdb67ca3	-0.08910491
99	0x3c1c46db	0.009538378
100	0xbe55d6bb	-0.20882694
101	0xbdf497f4	-0.11943045
102	0xbda23f05	-0.07922176
103	0x3d47bbe2	0.048763163
104	0x3dae9c4c	0.08525905
105	0x3dd7c32f	0.10535275
106	0xbd929649	-0.07157571
107	0xbd525993	-0.051354956
108	0x3e26b7cb	0.16281049
109	0xbd008e23	-0.031385552
110	0x3d5e38b9	0.054253314
111	0x3a846b2c	0.001010274
112	0x3bb1b9ec	0.005423775
113	0x2b61144e	7.9964236e-13
114	0x306133e8	8.1928286e-10
115	0x3d9015e6	0.07035427
116	0x3e117696	0.14205393
117	0x3d60bb01	0.05486584
118	0xbb2e81ac	-0.0026627583
119	0xbda53e30	-0.08068502
120	0xb157c46e	-3.1398275e-09
121	0x3db93653	0.09043565
122	0xbbaf3156	-0.0053464575
123	0x3e49a806	0.19693002
124	0x3d36e27c	0.044649586
125	0xbd7fdef5	-0.062468488
126	0xbd97cede	-0.07412504
127	0xbd53ab43	-0.051677
128	0x3e0ad519	0.13557853
129	0x3d4e86bf	0.050421473
130	0x3e27bc54	0.16380435
131	0xbd2ffcf2	-0.042965837
132	0xbc943e5b	-0.01809614
133	0xbdf88116	-0.12133996
134	0x37964e9f	1.7918004e-05
135	0xba183662	-0.00058064435
136	0x1dd6baa9	5.683833e-21
137	0xa513d2a7	-1.282159e-16
138	0x3e028ab2	0.1274822
139	0x3e3b854b	0.18312566
140	0x3d2bf181	0.041978363
141	0x3d8e6b62	0.069540754
142	0xbc88cf27	-0.01670034
143	0x95cb74ad	-8.217513e-26
144	0xbe37becd	-0.17943878
145	0xbd5d6bdb	-0.054057937
146	0x3df6a5a4	0.12043312
147	0xbe6262d7	-0.22108017
148	0xbe0a6b4e	-0.13517496
149	0xbe2c3cfe	-0.16820142
150	0xbc50370c	-0.012708437
151	0xbe426a9e	-0.18985984
152	0x3d426857	0.047462787
153	0x3d915daf	0.07097947
154	0xbd322f3e	-0.043502085
155	0x3dd78c25	0.10524777
156	0x3e185734	0.14877015
157	0x390cf0bf	0.00013441125
158	0x3be518e4	0.0069914926
159	0x9a60316d	-4.636204e-23
160	0x1e8ab160	1.4684679e-20
161	0x3e6f3768	0.2336098
162	0x3e4308e1	0.19046356
163	0x3d8b161d	0.06791327
164	0x3d146777	0.036231484
165	0xbd3b5c0b	-0.045742076
166	0xa481696e	-5.612344e-17
167	0x3cb872b8	0.02251564
168	0xbb9cfe2c	-0.004791042
169	0xbdf28b65	-0.11842994
170	0xbe20d312	-0.15705517
171	0xbe1bb8ee	-0.15207264
172	0x3de3c2fe	0.11121176
173	0xbd369252	-0.044573136
174	0xbd457b08	-0.048213035
175	0xbd0f6619	-0.035009477
176	0x3e2f0d94	0.17095023
177	0xbb8768b7	-0.004132356
178	0x3c0351ca	0.0080151055
179	0xbe4db934	-0.2009018
180	0x380b7e13	3.32576e-05
181	0x3c9143d9	0.017732548
182	0x197c8696	1.3055274e-23
183	0x9b7c1d98	-2.0854514e-22
184	0x3e220154	0.15820819
185	0x3dc79d92	0.09746851
186	0xbe01e1bc	-0.12683767
187	0xbe315768	-0.17318499
188	0x3c0beedf	0.008540838
189	0x1ca1a22a	1.0696005e-21
190	0x3d84e2d0	0.064885736
191	0xbd719577	-0.05898043
192	0x3e31cc44	0.17363077
193	0xbe9a35e9	-0.30119255
194	0x3e64d631	0.22347333
195	0x3d7d7f48	0.061888963
196	0xbdc246a5	-0.094861306
197	0x3da27961	0.079333074
198	0x3e271380	0.16316032
199	0x3a51902b	0.00079942
200	0xbbf63466	-0.0075135706
201	0x3d993166	0.07480125
202	0x3dff68a2	0.12471129
203	0xbb56bc18	-0.0032765921
204	0xbba68981	-0.0050823097
205	0xa6902e50	-1.000456e-15
206	0x1778ab44	8.034929e-25
207	0xbd9d91e3	-0.07693841
208	0x3c9f9200	0.019478798
209	0xbde802ed	-0.11328683
210	0x3c8ae48d	0.016954685
211	0xbddab72c	-0.106794685
212	0xb215fe15	-8.730713e-09
213	0xbd4718aa	-0.048607506
214	0xbc60934d	-0.013706994
215	0x3d99af15	0.07504097
216	0xbe44a31c	-0.19202846
217	0x3c605c34	0.013693858
218	0x3d79d578	0.060994595
219	0x3d89d664	0.06730345
220	0x3e0ad538	0.13557899
221	0xbc873d79	-0.016508805
222	0xbe0246a9	-0.12722267
223	0x3de1d8f0	0.11027706
224	0x3c4beb08	0.012446173
225	0x3dd013d2	0.101600304
226	0x39efb9ad	0.00045723972
227	0xbcd1f2f7	-0.02562855
228	0x1a49ddac	4.174489e-23
229	0x969bd3ce	-2.5175268e-25
230	0x3e144bcd	0.1448204
231	0x3d08edac	0.033429787
232	0x3e0173a3	0.12641768
233	0x3e0d1546	0.13777646
234	0x3c46eb9a	0.012141133
235	0x180b2807	1.7985538e-24
236	0x3de03914	0.10948387
237	0x3e4d3983	0.2004147
238	0x3e4f8d50	0.2026875
239	0xbe0abbd0	-0.13548207
240	0x3d062024	0.032745495
241	0xbe6da5e5	-0.23207815
242	0x3e1bd83b	0.15219204
243	0xbe447a2c	-0.1918723
244	0x3d381cc7	0.04494932
245	0xbd6f341c	-0.058399305
246	0xbd205b2b	-0.039149445
247	0x3e13470a	0.14382568
248	0x3dc5216c	0.09625515
249	0xbbe86faa	-0.0070933895
250	0x3c4e37ff	0.012586593
251	0x32759cf0	1.429656e-08
252	0x1683888a	2.125036e-25
253	0xbcebe197	-0.028794093
254	0x3e1d7709	0.1537744
255	0x3e09ed2e	0.13469383

shared.0.bias f4 [512]
0	0x3d8c0bf5	0.06838218
1	0x3aaf8e02	0.0013393762
2	0xbda687a9	-0.08131344
3	0x3e2a4a47	0.16629897
4	0x3df1508c	0.11782941
5	0xbdd20661	-0.10255123
6	0xbdb990fc	-0.09060857
7	0x3d1893ba	0.037250258
8	0xbc0b0bf6	-0.008486738
9	0x3e3becc8	0.18352044
10	0xbdac16d3	-0.08402791
11	0xbe5880ae	-0.21142837
12	0xbe27acf0	-0.16374564
13	0x3d873af9	0.06603045
14	0x3e1a301f	0.15057419
15	0xbc47d275	-0.012196173
16	0xbd912a42	-0.07088138
17	0x3dfddc78	0.12395567
18	0x3da9074b	0.08253344
19	0xba6e12bf	-0.0009081773
20	0x3d9657b2	0.07340945
21	0xbd3f031f	-0.046633836
22	0x3c5496a1	0.012975366
23	0xbe299163	-0.16559367
24	0x3cca4184	0.024689443
25	0x3d1982fe	0.03747844
26	0xbce36610	-0.027758628
27	0x3d168dea	0.036756434
28	0x3c8953b2	0.016763542
29	0x3dce2f9a	0.10067673
30	0x3cbd1571	0.023081513
31	0xbe287ae6	-0.16453132
32	0xbdea7f29	-0.11450035
33	0xbcbae83b	-0.022815814
34	0x3dd66e28	0.104702294
35	0xbd3d7741	-0.046256308
36	0x3d82647c	0.06366822
37	0xbd186dba	-0.03721402
38	0xbde31e9c	-0.11089823
39	0xbd57cbb8	-0.052684516
40	0x3dbe660f	0.0929681
41	0xbe01e9d1	-0.1268685
42	0xbdab334d	-0.08359394
43	0x3d50daca	0.050989904
44	0x3bc1f11e	0.005918636
45	0xbc9019c0	-0.017590404
46	0x3dbc4831	0.09193457
47	0xbdb0ee03	-0.08639147
48	0xbdeeac65	-0.116539754
49	0xbe0a2098	-0.13488996
50	0x3cc27c44	0.023740895
51	0xbdb0d77d	-0.08634851
52	0x3d9ecd42	0.077539936
53	0x3d9fa6ea	0.07795508
54	0xbdc508ab	-0.09620794
55	0x3c2bd544	0.010487858
56	0xbda58d3c	-0.08083579
57	0x3e09f0a0	0.13470697
58	0x3d860d47	0.06545501
59	0x3d818fd1	0.06326259
60	0x3cc2ae74	0.023764826
61	0xbd2fb819	-0.04290018
62	0x3e32bc38	0.17454612
63	0x3ded3966	0.115832135
64	0x3dba3eea	0.09094031
65	0xb807549f	-3.2265318e-05
66	0x3e0d72ea	0.13813367
67	0xbe1190eb	-0.14215438
68	0x3e684c74	0.22685415
69	0x3da70499	0.08155174
70	0xbddda662	-0.10822751
71	0xbd9808a5	-0.07423524
72	0x3e026c51	0.12736632
73	0xbdf1a475	-0.11798946
74	0xbe3fff04	-0.18749624
75	0xbc670aa1	-0.014101655
76	0xbd09a05f	-0.033600207
77	0x3cf193e1	0.02948946
78	0xbd8e0cac	-0.06936011
79	0xbd99b4a2	-0.07505156
80	0x3c504704	0.012712244
81	0x3c8b16af	0.01697859
82	0xbd71e8f0	-0.059060037
83	0x3d9b44cb	0.075814806
84	0x3ced6171	0.028977128
85	0xbd5c945d	-0.053852428
86	0xbc7f9c05	-0.015601163
87	0x3e1c9637	0.15291677
88	0xbdba9b88	-0.091116965
89	0x3d5c1a9a	0.053736307
90	0xbdcf09b7	-0.10109275
91	0xbbc884bd	-0.0061193393
92	0x3e0df563	0.13863139
93	0x3d50c484	0.050968662
94	0x3d287ccc	0.04113464
95	0xbdacc7a1	-0.08436514
96	0x3d3673bb	0.044543963
97	0x3df0bf2b	0.117552124
98	0xbdc97e42	-0.09838535
99	0xbde0f5f4	-0.10984412
100	0x3cf4e410	0.029893905
101	0xbe07e235	-0.13269885
102	0x3e2c16b0	0.1680553
103	0x3cbae057	0.022812052
104	0x3dc29af3	0.095022105
105	0xbd0ee4b4	-0.034886077
106	0xbd8d14cf	-0.068887345
107	0xbda6e270	-0.08148658
108	0xbddb01f4	-0.10693732
109	0xbdd78934	-0.10524216
110	0xbe0e8188	-0.139166
111	0x3ccb34ee	0.024805512
112	0xbe589953	-0.21152239
113	0x3c6f932c	0.014622491
114	0x3df299af	0.11845719
115	0xbdddb855	-0.10826174
116	0x3db5c9d7	0.088763885
117	0xbdb50c75	-0.088402666
118	0x3c488fa2	0.012241276
119	0xbe023ea6	-0.12719211
120	0x3d6d5ecb	0.05795173
121	0xbe123a08	-0.1427995
122	0xbcbb1b1d	-0.022840077
123	0x3e0d7198	0.13812864
124	0x3e035a41	0.12827398
125	0x3c80111e	0.015633162
126	0xbd263aed	-0.04058354
127	0x3d75c46d	0.06000178
128	0xbd935183	-0.071932815
129	0x3da9894f	0.08278143
130	0xbd5ef44d	-0.054432202
131	0x3d7f0397	0.062259283
132	0xbd49710b	-0.04918007
133	0xbe5b06a4	-0.21389252
134	0x3ddb9393	0.10721507
135	0xbe2ebd0d	-0.17064305
136	0xbcde2bee	-0.027120557
137	0x3e2c2c7f	0.16813849
138	0x3c9ff490	0.019525796
139	0xbddccab9	-0.10780854
140	0x3de8813f	0.11352777
141	0xbde1916b	-0.110140644
142	0xbcd4a6ce	-0.025958445
143	0x3d577833	0.052604865
144	0x3dabd093	0.08389392
145	0x3bd3311f	0.0064450647
146	0x3c7629c9	0.015024611
147	0xbcff9c35	-0.031202415
148	0x3dbc11cd	0.09183083
149	0xbd90fd79	-0.07079596
150	0xbd427331	-0.047473136
151	0xbce9585b	-0.028484514
152	0xbcf07900	-0.029354572
153	0x3dc4372b	0.09580835
154	0xbe18b429	-0.14912476
155	0x3d5cdb21	0.053919915
156	0xbc4053ac	-0.011738699
157	0x3e2004ce	0.15626833
158	0x3e348462	0.17628625
159	0xbd5f6a56	-0.05454477
160	0x3ddb9c8e	0.1072322
161	0xbbeb6a6c	-0.0071843173
162	0x3bf8dfe4	0.007595049
163	0x3d532036	0.05154439
164	0x3d4a26a3	0.049353253
165	0x3d460c8b	0.048351806
166	0x3c7e14dd	0.015507904
167	0x3e27d456	0.16389593
168	0xbd5edf04	-0.054411903
169	0x3c29521e	0.01033452
170	0xbd38be30	-0.045103252
171	0x3e57b83c	0.21066374
172	0xbd38bd87	-0.045102622
173	0x3d4814d0	0.048847973
174	0xbde75c47	-0.112968974
175	0xbd9e53ee	-0.07730852
176	0x3e0a71d3	0.13519983
177	0x3dc2db24	0.09514454
178	0xbcf9e567	-0.030504895
179	0xbd524eaa	-0.05134455
180	0x3da1dd39	0.07903523
181	0xbc9c4a02	-0.019078258
182	0x3dc278b8	0.094956815
183	0xbdc4a266	-0.096012875
184	0xbd0d25c5	-0.034459848
185	0x3c074eeb	0.008258562
186	0xbc0573c3	-0.0081452755
187	0xbcfebc98	-0.031095788
188	0xbdead7b2	-0.11466922
189	0x3cc608e2	0.024174158
190	0x3bd494ec	0.0064874794
191	0xbd3de2be	-0.046358816
192	0xbe1b6115	-0.15173753
193	0xbcbb0cd1	-0.02283326
194	0x3e1015ff	0.14070891
195	0x3d46bffc	0.048522934
196	0x3be0e0ef	0.0068627517
197	0x3cc2ae20	0.02376467
198	0x3db03d57	0.0860545
199	0x3d533b0a	0.051569976
200	0xbd8d7bab	-0.069083534
201	0x3bb4907c	0.005510388
202	0xbe39eec1	-0.18157484
203	0xbd357509	-0.044301067
204	0x3dde4091	0.10852159
205	0xbdacbaa1	-0.08434034
206	0x3db024dd	0.08600781
207	0x3df20a4a	0.11818369
208	0xbd91d2cd	-0.07120285
209	0x3e3b3441	0.18281652
210	0x3e0b42cd	0.13599701
211	0xbd47c7ce	-0.048774533
212	0x3db02794	0.08601299
213	0x3e3c89f6	0.18412003
214	0x3c04d68c	0.008107793
215	0xbdb9236a	-0.09039958
216	0x3e20829b	0.15674822
217	0xbc940a34	-0.018071271
218	0x3deb40e3	0.114869855
219	0xbcc625a0	-0.024187863
220	0x3cd16f38	0.025565729
221	0xbe30dffe	-0.17272946
222	0x3ca7ecb1	0.020498605
223	0x3e2e84f6	0.17042908
224	0x3d8341e6	0.064090535
225	0x3c413440	0.0117922425
226	0x3e414829	0.18875183
227	0x3dc0c5eb	0.0941275
228	0x3dbf7128	0.09347755
229	0xbc4a873b	-0.012361343
230	0x3e0923b4	0.13392526
231	0x3d93f45a	0.07224341
232	0x3c6dea0d	0.014521134
233	0xbcdcf04f	-0.026970057
234	0x3db35875	0.08757106
235	0x3d208042	0.039184816
236	0xbd801cb8	-0.06255478
237	0x3dc22437	0.09479564
238	0xbe5292ee	-0.20563862
239	0x3d099ed2	0.03359873
240	0x3d840061	0.06445385
241	0x3d97c317	0.07410257
242	0x3dcede76	0.10101025
243	0x3d5447c2	0.051826246
244	0x3d407542	0.046986826
245	0x3e12b80c	0.14328021
246	0x3db9460f	0.09046566
247	0x3c7650ae	0.015033884
248	0xbd9999a8	-0.07500011
249	0xbd9f1f81	-0.07769681
250	0xbc5b41ea	-0.013382414
251	0x3e27f68e	0.16402647
252	0x3dd5873e	0.10426186
253	0x3d908f98	0.07058638
254	0x3d559568	0.052144438
255	0x3e0e46ba	0.13894168

shared.1.weight f4 [512]
0	0x3f654b3c	0.89567924
1	0x3f52d65c	0.82358336
2	0x3f6679a7	0.90029377
3	0x3f39981e	0.7249774
4	0x3f57fd85	0.84371215
5	0x3f486962	0.782858
6	0x3f728c0a	0.9474493
7	0x3f5c1f1f	0.8598499
8	0x3f6c1c76	0.9223093
9	0x3f6110cc	0.87916255
10	0x3f669f2d	0.9008663
11	0x3f69ad54	0.912801
12	0x3f6fd596	0.9368528
13	0x3f53d934	0.827533
14	0x3f6e4b64	0.93083787
15	0x3f43756d	0.7635105
16	0x3f754dcf	0.9582185
17	0x3f66daca	0.90177596
18	0x3f600e30	0.8752165
19	0x3f5b34d8	0.8562751
20	0x3f37a8c8	0.71741915
21	0x3f5fbbbf	0.8739585
22	0x3f29a94d	0.6627396
23	0x3f5f3e72	0.8720466
24	0x3f448f5e	0.7678126
25	0x3f2d8e6e	0.67795455
26	0x3f655920	0.8958912
27	0x3f60e48d	0.8784874
28	0x3f5ba424	0.85797334
29	0x3f1cc912	0.6124431
30	0x3f5ff59b	0.8748414
31	0x3f6e1ff7	0.93017524
32	0x3f6b1ac9	0.91837746
33	0x3f583307	0.8445286
34	0x3f3f054b	0.7461745
35	0x3f607397	0.87676376
36	0x3f672ee3	0.9030592
37	0x3f6c31bf	0.92263407
38	0x3f3d2fd9	0.73901135
39	0x3f71e0d0	0.9448366
40	0x3f69514d	0.9113968
41	0x3f67be86	0.9052509
42	0x3f6aad94	0.9167111
43	0x3f799eac	0.9750774
44	0x3f4f92c1	0.81083304
45	0x3f6a79d8	0.9159217
46	0x3f5cece0	0.8629894
47	0x3f43f187	0.76540416
48	0x3f6a7ceb	0.9159686
49	0x3f6916f1	0.9105063
50	0x3f3c8a25	0.7364829
51	0x3f6610eb	0.89869565
52	0x3f70ea95	0.94107944
53	0x3f64fe61	0.8945065
54	0x3f782642	0.96933377
55	0x3f740baa	0.953303
56	0x3f6e8947	0.9317822
57	0x3f7a7dc1	0.97848135
58	0x3f712362	0.94194615
59	0x3f5ada8c	0.85489726
60	0x3f6869c4	0.90786386
61	0x3f66a71f	0.90098757
62	0x3f70b704	0.9402926
63	0x3f2944cb	0.66120595
64	0x3f667687	0.9002461
65	0x3f5cec4c	0.8629806
66	0x3f635f00	0.88816833
67	0x3f801fd9	1.0009719
68	0x3f5dbaee	0.8661336
69	0x3f59d1bd	0.8508566
70	0x3f704431	0.9385405
71	0x3f6b599f	0.91933626
72	0x3f615f26	0.8803581
73	0x3f5aafa0	0.8542423
74	0x3f7345cb	0.9502837
75	0x3f3cd531	0.73762804
76	0x3f7387af	0.9512891
77	0x3f6c6cdc	0.92353606
78	0x3f5bcfbc	0.8586385
79	0x3f432e3c	0.76242423
80	0x3f6865bb	0.9078023
81	0x3f4ac7f5	0.7921136
82	0x3f6564c4	0.8960688
83	0x3f60ef31	0.8786498
84	0x3f5a8fe3	0.85375804
85	0x3f5690ee	0.83814895
86	0x3f302fa0	0.6882267
87	0x3f6636a6	0.89927137
88	0x3f634c88	0.8878865
89	0x3f605e04	0.87643456
90	0x3f6b3e2d	0.9189175
91	0x3f69213b	0.9106633
92	0x3f5ca76b	0.8619296
93	0x3f710a1c	0.9415605
94	0x3f3119dd	0.6918009
95	0x3f67fe69	0.90622574
96	0x3f51b4a5	0.81916267
97	0x3f69f1de	0.91384685
98	0x3f65b13b	0.8972356
99	0x3f5ed0f6	0.870376
100	0x3f5fa3ac	0.8735912
101	0x3f5cdddc	0.8627603
102	0x3f67cf52	0.9055072
103	0x3f4af1c0	0.7927513
104	0x3f67fbf5	0.9061883
105	0x3f61130d	0.87919694
106	0x3f2ea61a	0.682222
107	0x3f557e56	0.833959
108	0x3f6e469a	0.9307648
109	0x3f6dc4a4	0.92878175
110	0x3f497643	0.7869608
111	0x3f39bd4d	0.72554475
112	0x3f719368	0.9436555
113	0x3f60ea57	0.87857574
114	0x3efcca7d	0.49373236
115	0x3f64a247	0.89310116
116	0x3f7c8add	0.9864939
117	0x3f6a5ad3	0.91544837
118	0x3f2e80b6	0.6816515
119	0x3f59c47c	0.85065436
120	0x3f76810e	0.9629067
121	0x3f6c7424	0.92364717
122	0x3f5f57bb	0.8724324
123	0x3f7a544d	0.9778488
124	0x3f4cedf9	0.8005062
125	0x3f5ddd5c	0.8666589
126	0x3f4d7f86	0.8027271
127	0x3f744f0e	0.9543313
128	0x3f671a6a	0.9027468
129	0x3f5705d6	0.8399328
130	0x3f604477	0.8760447
131	0x3f6f7c1c	0.9354875
132	0x3f67ab20	0.9049549
133	0x3f701ff7	0.93798774
134	0x3f6377d8	0.8885474
135	0x3f6832bb	0.9070241
136	0x3f813365	1.0093809
137	0x3f68ae3a	0.9089085
138	0x3f5cc9c6	0.8624538
139	0x3f2e47e3	0.6807844
140	0x3f710a03	0.941559
141	0x3f5d256b	0.8638522
142	0x3f320090	0.6953211
143	0x3f6115c3	0.8792383
144	0x3f2200ed	0.6328266
145	0x3f740240	0.95315933
146	0x3f02ae6c	0.51047397
147	0x3f494ef3	0.7863609
148	0x3f684d19	0.9074264
149	0x3f5db10f	0.86598295
150	0x3f4e646f	0.80622
151	0x3f70b4ba	0.94025767
152	0x3f606361	0.8765164
153	0x3f68b665	0.9090331
154	0x3f74b621	0.95590407
155	0x3f61e696	0.8824247
156	0x3f5f7e72	0.87302315
157	0x3f6f4540	0.9346504
158	0x3f62d443	0.88605136
159	0x3f70dfa5	0.94091254
160	0x3f51ee5f	0.8200435
161	0x3f1bfd3d	0.60933286
162	0x3f51d655	0.8196767
163	0x3f310f5b	0.69164056
164	0x3f632f32	0.8874389
165	0x3ede6257	0.43434402
166	0x3f37f0f7	0.7185206
167	0x3f5c74a1	0.8611546
168	0x3f7473c7	0.9548916
169	0x3f590ecd	0.8478821
170	0x3f5e276c	0.86778903
171	0x3f6f59d7	0.9349646
172	0x3f594422	0.8486959
173	0x3f461232	0.77371514
174	0x3f56dee3	0.8393385
175	0x3f698c9d	0.91230184
176	0x3f79c747	0.975697
177	0x3f68f73d	0.91002256
178	0x3f73a08d	0.95166856
179	0x3f75537d	0.9583052
180	0x3f435179	0.7629619
181	0x3f7969fa	0.9742733
182	0x3f623336	0.8835939
183	0x3f640601	0.8907166
184	0x3f614653	0.8799793
185	0x3f54ab11	0.83073527
186	0x3f5641a0	0.83693886
187	0x3f32de5f	0.6987056
188	0x3f72ee9f	0.94895357
189	0x3f3934ea	0.72346365
190	0x3f5adf6a	0.8549715
191	0x3f4aa552	0.7915851
192	0x3f5a4efa	0.8527676
193	0x3f4a66ac	0.79062915
194	0x3f5be290	0.8589258
195	0x3f30c67f	0.6905288
196	0x3f4b765f	0.79477495
197	0x3f58fa1f	0.84756655
198	0x3f4cd2d0	0.80009174
199	0x3f298b93	0.662286
200	0x3f36cd3f	0.7140693
201	0x3f28118a	0.6565176
202	0x3f68a2f1	0.9087363
203	0x3f5f9a3d	0.87344724
204	0x3f6f602b	0.93506116
205	0x3f6a2be6	0.91473234
206	0x3f664e5f	0.89963335
207	0x3f58e3e8	0.8472276
208	0x3f603bdc	0.8759134
209	0x3f76ac80	0.96356964
210	0x3f5c3595	0.8601926
211	0x3f3673f3	0.71270674
212	0x3f65e206	0.8979801
213	0x3f576ec4	0.8415339
214	0x3f3f9710	0.7483988
215	0x3f71381e	0.94226253
216	0x3f788027	0.97070545
217	0x3f4365f0	0.7632742
218	0x3f430169	0.76174027
219	0x3f6d9346	0.92802846
220	0x3f4cc5f7	0.7998957
221	0x3f7312d2	0.9495059
222	0x3f64ec5e	0.8942317
223	0x3f5c7bbb	0.861263
224	0x3f533abc	0.82511497
225	0x3f0bddb8	0.5463519
226	0x3f6f82a5	0.9355872
227	0x3f649730	0.89293194
228	0x3f673b02	0.90324414
229	0x3f474ed5	0.77854663
230	0x3f7270d6	0.94703424
231	0x3f58665c	0.8453119
232	0x3f2a9742	0.6663705
233	0x3f13d946	0.5775341
234	0x3f56cd51	0.8390704
235	0x3f5e62df	0.86869615
236	0x3f64d745	0.89390975
237	0x3f6e189d	0.93006307
238	0x3f59994a	0.84999526
239	0x3f65de74	0.8979256
240	0x3f2a0454	0.66412854
241	0x3f44627d	0.7671278
242	0x3f670f5b	0.90257806
243	0x3f45187a	0.76990473
244	0x3f7508f1	0.9571677
245	0x3f637339	0.8884769
246	0x3f4e6c76	0.8063425
247	0x3f773378	0.9656291
248	0x3f5f6569	0.87264115
249	0x3f6f19a1	0.9339848
250	0x3f638a40	0.8888283
251	0x3f601e0a	0.87545836
252	0x3f2465e8	0.64217997
253	0x3f1de845	0.6168254
254	0x3f6df65f	0.9295406
255	0x3f7d68b1	0.9898787

shared.1.bias f4 [512]
0	0xbb663c4c	-0.0035131155
1	0xbd7d7ea8	-0.061888367
2	0xbbcfd7bf	-0.0063428576
3	0xbcba0fd6	-0.02271263
4	0xbcccc028	-0.024993971
5	0xbd25e40b	-0.04050068
6	0xbd06bb17	-0.032893267
7	0x3ce73ae4	0.028226323
8	0xbd08a58c	-0.033361003
9	0xbcb989a7	-0.022648646
10	0xbca665e7	-0.020312263
11	0xbd31871c	-0.04334174
12	0xbcefa783	-0.02925468
13	0xbd8daeb0	-0.069180846
14	0xbd0c64e2	-0.034275897
15	0xbd476158	-0.04867682
16	0xbb56eff4	-0.0032796832
17	0xbc22656c	-0.009911876
18	0xbad76137	-0.001643217
19	0xbd6ab740	-0.057303667
20	0x3c240006	0.010009771
21	0xbcb8b642	-0.022547845
22	0xbc432576	-0.011910787
23	0xbcf15356	-0.029458683
24	0x3d077a15	0.03307541
25	0xbd939869	-0.07206804
26	0xbc83349c	-0.016016297
27	0xbd48311b	-0.048874956
28	0xbced6ac3	-0.028981572
29	0xbcfa8297	-0.030579848
30	0xbc438299	-0.011932992
31	0xbcbdf853	-0.0231897
32	0xbd2e39e8	-0.042535692
33	0xbd819d08	-0.063287795
34	0xbc9fde78	-0.019515261
35	0xbd294681	-0.041327003
36	0xbd1a2427	-0.037632134
37	0xbc855de2	-0.016280118
38	0xbd38bdcf	-0.04510289
39	0xbcefa904	-0.029255398
40	0xbd2d87b1	-0.042365734
41	0xbd360a3a	-0.044443347
42	0xbcab3443	-0.020898944
43	0xbbc4afa8	-0.006002385
44	0xbd0fc000	-0.035095215
45	0xbd82a203	-0.063785575
46	0xbd28de23	-0.04122747
47	0xbda512a5	-0.08060197
48	0xbd3eb907	-0.046563175
49	0xbcd11331	-0.025521846
50	0xbc0acf47	-0.00847227
51	0xbc2fad8e	-0.010722531
52	0xbd1234a4	-0.035694733
53	0xbbbfa122	-0.005848066
54	0x3b9098b6	0.004412736
55	0xbd1099af	-0.035302814
56	0xbc654b7f	-0.01399505
57	0x3c827fa0	0.015929997
58	0x3c8c0acf	0.017094998
59	0xbd1d30dc	-0.038376674
60	0x3cb16138	0.021652803
61	0xbd8d9950	-0.06914008
62	0xbd389e16	-0.045072637
63	0xbccce5fe	-0.025012013
64	0xbd3c3c2e	-0.04595583
65	0xbd62d31c	-0.05537711
66	0xbd020919	-0.031746957
67	0xbc9f68d8	-0.019459173
68	0xbc16763e	-0.009183465
69	0xbd510011	-0.051025454
70	0xbcfa3cc4	-0.030546553
71	0xbc93f170	-0.018059462
72	0xbc9cee15	-0.019156495
73	0xbd29f5c7	-0.041494157
74	0xbc8d5467	-0.01725216
75	0xbd960fb4	-0.07327214
76	0xbc1d791f	-0.009611397
77	0xbbc9743a	-0.0061478885
78	0xbd7183fa	-0.058963753
79	0x3c00aa8c	0.007853162
80	0xba9f5b75	-0.0012157994
81	0xbce42700	-0.027850628
82	0xbbb4ef7c	-0.005521713
83	0xbca618fa	-0.020275582
84	0xbd696876	-0.056984387
85	0x3cf204db	0.02954333
86	0xbd8c977d	-0.068648316
87	0x3baffa7d	0.0053704367
88	0xbcde2980	-0.027119398
89	0xbd2d6fd8	-0.04234299
90	0xbcd38c43	-0.025823718
91	0xbcc2ca9d	-0.023778254
92	0x3c9287eb	0.017887076
93	0xbce64672	-0.028109763
94	0xbca19feb	-0.019729575
95	0xbd001dfd	-0.0312786
96	0xbd2c1203	-0.042009365
97	0xba624d27	-0.00086327124
98	0xbd7ffc69	-0.062496576
99	0x3c4d7e82	0.012542369
100	0xbd958d0b	-0.073022924
101	0xbbe4f52f	-0.006987236
102	0x3ad1d0b6	0.0016007635
103	0xbd24e11a	-0.040253736
104	0xbd245c59	-0.040127132
105	0x3c2ec5f2	0.010667311
106	0x3cafe4b9	0.021471368
107	0xbb973746	-0.0046147434
108	0xbc91932a	-0.017770369
109	0xbd2ff6b4	-0.042959884
110	0xba16bf24	-0.0005750528
111	0xbc756885	-0.014978533
112	0xbd44a003	-0.04800416
113	0xbc90385b	-0.017604997
114	0xbd957101	-0.072969444
115	0xbd3c532c	-0.045977756
116	0xbb6a89c5	-0.0035787683
117	0xbc22ba26	-0.009932077
118	0xbccbf61d	-0.02489763
119	0xbcd480a4	-0.025940247
120	0x3ce85c51	0.028364332
121	0xbcb90955	-0.022587458
122	0xbce54394	-0.027986325
123	0x3ca01efe	0.019546028
124	0x3d503c38	0.05083868
125	0xbd601094	-0.05470331
126	0xbc6a7157	-0.014309249
127	0x3cf09cb2	0.029371593
128	0x3c44a3e9	0.01200197
129	0xbcc5cd34	-0.0241457
130	0xbce9d034	-0.028541662
131	0x3b1cec6e	0.0023944634
132	0x3b5717ab	0.0032820504
133	0xbd927106	-0.07150464
134	0xbd22163b	-0.039571982
135	0xbd392fbc	-0.04521154
136	0xba61940e	-0.0008605131
137	0xbc4e2c6d	-0.012583834
138	0xbd9cb1ee	-0.07651125
139	0xbcbeae80	-0.023276567
140	0x3bf30043	0.0074158027
141	0xbc90768f	-0.017634658
142	0xbba93b6a	-0.0051645534
143	0xbccf6f93	-0.025321757
144	0xbcc85ad1	-0.024457367
145	0x3c55ba48	0.013044901
146	0xbcf987d6	-0.03046028
147	0xbd3a9c55	-0.045559246
148	0xbd08d1be	-0.03340315
149	0x3c3b3000	0.011425018
150	0xbd3aec4c	-0.045635507
151	0xbd0bcd08	-0.03413108
152	0x3a460396	0.0007553635
153	0xbcf95af0	-0.03043887
154	0xbd357b31	-0.044306938
155	0xbcaf51c4	-0.021401294
156	0xbd485180	-0.04890585
157	0x3b0e5747	0.0021719502
158	0x3cdfd2ed	0.027322257
159	0xbd231986	-0.039819263
160	0x3c88d186	0.016701471
161	0xbd51812a	-0.05114857
162	0xbcb342fb	-0.021882525
163	0xbc3e0254	-0.011597235
164	0xbda9323c	-0.082615346
165	0xbde41aee	-0.11137949
166	0xbcbe3e48	-0.023223057
167	0x3c8bcf61	0.01706666
168	0xbc84e682	-0.016223196
169	0xbd845bd1	-0.06462825
170	0xbd92156b	-0.071329914
171	0xbc554c92	-0.013018744
172	0xbc88c6f1	-0.016696425
173	0xbc1b6999	-0.009485626
174	0xbd57b0dc	-0.0526589
175	0xbc01d2d3	-0.0079238
176	0x3c9e92b1	0.019357057
177	0xbd918b04	-0.07106593
178	0x3b128ba8	0.0022361074
179	0x3cdb5df4	0.026778199
180	0xbbf706d2	-0.007538655
181	0xbc089878	-0.008337133
182	0xbd253cb5	-0.040341098
183	0x3cb56380	0.022142172
184	0xbda4a845	-0.08039907
185	0xbc8198eb	-0.015819987
186	0xbd02965d	-0.03188168
187	0xbd26168c	-0.040548846
188	0xbc42bfad	-0.011886519
189	0xbd68f2e6	-0.05687227
190	0xbcda0bd7	-0.026616974
191	0xbb34cee5	-0.002758914
192	0x3a6ab95d	0.0008954013
193	0xbb5f49d0	-0.0034071095
194	0xbbd6bfb3	-0.006553614
195	0xbbd4fd68	-0.006499935
196	0xbd0933a7	-0.033496525
197	0xbc4a765e	-0.0123573225
198	0xbd2ca529	-0.042149696
199	0xbcc71cd6	-0.024305742
200	0x3c3e755c	0.01162466
201	0xbc0951e3	-0.00838134
202	0xbd2a305a	-0.041550018
203	0xbd91aec7	-0.07113414
204	0x3cc22c43	0.023702746
205	0xbd5d7342	-0.054064997
206	0x3c793e8a	0.015212664
207	0xbd143b51	-0.03618938
208	0xbc2ced89	-0.01055468
209	0x3ad54db4	0.0016273768
210	0xbcdb56f3	-0.026774859
211	0xbcf74211	-0.03018287
212	0xbce164ab	-0.027513823
213	0xbc1020c0	-0.008796871
214	0xbc75152e	-0.014958663
215	0x3b813e58	0.0039441995
216	0x3b9f3021	0.0048580323
217	0xbcef8d57	-0.0292422
218	0xbc9c4886	-0.01907755
219	0xbc260d46	-0.010135001
220	0xbcef2ea3	-0.029197043
221	0x3c029441	0.007969917
222	0xbd82b055	-0.06381289
223	0xbca7c981	-0.020481827
224	0xbc76e48b	-0.015069137
225	0xbcc0570a	-0.023479003
226	0xbbfda41e	-0.0077405116
227	0xbd420d62	-0.047376044
228	0xbc4b8d03	-0.0124237565
229	0xbd3cc093	-0.04608209
230	0xbd0b5965	-0.0340208
231	0x3babe10b	0.005245333
232	0xbc7cc71e	-0.015428333
233	0xbd262ffe	-0.040573113
234	0xbd452ba2	-0.048137315
235	0xbca2b4fe	-0.019861694
236	0xbd3d4dd7	-0.046216812
237	0xbb656097	-0.00350002
238	0xbd741693	-0.05959184
239	0xbcab2bc9	-0.020894902
240	0xbc5e99f7	-0.013586513
241	0xbcead2ad	-0.028664911
242	0xbd37a19c	-0.044831857
243	0xbcbb3f87	-0.02285744
244	0xbbbbeda9	-0.0057351184
245	0xbd0d7fa8	-0.03454557
246	0x3b4846dc	0.0030559814
247	0xbc99534a	-0.018716473
248	0xbc0ef641	-0.008725704
249	0xbc6b772e	-0.014371676
250	0xbd8a149a	-0.06742211
251	0xbd02f8e8	-0.031975657
252	0xbd190ef0	-0.03736776
253	0x3c222d19	0.009898447
254	0xbd13092a	-0.03589741
255	0x3b8769d0	0.004132487

shared.3.weight f4 [256, 512]
0	0xbcf99c90	-0.030470163
1	0xbd09a21b	-0.03360186
2	0xbd04fe20	-0.032468915
3	0xbc5a6981	-0.013330818
4	0xbca78aa1	-0.020451846
5	0x3c70b1f0	0.014690861
6	0xbc73b275	-0.01487409
7	0x3ca9e617	0.020739598
8	0x3d0dc131	0.03460807
9	0xbd025534	-0.031819537
10	0x3d28c26f	0.04120105
11	0xbcaa4576	-0.020785075
12	0x3d5fb78f	0.054618414
13	0x3cdc6a8f	0.02690628
14	0xbc5b6fff	-0.013393401
15	0xbbf0a793	-0.007344195
16	0x3d79bebb	0.06097291
17	0x3cc6a537	0.024248702
18	0xbb79a226	-0.0038091033
19	0xbcc58d18	-0.02411513
20	0x3d7d749c	0.061878785
21	0xbc8bb8cc	-0.017055891
22	0x3b0bbd77	0.0021322647
23	0xbcc153aa	-0.023599464
24	0xbcbe585a	-0.023235489
25	0xbcdf6267	-0.027268602
26	0x3c3b72e0	0.011440963
27	0x3c98dff4	0.018661477
28	0xbc8e534c	-0.017373703
29	0x3d7062da	0.058688022
30	0x3d027daf	0.031858142
31	0x3b563dc2	0.003269062
32	0x3d0c160b	0.03420071
33	0x3caf3c15	0.021390954
34	0x3a986710	0.0011627395
35	0x3d07562b	0.03304116
36	0xbce8479c	-0.028354459
37	0xbcd84164	-0.026398368
38	0x3c39fb24	0.0113513805
39	0xbd2118d7	-0.03933033
40	0x3cc689df	0.024235664
41	0xb99a175a	-0.00029390567
42	0xbbc0094e	-0.005860484
43	0xbcf1753e	-0.02947485
44	0xbc9412bb	-0.018075338
45	0x3ac4e9e1	0.0015023315
46	0xbc02c41a	-0.007981325
47	0x3d273299	0.040819738
48	0xbca68f25	-0.020331929
49	0x3d0664c9	0.03281096
50	0x3c7cf2d3	0.015438753
51	0xbcf06b2b	-0.029347977
52	0xbd1bf89a	-0.03807888
53	0x3d2347f6	0.03986355
54	0xbd8a5c9b	-0.06755944
55	0x3c8dfac1	0.017331483
56	0x3c858359	0.016297983
57	0xbbf71b8e	-0.0075411266
58	0x3cbb215e	0.02284306
59	0xba9ce4d2	-0.0011970049
60	0xbcab7676	-0.02093051
61	0xbd09e0ff	-0.03366184
62	0x39cb7bdc	0.0003881146
63	0x3d2f69a0	0.04282534
64	0x3d0b1aa5	0.033960957
65	0x3c770be5	0.0150785195
66	0x3c756ca1	0.014979512
67	0x3b0444b0	0.0020182543
68	0xbbacda11	-0.005275019
69	0x3c980620	0.018557608
70	0x3cba1894	0.022716798
71	0xbd0b2ef7	-0.033980336
72	0x3b4173c1	0.0029518458
73	0xbcca9374	-0.024728514
74	0xba6c12b5	-0.0009005473
75	0x3a25c2b7	0.0006323265
76	0x3da05bad	0.07829986
77	0xbbf348e3	-0.0074244603
78	0xbd180280	-0.03711176
79	0x3cfe479f	0.031040011
80	0x3df897a4	0.12138298
81	0x3c3dd6aa	0.011586824
82	0x3d4a4ad0	0.049387753
83	0xbcdcd96f	-0.02695915
84	0xbcac2c33	-0.02101717
85	0x3d8c660c	0.068554014
86	0x3d0aa3c5	0.03384759
87	0x3cc13245	0.02358354
88	0x3bcef01b	0.006315244
89	0x3b8fec4f	0.004392184
90	0xbbcd6595	-0.006268213
91	0xbbdbaad5	-0.0067037144
92	0xbba7f210	-0.0051252916
93	0x3ca51118	0.020149752
94	0x3c59584f	0.013265683
95	0x3cf33deb	0.02969261
96	0x3b4f315d	0.0031615116
97	0x3b2058ef	0.002446707
98	0xbcc5bdc2	-0.024138335
99	0x3d016d96	0.03159865
100	0xb9e2cb0c	-0.0004325736
101	0xbc0a9334	-0.0084579475
102	0x3b7cd07a	0.003857641
103	0x3cb0f926	0.021603178
104	0xbd558d4b	-0.0521367
105	0xbcb20163	-0.021729177
106	0x3cee17a7	0.029064013
107	0xb9c338d8	-0.0003723565
108	0xbd75ea20	-0.060037732
109	0xbc7e5e9e	-0.015525488
110	0x3c97de26	0.018538546
111	0x3ceaf222	0.028679911
112	0x3d1c9ec2	0.03823734
113	0x3cd62f6b	0.026145658
114	0xbbf0fc2e	-0.007354281
115	0x3b020775	0.001984087
116	0xbd439edb	-0.04775892
117	0x3d18b3c5	0.037280817
118	0x3ca335bc	0.019923083
119	0xbd251b16	-0.040309034
120	0x3cb7ebb5	0.022451261
121	0xbb058345	-0.0020372432
122	0xbb754dce	-0.0037430408
123	0x3c0744cc	0.008256149
124	0x3d0a80fd	0.03381442
125	0xbc999be4	-0.018751092
126	0xbb399235	-0.0028315906
127	0x3d20b42a	0.039234318
128	0xbb77653c	-0.003774955
129	0xbc69c5cb	-0.014268349
130	0x3d4110fa	0.04713533
131	0x3c5cf064	0.013485048
132	0xbc47fc2e	-0.01220612
133	0xbc1ac218	-0.00944569
134	0xbc1a9bf0	-0.009436592
135	0xba49407d	-0.0007677151
136	0x3d647ccc	0.055783078
137	0xbc9354a2	-0.017984692
138	0xbcded49c	-0.02720099
139	0x3cf79061	0.030220212
140	0x3c04403f	0.008071958
141	0xbc4ff710	-0.012693182
142	0x3ae1973b	0.0017211208
143	0x3ce7f15d	0.028313333
144	0x3d185cae	0.03719776
145	0x3d1db71d	0.03850471
146	0x3c6bf5d3	0.014401871
147	0xbb68dd43	-0.0035532273
148	0xbd5f94ab	-0.05458514
149	0xbd0e6ab7	-0.03476974
150	0xbc918cb7	-0.017767293
151	0xbcc9a01a	-0.024612475
152	0xbcc5597c	-0.024090521
153	0x3c7d5459	0.015462005
154	0x3c92ab19	0.017903851
155	0x3ce0fb91	0.027463706
156	0x3cb026b0	0.021502823
157	0xbd14cb58	-0.036326736
158	0xbcc9e9f0	-0.024647683
159	0xbd0216db	-0.031760078
160	0xbbd22e42	-0.006414206
161	0x3d5ba316	0.053622328
162	0xbcd8d154	-0.026467003
163	0xb6a5ab50	-4.9373266e-06
164	0x3bb4f2ba	0.0055220993
165	0xbc8fb3ea	-0.017541844
166	0x3d383d94	0.0449806
167	0xbcb845cd	-0.022494221
168	0x3d067c7f	0.032833572
169	0x3d0b45ef	0.03400224
170	0xbd1c62b6	-0.038180076
171	0xbc0e511f	-0.008686333
172	0x3d0d726e	0.034532957
173	0x3c5ce25c	0.013481703
174	0x3b5fc9b8	0.0034147333
175	0xbbc8c76a	-0.0061272876
176	0x3d02e7f5	0.031959493
177	0x3ccfba7f	0.025357483
178	0xbb376d9e	-0.002798892
179	0xbae3076d	-0.0017320939
180	0x3c955a14	0.01823143
181	0x3d65bc45	0.05608775
182	0x3d2c7788	0.04210618
183	0x3cd0b8c3	0.025478726
184	0x3ac1c8ab	0.0014784535
185	0xbcd4eb35	-0.025991062
186	0x3cb60e3d	0.022223586
187	0x3c8e4656	0.017367523
188	0xb9f5a28d	-0.0004685115
189	0x3c21414d	0.009842229
190	0xbcbf87d3	-0.023380196
191	0x3bf2a4f6	0.007404919
192	0x3c9520dd	0.018204147
193	0x3cc56a77	0.024098618
194	0x3d337861	0.043815974
195	0x3c2d0f82	0.010562779
196	0x3c15fed1	0.009154991
197	0xbcec0f79	-0.028815972
198	0xbc5c4108	-0.013443239
199	0x3c9d3b6d	0.019193375
200	0x3c7514b3	0.014958548
201	0x3c687bfe	0.014189718
202	0x3ca132c0	0.01967752
203	0xbc3ca7ea	-0.011514643
204	0x3d3d4163	0.046204936
205	0x3ce01a75	0.027356366
206	0x3d405a22	0.046960957
207	0x3af831d8	0.0018935753
208	0x3cd0349a	0.025415707
209	0xbc89d445	-0.01682485
210	0x3d075f91	0.033050124
211	0x3d10368d	0.035208274
212	0x3c8c4f50	0.017127663
213	0xbc68324e	-0.01417215
214	0xbb6b8fcf	-0.003594387
215	0xbc1b9d29	-0.009497919
216	0x3d02666e	0.031835966
217	0x3c2f6262	0.010704609
218	0x3ca1c563	0.019747442
219	0x3b6f9c6f	0.0036561748
220	0xbce84b83	-0.02835632
221	0x3b92e4f2	0.004482859
222	0x3c4b328b	0.012402187
223	0x3cba32a4	0.022729225
224	0xbcc38f10	-0.023871928
225	0x3c442723	0.011972222
226	0x3c36c135	0.011154463
227	0xbcce65b5	-0.025194982
228	0x3d70b410	0.05876547
229	0x3c97113a	0.018440831
230	0xbb964152	-0.0045854235
231	0x3c95f17a	0.018303622
232	0x3d25a841	0.040443663
233	0xbcc233d1	-0.023706349
234	0xbcb5a16a	-0.022171695
235	0xbbcb31f3	-0.006201023
236	0xbd812f62	-0.06307866
237	0x3b41e619	0.0029586612
238	0xbd074bc6	-0.033031248
239	0x3caea91d	0.021320874
240	0x3bbdf170	0.005796604
241	0x3d134266	0.035951994
242	0xbd131384	-0.035907283
243	0xbc5ce921	-0.013483317
244	0xbbf7fd8d	-0.0075680674
245	0xbd08e090	-0.033417284
246	0xbbe8742f	-0.0070939283
247	0xbcb80f97	-0.022468371
248	0x3ce043c1	0.027376058
249	0x3cd3f79b	0.025874903
250	0x3c292ef4	0.010326136
251	0xbb529216	-0.003213053
252	0x3d82c9a7	0.063861184
253	0x3d05d46a	0.032673277
254	0xbc7dc974	-0.015489925
255	0xbcd813f1	-0.026376696

shared.3.bias f4 [256]
0	0xbc3c0f29	-0.011478224
1	0xba5d1169	-0.0008433075
2	0x3c051cbc	0.008124527
3	0x3b7ac14b	0.0038262184
4	0xbc8cec19	-0.017202424
5	0x3d30368e	0.043020777
6	0x3c020b5a	0.007937277
7	0x3c268cd5	0.010165413
8	0x3cea14a0	0.028574288
9	0x3a7d2b55	0.0009657641
10	0x3d2f45e9	0.04279128
11	0xbaed2329	-0.0018092144
12	0x3cb7a694	0.022418298
13	0xba67e5c3	-0.0008846188
14	0xbd0be08b	-0.034149688
15	0x3cc33331	0.02382812
16	0xbcd96d70	-0.026541442
17	0xbc033bb0	-0.008009836
18	0x3c8b0ea8	0.016974762
19	0xbcf19378	-0.029489264
20	0x3d14f742	0.036368616
21	0x3c2402a2	0.010010393
22	0x3bcd2dec	0.006261578
23	0x3c4a5352	0.012348967
24	0x3d12d4c1	0.03584743
25	0x3d0a9221	0.033830766
26	0x3ce42d3c	0.0278536
27	0x3c7d85d0	0.015473798
28	0x3d17c4a4	0.037052765
29	0xbd09d45f	-0.0336498
30	0x3c9cd3e0	0.019143999
31	0xbd0e97ae	-0.03481262
32	0x3c8e8ebc	0.017402045
33	0x3bf8e28e	0.007595367
34	0x3c9d0ee7	0.019172145
35	0xbc99c8e8	-0.018772557
36	0x3cc32136	0.023819547
37	0x3ce23d7d	0.02761721
38	0x3cb1dfae	0.021713104
39	0xbc32391c	-0.010877874
40	0xbd141e51	-0.036161724
41	0x3d19a5e4	0.03751172
42	0xbc09e0ef	-0.008415445
43	0xbc482be4	-0.012217496
44	0x3ca72fbf	0.02040851
45	0x3d259da6	0.04043355
46	0x3d168732	0.036750026
47	0x3bf4c08e	0.0074692434
48	0x3c3de63d	0.011590538
49	0xbc4a5876	-0.012350192
50	0xbc953228	-0.018212393
51	0x3d18f23d	0.03734039
52	0xbc8a2695	-0.0168641
53	0xbc5293f2	-0.012852656
54	0xbc92156e	-0.017832484
55	0xbc814efe	-0.015784737
56	0x3c1da30a	0.009621391
57	0xbb6d49b4	-0.003620726
58	0x3c951d9c	0.018202595
59	0x3c9aa0f1	0.018875571
60	0xbcd53274	-0.026025034
61	0xbb8ce291	-0.0042994698
62	0xbd1a901f	-0.0377351
63	0xba6509d8	-0.00087371236
64	0x3cfbd03b	0.03073894
65	0xbd228514	-0.039677694
66	0x3afbaf2c	0.0019201986
67	0x3c532290	0.012886658
68	0xb8c34685	-9.31146e-05
69	0xbcc76e4b	-0.024344584
70	0xbb9e03e2	-0.00482224
71	0xbc796987	-0.015222914
72	0xbcfd0841	-0.030887725
73	0xbc674895	-0.014116426
74	0xbb9202fe	-0.004455923
75	0xbc1e9431	-0.009678886
76	0x3cf6e5cb	0.03013887
77	0xbceb385f	-0.028713403
78	0xbcac9996	-0.02106933
79	0xbb48d105	-0.0030642163
80	0x3ce04486	0.027376425
81	0xbb4fa828	-0.0031685922
82	0x3cf12618	0.02943711
83	0x3d0ec2f3	0.034853887
84	0x3cd86461	0.026415052
85	0xbb6e8951	-0.0036397765
86	0x3cb4ce99	0.02207117
87	0xbc447ddb	-0.011992897
88	0xbca2c3f3	-0.019868826
89	0x3c779dab	0.015113275
90	0xbb740da1	-0.0037239569
91	0x3c5c3042	0.01343924
92	0x3d18a940	0.037270784
93	0x3d3b9f8b	0.04580645
94	0xbd1dd179	-0.038529847
95	0xbcacd618	-0.021098182
96	0x3d2d58f7	0.04232117
97	0xbc68cee9	-0.0142094875
98	0x3bc89157	0.0061208415
99	0xbb6a4da1	-0.0035751837
100	0x3caa8979	0.020817505
101	0xbd07291c	-0.03299819
102	0x3cf0da01	0.029400827
103	0xbd09e19d	-0.033662427
104	0xbcfbacce	-0.030722048
105	0x3cb50949	0.022099154
106	0x3b87d53d	0.004145293
107	0x3cb6a692	0.022296224
108	0xbc56d22d	-0.013111633
109	0x3c6ffe02	0.0146479625
110	0xbcd1cbb9	-0.025609838
111	0xbc039938	-0.008032136
112	0xbca78d3d	-0.02045309
113	0xbcb7d0f9	-0.022438513
114	0x3cd58c7a	0.026067961
115	0x3c120587	0.008912451
116	0xbcdc92e9	-0.026925521
117	0xbcaa7cbd	-0.020811433
118	0x3c419513	0.011815327
119	0x3ce7bc9d	0.02828818
120	0xbc9829a2	-0.01857454
121	0xbc7c7cba	-0.0154105965
122	0x3c5cfc7a	0.0134879295
123	0x3cf05193	0.029335773
124	0x3b339781	0.0027403536
125	0xbcd63c48	-0.026151791
126	0x3c62b968	0.01383815
127	0x3c0333c8	0.008007951
128	0xbd09673f	-0.03354573
129	0x3bd5f9bf	0.006530016
130	0xbac033c3	-0.0014663864
131	0xbbfd3014	-0.0077266786
132	0x3bc4b566	0.0060030697
133	0x3d1a30bb	0.03764413
134	0xbce5e8fd	-0.028065199
135	0x3d1c0c06	0.038097404
136	0x3b8868f6	0.004162903
137	0x3bfa1448	0.0076318122
138	0x3c4a5a72	0.012350665
139	0xb8d09374	-9.945678e-05
140	0xbd189bec	-0.037258074
141	0x3d21a93f	0.039468046
142	0x3cceca70	0.025243014
143	0xba8e87f7	-0.0010874261
144	0xbcc8d3c3	-0.024515038
145	0x3c51aec4	0.012798015
146	0x3cda640e	0.026659038
147	0x3d02616d	0.031831194
148	0x3cadcf74	0.021217085
149	0x3cd985f6	0.026553135
150	0xbcfe7bd9	-0.031064915
151	0xbb282922	-0.0025659283
152	0xbcab576f	-0.020915715
153	0xbc85f353	-0.016351378
154	0xbcd8b26c	-0.026452266
155	0x3bab408b	0.0052262
156	0xbcadca81	-0.021214725
157	0xbd1e3867	-0.03862801
158	0xba240854	-0.00062573445
159	0x3b78d91c	0.0037971204
160	0x3c10cae8	0.008837439
161	0x3d01e0b9	0.031708453
162	0xbd094382	-0.033511646
163	0xbc9d4c17	-0.019201322
164	0x3988651e	0.0002601528
165	0xbd0ec940	-0.034859896
166	0x3c380c03	0.011233333
167	0x3d217d75	0.039426286
168	0x3c99f53c	0.018793695
169	0x3c774a67	0.0150934225
170	0x3ca5b6c8	0.020228758
171	0xbcdd1b8e	-0.026990678
172	0xbce072a3	-0.027398413
173	0x3d044a8d	0.03229766
174	0x3d0253f5	0.03181835
175	0x3d242d0f	0.040082034
176	0x3c8dd583	0.017313724
177	0x3a31875a	0.0006772183
178	0x3cf9ce3d	0.03049385
179	0xbc9b7499	-0.018976497
180	0x3cb8c39a	0.022554208
181	0x3ceac67e	0.028659102
182	0x3c8083c9	0.01568784
183	0x3d3487e5	0.04407491
184	0xbd25d290	-0.04048401
185	0xbcc00bc8	-0.023443118
186	0xbd1b9d95	-0.03799208
187	0xbd10c8d6	-0.035347782
188	0xbb23e214	-0.002500658
189	0x3d19064f	0.037359532
190	0xbcc2ce46	-0.02378
191	0x3b5ba7a6	0.0033516674
192	0xbcbf93bf	-0.02338588
193	0xbcd07f61	-0.025451364
194	0x3ce2a8a0	0.027668297
195	0x3d073258	0.033006996
196	0x3c3652b3	0.0111281155
197	0xbcba1821	-0.022716584
198	0xbbb5d47a	-0.005549011
199	0x3d29e0c6	0.041474126
200	0xbccbc14e	-0.024872448
201	0x3c7d6214	0.015465278
202	0x3c61aefe	0.013774632
203	0xbd0fc88b	-0.035103362
204	0xbcbd3511	-0.023096593
205	0xbc9be1a9	-0.019028502
206	0x3cb982b5	0.022645334
207	0x3c2f2f91	0.010692493
208	0xbaeebcb6	-0.0018214199
209	0xba19d890	-0.0005868757
210	0xbc38d382	-0.011280896
211	0xbcc36f20	-0.0238567
212	0xbcab483e	-0.020908471
213	0xb86a7d0e	-5.5906414e-05
214	0x3d165166	0.03669872
215	0x3ca60c0d	0.020269418
216	0xbcbb6895	-0.022877017
217	0x3d205fa0	0.039153695
218	0x3cb36535	0.021898845
219	0xbb8056d5	-0.003916601
220	0xbc87fba4	-0.016599484
221	0x3d11cecd	0.03559761
222	0xbd0f8668	-0.03504029
223	0x3c9e1934	0.019299127
224	0xbd19f2fd	-0.037585247
225	0x3bb02180	0.0053750873
226	0x3c9df526	0.019281935
227	0x3ccfb429	0.025354462
228	0xbbb01e93	-0.0053747385
229	0xbc11b97c	-0.008894321
230	0x3c756964	0.01497874
231	0x3c4e2785	0.012582664
232	0x3cbe7740	0.023250222
233	0xb9441259	-0.00018698852
234	0xbbea4995	-0.007149885
235	0x3cde55bc	0.02714049
236	0xbb9318fa	-0.0044890614
237	0x3ad1aee8	0.0015997561
238	0x3d07008b	0.032959502
239	0x3c6e9a9c	0.014563229
240	0x3cdb7a3b	0.026791682
241	0x3b5db672	0.003383067
242	0xbbc5fb5a	-0.0060419263
243	0x3ca2c6ca	0.01987018
244	0xbc3cfb5c	-0.011534538
245	0xbd293b19	-0.041316126
246	0x3d1469b2	0.03623361
247	0xbca53573	-0.020167088
248	0x3d2d9fe9	0.04238883
249	0xbc4b39cb	-0.012403916
250	0xbd21375e	-0.039359443
251	0xbc6e06c2	-0.014527978
252	0x3c890014	0.01672367
253	0xbd090d42	-0.03345991
254	0x3d1be9de	0.03806483
255	0xbc7a901d	-0.015293148

shared.4.weight f4 [256]
0	0x3f2b0179	0.6679912
1	0x3f530965	0.8243621
2	0x3f5cee12	0.86300766
3	0x3f7c2006	0.98486364
4	0x3f60ab45	0.87761337
5	0x3f73f6b7	0.9529833
6	0x3f017895	0.5057462
7	0x3f77a69c	0.967386
8	0x3f77edc1	0.9684716
9	0x3f027f1c	0.50975204
10	0x3f69d9a6	0.9134773
11	0x3f63b611	0.88949686
12	0x3f647494	0.89240384
13	0x3f6195d2	0.8811923
14	0x3f51f989	0.82021385
15	0x3f5a276b	0.852164
16	0x3f695593	0.911462
17	0x3efde56b	0.49589095
18	0x3f6ca9af	0.92446417
19	0x3f72944e	0.94757545
20	0x3f7d6b57	0.9899191
21	0x3f69cbbf	0.91326517
22	0x3f5473c9	0.82989174
23	0x3f4cb017	0.7995619
24	0x3f725d57	0.94673675
25	0x3f814490	1.0099049
26	0x3f7631f5	0.9616998
27	0x3f67763a	0.90414774
28	0x3f689c21	0.90863234
29	0x3f5c0b96	0.8595518
30	0x3f73c473	0.9522163
31	0x3f7be083	0.9838945
32	0x3f6a6694	0.9156277
33	0x3f78d607	0.9720158
34	0x3f708ae2	0.9396192
35	0x3f5940ee	0.848647
36	0x3f7838ac	0.96961474
37	0x3f77fbce	0.968686
38	0x3f51dce2	0.81977665
39	0x3f706a3a	0.9391209
40	0x3f3c9d4b	0.7367751
41	0x3f6c5a3c	0.92325187
42	0x3f7995fd	0.9749449
43	0x3f7f0513	0.9961712
44	0x3f6a3139	0.9148136
45	0x3f46b3fe	0.77618396
46	0x3f765b3c	0.9623296
47	0x3f6b01ee	0.9179982
48	0x3f2a6ca9	0.6657205
49	0x3f3cea64	0.7379515
50	0x3f530de8	0.82443094
51	0x3f7373a4	0.9509833
52	0x3f2f8162	0.685568
53	0x3f7dd2ec	0.99149966
54	0x3f77303e	0.96557987
55	0x3f69f65d	0.91391546
56	0x3f7fd578	0.999351
57	0x3f6c07f7	0.92199653
58	0x3f4c65ef	0.7984304
59	0x3f66c0b3	0.90137786
60	0x3f733766	0.95006406
61	0x3f297561	0.6619473
62	0x3f73dd57	0.9525961
63	0x3f734e31	0.95041186
64	0x3f56ef4d	0.83958894
65	0x3f684ae0	0.9073925
66	0x3f5f8b91	0.87322336
67	0x3f6be3f2	0.9214469
68	0x3f240202	0.64065564
69	0x3f46b381	0.7761765
70	0x3f4ed225	0.80789405
71	0x3f6f5238	0.9348483
72	0x3f4642a3	0.7744543
73	0x3f635934	0.8880799
74	0x3f67cc9f	0.905466
75	0x3f73c3d5	0.9522069
76	0x3f7b810e	0.98243797
77	0x3f1cde41	0.6127663
78	0x3f7048b0	0.9386091
79	0x3f1b00c0	0.6054802
80	0x3f762763	0.9615385
81	0x3f5f7c4d	0.8729904
82	0x3f5e329e	0.86795986
83	0x3f52e8a9	0.8238626
84	0x3f71b8b6	0.9442247
85	0x3f0c0e2c	0.54709125
86	0x3f7546cd	0.9581116
87	0x3f7822cf	0.96928114
88	0x3f759640	0.9593239
89	0x3f2b399a	0.6688477
90	0x3f6e68d5	0.9312871
91	0x3f3cc996	0.73745096
92	0x3f803321	1.0015603
93	0x3f714910	0.9425211
94	0x3f686ac5	0.9078792
95	0x3f5d630a	0.86479247
96	0x3f73b028	0.9519067
97	0x3f696009	0.91162163
98	0x3f6d8b95	0.9279111
99	0x3f81a7c1	1.012932
100	0x3f369670	0.713233
101	0x3f7598a6	0.9593605
102	0x3f2f1191	0.6838618
103	0x3f776391	0.966363
104	0x3f63e43c	0.89020133
105	0x3f6a68ae	0.9156598
106	0x3f6026d6	0.8755926
107	0x3f635359	0.88799053
108	0x3f6b3f54	0.91893506
109	0x3f6e761f	0.9314899
110	0x3f7a9478	0.97882795
111	0x3f5b730b	0.85722417
112	0x3f71b814	0.94421506
113	0x3f75c3ba	0.9600178
114	0x3f7a8fb4	0.97875524
115	0x3f404ba9	0.7511545
116	0x3f7d2239	0.98880345
117	0x3f79269e	0.9732455
118	0x3f5c79f4	0.86123586
119	0x3f7aeef5	0.9802087
120	0x3f6f61b3	0.9350845
121	0x3f6ef456	0.9334158
122	0x3f6720f1	0.9028464
123	0x3f645a7d	0.89200574
124	0x3f51b0d0	0.8191042
125	0x3f4d7842	0.80261624
126	0x3f30a0b0	0.6899519
127	0x3f2936b6	0.6609911
128	0x3f745426	0.954409
129	0x3f06afc1	0.5261193
130	0x3f6c64dd	0.92341405
131	0x3f73a39a	0.9517151
132	0x3f7568cc	0.9586303
133	0x3f7c93c1	0.98662955
134	0x3f698d55	0.9123128
135	0x3f68669e	0.9078158
136	0x3f741dab	0.9535777
137	0x3f494820	0.7862568
138	0x3f70be05	0.94039947
139	0x3f483a85	0.78214294
140	0x3f80d739	1.0065681
141	0x3f795bc9	0.9740568
142	0x3f7ab1c7	0.97927517
143	0x3f5e0828	0.86731195
144	0x3f3c648a	0.7359091
145	0x3f65e372	0.8980018
146	0x3f3b2f37	0.7311892
147	0x3f4ad809	0.79235893
148	0x3f750a3e	0.95718753
149	0x3f681bc2	0.90667355
150	0x3f0b5cdc	0.5443857
151	0x3f1a23da	0.60210955
152	0x3f67ac67	0.9049744
153	0x3f040540	0.5157051
154	0x3f700a58	0.93765783
155	0x3f5daecb	0.8659484
156	0x3f678c92	0.9044887
157	0x3f793e5c	0.9736078
158	0x3f1c3eea	0.610335
159	0x3f648f4d	0.8928116
160	0x3f7f67c4	0.9976771
161	0x3f29b533	0.66292113
162	0x3f7c1c60	0.98480797
163	0x3f612e35	0.8796113
164	0x3f2a3472	0.66486275
165	0x3f6c19a0	0.922266
166	0x3f8047a3	1.0021862
167	0x3f761117	0.9611983
168	0x3f263143	0.6491892
169	0x3f713130	0.9421568
170	0x3f59b3b2	0.8503982
171	0x3f834e6f	1.0258311
172	0x3f7388d7	0.95130676
173	0x3f705ecf	0.93894666
174	0x3f0475c6	0.5174221
175	0x3f7db863	0.99109477
176	0x3f83e4be	1.0304182
177	0x3f71d3fc	0.9446409
178	0x3f3846d6	0.7198309
179	0x3f64b615	0.89340335
180	0x3f738b5f	0.9513454
181	0x3f6d2005	0.9262698
182	0x3f369d05	0.7133334
183	0x3f67f5d0	0.90609455
184	0x3f505feb	0.8139636
185	0x3f2ee6f3	0.6832115
186	0x3f728c26	0.947451
187	0x3f83cccb	1.0296873
188	0x3f636550	0.88826466
189	0x3f7a22b8	0.97709227
190	0x3f300d24	0.6877005
191	0x3f753fb9	0.9580036
192	0x3f735566	0.9505218
193	0x3f751bdf	0.9574565
194	0x3f74b6b2	0.9559127
195	0x3f5959c2	0.84902585
196	0x3f720b51	0.9454852
197	0x3f689f22	0.9086782
198	0x3f7c724a	0.9861189
199	0x3f363b2e	0.7118405
200	0x3f7a9746	0.97887075
201	0x3f571661	0.8401852
202	0x3f658eae	0.89670837
203	0x3f62cc7b	0.8859326
204	0x3f656bff	0.89617914
205	0x3f6b4444	0.9190104
206	0x3f43509a	0.76294863
207	0x3f7a2425	0.977114
208	0x3f71cd96	0.94454324
209	0x3f596137	0.84913963
210	0x3f7a146f	0.9768743
211	0x3f4e7bf1	0.8065787
212	0x3f7db7e8	0.99108744
213	0x3f5729a9	0.84047943
214	0x3f64cb34	0.89372563
215	0x3f60f214	0.8786938
216	0x3f761fab	0.9614207
217	0x3f5cb172	0.8620826
218	0x3f52e9ec	0.82388186
219	0x3f74cfad	0.9562939
220	0x3f6b4827	0.9190697
221	0x3f7e1c15	0.992616
222	0x3f3f5537	0.747394
223	0x3f7aa2a6	0.9790443
224	0x3f41df9a	0.75731814
225	0x3f50af9a	0.81517947
226	0x3f669a0a	0.90078795
227	0x3f2e7109	0.6814123
228	0x3f6d7f92	0.9277278
229	0x3f7c45f2	0.9854423
230	0x3f7ce961	0.9879361
231	0x3f691129	0.9104181
232	0x3f778e60	0.9670162
233	0x3f84fb56	1.0389202
234	0x3f57badc	0.842695
235	0x3f27b0af	0.6550397
236	0x3f8089e5	1.0042082
237	0x3f4fb32d	0.81132776
238	0x3f770b34	0.9650147
239	0x3f5da8ff	0.8658599
240	0x3f2664f5	0.649978
241	0x3f773602	0.96566784
242	0x3f3f5e11	0.7475291
243	0x3f464425	0.7744773
244	0x3f4e68e9	0.8062883
245	0x3f5d32b3	0.86405486
246	0x3f62e9b6	0.88637865
247	0x3f711d57	0.94185394
248	0x3f7878d9	0.970594
249	0x3f7ab9ec	0.97939944
250	0x3f5a2c70	0.85224056
251	0x3f76245f	0.9614925
252	0x3f628d15	0.88496524
253	0x3f75a845	0.95959884
254	0x3f7cb559	0.98714215
255	0x3f3ac371	0.7295447
