checkpoints/improved_pretrain_pretrain/checkpoint_ep999.pt (torch, 799221 bytes, 25 tensors)

shared.0.weight f4 [512, 23]
000000 27 14 f6 bd 7f e3 c0 3c 32 56 3f be 96 56 2b 3e
       -0.120155625 0.023545979 -0.18685225 0.16732249
000010 ab 21 64 bd 0f 75 2b bd 14 3c b6 bd 1d 42 1b 3c
       -0.05569617 -0.041859683 -0.08898178 0.009476212
000020 3e 74 1f 3e 6f ba 2d 3e f4 1d 22 3d 75 6b 05 be
       0.15571687 0.1696565 0.039579347 -0.13029273
000030 90 2b 98 bd 29 8e 02 3e 62 a6 12 3e 4d ce c2 bd
       -0.07430184 0.12749542 0.14321283 -0.09512005
000040 bb cf 55 bd 38 14 32 bc d7 fe e0 3d 77 dd 63 38
       -0.05220006 -0.010869078 0.10986107 5.4327273e-05
000050 e9 70 9b bd 63 39 ac 3d 32 a0 a2 38 9a a2 de bd
       -0.07589895 0.08409383 7.754601e-05 -0.108708575
000060 e3 41 28 be 85 11 63 3d 18 5f 00 3e ed 4f f1 3d
       -0.16431384 0.05543663 0.12536275 0.11782823
000070 16 45 49 39 5d b8 be bd da 89 38 3e 62 99 9a 3c
       0.0001919459 -0.09312508 0.18021336 0.018871967
000080 eb 06 f5 bd c2 80 98 bd ec 8f d1 3c fc 74 9a 3d
       -0.1196421 -0.074464336 0.025581323 0.07541844
000090 94 c6 a1 3d 26 e3 1b 3e 5e fe 14 3d eb 3a ee bd
       0.07899204 0.15223369 0.036375396 -0.116323315
0000a0 28 f6 1a bd 54 30 18 3e 62 43 39 3b ce eb f2 bd
       -0.03783241 0.14862186 0.0028268923 -0.118613824
0000b0 07 74 a1 3d 3d 7b 50 bd fa af 01 3e 45 c0 6e bc
       0.078834586 -0.05089878 0.12664786 -0.014572208
0000c0 cb 57 1e bd 4e 49 e6 bd b0 45 b1 3d 6f c4 94 b8
       -0.038657945 -0.112444505 0.0865587 -7.0937785e-05
0000d0 f5 4d e9 bd dc ed 7b 3c 98 be 36 3e 99 2b 48 3e
       -0.11391822 0.015376534 0.17846143 0.19547881
0000e0 c3 ec 03 3e b6 aa 06 3e f4 5b 76 3d a9 95 83 bd
       0.12883286 0.13151059 0.060146287 -0.0642503
0000f0 af fb b6 3c ad 25 b4 3d 41 33 5a bd 10 ed 87 3d
       0.022336809 0.087962486 -0.053271536 0.06637013
000100 3e 7b 25 be ae bd 6f 3d d4 01 8e 3d 9d e5 f5 3c
       -0.16160294 0.058530502 0.069339424 0.030016715
000110 68 e9 5a bd 55 89 9d bd ab 7c d3 3d 39 c2 a5 3c
       -0.05344525 -0.0769221 0.10326513 0.020234214
000120 2e a1 a0 3a 49 6f 3c be eb d4 3e bd 5d e7 7f 3b
       0.0012255067 -0.18401827 -0.046589773 0.0039047815
000130 1a 78 54 bd c7 59 c3 bd 9e c4 47 3d b6 39 47 be
       -0.05187235 -0.09538608 0.048771493 -0.19455609
000140 a7 b5 c6 bd b4 81 16 be 3f c7 00 3c c8 32 9d 3d
       -0.09702616 -0.14697915 0.007860004 0.076757014
000150 7f 19 2b be 07 18 0c be 75 6b d9 3d f1 53 0c 3e
       -0.16708945 -0.1368104 0.10616199 0.13703896
000160 77 6c d4 bd c2 d9 4d bd 79 12 be 3c 94 ac 99 bd
       -0.103722505 -0.0502565 0.023202168 -0.0750362
000170 4c b0 09 be 07 67 d5 bd 71 c8 41 be d4 5d 0c bd
       -0.13446158 -0.104200415 -0.18924119 -0.03426917
000180 6f 1a 87 3d 53 c0 90 3d 7a a8 ee 3d f5 34 45 3d
       0.06596839 0.07067933 0.11653228 0.048146207
000190 b7 c1 ef bd 62 86 c8 bd ef 9b c9 bd 92 f5 f5 3c
       -0.1170687 -0.097912565 -0.09844195 0.030024324
0001a0 72 b0 8f 3d 63 98 aa 3d ed dc d1 bd 61 f8 3c bd
       0.07016076 0.08329847 -0.102472164 -0.04613531
0001b0 33 46 40 3e e6 8d 1e be a6 b6 4e 3d 3f 79 8f b8
       0.18776779 -0.15483817 0.050467156 -6.841355e-05
0001c0 60 2b 0d 3c d3 ee a4 3d f3 06 ca 3d fd 35 86 3d
       0.008616298 0.080533646 0.09864607 0.06553266
0001d0 9b 47 2f 3e dc 3b 35 3d 9d 9a 65 3b 16 5c b0 bd
       0.17117159 0.04424654 0.0035034784 -0.08611314
0001e0 a6 f1 d5 bd a8 e4 80 3d 00 4d d2 bc 68 dd fb 3d
       -0.104464814 0.06293613 -0.025671482 0.12298089
0001f0 29 21 3f 3d e6 8d 84 bc 78 98 83 bd c6 00 95 bd
       0.046662483 -0.016180944 -0.064255655 -0.07275538
000200 bf f9 e3 3d e7 ce 6e 3d aa ff 4a 3e c5 34 33 be
       0.1113162 0.058302786 0.1982409 -0.17500599
000210 0f ae 00 be a5 47 e5 bd 19 31 d5 bd 7e c2 c7 bd
       -0.12566398 -0.11195306 -0.10409755 -0.09753893
000220 b3 c4 dc bc 24 4a 77 bd e0 aa d4 3d 72 bf 16 3e
       -0.026949262 -0.06037344 0.10384154 0.14721468
000230 9b 52 16 bb 6e e6 1c 3d f3 84 59 bd 99 8b 55 37
       -0.002293742 0.038305692 -0.053105306 1.2728292e-05
000240 e5 4c 0a be 94 60 1b bd 11 17 ac 3d 7e 1c 3b be
       -0.13505895 -0.0379339 0.08402837 -0.18272588
000250 0a 29 d7 bd 2e 39 09 be 3e 09 d7 bc 34 88 47 be
       -0.105058745 -0.13400719 -0.026249524 -0.19485551
000260 a1 e6 7c 3d 7e 8c ba 3d 65 1e 51 bd 79 58 47 3d
       0.061743382 0.09108828 -0.051054377 0.04866836
000270 ce 05 28 3e 6f 89 18 3d e6 16 85 3b 64 7c 1a bc
       0.16408464 0.037240442 0.0040615676 -0.009429071
000280 d6 c9 f8 3c 2e 56 39 3e 7b e4 3e 3e d0 c4 15 3c
       0.03036968 0.18099281 0.18641846 0.009141162
000290 e4 cf ef 3b f0 4b df bd f0 5f 73 3d e5 66 08 3e
       0.0073184837 -0.10903156 0.059417665 0.13320501
0002a0 42 cc 6f 3c f0 90 07 be dd e1 1a be 8d 2e 36 be
       0.014636101 -0.13238883 -0.15125223 -0.17791195
0002b0 09 7b e7 3d 22 c9 5b bd 13 e7 db bc df a0 04 be
       0.11302764 -0.053658612 -0.026843583 -0.12951992
0002c0 3e be 1b 3e ed ab 42 bd 2a bf 46 bd b2 18 57 be
       0.1520929 -0.047527242 -0.048522152 -0.21005514
0002d0 8f 5c af bd 52 2c 8b 3d 63 4e a0 bb d8 31 d1 bc
       -0.08562576 0.06795563 -0.004892157 -0.025536463
0002e0 19 2d 44 3e d2 6d 28 3e 12 92 da bd af 31 11 be
       0.19157828 0.16448143 -0.10672392 -0.14179109
0002f0 3e 3b 67 3d 95 d6 ac bc 6b a0 e3 3d 43 85 ab bd
       0.056452982 -0.021098414 0.11114582 -0.08375027
000300 bb 19 05 3e a2 34 43 be db 28 51 3e 05 e9 8f 3d
       0.12998097 -0.19063047 0.20425741 0.07026867
000310 c1 6b 87 bd c7 c3 d1 3d 00 3e 41 3e 12 b5 46 bc
       -0.06612349 0.1024242 0.18871307 -0.012128131
000320 b4 fa 99 ba bb 9c 10 3e 53 bb 0a 3e 2c a6 e1 bd
       -0.0011747689 0.14122288 0.13548021 -0.11018023
000330 cd f6 f6 3d 4a b9 7f bd f2 ab 4f b8 a6 bf 25 bd
       0.12058792 -0.062432565 -4.9512782e-05 -0.040465973
000340 ed e9 69 3d 38 c0 c9 bd 8a b4 79 3d bf b5 87 bd
       0.057107855 -0.09851116 0.06096319 -0.06626462
000350 ce 58 e0 bd ac 12 53 bd a2 8f 8b bc 7d 81 30 3d
       -0.10954438 -0.05153148 -0.017036263 0.04309224
000360 42 17 f1 bd aa db 7c 3c b4 1a a3 3d 95 27 cd 3d
       -0.11772014 0.015433231 0.079640776 0.10017315
000370 e9 44 4d 3e ba 55 f1 bb 03 76 11 be ee 22 c4 3d
       0.20045818 -0.0073649557 -0.14205174 0.09576975
000380 17 58 14 3d 3c 07 cc 3d d3 55 db bd dd 53 1e bd
       0.03621682 0.09962317 -0.10709729 -0.038654197
000390 d8 26 1f 3c 5e 73 95 38 9c 1d 0f 3e cd f6 bc 3c
       0.009713851 7.1263625e-05 0.13976139 0.023066903
0003a0 46 3b e9 3d 20 39 f5 3d 87 a2 d4 3a 0f 4f c5 39
       0.11388259 0.11973786 0.0016222753 0.0003763367
0003b0 41 30 05 3e ce b0 47 3e 37 04 32 3e 5c cf fe bd
       0.13006689 0.1950104 0.1738442 -0.124418944
0003c0 42 b6 6a 3b df df 12 be 4e 77 48 3e fc 9a 2c be
       0.00358142 -0.14343213 0.19576761 -0.16855997
0003d0 12 15 95 3d 95 2a bf bd 7e 1a 88 bd c7 83 1e 3e
       0.072794095 -0.09334294 -0.06645678 0.15479957
0003e0 ba 2b de 3d 11 37 16 bc 55 d0 ed 3d dc d3 e5 3d
       0.10848184 -0.009168402 0.11612002 0.112220496
0003f0 6c 7c a0 b8 90 30 98 bc 44 37 24 3e 13 da 2a 3e
       -7.65257e-05 -0.018577844 0.16036707 0.16684751

shared.0.bias f4 [512]
000000 97 72 85 3c 15 8b 5d 3c c4 8f d5 bd 94 f1 c3 3d
       0.016289992 0.013521929 -0.10427812 0.09567562
000010 b9 d7 f7 3d a1 74 39 be 8c 6a 81 bd b3 ea 77 3c
       0.12101693 -0.18110897 -0.0631915 0.01513164
000020 70 44 56 bd 71 50 06 3e da 16 bf bc 29 06 2f be
       -0.05231136 0.13116623 -0.023326326 -0.17092194
000030 15 11 2b be e8 85 f4 3c 71 25 35 3e be aa e3 ba
       -0.16705735 0.029849008 0.17690064 -0.0017369611
000040 2e 4d 08 bd 31 11 ec 3d 75 01 b2 3d d6 fd 2d 3d
       -0.03327673 0.115267165 0.08691684 0.042478405
000050 21 7e 64 3d 4e 60 c9 bd e1 a4 31 3d 38 e6 0f be
       0.05578435 -0.09832822 0.04337013 -0.14052665
000060 6c fa 6a 3d a8 c7 41 3d 30 57 c2 bc 5d d8 a2 3d
       0.057367727 0.047309548 -0.023723215 0.07951424
000070 98 ac 50 bb 52 8a 11 3e b8 08 9f 3d 8b ea 3d be
       -0.0031841155 0.14212921 0.07765335 -0.18546502
000080 8f f2 c8 bd bc 25 7d bc 61 57 29 3e 3c ef ed bd
       -0.098118894 -0.015450891 0.16537239 -0.11617896
000090 b3 2c f6 3d 60 ce 0c bd f7 7f 1f be c1 94 25 be
       0.120202444 -0.034376502 -0.15576158 -0.16170026
0000a0 80 03 03 3e f9 d7 31 be ef af 9d bc 13 53 0f 3c
       0.12794304 -0.17367543 -0.01924893 0.008747834
0000b0 0e 61 de bc 56 7c 42 bb 39 19 17 3e 5c 86 05 be
       -0.027145889 -0.002967616 0.14755715 -0.13039535
0000c0 d8 ef ee bd 33 3b 13 be 12 f7 a3 bc 32 90 a2 bd
       -0.1166684 -0.14378051 -0.020015273 -0.07937659
0000d0 93 b9 de 3d 74 bd fe 3d 50 13 01 be 92 b6 16 3d
       0.10875239 0.12438479 -0.12605023 0.036795206
0000e0 b5 a9 c3 bd d4 44 4c 3e f0 72 15 3d 72 ce 51 3d
       -0.095538534 0.19948131 0.036486566 0.051222272
0000f0 e7 e9 80 bd 42 01 ab 3c 58 9f 14 3e ba 14 4b 3e
       -0.06294613 0.020874623 0.1451391 0.19832125
000100 3a 47 a7 3d bb d8 1c 3d 6e 96 e9 3d ce c6 62 bd
       0.08167882 0.038292628 0.11405645 -0.055365376
000110 e8 d4 3e 3e 2d 50 2d 3e d4 18 4d be 19 72 2d be
       0.18635905 0.16925116 -0.20029002 -0.16938056
000120 cc 1f 10 3e a1 e5 28 be a7 5a 34 be 62 9b 29 be
       0.1407463 -0.16493846 -0.17612706 -0.1656318
000130 73 f2 03 3d ec 4a b0 3c 02 2d b9 bd b3 14 dd bd
       0.03221364 0.0215201 -0.09041788 -0.10794964
000140 7d 47 3f 3d 39 fa db 3c 48 e0 fa bd 62 05 3a 3d
       0.046699036 0.026852714 -0.122498095 0.04541529
000150 01 bb 6b 3d 8c d8 0f bd 4a aa d3 bd ff 27 18 3e
       0.057551388 -0.035118625 -0.103352144 0.14859007
000160 2e 64 19 be e7 6f 05 3e 3e ff f2 bd ae 6a a6 3d
       -0.14979622 0.13030969 -0.1186509 0.08125816
000170 60 9f 2f 3e 32 74 7f 3d 5b 70 15 3d 11 c2 76 bd
       0.1715064 0.06236667 0.036484104 -0.06024367
000180 24 ce c2 3c 08 18 32 3e 88 2c 00 bd d1 b5 dc bd
       0.023779936 0.1739198 -0.03129247 -0.10776866
000190 a5 a2 11 3e 27 e6 11 be 34 fc 3e 3e 20 87 47 3b
       0.142222 -0.14247952 0.18650895 0.003044553
0001a0 27 07 c7 3d 2e 9b 2b be 71 3e 19 be d5 bf 2d be
       0.09718161 -0.16758415 -0.14965226 -0.1696771
0001b0 45 7b 47 be 44 e7 ce bd 9d 75 35 be e1 ac 75 bb
       -0.19480617 -0.10102704 -0.17720647 -0.0037487077
0001c0 96 b0 24 be 1c c1 d9 3d e9 24 3f 3e 53 0d 3d be
       -0.16082987 0.10632536 0.18666424 -0.18462114
0001d0 1a 6f b0 3d 2f db 49 be 2f 28 c2 3d 32 c5 3b be
       0.08614941 -0.19712518 0.09480321 -0.18336943
0001e0 2e 51 74 3d 2c 75 00 be cc 4e b7 bd 36 0b 25 3e
       0.05964773 -0.12544698 -0.08950576 0.16117558
0001f0 5e 6d 46 3e 5e 81 ad 3d 0b 45 b4 bd 64 c3 c2 3d
       0.19377658 0.084719405 -0.088022314 0.09509924
000200 e0 90 0c bd 3b 4c 4b 3d da 49 b4 bc aa 2d 14 3e
       -0.03431785 0.049633246 -0.022007871 0.14470544
000210 20 bb de ba 7f db e6 bd 56 a0 1a 3e 23 41 50 be
       -0.0016993023 -0.11272334 0.15100226 -0.20337348
000220 6b 55 0e 3d e7 11 48 3e 56 9e 48 3d 11 b6 2c be
       0.03474943 0.19538079 0.048979126 -0.16866328
000230 96 22 ca 3d da 04 1f be 15 21 05 be 68 3f 0b 3d
       0.09869878 -0.15529194 -0.13000901 0.033996016
000240 e3 c2 12 3e 4a 40 66 3d dd 46 f3 bc 3d 29 a8 bd
       0.14332156 0.056213655 -0.029696876 -0.082109906
000250 15 27 08 3e 22 fe cb bd f3 86 85 bc ee 38 2c 3d
       0.13296159 -0.09960581 -0.0162997 0.04204648
000260 18 ef 2b 3b 3a 3f 36 3e 3c 47 5c be f6 df 7f bc
       0.002623504 0.17797557 -0.21511549 -0.015617361
000270 16 81 1d 3e fe 7e 18 3e 3b 62 52 3e d9 e2 44 3c
       0.15381274 0.14892194 0.20545284 0.012016975
000280 2a aa 04 3e a9 c7 d4 bd da 7a 58 bd aa d8 5f 3d
       0.12955537 -0.10389645 -0.052851535 0.054649986
000290 df 0d a5 3d 06 10 d4 3d b6 d1 c9 bc b6 0d 4f 3e
       0.08059286 0.10354619 -0.02463613 0.20220074
0002a0 3d 4e bf bc 9a 96 d0 3c 93 f0 9f bc 0f 8b fd 3d
       -0.023352737 0.025462437 -0.019523894 0.12380039
0002b0 57 d3 c7 bd ee c9 25 3e 1b 8e 38 be 45 33 13 be
       -0.09757107 0.16190311 -0.18022959 -0.14375027
0002c0 da b3 39 3e 49 29 1e 3e 39 4b 64 3c fb bf b9 bd
       0.18135014 0.15445437 0.01393395 -0.090698205
0002d0 38 41 04 bd 94 49 23 3d 28 a6 58 3d 13 ad 23 be
       -0.03228876 0.03986509 0.052892834 -0.15983991
0002e0 ea 00 34 bd 82 54 c3 bd 8b c5 43 bd ca 5a 2c 3c
       -0.043946184 -0.09537603 -0.047795814 0.010519693
0002f0 bf 06 49 be 87 2c 63 bd d6 ff e9 3b 45 b8 31 be
       -0.1963148 -0.055462386 0.0071410937 -0.1735545
000300 e6 9f 16 be 4c 6e 11 bd 4e 19 55 3e 89 01 2a bc
       -0.14709434 -0.035505578 0.20810434 -0.010376343
000310 a8 10 0a 3d af ba 0f 3d 8d 4d d3 3d 64 d9 72 bd
       0.03370729 0.035090145 0.10317526 -0.05928935
000320 cc ff bf bd c2 74 88 bd 29 57 41 be db 48 6a bc
       -0.09374961 -0.06662895 -0.18880905 -0.014299597
000330 06 00 b2 3d 5b cd b1 bd ee dc 16 3e 3b f7 20 3e
       0.08691411 -0.086817466 0.14732715 0.15719311
000340 c8 4f 33 be 0b 2e 40 3e 9f d4 1f 3e 26 47 ff bd
       -0.17510903 0.18767564 0.15608452 -0.12464742
000350 36 b7 f4 3d 0c 21 e8 3d a4 47 82 bd 74 ca 3e be
       0.11949007 0.11334428 -0.063613206 -0.18631917
000360 9a 2d 1e 3e d1 0a ee bd b7 ca 45 3e 90 5d 44 3c
       0.15447083 -0.11623157 0.19315611 0.011985198
000370 a3 5f 80 bc 4e 8f 38 be 7c 6f ce 3d 19 05 18 3e
       -0.015670603 -0.18023416 0.10079858 0.14845695
000380 0b 97 c1 bc b7 3f 57 bd 85 b2 07 3e a0 ee 8d 3d
       -0.023631593 -0.052550998 0.13251694 0.0693028
000390 9f 77 be 3d 9b 0a c4 bd 19 7e 39 3e a2 2f 36 3e
       0.0930016 -0.09572335 0.18114509 0.17791608
0003a0 75 35 b9 bd f8 f2 19 bd af 07 56 bd 69 1a 14 3d
       -0.09043399 -0.03758523 -0.05225342 0.036158
0003b0 16 59 f3 bd 54 cc dc 3d eb 90 4b be 7b 1b 9a 3d
       -0.11882226 0.1078116 -0.198795 0.07524773
0003c0 cf f0 e7 3d d7 41 aa 3c 78 bb ab 3d e7 22 57 3d
       0.113252275 0.020783348 0.08385366 0.05252352
0003d0 a1 b1 54 3d ce 82 9a 3d da 43 36 3d e8 8e 8c 3d
       0.051927213 0.0754448 0.044498302 0.06863195
0003e0 c2 c2 25 be f5 59 2a bc 5e 6a b6 3c 7d fd 48 3e
       -0.16187575 -0.010397424 0.022267517 0.19627948
0003f0 80 11 22 3e 2a 08 00 3e 64 d4 a4 3d 63 1d 50 3e
       0.15826988 0.12503114 0.08048323 0.2032371

shared.1.weight f4 [512]
000000 3c dc 76 3f b3 ce 78 3f e4 72 79 3f cd 74 73 3f
       0.964298 0.971904 0.97440934 0.951001
000010 03 2a 79 3f cf 94 7b 3f b1 72 7f 3f a9 ce 80 3f
       0.9732973 0.9827394 0.9978438 1.0063068
000020 34 bc 7d 3f b9 eb 7c 3f 52 ea 7c 3f b8 ba 7c 3f
       0.991153 0.98797184 0.98795044 0.9872241
000030 42 cb 80 3f 9e e2 79 3f 60 59 7d 3f 18 96 75 3f
       1.0062029 0.97611415 0.989645 0.9593215
000040 46 4f 7a 3f 4f 10 77 3f 2c a7 7a 3f e6 e4 7a 3f
       0.9777721 0.9650926 0.97911334 0.9800552
000050 08 99 77 3f 07 e1 7a 3f 7c 37 6f 3f 77 7b 7b 3f
       0.9671788 0.97999614 0.9344404 0.9823527
000060 80 d8 6c 3f 1b d3 72 3f 84 cf 7d 3f 75 fc 79 3f
       0.9251785 0.9485337 0.9914477 0.97650844
000070 ef f7 77 3f 4c d6 6e 3f 47 3f 7f 3f ef cc 77 3f
       0.9686269 0.9329574 0.9970593 0.9679708
000080 c8 3f 7c 3f bc 34 79 3f aa 0b 71 3f c9 cd 79 3f
       0.9853482 0.9734609 0.9415842 0.9757963
000090 3d 90 7e 3f 6b 3b 80 3f 15 de 77 3f 21 35 7d 3f
       0.9943884 1.0018133 0.96823245 0.98909193
0000a0 24 11 7c 3f d9 03 7b 3f e9 b3 79 3f 0f bc 7e 3f
       0.98463655 0.98052746 0.97540146 0.99505705
0000b0 33 35 7d 3f f7 6b 7b 3f b9 f5 77 3f 1b 11 76 3f
       0.989093 0.98211616 0.9685932 0.9611985
0000c0 21 55 7a 3f f2 a2 7a 3f ce 1f 6d 3f 9a 1d 76 3f
       0.97786146 0.97904885 0.92626655 0.9613892
0000d0 43 93 7d 3f ae 6f 7e 3f c6 5b 7d 3f 0a 87 80 3f
       0.9905283 0.9938916 0.9896816 1.0041211
0000e0 08 7d 7f 3f fb cc 80 3f 4b 52 82 3f 9f 2a 7c 3f
       0.9980016 1.0062555 1.0181364 0.98502535
0000f0 28 d4 78 3f 8a d4 7b 3f 24 4d 7d 3f eb ed 76 3f
       0.97198725 0.98371184 0.9894583 0.96456784
000100 a6 71 79 3f 7b 54 7c 3f 38 56 7b 3f e2 9e 7f 3f
       0.9743904 0.98566407 0.98178434 0.9985181
000110 7e cc 79 3f 19 6c 79 3f 31 ca 7d 3f 1d 74 7d 3f
       0.97577655 0.9743057 0.99136645 0.990053
000120 6f 4e 7a 3f ab a5 7b 3f 88 5c 80 3f 10 24 75 3f
       0.9777593 0.98299664 1.0028238 0.9575815
000130 36 32 77 3f 44 56 7f 3f 7a da 7a 3f 87 4a 75 3f
       0.9656099 0.99741006 0.9798962 0.95816845
000140 bf bc 7c 3f 2d 20 7c 3f 99 f9 7b 3f f2 a8 7b 3f
       0.98725504 0.98486596 0.9842773 0.98304665
000150 22 0d 7c 3f 13 26 6b 3f 9e 1d 78 3f d1 74 76 3f
       0.9845754 0.9185497 0.9692019 0.96272
000160 00 44 7a 3f f2 9a 7a 3f 18 f2 7b 3f 0c f8 80 3f
       0.9776001 0.9789268 0.9841628 1.0075698
000170 f3 14 79 3f ba e3 7d 3f e6 c4 72 3f 78 14 80 3f
       0.9729759 0.9917561 0.94831693 1.0006247
000180 78 75 78 3f 54 c2 7b 3f 37 81 7b 3f ed 50 78 3f
       0.97054243 0.98343396 0.9824404 0.9699848
000190 c8 d7 7a 3f ef 50 79 3f 56 6b 79 3f 44 5e 79 3f
       0.97985506 0.9738912 0.97429407 0.9740946
0001a0 cc 47 7d 3f e7 dd 72 3f 46 c3 70 3f 48 27 76 3f
       0.9893768 0.94869846 0.94047964 0.9615369
0001b0 a6 3f 80 3f fe f0 7d 3f ce 8d 6b 3f 2f 18 70 3f
       1.0019424 0.9919585 0.9201325 0.937869
0001c0 4d 55 7c 3f b5 71 7a 3f 32 ff 6e 3f 67 02 7a 3f
       0.9856766 0.97829753 0.9335815 0.97659916
0001d0 c6 79 7e 3f 07 de 7e 3f 65 f9 70 3f 66 9e 7a 3f
       0.9940456 0.99557537 0.94130546 0.97897947
0001e0 2b c3 82 3f 63 29 7d 3f 05 3b 7c 3f 3d f4 81 3f
       1.021581 0.98891276 0.98527557 1.0152661
0001f0 15 b4 71 3f ba 75 7c 3f da a3 7b 3f 98 af 7e 3f
       0.9441541 0.98617136 0.9829689 0.99486685
000200 db 28 7b 3f ca ce 7a 3f da 02 7c 3f 82 35 81 3f
       0.98109215 0.97971785 0.9844185 1.0094454
000210 44 7f 77 3f ff a4 7c 3f 03 5c 7a 3f 04 24 7a 3f
       0.96678567 0.98689264 0.9779665 0.97711205
000220 65 18 83 3f e8 57 7c 3f 3f 0e 7c 3f 0c f8 73 3f
       1.024182 0.98571634 0.9845924 0.95300364
000230 d9 03 81 3f 7a f3 79 3f 72 84 70 3f 0d ae 7a 3f
       1.0079299 0.9763714 0.93952096 0.9792183
000240 d3 d6 6b 3f 63 14 7b 3f e6 ce 67 3f 60 63 7a 3f
       0.9212467 0.9807798 0.90550077 0.97807884
000250 ca cf 7c 3f 86 94 6f 3f ae 68 79 3f 2d 3e 80 3f
       0.9875456 0.93586004 0.97425354 1.0018975
000260 1c a4 7a 3f 24 b4 7d 3f eb 09 80 3f 83 e3 7b 3f
       0.9790666 0.99103 1.0003027 0.9839403
000270 bc 9a 7b 3f 01 35 77 3f 51 89 73 3f 6b 75 7d 3f
       0.9828298 0.9656525 0.95131403 0.9900729
000280 bd 1c 76 3f 0e d5 69 3f 17 87 7c 3f 55 26 75 3f
       0.961376 0.9134072 0.9864363 0.95761615
000290 6c 57 7a 3f 38 41 72 3f 2e 16 73 3f cd 99 76 3f
       0.97789645 0.94630766 0.9495572 0.9632843
0002a0 fb 59 7d 3f ec 33 79 3f a0 c2 7c 3f 72 9f 7b 3f
       0.98965424 0.9734485 0.98734474 0.9829017
0002b0 ae 4f 79 3f ba 2c 79 3f e1 ab 7b 3f 31 4d 78 3f
       0.97387207 0.9733387 0.9830914 0.96992785
0002c0 58 85 75 3f 2e 85 7c 3f a6 cc 7d 3f 29 fe 7b 3f
       0.9590659 0.98640716 0.99140394 0.9843469
0002d0 77 4c 73 3f eb 3c 82 3f 64 93 7a 3f 6f f0 78 3f
       0.9503855 1.0174841 0.9788115 0.9724187
0002e0 b7 03 7a 3f e1 a0 77 3f 1a cd 78 3f 7e 51 72 3f
       0.9766192 0.96729857 0.9718796 0.946556
0002f0 6b 15 7d 3f 42 ba 7a 3f 1e dd 7b 3f 65 de 71 3f
       0.98860806 0.97940457 0.98384273 0.9447997
000300 36 ef 7e 3f 2f 20 76 3f b9 af 7d 3f 90 f2 6c 3f
       0.99583757 0.9614286 0.99096256 0.9255762
000310 d6 a7 75 3f ef 84 77 3f 5e 48 78 3f 4e a4 6c 3f
       0.9595922 0.96687216 0.96985424 0.9243821
000320 04 f4 66 3f dc ef 68 3f 60 33 7c 3f 8a 9d 7a 3f
       0.9021609 0.90990996 0.9851589 0.97896636
000330 9b 80 81 3f 14 ea 7e 3f eb 55 7e 3f eb c5 78 3f
       1.0117372 0.99575925 0.9934985 0.97177
000340 ab f0 7e 3f 24 46 7c 3f ee 5b 7d 3f c5 0b 76 3f
       0.9958598 0.98544526 0.989684 0.9611171
000350 51 87 7d 3f 5d f8 7a 3f 42 5f 75 3f e7 64 7f 3f
       0.990346 0.9803522 0.95848477 0.9976334
000360 08 b0 7f 3f 13 86 77 3f 56 42 7b 3f 19 d9 7e 3f
       0.9987798 0.96688956 0.98148096 0.99550015
000370 87 09 79 3f f9 25 81 3f bd 88 7d 3f 75 e9 79 3f
       0.9728016 1.0089713 0.9903677 0.9762185
000380 2d ac 78 3f 9e c8 68 3f ae fb 7a 3f 0a 2a 7d 3f
       0.9713772 0.9093112 0.9804028 0.9889227
000390 b0 bf 78 3f 72 87 79 3f 2e 08 7e 3f 2a 91 7a 3f
       0.9716749 0.974723 0.9923123 0.9787775
0003a0 46 cb 66 3f bf e0 71 3f 2d 7a 78 3f 3b f0 7f 3f
       0.9015392 0.9448356 0.97061425 0.9997594
0003b0 c6 0e 7a 3f 2f 5e 80 3f c0 f1 79 3f 50 97 7c 3f
       0.9767879 1.0028743 0.97634506 0.98668385
0003c0 29 80 75 3f ee 4e 79 3f da d7 7a 3f a8 08 76 3f
       0.9589868 0.9738606 0.97985613 0.9610696
0003d0 09 27 7e 3f 90 10 7b 3f 93 b8 77 3f b2 f0 81 3f
       0.9927831 0.9807215 0.9676601 1.0151579
0003e0 3a 7d 7d 3f 2c 5b 78 3f 8b 05 7a 3f 8e d5 7e 3f
       0.99019206 0.9701412 0.9766471 0.9954461
0003f0 50 47 74 3f 94 52 69 3f fc 1d 80 3f 99 2f 82 3f
       0.95421314 0.9114163 1.000915 1.0170776

shared.1.bias f4 [512]
000000 9e 47 6a 3a a6 5e 42 bc f9 cd 61 3b 57 9c 7b bb
       0.00089370634 -0.011863386 0.0034455045 -0.0038392746
000010 ac 10 3b bc 34 ff a5 3a 88 86 ce bb 66 cc d7 3c
       -0.011417549 0.0012664557 -0.0063026585 0.026342582
000020 c4 6e fc ba 47 11 a2 bb 5a aa 6a 3c 7a 95 a5 bb
       -0.0019259085 -0.0049459073 0.014322842 -0.0050532194
000030 e1 e8 94 3a b8 9c 7c bc 8c a0 3d bc a9 a5 31 bc
       0.0011360907 -0.015418224 -0.011573922 -0.010842719
000040 b2 6a c0 3b 7a 40 40 bc e6 d6 e3 3a 5a 3a 0e bc
       0.005872094 -0.011734122 0.001738277 -0.008680904
000050 89 eb ac 3c a4 5d 3d bc 1e 40 97 3c a2 e7 59 bb
       0.021108406 -0.01155797 0.01846319 -0.0033249636
000060 3d 23 18 3d 02 34 31 bc 2f 6b d7 3b ef c9 91 bc
       0.03714298 -0.010815622 0.0065740566 -0.017796485
000070 b6 60 8b bc c7 18 ba 3a 33 8d 5a 3c 16 bf 66 bc
       -0.017013889 0.0014198058 0.013339329 -0.014083644
000080 35 a5 0e bc 52 ee 8c bc 46 82 78 3b 97 71 0a bc
       -0.008706381 -0.017203484 0.0037919446 -0.0084499335
000090 c6 a4 81 bb 2e e3 a7 3a a8 7c 50 bc bb b1 38 bc
       -0.00395641 0.0012808794 -0.012725033 -0.011272843
0000a0 15 a6 2f bc 90 f8 87 bc 5c bc 85 bb f2 de 08 3c
       -0.010720749 -0.016598016 -0.004081292 0.008353936
0000b0 06 e3 dd ba 40 c7 71 bc e5 6b 48 bc da 1a 84 bc
       -0.001692862 -0.014756978 -0.012232755 -0.016126085
0000c0 fb 12 56 bc e7 fa 70 bb 96 04 5e 3c c0 29 9e 3a
       -0.013066049 -0.0036770643 0.013550898 0.0012066886
0000d0 da 0f 1a bc a9 5a 94 3b 9a 03 91 3c 83 6a e9 bb
       -0.009403193 0.004527409 0.017701913 -0.007123293
0000e0 e0 4f 6b 3b 33 68 8f 3c 50 18 75 3c 32 75 d5 3b
       0.0035905764 0.01750574 0.01495941 0.006514215
0000f0 84 19 99 3c f3 b3 6a bc 63 06 26 bc d0 71 ee 3b
       0.018688925 -0.01432513 -0.010133359 0.007276751
000100 aa c0 90 bc 2d db 29 bc 0e 5a 85 bc a1 86 49 bc
       -0.017669994 -0.010367197 -0.016278293 -0.012300164
000110 59 0c bb 3b d2 1e 87 bc 2f e3 f2 bb 95 82 e6 bb
       0.005708259 -0.016494188 -0.0074123363 -0.0070346096
000120 ed 65 6c bc 76 af 53 bc bc 79 de 3a 40 21 9c bc
       -0.014428598 -0.012920251 0.0016973536 -0.019058824
000130 48 a8 c8 bb 3a db 91 3b b2 49 94 bb cf ff 93 3c
       -0.0061235763 0.0044511827 -0.0045253867 0.018066315
000140 89 39 d3 3c ca b7 09 bc 3a c3 21 bb bd cb ce bb
       0.02578427 -0.008405635 -0.0024683014 -0.0063109086
000150 e1 10 fd bb 3a d2 76 3c b3 1b 04 bc b9 b7 10 bc
       -0.0077229594 0.01506477 -0.008063245 -0.008832865
000160 00 89 20 bc 09 3b d6 bb 4f af 0a bc 37 12 e2 3b
       -0.009798288 -0.0065377993 -0.008464648 0.006899144
000170 13 25 91 3c f3 27 b6 ba 3e 3a f1 3b bf 0a 35 3b
       0.017717874 -0.0013897404 0.0073616793 0.0027624813
000180 08 3b 80 bc ec 84 95 3c 6a 2b 5c bc e6 ce 34 3c
       -0.015653148 0.018251859 -0.013438085 0.011035657
000190 64 76 91 bc 1f bd 2e 3c ba e6 f1 b9 b4 64 01 bc
       -0.017756648 0.010665207 -0.00046139007 -0.007897545
0001a0 50 f7 2c bc 8d 18 e6 bb fd 2c eb 3c 53 ec 8f bb
       -0.010557011 -0.0070219696 0.028707976 -0.0043921857
0001b0 25 f1 31 bc 1a 44 34 bc 1b 08 80 bb 19 24 70 3c
       -0.010860716 -0.011002565 -0.0039072162 0.014657044
0001c0 fd 52 37 bc 62 6c 7a 3c 94 db ba bb da d5 86 bc
       -0.01118922 0.01528463 -0.0057024453 -0.016459394
0001d0 40 1a ae 3b f8 f3 30 3b 43 1a a4 bb 65 fc 29 bb
       0.005313188 0.0027000885 -0.0050080135 -0.0025937792
0001e0 dd dc 9f 3c 98 86 dc bb 55 ff ce bb 9f b7 b4 3a
       0.019514496 -0.006729912 -0.006317059 0.0013787634
0001f0 9b 25 1c 3d a1 37 94 bc 87 dc 02 3c 2d 57 c4 3c
       0.0381218 -0.018092932 0.007987148 0.02396735
000200 a8 1c 96 3c 9f 51 28 3b c2 b9 40 bc e3 1a 72 3c
       0.018324211 0.0025683416 -0.011763038 0.014776918
000210 63 a3 2c 3b fa 64 66 bc 9d 91 01 bc 53 00 40 bc
       0.0026342503 -0.014062161 -0.007908252 -0.011718827
000220 98 f2 5e 3c d8 be f7 3b c8 97 2c bc 5a 38 fb 3b
       0.013607644 0.007560592 -0.010534234 0.0076666297
000230 be 7c d5 3c fa 2a e0 b9 2d 24 e3 bb bc 4d 68 bc
       0.026060458 -0.0004275663 -0.0069318027 -0.01417869
000240 ca 23 0c bc 45 19 af 3c 67 53 47 3c 68 21 08 bc
       -0.008553455 0.021374354 0.012165881 -0.008308746
000250 60 c6 39 bc d6 d0 8d 3c b3 53 cd bb fb cc 2a bc
       -0.0113388 0.017311495 -0.0062660812 -0.010424848
000260 c6 33 02 3b 34 c9 08 bb 28 08 f3 bb ff da de bb
       0.0019867285 -0.002087188 -0.007416744 -0.0068010087
000270 c7 f0 a2 bb f2 f8 42 bc ee 02 93 3c 8c 54 65 bc
       -0.0049725506 -0.0119001735 0.017945733 -0.013997208
000280 63 96 11 3d 4e f4 75 bb de 29 0d 3b d9 a6 f2 ba
       0.03554381 -0.003752965 0.0021539847 -0.0018512859
000290 e1 09 ad bc 3d ac 2c bc 42 f2 9b 3b fe a1 be 3c
       -0.021122875 -0.010539112 0.004759104 0.023270603
0002a0 d9 05 96 3b 8f c3 33 bc 91 05 46 bc e7 bf c7 ba
       0.004578334 -0.010971918 -0.012086288 -0.0015239686
0002b0 0d 9a 1b bb 41 b5 80 3c 4e a9 03 bc 62 bb d4 bb
       -0.0023742944 0.015711429 -0.008035971 -0.0064920643
0002c0 47 91 0a 3b 49 58 7d bc a2 bb a5 ba 1b 56 d0 3c
       0.002114372 -0.015462943 -0.001264442 0.025431683
0002d0 b9 15 2f 3c 26 33 3c 3c 4c a2 a3 bc 1d 4a b1 3c
       0.010686331 0.011486804 -0.01997485 0.021641785
0002e0 6d c3 97 bc bd 86 9d bb 34 7a 58 bc 70 8f 6b 3a
       -0.018525803 -0.004807322 -0.013212729 0.00089859124
0002f0 02 a8 e0 bb 29 95 4e 3c f0 9c ab bb f5 93 f2 bb
       -0.0068559656 0.012608805 -0.0052372143 -0.0074028918
000300 02 fd 7b 3c 4a 4e 07 3c 91 6f 90 3b c8 27 90 bb
       0.015380146 0.008258412 0.004407831 -0.0043992735
000310 80 5a 96 ba 73 ee 96 ba 3a 6d ac bc f2 c0 aa bb
       -0.0011471063 -0.0011515155 -0.021048177 -0.005210989
000320 81 65 30 3a c7 14 ab 3b 99 37 0f bc ea 4d 72 bc
       0.00067289924 0.0052209827 -0.008741283 -0.014789084
000330 e1 fa 3c 3c 73 c9 01 bc 64 f1 fd 3c ef 05 76 bc
       0.011534424 -0.007921564 0.030998893 -0.015016063
000340 22 99 19 bc e5 76 01 3b 25 80 0b bb 32 92 ed 3a
       -0.009374889 0.0019754705 -0.0021286097 0.0018125235
000350 4c 3b a6 ba 5c d5 45 bc be fb 4b 3c dc 12 9c 3a
       -0.0012682467 -0.012074795 0.012450157 0.0011907476
000360 46 ef ce bb 42 2a 9e bb 93 58 01 3b ba 1d 61 3c
       -0.0063151447 -0.004826815 0.0019736632 0.0137399975
000370 bd be 16 bc 60 97 b7 3c 47 ce c3 bb a6 73 91 bb
       -0.009200749 0.022411048 -0.005975518 -0.004438835
000380 5c 13 0c 3b 2b 21 7c ba ab dc 8c 39 8d 09 57 bc
       0.0021373844 -0.00096179795 0.0002686729 -0.013124836
000390 66 61 3c bc eb 1f 45 bc 8a ee 0a bc 3c 6e b4 3c
       -0.011497831 -0.012031536 -0.008479724 0.02202522
0003a0 e5 f7 4a bc 4a 6b c0 3a 33 b7 e4 bb e0 a7 23 ba
       -0.012388204 0.0014680412 -0.006979847 -0.0006242972
0003b0 83 b0 29 bc b7 d8 38 3c 09 0a 45 bc 7f b8 c7 3b
       -0.010357025 0.011282138 -0.012026318 0.0060949917
0003c0 be ac 7e 3c fa 2a 75 ba e3 24 83 bc 83 f6 4d bc
       0.015544115 -0.00093524123 -0.0160088 -0.01257098
0003d0 63 98 0e bb 8c ee 7b bc 97 e3 18 3c 68 33 38 3c
       -0.002175831 -0.015376698 0.009331605 0.011242725
0003e0 88 68 29 3c 33 12 78 3c 65 67 96 bc 88 21 2b bc
       0.010339864 0.015141058 -0.01835985 -0.010445006
0003f0 dc 3d 3e bb fb 56 27 3d 41 04 c7 ba 8b 0d 38 3c
       -0.002902857 0.040854435 -0.0015183763 0.011233698

shared.3.weight f4 [256, 512]
000000 35 1b 51 bc 60 9d 19 bd 13 99 27 bc db e7 20 3d
       -0.012762834 -0.0375036 -0.010229367 0.039283615
000010 2e 52 bf bc e1 4e 97 ba 4b b1 ad bb e5 9d 21 3d
       -0.023354616 -0.0011543893 -0.005300676 0.03945722
000020 40 c7 22 3d a3 2d 2b bd ef 29 61 3d 31 ca 77 bc
       0.0397408 -0.04179157 0.05497163 -0.01512389
000030 38 88 57 3d 0f 43 d0 3c 05 b6 38 bc 41 07 af bc
       0.052620143 0.025422601 -0.011273866 -0.021365764
000040 0f 68 62 3c 5e 6b 19 3d 07 28 c9 3c 02 30 3c bd
       0.013818755 0.03745591 0.02455522 -0.04594422
000050 ff 80 17 3c c6 04 b6 bc 37 3e bc 3c 2b 05 e7 bc
       0.009247064 -0.022219073 0.022978885 -0.028200706
000060 76 d5 80 3c 26 dc 5f bd c6 35 6c 3c 86 e6 51 3c
       0.015726786 -0.05465331 0.014417117 0.012811309
000070 d6 54 1e bc 2c 32 95 3d 11 f5 31 3d 19 37 30 bd
       -0.009663781 0.0728496 0.043446604 -0.043021295
000080 7d e2 08 3d 5a b7 99 3c 0e d3 fd 3b 98 17 ff 3c
       0.03341912 0.018764187 0.007746107 0.03113918
000090 81 2f 1a bd f6 0e 7d bc b6 71 bd 3c e0 c5 b1 bc
       -0.03764296 -0.0154454615 0.02312551 -0.0217008
0000a0 3a 44 f1 3c 22 cf e5 3b 1a 8b 48 bd 7f 9a ac bc
       0.029451478 0.0070132175 -0.048960783 -0.021069763
0000b0 9c c1 60 bb 93 44 8a 3c e7 e6 5a 3c bf 23 4c 3c
       -0.0034295088 0.016878402 0.0133607155 0.012459694
0000c0 b5 d8 b8 bc ee 4d cb 3c 3b b6 71 3b 5a 04 54 bc
       -0.022564271 0.024817433 0.00368823 -0.012940491
0000d0 2d b7 34 bd ee 31 05 3d ce 86 04 bd f6 c6 ab bb
       -0.044120003 0.03251832 -0.032355122 -0.005242224
0000e0 5f 38 9b 3b fd a5 11 bd 2b 89 a5 3a 10 c5 12 bc
       0.0047369446 -0.03555869 0.001262938 -0.008958116
0000f0 fc 6a be bb 67 45 20 bd ab a5 79 3c ca b2 c5 3c
       -0.0058110934 -0.039128687 0.015237252 0.024133105
000100 c7 83 10 3d 19 40 c1 bb e1 a8 13 3d 53 cb bb bc
       0.035281923 -0.0058975336 0.036049727 -0.022924101
000110 25 7f c2 3b dc 49 8e 3c 9e d7 12 3d 55 7c ff bc
       0.005935567 0.017369203 0.03585016 -0.031187216
000120 45 40 e3 3c ee 72 26 bd 11 d2 79 bc 69 bf 14 bd
       0.027740607 -0.04063695 -0.015247838 -0.036315355
000130 2b 2c 3f 3c e4 83 a7 bc 33 b9 37 bd f4 3b d2 39
       0.011668245 -0.020448633 -0.044854354 0.0004009899
000140 56 64 2f 3d d8 42 0b 3d bc 7c a4 3c e8 a2 4a bd
       0.042820297 0.033999294 0.02007901 -0.049471766
000150 1a 52 8c bc 62 73 67 3c cd 09 3f 3d b0 0c 35 bc
       -0.017128993 0.0141266305 0.046640206 -0.011050388
000160 97 55 00 3c c3 3e 56 bc fb ed a0 bc 46 eb b4 bc
       0.007832906 -0.013076487 -0.019644728 -0.022084843
000170 bb 0a d6 3b 60 be fa ba 7f ef 31 bb 16 6b 07 3c
       0.006532041 -0.0019130222 -0.0027150807 0.008265277
000180 c4 4c 46 3c c1 f2 41 3d 95 53 f3 bc db d4 77 3d
       0.012103263 0.04735065 -0.029702941 0.06050573
000190 81 4b 22 bc 62 88 84 3b 10 10 69 ba 23 19 41 3c
       -0.009905697 0.0040445784 -0.0008890638 0.011785778
0001a0 ae 56 1f bd 0a 72 37 bb 28 3d 22 3c e6 65 dc bb
       -0.038901024 -0.0027991557 0.009902276 -0.0067260144
0001b0 8b 76 58 bd ca 92 61 bc fb 6a 97 bc 26 3b a3 3c
       -0.052847426 -0.013767907 -0.01848363 0.019925665
0001c0 71 64 bb 3c 05 5b ef 3b 98 94 b7 bb dc ec 27 bc
       0.022875043 0.0073045515 -0.0056024306 -0.010249343
0001d0 8a f6 10 bd 39 65 39 3d 97 a5 8f 3c aa 75 10 bd
       -0.035391368 0.04526255 0.017535014 -0.035268463
0001e0 12 2c e4 3c 89 3d ca bc 5b a1 81 bc d1 c3 80 bc
       0.027853046 -0.024687545 -0.01582401 -0.015718373
0001f0 c9 5f 78 3c ef 5d 77 bc 76 7f 96 3c 6a 3d 4c ba
       0.015159556 -0.015098079 0.018371325 -0.0007791134
000200 3c 53 ae 3c 8c e1 19 bd 58 31 1d 3d 51 d5 83 bb
       0.021279924 -0.037568614 0.038377136 -0.004023232
000210 f0 4a 67 bb ee ce 83 3a 3f 00 96 bc 5f 8c 3e 3c
       -0.003529247 0.0010056177 -0.018310664 0.011630147
000220 2a eb d7 3c 9d 92 51 bc 02 b0 ec bc ca 41 4b 3d
       0.026357252 -0.012791303 -0.02889252 0.04962329
000230 c2 f1 3b 3b 1b c6 6a ba a6 01 43 3c da 21 94 3c
       0.0028678034 -0.00089559116 0.0119022485 0.018082548
000240 6d 60 00 3d 34 9a 4b bc 7b be ea bb 51 a9 e3 bb
       0.03134196 -0.012426902 -0.0071638203 -0.0069476743
000250 9d c6 16 bd 0a 7c af bc 6d e7 1f bd 41 ba 59 bd
       -0.036810506 -0.021421451 -0.039039064 -0.05315614
000260 c8 76 34 b8 bf af 8f bb 2a 33 08 3d d2 3c 3d 3d
       -4.3025968e-05 -0.0043849642 0.03325192 0.04620058
000270 da 11 f3 3b 8a 2e 45 bc 5e 68 24 bb 94 27 f9 bc
       0.0074178996 -0.012035022 -0.0025086622 -0.03041438
000280 f8 65 fd bc 93 b1 44 bc ed 6c 70 bc 57 5d c0 3c
       -0.030932412 -0.012005228 -0.014674407 0.023482008
000290 04 bc 29 3c 0e 63 0d bd 1e d4 03 3d 41 16 b6 3c
       0.010359768 -0.034518294 0.032184713 0.022227408
0002a0 f8 12 e7 3a bb d1 07 3d 69 ee 6e bd b3 31 05 3c
       0.0017629554 0.033159 -0.058332834 0.008129525
0002b0 56 56 af 3b 4f d8 78 3c 35 d0 bf bc 2e 5a 36 3b
       0.005350868 0.015188291 -0.02341471 0.0027824747
0002c0 f9 3e d9 3c 5f bc 69 3c 66 e9 0c 3c dc 11 07 3c
       0.026519286 0.014266103 0.008600568 0.008244004
0002d0 a6 5f 58 3d fa ee b8 bc 11 81 22 3d 76 e9 9b 3c
       0.052825592 -0.02257489 0.03967387 0.019032221
0002e0 99 51 7b 3c 2d 68 cc bc d3 62 eb 3c b6 4a 52 bb
       0.015339279 -0.024952019 0.028733646 -0.0032087988
0002f0 a2 fd 02 3c 94 2a fa 3c 4c 10 42 bd 8c ce 8b bc
       0.007995041 0.030537881 -0.047378823 -0.017066263
000300 56 fc de ba 9b 0a a3 3c a9 11 46 3d 70 2d ad bc
       -0.0017012458 0.019902518 0.048356686 -0.02113983
000310 64 4a de 3a ee 10 33 bd 43 cf fa bc 81 c1 2e ba
       0.0016959426 -0.043717317 -0.030616408 -0.00066664076
000320 5c b0 1c 3a 7d 06 09 bd c4 50 dd 3c f3 bf 5a bb
       0.00059772073 -0.033453453 0.027016051 -0.003337857
000330 78 a4 ec 3c 88 52 b4 3c 74 70 98 bc fe ff ef 3a
       0.028887019 0.02201201 -0.01860831 0.0018310545
000340 2b 73 e5 3c f3 48 d7 3c 3a d5 cc 3c 9f 22 67 3d
       0.028009018 0.026279902 0.025004018 0.0564295
000350 95 58 be 3c 40 25 ae bc 92 f8 f8 bb 02 f1 8e 3c
       0.023235599 -0.021257997 -0.0075979913 0.017448906
000360 4c 50 c7 3c e5 1e 5e 3b 67 58 43 bc da a5 2b bd
       0.02433028 0.0033892926 -0.011922932 -0.041906215
000370 07 49 e0 bc ac cb 28 bc 0f 78 36 3c b4 84 9a 3c
       -0.027378572 -0.010302465 0.011137023 0.018862106
000380 15 93 8a bc 90 5b 35 3d 54 43 c6 3c d1 43 c9 bc
       -0.016915837 0.044276774 0.024202026 -0.02456847
000390 e2 0a 47 3d ab 4f 1b 3d f3 ed a2 3c 5e 42 e1 bc
       0.048594363 0.037917774 0.019888854 -0.027497467
0003a0 60 2b 8b bb 89 e8 d0 bc f8 11 dd 3b e1 32 03 bc
       -0.004247114 -0.025501506 0.006746527 -0.008007736
0003b0 ac cb 23 bd ec fb 16 3a 2f 30 46 bd f6 3e e7 3c
       -0.03998916 0.0005759585 -0.048385795 0.028228264
0003c0 37 05 83 bb 52 d9 5d 3d 8e 37 27 bd 65 6c 2c bc
       -0.0039984244 0.05416233 -0.040824465 -0.01052389
0003d0 40 37 88 3c ca 0d 4f bd 1d 0a cd bb 81 1f f1 bc
       0.016627908 -0.05055026 -0.006257309 -0.029433968
0003e0 4b bb f7 3c c9 42 b0 3b c2 fc b4 3b e6 44 86 bc
       0.030240675 0.005379055 0.005523295 -0.016390275
0003f0 19 9c b6 ba 61 7f 6c 3b 86 be 4b bc a8 1c e7 bc
       -0.0013932019 0.0036086666 -0.012435561 -0.028211907

shared.3.bias f4 [256]
000000 e6 59 82 bc 0a e6 a7 bb 7a 3f 81 3c 32 5c e5 3b
       -0.015912008 -0.0051238583 0.015777338 0.006999516
000010 22 24 92 bc 93 97 35 3d 89 64 8d 3b a1 e2 6c 3c
       -0.017839495 0.044334006 0.0043149632 0.014458329
000020 7d bb 01 3d 83 0a cd 39 8d 7e 32 3d e7 9c 0a 3a
       0.031672943 0.0003910848 0.04357772 0.00052876625
000030 9d 34 10 3d d4 35 98 3b 8e 0b fb bc 65 5d bd 3c
       0.035206426 0.0046450887 -0.030645158 0.023115823
000040 48 cb f2 bc de b3 21 bc 1a bf b4 3c 52 da 14 bd
       -0.029637948 -0.009869544 0.02206378 -0.03634102
000050 3d 74 10 3d b5 39 fa 3b f3 06 0c 3c 3b 03 98 3c
       0.035267103 0.0076362737 0.008546579 0.018556228
000060 73 cf 10 3d 30 8f 07 3d 80 37 dc 3c 90 81 45 3c
       0.03535409 0.03309554 0.026881933 0.012054816
000070 ea 15 20 3d 4d 6e d0 bc 25 5a a0 3c 13 52 0e bd
       0.0390834 -0.02544322 0.019574234 -0.03474624
000080 de b9 85 3c a4 25 85 3c 3c 0b a8 3c 2b e4 a0 bc
       0.01632398 0.0162533 0.02051317 -0.019640049
000090 93 6d d7 3c 33 15 c8 3c aa f7 db 3c 10 e4 5f bb
       0.026297366 0.024424171 0.026851494 -0.0034163035
0000a0 a3 02 36 bd 2a 1b 3a 3d cb 9d 09 bc b0 03 64 bc
       -0.04443611 0.045436062 -0.008399437 -0.013916895
0000b0 e4 ff 9e 3c 46 8f 20 3d 11 6c 15 3d b3 b7 20 3c
       0.019409128 0.039199136 0.036480013 0.009809422
0000c0 1f 99 8d 3c 62 3b 45 bc 9c 1e 89 bc a9 c6 20 3d
       0.017284928 -0.012038084 -0.016738228 0.039251957
0000d0 d9 09 4f bc 3d 51 9b bc 98 16 c2 bc 38 af ba bc
       -0.012636625 -0.018959636 -0.023692414 -0.022788629
0000e0 f2 e1 bb 3b 0f a4 1e bb c5 20 9b 3c b1 03 b3 3c
       0.005733722 -0.0024206673 0.018936524 0.021852346
0000f0 07 39 00 bd 29 ea 0e bc 2d 62 1a bd 2f 15 9a 3a
       -0.031304386 -0.00872282 -0.037691284 0.0011755581
000100 17 a1 26 3d 88 e5 3c bd 76 4c 14 3c 6e 5c 8e 3c
       0.04068097 -0.046117336 0.009051433 0.017378058
000110 8f 1a b1 3b 78 d6 c8 bc b4 23 3a 39 5a 11 8e bc
       0.0054047774 -0.02451633 0.00017751643 -0.017342258
000120 0f 14 14 bd 14 3d 79 bc d7 b3 06 bc e3 1f 8f bb
       -0.036151942 -0.015212316 -0.008221588 -0.004367815
000130 c3 07 a2 3c 51 28 33 bd 69 3d b9 bc c2 94 16 39
       0.019779092 -0.04373962 -0.02261229 0.00014360531
000140 6b ca f7 3c f1 68 99 3a 5c 2a 0d 3d de bc 0c 3d
       0.030247888 0.0011704249 0.034464225 0.034359805
000150 37 bc ae 3c cc aa 1b 3a 32 1b a1 3c 4d ec 32 bc
       0.021329982 0.00059382315 0.019666288 -0.010920596
000160 40 d9 8e bc a5 02 88 3c 1d 90 16 bb 87 a4 a1 3c
       -0.017437577 0.016602824 -0.0022974082 0.019731773
000170 78 b4 03 3d 39 0a 3c 3d 63 34 2c bd 5c b8 90 bc
       0.03215453 0.045908187 -0.042042147 -0.017666034
000180 b0 ed 13 3d 16 40 ad bc c9 cb 3f 3c e3 07 ce bb
       0.03611535 -0.021148723 0.011706301 -0.0062875613
000190 a3 93 ac 3c 4e 07 1d bd ae d9 0a 3d 27 8d 25 bd
       0.021066492 -0.038337044 0.033899 -0.040417816
0001a0 58 2b 14 bd c0 af be 3c 4c 97 a1 3b 39 7c c5 3c
       -0.03617415 0.023277164 0.004931366 0.024107086
0001b0 e3 dc 3c bc 4d 4b 92 3c 44 ec 00 bd 5c 1a 0e bc
       -0.011527273 0.017858172 -0.03147532 -0.008673277
0001c0 55 5d ae bc c2 f0 e8 bc 48 78 a3 3c 99 cf 1a 3c
       -0.021284739 -0.028435115 0.019954816 0.009448909
0001d0 1e 74 12 bd 50 55 c7 bc ac 5d 52 3c 8c ba ff 3c
       -0.03575527 -0.024332672 0.012839716 0.031216882
0001e0 9f 4d db bc 5f bc 84 bc d3 7b 50 3c da 05 07 3d
       -0.026770411 -0.016203104 0.0127248345 0.032964565
0001f0 d4 1d 28 3b 28 3d 02 bd 48 76 88 3c b6 9d 2a 3c
       0.0025652545 -0.031796604 0.016657963 0.010413578
000200 28 ec 1d bd 43 99 cb 3b 6e f4 af b9 81 28 60 bb
       -0.038555294 0.0062133386 -0.00033560715 -0.003420383
000210 6c b7 3d 3c af ad 02 3d c3 dc f3 bc 23 6c 2a 3d
       0.011579376 0.03190392 -0.029768353 0.041607033
000220 b6 9b 38 ba eb 26 96 3c d9 3e 35 3c 2d 95 9f 3b
       -0.00070422457 0.018329104 0.011062347 0.004870078
000230 f0 39 23 bd 1d 5c 45 3d b7 65 ec 3c 88 2a fe 3a
       -0.039850175 0.04818355 0.028857095 0.0019391337
000240 47 04 a9 bc d0 fe 3e 3c 6a 9b 0e 3d 16 59 15 3d
       -0.020631922 0.011657432 0.034816183 0.036461912
000250 e2 f5 c3 3c 8d ea e1 3c 73 21 2a bd 9d 00 6c bb
       0.023920957 0.027577663 -0.041535806 -0.0036011108
000260 91 98 81 bc 18 95 c7 bc 06 35 d8 bc 3e 19 b6 3b
       -0.01581982 -0.024363086 -0.026392471 0.0055572083
000270 2b c2 9c bc 50 68 0f bd db 63 13 bb 08 d2 e1 ba
       -0.019135555 -0.03501159 -0.0022489938 -0.0017228732
000280 e1 62 fb 3a 90 7e 0d 3d 35 c8 1d bd cb 1a 9a bc
       0.0019179248 0.034544528 -0.03852101 -0.018811604
000290 63 c3 03 b9 80 24 ed bc 1c 34 66 3c 2e 37 2d 3d
       -0.00012565921 -0.028948069 0.01405051 0.04228895
0002a0 af 6f a2 3c 34 46 5c 3c fc e7 c2 3c 04 9e 04 bd
       0.019828646 0.013444472 0.02379226 -0.032377258
0002b0 33 95 02 bd fb ea 0b 3d 34 91 0f 3d b7 e8 1f 3d
       -0.03188057 0.03415964 0.035050586 0.039040294
0002c0 0e cb 5c 3c 11 7a 7c 3a 3e 75 10 3d d8 5c a4 bc
       0.013476146 0.00096312264 0.03526806 -0.020063803
0002d0 b8 12 d2 3c 8c 32 0f 3d f4 75 98 3c 05 fc 27 3d
       0.025643691 0.034960315 0.018610932 0.04101183
0002e0 80 b3 44 bd f2 80 e2 bc d8 ba 22 bd 5b 73 25 bd
       -0.048022747 -0.027649377 -0.03972897 -0.040393215
0002f0 ea 01 1c bb a3 17 1d 3d bb 71 09 bd 67 89 ab bb
       -0.0023804852 0.03835262 -0.033555727 -0.0052348855
000300 8d 80 d6 bc 9e 4b e0 bc 7f e6 e2 3c 12 47 28 3d
       -0.026184345 -0.027379807 0.0276978 0.041083403
000310 fa d1 62 3c eb 39 bb bc f5 57 8c bb b9 87 26 3d
       0.013844008 -0.022854766 -0.004282946 0.04065678
000320 34 b1 ab bc fd 6c 65 3c 8e cb bb 3c 66 9c 32 bd
       -0.02095852 0.014003036 0.02292421 -0.043606184
000330 a7 94 b9 bc 2d fc cd bc 24 1c ca 3c 8a 8e 0c 3c
       -0.02265389 -0.02514466 0.024671622 0.008578906
000340 4d c0 95 bb 8c 2a 50 3b dc 64 9a bc fb 93 cb bc
       -0.004570043 0.003176364 -0.018846922 -0.024850836
000350 68 8b cc bc 59 7d cd 3b 78 a3 1b 3d 35 d5 dc 3c
       -0.024968818 0.006271046 0.037997693 0.026957134
000360 77 22 ca bc c5 87 2a 3d 7a ae b3 3c 9c 20 f4 bb
       -0.024674637 0.041633386 0.021933783 -0.0074501764
000370 d5 47 88 bc f4 d0 ff 3c ee 9e 20 bd c3 8e 87 3c
       -0.016635815 0.031227566 -0.039214067 0.016547566
000380 32 a6 40 bd c8 1b 65 3b c9 13 d9 3c 14 66 fa 3c
       -0.047033496 0.0034959186 0.026498692 0.030566253
000390 4e 26 01 bc ef 01 41 bc 02 65 a9 3c 55 cd 4f 3c
       -0.007882668 -0.011780246 0.020678047 0.012683232
0003a0 b3 72 c8 3c b6 d8 af ba 66 d6 f4 bb 01 8d 00 3d
       0.024468755 -0.0013416025 -0.0074718473 0.03138447
0003b0 b6 75 97 3a 4f 2b 49 3b dc 9e 01 3d 66 b9 6b 3c
       0.0011555466 0.003069598 0.03164564 0.014387464
0003c0 55 fb 15 3d 61 52 57 3b ae a2 1b bb fe 4e 7e 3c
       0.036616642 0.0032855498 -0.0023748088 0.015521763
0003d0 9b 1b 5d bc ad e9 27 bd e6 51 35 3d 95 86 c9 bc
       -0.013495351 -0.040994335 0.044267558 -0.024600307
0003e0 7d a1 2f 3d 35 e8 91 bc fe 59 14 bd 5a 30 a3 bc
       0.042878617 -0.01781092 -0.036218636 -0.019920517
0003f0 52 c9 c4 3c 3d e4 0f bd 42 77 15 3d 09 7e 97 bc
       0.024021778 -0.035129774 0.036490686 -0.018492715

shared.4.weight f4 [256]
000000 06 7b 77 3f 19 90 6c 3f f3 f9 7a 3f ec 17 80 3f
       0.96672094 0.92407376 0.9803764 1.00073
000010 12 8d 76 3f ef 69 7f 3f ff 8b 76 3f 60 47 80 3f
       0.96309006 0.99771017 0.9630737 1.0021782
000020 4f c4 80 3f d8 6f 6f 3f c3 50 7f 3f 26 53 75 3f
       1.0059909 0.93530035 0.9973261 0.9583
000030 68 c2 6c 3f 04 8b 72 3f f3 42 7c 3f 0f 90 78 3f
       0.9248414 0.9474337 0.98539656 0.97094816
000040 31 b6 7d 3f d2 00 73 3f 39 ce 7d 3f cc ce 7d 3f
       0.9910613 0.94923127 0.99142796 0.9914367
000050 28 af 81 3f 9a da 7f 3f 03 91 79 3f 29 98 77 3f
       1.0131578 0.99942935 0.97486895 0.9671655
000060 b2 5a 7b 3f f4 89 7f 3f a0 b0 7e 3f d1 ac 7a 3f
       0.98185265 0.99819875 0.9948826 0.97919947
000070 a3 c2 7d 3f 9e 92 70 3f d9 03 7a 3f cb 1c 7d 3f
       0.9912512 0.9397372 0.9766212 0.9887206
000080 85 64 7c 3f 40 ba 7c 3f 6f 7e 7e 3f ec c0 7d 3f
       0.9859088 0.98721695 0.9941167 0.991225
000090 c0 61 7f 3f 66 8a 7e 3f 4e 0b 7a 3f a8 5b 7c 3f
       0.9975853 0.9942993 0.976735 0.98577356
0000a0 63 23 6f 3f 92 1c 7f 3f 40 84 80 3f 09 c1 80 3f
       0.9341337 0.9965297 1.004036 1.005891
0000b0 2c d2 7d 3f 32 d3 72 3f 16 3c 7f 3f 6e be 7a 3f
       0.9914882 0.9485351 0.9970106 0.9794682
0000c0 06 76 74 3f 61 26 78 3f fd c9 79 3f c2 ca 7f 3f
       0.9549259 0.9693356 0.97573835 0.9991876
0000d0 b0 27 70 3f 6c 53 80 3f 50 27 7e 3f 72 bf 7c 3f
       0.9381056 1.0025458 0.99278736 0.9872962
0000e0 1d 22 80 3f b6 6e 80 3f b2 51 7a 3f 95 05 7c 3f
       1.001041 1.0033786 0.9778091 0.9844602
0000f0 05 5e 7b 3f 7a 37 78 3f 6d f2 80 3f 6b 17 80 3f
       0.9819034 0.9695965 1.0073982 1.0007147
000100 27 02 78 3f 67 24 79 3f 63 48 7d 3f 1d ac 7d 3f
       0.96878284 0.9732117 0.9893858 0.9909075
000110 37 83 76 3f 09 b4 76 3f 8b 5b 76 3f fd 44 7c 3f
       0.9629397 0.9636846 0.96233433 0.9854277
000120 53 53 7c 3f 1b 7d 7c 3f 3f 0d 75 3f 45 e0 7f 3f
       0.9856464 0.98628396 0.95723337 0.99951583
000130 3e 87 80 3f 00 fd 6b 3f fc cc 7d 3f 65 cd 72 3f
       1.0041273 0.9218292 0.99140906 0.9484466
000140 d4 00 80 3f 60 75 77 3f 4f 93 74 3f 95 41 78 3f
       1.0000253 0.96663475 0.95537275 0.9697507
000150 52 cc 7d 3f fc 29 72 3f 58 80 7f 3f bf da 81 3f
       0.99139893 0.94595313 0.9980521 1.0144881
000160 6b 1d 80 3f 1e 61 6a 3f 3f 00 7c 3f 6b e0 72 3f
       1.0008978 0.9155444 0.98437876 0.94873685
000170 11 47 7a 3f 88 ba 7a 3f a8 b1 7d 3f 33 ad 76 3f
       0.9776469 0.97940874 0.99099207 0.9635803
000180 e1 38 7f 3f f7 54 80 3f 37 fb 7b 3f 39 08 81 3f
       0.99696165 1.0025929 0.984302 1.0080634
000190 cf d9 78 3f 35 6e 7f 3f 81 64 6d 3f 26 0a 80 3f
       0.9720735 0.9977754 0.9273148 1.0003097
0001a0 d9 00 7d 3f 23 5a 7c 3f 0a be 7c 3f f2 a4 79 3f
       0.9882942 0.9857504 0.98727477 0.9751731
0001b0 60 fa 7c 3f 61 26 7e 3f b5 b1 7f 3f 29 96 78 3f
       0.9881954 0.9927731 0.99880534 0.97104126
0001c0 75 72 7f 3f 30 8d 7e 3f dc 54 80 3f 5e 1e 76 3f
       0.9978402 0.99434185 1.0025897 0.96140087
0001d0 c2 cb 7d 3f 6d ca 7f 3f ab e8 78 3f 1a 3f 81 3f
       0.99139035 0.9991825 0.97230023 1.0097382
0001e0 13 be 7d 3f 82 e7 78 3f 5d 2b 77 3f ce 7a 7d 3f
       0.99118155 0.9722825 0.9655054 0.9901551
0001f0 23 f9 7a 3f 2b 81 7a 3f 23 37 7a 3f b2 0b 6c 3f
       0.980364 0.97853345 0.9774038 0.92205346
000200 b9 d4 80 3f be 74 68 3f 90 ad 7d 3f dd aa 80 3f
       1.0064918 0.90803134 0.9909296 1.0052143
000210 9b d8 7f 3f cd 1d 80 3f 4b e7 7d 3f b3 ed 78 3f
       0.9993989 1.0009094 0.9918105 0.972377
000220 c4 ef 7d 3f 40 4b 72 3f 05 c3 7d 3f 66 af 78 3f
       0.9919398 0.9464607 0.991257 0.97142637
000230 ae 6d 7f 3f f5 8e 80 3f 35 f0 7c 3f 72 87 7c 3f
       0.9977673 1.0043627 0.98804027 0.98644173
000240 e7 f6 78 3f c0 68 7e 3f f2 40 73 3f c6 46 74 3f
       0.97251743 0.99378586 0.95020974 0.9542049
000250 4c 83 7f 3f a6 d3 7f 3f 82 bc 6e 3f af fb 76 3f
       0.9980972 0.99932325 0.9325639 0.9647779
000260 8d 57 76 3f 50 ca 67 3f 7c 55 78 3f 2c c2 7c 3f
       0.9622734 0.9054308 0.9700544 0.9873378
000270 01 a1 7b 3f 84 db 7f 3f 5e dc 72 3f 8c 89 79 3f
       0.9829255 0.9994433 0.94867504 0.97475505
000280 fe 96 81 3f 40 e9 71 3f d0 aa 80 3f 34 90 7c 3f
       1.0124204 0.94496536 1.0052128 0.98657537
000290 a6 37 6e 3f 8a 23 7e 3f a8 b8 81 3f a6 51 80 3f
       0.9305366 0.9927298 1.0134478 1.0024917
0002a0 46 bf 6d 3f b2 15 7c 3f 61 62 7a 3f 52 dc 7d 3f
       0.92869985 0.98470604 0.97806364 0.9916431
0002b0 05 39 7b 3f 43 c0 7d 3f 22 a3 6b 3f 53 47 80 3f
       0.9813388 0.99121493 0.92045796 1.0021766
0002c0 f2 0f 80 3f 78 93 7e 3f bf 55 72 3f 30 cf 7c 3f
       1.0004866 0.9944377 0.9466209 0.98753643
0002d0 4b 40 7e 3f 25 2d 7d 3f 1e 34 79 3f 04 05 70 3f
       0.99316853 0.9889701 0.9734515 0.93757653
0002e0 d5 92 75 3f bf f0 6e 3f 87 f9 80 3f 6d b7 81 3f
       0.9592717 0.933361 1.007615 1.0134102
0002f0 eb 71 7e 3f a6 bf 80 3f 99 27 74 3f cf 13 7e 3f
       0.99392575 1.0058486 0.9537292 0.99248976
000300 a0 0e 80 3f 94 39 80 3f fb 55 80 3f 54 66 7b 3f
       1.0004463 1.0017571 1.0026239 0.98203015
000310 ad 52 76 3f 7a 07 7d 3f f3 3f 7e 3f b7 bb 76 3f
       0.96219903 0.98839533 0.9931633 0.9638018
000320 9e 39 80 3f 60 e8 79 3f ff 19 7a 3f 61 52 7b 3f
       1.0017583 0.976202 0.97695917 0.98172575
000330 68 f1 76 3f eb a9 78 3f 70 18 77 3f fc f3 7f 3f
       0.96462107 0.97134274 0.96521664 0.99981666
000340 ed d1 7f 3f c3 51 77 3f 5a ba 80 3f ab 1f 74 3f
       0.99929696 0.96609133 1.005687 0.9536082
000350 d6 e4 81 3f 47 99 6f 3f 34 b0 7e 3f e6 4e 7a 3f
       1.014796 0.9359326 0.99487615 0.9777664
000360 32 4d 80 3f 97 43 7b 3f f7 a1 7c 3f 4d 44 7f 3f
       1.0023558 0.9815001 0.9868464 0.99713594
000370 c1 ea 7c 3f 7f 59 7f 3f 5a 15 74 3f 65 00 81 3f
       0.98795706 0.99745935 0.9534508 1.0078245
000380 8e c4 76 3f 20 d0 6e 3f 24 99 7b 3f a5 41 6e 3f
       0.9639367 0.93286324 0.9828055 0.93068916
000390 a9 6d 7d 3f 16 36 81 3f 24 85 80 3f 37 59 7b 3f
       0.98995453 1.0094631 1.0040631 0.98183006
0003a0 fa 84 80 3f c2 f0 80 3f a2 29 7a 3f c9 62 71 3f
       1.0040581 1.0073473 0.97719777 0.9429136
0003b0 8c 7a 80 3f 87 38 7c 3f af 4c 80 3f 2d 57 71 3f
       1.0037398 0.98523754 1.0023402 0.94273645
0003c0 02 b4 78 3f c3 bc 7e 3f 1b 05 7c 3f c1 1f 6a 3f
       0.9714967 0.9950678 0.9844529 0.914547
0003d0 23 87 79 3f 34 04 77 3f 95 76 79 3f 62 df 7f 3f
       0.9747183 0.9649079 0.97446567 0.9995023
0003e0 84 68 7f 3f db db 80 3f 80 ba 79 3f 88 bf 7e 3f
       0.99768853 1.0067095 0.975502 0.99511003
0003f0 9c 0d 7b 3f 03 3d 7e 3f 1d 43 80 3f 66 55 72 3f
       0.9806764 0.99311846 1.0020481 0.9466156
