checkpoints/improved_pretrain_pretrain/checkpoint_ep5999.pt (torch, 807765 bytes, 25 tensors)

shared.0.weight f4 [512, 23]
00000000: 3182 cabd 1517 fd3b db30 4cbe ffb4 133e
00000010: e2b5 9bbd 9186 5730 1a25 6ebd 0186 693d
00000020: 11a7 653e 7d63 3e3e 0563 873d 28e2 f0bd
00000030: 4fa6 87bd b396 0d3e f3be 163e 7dc3 a3bd
00000040: 325a 95bd b811 6c3c f7bc 013e c54d b5bb
00000050: 62a2 853a 0e77 a937 28dc 76a5 c468 fbbd
00000060: 43a2 32be aafd 073d deb2 d73d e8d1 b93d
00000070: aeaf 4126 9ca3 9abc 3c7e 8d3e 7229 343c
00000080: 6e7b 3bbe 1f47 bdbd 2f29 ac3b fc5b 7a3d
00000090: 8966 b03d 2805 013e 17f9 ee3c 5e63 b9bd
000000a0: 7f99 b8bc f912 fc3d 58d4 d5ba 988e 90bc
000000b0: f9ad 3337 552c f0b2 451c fa3d ca6d 68bc
000000c0: 50ff a9bc 31b3 debd ed23 9a3d ae3e c2a5
000000d0: 31bd 433c 2890 5d3d c46e 5a3e a732 833e
000000e0: 9e3d 1e3e fde0 253e ca0c a53d d99c 4bbd
000000f0: e9bb e13c 0408 a43d faf0 30bd ed5b 643d
00000100: 6b7f 14be 510d 043b 4557 903b 973e a22d
00000110: 74c3 96b3 623d 22bd 4f73 013e ed19 3d3d
00000120: c2ad bf3c b707 08be aff5 39b1 7a1f 82bc
00000130: 0326 8ebc 6e7a 1ebd f066 d93c 7bba 23be
00000140: c036 b7bd ab63 d5bd 0afa 9b3b 7215 d83d
00000150: 4cfa babd d0ed c0bc 7b29 de3d 7d77 223e
00000160: adcf 84b7 5308 8fbc 8d44 faab ed32 d7b6
00000170: 3578 1bbe 002f ddbd 1488 3ebe 099e 81bd
00000180: a860 e73c 941d 5f36 7e29 c83b 32d9 98bb
00000190: a2bd 1ebe 8db2 f1bd 7968 acbd 74e7 4b3d
000001a0: 85fd a23d 0eba dc3d 0777 a0bd 54f5 5fbd
000001b0: d8a5 2a3e 9e4d c8bd a236 573d 4079 6939
000001c0: 3694 c5bc 6085 5e37 caed ae38 3d11 853d
000001d0: 0b82 123e 9099 373d 69e5 f9ba 5b51 c1bd
000001e0: 0609 0bb9 cd51 9d3d 861c 083d 91a5 253e
000001f0: 64b3 3b3d d057 36bd 6567 a9bd e35a 82bd
00000200: 6514 fd3d 8730 563d e4d4 2c3e b095 cdbd
00000210: 3539 5abd 9990 febd 8834 4338 4423 853b
00000220: bdf4 872c 7c0d f9b4 dc9d f63d 2e8a 2c3e
00000230: abf7 ef3c 9b5a 783d a6fb e0bc 184a 3124
00000240: f50f 69be 521d 80bd 9a1a ce3d 0978 58be
00000250: 54ba fcbd e413 29be 406d 7cbc 246b 48be
00000260: 836a 7e3d 604e 843d 3399 5dbd 14bd 8c3d
00000270: 538b 1b3e 781c 4939 b767 033c 30f6 6f28
00000280: af6e c52d 133c 5f3e 18ae 423e d631 6b3d
00000290: c340 463d e36e 4fbd 6509 c734 9985 4d3c
000002a0: a5a8 8e3c e906 fbbd d28c 28be 43b0 24be
000002b0: 2f50 d13d c0bb 4bbd f9db 8cbd 57d6 20bd
000002c0: 14fd 333e b0d2 33bc 682a eabc ab3b 48be
000002d0: 5138 d538 17a9 fbbb b08f 0ca8 986d b72c
000002e0: b513 2d3e 48ea fa3d 62a6 f6bd 07b6 27be
000002f0: ee52 ca3c 44a4 61ab f66c c13d def5 75bd
00000300: 834e 133e 2f04 8abe 3941 733e b3dd 8a3d
00000310: 0685 9fbd fc80 bd3d b806 2a3e 021b 113b
00000320: 4192 003b 249e ba3d 2922 073e 5714 013a
00000330: a8d6 fc3c 5b10 44b5 655c afa6 93ef 99bd
00000340: 76e6 053d 39e8 e3bd 47ab 093d eddd debd
00000350: dacc 48b9 d65e 77bd 2340 43bc 756c a53d
00000360: 68ad 39be ad0e 803c d63f 963d a18f 973d
00000370: f469 243e 8ce9 a4bc 8eaf 01be 711d e73d
00000380: 690d d23b 0ee9 d03d 35f0 02bb 2e6c ddbc
00000390: 9512 c027 9b0e 0ea6 7254 113e b630 9e3c
000003a0: 00cf 013e d3d5 153e 4dbd 513c 8f77 21a7
000003b0: 1ee1 bb3d ad00 593e 93aa 503e c7f6 06be
000003c0: e804 f53c a017 53be 3a00 2d3e a6f5 48be
000003d0: 95f1 873d db1f 87bd 56ab 33bd b4a3 153e
000003e0: fb88 cd3d 2da5 f03a 9e3b 903d 7bbe 7039
000003f0: 3069 c924 3c9c 67bc 1a86 233e 8803 163e
-0.09888113 0.007723699 -0.19940512 0.14424513 -0.07603051 7.8407775e-10 -0.05814085 0.05701256
0.22427012 0.1859264 0.06610683 -0.11761886 -0.06623518 0.13827018 0.14721279 -0.07996271
-0.07292594 0.014408521 0.1266974 -0.0055329525 0.0010195489 2.020181e-05 -2.141169e-16 -0.12275842
-0.1744471 0.033200897 0.10532163 0.090732396 6.7198417e-16 -0.018876843 0.27635372 0.010996209
-0.18308803 -0.09242081 0.005253933 0.06112288 0.08613307 0.12599623 0.02917151 -0.09052156
-0.02253413 0.12308306 -0.0016313894 -0.017646119 1.0709738e-05 -2.7959837e-08 0.12212423 -0.014186332
-0.020751625 -0.10874022 0.075263835 -3.369611e-16 0.011946962 0.054092556 0.21331316 0.25624582
0.15453193 0.16199107 0.0805908 -0.04971013 0.027555423 0.08009341 -0.043198563 0.05575173
-0.14501731 0.0020149539 0.0044049346 1.8445063e-11 -7.020472e-08 -0.03960932 0.12641643 0.046167303
0.023398284 -0.13284193 -2.7060698e-09 -0.01588415 -0.01735211 -0.038690977 0.026538342 -0.15989105
-0.089459896 -0.10419401 0.0047600316 0.10550965 -0.091297716 -0.023550898 0.108477555 0.15865894
-1.5832333e-05 -0.017460024 -1.7782595e-12 -6.413428e-06 -0.15182574 -0.1079998 -0.18606597 -0.06328971
0.028244331 3.3246806e-06 0.006108462 -0.0046645636 -0.15502027 -0.11801634 -0.08418364 0.049781278
0.07958511 0.107776746 -0.07835203 -0.054677323 0.16664827 -0.09780429 0.052542336 0.0002226578
-0.024118524 1.3263285e-05 8.341258e-05 0.064974286 0.1430742 0.044824183 -0.0019065562 -0.094393454
-0.00013259434 0.07681618 0.033230327 0.1617644 0.045825377 -0.04451734 -0.08271674 -0.063649915
0.123574056 0.052292373 0.16878086 -0.10038316 -0.053277213 -0.124299236 4.6540546e-05 0.004063042
3.864102e-12 -4.6389675e-07 0.12041828 0.16849586 0.029292902 0.060633283 -0.027463745 3.8443517e-17
-0.22759993 -0.062555924 0.100636676 -0.2113954 -0.12340227 -0.16511494 -0.015406907 -0.19572121
0.062113296 0.06460261 -0.05410118 0.06872001 0.15189867 0.00019179459 0.008020333 1.33205485e-14
2.244546e-11 0.2180026 0.19011724 0.057420574 0.048401605 -0.05064286 3.7073474e-07 0.012544059
0.0174144 -0.122571774 -0.16459969 -0.16082864 0.10220372 -0.0497396 -0.06877894 -0.03926691
0.1757701 -0.010975525 -0.028584674 -0.19554012 0.00010167121 -0.007680069 -7.8027184e-15 5.21334e-12
0.16902049 0.12251717 -0.12043454 -0.16378032 0.024697747 -8.016402e-13 0.09444611 -0.06004893
0.14385419 -0.26956317 0.23755349 0.06780567 -0.07789044 0.092531174 0.16604125 0.0022141342
0.0019618424 0.09112194 0.13196625 0.00049239903 0.030864075 -7.303949e-07 -1.2168108e-15 -0.07516398
0.032690488 -0.11128277 0.03361061 -0.10882173 -0.000191498 -0.060393177 -0.011917147 0.08077327
-0.18132555 0.015631998 0.073363945 0.07400442 0.16056043 -0.020130895 -0.12664625 0.112849124
0.00641029 0.10200702 -0.00199796 -0.027029123 5.331085e-15 -4.928594e-16 0.1419237 0.019310337
0.1267662 0.14632349 0.0128014805 -2.2408051e-15 0.09173797 0.21191664 0.20377569 -0.13180076
0.029909566 -0.20614481 0.16894618 -0.19624957 0.06637875 -0.06597873 -0.04386457 0.14613229
0.100358926 0.0018359773 0.07042621 0.00022959143 8.734805e-17 -0.01413637 0.15969124 0.14649785

shared.0.bias f4 [512]
00000000: 8181 293d 3aa0 aeb9 362d b3bd d6ff 023e
00000010: 50a3 eb3d a0b6 10be db41 a7bd d9d1 203d
00000020: ca5a 8fbc 1c2a 253e 3c6a 85bd fbca 46be
00000030: 6c03 2abe e080 333d f4d0 2e3e c3bd 1fbc
00000040: c9c3 3cbd 8b18 dd3d 3184 d03d a333 073c
00000050: f974 753d 5cb5 88bd c886 113d ae97 15be
00000060: f8ca 423d f871 a03c 0159 19bd f0cf 563d
00000070: c030 cbba 6b93 033e 4ff7 243d 6fa4 25be
00000080: a0d9 c8bd 640b ddbc 31c2 0f3e 8b51 94bd
00000090: 08e6 a03d 620c 26bd 6c8a f8bd df0c c4bd
000000a0: 7fb6 d23d cd60 22be 73d9 13bd b0e3 e53c
000000b0: 686c cbbb 6643 a8bc f65c db3d 0a90 c0bd
000000c0: ea23 e5bd b426 0dbe a94e 963c 7e38 a6bd
000000d0: 08b0 bf3d 1f05 b83d 63a0 e5bd ca4e 313c
000000e0: ba24 a9bd f500 233e 9d6e 7d3d 9e67 4d3d
000000f0: 1313 26bc fce0 03bd 4a56 1c3e efd2 193e
00000100: 76f9 a03d 6944 d83b 08f5 e73d a63c d1bd
00000110: f56d 3f3e 1189 ef3d 64aa 16be 1581 e0bd
00000120: 19e3 ff3d 5286 0fbe 203b 31be 9628 a5bd
00000130: c55e 003c c7bc e53c fa2e b1bd 6a2f b7bd
00000140: 19b1 ba3c a617 8a3c 7548 adbd 2524 723d
00000150: 8eea c73c e6f1 d9bc cce9 8ebd f932 183e
00000160: 0f9d d9bd fccd a23d d375 c1bd 93e6 043d
00000170: be50 193e 9846 513d 5a67 213d e34f 93bd
00000180: 0c72 ea3c 684b 0e3e bc28 9ebd 8938 a9bd
00000190: 615d 603d 9bef 08be 2550 2d3e 2def 773c
000001a0: b292 b43d 9119 8cbd e288 b5bd 1325 f7bd
000001b0: e27e 1fbe 042d d3bd afb7 fbbd 36b7 653c
000001c0: c596 39be b1a6 6b3d e050 113e 9014 10be
000001d0: 2934 c13d 236a 04be a7cd 6a3d d995 18be
000001e0: fcb1 9e3d fc00 0abe 4603 36bd afcc 163e
000001f0: c8d4 1d3e 6781 0a3d 1fe8 63bd 5a65 b23d
00000200: c7cb 62bd 6f2a 7e3d 6076 13bd 1c2b cc3d
00000210: fff7 78bc 115b 35be 02a5 e33d 5244 32be
00000220: a75a 053b ea67 343e f5ac db3c fd42 05be
00000230: b5cb d63d 37f5 dbbd ff65 48bd bb8a 4f3d
00000240: 6b8c c33d 76f2 ff3c 27db 8a3c e2bd 6abd
00000250: 28b8 e03d 013f 87bd 8cef 21bd 311a 85bc
00000260: f073 30bc 5cb0 ff3d 0829 36be 9c77 d23c
00000270: 6d46 723d a461 163e af9f 453e c95b efbc
00000280: e2c1 e43d 3c54 f3bc 0e31 9fbc 9ea3 6b3d
00000290: 0a9e 523d b351 793d 7fb0 47bb a4d3 3c3e
000002a0: 0acd 12bd f7e8 e23b 1bbf 1abd 86dd 293e
000002b0: 479f 8abd f1a6 b33d c490 19be 09d8 a0bd
000002c0: 2a80 223e 459b ea3d 824c 01bc ee3d 90bd
000002d0: ca53 f23c dad6 513c 6f12 883d 09e2 e9bd
000002e0: b955 30bd 83eb d9bc 0b2f f8bc 6620 2dbc
000002f0: a136 1dbe d920 debc e470 883c 3407 9fbd
00000300: bf48 13be f735 70bc d859 303e cfc1 373d
00000310: 78fa a03c fdd4 ea3c c0e6 b93d eb86 a93c
00000320: 91c6 89bd c40a 66bc 7706 3dbe b6f3 46bd
00000330: 135d ce3d e3f5 9ebd 029f ed3d 288b fb3d
00000340: 971b dcbd 011f 3d3e 1b26 123e 6be8 84bd
00000350: c309 d93d b693 193e d72f 49bc ebcc f7bd
00000360: bde8 143e 9820 5ebd 49fa 013e 0c9b 0abc
00000370: 6e9f 3a3b 687f 35be a663 353d 6c9a 1e3e
00000380: 735a fd3c daed 85bb 2348 263e 2996 993d
00000390: 6c4d b83d a747 7fbd 546a 103e f9a7 e73d
000003a0: b3ed 813b 9b63 0bbd c898 9b3c a99b 1b3d
000003b0: c438 b7bd 5c0a d33d 4435 40be f8d1 443d
000003c0: ac6b a43d 7847 243d b0c3 a03d 48c7 443d
000003d0: 7a05 7e3d c239 d53d 29a7 673d 48d6 113d
000003e0: b3a5 dbbd 958c 47bd 5705 ccba 184d 2b3e
000003f0: f291 063e ddb3 b13d e5e0 4e3d fec8 323e
0.04138327 -0.00033307244 -0.08748858 0.12792906 0.11505759 -0.14132166 -0.08166858 0.039262626
-0.017499346 0.16129345 -0.06514403 -0.19413368 -0.16602868 0.043824077 0.17071897 -0.009749833
-0.046085153 0.10795697 0.101814635 0.008252057 0.059926007 -0.066752166 0.035528928 -0.14608642
0.047556847 0.019585595 -0.037438396 0.0524444 -0.00155022 0.12849204 0.040274914 -0.16176008
-0.09807134 -0.02698297 0.14038922 -0.072421156 0.07856375 -0.040539153 -0.12135777 -0.095727675
0.102887146 -0.15857239 -0.036096048 0.028062671 -0.0062079914 -0.02053995 0.1071109 -0.09402473
-0.11188491 -0.13784295 0.018348055 -0.08116244 0.09359747 0.08985352 -0.11212232 0.010822007
-0.08258958 0.15918334 0.061873067 0.050147645 -0.010136384 -0.032196984 0.15267292 0.15021871
0.07860081 0.006599952 0.11326033 -0.10216646 0.18694289 0.11696065 -0.14713436 -0.109621204
0.12494487 -0.14016083 -0.1730771 -0.08064382 0.007835095 0.028044118 -0.08651538 -0.089445904
0.022789525 0.01685698 -0.08461086 0.0591165 0.024403837 -0.026604604 -0.06978187 0.14863195
-0.1062566 0.07949445 -0.09446301 0.032446455 0.14972207 0.051092714 0.039405204 -0.071929716
0.028618835 0.13895953 -0.07722613 -0.08262736 0.054776553 -0.13372652 0.16925104 0.015132708
0.088170424 -0.06840814 -0.08863999 -0.12067618 -0.15575746 -0.103113204 -0.12290894 0.014020732
-0.1812392 0.057532016 0.14191008 -0.14070344 0.09433777 -0.12931113 0.05732503 -0.14900912
0.077487916 -0.13476938 -0.044436716 0.14726518 0.15413201 0.033814814 -0.05564129 0.087107375
-0.05537012 0.062052187 -0.036001563 0.0996916 -0.015195846 -0.1771052 0.11115457 -0.17408875
0.0020348222 0.17617765 0.02681587 -0.13013835 0.10488073 -0.107401304 -0.048925396 0.050669413
0.09548267 0.031243544 0.016950203 -0.057309993 0.10972625 -0.06603814 -0.03953509 -0.01624784
-0.010769829 0.1248481 -0.1778909 0.0256918 0.059149195 0.14685684 0.19299196 -0.029218571
0.11169793 -0.029703252 -0.01943257 0.057529084 0.05142025 0.06086893 -0.003047019 0.1844011
-0.03584007 0.006924744 -0.03777991 0.1658841 -0.06768661 0.08772076 -0.1499663 -0.078537054
0.15869203 0.114553966 -0.007891776 -0.07043062 0.02958097 0.012807572 0.06644141 -0.11420066
-0.0430505 -0.026601559 -0.03029587 -0.010566806 -0.1535287 -0.027115272 0.016655393 -0.07765046
-0.14383219 -0.014661304 0.17221773 0.044862565 0.019650683 0.028666014 0.09077215 0.020694217
-0.06727327 -0.014040653 -0.18459497 -0.048572265 0.10076346 -0.07761743 0.11602594 0.12282401
-0.1074745 0.18468858 0.14272349 -0.06489643 0.10597565 0.14997754 -0.012279472 -0.12099632
0.14541908 -0.054230303 0.12693132 -0.008459818 0.0028476375 -0.17724383 0.044284485 0.15488595
0.030926919 -0.004087192 0.16238455 0.07499344 0.08999142 -0.062324192 0.14103061 0.11311335
0.0039651035 -0.034030538 0.01899375 0.037990246 -0.08946374 0.1030471 -0.18770319 0.048051804
0.08028349 0.04010722 0.078498244 0.048041612 0.06201694 0.10411407 0.0565559 0.035604745
-0.10724964 -0.048718054 -0.0015565556 0.16728628 0.13141611 0.08676884 0.050507445 0.17459485

shared.1.weight f4 [512]
00000000: f31a 6c3f a529 633f a9f7 6f3f cd12 4b3f
00000010: 0791 643f 4405 5d3f 8ae9 773f 0f86 6c3f
00000020: 07f1 723f af7d 6d3f 0a7f 713f 4dbb 703f
00000030: fe8b 773f 7e1e 653f 0344 733f 55f5 563f
00000040: a9bc 773f 318f 613f df6c 693f 1c4e 663f
00000050: e31b 523f 2ea3 6a3f c971 3c3f c610 673f
00000060: 579b 4e3f d650 463f effe 703f 51f9 6b3f
00000070: 2092 643f c096 373f 8685 6c3f a2f6 6b3f
00000080: 8b65 713f 120f 633f 8b16 503f acd1 693f
00000090: 16d9 6f3f 2860 743f 039e 593f 4ec9 763f
000000a0: c4fd 713f 5257 6f3f 1a80 6f3f b3ad 7d3f
000000b0: 1025 613f c259 703f 7de1 653f d1f9 553f
000000c0: c8aa 703f 2dbe 6f3f f06c 4a3f b625 6d3f
000000d0: eeb1 753f 4e82 6f3f ea37 7d3f a2a6 793f
000000e0: 6fbb 743f af05 7e3f c8a9 783f f03a 673f
000000f0: b2cf 6f3f 92c5 6e3f 18e1 743f 4451 483f
00000100: c63c 6c3f 3379 693f 40d6 6e3f dc41 803f
00000110: d2e3 673f b0cc 673f ed31 773f 51bc 6f3f
00000120: c4e6 6d3f d54f 673f 52d6 773f 4eca 513f
00000130: bba7 6f3f c75d 753f 291e 683f c7e8 543f
00000140: abd7 703f f48b 603f 3887 6d3f cf07 6c3f
00000150: fcab 673f 3133 553f 160d 4e3f f4ec 663f
00000160: 1a6e 6c3f c57b 6a3f 0343 723f 4a88 733f
00000170: a13f 663f d8e4 763f 2798 473f a69b 723f
00000180: c586 613f 5f50 713f 65a7 6e3f 9c05 683f
00000190: 1a77 693f d9be 663f 057f 6a3f ab40 5d3f
000001a0: 1e05 713f c1db 643f 86c0 483f 1069 603f
000001b0: 36e8 743f b401 733f c432 513f e449 493f
000001c0: e707 773f ffc5 683f 25f0 243f e1e4 6c3f
000001d0: a3f7 7d3f 7fff 733f 4583 423f 703b 643f
000001e0: 9704 803f 0d13 743f fc8c 6a3f 11fe 7a3f
000001f0: 7079 573f aa87 6b3f 2ed5 653f f6b1 783f
00000200: 1450 6c3f 1921 673f 2993 6c3f fee9 773f
00000210: 1dd0 673f 0c11 743f 1e95 693f 8a8e 6f3f
00000220: e6c6 823f 4f8c 6c3f 79c5 693f 8e73 443f
00000230: 632b 793f 8b4d 653f 22be 3f3f 1116 6d3f
00000240: edfd 333f 962b 763f 172b 193f 7783 5c3f
00000250: af5d 723f 318d 603f e591 603f 1d3a 783f
00000260: 878d 693f 9f37 703f d30a 793f d89f 6c3f
00000270: 3e0e 6c3f d723 713f 4b6d 693f 941c 753f
00000280: ebae 613f f960 343f 36a8 643f ec1d 493f
00000290: 727b 6b3f 8edb 203f 0b31 483f 00b4 633f
000002a0: 8166 793f fc9d 653f ea8c 693f f706 743f
000002b0: 0531 653f 283e 583f 3325 653f 22db 6e3f
000002c0: 9e02 723f ad10 703f 2929 773f 3658 7b3f
000002d0: 0021 533f 5416 7e3f 5e1f 6e3f 06e7 6b3f
000002e0: 7921 6b3f 88dd 5e3f f1df 633f a595 473f
000002f0: 0322 773f 725e 503f 5704 6a3f 10c9 503f
00000300: 0ce8 683f 3eed 593f b260 683f 5970 3b3f
00000310: 8d36 5d3f 115a 623f 77f2 613f ec88 273f
00000320: 9e7f 453f fae9 363f 76cb 703f 2684 683f
00000330: fe88 783f f95d 723f 6a32 703f 1264 633f
00000340: 32ff 6b3f d403 783f 98ad 6a3f a3e2 4b3f
00000350: 76e7 6f3f 6fe9 643f c9da 513f b492 793f
00000360: 5858 7c3f f7db 593f 1552 583f 177b 733f
00000370: 9935 5c3f b72c 7b3f 4a67 6d3f 872d 683f
00000380: 213e 623f 8545 223f cfe3 723f c666 703f
00000390: e9d4 6b3f a2a3 5d3f b473 783f 321c 683f
000003a0: e0bd 253f 459c 353f 5d82 603f 35f9 6e3f
000003b0: cbdd 6c3f 5b6b 763f 6070 673f 1fb8 703f
000003c0: 341e 3f3f abc2 543f 7432 6d3f 1285 573f
000003d0: cdeb 793f 95f2 6d3f da6f 5e3f 4957 7d3f
000003e0: 9962 653f 087e 763f 9b9a 6c3f f2ed 6c3f
000003f0: fbfd 423f 233b 353f 7e63 753f 3736 813f
0.9222862 0.8873542 0.93737274 0.7932556 0.89283794 0.8633616 0.9684073 0.9239206
0.9489903 0.927699 0.9433447 0.940358 0.96697986 0.8949965 0.9502565 0.83968097
0.9677225 0.8810912 0.9118175 0.89962935 0.820738 0.9165524 0.7361112 0.9025997
0.8070578 0.77467096 0.94139 0.921773 0.8928547 0.717144 0.9239124 0.92173207
0.9429557 0.8869487 0.812844 0.9133556 0.9369062 0.9545922 0.8500673 0.96400917
0.9452784 0.93492615 0.9355484 0.9909317 0.8794718 0.9388696 0.8979719 0.83584315
0.9401059 0.9364956 0.79072475 0.9263567 0.95974624 0.93558204 0.98913443 0.97519886
0.955985 0.9922742 0.97134066 0.90324306 0.9367629 0.9327022 0.95655966 0.78249
0.9228023 0.9120056 0.9329567 1.0020099 0.90582 0.90546703 0.96560556 0.93646723
0.92930245 0.9035619 0.968114 0.8194932 0.9361531 0.9584622 0.9067102 0.8316769
0.94079083 0.8771355 0.9278445 0.92199415 0.904968 0.83281237 0.8048872 0.9020531
0.923555 0.9159511 0.946335 0.95129836 0.8994084 0.9644294 0.7796654 0.9476875
0.88096267 0.9426326 0.93224174 0.9063356 0.9119736 0.9013496 0.91600066 0.864268
0.94148433 0.8939782 0.7841877 0.8766031 0.95666826 0.94924474 0.8171809 0.78628373
0.96496433 0.9092712 0.6442893 0.9253674 0.9920599 0.9531173 0.7598155 0.89153194
1.0001401 0.9534157 0.91621375 0.98043925 0.84169674 0.9200388 0.8977841 0.97146547
0.9230969 0.9028488 0.9241205 0.9684142 0.9055193 0.9533851 0.9124316 0.9357687
1.0216949 0.92401594 0.91316944 0.7673882 0.9733183 0.89571446 0.74899495 0.92611796
0.70309335 0.96160257 0.59831375 0.861381 0.946742 0.8771544 0.8772262 0.96963674
0.9123158 0.9383487 0.9728214 0.924314 0.9220923 0.9419531 0.9118239 0.9574673
0.8815753 0.7046047 0.8931917 0.7856128 0.9198524 0.62835014 0.78199834 0.88946533
0.97422034 0.8969419 0.9123064 0.9532313 0.8952792 0.8446984 0.89509887 0.9330312
0.94535244 0.93775445 0.9654718 0.98181474 0.8247223 0.9925282 0.9301661 0.9214939
0.9184795 0.8705678 0.8901358 0.77962714 0.9653627 0.8139411 0.9141287 0.815568
0.90979075 0.8512763 0.90772545 0.73218304 0.8641136 0.8841868 0.88260597 0.654433
0.77147853 0.7145077 0.94060457 0.9082664 0.97084033 0.9467464 0.93826926 0.8882457
0.9218627 0.9688084 0.91671133 0.79642695 0.93712556 0.8941869 0.81974465 0.97489476
0.985723 0.85101265 0.8450025 0.95109695 0.86019284 0.98115104 0.9273573 0.9069447
0.8837605 0.6338733 0.9487886 0.9390682 0.9212175 0.8657781 0.9705155 0.9066802
0.6474285 0.70941573 0.8769892 0.9334901 0.9252593 0.9625756 0.90405846 0.94030946
0.7465546 0.8310954 0.9265511 0.84187424 0.9762543 0.92948276 0.8688942 0.9896131
0.89603573 0.9628606 0.9242341 0.92550576 0.76168793 0.7079336 0.9585494 1.009467

shared.1.bias f4 [512]
00000000: eac2 883a f5e3 42bd 453a 5e3b 7749 44bb
00000010: 441d a5bc 798e f6bc 252f d8bc deb6 1e3d
00000020: d2e7 90bc 7e84 6dbc a9b8 c0bb 7eb5 fbbc
00000030: 934b a2bc a334 59bd 6ee0 c9bc 4f08 10bd
00000040: 54fc 98ba 2885 67bc 945a af3a d7d5 20bd
00000050: 9448 153c 421c 94bc 092b 153c e607 90bc
00000060: 932d 183d ac60 68bd 6dbf e2bb b215 17bd
00000070: 8dca fabc d73a 34bc 4d7d 763b 4a77 cabc
00000080: 4ad1 cfbc 4aa0 43bd 168c d8bb e98c dcbc
00000090: 898b d8bc fc0e ccbb 0ece dfbc 8e8d c1bc
000000a0: 8e7e febc 5141 2ebd d156 b2bb 9199 173a
000000b0: d887 3bbc 5d5d 50bd 0aa2 f8bc 537f 62bd
000000c0: de2d 01bd 37ba 81bc 656c 543c 7e5e a6bb
000000d0: e167 acbc 34cc 29bb cacb 183c 6b54 ffbc
000000e0: f5cf 10bc 9eb8 893c b920 ba3c 7b3c c5bc
000000f0: 7f69 bd3c cd01 72bd 0fb9 febc 300f 50bc
00000100: 7a83 1cbd 3ca9 30bd 80f4 f4bc 609a 90bc
00000110: 4b21 7b3a 0f27 0ebd 1c2c c3bc 96f1 7cbc
00000120: acae c6bc f02e fbbc 9f6d bdbb 6c86 5dbd
00000130: cd2e e23a abad 773b 5f83 26bd 1613 483c
00000140: 4f96 f53b 0281 d2bc c61f c6ba b233 91bc
00000150: 4dcf 28bd d6cf b43c 760d 5dbd cf85 903b
00000160: 410c 80bc 6c7c 04bd 7c9f 4ebc 1ee9 41bc
00000170: c262 ba3c 33a6 91bc 5ccc 32bc fde0 9cbc
00000180: 50b1 d1bc 02c5 ce3b 2ed9 51bd 4194 e23c
00000190: 6381 7cbd 6972 293b 15d2 873b 895f c0bc
000001a0: f0aa f5bc f925 6b3c 7d35 cf3c bd1d 0abc
000001b0: caff c8bc 8793 f9bc 08e7 303b 5676 20bb
000001c0: f928 04bd b573 8d3b 9668 1ebd 5a71 21bd
000001d0: ee23 683b db9e 93bb 53db 0dbc 188f bcbc
000001e0: cfd6 013d 7409 76bc 6052 b9bc 9059 453c
000001f0: 0871 573d 9719 08bd d356 0c3b ef38 113d
00000200: 7644 823c 2771 28bc 3fc3 cfbc 3142 553c
00000210: bed8 4c3c dd6f 5dbd 19c4 0cbd e367 05bd
00000220: 24d5 843b f931 3d3b cc2d 62bd 7f3f 67bc
00000230: 0a6f a73c 2514 d5bb 32b9 9c3b 436e c7bc
00000240: fc6c 23bc f227 6c3c ee27 3fbc 5fdc e2bc
00000250: 1aeb 9dbc 8697 a93c 3e92 0bbd b023 17bd
00000260: 8f52 d63b 498a b5bc b20b 02bd 905c ffbb
00000270: a8f6 02bd 0b20 e3bb e881 103d f6a2 13bd
00000280: 2a1d 003d 7767 b7bc f914 85bc 2cc1 75bb
00000290: bab5 88bd 1a79 9ebd 88f3 46bc 780b de3c
000002a0: 2892 d9b9 ce9c 52bd e7a5 4dbd 4771 013b
000002b0: 5705 19bc 636a dd3b e6ab 36bd 0e49 fb3a
000002c0: ae8f a23c aebc 56bd 353c be3b 2c99 d73c
000002d0: c557 42ba 5452 8dba 02f2 00bd f4aa d83c
000002e0: 5b24 68bd 4175 1abc aaae ecbc 2791 aabc
000002f0: a34f 88bc 9e35 80bc 2bad 1bbc b445 bcb9
00000300: f5af 673c cc19 8eba 9f2c 013b fc8f a43b
00000310: 0324 c2bc ece0 09bc 6589 0abd a1f4 bdbc
00000320: fc80 6d3c 4e2a e9bb 4cf3 03bd 8afc 75bd
00000330: a75b 963c 04b2 15bd abc2 f23c adbb 17bd
00000340: cfa5 b7bb 1e79 bc3b a5bf 87bc 3797 4cbc
00000350: 6df1 64bc ac4b 55bc 1ffb 863b 1ddc 863c
00000360: 16d7 e0bb 1b00 aabc 1b64 ccbc 5e91 173c
00000370: bd11 ebbc aa18 423c bac5 51bd 231c 89bc
00000380: aef8 80ba f1b0 78bc 5ef2 7c3b cd1a 18bd
00000390: e22f 83bc df50 20bd 6037 d0bc 1eb5 5b3c
000003a0: a3b6 afbc 66ea a3bc bb37 0cbd c753 84bc
000003b0: 0f26 e5bc 9a26 733b 63b9 1cbd 8f6e c6bb
000003c0: 3c8b 24ba 0d7c bdbc d011 29bd 79e0 80bc
000003d0: 3bbf 093c cc49 e7bc 6848 943a 48d6 b4bb
000003e0: 7d49 72ba b603 60bb e6d3 62bd 4188 c5bc
000003f0: 1219 d2bc e309 c63c 5cd1 eabc 2dd7 243c
0.0010434065 -0.047580678 0.0033909243 -0.0029951015 -0.020155556 -0.030097233 -0.026389668 0.038748614
-0.017688666 -0.014496921 -0.005881388 -0.03072619 -0.019811427 -0.053028714 -0.02464315 -0.035164174
-0.0011671879 -0.014130868 0.0013378435 -0.039266434 0.009111542 -0.01807988 0.009104499 -0.017581891
0.037152838 -0.05673282 -0.0069197924 -0.036885925 -0.030614162 -0.011000357 0.0037611306 -0.024715085
-0.025368351 -0.047760285 -0.0066084964 -0.02692266 -0.026433723 -0.006227372 -0.027319934 -0.023627069
-0.031066205 -0.04254276 -0.005442478 0.0005783076 -0.011445962 -0.05087029 -0.030350704 -0.055297207
-0.031537883 -0.015835864 0.012965296 -0.0050771823 -0.021045627 -0.0025909068 0.009325931 -0.031168183
-0.008838643 0.016811665 0.022720682 -0.02407669 0.023121594 -0.05908375 -0.031094102 -0.0126989335
-0.038211323 -0.043130144 -0.029901743 -0.017651737 0.0009579851 -0.034705218 -0.023824744 -0.015438458
-0.024253212 -0.03066203 -0.00578089 -0.054083273 0.0017256379 0.0037792723 -0.04065263 0.012211582
0.007494725 -0.025696281 -0.001511567 -0.017724846 -0.041213322 0.02207176 -0.053967915 0.0044104825
-0.015630843 -0.03234522 -0.012611266 -0.011835365 0.02275217 -0.017779445 -0.010912981 -0.019150252
-0.025597245 0.0063101063 -0.05123251 0.027658584 -0.06164683 0.0025855547 0.004144917 -0.023483055
-0.029988736 0.014352315 0.02529406 -0.008429942 -0.024536032 -0.030465854 0.0026993174 -0.0024484596
-0.032265637 0.004316772 -0.03867396 -0.03941474 0.0035421806 -0.004505021 -0.008658248 -0.023017451
0.031698998 -0.015016902 -0.022622287 0.012045279 0.05259803 -0.03322753 0.0021414056 0.035454687
0.015901785 -0.010280884 -0.025361655 0.01301627 0.012502847 -0.05406176 -0.0343667 -0.032569777
0.0040537287 0.0028868897 -0.055219457 -0.01411426 0.02043869 -0.0065026456 0.004782819 -0.02434457
-0.009974714 0.014413821 -0.011667235 -0.027692972 -0.019277144 0.020702135 -0.034075014 -0.03689927
0.0065406035 -0.022160666 -0.031749435 -0.0077930167 -0.03197351 -0.00693131 0.03528014 -0.036044084
0.031277813 -0.022388203 -0.016245352 -0.0037499173 -0.066752866 -0.07737942 -0.012143023 0.027105078
-0.0004149836 -0.05141907 -0.050207045 0.0019751356 -0.009339652 0.006757067 -0.04459753 0.0019171552
0.019843902 -0.052426033 0.005805517 0.026318155 -0.00074135914 -0.0010781982 -0.031480797 0.026448704
-0.056675296 -0.00942737 -0.02889188 -0.020821167 -0.016639536 -0.015650567 -0.009501736 -0.00035910087
0.0141410725 -0.0010841428 0.0019710434 0.005022047 -0.023698812 -0.008415442 -0.033822436 -0.023187937
0.014496084 -0.007115639 -0.032214448 -0.060055293 0.01835425 -0.036546722 0.02963384 -0.037044216
-0.0056044827 0.005751743 -0.016570875 -0.012487224 -0.013973576 -0.01301853 0.0041192914 0.01646238
-0.0068615777 -0.020752003 -0.024950078 0.009250967 -0.028694982 0.011846701 -0.051213957 -0.01673705
-0.0009839737 -0.015178905 0.003859661 -0.037134934 -0.016014043 -0.039139625 -0.02541703 0.013409881
-0.021449393 -0.02000923 -0.034232836 -0.01615323 -0.02797225 0.0037101866 -0.038262736 -0.00605566
-0.0006276851 -0.023130441 -0.041276753 -0.015732037 0.008407409 -0.028233431 0.0011313083 -0.0055187084
-0.0009242518 -0.00341819 -0.055377863 -0.024112822 -0.02564672 0.024174636 -0.028664283 0.0100610675

shared.3.weight f4 [256, 512]
00000000: 3d29 b2bc 5224 03bd 042e dcbc aef9 743a
00000010: 8b4e 7bbc d213 953c 9305 6fbb 879b 223d
00000020: 5b43 273d 17a0 06bd 8f44 423d ba4e 8ebc
00000030: 9bea 6a3d 32f8 f83c 3a4b 0dbc 4e56 d2bb
00000040: bffe 623d b3a1 263d ca83 2c3c 8cd5 65bc
00000050: 2c1a 663d edb5 d7b9 8068 cd3c eedf 7cbc
00000060: 6657 b03b 9db3 f2bc 2622 293c f24c c23c
00000070: 9ad6 50bc 37e4 443d fe14 c43c 786c 23bc
00000080: 6919 503d 203b c83c d7ea 53bc 6d82 183d
00000090: 46c0 07bd 2810 a6bc f85c b83c 5a88 11bd
000000a0: f3fb d83c dca3 533c ed93 f6bc c434 5cbc
000000b0: f17c e8bc 5205 553c e562 883b 848d 243d
000000c0: e267 abbc 6b0d 183d 6a71 cbbb 0d4d febb
000000d0: d537 01bd 4654 293d 1249 6abd 015c b13c
000000e0: a021 863c 432e 77bc baae 303c 6b1f ba3b
000000f0: 6edb 08bc 1d08 1bbd 5e30 513c 8288 613d
00000100: 4bbf 013d 31df 943c edeb cb3c 19b2 ad3b
00000110: ab25 e7ba d6c4 a23b 112b f03c 4f0a 05bd
00000120: 9161 773c 84ea abbc 3964 853c f3c6 86bb
00000130: 48c9 7e3d 6a73 853b 5867 02bd 614a 1c3d
00000140: 8cd5 d13d 5276 493c 53d4 7f3d 638b c9bc
00000150: 992c 75bc 2e3d 813d 6878 f13c f81a fb3a
00000160: 2beb 1b3c 6adf d8bb 1453 9abc 7346 453a
00000170: aefe a7ba 58a5 943c fed7 c33c 0335 dc3c
00000180: b188 fe3b dec8 e93c 5d0d b4bc a8d3 7f3d
00000190: f133 753b a0db 873b c758 af3c c33f dd3b
000001a0: 06dc 2cbd 0a35 c1bc f3c7 903c b1d9 453a
000001b0: ea5d 79bd 36df 59bc a85f 903c 98ca 1e3c
000001c0: a885 103d 0bf9 a13c 8e14 a53b 2116 00bb
000001d0: 84c8 18bd 0bb6 203d fb54 cb3c a997 a3bc
000001e0: 9766 d53b 5def 2f3c ec58 183c 9e4d 36bc
000001f0: 81f3 3f3d 779e c2bc 73f5 1c3b 44a8 313d
00000200: 1fb0 613c b5d0 58bc d69f 093d f3ee 1ebb
00000210: ea76 ebbb 4afe d43a 1c13 94bc 0f0c b23c
00000220: 0961 783d b69f 61bc 48f0 bfbc 86f1 fe3c
00000230: 0508 823c 3897 d2ba a2bf abba a4b1 ab3c
00000240: cd4f 453d 5429 1f3d ce47 c3b9 71ac 08bc
00000250: ad61 0cbd 7ed1 a6bc a48c c5bb 3b2d 08bd
00000260: 701a 413c 0184 953c 7926 073d aa18 ef3c
00000270: fab3 893c b262 04bd 8ef9 9cbc b681 d7bc
00000280: c6f7 693c 9c6b 503d ee8a aabc bb5d 0e3c
00000290: 9e14 193c f92c a2bc 0b75 fa3c 4360 70bb
000002a0: e4fd 103d 2f70 1c3d 9c2e 08bd a542 1f3c
000002b0: 26a2 a83c 9cb3 6f3c 70fa 17bb e359 0b3c
000002c0: cdb9 d33c f9ee e43c 0ed2 42bc 1fd2 a73c
000002d0: 64f1 ba3c 6a4c 0d3d a624 263d 7715 473d
000002e0: b2bf 9f3c 1661 b3bc 2c0c bc3c 8ce1 b73c
000002f0: 0f3f 093c 1e38 003d d5a0 a9bc 5101 ccbc
00000300: c6ae a53a 007e ce3c e997 083d 0d6b 7e3c
00000310: bad3 ae3c 5429 37bd dfb1 07bd 48cc 203d
00000320: 5e39 d03c e66d fe3b 5c95 9c3c 02b6 1b3a
00000330: 4053 583d a15a d13c ed4f 013d 5892 d038
00000340: b2fd 4b3c d62c 4e3c f188 083d c8f5 e93c
00000350: 832e ca3c 644b 26bc 427d efbb 2ca4 263c
00000360: fb7c 093d d33f 71ba c08b fdb7 8a31 5f3a
00000370: aaab 84bc b414 533c 4523 2c3c ac37 dc3c
00000380: b98a 5cbc 4545 a63c e146 aa3c c64a d5bc
00000390: 46b6 8b3d 68f0 083d d012 823c 7c6c 363c
000003a0: f4bb ea3b 3594 84bc adb6 d23b a622 65bb
000003b0: afa9 32bd 4660 cc3b 5093 3bbd 352e f63c
000003c0: c002 b8bb 2ae6 b73c ba19 ffbc 88c7 27bc
000003d0: 24cd 113c cb51 0cbd a1ab bebb ae4f bbbb
000003e0: 7dbf a13c 36af da3c d595 923c e20d fc39
000003f0: 9376 2a3d b5e5 bd3c 00b1 6639 1ae7 03bd
-0.02174818 -0.03201706 -0.02687741 0.00093450665 -0.01533855 0.018197928 -0.0036471828 0.039699104
0.04083572 -0.032867517 0.047428664 -0.017371524 0.057352643 0.030391786 -0.008623892 -0.0064189797
0.055418726 0.040681552 0.010529468 -0.014027964 0.056177303 -0.0004114354 0.025074244 -0.015434248
0.0053815125 -0.029626662 0.010323083 0.023718331 -0.0127464775 0.048069205 0.023935791 -0.009974591
0.050805483 0.024442255 -0.012934408 0.03723376 -0.03314235 -0.020271376 0.022505268 -0.035530426
0.026487326 0.012917485 -0.030099833 -0.013440315 -0.02837989 0.013001757 0.00416218 0.040174022
-0.020923559 0.03712217 -0.0062085884 -0.00776065 -0.031547386 0.041340135 -0.05719859 0.021650316
0.016373456 -0.015086713 0.010783846 0.005680015 -0.008353097 -0.037849534 0.012767879 0.055061825
0.03167657 0.018172832 0.024892772 0.005300772 -0.0017635127 0.0049673123 0.02931741 -0.032480534
0.015098945 -0.02098585 0.016283141 -0.004113072 0.062203676 0.0040725963 -0.031836838 0.03815687
0.10245809 0.012296276 0.062458348 -0.024602598 -0.014964246 0.06310497 0.02947636 0.0019157818
0.009516518 -0.00661843 -0.018838443 0.00075254514 -0.0012816989 0.018145248 0.023906704 0.026880747
0.0077677597 0.028538164 -0.021979028 0.06245771 0.0037414993 0.0041460544 0.021404637 0.0067519858
-0.04220202 -0.023584861 0.017673468 0.0007547392 -0.06088058 -0.013297847 0.017623737 0.009691857
0.035283715 0.019772073 0.0050378507 -0.001954444 -0.0373006 0.03923611 0.024820795 -0.019969778
0.006512474 0.010738221 0.009298544 -0.011126904 0.046863083 -0.023757203 0.002395001 0.04337336
0.013774901 -0.013233353 0.033599697 -0.0024251312 -0.0071858065 0.00162501 -0.018075518 0.021734266
0.060639415 -0.013770988 -0.023430005 0.031121027 0.015872965 -0.0016066795 -0.0013103376 0.02095873
0.048171807 0.038857773 -0.00037246797 -0.0083418945 -0.03427284 -0.020363566 -0.0060287286 -0.03324626
0.011786088 0.01825142 0.032995675 0.029186565 0.016809452 -0.032320686 -0.019161966 -0.026306968
0.014280265 0.050883874 -0.0208182 0.008689339 0.009343294 -0.019796835 0.030573389 -0.003667847
0.03539838 0.038192924 -0.033247575 0.009720479 0.02058513 0.014630225 -0.0023190044 0.008505317
0.025845433 0.027945982 -0.011890901 0.020485936 0.022820182 0.034496702 0.040562294 0.048604455
0.019500587 -0.02189688 0.022955023 0.022446416 0.008376851 0.031303518 -0.020706574 -0.024902971
0.0012640588 0.025206566 0.033347998 0.015528453 0.021341193 -0.044717148 -0.033128615 0.039257318
0.02541798 0.0077645658 0.019114189 0.0005939902 0.05281377 0.02555591 0.031570364 9.9454715e-05
0.012450622 0.012583932 0.033333723 0.02855958 0.024680382 -0.01014981 -0.007308633 0.010170978
0.033566456 -0.0009202931 -3.0225026e-05 0.0008514157 -0.016195137 0.012883354 0.010506456 0.026882015
-0.013460808 0.020296702 0.02078575 -0.026036631 0.06821875 0.033432394 0.015878111 0.011134263
0.007163519 -0.016183952 0.006430468 -0.003496328 -0.043618854 0.0062370626 -0.045794785 0.03005133
-0.005615562 0.022448618 -0.031140197 -0.010240443 0.008899007 -0.03425769 -0.0058187996 -0.0057162857
0.019744629 0.026694875 0.017893711 0.0004807553 0.041616987 0.023180822 0.00022000447 -0.032202817

shared.3.bias f4 [256]
00000000: c58b 02bc 7dff 00bb 2181 2a3c 2c55 883b
00000010: 5140 7cbc 3219 2f3d 78a4 583b c1b5 5d3c
00000020: 0c40 ed3c 8b32 483b 692c 453d 3078 fbb9
00000030: ea2b f83c 875f 113a 0542 0bbd caed d23c
00000040: b8b7 f3bc c091 34bc 7dcf b33c de2e 05bd
00000050: ea30 133d 561c 0b3c e215 0b3c 77f3 833c
00000060: 0958 273d f944 0a3d eb12 e33c 04f0 843c
00000070: 7afc 1d3d 0753 fdbc 35d2 a23c 6505 0ebd
00000080: df60 8f3c c7e6 e43b 5d6c ab3c 1b72 b1bc
00000090: 1976 c73c 7bd6 d73c 0ad7 bc3c eb0e cdbb
000000a0: 8384 33bd fed9 323d 3fbb e8bb 4468 42bc
000000b0: 56c7 b13c fcd6 073d 7cef 233d 4e38 ec3b
000000c0: d479 8c3c 1b9f 43bc ad31 b4bc 804f 1f3d
000000d0: f1c4 88bc 43cf 74bc 7a3d 9abc b9b8 b9bc
000000e0: 3670 153c c6f1 20bb 2f9d 893c d50c a23c
000000f0: eee2 d9bc fbaf b8bb bdce 14bd 4b11 993b
00000100: 6008 093d 7a48 1dbd 7b2d ec3b 88e3 6c3c
00000110: b6fa 1fba 8c32 9dbc 8b45 ebbb 4fcc 90bc
00000120: a335 ddbc 2c46 28bc 3c4a 04bc 0d6d febb
00000130: cdb5 d13c b037 35bd 4433 adbc 3c89 5abb
00000140: 0024 f13c 9080 5a3a 403d e53c b399 0e3d
00000150: a7da c13c e557 1dbc 6f7e 963c 5e7e 49bc
00000160: 378e 9ebc 14dc 563c eed4 343b c0ea 6f3c
00000170: 324d 113d b09a 413d f060 17bd b346 b6bc
00000180: b384 2d3d e7bb 6cbc cf78 523c 610d 6abb
00000190: 7be2 b93c 7df2 13bd ae4f d43c 787a 14bd
000001a0: a7b2 10bd 54c4 ca3c 401f e23a 6d95 9d3c
000001b0: cfa3 63bc cd10 643c 6e80 e4bc 294b c8bb
000001c0: 872f 9cbc 2adb b9bc 2342 cc3c 935e 1f3c
000001d0: b4cd 0bbd ce6e 91bc 1b00 603c 96ca f33c
000001e0: 3ebe b1bc 68b8 57bc e092 6b3c 07de 163d
000001f0: cc47 dc3a 7707 fdbc 8879 893c a1c6 fd3b
00000200: a8ac 21bd 6eff b03b 3b64 39bb 413e 7bbb
00000210: ac1c 0d3c d0ef 133d 63b0 fbbc f936 273d
00000220: dea9 1aba 943e b53b 509d 2d3c ce32 aa39
00000230: ab80 2dbd f2d6 303d cfa2 eb3c 76db c1ba
00000240: 0c99 a7bc a718 3c3c b01a 063d a201 023d
00000250: 1929 c23c 20bd dd3c 26c9 24bd 5ee6 d2bb
00000260: b095 97bc c7ad b4bc a712 b2bc 2067 ee39
00000270: ae9b aebc 9158 11bd 4008 d6b7 0871 e839
00000280: ebc0 b63b 8286 0f3d 3d3f 11bd 4bee 89bc
00000290: bc76 8f3a e345 07bd 0984 093c 2edf 213d
000002a0: 55b9 8e3c f39e 8e3c c89d da3c 2e2e f6bc
000002b0: 546e 02bd 8c2c 053d cadd f03c 7782 263d
000002c0: a10a 4e3c 7dfb 253a 647c fa3c e1e0 a3bc
000002d0: e609 d03c ffed f13c 0813 7c3c 8764 313d
000002e0: 8013 33bd 51e5 c7bc 3fd2 18bd 4c7a 0dbd
000002f0: 91d6 a1bb 525d 0e3d 1986 fcbc d75a 0aba
00000300: fb78 c3bc d871 d9bc ccd2 d53c 6eab 093d
00000310: 8c5f f83b 96e9 c1bc b2bb a1bb bce1 083d
00000320: 683a b2bc 8add 6f3c 456f b13c 7800 18bd
00000330: 6dc0 b7bc 8a60 84bc 4f91 ce3c 76cd 213c
00000340: d31b 0e3a 1cc4 6b3b 20a4 4ebc 21f9 a5bc
00000350: ee3c bbbc c9d2 493b c20f 0a3d fff0 d23c
00000360: fbbd c5bc bb27 223d 6979 bb3c 2ee9 2cbc
00000370: 0470 73bc 8174 053d 318a 1ebd 29b2 9f3c
00000380: a667 1fbd 5d20 843b a3ae d03c aec1 b53c
00000390: 477a 9dbb 523e 4dbc 5c2d 923c a047 583c
000003a0: d491 b93c 4676 b8ba d2e2 2dbc c954 d03c
000003b0: 741a 0c3a eb91 cb3b 9c83 023d c71a 6b3c
000003c0: 1b02 0a3d 30d3 44ba de97 11bb d15c 903c
000003d0: ffc4 43bc 2c8c 27bd c63e 1d3d df67 b2bc
000003e0: 24c6 2f3d 4abc 36bc 3759 13bd 1e10 84bc
000003f0: 8bd2 9d3c 40bc 10bd 3607 1f3d 2ef1 6dbc
-0.007967894 -0.0019683533 0.010406763 0.004160544 -0.015396194 0.042748637 0.0033057015 0.013532103
0.028961204 0.0030547704 0.048138056 -0.00047963997 0.030294377 0.0005545546 -0.033998508 0.025748152
-0.02975069 -0.011021078 0.021949524 -0.0325154 0.03593532 0.0084906425 0.008489104 0.016107304
0.04085544 0.033757184 0.027718982 0.01622773 0.03857086 -0.03092338 0.019875625 -0.034673113
0.017502246 0.0069855186 0.020925695 -0.021660855 0.024348306 0.02634739 0.023051757 -0.006257882
-0.043827545 0.043664925 -0.0071023996 -0.011865679 0.021701496 0.03316401 0.040023312 0.0072088605
0.017147936 -0.011939789 -0.021996344 0.038894176 -0.016695471 -0.014941993 -0.018828142 -0.02267109
0.009120991 -0.002455817 0.016798584 0.01978151 -0.026597466 -0.005636213 -0.036329973 0.004671251
0.033455253 -0.038399197 0.00720757 0.014458545 -0.00061027275 -0.019189142 -0.007179921 -0.017675547
-0.027003115 -0.0102706365 -0.0080743395 -0.0077644647 0.025599385 -0.04424256 -0.02114261 -0.0033345958
0.029436111 0.00083351973 0.027983308 0.034814548 0.023663832 -0.009603475 0.018370835 -0.012298195
-0.019354923 0.013113994 0.0027592736 0.014643371 0.03547401 0.047266662 -0.03695768 -0.022250509
0.04236288 -0.014449096 0.012846186 -0.003571354 0.022691002 -0.036119927 0.0259169 -0.036249608
-0.035326626 0.02475182 0.0017251745 0.01923629 -0.0138940355 0.013920021 -0.027893271 -0.0061124754
-0.019065632 -0.022687513 0.02493388 0.009727138 -0.03413172 -0.017753031 0.0136719 0.029759686
-0.02169716 -0.0131665245 0.014378279 0.036832836 0.0016806065 -0.030887349 0.016781583 0.0077446257
-0.0394713 0.0054015433 -0.0028288502 -0.0038336667 0.008612793 0.036117375 -0.030723756 0.04082391
-0.0005899946 0.0055311415 0.010596588 0.0003246278 -0.042359035 0.043173738 0.028764157 -0.0014790136
-0.02045872 0.011480487 0.032740295 0.03173984 0.023701238 0.02706772 -0.040230893 -0.0064361533
-0.018503994 -0.02205552 -0.02173741 0.00045471732 -0.021314468 -0.035484854 -2.551463e-05 0.00044334703
0.005577197 0.035040386 -0.0354607 -0.01683726 0.001094542 -0.033025634 0.008393296 0.03951948
0.017422358 0.017409777 0.026686564 -0.030051317 -0.0318435 0.032513186 0.029402632 0.040651765
0.012575776 0.0006331725 0.030576892 -0.020004692 0.025395345 0.02953243 0.015385397 0.04330876
-0.04371977 -0.024401339 -0.03730988 -0.03454046 -0.0049389084 0.034756966 -0.030825661 -0.00052778184
-0.023861399 -0.026543543 0.026101492 0.033610754 0.0075797495 -0.023670953 -0.004935705 0.033418402
-0.021756366 0.014640221 0.021659503 -0.037109822 -0.022430623 -0.016159315 0.025215773 0.009875646
0.0005421016 0.0035975045 -0.012612373 -0.020260395 -0.022856202 0.0030795804 0.033706434 0.025749682
-0.024138441 0.03958867 0.022885041 -0.010553641 -0.01485825 0.03258181 -0.03870601 0.019494133
-0.038917206 0.0040321783 0.025473898 0.02218708 -0.0048058364 -0.012527065 0.017843895 0.0132006705
0.022652544 -0.0014073334 -0.01061316 0.025431054 0.0005344518 0.006212463 0.031863794 0.014349646
0.033693414 -0.0007508276 -0.0022215764 0.017622383 -0.011948823 -0.040905163 0.038389944 -0.021778045
0.04291357 -0.01115329 -0.035973754 -0.016120967 0.019265434 -0.03533578 0.038825236 -0.014522834

shared.4.weight f4 [256]
00000000: 26d4 483f e27e 523f 05bc 693f b478 7d3f
00000010: a749 653f 9570 793f 2728 333f 1139 7a3f
00000020: ecfa 7d3f 63b2 2d3f cff6 703f c389 6a3f
00000030: fa44 6b3f 362b 683f d494 653f 838a 643f
00000040: 699f 703f f3d0 1e3f 50e2 713f f730 773f
00000050: f7cb 803f 2d64 753f 2629 693f 4f37 5c3f
00000060: 779c 753f ca30 7f3f 2074 783f 3520 6e3f
00000070: 1644 713f e565 5e3f 108b 733f 4ca3 7e3f
00000080: e94e 733f 4fe3 783f 8b26 763f fb40 6b3f
00000090: 9e98 7d3f fc50 7b3f 2ff5 613f 1d22 743f
000000a0: dbc9 4c3f cb8c 743f 164e 7d3f 3c08 803f
000000b0: 5422 713f 4411 4f3f fd77 7d3f 04ac 733f
000000c0: e70c 4a3f e4fa 543f 339f 633f 53d7 773f
000000d0: 15c9 473f 43d4 7f3f 5266 783f e8e3 6b3f
000000e0: b5b6 803f c86d 743f 320b 603f d8dd 6d3f
000000f0: fea5 763f 04f5 463f ad52 7a3f 1acd 793f
00000100: 2dce 603f 952d 6c3f 43ee 6c3f 9622 773f
00000110: 4f50 453f 745d 523f e326 5b3f ba05 733f
00000120: 69d1 5e3f f409 703f 56d7 6a3f bcee 793f
00000130: 3a47 7d3f 0d31 393f 01c6 763f 06e2 3c3f
00000140: abec 7a3f 3049 693f 1ff8 643f 9c1f 623f
00000150: ae6d 753f 0869 303f 32d0 793f 7a17 7f3f
00000160: 3e0d 783f ca36 453f 924c 733f 4357 463f
00000170: 1198 7c3f 3d04 733f f76f 6f3f 9ef5 663f
00000180: 6a82 763f 90d9 753f 0326 743f d6af 823f
00000190: 5b5c 543f 2b75 783f 2ae9 493f 79bc 7c3f
000001a0: f83c 6d3f cd3c 723f 85d8 6b3f 3f82 6b3f
000001b0: 03ab 703f 9466 763f fddd 7a3f b0ab 633f
000001c0: be3c 793f 9dbf 783f 0cd0 7d3f 6709 543f
000001d0: 877e 7e3f 4c38 7f3f 9a2c 683f a3e3 7c3f
000001e0: ce8b 763f 08fc 723f 32d2 6c3f 2ac5 6f3f
000001f0: 8be8 633f cb1b 623f cb13 4f3f a757 493f
00000200: 3d16 7a3f 3b72 2c3f 64dc 723f 6003 7a3f
00000210: 646f 793f 24eb 7e3f 1b5e 713f 8384 703f
00000220: f425 783f 7e53 593f 2043 753f b2aa 5d3f
00000230: ba8c 813f 3df7 7c3f 2cc5 7a3f dec9 6a3f
00000240: 6d6a 523f d94e 723f 19e9 4b3f 0e39 5b3f
00000250: 770d 793f b7aa 733f 1843 2e3f 3b64 403f
00000260: 5e2e 6c3f ceed 253f 6f4e 6f3f 96c9 693f
00000270: 29d7 703f 91a5 7e3f c40c 3c3f a688 6e3f
00000280: 42fd 803f 0038 453f 6a95 7f3f 34c0 6b3f
00000290: 4db8 3e3f b626 733f 88c4 813f 6d41 7c3f
000002a0: 9621 453f 0b57 753f daa7 653f c29b 813f
000002b0: de4b 793f 97d3 753f fad4 293f e741 7f3f
000002c0: 8206 833f 4007 773f c59b 4c3f 1663 6e3f
000002d0: 5156 793f 1d01 713f f3c8 4d3f 2b09 673f
000002e0: 8ba9 5f3f d552 4b3f 1373 783f 5f74 833f
000002f0: ac4a 703f 4a93 7e3f 1da5 4d3f 12b6 783f
00000300: dac6 7a3f 0275 7b3f 7fa4 793f b092 613f
00000310: 510a 703f f770 723f 6ba6 7e3f 172a 483f
00000320: d488 7d3f ab7f 603f 1a35 673f 0960 6c3f
00000330: be51 693f 8ba0 713f 9bec 5f3f a03b 7e3f
00000340: d063 783f 0e5d 5f3f 3127 7e3f 1c8b 5f3f
00000350: e388 803f 3f48 5f3f b812 6f3f abc2 6c3f
00000360: cebf 7a3f 6fc8 673f 45a0 5f3f 41ab 793f
00000370: 78d6 723f 0923 803f 4aa3 4b3f 6e94 7e3f
00000380: e249 533f 1d41 5e3f 6df0 6f3f ead6 4a3f
00000390: 472e 733f ff17 7f3f 9136 7f3f 3032 6f3f
000003a0: 56c0 7c3f f5b3 833f 8d9f 673f 4ba9 423f
000003b0: 4404 823f 1314 5e3f 6e63 7d3f c5bb 643f
000003c0: 1c51 473f 0cb7 793f c647 5b3f 1644 4f3f
000003d0: ff87 633f 9c48 6a3f 6b24 6b3f 89e0 773f
000003e0: 7019 793f 0422 7e3f e5d5 663f 67b3 793f
000003f0: d0a6 6e3f ab11 7c3f 102a 7e3f a12b 4f3f
0.7844871 0.8222486 0.9130252 0.99012303 0.8956551 0.9743741 0.6998314 0.97743326
0.99211 0.6785032 0.941266 0.9161646 0.91902125 0.90690935 0.8968022 0.8927385
0.9399324 0.6203758 0.9448595 0.9655909 1.0062245 0.9585598 0.9107841 0.86021894
0.9594187 0.9968382 0.9705219 0.93017894 0.94244516 0.8687423 0.9513407 0.9946792
0.9504228 0.97221845 0.9615256 0.9189603 0.99061 0.9817045 0.88264745 0.9536455
0.79995507 0.95527333 0.98947275 1.0002513 0.94193006 0.8088572 0.9901121 0.9518435
0.7892594 0.8319533 0.88914794 0.96812934 0.780412 0.9993326 0.9703113 0.9214463
1.0055758 0.9548001 0.8751708 0.9291663 0.96347034 0.77717614 0.97782403 0.97578585
0.878146 0.9225705 0.9255106 0.9653715 0.77075666 0.8217385 0.8560621 0.94930613
0.87038285 0.9376519 0.91734827 0.97629905 0.9893681 0.7234047 0.9639588 0.73782384
0.98017377 0.911273 0.894411 0.8832948 0.9587048 0.68910265 0.97583306 0.996452
0.96895206 0.77036726 0.9503871 0.774769 0.98669535 0.9492834 0.9353022 0.9021853
0.96292746 0.960351 0.953705 1.0209911 0.82953423 0.97053784 0.78871405 0.98725086
0.92671156 0.94624025 0.9212726 0.91995615 0.94010943 0.9625027 0.9799498 0.8893385
0.9735831 0.9716738 0.9914558 0.82826847 0.99411815 0.9969528 0.90693057 0.98784846
0.96307075 0.9491582 0.9250823 0.93660223 0.8902671 0.8832366 0.80889577 0.7864937
0.9769018 0.673618 0.9486754 0.976614 0.97435594 0.99577546 0.9428422 0.93952197
0.9693291 0.84893024 0.9580555 0.86588585 1.0121071 0.98814756 0.9795711 0.91714275
0.8219364 0.9465156 0.79652554 0.85633934 0.9728617 0.95182365 0.68071127 0.7515294
0.9225825 0.64815986 0.93479055 0.9132322 0.9407831 0.99471384 0.7345698 0.9317726
1.0077288 0.77038574 0.9983736 0.92090154 0.7449997 0.94980943 1.0138102 0.9853733
0.77004373 0.9583594 0.89709246 1.0125659 0.9738139 0.96025985 0.663406 0.99709934
1.0236361 0.9649544 0.79925185 0.93119943 0.97397333 0.94142324 0.8038475 0.90248364
0.8736808 0.79423267 0.9705059 1.0269889 0.9386394 0.99443495 0.8033007 0.9715282
0.97959673 0.98225415 0.97516626 0.8811445 0.9376574 0.9470362 0.99472684 0.78189224
0.9903691 0.87694806 0.903154 0.9233404 0.91140354 0.94385594 0.87470406 0.9930973
0.970273 0.87251365 0.9927855 0.8732164 1.0041775 0.87219614 0.9338794 0.9248454
0.9794892 0.9054021 0.87353927 0.9752694 0.94858503 1.0010692 0.79546034 0.99445236
0.8253461 0.86818105 0.93726236 0.7923418 0.9499249 0.9964599 0.99692637 0.93435955
0.9873098 1.0289294 0.9047783 0.7603957 1.0157552 0.8674938 0.9897984 0.89349014
0.7785814 0.9754493 0.8565639 0.80963266 0.8887939 0.91517043 0.91852444 0.9682699
0.9730444 0.99270654 0.9017013 0.9753937 0.93223286 0.9846446 0.9928293 0.8092595

shared.4.bias f4 [256]
00000000: 035f 21bd 2ee8 2bbd 7573 afbc 1181 07bc
00000010: 6b74 b5bc abf5 c7bb 58ce 45bd 409b 3fba
00000020: 0d56 18bc ff6d 8fbd 443f b0b9 53e5 7ebc
00000030: b3af 1cbd 5369 83bc 7609 6fbc 8429 6bbc
00000040: 29dc 2abb 0ca8 86bd 67db 52bb d22b 19bc
00000050: fe5e 89bb 76d8 22bb e19a 75bc e6a5 87bc
00000060: abd7 fabb 6e45 93ba 2216 50bc 0c38 4bbc
00000070: 06a9 d3bb 5782 12bd 3f7f 73bc 255f babb
00000080: 4cc0 e6bb a7b5 60bc 8181 23ba 464e 86bc
00000090: c989 37bc d53e 42bc 8c19 a9bc fc4c bfbb
000000a0: 8714 1ebd f05a 39bc f966 2bbc 4403 28ba
000000b0: 36df 15bc a964 0bbd 40d6 a339 f30c 0cbc
000000c0: 71b9 44bd adbd c1bc 3382 01bd 07bc 7dbc
000000d0: 2d63 4bbd 2af4 2ebb be3f ab3a 876f 8ebc
000000e0: 16cd bdba 2fbd 5abc 05fb a2bc cf1f 80bc
000000f0: 6062 75bb bd0e 18bd bdd9 0f3b d7c4 06bb
00000100: edcf d2bc 7567 57bc 20fc 79bc 5477 2abc
00000110: d83a 42bd 5094 bfbc a54d e9bc 3adb 5abc
00000120: 3062 a8bc bd4e 26bc 8a8a 93bc 3af9 c7bb
00000130: 300d 5ebb a04c 59bd 289f 5ebb 82ee 32bd
00000140: add0 15bc 9dba 24bc 3495 d4bc 201f 80bc
00000150: fdd6 52bc 7d65 69bd 1d7d e6bb 00b2 0bbc
00000160: 348d debb d460 3fbd a2a6 adba 5853 28bd
00000170: 384b e9bb b79a 2ebc 3db8 dfbb a620 74bc
00000180: 6359 35bb 55ba 2abc 31dc 1ebc 3c80 22ba
00000190: 559a 08bd 9a54 1ebb e5e2 47bd 0499 d4ba
000001a0: 9fd7 56bc a3d7 d3bb 260a 81bc 1433 8fbc
000001b0: 1ed6 16bc 5b89 eebb 44a6 bcbb 6d22 01bd
000001c0: 4a71 45bc e91e b2ba a565 c5bb 258b debc
000001d0: 0b06 00bc f3bd bd3b 0a53 5ebc e8e7 adbb
000001e0: 3a6a 4bbb 961c 14bc ddb4 81bc d04d 2e38
000001f0: 4f44 c2bc 4c1d dfbc 2397 06bd fb7f 3dbd
00000200: ed33 4cbc e6bc 8bbd e0c0 51bc 720a 08bc
00000210: fd4e c3bb a02f bebb 5a0f b0bc f3cf debb
00000220: 77af 37bc 685e 24bd 379e 28bc 524a d9bc
00000230: c196 05bc a0f7 7cbb 2ae5 96bb 6068 a7bc
00000240: 0ec7 90bc 024a 49bc c0f2 f6bc 25eb e3bc
00000250: 8e8c cbbb 412c 8fbb af88 69bd 887b 21bd
00000260: 8904 69bc 816f 8cbd 8b55 f6bb a5b6 eabc
00000270: 931d 4abc bc8b 0cbc 6f81 45bd 37e4 20bc
00000280: 7687 91bb 7b8a 1cbd e181 2a3b 55cb aebb
00000290: 4cad 16bd 763e 2bbc 9039 70bc 3eed a1bb
000002a0: 5c58 4fbd 8e30 19bc c51b 81bc 7f0e 65bc
000002b0: f1ae 00bc 4dc0 f2bb 1e39 67bd 7404 f4bb
000002c0: 1df6 febb d7c3 dabb 475d 06bd 7361 91bc
000002d0: 1ac6 b2bb fca7 8ebc 379d 1fbd 6952 c2bc
000002e0: 8d18 cabc 741e 27bd a9fd 82bb 0120 69bb
000002f0: 9071 91bc 51c1 15bc da1e 1ebd 4a3a c4bb
00000300: 3d73 ddbb f410 d7bb 99a9 22bb e994 e4bc
00000310: 9f2e 42bc 9d60 97bc d817 00bc d1fc 09bd
00000320: 3893 93bb c13d e2bc 196d 9ebc c874 1dbc
00000330: 625b aebc b1ac 15bc 8ea2 d6bc 3d45 09bc
00000340: b530 a3bb 3fef d3bc 9317 9abb c720 a5bc
00000350: 93ac 6e3b f638 17bd 4518 82bc f691 12bc
00000360: 3e91 bebb 6b1f a1bc 01b5 84bc 2797 58bb
00000370: e4ad 48bc eda4 0fbc 7deb e7bc 7450 56ba
00000380: 10aa d2bc 769f 1ebd f590 2bbc bc16 36bd
00000390: fa01 32bc b507 70bb 091b 38bb 047c 18bc
000003a0: a345 07bc 013a eb3a 359f 9dbc c32a 2cbd
000003b0: a800 2d3b 9157 a3bc 7ad8 20bc 7c07 c6bc
000003c0: 7aeb 0dbd 32c9 8fbc 4d9a 0bbd ac4f dfbc
000003d0: 0c6c b9bc 2b19 93bc b1fb 92bc d2ee f9bb
000003e0: 5693 9abb d9c6 d23a cd5e d1bc c419 41bb
000003f0: 85f2 4fbc 732b 19bb 991e adbb 889b d1bc
-0.03939725 -0.04196947 -0.021417359 -0.008270518 -0.022150239 -0.006102284 -0.048292488 -0.0007309206
-0.00929786 -0.07003402 -0.00033616473 -0.015557605 -0.038253497 -0.016041433 -0.014589658 -0.01435316
-0.0026071167 -0.06575021 -0.003217423 -0.0093488265 -0.004192232 -0.002484826 -0.014990539 -0.016558599
-0.007655104 -0.0011235902 -0.012700589 -0.012403499 -0.006459358 -0.035768833 -0.014861881 -0.0056876116
-0.0070419665 -0.013715184 -0.0006237254 -0.016394746 -0.011202284 -0.011855801 -0.020642065 -0.0058380347
-0.038593795 -0.011313185 -0.010461562 -0.0006409178 -0.009147456 -0.034031544 0.0003124941 -0.008548009
-0.048028413 -0.023650015 -0.03161831 -0.015486724 -0.04965513 -0.0026695826 0.0013065261 -0.017387165
-0.0014480676 -0.013350769 -0.019895086 -0.015640168 -0.003744267 -0.03712343 0.002194985 -0.0020564103
-0.025733912 -0.013147225 -0.015257865 -0.010404427 -0.0474194 -0.02338615 -0.028479407 -0.013357932
-0.020554632 -0.010150609 -0.018010397 -0.006102708 -0.0033882372 -0.05305159 -0.0033969376 -0.04368449
-0.00914399 -0.010054258 -0.025950052 -0.015639842 -0.01286864 -0.056981552 -0.0070339576 -0.008526325
-0.006791735 -0.046723202 -0.0013248513 -0.041095108 -0.0071195625 -0.010657004 -0.006827383 -0.014900362
-0.0027671687 -0.010420402 -0.009696052 -0.0006198918 -0.033350307 -0.0024159313 -0.048800368 -0.0016219919
-0.0131129315 -0.006464915 -0.01575191 -0.01748041 -0.009206323 -0.0072795576 -0.005757125 -0.03152697
-0.012050936 -0.0013589534 -0.00602408 -0.027165959 -0.007813941 0.005790466 -0.013569603 -0.0053071864
-0.0031038658 -0.009040019 -0.015833313 4.15573e-05 -0.023714213 -0.02723565 -0.03285898 -0.04626463
-0.012463552 -0.06823139 -0.012802333 -0.008303272 -0.005960344 -0.005804017 -0.021491695 -0.006799692
-0.011211268 -0.040129095 -0.010291628 -0.026524696 -0.008153618 -0.0038599744 -0.004604955 -0.020435512
-0.017673042 -0.012285711 -0.03014505 -0.027822087 -0.006211824 -0.004369289 -0.057015117 -0.03942445
-0.014222273 -0.06857205 -0.0075175217 -0.028651545 -0.012336153 -0.008578237 -0.04821914 -0.009820036
-0.004441197 -0.038218003 0.0026017355 -0.0053342977 -0.036786363 -0.010451904 -0.0146621615 -0.0049416116
-0.050621375 -0.009349955 -0.015760312 -0.013980507 -0.007854209 -0.007408178 -0.056450956 -0.00744682
-0.007780804 -0.006676178 -0.0328038 -0.017746663 -0.0054557445 -0.017414086 -0.03896829 -0.023720937
-0.02466991 -0.040800527 -0.003997524 -0.0035572054 -0.017754346 -0.0091403285 -0.03860364 -0.005988394
-0.0067581222 -0.0065633003 -0.0024820326 -0.027903037 -0.011851936 -0.018478686 -0.007818185 -0.03368837
-0.004503634 -0.027617337 -0.019339131 -0.009610362 -0.02128381 -0.009135411 -0.026200559 -0.008378324
-0.0049801716 -0.025870917 -0.0047025173 -0.020157231 0.003641878 -0.036919557 -0.015880713 -0.008945933
-0.005815654 -0.019668302 -0.01619959 -0.0033049078 -0.01224849 -0.008767349 -0.028310532 -0.00081754406
-0.025715858 -0.038726293 -0.010471572 -0.044455275 -0.010864729 -0.0036625687 -0.0028092286 -0.009306911
-0.008256349 0.0017946364 -0.019240955 -0.04203297 0.0026398096 -0.019939216 -0.009817237 -0.02417349
-0.034648396 -0.017551992 -0.0340827 -0.02725967 -0.022634529 -0.017956337 -0.017942281 -0.0076273466
-0.004717271 0.001608099 -0.0255579 -0.002946482 -0.0126920985 -0.0023371845 -0.0052831885 -0.025586858
