checkpoints/improved_pretrain_pretrain/checkpoint_ep6999.pt (torch, 809557 bytes, 25 tensors)

shared.0.weight f4 [512, 23]
000000 98 8c c7 bd 2d 6d 04 3c 10 45 56 be bc 75 0e 3e
       -0.09743613 0.00808267 -0.20924783 0.139121
000010 46 86 94 bd 57 2f 58 ac 30 63 56 bd 02 93 8c 3d
       -0.07252173 -3.0721725e-12 -0.052340686 0.06863977
000020 e5 e2 66 3e be cc 41 3e 7d 70 8e 3d ff 08 e7 bd
       0.22547491 0.18925759 0.06955049 -0.11281013
000030 30 db 7c bd b7 50 18 3e 74 5f 12 3e df 77 ad bd
       -0.06173247 0.1487454 0.14294225 -0.08470129
000040 57 8f 82 bd 5d b2 9c 3c 66 51 03 3e 09 c3 e8 b8
       -0.06374996 0.019128019 0.1282402 -0.0001109895
000050 84 2a 8f 3c d7 97 a6 35 50 f3 0b 22 d6 c8 f8 bd
       0.017476328 1.2412155e-06 1.8966821e-18 -0.121476814
000060 c4 b4 2c be 47 1c 09 3d 09 16 dd 3d 8b a1 bf 3d
       -0.16865832 0.033474233 0.107952185 0.09356984
000070 9a 8e 93 a2 a6 49 10 bc 97 35 a0 3e 4b 5e 67 3b
       -3.9995415e-18 -0.008806622 0.31290886 0.0035304006
000080 0b 23 47 be 21 29 b1 bd 26 28 3b 3b 85 5c 6a 3d
       -0.19446962 -0.08650423 0.0028557866 0.05721714
000090 0d f6 ac 3d 39 60 03 3e 3c e1 d3 3c b8 c5 a7 bd
       0.08445368 0.12829675 0.025864236 -0.08192009
0000a0 f9 4c ae bc b4 2f ef 3d 00 f5 d1 b9 89 ac 9d bc
       -0.021276938 0.116790205 -0.00040046126 -0.01924731
0000b0 47 09 0b 35 c1 b7 ad 2e 1b bb 00 3e bf 0d e7 bb
       5.1795035e-07 7.8997704e-11 0.12571375 -0.007051199
0000c0 a7 84 ed bc fc 73 e9 bd 52 6b 98 3d 84 fd b7 21
       -0.028993918 -0.113990754 0.07442345 1.2467667e-18
0000d0 39 5b 2d 3d e4 21 21 3d f8 e1 5e 3e c6 cd 82 3e
       0.042323325 0.03933896 0.21765888 0.25547618
0000e0 1c b4 1e 3e 6a 6c 26 3e 57 54 a7 3d 10 43 45 bd
       0.15498394 0.16252294 0.081703834 -0.04815966
0000f0 f1 75 f5 3c 60 2f a6 3d fe 58 21 bd 5e 2e 56 3d
       0.029963465 0.08114505 -0.03939151 0.052290313
000100 9b 84 12 be 48 e1 f0 3a 8b 85 71 3b 67 3d 4b a8
       -0.14308397 0.0018377686 0.003685328 -1.1282078e-14
000110 1b 42 88 ad c0 89 1f bd ff 7c f4 3d 44 2b 2e 3d
       -1.5490767e-11 -0.038949728 0.119379036 0.04252173
000120 7b 4b ee 3c b1 ad 03 be b4 38 d6 2d cb bd c9 bb
       0.029088726 -0.12859227 2.4354165e-11 -0.0061566583
000130 c6 da 78 3b d5 45 3f bd 66 2c d2 3c bc 7f 1a be
       0.0037972196 -0.046697456 0.025655936 -0.1508779
000140 a8 94 c0 bd 1f 80 01 be 6e 29 27 bc d8 76 c5 3d
       -0.09403354 -0.1264653 -0.010202749 0.09641808
000150 4a d9 e9 bd 3a 98 e8 bc 9d 67 b9 3d d7 94 1e 3e
       -0.11418398 -0.0283929 0.09052966 0.15486465
000160 0f fe 5d 39 46 39 16 bc 5b 75 4d a8 7a b5 87 b4
       0.00021170847 -0.0091689285 -1.1405233e-14 -2.527775e-07
000170 43 aa 23 be 64 48 f0 bd f4 fa 3e be 97 e2 8f bd
       -0.15982918 -0.117325574 -0.18650419 -0.070256405
000180 a9 3a e0 3c a8 82 d4 33 f0 cc f8 bc 30 17 92 3b
       0.027371721 9.8957855e-08 -0.03037116 0.0044583306
000190 d4 31 2a be 10 09 ff bd fd 16 aa bd 8e 3c 40 3d
       -0.1662057 -0.124529004 -0.08305166 0.04693275
0001a0 90 92 ad 3d 6a e3 d1 3d 9c a4 a8 bd 9e fc 61 bd
       0.0847522 0.10248454 -0.08234522 -0.055172555
0001b0 e4 23 26 3e 00 1b ac bd f2 8b 4d 3d ee 0e 11 b7
       0.16224629 -0.08403587 0.05018229 -8.64615e-06
0001c0 44 ff 06 bc 46 f1 3a 35 4d b8 0c 37 be b3 99 3d
       -0.008239571 6.96415e-07 8.387561e-06 0.07504986
0001d0 6d 77 13 3e 04 a5 43 3d bc 65 af 39 bb 8a b7 bd
       0.14401026 0.047764793 0.000334544 -0.089620076
0001e0 ac 12 82 b7 c1 6e d1 3d 8f 15 b0 3c 0a 05 34 3e
       -1.5505902e-05 0.10226203 0.021494655 0.17580047
0001f0 be 8d 24 3d e3 9b 64 bd 02 16 b0 bd d0 5c 7b bd
       0.04017424 -0.055812728 -0.08597948 -0.06136781
000200 ff 4c fb 3d af 17 39 3d 65 1d 2a 3e 54 d1 b2 bd
       0.12270545 0.045188602 0.16612776 -0.087313324
000210 6b 60 1f bd 33 c7 fe bd 99 5f 97 38 e0 5f 8f 3c
       -0.03891031 -0.12440338 7.2180475e-05 0.017501771
000220 c2 2a 44 a9 ef cb a2 b1 fb 41 fb 3d 0c 11 35 3e
       -4.355783e-14 -4.738005e-09 0.12268444 0.17682284
000230 21 a8 0e 3d b6 86 8c 3d 0d 64 a4 bc 0f 66 03 a2
       0.03482831 0.068616316 -0.02006724 -1.780784e-18
000240 38 18 5e be ee b3 6b bd 0e 89 de 3d 03 6d 55 be
       -0.21688926 -0.05754464 0.10865985 -0.20842366
000250 66 b9 01 be b6 11 28 be 26 ec 74 bc 29 00 3d be
       -0.1266838 -0.16413006 -0.01494888 -0.18457092
000260 84 26 7e 3d 89 d2 92 3d 35 45 55 bd b2 de b4 3d
       0.06204845 0.07169063 -0.052067954 0.08831538
000270 81 d4 1c 3e 3a ee 20 35 c0 78 cf 3c 45 3c 46 25
       0.15315439 5.995131e-07 0.025326133 1.7194183e-16
000280 2e af 22 a9 2f c5 68 3e bc 16 43 3e 4b ff 73 3d
       -3.612317e-14 0.2273147 0.19051641 0.05956964
000290 9a f2 39 3d d7 19 4a bd dc f8 5c 31 4f 09 1a 3c
       0.04539738 -0.04934105 3.2155674e-09 0.009401633
0002a0 d5 dc 8f 3b 93 55 f3 bd c6 bf 2a be 33 cc 26 be
       0.004390339 -0.11881556 -0.16674718 -0.16288833
0002b0 40 75 d1 3d 5e d9 64 bd 82 91 85 bd 42 49 19 bd
       0.10227442 -0.05587136 -0.06521894 -0.03742338
0002c0 b3 a3 2f 3e 37 23 7b bb cd c1 be bc d4 a2 4f be
       0.1715229 -0.003832055 -0.02328577 -0.20276958
0002d0 5b cf 89 38 13 4e 26 bb 7e 5a b2 24 ac d6 93 a8
       6.571292e-05 -0.0025376126 7.7348494e-17 -1.6413378e-14
0002e0 9f 4e 2c 3e 86 c4 ef 3d d0 3c 01 be ce d1 2a be
       0.16826867 0.11707406 -0.12620854 -0.16681597
0002f0 08 4c b0 3c 0c 5f c5 27 d3 1a b8 3d 41 ff 6d bd
       0.02152063 5.4781534e-15 0.08989491 -0.058104757
000300 04 5a 1b 3e aa 43 8b be 2c 12 71 3e ea 9d 82 3d
       0.15171057 -0.2720006 0.23542088 0.06377776
000310 ff 99 a6 bd cf cf b8 3d 4e 6f 2f 3e 59 c9 f1 3a
       -0.08134841 0.09024011 0.17132303 0.0018446847
000320 e3 f0 64 3b f6 09 c2 3d 18 35 03 3e 9a f2 48 3a
       0.0034933619 0.09474556 0.12813222 0.0007665545
000330 f4 e9 c3 3c d7 e8 2b b2 ec cd 61 a2 e8 e4 9f bd
       0.023915268 -1.0006452e-08 -3.06022e-18 -0.07807332
000340 39 fb d8 3c c0 07 e2 bd f9 a5 e9 3c c6 d4 d4 bd
       0.02648698 -0.110366344 0.028521525 -0.10392146
000350 0e 20 d3 b7 03 a6 83 bd fa a2 60 3b 76 b9 99 3d
       -2.5168087e-05 -0.064281486 0.003427683 0.07506077
000360 38 c8 3c be 9d 14 8a 3c f1 e6 94 3d ac 90 96 3d
       -0.18435752 0.016855532 0.07270611 0.07351813
000370 1e 23 1e 3e cb 76 44 bc fe d3 01 be dd 63 e5 3d
       0.15443084 -0.011991213 -0.12678525 0.11200688
000380 b5 e7 81 3c 42 46 d2 3d 0d ed 8c ba ff 7b 90 bc
       0.015857557 0.10267307 -0.0010751799 -0.017637251
000390 36 54 a8 a4 af ca 8d 21 a4 ba 0d 3e 5c 25 c5 3c
       -7.3001045e-17 9.608182e-19 0.13840729 0.024065666
0003a0 d6 57 01 3e 0f b0 15 3e 85 b1 2c 3c ac 2c 38 23
       0.12631163 0.14617942 0.010540371 9.98412e-18
0003b0 cc e0 b1 3d ee cc 57 3e 0e 5a 54 3e 60 a3 fa bd
       0.08685455 0.21074268 0.20737478 -0.122381926
0003c0 2d cb d2 3c 83 f7 5a be fd 18 2a 3e 0f e7 48 be
       0.025731647 -0.2138348 0.16611095 -0.19619392
0003d0 5c ce 83 3d eb 98 6f bd 92 c7 43 bd 04 ff 16 3e
       0.06435844 -0.058495443 -0.047797747 0.14745718
0003e0 54 89 ce 3d 8b bd a6 b7 4c 82 6e 3d c4 f2 05 38
       0.10084787 -1.9877005e-05 0.05822973 3.1935764e-05
0003f0 57 25 fb a1 f1 22 ba bc ae 9e 1f 3e 51 7b 0f 3e
       -1.7018305e-18 -0.02272174 0.15587875 0.14011885

shared.0.bias f4 [512]
000000 11 a1 3d 3d 8e 4e 9b ba 99 f3 ae bd ee 6c 09 3e
       0.046296183 -0.0011848973 -0.08542556 0.1342046
000010 6f 1d e7 3d c7 b5 04 be d4 34 a9 bd ed d6 31 3d
       0.11284911 -0.12959968 -0.08262029 0.04341786
000020 22 c9 81 bc 1f 71 2b 3e 50 6f 92 bd e5 0e 4e be
       -0.015842978 0.16742371 -0.071501374 -0.2012287
000030 6c 9f 29 be 7b f4 4e 3d c0 0e 2b 3e 41 43 d1 bb
       -0.16564721 0.050526123 0.16704845 -0.006386191
000040 af 88 58 bd 43 f9 e7 3d e5 89 c2 3d 8f c6 12 3c
       -0.052864727 0.1132684 0.094989575 0.008958473
000050 43 17 8b 3d 18 b2 83 bd 85 c7 e4 3c ba da 19 be
       0.06791546 -0.06430453 0.02792717 -0.15024844
000060 b3 32 2d 3d 3c 09 c9 3c 7a 97 0b bd 26 16 27 3d
       0.04228468 0.024540536 -0.034080006 0.040792607
000070 75 a5 55 3c 8c c4 01 3e dd d8 2e 3d 6a 1b 21 be
       0.013039936 0.12672633 0.042687286 -0.15733114
000080 ff ac d6 bd fc 9c d3 bc 0b a4 f7 3d a2 6f 77 bd
       -0.10482215 -0.025831692 0.120918356 -0.060409196
000090 98 41 a4 3d fe ae 3b bd a8 28 f3 bd 94 07 aa bd
       0.080203235 -0.045821182 -0.11872989 -0.08302227
0000a0 3d 9e d2 3d 5a cd 17 be bb 55 39 bd f2 81 0d 3d
       0.10284088 -0.14824429 -0.045247775 0.034547754
0000b0 27 86 27 bc 2a a0 8d bc ab 68 d7 3d a4 11 bd bd
       -0.0102248555 -0.017288286 0.10518011 -0.0923188
0000c0 d1 18 e4 bd 40 c5 0e be 9e 63 d2 3c 75 64 9f bd
       -0.11137546 -0.13942432 0.025682267 -0.077828325
0000d0 63 00 b0 3d 4b 67 c1 3d 18 48 d8 bd 2b 59 91 3c
       0.08593824 0.0944353 -0.10560626 0.017742714
0000e0 ee 8f a6 bd 42 04 1c 3e f2 58 6c 3d 33 59 42 3d
       -0.08132921 0.15235999 0.057702012 0.04744835
0000f0 6f 94 e5 3a 68 fc 0a bd 9c 71 23 3e c4 35 10 3e
       0.001751555 -0.03393212 0.15961307 0.1408301
000100 63 4f a9 3d 21 4e bf 3b 24 9c f0 3d f7 92 ea bd
       0.08267095 0.005838171 0.117485315 -0.114538126
000110 4d 80 48 3e a2 d2 da 3d 08 fc 0c be c0 97 c0 bd
       0.19580193 0.10684706 -0.13768017 -0.09403944
000120 cd 29 05 3e ab 35 08 be 29 4c 31 be 1d 1d 6d bd
       0.13004227 -0.13301723 -0.17314209 -0.057889093
000130 ff 16 c7 bb 8b 30 b9 3c cc 10 aa bd 23 86 b3 bd
       -0.0060757394 0.022606155 -0.08303985 -0.08765819
000140 4d 34 b5 3c 1e 83 9f 3c 62 da 99 bd 38 ab 84 3d
       0.022119666 0.019471701 -0.07512356 0.0647797
000150 bb 54 d5 3c f0 a3 01 bd 1c 81 6f bd 13 b9 16 3e
       0.02604138 -0.031650484 -0.058472738 0.14719038
000160 aa 19 cb bd d4 5d 95 3d bc d4 c7 bd ef 2f c3 3c
       -0.099170044 0.07293287 -0.09757373 0.023826567
000170 01 85 11 3e 39 4c 4c 3d 0b c3 21 3d 44 a6 9b bd
       0.14210893 0.04987738 0.039492648 -0.07600072
000180 83 01 06 3d 1a 1e 06 3e 8c 16 a6 bd 32 40 be bd
       0.032716285 0.1309742 -0.08109769 -0.09289588
000190 5a 09 38 3d cb 08 09 be bb eb 2d 3e d1 00 27 3c
       0.044930793 -0.1338226 0.16984455 0.010193066
0001a0 b5 65 b8 3d 19 1e 63 bd 45 29 ad bd df 39 e7 bd
       0.09003774 -0.055448625 -0.08455137 -0.11290335
0001b0 13 27 11 be a4 78 d5 bd 3c 22 01 be d5 68 b3 3c
       -0.14175062 -0.10423401 -0.12610716 0.021900574
0001c0 76 fb 45 be 24 19 3a 3d 96 db 04 3e b9 1f 04 be
       -0.19334206 0.045434132 0.1297439 -0.12902726
0001d0 ff c1 bc 3d 3c a7 f7 bd b1 23 1b 3d e2 a5 10 be
       0.09216689 -0.12092444 0.037875835 -0.1412578
0001e0 0d 50 9f 3d 27 54 0e be 17 a8 24 bd 40 20 16 3e
       0.0777894 -0.13899289 -0.040199365 0.1466074
0001f0 02 60 18 3e f5 69 c2 3c a3 5e 70 bd 4b 64 a3 3d
       0.14880374 0.023732165 -0.058684003 0.07978114
000200 6b 4d 61 bd c3 39 7c 3d ec 09 1b bd fe b6 bc 3d
       -0.055005472 0.061578523 -0.03785126 0.092145905
000210 be 79 e6 bc c0 53 3f be 78 86 e1 3d 35 6b 2d be
       -0.028134223 -0.18684292 0.11011976 -0.16935427
000220 37 58 d0 bb 9e 13 30 3e 39 e6 af 3c 31 c5 f1 bd
       -0.0063581723 0.17194983 0.021472083 -0.118051894
000230 6f ab d9 3d 81 43 cf bd f5 45 37 bd ed 1d 69 3d
       0.106284015 -0.10120297 -0.04474445 0.056913305
000240 2b b6 ad 3d cf 14 d8 3c 0a 6f 99 3c 3a 54 67 bd
       0.084820114 0.02637711 0.018729705 -0.05647681
000250 ac de dc 3d 53 89 99 bd ec 68 34 bd 88 0d 6a bc
       0.10784659 -0.07496896 -0.044045374 -0.014285453
000260 9e 7b c4 bc d4 6a f3 3d 10 7b 31 be 7e 0e 05 3d
       -0.023984727 0.1188561 -0.17332101 0.032484524
000270 12 a9 29 3d 7f 62 17 3e 51 52 45 3e 88 63 06 bd
       0.041421004 0.14783667 0.19269682 -0.032809764
000280 62 db e0 3d c1 14 d6 bc 37 f5 4c bc 65 f3 7d 3d
       0.10979344 -0.026132943 -0.012509636 0.061999697
000290 37 85 3b 3d f8 2a 5a 3d 13 09 fc 3b 2c 28 39 3e
       0.04578134 0.053263634 0.0076915114 0.1808173
0002a0 1d 3b 2c bd ec 7f 38 3c 4c 46 28 bd 58 78 30 3e
       -0.042048562 0.011260968 -0.041082665 0.17233407
0002b0 cc 62 83 bd 7f a5 97 3d 16 02 10 be af c2 95 bd
       -0.064153284 0.07404613 -0.14063296 -0.073125236
0002c0 a0 6b 19 3e 24 8e e6 3d 22 ee c6 bc 4f 2d 96 bd
       0.14982462 0.1125758 -0.024283472 -0.07332861
0002d0 25 f7 66 3d 06 3e d0 3a b8 51 94 3d e3 7e e4 bd
       0.05638804 0.0015887625 0.07242149 -0.11157014
0002e0 ba b3 24 bd 58 9f 83 bc c4 57 95 bc bc 3c af bc
       -0.040210463 -0.016067192 -0.018230326 -0.021391265
0002f0 65 ee 13 be a5 cf 90 bc f4 b5 2d 3c ff 16 85 bd
       -0.14446409 -0.017677138 0.010602463 -0.06498527
000300 05 62 15 be c1 1c 55 bc 06 45 24 3e 68 d3 55 3d
       -0.14588173 -0.013007344 0.16041955 0.052203566
000310 bb 23 61 3c bb d1 ec 3c da 8c b1 3d 15 53 e7 3c
       0.013741429 0.028908601 0.086694434 0.028237859
000320 48 98 8f bd 32 e7 ea ba b9 3b 39 be 97 77 41 bd
       -0.07011467 -0.0017921685 -0.18089189 -0.04723319
000330 32 32 d2 3d 06 e1 9d bd 66 62 d9 3d 3f 9c fb 3d
       0.1026348 -0.077089354 0.10614471 0.12285661
000340 3b 44 ce bd bc 7e 3f 3e 15 d6 0e 3e e5 1b 5f bd
       -0.10071608 0.18700689 0.13948853 -0.05446996
000350 d4 20 d0 3d a9 36 22 3e 8e ca 10 3b 06 5b f5 bd
       0.101625115 0.15841164 0.0022093388 -0.11980252
000360 5a af 17 3e 1d ed 2a bd 2e bb 01 3e 85 12 5e bc
       0.14812985 -0.041730035 0.1266906 -0.01355422
000370 cb e9 01 3c 3b 5a 35 be 36 f9 31 3d 49 67 21 3e
       0.007929276 -0.17710201 0.043450557 0.15762056
000380 05 6a 17 3d 3f 82 42 3a 8f fd 29 3e 82 c5 9c 3d
       0.036966342 0.0007419921 0.16600631 0.07654859
000390 c2 de b0 3d 6d d7 60 bd 8e e7 0f 3e 77 8a cc 3d
       0.08636238 -0.054892946 0.14053175 0.099873476
0003a0 1b 0d 37 3c 19 3a 1f bd 23 3b 13 3d e3 16 25 3d
       0.011172558 -0.038873766 0.03594507 0.04030503
0003b0 c9 e8 9e bd cc dd ce 3d 02 12 41 be d8 59 1f 3d
       -0.07759244 0.10100898 -0.18854526 0.03890404
0003c0 4d 65 a7 3d 23 b5 4c 3d 6f 36 ad 3d ae 83 47 3d
       0.081736185 0.049977433 0.08457648 0.048709564
0003d0 c3 ee 69 3d 16 f1 e5 3d 42 2b 82 3d c3 2e ec 3c
       0.057112467 0.11227624 0.06355907 0.028830891
0003e0 96 3b c0 bd 3f 2e 7a bd af 41 16 bc c8 e2 25 3e
       -0.09386365 -0.06107926 -0.009170934 0.16199791
0003f0 d6 b1 02 3e 37 37 a7 3d 13 d9 45 3d e4 01 25 3e
       0.12763152 0.08164828 0.04830272 0.16114002

shared.1.weight f4 [512]
000000 ea e1 6a 3f a5 2c 5f 3f e3 32 6d 3f fb 2a 47 3f
       0.9175097 0.871775 0.9265577 0.7779996
000010 d3 3b 61 3f 98 e7 57 3f 49 86 77 3f 01 04 6a 3f
       0.8798191 0.8433776 0.9668928 0.9141236
000020 05 85 71 3f 08 15 6a 3f 76 bb 6e 3f 34 4f 6f 3f
       0.94343597 0.9143834 0.9325479 0.9348023
000030 9f 82 75 3f ee d4 60 3f 3d 85 71 3f 81 32 50 3f
       0.95902437 0.87824905 0.9434393 0.8132706
000040 fc 42 78 3f 94 53 64 3f d3 e3 67 3f 02 dd 62 3f
       0.9697721 0.8919003 0.9058201 0.8861848
000050 41 4c 4b 3f c0 c1 66 3f b8 7f 37 3f ba 24 64 3f
       0.7941323 0.9013939 0.7167926 0.8911854
000060 9d 39 4c 3f 2b da 3f 3f 28 4d 6d 3f 50 d1 69 3f
       0.7977541 0.7494227 0.92695856 0.9133501
000070 f4 39 62 3f 38 28 32 3f 9d 15 6a 3f 5c 5a 6d 3f
       0.8836968 0.6959262 0.9143923 0.92716
000080 a6 e1 6e 3f 1b c1 60 3f 7b 53 48 3f 63 2b 68 3f
       0.9331306 0.87794656 0.7825238 0.906912
000090 97 36 6e 3f fe de 70 3f 10 34 50 3f fb c7 75 3f
       0.9305205 0.9409026 0.8132944 0.9600827
0000a0 65 e6 6e 3f 72 17 6d 3f 91 48 6d 3f e3 8b 7c 3f
       0.93320304 0.926139 0.9268885 0.9865095
0000b0 b1 6f 5c 3f 54 3d 6f 3f 6b 25 65 3f aa da 51 3f
       0.8610793 0.93452954 0.8951022 0.8197428
0000c0 44 59 6f 3f 5a 95 6d 3f 9b 57 48 3f b4 9a 6c 3f
       0.93495584 0.9280602 0.78258675 0.9242356
0000d0 bd b6 74 3f c4 37 6d 3f f6 1b 7c 3f aa d8 78 3f
       0.95591336 0.92663217 0.98480165 0.97205603
0000e0 4e 97 72 3f f7 c8 7c 3f 07 57 77 3f 42 c6 61 3f
       0.9476212 0.9874415 0.9661717 0.8819314
0000f0 db 44 6c 3f 7e 3b 6d 3f a3 32 74 3f e9 cb 3f 3f
       0.92292565 0.926689 0.95389766 0.7492052
000100 22 22 6b 3f af 3c 67 3f 90 88 6d 3f da a1 80 3f
       0.9184896 0.9032697 0.927865 1.0049393
000110 9e 16 65 3f 32 c3 63 3f 81 c4 76 3f f3 61 70 3f
       0.89487636 0.8896972 0.9639359 0.9389946
000120 55 cd 6b 3f d4 08 65 3f 1e 1e 77 3f e2 d9 4c 3f
       0.92110187 0.89466596 0.9653033 0.8001996
000130 0b de 70 3f 69 05 73 3f fe 0b 65 3f 3f e6 4e 3f
       0.9408881 0.9493013 0.89471424 0.8082008
000140 9a 66 6e 3f 4f 7a 5b 3f 3c dd 6a 3f 0c b4 6a 3f
       0.9312531 0.85733503 0.91743827 0.9168098
000150 d0 9e 64 3f 47 a1 52 3f c4 fc 45 3f ab 71 67 3f
       0.8930483 0.8227734 0.77338815 0.9040782
000160 70 45 6b 3f cc 2e 67 3f 4a 3f 70 3f 15 b0 70 3f
       0.9190283 0.9030578 0.9384657 0.9401868
000170 6e a9 62 3f 15 d8 74 3f 79 75 41 3f de eb 6f 3f
       0.8853978 0.95642215 0.75569874 0.9371928
000180 fe 68 5e 3f a4 c9 6f 3f 5e c7 6c 3f e6 60 63 3f
       0.86878955 0.93667054 0.9249171 0.8881973
000190 01 cf 66 3f e2 e4 64 3f 1b c5 69 3f 21 be 58 3f
       0.9015961 0.8941175 0.91316384 0.84665114
0001a0 fc 83 6f 3f 72 f1 63 3f 76 36 44 3f 50 04 5e 3f
       0.9356077 0.8904029 0.766456 0.8672533
0001b0 03 65 73 3f 65 09 72 3f 33 75 4f 3f d9 6f 44 3f
       0.95076007 0.94545585 0.81038207 0.76733166
0001c0 18 22 75 3f 75 02 65 3f 8e 4e 19 3f 3a 2b 6b 3f
       0.9575515 0.89456874 0.5988549 0.91862833
0001d0 0a 36 7c 3f e2 46 72 3f 18 f5 39 3f af 80 62 3f
       0.9851996 0.9463941 0.7263961 0.88477606
0001e0 2b 3f 7d 3f 61 b5 70 3f a6 a4 68 3f c6 de 79 3f
       0.9892451 0.9402676 0.90876234 0.9760555
0001f0 1e 3b 52 3f 39 8b 67 3f ed be 5e 3f 5a 80 79 3f
       0.82121456 0.9044681 0.8701008 0.97461474
000200 d9 d6 6b 3f 2e d8 62 3f f5 66 67 3f 07 f1 73 3f
       0.92124707 0.88611114 0.90391475 0.95289654
000210 d5 9a 68 3f 0d 10 73 3f 33 02 67 3f 58 c9 6d 3f
       0.90861255 0.94946367 0.9023773 0.9288535
000220 50 7b 82 3f 97 b8 6b 3f be dd 65 3f ed f1 3f 3f
       1.0193882 0.92078537 0.89791477 0.74978524
000230 56 d6 75 3f de 69 62 3f 32 ab 3c 3f 15 25 6a 3f
       0.96030176 0.8844279 0.73698723 0.9146283
000240 41 86 2c 3f a0 0f 77 3f 57 81 0f 3f fb d3 57 3f
       0.67392355 0.96508217 0.5605673 0.8430783
000250 ec ae 70 3f d0 f6 60 3f f6 42 5c 3f 7c 2f 77 3f
       0.9401691 0.87876606 0.86039674 0.9655683
000260 79 4d 65 3f e0 92 6d 3f 14 4a 77 3f 9b 69 69 3f
       0.8957134 0.9280224 0.9659741 0.91176766
000270 9a b5 68 3f b7 79 71 3f 7a 19 68 3f 64 ed 74 3f
       0.909021 0.9432635 0.90663874 0.9567473
000280 e3 e1 5c 3f 46 25 2d 3f 24 ea 5f 3f 29 5c 44 3f
       0.86282176 0.67635 0.87466645 0.76703125
000290 4f 6a 68 3f 20 57 11 3f a5 00 43 3f cf 7d 61 3f
       0.90787214 0.5677357 0.7617286 0.88082594
0002a0 33 c8 77 3f 1d 2b 62 3f fa ab 66 3f 81 91 72 3f
       0.96789855 0.88347036 0.90106165 0.9475327
0002b0 5a 3b 60 3f b8 51 52 3f 2c e3 60 3f 40 21 6e 3f
       0.87590563 0.8215594 0.87846637 0.93019485
0002c0 51 88 73 3f cf 20 6f 3f f7 a8 74 3f fd 8e 78 3f
       0.9512988 0.93409437 0.9557032 0.9709318
0002d0 fb ba 4f 3f ea 8f 7d 3f d5 c9 69 3f c0 bf 69 3f
       0.81144685 0.9904772 0.91323596 0.9130821
0002e0 47 70 68 3f 37 87 5a 3f 09 45 60 3f d1 e7 41 3f
       0.9079632 0.8536257 0.8760534 0.7574435
0002f0 e5 b2 74 3f a2 5a 49 3f 49 ca 65 3f b6 e4 4f 3f
       0.9558547 0.7865392 0.8976179 0.8120836
000300 1e 52 65 3f a5 eb 56 3f 79 77 63 3f ac 2e 37 3f
       0.89578426 0.83953315 0.88854176 0.7155559
000310 fa b6 58 3f cc 2a 5e 3f ed f5 5a 3f 7f 2b 22 3f
       0.846542 0.8678405 0.855315 0.6334762
000320 f9 eb 3f 3f 04 da 32 3f b8 e5 6e 3f 62 51 66 3f
       0.7496944 0.69863915 0.93319273 0.8996793
000330 65 e8 73 3f 5e 21 71 3f d9 b0 6b 3f a0 5d 61 3f
       0.9527648 0.9419154 0.92066723 0.88033485
000340 c8 d4 68 3f d5 55 78 3f b6 55 66 3f 0b 3a 45 3f
       0.9094968 0.9700597 0.89974535 0.7704169
000350 f3 ca 6c 3f 5e 0c 63 3f 2c a0 4c 3f 0e 13 77 3f
       0.92497176 0.88690746 0.799319 0.9651345
000360 eb 17 7b 3f ef 37 54 3f 1a 44 54 3f e5 48 72 3f
       0.9808337 0.8289785 0.82916415 0.9464248
000370 9a a0 57 3f 2c 90 78 3f ea 88 6b 3f 1f 92 65 3f
       0.84229434 0.9709499 0.9200579 0.8967609
000380 f6 d4 5c 3f fa 3d 1e 3f 58 b3 70 3f 0c 9c 6d 3f
       0.8626245 0.6181332 0.94023657 0.92816234
000390 61 48 6a 3f ba a6 56 3f d3 67 77 3f 5e f0 63 3f
       0.9151669 0.83848155 0.966428 0.89038646
0003a0 1f 6d 26 3f 92 17 2c 3f 68 4f 5e 3f 85 2e 6a 3f
       0.65010256 0.67223465 0.86839914 0.91477233
0003b0 7f 63 6b 3f dc 15 74 3f 41 01 64 3f 71 df 6b 3f
       0.91948694 0.95345855 0.89064413 0.9213782
0003c0 4c 2a 3a 3f 2f e9 4f 3f 88 ac 6b 3f 27 19 52 3f
       0.7272079 0.81215185 0.92060137 0.8206963
0003d0 38 ee 77 3f ab b4 6a 3f df 1a 59 3f 3c 7e 7c 3f
       0.9684787 0.9168193 0.8480663 0.9863012
0003e0 14 45 65 3f 97 6a 74 3f b3 73 6a 3f 1f d1 69 3f
       0.8955853 0.95475143 0.91582793 0.9133472
0003f0 3b 61 39 3f 6f 34 2e 3f af d1 73 3f 45 5b 80 3f
       0.72413987 0.6804876 0.95241827 1.0027853

shared.1.bias f4 [512]
000000 50 91 22 3a 07 ed 5b bd 68 da bb 3a 63 19 83 bc
       0.0006201463 -0.053692844 0.0014332058 -0.016003316
000010 d0 48 c0 bc 6c d1 08 bd 8a cd ce bc c3 69 0d 3d
       -0.02347222 -0.033402845 -0.025244493 0.03452469
000020 ce 41 ae bc 54 13 7d bc f5 aa 15 bc d5 c3 11 bd
       -0.021271612 -0.015446503 -0.009134998 -0.03558715
000030 c3 cd c5 bc 0c f2 6a bd 37 54 ca bc 7c 02 0f bd
       -0.024145966 -0.05735974 -0.02469836 -0.03491448
000040 f5 21 6e bb 3c 66 42 bc 76 9e 05 ba be b7 25 bd
       -0.0036336158 -0.011865195 -0.000509716 -0.040458433
000050 85 81 5b 3c 3b e3 b0 bc fd 29 03 3b 81 1a 98 bc
       0.013397579 -0.021592727 0.002001404 -0.018567326
000060 6f bc 04 3d 90 83 6e bd fe c7 d2 bb ab 68 3a bd
       0.032406267 -0.058230937 -0.0064325323 -0.045509975
000070 23 e1 b3 bc be 34 66 bc 0c 54 d0 3b 52 6c ba bc
       -0.02195794 -0.014050661 0.0063576754 -0.02275673
000080 e3 55 09 bd 88 74 52 bd 04 1d 9b bc ff ec e0 bc
       -0.033529174 -0.051380664 -0.018934734 -0.027456759
000090 f0 86 cb bc 7b c1 42 bc 44 53 ed bc e3 50 cf bc
       -0.024844617 -0.01188695 -0.028970368 -0.025307124
0000a0 9e 28 00 bd cf 78 2d bd c7 ae 0c bc 0b cb b8 3a
       -0.031288736 -0.04235154 -0.008586592 0.0014098597
0000b0 9e 3f cf bc 94 9d 5c bd 56 93 fb bc 47 e6 76 bd
       -0.02529889 -0.053861216 -0.030709904 -0.060278203
0000c0 4c 45 0b bd 0c 7a b6 bc e7 51 49 3c e5 c8 b7 ba
       -0.034001634 -0.022274993 0.012287593 -0.0014021663
0000d0 7a a6 d8 bc 5d e0 86 3a 03 a9 2c 3c 60 cc eb bc
       -0.02644657 0.0010290254 0.010538342 -0.028783977
0000e0 c4 ff 1f bc 4b 60 73 3c 09 46 73 3c 4e b7 0e bd
       -0.009765569 0.014854501 0.014848241 -0.03484278
0000f0 93 81 c3 3c c8 f1 6f bd 42 a4 0c bd 20 a5 80 bc
       0.023865497 -0.05858019 -0.034336336 -0.015703738
000100 8a 24 26 bd fa 08 34 bd 63 73 f5 bc a1 1e 9d bc
       -0.04056219 -0.043953873 -0.029962247 -0.019179644
000110 6f 32 59 bb f3 55 22 bd bf b6 c8 bc ae 0f 2c bc
       -0.0033141633 -0.03963275 -0.024501203 -0.010501785
000120 28 30 91 bc 24 89 02 bd 15 1d 67 bb 85 c0 67 bd
       -0.017723158 -0.03186907 -0.0035265137 -0.056580085
000130 4f 3d c2 bb f4 50 ab bb c1 6a 3f bd ca e1 29 3c
       -0.0059277187 -0.005228156 -0.046732668 0.010368774
000140 3f 23 b4 3b e1 ff ce bc d1 a5 29 bb 8a 6f 92 bc
       0.0054973657 -0.025268497 -0.0025886188 -0.017875452
000150 1b 63 2e bd 52 da b9 3c 3f a1 80 bd 9d e5 17 3b
       -0.042574983 0.022687111 -0.06280755 0.0023177632
000160 66 6d 85 bc 89 53 0e bd e5 51 87 bc b5 9c 65 bc
       -0.016287517 -0.034747634 -0.016518543 -0.014014413
000170 2e e8 8e 3c 89 c2 b7 bc 33 3a 6c bc d9 27 cb bc
       0.017444696 -0.022431629 -0.014418173 -0.024799274
000180 41 09 d7 bc 31 62 bd 3a 71 b3 4e bd 80 1f 9f 3c
       -0.02624953 0.0014448819 -0.050464097 0.0194242
000190 c6 aa 86 bd 32 eb 6b ba 55 8d 9a 3b c5 8c 06 bd
       -0.06575541 -0.00089995854 0.004716555 -0.032849092
0001a0 65 9c 05 bd a1 2c 78 3c 4a 17 9f 3c 68 3a 36 bc
       -0.032619853 0.015147359 0.019420285 -0.011122324
0001b0 50 dd ad bc 17 5f 12 bd 92 fa b4 39 ee d7 17 bb
       -0.021223694 -0.035735216 0.00034518965 -0.0023169476
0001c0 5a 73 25 bd 10 9a e1 bb 1c 46 63 bd 5e 23 20 bd
       -0.04039321 -0.0068848208 -0.055486783 -0.03909623
0001d0 e2 a7 a9 39 6d c2 0c bc 7a 14 b0 bc 88 4f b8 bc
       0.00032359274 -0.008591277 -0.021494139 -0.022498861
0001e0 1c 73 06 3d 02 83 a1 bc 6e d3 d5 bc cf 83 4c 3c
       0.03282462 -0.01971579 -0.026101794 0.0124825975
0001f0 f1 86 51 3d 1c ec 2f bd fc 3e 24 bc 1f a3 0a 3d
       0.05115408 -0.04294978 -0.010024782 0.03384697
000200 6f e6 9f 3c 11 6c a2 bc 2b 5d bb bc 3e 73 40 3c
       0.019519059 -0.01982692 -0.022871574 0.011746226
000210 2b 71 fc 3b 4e 63 6d bd f9 9b 13 bd f5 b2 08 bd
       0.0077039204 -0.057956032 -0.03603742 -0.03337379
000220 95 25 83 3b ed 28 3e bb b1 af 86 bd b4 36 12 bc
       0.004002283 -0.0029016093 -0.06576479 -0.008924175
000230 53 d2 7f 3c cc 50 6a bb d9 42 74 3a a6 aa bc bc
       0.01561411 -0.0035753725 0.00093178224 -0.02303059
000240 0d 4c 8c bc 37 1c 81 3c 04 be 77 bc df 25 1a bd
       -0.017126108 0.015760524 -0.015120987 -0.037633773
000250 04 9a b3 bc cf 2e 47 3c 13 3c 18 bd 46 dc 0b bd
       -0.021924026 0.012157156 -0.037166666 -0.034145616
000260 00 e1 a9 bb 54 e6 cf bc 7d bd 1a bd 44 a4 36 bc
       -0.005184293 -0.025378384 -0.037778366 -0.011147562
000270 94 7d 1a bd 7f f8 b7 bb db 18 26 3d a3 f5 08 bd
       -0.037717417 -0.00561434 0.040551048 -0.033437382
000280 70 23 e7 3c d6 89 fb bc ae cf 96 bc 1c 35 31 bb
       0.02821514 -0.030705374 -0.018409576 -0.0027039712
000290 3d 4d 9d bd 2e 76 b2 bd 67 95 0f bc 9a 87 d2 3c
       -0.07680748 -0.08713947 -0.008763648 0.025699425
0002a0 05 13 84 bb ee a2 57 bd ce 8c 64 bd 3c c9 f1 bb
       -0.0040305876 -0.052645616 -0.055798344 -0.0073787253
0002b0 51 5b 6a bc 04 36 9a b9 87 79 45 bd 10 c1 52 3b
       -0.014303998 -0.00029413414 -0.0482116 0.0032158531
0002c0 1b 13 92 3c b6 f7 61 bd d0 e3 e3 ba 5f 57 9a 3c
       0.017831376 -0.055167876 -0.0017386619 0.01884049
0002d0 2b b2 f0 3b af 32 bf bb d2 01 10 bd f4 2d c1 3c
       0.007345458 -0.0058348994 -0.035157986 0.023581482
0002e0 13 38 80 bd 4d d0 44 bc 7c 14 dc bc 84 25 d9 bc
       -0.06260695 -0.012012553 -0.026865236 -0.026507147
0002f0 a9 a6 84 bc a0 4d c7 bc 65 0b 90 bc 42 84 fd 37
       -0.016192751 -0.024329007 -0.017583558 3.0221538e-05
000300 38 4e cf 3b f1 67 9c 3b ea e5 af bb a1 70 82 3b
       0.006326463 0.004773133 -0.005367984 0.0039807116
000310 76 df dc bc 92 77 2d bc d7 1d 28 bd de df f9 bc
       -0.026962023 -0.01058759 -0.041044082 -0.030502256
000320 a9 8e 2c 3c 9b a2 1f bb c4 b7 06 bd 0f 10 7b bd
       0.01053206 -0.0024358395 -0.032890096 -0.06129461
000330 5d 5b 9a 3c 0e b4 21 bd f9 08 b9 3c e3 90 11 bd
       0.018842394 -0.039478354 0.022587286 -0.035538565
000340 b0 83 23 bc 82 66 f9 3b a9 9f 9b bc 54 85 50 bc
       -0.009980127 0.007611097 -0.01899703 -0.0127271
000350 57 24 86 bc 85 17 6a bc 45 74 45 3b 9f 1d 0d 3c
       -0.01637475 -0.014287834 0.0030129116 0.008613019
000360 82 20 73 bb 32 b0 9e bc 23 f0 af bc 63 4d d4 3b
       -0.0037098234 -0.019371126 -0.02147681 0.006478952
000370 56 4f fd bc c4 85 2f 3c 50 ca 4b bd 6a ae a1 bc
       -0.03092162 0.010713045 -0.049753487 -0.019736487
000380 94 e0 a9 bb b8 9d 6b bc ce c9 00 bb 61 6f 30 bd
       -0.0051842425 -0.014380865 -0.0019651535 -0.04307497
000390 d9 fd b2 bc c6 ba 4a bd b5 d6 c7 bc 12 49 3d 3c
       -0.02184956 -0.049494527 -0.024394372 0.011553066
0003a0 3d 6f 9c bc a9 37 fc bc d6 d6 19 bd c9 cf 9f bc
       -0.019096011 -0.03078826 -0.0375584 -0.01950826
0003b0 99 b8 d7 bc 9d fc c0 3a 1c bc 29 bd aa d3 75 bc
       -0.02633314 0.0014723722 -0.04143916 -0.015004078
0003c0 1f 7e c8 3a 20 69 d6 bc 6a 32 38 bd 0c 7e 95 bc
       0.0015296376 -0.026173174 -0.044969954 -0.01824858
0003d0 4e 32 9d 3b e2 6d fc bc 98 e4 d0 37 42 b7 06 bc
       0.0047972566 -0.030814115 2.490198e-05 -0.008222403
0003e0 5b bb 13 bb 0e cc 22 bc 95 3e 84 bd 4e d2 dd bc
       -0.0022542092 -0.009936346 -0.06457249 -0.02707782
0003f0 c3 bc dd bc d9 8f 9d 3c c1 21 f6 bc d5 d0 a5 3b
       -0.027067548 0.019233631 -0.030045392 0.005060295

shared.3.weight f4 [256, 512]
000000 9b 25 d6 bc 23 68 0f bd e4 c9 f8 bc c6 46 11 bc
       -0.026140979 -0.035011422 -0.030369706 -0.008866971
000010 68 af 5e bc 68 f1 58 3c 81 1d 76 bc d2 2b 02 3d
       -0.013591625 0.0132411495 -0.015021683 0.03178007
000020 34 2b 10 3d ce 43 0a bd d2 59 31 3d 62 9b d1 bc
       0.03519745 -0.03375607 0.04329855 -0.025586788
000030 76 62 57 3d b8 09 d8 3c 49 d6 3c bc 20 d3 a6 bb
       0.052584134 0.026371822 -0.011525699 -0.005091086
000040 65 9a 51 3d c8 13 de 3c 57 fa 85 3b 00 8f b6 bc
       0.051172633 0.027109042 0.0040886807 -0.022284985
000050 86 5c 56 3d aa 47 4d bc 14 b4 a2 3c b4 45 b4 bc
       0.05233433 -0.012529293 0.019861259 -0.022005893
000060 7b b8 77 ba 20 b8 00 bd 9c 29 c9 3b 08 1e 58 3c
       -0.0009449792 -0.031425595 0.0061389934 0.013190754
000070 3d 14 62 bc 1d 25 39 3d c4 78 bb 3c e7 d8 78 bc
       -0.0137987705 0.04520141 0.022884734 -0.015188432
000080 7e 68 23 3d 3e 4d c8 3c 3a 07 22 bc 29 10 0d 3d
       0.039894573 0.024450894 -0.009889418 0.03443924
000090 c7 ea 16 bd fc 25 a3 bc 85 e3 8c 3c 74 b6 1c bd
       -0.036844995 -0.019915573 0.017198334 -0.03825994
0000a0 30 fb ac 3c b2 31 fc 3a 04 14 cf bc 29 52 9e bc
       0.02111587 0.0019240885 -0.025278099 -0.019326286
0000b0 60 51 de bc 52 e1 b3 3b 96 bf 1c ba e2 95 25 3d
       -0.027138412 0.0054895068 -0.0005979476 0.040426143
0000c0 b1 c4 c0 bc 48 cc 0c 3d a0 7b e0 bb 23 d9 57 bc
       -0.02353129 0.034374505 -0.0068506747 -0.013174328
0000d0 d0 a3 15 bd 65 04 16 3d 68 56 6a bd 35 3b 6b 3c
       -0.036533177 0.036625285 -0.05721131 0.014357378
0000e0 08 fd 6e 3c 90 b2 82 bc 08 ac 82 3b 29 95 e0 3b
       0.014586695 -0.015954286 0.003987793 0.006853719
0000f0 3e 8b 73 bc 5d 81 1d bd d5 d9 18 3c 3f 7b 44 3d
       -0.014864741 -0.03845345 0.009329279 0.0479691
000100 22 e7 03 3d 87 2f 43 3c 37 b0 a0 3c c5 46 de ba
       0.032202847 0.011913187 0.019615276 -0.0016958347
000110 5b a8 0f bb d1 69 19 3a eb 06 d6 3c 07 59 fe bc
       -0.0021920416 0.00058522547 0.026126346 -0.03104831
000120 01 9e 38 3c ef 96 e7 bc e6 10 95 3b 0a 42 3b ba
       0.01126814 -0.028270213 0.0045491336 -0.00071433245
000130 7b 42 87 3d db 25 b1 ba a8 fe 14 bd d9 31 1c 3d
       0.06604477 -0.001351531 -0.03637567 0.038133476
000140 d0 c1 d2 3d 3f c3 62 3c 7c ee 5f 3d c9 43 fe bc
       0.10290873 0.013840496 0.054670796 -0.031038182
000150 af 0b 99 bc ad 3b 63 3d 5c e5 eb 3c 8b 6a 96 bb
       -0.018682329 0.055476833 0.02879589 -0.0045903376
000160 de 0f 9c 3b bf 2a b1 bb 74 3d 93 bc ff db 01 bc
       0.0047626337 -0.005406707 -0.01797364 -0.007925986
000170 6c 9a 8f ba 4b 95 49 3c 0e 27 9d 3c 9d 92 aa 3c
       -0.0010956055 0.012303661 0.019183662 0.020821864
000180 ac 29 ee 3b f0 46 91 3c bf af f3 bc 29 46 63 3d
       0.0072681513 0.017734021 -0.029746888 0.05548683
000190 81 92 9b ba ea f1 c1 b8 e7 2c ef 3b d6 91 3b 3b
       -0.0011869223 -9.248017e-05 0.007299054 0.002862086
0001a0 7c 04 30 bd cc 9f e2 bc f4 c4 a4 3c 9c b2 c1 bb
       -0.042973027 -0.027664088 0.020113446 -0.0059111845
0001b0 1d 0e 80 bd 5e f1 89 bc 83 de 7d 3c 21 85 02 3c
       -0.06252692 -0.016838726 0.015494945 0.007966311
0001c0 24 48 09 3d 71 a2 81 3c 02 13 bf b9 1e bf e2 bb
       0.033516064 0.015824528 -0.0003644452 -0.0069197556
0001d0 2b aa 20 bd 96 eb 14 3d 67 24 82 3c 34 1f d9 bc
       -0.039224785 0.036357485 0.015886499 -0.026504137
0001e0 d2 8f cd 3a 70 86 7a 3b 8e 49 31 3b c0 74 48 bc
       0.0015683121 0.0038227104 0.0027051899 -0.012234867
0001f0 cf 55 2e 3d bd 01 d1 bc cb c0 f3 bb 6a b1 0e 3d
       0.042562302 -0.025513524 -0.007438754 0.034837164
000200 01 10 0a 3c ae a4 8c bc b2 0c ed 3c b5 13 7a bb
       0.008426667 -0.01716837 0.028936718 -0.003815872
000210 67 e6 43 bb 4a 3b be bb 16 4e a2 bc b3 fb 6a 3c
       -0.002989197 -0.0058054077 -0.019812625 0.014342236
000220 6f e7 5a 3d 71 8f a5 bc 17 21 ed bc 3b 6f f1 3c
       0.05344337 -0.02021 -0.028946443 0.029471984
000230 12 54 48 3c 0e 34 32 bc 28 81 1c bb b8 48 90 3c
       0.012227075 -0.010876669 -0.0023880694 0.0176128
000240 24 0b 32 3d 4f e1 04 3d 37 99 33 3b 50 81 13 bc
       0.043467656 0.032441434 0.0027404556 -0.0090029985
000250 6f 00 28 bd 8e 40 be bc d2 0b 86 bc e5 c1 11 bd
       -0.04101604 -0.023224141 -0.016363058 -0.035585303
000260 36 d8 3d ba 22 0e df 3b d8 fb c2 3c 02 da c9 3c
       -0.0007241996 0.0068071047 0.02380173 0.024640087
000270 d5 10 95 3c 1e 70 e7 bc c1 19 b4 bc 25 40 ca bc
       0.018196503 -0.028251704 -0.021984937 -0.02468879
000280 79 c3 5f 3c 8c bd 3a 3d 1c 8e c2 bc ea fb d7 3b
       0.013657444 0.045590922 -0.023749404 0.00659131
000290 0a d5 9a 3b b8 8c 74 bc 13 70 f5 3c 23 ad cf bb
       0.0047251033 -0.014926128 0.029960668 -0.006337778
0002a0 44 90 06 3d a2 c3 06 3d f3 5b 1f bd d5 dc bd 3b
       0.032852426 0.032901414 -0.03890605 0.0057941475
0002b0 67 c7 a3 3c c5 5f 0c 3c 86 db a4 bb c5 45 00 3b
       0.019992543 0.008567755 -0.005031052 0.0019572836
0002c0 7d b7 b3 3c 7b e9 bf 3c f7 87 86 bc 6b 5b 65 3c
       0.02193808 0.023426762 -0.016422255 0.0139988465
0002d0 67 87 8e 3c ce 22 0d 3d 5a 72 21 3d ed 2f 11 3d
       0.01739855 0.03445702 0.039415695 0.035446096
0002e0 35 36 47 3c 23 d8 a4 bc 2a d8 b8 3c c3 7a 8d 3c
       0.01215892 -0.020122593 0.022564013 0.017270451
0002f0 c3 35 0d 3c c3 f7 b4 3c 3e 9c da bc b7 5f f2 bc
       0.008618775 0.022090798 -0.02668583 -0.029586656
000300 e9 af 9f 3b d7 dd a8 3c a6 c5 07 3d 83 0a a6 3b
       0.004873265 0.020613594 0.033147477 0.005067171
000310 ce 3b 81 3c b8 5b 2c bd 7b 42 0b bd 31 b1 d1 3c
       0.015775587 -0.042079657 -0.033998948 0.025597187
000320 85 0d 6d 3c b6 f6 a9 3a ed 5e 98 3c d6 e5 f6 bb
       0.014468555 0.0012967202 0.018599952 -0.007534723
000330 7c e6 3b 3d e8 56 b8 3c 40 2d fa 3c 57 4b 86 ba
       0.045874104 0.022502378 0.030539155 -0.0010245842
000340 a4 d6 07 3c b7 a6 d4 ba 09 c1 0c 3d 9a a7 e7 3c
       0.00829092 -0.0016224001 0.03436378 0.02827816
000350 6a 5e 93 3c 29 18 82 bc 17 38 f8 3a 7e a3 db 3b
       0.017989356 -0.015880661 0.0018937615 0.0067028394
000360 4a 88 d4 3c 93 c0 c0 bb fa 23 a1 3a 6c d5 d6 3a
       0.025943894 -0.0058823316 0.0012294047 0.0016390509
000370 8e 9f b6 bc dd 4a 77 3c 4a f4 1e 3c 42 e8 97 3c
       -0.022292878 0.015093532 0.009701798 0.018543366
000380 2e 27 9a bc 44 4b 83 3c 39 ef 3e 3c c7 8d e6 bc
       -0.01881751 0.0160271 0.011653715 -0.028143777
000390 f5 74 8a 3d 93 1d 05 3d 7f 04 96 3b df ae 77 3c
       0.06760589 0.032498907 0.0045781727 0.015117376
0003a0 94 7c c5 3b a7 3b 8f bc 46 1f 83 38 d0 6b 00 bc
       0.0060268138 -0.0174845 6.252392e-05 -0.0078382045
0003b0 aa 6c 62 bd ab 36 84 3a 0c f7 48 bd 05 75 f6 3c
       -0.05527941 0.0010087093 -0.049063727 0.030085096
0003c0 2c 67 d9 bb 25 c7 aa 3c 68 a2 1a bd c6 83 12 bc
       -0.0066346135 0.020846913 -0.03775254 -0.00894255
0003d0 76 a3 06 bb fd 20 0e bd dd c7 ec bb 51 e0 a3 bc
       -0.0020544208 -0.03469943 -0.007225974 -0.020004423
0003e0 62 fe 6a 3c c9 e3 b8 3c f6 79 49 3c c5 8c 4f 3a
       0.014342876 0.022569554 0.012297144 0.00079173996
0003f0 7b dc 2f 3d d7 b8 a1 3c 46 ec 31 bc d9 eb 1c bd
       0.042934876 0.019741459 -0.010859555 -0.03831086

shared.3.bias f4 [256]
000000 a2 df 60 bc 98 f0 14 bb 04 60 c6 3b 2a 5d c9 3a
       -0.013725193 -0.0022726413 0.0060539264 0.0015362848
000010 76 42 9a bc d7 71 33 3d 74 21 b9 b8 59 46 74 3c
       -0.01883052 0.043809738 -8.8277186e-05 0.01490935
000020 04 f4 ea 3c a2 2b 2a 3b 88 5a 3b 3d d6 9a ca ba
       0.028680809 0.0025965949 0.045740634 -0.0015457522
000030 e0 1f f8 3c 8f 27 82 3b 69 03 03 bd 18 ae cd 3c
       0.030288637 0.003972001 -0.031985674 0.025107428
000040 e3 1a ec bc ac 1b a1 bb e2 87 af 3c f1 a1 05 bd
       -0.028821414 -0.004916629 0.021427099 -0.032625142
000050 81 76 13 3d 81 cf 18 3c fc b6 14 3c d4 04 33 3c
       0.036001686 0.009326817 0.00907683 0.010926444
000060 d0 cd 20 3d 18 56 00 3d 8e 2e 02 3d 66 74 67 3c
       0.039258778 0.031332105 0.03178268 0.014126873
000070 a5 f8 25 3d 78 65 eb bc 4a 35 96 3c a0 05 17 bd
       0.04052033 -0.028734908 0.018335957 -0.0368706
000080 8f fe 8f 3c 8c 84 ba 3b 9f 35 ba 3c a5 6a e4 bc
       0.017577438 0.0056920704 0.022730647 -0.027882883
000090 c8 f9 d1 3c 6d 25 cb 3c 2a 75 e2 3c 5d 31 a2 bb
       0.0256318 0.02479812 0.027643759 -0.004949732
0000a0 d8 ac 2f bd b7 4d 36 3d 14 3f 2a bc 81 be 38 bc
       -0.042889446 0.04450771 -0.010391016 -0.011275888
0000b0 49 51 c4 3c db a8 09 3d 79 3b 1b 3d 4d 96 a4 3b
       0.023964541 0.0336083 0.037898514 0.0050228
0000c0 cf 4e 80 3c c3 cd 4a bc 0e 8e 7a bc e6 0d 23 3d
       0.015662579 -0.012378159 -0.015292658 0.039808176
0000d0 56 46 a9 bc aa 4d 71 bc a5 64 9b bc ba d6 91 bc
       -0.020663422 -0.014727989 -0.01896889 -0.017802585
0000e0 20 07 f0 3b 6a df 4f bb 81 3a 93 3c 59 d5 b8 3c
       0.007325068 -0.0031718859 0.017972233 0.02256267
0000f0 90 f4 dc bc ea 43 4f bc 3d 3f 15 bd 42 5d d2 39
       -0.026972085 -0.012650469 -0.03643726 0.00040123804
000100 a2 7a fe 3c 0f f8 26 bd eb d5 87 3b 9e 3d 61 3c
       0.031064335 -0.04076391 0.004145374 0.013747601
000110 d6 14 c1 39 bd cc bc bc ae 8c d9 bb 11 d4 8d bc
       0.00036827353 -0.023046846 -0.006639085 -0.017313035
000120 9d c6 08 bd 62 08 50 bc 24 a2 ce bb fd 40 e0 bb
       -0.033392537 -0.012697311 -0.0063059498 -0.0068436847
000130 5c 67 c8 3c 2f c9 18 bd 96 42 bf bc 28 ba 23 bb
       0.024463348 -0.03730124 -0.02334718 -0.0024982784
000140 0c c2 cb 3c 0f 07 b4 bb 24 8d f2 3c 66 bb 11 3d
       0.024872802 -0.0054940055 0.029608317 0.035579108
000150 ef e8 e6 3c d2 0c 04 bc 65 bd 8a 3c e4 4f 73 bc
       0.028187243 -0.008059697 0.016936013 -0.01485059
000160 0a 87 93 bc 3f 91 12 3c c4 8b ac b8 84 fb 74 3c
       -0.018008728 0.008945762 -8.2276325e-05 0.014952544
000170 45 3b 17 3d 34 fa 44 3d 0a e1 1a bd eb d0 cf bc
       0.03692176 0.048090175 -0.03781227 -0.025368175
000180 f1 4b 2a 3d 9f 95 62 bc b5 7e 3e 3c 27 93 b9 bb
       0.04157633 -0.013829618 0.011626889 -0.005663294
000190 c2 cb 7a 3c f7 e6 0c bd 96 b1 e6 3c a7 da 12 bd
       0.015307369 -0.034399953 0.028160851 -0.035853054
0001a0 e5 3a 1e bd 7f bd c5 3c b3 55 d6 3b 60 e0 b7 3c
       -0.038630385 0.02413821 0.006540978 0.022445858
0001b0 39 72 89 bc a1 24 6f 3c ed 34 da bc 46 02 e2 bb
       -0.016778098 0.014596135 -0.026636565 -0.0068972437
0001c0 e5 87 b0 bc 50 ce c9 bc 9b 9d c5 3c 1b 5e dc 3b
       -0.021549175 -0.02463451 0.024123004 0.0067250854
0001d0 64 29 0e bd 29 7e 91 bc 08 f0 39 3c eb 7f 09 3d
       -0.034707442 -0.017760353 0.011348732 0.033569258
0001e0 30 aa b3 bc cf bc 68 bc 59 de 74 3c d8 35 04 3d
       -0.021931738 -0.014205172 0.01494559 0.032277912
0001f0 a5 06 97 3b ac 0e 00 bd ae fc 83 3c ae e6 1c 3c
       0.0046089464 -0.031263992 0.016111698 0.009576483
000200 bf 6d 0e bd 2d 89 bd 3b e8 b2 62 ba 50 46 a7 bb
       -0.03477263 0.005784175 -0.0008647875 -0.0051048175
000210 1c 7a 0a 3c 34 7c 0e 3d 05 28 f3 bc 65 66 18 3d
       0.008451965 0.034786418 -0.029682169 0.037207026
000220 0b a5 8b 3a 4d 75 90 3b 78 cb 71 3c 29 a0 53 3b
       0.0010654045 0.0044085146 0.014757983 0.0032291508
000230 b6 02 21 bd 3c af 2d 3d ef bd e8 3c 1c ec 54 38
       -0.039309226 0.042403445 0.02841088 5.0764633e-05
000240 3b 6f db bc cc 23 3b 3c ed 98 05 3d a9 d6 0f 3d
       -0.026786437 0.011422109 0.032616545 0.035116825
000250 08 41 cf 3c 76 9c e6 3c 9e 54 22 bd 5c 27 00 bc
       0.025299564 0.028150778 -0.03963148 -0.007821884
000260 aa f3 bb bc 53 8b b4 bc dc f4 d2 bc 63 21 1b 3b
       -0.022943337 -0.022039091 -0.025751524 0.0023671023
000270 ba aa a4 bc e1 3c 10 bd 03 13 a1 bb cf d6 67 3b
       -0.02010094 -0.03521431 -0.0049155965 0.0035375839
000280 96 8e ea 3b db cd 04 3d 69 b2 0c bd ce f0 9a bc
       0.007158111 0.03242288 -0.034349833 -0.018913653
000290 1e 26 eb ba 03 c0 0d bd e4 44 4e 3c f9 cb 28 3d
       -0.0017940437 -0.034606945 0.012589667 0.04121015
0002a0 fe 2c 7a 3c 2d cf 56 3c 72 76 b7 3c 57 56 e8 bc
       0.015269516 0.013110918 0.022395346 -0.028361483
0002b0 f1 20 f8 bc d5 c4 0e 3d 8c d1 e8 3c d4 4e 18 3d
       -0.030289145 0.034855682 0.028420232 0.03718455
0002c0 2e 0c 8e 3c 91 ee e7 ba 8b 46 08 3d f6 3e 8b bc
       0.017339792 -0.0017695 0.0332704 -0.016997796
0002d0 49 14 b9 3c 6a 25 f6 3c ff 9a 63 3c 11 6d 33 3d
       0.02259268 0.030047137 0.013891934 0.043805186
0002e0 6b 96 34 bd 10 91 ac bc 1a 4f 14 bd 02 12 09 bd
       -0.044088762 -0.021065265 -0.03620825 -0.03346444
0002f0 f9 2d 57 bb e2 83 19 3d 17 34 e0 bc 14 15 bf ba
       -0.0032833798 0.03747929 -0.027368588 -0.0014578425
000300 c0 56 c0 bc ea 5b c1 bc 94 a3 d1 3c c0 8b 07 3d
       -0.023478866 -0.023603398 0.025590695 0.03309226
000310 c0 75 e5 3b 6e 4d 98 bc 5e 85 da bb 75 de 21 3d
       0.0070025623 -0.018591609 -0.0066687306 0.039518792
000320 50 4e b0 bc d7 38 41 3c e1 d9 a3 3c 4c b5 18 bd
       -0.021521717 0.011793337 0.020001354 -0.037282273
000330 7d 49 b3 bc 6c cf b0 bc df 28 c7 3c d2 9a f7 3b
       -0.021885628 -0.021583281 0.024311481 0.007556298
000340 84 b3 f7 ba 96 27 c4 3a df 1e 65 bc a1 be b4 bc
       -0.0018898104 0.0014965411 -0.013984411 -0.022063555
000350 36 ec aa bc cb 0f 2e 3b e7 c2 18 3d 4f aa a7 3c
       -0.020864587 0.0026559706 0.03729525 0.020466952
000360 6a 71 a9 bc 85 47 29 3d 79 63 c8 3c e8 90 7a bb
       -0.020683963 0.041327972 0.024461495 -0.0038233344
000370 9e 27 85 bc aa be 11 3d 4e c7 19 bd 23 42 aa 3c
       -0.016254243 0.035582222 -0.037543587 0.02078349
000380 c1 cb 31 bd 72 b2 56 3b f3 dd c1 3c 13 fe 91 3c
       -0.043407205 0.003276017 0.023665404 0.017821347
000390 ea 46 94 bb 2d 9b 0b bc 90 7f a6 3c 8a 57 56 3c
       -0.004525055 -0.0085208835 0.020324498 0.013082394
0003a0 da cd cc 3c f2 12 97 38 d6 5f 27 bc 9a 13 ef 3c
       0.025000501 7.20377e-05 -0.01021572 0.029184151
0003b0 05 29 2c b9 61 86 9c 3a 11 13 04 3d b8 8c 83 3c
       -0.00016418479 0.0011941904 0.032244746 0.01605831
0003c0 11 93 00 3d 0f 08 30 3b 7c 4c dc ba c6 d5 8b 3c
       0.031390253 0.0026860272 -0.0016807462 0.017069709
0003d0 19 7e e6 bb 02 ed 42 bd 73 ca 2d 3d 45 72 a3 bc
       -0.007034075 -0.04758931 0.0424294 -0.019951949
0003e0 32 99 26 3d 9a d8 3d bc e2 7e 20 bd 84 92 62 bc
       0.040673442 -0.011587286 -0.039183505 -0.013828877
0003f0 09 6d 93 3c fe 60 0f bd ea 03 25 3d 0c ff 5e bc
       0.017996328 -0.03500461 0.040286936 -0.013610613

shared.4.weight f4 [256]
000000 ab ae 3f 3f ab 5f 52 3f 9b d2 65 3f 47 d7 7c 3f
       0.748759 0.8217723 0.89774483 0.9876599
000010 90 4a 62 3f a6 ec 78 3f 96 82 25 3f ed 57 7a 3f
       0.88395023 0.97236097 0.64652383 0.97790414
000020 64 85 7e 3f e0 7d 22 3f 5e 97 6e 3f 38 1d 68 3f
       0.9942229 0.6347332 0.9319972 0.90669584
000030 b9 07 6c 3f 90 7d 67 3f 6a 76 62 3f ab 31 63 3f
       0.92199284 0.9042597 0.88461936 0.8874766
000040 22 07 6e 3f 6b 42 16 3f 13 04 72 3f 5f 13 75 3f
       0.92979634 0.58695096 0.94537467 0.9573268
000050 3e e3 80 3f a1 6a 71 3f 72 2c 65 3f cd bc 59 3f
       1.0069349 0.9430333 0.89520943 0.8505371
000060 75 ac 74 3f 11 24 80 3f df 27 77 3f 4b 5c 6c 3f
       0.9557565 1.0011007 0.96545213 0.9232833
000070 c0 b9 6e 3f b1 c7 5c 3f f7 92 73 3f 3e 29 7f 3f
       0.9325218 0.86242205 0.95146126 0.99672306
000080 73 02 71 3f 35 49 79 3f 8c 23 75 3f ff b4 66 3f
       0.9414436 0.9737733 0.95757365 0.9011993
000090 9a b0 7d 3f 2d 2b 7b 3f 24 31 5c 3f e9 2e 74 3f
       0.990976 0.98112756 0.8601248 0.9538408
0000a0 96 0d 49 3f 7b 1b 72 3f f8 05 7c 3f 05 98 7f 3f
       0.78536355 0.9457318 0.9844661 0.9984134
0000b0 1d 98 6f 3f fd 7c 4d 3f 7c 5a 7a 3f 12 81 71 3f
       0.9359148 0.8026884 0.9779432 0.9433757
0000c0 bf b3 43 3f d4 75 4f 3f d8 33 60 3f 7d f5 77 3f
       0.76446146 0.81039166 0.8757911 0.9685896
0000d0 0a 59 3c 3f 81 e6 7e 3f 07 fa 77 3f 08 1b 6d 3f
       0.7357336 0.9957047 0.96865886 0.9261937
0000e0 4f b1 80 3f 7d 16 71 3f d7 75 5b 3f b7 ae 6c 3f
       1.005411 0.9417494 0.85726684 0.92454094
0000f0 2e fe 74 3f 12 7c 3d 3f ec d6 78 3f 5a 30 77 3f
       0.9570035 0.7401744 0.97202945 0.96558154
000100 68 40 5e 3f 08 d8 69 3f 20 54 68 3f 06 90 75 3f
       0.86817026 0.9134526 0.90753365 0.9592289
000110 31 21 3d 3f 9f 96 4c 3f 74 b9 59 3f 43 84 72 3f
       0.7387877 0.7991733 0.85048604 0.94733065
000120 f6 2c 56 3f bf 50 6d 3f 1b d8 6a 3f db 8b 78 3f
       0.83662355 0.92701334 0.91736 0.970884
000130 88 95 7c 3f b8 94 32 3f 31 9d 74 3f 19 49 31 3f
       0.98665667 0.69758177 0.95552355 0.69252163
000140 59 09 7a 3f 92 39 66 3f 49 21 64 3f 35 95 5d 3f
       0.97670513 0.89931595 0.8911329 0.86555797
000150 2b 5c 74 3f 47 42 28 3f 9d e2 78 3f 03 55 7c 3f
       0.9545314 0.6572613 0.97220784 0.9856722
000160 7e 29 77 3f fe 3d 3e 3f cc 7c 70 3f 77 1d 44 3f
       0.9654769 0.7431334 0.93940425 0.7660746
000170 b5 cc 7d 3f 8c 4b 73 3f de 6c 6d 3f 0a e3 62 3f
       0.99140483 0.9503715 0.92744243 0.88627684
000180 d6 e3 75 3f 62 3b 73 3f fa d9 72 3f ff f5 81 3f
       0.96050775 0.95012486 0.94863856 1.0153197
000190 ce 14 4c 3f d4 63 78 3f 0a 64 44 3f c1 cb 7a 3f
       0.79719245 0.97027326 0.7671515 0.97967154
0001a0 3d f7 69 3f c0 eb 70 3f e9 a9 69 3f 3f 8d 6a 3f
       0.9139288 0.94109726 0.9127489 0.91621774
0001b0 3a e6 6e 3f fb 11 74 3f 85 4a 7b 3f a6 e9 60 3f
       0.9332005 0.95339936 0.9816058 0.8785652
0001c0 21 21 77 3f 1a 0f 78 3f b6 92 7c 3f 0d 08 4d 3f
       0.96534926 0.96898043 0.98661363 0.8009041
0001d0 70 f3 7d 3f a1 fc 7b 3f b4 2f 63 3f 92 bc 7b 3f
       0.9919958 0.98432356 0.88744664 0.9833461
0001e0 e0 44 76 3f a0 f9 70 3f ca 9f 6a 3f 52 54 6b 3f
       0.96198845 0.941309 0.9165007 0.9192554
0001f0 ea 16 5f 3f 2e 14 5a 3f ef 4c 43 3f fb 82 42 3f
       0.8714434 0.8518704 0.76289266 0.7598111
000200 77 86 78 3f 56 de 22 3f 0d bf 71 3f d4 78 77 3f
       0.9708018 0.6362051 0.94432145 0.96668744
000210 68 53 78 3f e8 0a 7d 3f 87 73 6f 3f 50 68 6d 3f
       0.9700227 0.98844767 0.93535656 0.92737293
000220 2f a9 77 3f db 0b 55 3f bd ff 73 3f 35 d5 58 3f
       0.9674253 0.83221215 0.953121 0.8470033
000230 54 bc 81 3f 31 09 7c 3f 1b d0 7a 3f 06 24 68 3f
       1.0135598 0.98451525 0.97973794 0.9067997
000240 47 36 4c 3f 56 cd 6f 3f c2 8f 47 3f 32 1c 58 3f
       0.7977032 0.9367269 0.7795373 0.8441802
000250 57 a2 78 3f ec f7 6f 3f 31 1f 26 3f de 30 36 3f
       0.9712271 0.93737674 0.64891344 0.71168315
000260 60 08 6a 3f 1b 98 1e 3f a3 cf 6d 3f 3e 58 67 3f
       0.9141903 0.61950845 0.92894953 0.9036902
000270 a8 2e 6e 3f 80 7b 7f 3f eb ec 32 3f 01 ed 6a 3f
       0.9303994 0.9979782 0.6989276 0.9176789
000280 43 f6 80 3f d0 0f 3c 3f b4 51 7f 3f 5f bf 68 3f
       1.0075153 0.7346163 0.99734044 0.9091701
000290 4a 96 38 3f f4 77 71 3f 14 22 81 3f 79 21 7c 3f
       0.7210432 0.9432366 1.0088525 0.98488575
0002a0 38 c3 3d 3f 4c 63 72 3f 6b a6 61 3f 2c 92 82 3f
       0.74126005 0.94682765 0.8814456 1.0200858
0002b0 87 3b 78 3f 9c b6 75 3f a2 b6 1e 3f c1 69 7e 3f
       0.9696583 0.95981765 0.61997426 0.9938012
0002c0 c8 94 83 3f c2 59 75 3f 01 9a 48 3f 48 56 6c 3f
       1.027978 0.95840085 0.7835999 0.92319155
0002d0 86 82 77 3f 13 45 6f 3f 1c f2 48 3f 35 6f 65 3f
       0.9668354 0.93464774 0.7849443 0.89622813
0002e0 96 64 5b 3f a2 b1 46 3f 58 c1 76 3f 5b ae 83 3f
       0.85700357 0.77614796 0.9638877 1.0287584
0002f0 53 94 6d 3f 17 50 7f 3f 0a 8d 47 3f 68 47 78 3f
       0.9280445 0.9973158 0.77949584 0.9698396
000300 7e 90 79 3f 26 e1 79 3f 4f a3 78 3f 28 d7 5f 3f
       0.974861 0.97609174 0.9712419 0.8743768
000310 ba 08 70 3f 39 70 70 3f 1b 59 7d 3f 71 4c 44 3f
       0.93763316 0.9392124 0.9896409 0.7667914
000320 b9 67 7c 3f 8e 2e 5d 3f 8c fd 67 3f 7d 92 69 3f
       0.9859577 0.8639916 0.90621257 0.9123915
000330 44 16 67 3f 75 2a 6d 3f 35 1e 5a 3f de 9f 7c 3f
       0.9026835 0.9264291 0.8520234 0.9868144
000340 82 d8 75 3f ad 01 5e 3f c5 6d 7c 3f db e2 59 3f
       0.9603349 0.8672131 0.98604995 0.8511178
000350 9f 1a 80 3f fb 33 5b 3f 8e 7f 6c 3f e4 9a 68 3f
       1.0008124 0.8562619 0.92382133 0.90861344
000360 a6 5c 7a 3f fc 28 65 3f 34 ac 5b 3f 68 a9 79 3f
       0.9779762 0.8951566 0.85809636 0.9752412
000370 2d 60 71 3f f9 29 80 3f 18 f6 49 3f 15 64 7d 3f
       0.9428738 1.0012809 0.78891134 0.9898084
000380 08 c0 4c 3f 31 5a 5b 3f 30 da 6b 3f 8e 97 40 3f
       0.79980516 0.85684496 0.921298 0.75231254
000390 66 c1 71 3f ce 05 80 3f b1 1b 7f 3f 74 1d 6e 3f
       0.9443573 1.0001771 0.9965163 0.9301369
0003a0 e1 aa 7b 3f 9f 08 84 3f 62 20 63 3f 34 a9 3c 3f
       0.98307616 1.0315131 0.8872129 0.73695683
0003b0 b1 98 81 3f e8 83 5a 3f ba cb 7b 3f 0f 30 63 3f
       1.0124723 0.8535752 0.9835774 0.88745207
0003c0 f1 60 3e 3f be 66 79 3f a5 da 56 3f 85 64 4c 3f
       0.7436667 0.974224 0.83927375 0.7984088
0003d0 33 bd 5e 3f 98 be 65 3f c5 f6 69 3f 52 f0 76 3f
       0.87007445 0.8974395 0.91392165 0.9646045
0003e0 30 4e 78 3f 27 be 7d 3f d3 1f 63 3f 0f 2f 79 3f
       0.96994305 0.99118274 0.88720435 0.9733743
0003f0 21 ad 6b 3f fc 67 7a 3f 32 81 7d 3f 8c 13 4a 3f
       0.9206105 0.9781492 0.9902526 0.78936076
