checkpoints/improved_pretrain_pretrain/checkpoint_ep8999.pt (torch, 813141 bytes, 25 tensors)

shared.0.weight f4 [512, 23]
-0.092543244 0.008384678 -0.21563345 0.14008024 -0.066544674 -1.275934e-16 -0.03009085 0.049613874
0.25620398 0.18581009 0.06677948 -0.10318504 -0.06736258 0.14557911 0.14153878 -0.08265317
-0.08331187 0.019974545 0.12899233 7.988455e-06 0.012634772 9.264528e-10 -2.1942646e-23 -0.10107275
-0.16748056 0.04441444 0.110386826 0.08617376 7.57947e-23 0.04493845 0.34716606 -0.010323337
-0.19466406 -0.08981232 0.0031582133 0.05964595 0.087751254 0.11913447 0.03211209 -0.04726792
-0.014643487 0.120978326 7.616535e-06 -0.013040821 1.620147e-10 1.3778608e-15 0.1221938 -0.00171338
-0.029585948 -0.110084884 0.06550764 -2.3481716e-23 0.06097568 0.0060176696 0.2403624 0.26218027
0.15555014 0.16310902 0.07855134 -0.042776246 0.03873945 0.084319375 -0.014434607 0.0495858
-0.14538491 -5.0939914e-05 0.0070772413 -1.704847e-19 -4.779839e-15 -0.033428166 0.119697966 0.058404844
0.03845019 -0.11509222 4.002133e-16 -0.024077544 0.01672616 -0.038892318 0.030865183 -0.11962186
-0.09463263 -0.12860829 -0.021067532 0.10466528 -0.117587246 -0.017327027 0.07940449 0.15728207
-0.00018111925 -0.0040812087 2.482751e-19 -3.1632155e-11 -0.15437931 -0.11317238 -0.1857099 -0.07390728
0.029098604 1.0352464e-12 -0.062459584 0.0056039602 -0.19653973 -0.123655684 -0.08193511 0.048684116
0.088224925 0.101114295 -0.08392008 -0.056563415 0.16023801 -0.03982968 0.05062486 2.1036449e-05
0.013997053 2.9865424e-10 2.8193178e-08 0.07690327 0.15282972 0.05256509 0.009465863 -0.08223971
-7.934758e-08 0.103238426 -0.008385726 0.19669344 0.029949423 -0.05357051 -0.07153116 -0.051275685
0.13359393 0.054965265 0.16799925 -0.04415539 -0.014139384 -0.121111 2.9889546e-07 -0.002423207
7.6699237e-19 2.1435385e-14 0.12528224 0.17900985 0.03737924 0.06940016 -0.013139637 4.9028873e-23
-0.18903708 -0.0536001 0.122339614 -0.21652569 -0.1320449 -0.1646067 -0.013252417 -0.19645327
0.058333714 0.072049364 -0.044659857 0.09436834 0.14755754 2.8523579e-07 0.0010064648 3.0594188e-21
6.552047e-19 0.23155814 0.20134823 0.06454934 0.045307025 -0.04776108 9.550963e-15 0.013650922
-0.010150123 -0.1164555 -0.16807461 -0.15704347 0.10606881 -0.046238992 -0.05116489 -0.03959285
0.17066811 0.00079595915 -0.012065401 -0.19914939 -5.921868e-07 0.0046018953 -2.2603284e-21 -3.1888805e-19
0.16317594 0.104842134 -0.124095246 -0.17152022 0.008539817 1.9978754e-19 0.07556504 -0.047901478
0.16739818 -0.29809603 0.22787032 0.061108675 -0.08940367 0.07965773 0.16492209 0.00092472177
-0.0065729157 0.07736288 0.12574072 -0.00018463848 0.0037840053 1.7975111e-13 -1.8771918e-22 -0.07803354
0.014847068 -0.11473875 0.016427027 -0.11222299 -1.7676778e-07 -0.044059936 -0.011150031 0.075252764
-0.19168775 0.00951392 0.06207171 0.0683501 0.14278075 -0.015986074 -0.12538122 0.11201202
0.017460516 0.099005915 -0.00019437257 -0.02666369 -6.908396e-21 -4.4043685e-23 0.14205883 0.03107937
0.12875675 0.14071046 0.016595507 3.0406872e-22 0.103582405 0.20726098 0.20942274 -0.13117127
0.028424405 -0.22416879 0.16181774 -0.19042747 0.058507066 -0.058799025 -0.047724288 0.13863242
0.09776466 -1.0407791e-05 0.022020617 2.6100537e-07 4.5966688e-23 -0.026036004 0.15676793 0.12942863
00000000: 5087 bdbd e35f 093c 04cf 5cbe 3271 0f3e
00000010: 9348 88bd ed1a 13a5 1681 f6bc eb37 4b3d
00000020: 2b2d 833e 0045 3e3e aec3 883d ae52 d3bd
00000030: 64f5 89bd b112 153e 8bef 103e 1146 a9bd
00000040: 6a9f aabd a8a1 a33c 9116 043e 2706 0637
00000050: 1302 4f3c 52a9 7e30 5c37 d499 3bff cebd
00000060: 0680 2bbe eaeb 353d 7d12 e23d de7b b03d
00000070: a642 b71a 6111 383d c0bf b13e 3723 29bc
00000080: 0456 47be 86ef b7bd 07fa 4e3b 504f 743d
00000090: eeb6 b33d c6fc f33d f887 033d 029c 41bd
000000a0: 3ceb 6fbc 7cc3 f73d 8a91 ff36 2ba9 55bc
000000b0: 1523 322f 1792 c626 be40 fa3d 7e93 e0ba
000000c0: 3b5e f2bc 2f74 e1bd df28 863d ea19 e399
000000d0: a2c1 793d df2f c53b 9021 763e 7e3c 863e
000000e0: 8948 1f3e 0d06 273e 86df a03d 2536 2fbd
000000f0: 42ad 1e3d a3af ac3d 217f 6cbc 7b1a 4b3d
00000100: c8df 14be 51a8 55b8 34e8 e73b d745 49a0
00000110: 3c36 aca7 f9eb 08bd 3524 f53d eb39 6f3d
00000120: f27d 1d3d 78b5 ebbd 0fb5 e625 453e c5bc
00000130: 4d05 893c 8d4d 1fbd fbd8 fc3c 4efc f4bd
00000140: c1ce c1bd e4b1 03be d195 acbc c05a d63d
00000150: 95d1 f0bd 69f1 8dbc d29e a23d 8d0e 213e
00000160: d4ea 3db9 a9bb 85bb 468e 9220 a41e 0bae
00000170: 9c15 1ebe ecc6 e7bd bc2a 3ebe b35c 97bd
00000180: 3260 ee3c afb2 912b 9fd5 7fbd 6da1 b73b
00000190: b641 49be 313f fdbd 98cd a7bd ff68 473d
000001a0: 45af b43d 0315 cf3d 4ade abbd 0aaf 67bd
000001b0: 6f15 243e 7224 23bd 035c 4f3d 6e77 b037
000001c0: e553 653c d92f a42f 742d f232 767f 9d3d
000001d0: 657f 1c3e 7e4e 573d b516 1b3c 4b6d a8bd
000001e0: cb65 aab3 ab6e d33d 4964 09bc 016a 493e
000001f0: 7e58 f53c c06c 5bbd ee7e 92bd 7406 52bd
00000200: d9cc 083e 4223 613d ff07 2c3e 48dc 34bd
00000210: e0a8 67bc 0b09 f8bd e177 a034 abce 1ebb
00000220: 4e60 6221 a212 c128 fd49 003e 5c4e 373e
00000230: f91a 193d ac21 8e3d a247 57bc ce16 6d1a
00000240: f092 41be c78b 5bbd 318d fa3d e9b8 5dbe
00000250: c736 07be a98e 28be aa20 59bc 0c2b 49be
00000260: 55ef 6e3d 9e8e 933d 41ed 36bd 3044 c13d
00000270: 5319 173e 8222 9934 5beb 833a c429 671d
00000280: de61 4121 941d 6d3e 3b2e 4e3e 7232 843d
00000290: dc93 393d 1fa1 43bd 0b0e 2c28 1ea8 5f3c
000002a0: b44c 26bc 3980 eebd c01b 2cbe 01d0 20be
000002b0: 9b3a d93d 1965 3dbd 4792 51bd 1d2c 22bd
000002c0: 9fc3 2e3e eaa7 503a f6ad 45bc d1ed 4bbe
000002d0: c4f6 1eb5 7fcb 963b 1cc9 2a9d 003d bca0
000002e0: 9817 273e 79b7 d63d a625 febd ffa2 2fbe
000002f0: 97ea 0b3c 14de 6b20 d8c1 9a3d 5734 44bd
00000300: 6e6a 2b3e 0ba0 98be d656 693e 174d 7a3d
00000310: 4519 b7bd 9823 a33d 56e1 283e 0769 723a
00000320: 9d61 d7bb 6e70 9e3d 2dc2 003e 849b 41b9
00000330: 13fd 773b bb61 4a2a 46f0 629b 0cd0 9fbd
00000340: 1e41 733c 26fc eabd f991 863c 2bd5 e5bd
00000350: 8fcd 3db4 3178 34bd 9fae 36bc 1f1e 9a3d
00000360: cb49 44be 46e0 1b3c e83e 7e3d 23fb 8b3d
00000370: 1e35 123e 3af5 82bc ef63 00be 8f66 e53d
00000380: 5b09 8f3c 9dc3 ca3d 7dd0 4bb9 d06d dabc
00000390: f47e 029e 71fb 549a df77 113e 2a9a fe3c
000003a0: cfd8 033e 6716 103e 4df3 873c 5bcc b71b
000003b0: 0323 d43d 393c 543e ea72 563e c351 06be
000003c0: 4cda e83c 818c 65be 8db3 253e 6bff 42be
000003d0: 1ba5 6f3d 3fd7 70bd 8b7a 43bd a8f5 0d3e
000003e0: d738 c83d 1f9d 2eb7 9564 b43c 4e20 8c34
000003f0: 0148 5e1a 7549 d5bc c687 203e f088 043e

shared.0.bias f4 [512]
0.060123384 0.0048320773 -0.08122127 0.15617217 0.11354983 -0.10467429 -0.0895218 0.042043407
-0.01028141 0.17498125 -0.079634726 -0.20854473 -0.15991832 0.059247952 0.16188635 -0.008948431
-0.06595158 0.12254334 0.086127356 -3.52708e-05 0.06478795 -0.04737252 0.017232122 -0.16053636
0.037492204 0.033685192 -0.02874901 0.03253998 0.016507095 0.111072384 0.028995695 -0.16643259
-0.10872009 -0.025697183 0.109453775 -0.04930853 0.06953518 -0.03773785 -0.11464779 -0.06497931
0.097256266 -0.1357718 -0.06915349 0.04539958 0.0010875204 -0.019346248 0.095962286 -0.09065452
-0.11566192 -0.13197972 0.028088577 -0.084934875 0.07900779 0.08053831 -0.0965407 0.012140325
-0.08324539 0.13984284 0.065846846 0.0593899 0.0114239855 -0.04312256 0.16709428 0.12499773
0.08860486 0.0030224961 0.13376163 -0.13685237 0.22351669 0.09388439 -0.117076926 -0.08503802
0.1257615 -0.12431438 -0.18239842 -0.03204293 -0.026990563 0.028412297 -0.0769834 -0.08106583
0.01167277 0.017433044 -0.06442124 0.07106046 0.02513202 -0.044576615 -0.026800603 0.15055998
-0.09281047 0.0610111 -0.09825625 0.00047004074 0.14075159 0.050026182 0.038892776 -0.07940477
0.040650897 0.124621585 -0.09782176 -0.09936005 0.03025883 -0.13015978 0.16546467 0.025814144
0.09229198 -0.047216527 -0.07590607 -0.09023292 -0.1159143 -0.104422666 -0.11699878 0.023364646
-0.2056404 0.030148825 0.13453774 -0.11562382 0.09125896 -0.10187197 0.022254797 -0.12748836
0.06878906 -0.14115651 -0.029051691 0.14341839 0.13612391 0.018933507 -0.0328733 0.0727373
-0.06526001 0.07506798 -0.053326283 0.070573814 -0.044441834 -0.20675154 0.11259509 -0.17038518
-0.019693369 0.17509902 0.018034935 -0.11101882 0.11321349 -0.103255495 -0.030747961 0.05685614
0.086745456 0.011368543 0.016197162 -0.037668142 0.09915584 -0.070153534 -0.048313536 -0.02592591
-0.02834008 0.10187118 -0.15524356 0.049313497 0.01339072 0.15443292 0.17496696 -0.052533593
0.110767044 -0.011513 0.0040628784 0.051169667 0.051816702 0.04857451 0.0068587144 0.16671604
-0.052376576 0.012473016 -0.042654544 0.1920337 -0.054386795 0.049130145 -0.11980215 -0.073029876
0.1470087 0.09951315 -0.02206419 -0.06031751 0.0672403 -0.015621756 0.087538995 -0.102465965
-0.03314504 -0.002841213 -0.009187916 -0.02523386 -0.12492888 0.012084128 0.01068692 -0.046036255
-0.14887585 -0.027365843 0.14511338 0.052131448 0.011372197 0.018748617 0.09555889 0.04456523
-0.06872065 -0.0037402224 -0.1864098 -0.053318582 0.10213322 -0.082452685 0.08946303 0.11715088
-0.07692031 0.18444264 0.13542576 -0.043145675 0.090453506 0.17653747 0.007728418 -0.104397826
0.1595611 -0.013545471 0.116365485 -0.028084133 0.02344262 -0.17856538 0.026057886 0.17031819
0.057691984 0.008736728 0.18520102 0.09001025 0.090873376 -0.022973776 0.13727203 0.08163783
0.015400131 -0.027919693 0.0678689 0.040115003 -0.066650815 0.09346347 -0.2001087 0.0377595
0.06924182 0.06673989 0.09455192 0.048544805 0.05226217 0.13218473 0.08305467 0.021176986
-0.081705704 -0.07079551 -0.013365822 0.16168737 0.114991285 0.07528511 0.049893286 0.14634183
00000000: f043 763d 6756 9e3b 5657 a6bd 99eb 1f3e
00000010: d08c e83d 795f d6bd 3557 b7bd b535 2c3d
00000020: 5c73 28bc 492e 333e 8817 a3bd c08c 55be
00000030: a1c1 23be fbad 723d 89c5 253e 719c 12bc
00000040: 9f11 87bd 01f8 fa3d 8a63 b03d bcef 13b8
00000050: 8baf 843d b009 42bd 612a 8d3c a563 24be
00000060: 6d91 193d 7cf9 093d 0b83 ebbc a448 053d
00000070: e339 873c eb79 e33d 6188 ed3c 4e6d 2abe
00000080: a3a8 debd e682 d2bc 4d29 e03d bef7 49bd
00000090: 7668 8e3d 0193 1abd 76cc eabd df13 85bd
000000a0: 4b2e c73d c307 0bbe 58a0 8dbd e9f4 393d
000000b0: 218b 8e3a 067c 9ebc e087 c43d 14a9 b9bd
000000c0: 28e0 ecbd b125 07be 041a e63c 56f2 adbd
000000d0: d6ce a13d 45f1 a43d 21b7 c5bd 37e8 463c
000000e0: 8f7c aabd f632 0f3e b6da 863d d342 733d
000000f0: ab2b 3b3c 48a1 30bd c31a 2b3e cffe ff3d
00000100: 7776 b53d 1215 463b cff8 083e 0723 0cbe
00000110: 8fe1 643e 7646 c03d 07c6 efbd 6a28 aebd
00000120: 9fc7 003e 8a98 febd a7c6 3abe 733f 03bd
00000130: 501b ddbc e8c0 e83c 79a9 9dbd d805 a6bd
00000140: 253f 3f3c becf 8e3c 48ef 83bd 2588 913d
00000150: aae1 cd3c f895 36bd f08c dbbc 652c 1a3e
00000160: 6a13 bebd c6e6 793d 933a c9bd cd6f f639
00000170: 2f21 103e 41e8 4c3d 084e 1f3d f89e a2bd
00000180: 8e81 263d 9a39 ff3d c656 c8bd 487d cbbd
00000190: 5ee1 f73c 9b48 05be 926f 293e 2f78 d33c
000001a0: 9403 bd3d 1e66 41bd a474 9bbd 0acc b8bd
000001b0: 7a64 edbd 8ddb d5bd 0e9d efbd 3767 bf3c
000001c0: 6693 52be abfa f63c 43c4 093e 2ecc ecbd
000001d0: fae5 ba3d 40a2 d0bd b14f b63c 4f8c 02be
000001e0: 47e1 8c3d 558b 10be d0fd edbc 45dc 123e
000001f0: 1164 0b3e 711a 9b3c 27a6 06bd 4bf7 943d
00000200: 0aa7 85bd 3ebd 993d a96c 5abd 0189 903d
00000210: a408 36bd adb6 53be 4198 e63d 7479 2ebe
00000220: fd53 a1bc 284d 333e 00be 933c d65d e3bd
00000230: 79dc e73d 9e77 d3bd 26e3 fbbc fce1 683d
00000240: 9aa7 b13d 2043 3a3c e9af 843c e949 1abd
00000250: 3812 cb3d a8ac 8fbd 6ae4 45bd 9362 d4bc
00000260: 7529 e8bc d6a1 d03d 2bf8 1ebe f3fc 493d
00000270: c064 5b3c aa23 1e3e 8a2a 333e 772d 57bd
00000280: d5d9 e23d 06a1 3cbc e521 853b 4997 513d
00000290: c03d 543d 11f6 463d 11bf e03b 9cb7 2a3e
000002a0: d288 56bd 9f5b 4c3c 88b6 2ebd 7ba4 443e
000002b0: b0c4 5ebd b13c 493d d45a f5bd b090 95bd
000002c0: 7389 163e 8dcd cb3d f6bf b4bc 7e0f 77bd
000002d0: 48b5 893d 65f2 7fbc a547 b33d add9 d1bd
000002e0: 18c3 07bd a533 3abb ea88 16bc 3db7 cebc
000002f0: b6da ffbd 82fc 453c 3118 2f3c 8390 3cbd
00000300: e972 18be 552e e0bc 9a98 143e c987 553d
00000310: 7452 3a3c b396 993c 61b4 c33d 088a 363d
00000320: 6abd 8cbd 851e 75bb 36e2 3ebe 9664 5abd
00000330: 392b d13d f4dc a8bd 6538 b73d cdec ef3d
00000340: 6588 9dbd 88de 3c3e 0dad 0a3e 85b9 30bd
00000350: b03f b93d 3dc6 343e ab3e fd3b 87ce d5bd
00000360: fc63 233e d3ed 5dbc 0751 ee3d b210 e6bc
00000370: bd0a c03c d8d9 36be 5977 d53c e467 2e3e
00000380: 6e4e 6c3d 7e24 0f3c 56a5 3d3e 4b57 b83d
00000390: d21b ba3d 8033 bcbc 0a91 0c3e bc31 a73d
000003a0: d550 7c3c d7b7 e4bc dafe 8a3d a14f 243d
000003b0: 3980 88bd c769 bf3d 4ce9 4cbe b5a9 1a3d
000003c0: a8ce 8d3d ecae 883d 70a4 c13d ebd6 463d
000003d0: db10 563d 6f5b 073e 9118 aa3d 5c7b ad3c
000003e0: 5255 a7bd 3dfd 90bd 52fc 5abc 6091 253e
000003f0: 8d80 eb3d 142f 9a3d e75c 4c3d a2da 153e

shared.1.weight f4 [512]
0.90411896 0.84239304 0.9072878 0.7486349 0.8563487 0.8058484 0.95190984 0.87826973
0.9283589 0.88857836 0.913509 0.9213357 0.9422674 0.8411928 0.93699193 0.7794593
0.95876926 0.9069517 0.88301396 0.86322105 0.7404328 0.8831221 0.685315 0.87621194
0.782165 0.70015883 0.9076146 0.8868582 0.8671011 0.63953644 0.889043 0.924897
0.9251131 0.8522603 0.76401466 0.8829457 0.9110138 0.929108 0.76282877 0.95126915
0.9202582 0.90926933 0.9187563 0.9807578 0.82441634 0.92029434 0.873453 0.7805758
0.9192724 0.91396326 0.7529095 0.9069786 0.94309103 0.90567446 0.9749665 0.9571672
0.93222004 0.97959507 0.9509424 0.86480683 0.9149458 0.905775 0.94249636 0.6891572
0.90642864 0.877486 0.90448606 1.0008028 0.8784704 0.862371 0.9479244 0.9251413
0.8944672 0.8693929 0.9541011 0.75776947 0.9494544 0.9354798 0.8705003 0.78147364
0.9101626 0.81540895 0.9057962 0.8916446 0.86456096 0.83122337 0.7149899 0.8975872
0.90029913 0.89003986 0.9265115 0.9209219 0.8691838 0.94507146 0.70468074 0.91610533
0.83725035 0.9258653 0.9030994 0.8840573 0.8823766 0.8773344 0.9062653 0.8159642
0.9235208 0.88061845 0.7181969 0.8434978 0.9385638 0.9322631 0.79906964 0.7412384
0.94740945 0.8883956 0.5342998 0.90228057 0.9870924 0.92099285 0.7027244 0.86199903
0.97827554 0.9307744 0.884485 0.9738898 0.8053682 0.88092685 0.8347797 0.9565154
0.90466094 0.85762125 0.88238746 0.9355043 0.9032004 0.94019115 0.8882285 0.9140042
1.0115863 0.9148189 0.8705656 0.7026131 0.94585586 0.8730336 0.70536447 0.8870824
0.6449156 0.95493597 0.51835316 0.8131868 0.9189906 0.8690841 0.8226253 0.9482046
0.8850036 0.9139941 0.96014684 0.893829 0.88720936 0.9390991 0.8874038 0.9415939
0.83848166 0.6353987 0.83916885 0.7065009 0.8991284 0.4737254 0.7299755 0.8718173
0.95905805 0.8615302 0.8806784 0.93189067 0.85759 0.78995717 0.8525374 0.91697234
0.9696634 0.91916156 0.9603621 0.96978205 0.7781972 0.97983146 0.8952048 0.89927423
0.8870961 0.83324057 0.8543979 0.7195487 0.9538332 0.73842627 0.86942774 0.79816365
0.87033856 0.801783 0.86935586 0.6981562 0.8100983 0.85132325 0.82843685 0.6524685
0.7215581 0.6624186 0.9145752 0.87759745 0.93990964 0.9214141 0.90535754 0.86125743
0.8904448 0.96560675 0.87113434 0.7328897 0.90993947 0.85561824 0.7604076 0.9480508
0.9730514 0.79267925 0.7786622 0.92956066 0.81374353 0.95393264 0.90143543 0.8708477
0.83661854 0.5677129 0.9404604 0.9038734 0.9049113 0.7991191 0.9506281 0.8606104
0.65504426 0.6101273 0.8481285 0.8832524 0.9005734 0.9421401 0.86363196 0.90876824
0.67372596 0.7794715 0.908646 0.7835492 0.96148497 0.90066427 0.8187396 0.96880364
0.883011 0.94259185 0.8944873 0.8881241 0.67127573 0.6348444 0.93683827 0.9959808
00000000: 5774 673f 12a7 573f 0344 683f 89a6 3f3f
00000010: ab39 5b3f 154c 4e3f 5db0 733f 49d6 603f
00000020: eea8 6d3f df79 633f badb 693f a8dc 6b3f
00000030: 7038 713f 6958 573f b4de 6f3f a58a 473f
00000040: e771 753f fd2d 683f 340d 623f 0efc 5c3f
00000050: 018d 3d3f 4a14 623f ce70 2f3f 6d4f 603f
00000060: f73b 483f 9c3d 333f 6e59 683f 2409 633f
00000070: 56fa 5d3f a9b8 233f 5298 633f 0dc6 6c3f
00000080: 36d4 6c3f bb2d 5a3f 7796 433f bb08 623f
00000090: 3338 693f 06da 6d3f bf48 433f 6086 733f
000000a0: 0b96 6b3f e0c5 683f 9d33 6b3f f112 7b3f
000000b0: f30c 533f 6998 6b3f 9e9a 5f3f d1d3 473f
000000c0: 7055 6b3f 7ff9 693f adbe 403f c02f 683f
000000d0: 6a6e 713f 48da 673f 6897 793f e908 753f
000000e0: f9a5 6e3f bec6 7a3f f670 733f fb63 5d3f
000000f0: e339 6a3f dfe0 673f 7147 713f 9b6c 303f
00000100: b50b 683f eca2 603f 668c 673f 4e1a 803f
00000110: 70e3 603f 59c4 5c3f 2cab 723f 0fd6 6c3f
00000120: cdfb 643f 8890 5e3f f83f 743f 2efd 413f
00000130: 720f 733f 9b7b 6f3f 1cd9 5e3f a80e 483f
00000140: 6b00 693f a4be 503f 42e2 673f d242 643f
00000150: de53 5d3f 0ecb 543f 9409 373f 46c8 653f
00000160: 017a 663f a7d9 633f dc2f 6d3f 8ac1 6b3f
00000170: d482 5e3f 34f0 713f f565 343f e185 6a3f
00000180: 0a56 563f 8205 6d3f 8631 673f 9451 623f
00000190: 6fe3 613f fd98 603f 0101 683f 08e3 503f
000001a0: dc6b 6c3f 3670 613f c1db 373f 79ef 573f
000001b0: b845 703f cba8 6e3f d48f 4c3f cdc1 3d3f
000001c0: 6d89 723f e56d 633f dfc7 083f dcfb 663f
000001d0: 16b2 7c3f 30c6 6b3f bfe5 333f f8ab 5c3f
000001e0: 4470 7a3f 3b47 6e3f 9c6d 623f d850 793f
000001f0: 9c2c 4e3f 6c84 613f 1fb4 553f 31de 743f
00000200: dc97 673f 118d 5b3f 25e4 613f 367d 6f3f
00000210: 2438 673f 5eb0 703f f162 633f 2efc 693f
00000220: a97b 813f 9231 6a3f 63dd 5e3f 74de 333f
00000230: 9c23 723f 217f 5f3f c492 343f d517 633f
00000240: 3019 253f af76 743f cbb2 043f 032d 503f
00000250: f842 6b3f 4c7c 5e3f 9297 523f 89bd 723f
00000260: 998f 623f 84fb 693f 2fcc 753f fad1 643f
00000270: 2720 633f cc68 703f e52c 633f 4c0c 713f
00000280: bca6 563f 7da9 223f c5d3 563f 3edd 343f
00000290: 472d 663f 238c f23e addf 3a3f 6b2f 5f3f
000002a0: d484 753f 3e8d 5c3f 2474 613f 6390 6e3f
000002b0: 058b 5b3f a23a 4a3f e43f 5a3f b3be 6a3f
000002c0: dc3b 783f 2c4e 6b3f 4ada 753f a343 783f
000002d0: ef37 473f 3cd6 7a3f 242c 653f d636 663f
000002e0: bb18 633f 414f 553f d2b9 5a3f 5834 383f
000002f0: 6a2e 743f 8109 3d3f d192 5e3f 7454 4c3f
00000300: 82ce 5e3f a741 4d3f 1b8e 5e3f 5dba 323f
00000310: 9a62 4f3f 52f0 593f 7014 543f 2d08 273f
00000320: 08b8 383f 4494 293f 9a21 6a3f 3aaa 603f
00000330: eb9d 703f cbe1 6b3f 83c5 673f 5e7b 5c3f
00000340: 31f4 633f 0132 773f a902 5f3f a99e 3b3f
00000350: cbf1 683f cc09 5b3f 13aa 423f 75b3 723f
00000360: e619 793f 07ed 4a3f 6856 473f b0f7 6d3f
00000370: 7f51 503f ee34 743f 79c4 663f e0ef 5e3f
00000380: a22c 563f a255 113f 03c2 703f 3f64 673f
00000390: 44a8 673f 1293 4c3f 5d5c 733f f750 5c3f
000003a0: fbb0 273f 4d31 1c3f f31e 593f d41c 623f
000003b0: fa8b 663f 1830 713f fc16 5d3f 09a5 683f
000003c0: 4e79 2c3f 728b 473f 069d 683f ae96 483f
000003d0: e123 763f ef91 663f eb98 513f 8403 783f
000003e0: 020d 623f b34d 713f 1ffd 643f 1a5c 633f
000003f0: bad8 2b3f 2a85 223f a2d4 6f3f 99f8 7e3f

shared.1.bias f4 [512]
-0.0020702346 -0.05537248 -0.0023340974 -0.019499369 -0.025997257 -0.034340024 -0.030629078 0.031099683
-0.029395431 -0.022191219 -0.01457932 -0.041276217 -0.025891108 -0.0660531 -0.02551081 -0.04410182
-0.0030694746 -0.010352789 -9.060284e-06 -0.052597705 0.0044976547 -0.017232966 -0.006456627 -0.0268051
0.039474152 -0.06749398 -0.010002457 -0.0538503 -0.027205395 -0.021444794 -0.0068524345 -0.026441509
-0.03619082 -0.062102623 -0.019661555 -0.035214927 -0.03343731 -0.012166752 -0.03955265 -0.030542836
-0.03935959 -0.04455327 -0.0166073 -0.0028759078 -0.031401724 -0.061399527 -0.038060997 -0.07897044
-0.04457159 -0.019977227 0.003852358 -0.009131039 -0.033619665 -0.006060715 0.009202939 -0.03317325
-0.017036002 0.016033411 0.019414121 -0.037447147 0.016505005 -0.067983754 -0.04363153 -0.022654826
-0.042928606 -0.050369356 -0.028560737 -0.02248057 0.00061886245 -0.04275252 -0.027769668 -0.019571414
-0.021515433 -0.039545175 -0.011825026 -0.07160572 -0.013106542 -0.004100005 -0.05711682 0.008277126
0.00023953339 -0.02832842 -0.0056458884 -0.021339491 -0.05570111 0.027496679 -0.06466525 0.003978995
-0.021195287 -0.03830017 -0.02113019 -0.023056438 0.02120002 -0.026693733 -0.019854313 -0.026705863
-0.03390192 0.0015885222 -0.06262267 0.020494018 -0.07422054 -0.002978439 -0.00030480983 -0.03099393
-0.037236735 0.0069329613 0.017273532 -0.005566646 -0.01658362 -0.040139664 0.011307268 -0.009531322
-0.045492474 -0.008320583 -0.056981318 -0.0427469 -0.001421629 -0.013096482 -0.020045485 -0.022299519
0.032757588 -0.021039475 -0.029220168 0.01775496 0.051628705 -0.050277416 -0.0011848216 0.035399847
0.015322363 -0.021015855 -0.030178199 0.0033753752 0.004222998 -0.06745412 -0.033742115 -0.042391904
-0.00026859992 -0.0045002997 -0.07446304 -0.016602436 0.013826804 -0.009980341 -0.001033934 -0.024732832
-0.021325149 0.012522474 -0.029851675 -0.034100868 -0.028422918 0.011928797 -0.04233754 -0.035610113
-0.0059801117 -0.030256867 -0.04266706 -0.016244045 -0.036888383 0.00076942745 0.024562685 -0.0420221
0.0256244 -0.042922866 -0.01623998 -0.012013002 -0.07848409 -0.09848108 -0.021579713 0.018135611
-0.013804202 -0.057377927 -0.06607152 -0.014713107 -0.017820384 -0.010269712 -0.049015794 -0.0027424435
0.026594665 -0.067535564 0.0031207595 0.022213027 -0.007521322 -0.010423015 -0.035828553 0.020092526
-0.07245987 -0.016268166 -0.029427033 -0.032422684 -0.014205312 -0.043745898 -0.020873198 0.0030378092
0.0036462229 -0.0038769518 -0.0061874352 -0.0029554467 -0.031572357 -0.018961249 -0.032630555 -0.026451528
0.010749351 -0.014273362 -0.04297744 -0.073923595 0.018267754 -0.048986457 0.014848777 -0.036147084
-0.008592915 0.0032444682 -0.025981762 -0.01713293 -0.02293241 -0.008972171 -0.00648107 0.0051652594
0.006837776 -0.019602118 -0.020714913 -0.012053841 -0.027854823 0.0040887184 -0.060113993 -0.017821746
-0.009521868 -0.019437328 -0.0016543319 -0.045680285 -0.01597358 -0.043849796 -0.028934322 0.004747712
-0.015061961 -0.035170984 -0.0446187 -0.020745225 -0.039269533 -0.003588721 -0.05190794 -0.015929809
-0.013156116 -0.030520031 -0.043359485 -0.022712965 0.00020774727 -0.033592034 0.0022433214 -0.012359124
-0.005665068 -0.011191123 -0.06870376 -0.02911534 -0.025038045 0.01235917 -0.034897983 0.004583338
00000000: c6ac 07bb 41ce 62bd a8f7 18bb 24bd 9fbc
00000010: 33f8 d4bc 20a8 0cbd d5e9 fabc c3c4 fe3c
00000020: b0ce f0bc 5cca b5bc 1ade 6ebc 4011 29bd
00000030: 9719 d4bc d946 87bd 0cfc d0bc 1ca4 34bd
00000040: 3d29 49bb bf9e 29bc a001 18b7 b170 57bd
00000050: 1061 933b 262c 8dbc 1d92 d3bb 5e96 dbbc
00000060: a6af 213d 493a 8abd 58e1 23bc 2292 5cbd
00000070: d9dd debc feac afbc 638a e0bb dd9b d8bc
00000080: d33c 14bd 525f 7ebd 4511 a1bc 873d 10bd
00000090: 90f5 08bd 0e57 47bc f601 22bd f834 fabc
000000a0: 8537 21bd 7d7d 36bd 080c 88bc ba79 3cbb
000000b0: 189f 00bd 127e 7bbd d9e5 1bbd 41bb a1bd
000000c0: b390 36bd 48a7 a3bc d877 7c3b 5a9a 15bc
000000d0: c6b4 09bd f698 c6bb edc7 163c ace0 07bd
000000e0: 168f 8bbc 8058 833c 5d0a 9f3c 2e62 19bd
000000f0: 8135 873c 113b 8bbd fab6 32bd 9d96 b9bc
00000100: e8d5 2fbd 1950 4ebd 35f8 e9bc 2c29 b8bc
00000110: 283b 223a 441d 2fbd 377d e3bc 3b54 a0bc
00000120: 2241 b0bc 1ffa 21bd c1bd 41bc 05a6 92bd
00000130: d2bc 56bc 5659 86bb 54f3 69bd c89c 073c
00000140: 412b 7b39 0111 e8bc 2501 b9bb 28d0 aebc
00000150: d926 64bd b740 e13c 376f 84bd 3b62 823b
00000160: bda1 adbc a4e0 1cbd 3819 adbc dbe0 bcbc
00000170: aaab ad3c d1ac dabc 83a5 a2bc 41c6 dabc
00000180: bddc 0abd f635 d03a 5040 80bd 12e3 a73c
00000190: f000 98bd ea31 43bb e2ce 9fb9 fbe6 fdbc
000001a0: 8c85 18bd e52d e33b 3981 8d3c 6968 b6bb
000001b0: 5fda 87bc 7d69 24bd 1f42 393c 4329 1cbc
000001c0: 5156 3abd 0e53 08bc 3e65 69bd 6017 2fbd
000001d0: f455 baba a092 56bc 6e36 a4bc 7bad b6bc
000001e0: d22c 063d fa5a acbc 225f efbc da72 913c
000001f0: 9f78 533d b1ef 4dbd 044c 9bba 6eff 103d
00000200: a60a 7b3c 7129 acbc 4538 f7bc 6635 5d3b
00000210: 1361 8a3b 6325 8abd 2c35 0abd 22a3 2dbd
00000220: dfd2 8cb9 4077 93bb 1480 98bd d501 88bc
00000230: d289 623c 9684 23bc 1185 87ba 829c cabc
00000240: 14b2 aebc 102b 4d3c 808b f4bc 5aad 0bbd
00000250: 2ed7 e8bc 0071 433c 216a 2dbd e9db 11bd
00000260: d0f4 c3bb 40dd f7bc a8c3 2ebd 3b12 85bc
00000270: 4618 17bd 67b3 493a af37 c93c 5e1f 2cbd
00000280: 43ea d13c e3cf 2fbd b509 85bc 2fd2 44bc
00000290: 44bc a0bd 73b0 c9bd f0c7 b0bc 2291 943c
000002a0: 052b 62bc 1e05 6bbd 8150 87bd 3e0f 71bc
000002b0: 0efc 91bc 4b42 28bc c9c4 48bd 91ba 33bb
000002c0: 0edd d93c 1650 8abd a885 4c3b 18f8 b53c
000002d0: 6c75 f6bb 4bc5 2abc f6c0 12bd 1599 a43c
000002e0: d765 94bd d144 85bc f610 f1bc a6cd 04bd
000002f0: 66bd 68bc e62e 33bd 45fe aabc fb15 473b
00000300: 78f5 6e3b 7514 7ebb f8bf cabb 2bb0 41bb
00000310: 0452 01bd 9f54 9bbc 9ea7 05bd e0b0 d8bc
00000320: 0c1e 303c d2da 69bc 1d09 30bd 4165 97bd
00000330: 42a6 953c 06a6 48bd 4948 733c f70e 14bd
00000340: 4cc9 0cbc 25a1 543b b4d7 d4bc 5c5a 8cbc
00000350: c0dc bbbc 0300 13bc 285f d4bb 5641 a93b
00000360: 6c0f e03b 9f94 a0bc 52b2 a9bc 797d 45bc
00000370: cc2f e4bc a8fa 853b 173a 76bd e9fe 91bc
00000380: 9c01 1cbc 083b 9fbc 2bd6 d8ba 401b 3bbd
00000390: 06db 82bc d89b 33bd ac07 edbc b292 9b3b
000003a0: 71c6 76bc 730f 10bd 19c2 36bd e4f1 a9bc
000003b0: 17d9 20bd bf30 6bbb 6c9d 54bd 3b7f 82bc
000003c0: c08c 57bc 2505 fabc b799 31bd 8a10 babc
000003d0: bcd6 5939 cd97 09bd b004 133b ec7d 4abc
000003e0: 09a2 b9bb f95a 37bc 8fb4 8cbd 4b83 eebc
000003f0: 961c cdbc 1e7e 4a3c 30f1 0ebd d32f 963b

shared.3.weight f4 [256, 512]
-0.03224592 -0.031821374 -0.029162794 -0.02032978 -0.0026523527 0.0168752 -0.019676972 0.018843008
0.035543572 -0.027333206 0.04234795 -0.02705492 0.056641262 0.028244155 -0.0028856052 -0.012605938
0.05434674 0.027234161 -0.0011517153 -0.021129685 0.05476601 -0.015949884 4.559919e-05 -0.025243612
-0.013427257 -0.026208322 0.009599338 0.02041547 -0.011988696 0.04713309 0.024178807 -0.011668196
0.040599402 0.0270646 0.005171509 0.043850284 -0.035170585 -0.029298747 0.00848157 -0.03531423
0.027379638 0.0017760997 -0.009953262 -0.017836602 -0.024784235 0.001593765 -0.0048782183 0.038226385
-0.019761283 0.03557618 0.001956293 -0.022699328 -0.02709766 0.038711388 -0.058432627 0.018279819
0.023363931 -0.0076078833 0.0013472235 0.0015611539 -0.015260934 -0.03474394 0.010097845 0.053318407
0.037774906 0.012124808 0.016391244 -0.002120216 0.0027234538 0.005938817 0.0309934 -0.029691605
0.0066380403 -0.02747001 -0.0025737414 0.0071876515 0.07707048 -0.013620208 -0.034633894 0.039666485
0.11273541 0.01332263 0.056364924 -0.028376577 -0.015615575 0.062040024 0.025059044 0.0069377027
0.005709575 -0.006158002 -0.013503978 -0.009422177 0.0025589522 0.020646596 0.01219118 0.021206615
0.003503945 0.0049778884 -0.02734257 0.04627415 -0.0008315785 -0.005204034 0.00019370126 0.0059245937
-0.047748666 -0.02173367 0.028472072 0.0001810326 -0.054872036 -0.015364608 0.023439718 0.0132160075
0.04078236 0.023824751 0.002851286 0.00542617 -0.037328362 0.039471623 0.02258097 -0.03175394
0.018490335 -0.003889112 -0.000685716 -0.007311298 0.03484743 -0.025315853 -0.0053599724 0.03463311
-0.0101643745 -0.0074367193 0.03771977 0.0050949804 -0.007678061 -0.0076695816 -0.006681514 0.014175878
0.054871876 -0.018812822 -0.029667664 0.02150173 0.019079098 -0.00856776 0.0067167887 0.022477606
0.049155623 0.02313962 0.010642713 0.0035299514 -0.0493403 -0.03028245 -0.017461456 -0.0316116
-0.012420876 0.0075933253 0.024829943 0.02244277 0.019221602 -0.024680829 -0.027828733 -0.02840582
0.007004936 0.06475178 -0.027030949 0.0029987602 0.0052394373 -0.02410367 0.036673658 -0.003372226
0.03434042 0.033028558 -0.038517382 0.005127083 0.028989684 0.0036295566 -0.005578656 -0.0073335436
0.031289775 0.03168099 -0.0172151 0.0076450445 0.011663489 0.045382574 0.04563291 0.025653046
0.004324232 -0.020735288 0.027484303 0.00818565 0.007264632 0.0144497445 -0.016879 -0.016844243
0.01424788 0.012987744 0.03519341 0.0056816693 0.0075223334 -0.033333637 -0.031043239 0.021139076
0.011529908 0.011717755 0.021131512 -0.006493332 0.04948781 0.028893886 0.046493243 0.0028728028
0.012566946 -0.014009234 0.042997744 0.037024595 0.014695715 -0.010885299 -0.0041042157 0.0018006428
0.027144708 -0.010741376 0.0030202782 0.0053099063 -0.024190547 0.0141075505 0.013963373 0.022942252
-0.016153045 0.011556497 0.015873184 -0.023898354 0.07266388 0.025741238 -0.007324318 0.015665784
0.026644917 -0.01635904 -0.01155207 -0.013511816 -0.06836668 0.005712007 -0.043440025 0.013666448
-0.004936151 0.025741655 -0.03670696 -0.0068728956 -0.0029574612 -0.031933516 -0.006902452 -0.024943534
0.015177697 0.008403875 0.018218761 0.0077905594 0.05951302 0.037263844 -0.0124348765 -0.035759404
00000000: 4c14 04bd 2157 02bd d0e6 eebc a48a a6bc
00000010: 18d3 2dbb dc3d 8a3c 9a31 a1bc a75c 9a3c
00000020: 2396 113d e3e9 dfbc 0b75 2d3d 48a2 ddbc
00000030: ab00 683d 4960 e73c 6c1c 3dbb 2389 4ebc
00000040: b09a 5e3d 2d1a df3c 27f5 96ba 2918 adbc
00000050: 5352 603d 55a9 82bc c241 3f38 b1cb cebc
00000060: fffd 5bbc d6b2 d6bc 8b46 1d3c 583e a73c
00000070: 3c6c 44bc a10e 413d a212 c63c f62b 3fbc
00000080: 8f4b 263d 94b6 dd3c c375 a93b 5b9c 333d
00000090: 080f 10bd ed03 f0bc 48f6 0a3c a7a5 10bd
000000a0: 434b e03c 04cc e83a 0213 23bc 111e 92bc
000000b0: 4f08 cbbc e1e5 d03a 76d9 9fbb 4593 1c3d
000000c0: 6ae2 a1bc 54b8 113d 2635 003b f1f3 b9bc
000000d0: e9fb ddbc d58f 1e3d 0d57 6fbd 8fbf 953c
000000e0: b765 bf3c 8d4b f9bb 5295 b03a a29f cc3a
000000f0: ff08 7abc a94f 0ebd 6f71 253c 6764 5a3d
00000100: dcb9 1a3d 21a7 463c ee46 863c 52f3 0abb
00000110: f97b 323b 689a c23b dfe5 fd3c cf3b f3bc
00000120: eb83 d93b c908 e1bc 37ac 28bb 6486 eb3b
00000130: 21d7 9d3d 4b27 5fbc 45dc 0dbd 5379 223d
00000140: d3e1 e63d 2947 5a3c e8de 663d ff75 e8bc
00000150: 78d8 7fbc ae1d 7e3d a048 cd3c ab55 e33b
00000160: 6317 bb3b 11c9 c9bb ca3f 5dbc 7a5f 1abc
00000170: 18b4 273b 0d23 a93c 84bd 473c 7fb9 ad3c
00000180: 71a2 653b 8e1d a33b 86fd dfbc f789 3d3d
00000190: 4afe 59ba 9a86 aabb 491c 4b39 1823 c23b
000001a0: 1b94 43bd cf0a b2bc 433e e93c 92d3 3d39
000001b0: 80c1 60bd d6bb 7bbc a704 c03c f487 583c
000001c0: 670b 273d 202c c33c a4dc 3a3b 03ce b13b
000001d0: a0e5 18bd ffac 213d bafb b83c 6b10 02bd
000001e0: 0b79 973c 79e0 7ebb 9fc1 33ba 9d93 efbb
000001f0: 2ebc 0e3d 3163 cfbc b5a2 afbb 73db 0d3d
00000200: 7a88 26bc b9af f3bb 0c80 1a3d cbf3 a63b
00000210: 3e98 fbbb 1d51 fbbb 9af0 dabb f141 683c
00000220: 55c1 603d 591d 9abc 9a09 f3bc 6524 b03c
00000230: c54b 9c3c ca5f 0cbc 8218 dc3b f522 b83c
00000240: 6857 493d 4d8f bd3c c65e 2e3c c256 673b
00000250: 0e19 4abd e712 f8bc 540b 8fbc 2a7b 01bd
00000260: ee80 4bbc 6ed1 f83b 2a68 cb3c e6d9 b73c
00000270: 9f76 9d3c 732f cabc 15f9 e3bc 52b3 e8bc
00000280: aa89 e53b 959c 843d 0270 ddbc d986 443b
00000290: 96af ab3b 0f75 c5bc 1e37 163d 9000 5dbb
000002a0: 8aa8 0c3d f448 073d 67c4 1dbd 1701 a83b
000002b0: c67b ed3c dbdd 6d3b 29cd b6bb 394e f0bb
000002c0: b529 003d edc3 013d ae06 8dbc 4883 fa3b
000002d0: 3818 3f3c 14e3 393d 93e9 3a3d 5626 d23c
000002e0: 4ab2 8d3b 0ddd a9bc c326 e13c 1b1d 063c
000002f0: 260c ee3b 9fbe 6c3c d445 8abc f0fc 89bc
00000300: f16f 693c 8cca 543c f726 103d 4c2d ba3b
00000310: e87d f63b da88 08bd 644e febc db2b ad3c
00000320: f0e7 3c3c d4fb 3f3c fe1b ad3c 04c6 d4bb
00000330: bbb3 4a3d dfb2 ec3c b36f 3e3d a245 3c3b
00000340: 98e5 4d3c fc86 65bc 671e 303d 1aa7 173d
00000350: 4cc6 703c 4158 32bc a87c 86bb 8c03 ec3a
00000360: 945e de3c 99fc 2fbc dcef 453b b9fe ad3b
00000370: 412b c6bc 5b23 673c a2c6 643c 64f1 bb3c
00000380: 6453 84bc 7657 3d3c 7b08 823c 7bc6 c3bc
00000390: cdd0 943d 4adf d23c d500 f0bb 8855 803c
000003a0: 7146 da3c 6503 86bc e544 3dbc aa60 5dbc
000003b0: d403 8cbd ca2b bb3b 2bee 31bd 3de9 5f3c
000003c0: 70bf a1bb 2ae0 d23c 0a5a 16bd 0736 e1bb
000003d0: f7d1 41bb b8cc 02bd f72d e2bb 6256 ccbc
000003e0: e0ab 783c 68b0 093c 833f 953c f347 ff3b
000003f0: edc3 733d f9a1 183d a7bb 4bbc 7478 12bd

shared.3.bias f4 [256]
-0.01078755 -0.0048206793 0.0041751065 0.0073851645 -0.020102737 0.045123592 0.004404127 0.010497063
0.02757793 0.0057751723 0.04594399 -0.00084045075 0.022293177 -0.0048029968 -0.027897881 0.025203742
-0.03109248 -0.004505746 0.020576715 -0.031269956 0.037151407 0.01051011 0.009367599 0.013899693
0.03900779 0.032433417 0.024285853 0.01637257 0.036932625 -0.0370565 0.018450852 -0.03361566
0.016550686 0.007695131 0.017020596 -0.022002185 0.02667293 0.029844614 0.022052672 -0.011005723
-0.038157217 0.039765492 -0.0065658176 -0.012234062 0.019797778 0.035500355 0.037519306 0.006058284
0.020186411 -0.012603095 -0.020224502 0.038526356 -0.020795612 -0.014144009 -0.017332084 -0.020218939
0.009135976 -0.005519483 0.017078774 0.019916149 -0.029289296 -0.012703263 -0.035097077 -0.00087675825
0.026615849 -0.039870907 0.0047745993 0.014591492 0.001689859 -0.024125282 -0.0073730787 -0.014383782
-0.024426041 -0.011910013 -0.003707373 -0.0065694638 0.027535047 -0.041162178 -0.022143897 -0.00052889396
0.029262785 -3.319209e-05 0.02875042 0.037599776 0.029296497 -0.005542855 0.019376364 -0.010111565
-0.016730735 0.013044129 -0.0006915793 0.015276101 0.035266433 0.049150992 -0.03739796 -0.023707064
0.04185094 -0.01416157 0.0058996603 -0.0040910733 0.020842722 -0.038344875 0.030516792 -0.034979627
-0.035374578 0.027294751 0.0019204372 0.023600256 -0.0169095 0.014476307 -0.02514886 -0.008406493
-0.019726682 -0.023095552 0.024652421 0.008540675 -0.02729731 -0.020756872 0.014183195 0.025850255
-0.020081073 -0.013052474 0.011459968 0.032072645 0.0072048847 -0.027324952 0.015823588 0.011546276
-0.03473617 0.0063706203 -0.0007277824 -0.005255709 0.008744133 0.036737442 -0.028098343 0.035156384
0.00056730653 0.007079839 0.00930849 -0.00016646649 -0.038054444 0.03924441 0.027446084 -0.0041664885
-0.020083964 0.011834472 0.02735585 0.032913893 0.023609204 0.026035829 -0.03547 -0.0052793673
-0.02043509 -0.022459282 -0.022619657 0.0054681418 -0.017050803 -0.034791093 -0.001062083 -0.0018995012
0.0071366183 0.03240053 -0.0334257 -0.022655828 0.0034737322 -0.033904564 0.010159814 0.04304718
0.019809488 0.012410121 0.022781525 -0.026520655 -0.031717364 0.03302018 0.028111065 0.040581863
0.015147575 -0.00027013547 0.027620628 -0.018564146 0.026714573 0.03001585 0.018652137 0.04378614
-0.045439932 -0.02077435 -0.03676591 -0.032952804 0.0029526157 0.03923111 -0.02693401 0.0024428556
-0.019883018 -0.023046171 0.026159378 0.03151607 0.006255678 -0.0205507 -0.004737064 0.032645434
-0.022051256 0.015225437 0.01896284 -0.03527602 -0.025539365 -0.013757214 0.027178453 0.008263101
-0.0007768519 -0.0012995271 -0.012378683 -0.02195047 -0.020184739 0.0013652005 0.03174175 0.020290006
-0.022931375 0.03895372 0.02012752 -0.00605027 -0.014725834 0.033520263 -0.037557352 0.017492164
-0.038572174 -0.0006539327 0.01989383 0.025109312 -0.0035930981 -0.009796197 0.014193543 0.014476659
0.020193957 -0.0008924635 -0.006920279 0.02865498 -0.001806722 0.004291129 0.028752498 0.013267487
0.03340476 0.006856745 0.0023540794 0.01949014 -0.014694637 -0.039547134 0.037945967 -0.022078486
0.04005327 -0.014457476 -0.039267886 -0.014296129 0.017201953 -0.03383279 0.037249465 -0.013841592
00000000: 44be 30bc caf6 9dbb 55cf 883b 40ff f13b
00000010: 7fae a4bc 84d3 383d 7f50 903b e0fb 2b3c
00000020: 1ceb e13c a83d bd3b c42f 3c3d b251 5cba
00000030: 2ea0 b63c 7562 9dbb 198a e4bc 1478 ce3c
00000040: a8b5 febc f0a4 93bb 8090 a83c ed14 00bd
00000050: 132c 183d 9932 2c3c 8f7a 193c 8abb 633c
00000060: a2c6 1f3d e7d8 043d 20f3 c63c c51f 863c
00000070: aa46 173d 8ec8 17bd 3e26 973c 93b0 09bd
00000080: 4e95 873c 7027 fc3b c76e 8b3c ed3d b4bc
00000090: 3081 da3c b17c f43c cea7 b43c 5951 34bc
000000a0: be4a 1cbd 24e1 223d 1226 d7bb 6071 48bc
000000b0: f32e a23c d268 113d d8ad 193d 9284 c63b
000000c0: f95d a53c 367d 4ebc dbad a5bc d0cd 1d3d
000000d0: 8f5b aabc 46bc 67bc 04fc 8dbc 30a2 a5bc
000000e0: 10af 153c c7dc b4bb c9e8 8b3c 3127 a33c
000000f0: 1bf0 efbc 5921 50bc f4c1 0fbd 40d6 65ba
00000100: 7b09 da3c ad4f 23bd 3e74 9c3b 2711 6f3c
00000110: 427e dd3a 62a2 c5bc de99 f1bb f4a9 6bbc
00000120: 1f19 c8bc 3722 43bc 66f7 72bb a844 d7bb
00000130: 2e91 e13c ac99 28bd 1e67 b5bc 79a5 0aba
00000140: 82b8 ef3c bc37 0bb8 0086 eb3c 3902 1a3d
00000150: 35ff ef3c d6a0 b5bb 2ebb 9e3c faaa 25bc
00000160: e50e 89bc 0bb7 553c 1a4b 35ba 9d48 7a3c
00000170: 8973 103d 8d52 493d 9a2e 19bd 5135 c2bc
00000180: e46b 2b3d ee05 68bc f051 c13b 690e 86bb
00000190: 5bbe aa3c 840f 1dbd 5afe f93c cc46 0fbd
000001a0: efe4 10bd 3e99 df3c 2eb7 fb3a 5355 c13c
000001b0: cb85 8abc 082e 6d3c fb04 cebc 63bb 09bc
000001c0: da99 a1bc e232 bdbc e0f3 c93c 30ee 0b3c
000001d0: 9c9e dfbc 510a aabc a260 683c eac3 d33c
000001e0: 1081 a4bc 0bda 55bc 97c2 3b3c 9b5e 033d
000001f0: f416 ec3b 94d8 dfbc 78a0 813c 972c 3d3c
00000200: 8447 0ebd a3c0 d03b a6c8 3eba 1538 acbb
00000210: 8d43 0f3c 007a 163d 7f2e e6bc 2400 103d
00000220: 4cb7 143a fefd e73b a382 183c 828d 2eb9
00000230: fade 1bbd bfbe 203d 9cd6 e03c 0a87 88bb
00000240: 2087 a4bc 60e5 413c 6019 e03c b8d0 063d
00000250: 1768 c13c 1749 d53c fe48 11bd 8bfe acbb
00000260: 7d67 a7bc 87fc b7bc dc4c b9bc 192e b33b
00000270: 20ae 8bbc 1b81 0ebd 9835 8bba aff8 f8ba
00000280: 4bda e93b 6bb6 043d 63e9 08bd b798 b9bc
00000290: 8ea7 633b 83df 0abd 5975 263c 3d52 303d
000002a0: 8247 a23c d253 4b3c 52a0 ba3c d841 d9bc
000002b0: 11ea 01bd 2b40 073d 2d49 e63c 2b39 263d
000002c0: 892d 783c f8a0 8db9 a844 e23c d613 98bc
000002d0: 85d8 da3c cde3 f53c 5ecc 983c 1859 333d
000002e0: 391f 3abd f82e aabc da97 16bd 85f9 06bd
000002f0: ac80 413b cdb0 203d b7a4 dcbc 5118 203b
00000300: b6e1 a2bc 53cb bcbc 314c d63c ff16 013d
00000310: 6efc cc3b f159 a8bc 5f39 9bbb 38b7 053d
00000320: d6a4 b4bc 1c74 793c f557 9b3c 977d 10bd
00000330: ee37 d1bc f065 61bc 59a5 de3c f561 073c
00000340: a6a5 4bba e554 aaba f6cf 4abc 79d1 b3bc
00000350: 775a a5bc 87f0 b23a a303 023d 3a37 a63c
00000360: 94da bbbc f08d 1f3d 78e2 a43c 5841 c6bb
00000370: a044 71bc 8b4c 093d bdd5 19bd ba4b 8f3c
00000380: dbfd 1dbd ae6c 2bba 63f8 a23c 0bb2 cd3c
00000390: 2f7a 6bbb 3a80 20bc 098c 683c 822f 6d3c
000003a0: cc6d a53c 36f4 69ba 82c3 e2bb d9bd ea3c
000003b0: 88cf ecba 999c 8c3b 5c8a eb3c e05f 593c
000003c0: 6ed3 083d 8cae e03b e646 1a3b c9a9 9f3c
000003d0: c6c1 70bc 2dfc 21bd 3b6d 1b3d f1dd b4bc
000003e0: e60e 243d 0ddf 6cbc 5dd7 20bd 503a 6abc
000003f0: 1ceb 8c3c 4094 0abd e592 183d d8c7 62bc

shared.4.weight f4 [256]
0.701318 0.8178501 0.87093395 0.9884756 0.8775443 0.9610736 0.5433245 0.9682898
0.9790352 0.5542633 0.92339456 0.8960813 0.9078971 0.88639003 0.84513164 0.8609477
0.90651846 0.5209 0.9296516 0.94917303 1.0003808 0.9215235 0.8548283 0.82015216
0.9506794 1.005492 0.95944375 0.90666336 0.9158921 0.85269564 0.95145226 0.9899999
0.92200315 0.97059745 0.9472482 0.8673948 0.97901875 0.9714257 0.82730746 0.9399162
0.7572908 0.9304049 0.9805522 0.99878854 0.9150131 0.7834229 0.9682709 0.927199
0.71098506 0.76002365 0.837371 0.9575058 0.69549537 0.9914034 0.9694679 0.921043
0.9980411 0.92621285 0.8235021 0.906267 0.95641935 0.6839712 0.9612461 0.9527838
0.8390213 0.90763795 0.880897 0.9333699 0.6728194 0.78228605 0.8232047 0.94020355
0.80045384 0.9006497 0.903994 0.9549865 0.9855022 0.62585604 0.9447256 0.628745
0.96758384 0.8875129 0.8726704 0.8414733 0.9454985 0.57506055 0.9641119 0.9838209
0.9654559 0.6916061 0.9343771 0.7408686 0.99271464 0.9465926 0.9103983 0.8683291
0.95537907 0.9275149 0.93657076 1.0194254 0.74612993 0.9609839 0.71298516 0.9703073
0.89824235 0.92935777 0.88508844 0.8988339 0.9202137 0.94006675 0.98150146 0.8567027
0.96082807 0.9683906 0.9828319 0.7732007 0.9919401 0.9766524 0.87280154 0.97967154
0.94681084 0.9365096 0.9047147 0.9002993 0.82944554 0.8280483 0.71872103 0.68815213
0.9576781 0.56566364 0.9342233 0.959056 0.9621403 0.9879874 0.9204333 0.91720945
0.9607514 0.7961843 0.93896794 0.8050861 1.0091403 0.97428745 0.97986376 0.87811697
0.7567996 0.9099454 0.75244236 0.8080264 0.96180004 0.9182173 0.572986 0.63901454
0.9120135 0.5362628 0.9309622 0.88047403 0.91310644 0.9869469 0.63764 0.8999078
1.0015624 0.68186116 0.9862843 0.8879842 0.68616325 0.9278869 1.0014307 0.96988237
0.6825788 0.94412696 0.8622726 1.0264242 0.9516197 0.9421336 0.55298823 0.99301225
1.0289308 0.9459513 0.7428204 0.8970817 0.96296644 0.9267529 0.7472545 0.8954187
0.8248137 0.71566796 0.9551888 1.0273293 0.91130847 0.9855029 0.71544397 0.9633903
0.9593407 0.96419907 0.95797056 0.85653716 0.9426492 0.9214243 0.9844524 0.72164357
0.9818923 0.8420451 0.8977598 0.9008896 0.89422214 0.9274838 0.7935738 0.9831306
0.951498 0.8531392 0.9822299 0.8210065 0.9950094 0.84245044 0.8963896 0.8886996
0.9630866 0.8663784 0.8232647 0.9634909 0.9300546 0.9883589 0.76103276 0.9828812
0.77173966 0.82664657 0.9099894 0.7100581 0.9310113 0.99022657 0.9857594 0.918973
0.96930826 1.033801 0.8514109 0.6854351 1.0080135 0.83734035 0.9675293 0.8695262
0.68950033 0.9685584 0.7770205 0.78131723 0.81681377 0.873897 0.89042234 0.9511726
0.96882886 0.984846 0.8695225 0.9650399 0.8923418 0.9698179 0.9876322 0.75128746
00000000: 9489 333f a05e 513f 87f5 5e3f bd0c 7d3f
00000010: bea6 603f eb08 763f 5017 0b3f d7e1 773f
00000020: 0da2 7a3f 33e4 0d3f 9663 6c3f 9665 653f
00000030: f26b 683f 75ea 623f 8c5a 583f 1267 5c3f
00000040: 9811 683f b459 053f a6fd 6d3f 01fd 723f
00000050: 7a0c 803f f7e8 6b3f 07d6 5a3f 7ef5 513f
00000060: ba5f 733f f6b3 803f 1b9e 753f 171b 683f
00000070: e877 6a3f 434a 5a3f 6092 733f a270 7d3f
00000080: 6608 6c3f 1379 783f dc7e 723f 960d 5e3f
00000090: f9a0 7a3f 5baf 783f 6cca 533f 599e 703f
000000a0: cfdd 413f 042f 6e3f 7805 7b3f 9bb0 7f3f
000000b0: 4c3e 6a3f 678e 483f 9ae0 773f ea5c 6d3f
000000c0: 1e03 363f e990 423f f25d 563f 1a1f 753f
000000d0: fc0b 323f 9dcc 7d3f 0c2f 783f 79c9 6b3f
000000e0: 9f7f 7f3f 491c 6d3f 09d1 523f 1d01 683f
000000f0: e6d7 743f bd18 2f3f 3914 763f a4e9 733f
00000100: 1aca 563f f65a 683f 7782 613f 54f1 6e3f
00000110: e43d 2c3f e643 483f 8bbd 523f 2eb1 703f
00000120: 8bea 4c3f fb90 663f 276c 673f ff79 743f
00000130: df49 7c3f 1a38 203f 89d9 713f 6ff5 203f
00000140: 93b3 773f 0c34 633f 5467 5f3f cb6a 573f
00000150: 310c 723f 2b37 133f 0ad0 763f b0db 7b3f
00000160: 1e28 773f 190d 313f 5633 6f3f 91a9 3d3f
00000170: 8c22 7e3f e553 723f dd0f 693f d14a 5e3f
00000180: b993 743f 9e71 6d3f 1ac3 6f3f 887c 823f
00000190: 5f02 3f3f 0a03 763f 3286 363f 0f66 783f
000001a0: 36f3 653f 64ea 6d3f 2895 623f fa19 663f
000001b0: 2093 6b3f 37a8 703f ae43 7b3f de50 5b3f
000001c0: d4f8 753f 72e8 773f df9a 7b3f 7bf0 453f
000001d0: c9ef 7d3f e405 7a3f ec6f 5f3f c1cb 7a3f
000001e0: 3262 723f 18bf 6f3f 629b 673f 047a 663f
000001f0: 8b56 543f f9fa 533f 1afe 373f bd2a 303f
00000200: 642a 753f 55cf 103f 4229 6f3f b284 753f
00000210: d44e 763f beec 7c3f 84a1 6b3f 3dce 6a3f
00000220: cef3 753f bcd2 4b3f 3460 703f 1f1a 4e3f
00000230: 822b 813f e76a 793f 5ad8 7a3f 46cc 603f
00000240: 9ebd 413f 2ff2 683f 10a0 403f d1da 4e3f
00000250: 8738 763f 4a10 6b3f 36af 123f 7596 233f
00000260: b779 693f 8548 093f 8a53 6e3f bf66 613f
00000270: 58c1 693f 8da8 7c3f 603c 233f 5c60 663f
00000280: 3233 803f 748e 2e3f 217d 7c3f ef52 633f
00000290: 65a8 2f3f ff89 6d3f e22e 803f 364a 783f
000002a0: 7cbd 2e3f 4eb2 713f e6bd 5c3f de61 833f
000002b0: 599d 733f ab2f 713f a390 0d3f 0d36 7e3f
000002c0: 01b4 833f dd29 723f 7a29 3e3f 25a7 653f
000002d0: f884 763f ae3f 6d3f 124c 3f3f 293a 653f
000002e0: fe26 533f 0436 373f 4187 743f 877f 833f
000002f0: 834b 693f eb49 7c3f 5627 373f bfa0 763f
00000300: 5a97 753f c0d5 763f 8f3d 753f 0546 5b3f
00000310: 7551 713f 77e2 6b3f 1305 7c3f a2bd 383f
00000320: 4b5d 7b3f 4590 573f 96d3 653f b3a0 663f
00000330: beeb 643f 946f 6d3f a727 4b3f 72ae 7b3f
00000340: 5f95 733f 5567 5a3f 6b73 7b3f 7b2d 523f
00000350: f0b8 7e3f d5aa 573f ca79 653f d181 633f
00000360: d88c 763f faca 5d3f 7ac1 523f 57a7 763f
00000370: 0f18 6e3f 1705 7d3f 0bd3 423f 1a9e 7b3f
00000380: bb90 453f 1c9f 533f 11f5 683f 5ec6 353f
00000390: c256 6e3f 7d7f 7d3f ba5a 7c3f d141 6b3f
000003a0: 9624 783f 9753 843f 11f6 593f ad78 2f3f
000003b0: 9606 813f f05b 563f 00b0 773f 4599 5e3f
000003c0: 1883 303f 71f3 773f d1ea 463f 6804 483f
000003d0: b51a 513f b7b7 5f3f b8f2 633f 0c80 733f
000003e0: 2b05 783f de1e 7c3f 0799 5e3f db0c 773f
000003f0: 8370 643f fc45 783f 77d5 7c3f 6054 403f

shared.4.bias f4 [256]
-0.061596088 -0.05638668 -0.03846761 -0.0083218785 -0.032327317 -0.00500341 -0.07599734 -0.007913732
-0.0153850615 -0.09365952 -0.0067668296 -0.020440267 -0.051346216 -0.026769407 -0.013892558 -0.024684198
-0.0066008335 -0.07804897 -0.008817008 -0.01435568 -0.0057179043 -0.0056300545 -0.023077054 -0.029719943
-0.013670053 -0.003122954 -0.018985681 -0.02052844 -0.011942968 -0.04903735 -0.024074767 -0.0062200604
-0.013405551 -0.019961786 -0.007681945 -0.025820335 -0.010473569 -0.012970921 -0.029749291 -0.014835606
-0.04163213 -0.022385594 -0.010718709 -0.0059142183 -0.017232334 -0.035136603 -0.006787185 -0.012007226
-0.061354 -0.038138364 -0.040442917 -0.01820955 -0.06891559 -0.0047698175 -0.0028910858 -0.01714872
-0.002340277 -0.025789496 -0.025738383 -0.020992858 -0.011744337 -0.06255245 0.0009462986 -0.01170022
-0.03848609 -0.01984383 -0.023270214 -0.014926033 -0.065717794 -0.037526064 -0.034956183 -0.016166085
-0.029177116 -0.018388504 -0.017625347 -0.0086550675 -0.006761066 -0.07174265 -0.009501377 -0.05651011
-0.013248494 -0.015459832 -0.031159809 -0.019705124 -0.012294701 -0.074525736 -0.010906033 -0.010112366
-0.009312188 -0.063582174 -0.009226998 -0.047644105 -0.009188439 -0.014776835 -0.012356015 -0.024686078
-0.0074965777 -0.019921806 -0.024091713 -0.0020978753 -0.04649505 -0.009483336 -0.055820383 -0.0024491677
-0.01972048 -0.0072503192 -0.02425111 -0.01917102 -0.015396176 -0.009113861 -0.006195665 -0.048378076
-0.016300896 -0.008057072 -0.010643859 -0.039891597 -0.007219731 0.0023705142 -0.020128537 -0.010216998
-0.0055211005 -0.012782066 -0.020306768 -0.008151644 -0.026000783 -0.03576773 -0.050004378 -0.057495262
-0.011733966 -0.09561881 -0.014484593 -0.014853726 -0.0064891507 -0.011261616 -0.026956083 -0.016615799
-0.016480701 -0.04874769 -0.0130742965 -0.03487222 -0.004958565 -0.010734244 -0.008656014 -0.02858079
-0.032902047 -0.015441759 -0.045656007 -0.033232056 -0.012097482 -0.011304757 -0.07809478 -0.06282805
-0.02017323 -0.098104574 -0.012094783 -0.029156521 -0.012980964 -0.0094635105 -0.07054769 -0.017563768
-0.0069334074 -0.054541286 0.0017125418 -0.016302675 -0.047670037 -0.01953657 -0.015285728 -0.00074265886
-0.06355531 -0.019889189 -0.027693128 -0.015678147 -0.011347658 -0.0076106265 -0.0797155 -0.009866638
-0.0066112895 -0.0118443975 -0.04657901 -0.022946341 -0.0083297435 -0.021267096 -0.048630785 -0.025459774
-0.036261696 -0.054004055 -0.0073013683 -0.006642569 -0.011525732 -0.0077687944 -0.05370676 -0.007328612
-0.007229977 -0.0066649574 -0.005112246 -0.03856058 -0.01761634 -0.020913765 -0.0089334715 -0.045159258
-0.0061667846 -0.034910213 -0.026444664 -0.014724533 -0.030865261 -0.016544612 -0.035975773 -0.01315269
-0.009977134 -0.038982462 -0.0097537385 -0.029028261 0.004056227 -0.049279097 -0.026546469 -0.020149665
-0.007862078 -0.025146756 -0.023371415 0.0011937537 -0.021963341 -0.011881408 -0.034003668 -0.0070696273
-0.039952736 -0.0526068 -0.021443428 -0.054313034 -0.014979099 -0.0047698915 -0.00961988 -0.01054993
-0.015896985 0.0008142224 -0.023768952 -0.049417377 -0.0017798798 -0.028265908 -0.0179598 -0.029225843
-0.048136514 -0.014498524 -0.040848874 -0.034552064 -0.0341015 -0.025699768 -0.02634031 -0.013135308
-0.0085498905 -0.007044033 -0.035549905 -0.00552871 -0.021325797 -0.003052109 -0.012114347 -0.036291584
00000000: 2e4c 7cbd b8f5 66bd 3690 1dbd 7d58 08bc
00000010: a669 04bd a5f3 a3bb 7ea4 9bbd 99a8 01bc
00000020: a011 7cbc 90d0 bfbd 48bc ddbb 5972 a7bc
00000030: 6950 52bd 844b dbbc 9d9d 63bc 8436 cabc
00000040: ce4b d8bb 23d8 9fbd 3675 10bc 1634 6bbc
00000050: 425d bbbb 527c b8bb 170c bdbc 3d77 f3bc
00000060: 5cf8 5fbc 79aa 4cbb dc87 9bbc 422b a8bc
00000070: 70ac 43bc 63db 48bd 7238 c5bc a6d1 cbbb
00000080: f5a2 5bbc e686 a3bc d3b8 fbbb 2b85 d3bc
00000090: 5599 2bbc fc83 54bc c9b4 f3bc 0b11 73bc
000000a0: 7486 2abd fe61 b7bc 869d 2fbc 0fcc c1bb
000000b0: d32a 8dbc 66eb 0fbd 0967 debb f5b9 44bc
000000c0: 554e 7bbd f936 1cbd 79a7 25bd 322c 95bc
000000d0: 9e23 8dbd 214c 9cbb 5f78 3dbb 797b 8cbc
000000e0: 555f 19bb 7e44 d3bc 4dd9 d2bc 37f9 abbc
000000f0: 526b 40bc 801b 80bd 0611 783a 48b2 3fbc
00000100: 97a3 1dbd 878f a2bc 2da1 bebc 528c 74bc
00000110: 0d97 86bd eeb4 19bd 372e 0fbd bd6e 84bc
00000120: d904 efbc 7da3 96bc 0863 90bc fccd 0dbc
00000130: ef8b ddbb cfed 92bd aaab 1bbc 2577 67bd
00000140: 3610 59bc 3c4b 7dbc db42 ffbc a46c a1bc
00000150: b76f 49bc f3a0 98bd 38af 32bc 56ae 25bc
00000160: 2692 18bc 5f37 82bd d62c 17bc 7726 43bd
00000170: 1b8b 16bc 8a1a 72bc e270 4abc 753a cabc
00000180: daa5 f5bb 0e33 a3bc fc5b c5bc 827c 09bb
00000190: 9871 3ebd fe5f 1bbc eaa3 64bd 3782 20bb
000001a0: d88c a1bc 1694 edbb 44aa c6bc 8b0c 9dbc
000001b0: 3e40 7cbc 4e52 15bc 0105 cbbb 1728 46bd
000001c0: 7589 85bc cf01 04bc 9563 2ebc 5f65 23bd
000001d0: 7e93 ecbb a15a 1b3b 9ae4 a4bc 3265 27bc
000001e0: 59ea b4bb df6b 51bc 615a a6bc 798e 05bc
000001f0: 98ff d4bc 2f81 12bd 64d1 4cbd 2780 6bbd
00000200: d23f 40bc cbd3 c3bd c950 6dbc 0b5d 73bc
00000210: f1a2 d4bb a482 38bc 01d3 dcbc db1d 88bc
00000220: 8902 87bc a8ab 47bd 9335 56bc 2cd6 0ebd
00000230: 757b a2bb afde 2fbc f4d1 0dbc 4322 eabc
00000240: 4cc4 06bd 6eff 7cbc cb01 3bbd 561e 08bd
00000250: 8434 46bc 9637 39bc 28f0 9fbd feab 80bd
00000260: 5442 a5bc 0deb c8bd 3229 46bc a8d9 eebc
00000270: 1cae 54bc d70c 1bbc 4f7b 90bd e4e1 8fbc
00000280: a331 e3bb af66 5fbd 5e77 e03a 308d 85bc
00000290: a841 43bd 280b a0bc fd70 7abc feae 42ba
000002a0: 4929 82bd a7ee a2bc b3dc e2bc 756f 80bc
000002b0: 87eb 39bc 9062 f9bb e141 a3bd aea7 21bc
000002c0: 84a3 d8bb 010f 42bc a2c9 3ebd f7f9 bbbc
000002d0: 7a79 08bc 5538 aebc 1331 47bd 0491 d0bc
000002e0: 2587 14bd 5b33 5dbd 5140 efbb e8a9 d9bb
000002f0: 6dd6 3cbc 5f91 febb 9ffb 5bbd da24 f0bb
00000300: 71e9 ecbb b765 dabb a184 a7bb b3f1 1dbd
00000310: 2550 90bc 5853 abbc b25d 12bc eaf8 38bd
00000320: bd12 cabb 03fe 0ebd 7ba2 d8bc 2b3f 71bc
00000330: 25d9 fcbc 9188 87bc 555b 13bd 617e 57bc
00000340: 2277 23bc 13ac 1fbd 25ce 1fbc adcc edbc
00000350: 19ea 843b e1d8 49bd fb77 d9bc e910 a5bc
00000360: f2cf 00bc 9200 cebc 6975 bfbc ba77 9c3a
00000370: 77ec b3bc 3daa 42bc 6e47 0bbd 55a8 e7bb
00000380: 7ba5 23bd 3a7a 57bd 21aa afbc 5877 5ebd
00000390: e56a 75bc c04c 9cbb b39c 1dbc 9dd9 2cbc
000003a0: 653a 82bc 8a71 553a 1bb7 c2bc e069 4abd
000003b0: db4a e9ba e88d e7bc 6e20 93bc 096b efbc
000003c0: cb2a 45bd 388b 6dbc 2651 27bd 7786 0dbd
000003d0: 04ae 0bbd 5288 d2bc a2c7 d7bc 7a35 57bc
000003e0: d714 0cbc a2d1 e6bb c79c 11bd 2e2a b5bb
000003f0: 70b3 aebc e405 48bb 417b 46bc 7ca6 14bd
