checkpoints/yahtzee_combined_loss_v2_pretrain/best_model.pt (torch, 766005 bytes, 19 tensors)

shared.0.weight f4 [512, 23]
000000 87 e4 01 be 93 3e 5e 3e 0b b0 9a 3d 19 cd 46 3e
       -0.12684833 0.21703558 0.07553109 0.19414176
000010 39 12 f0 3d c2 f1 f2 38 44 b4 54 be 32 89 49 be
       0.11722226 0.0001158449 -0.20771891 -0.19681242
000020 4b 50 7c 3c 7d 12 08 be 24 b9 49 be be 4d e9 bc
       0.015400003 -0.13288303 -0.19699532 -0.028479453
000030 79 d9 f2 bd 42 c4 f4 3b 5a 2d 6a 3a 2b b2 e3 bd
       -0.11857886 0.007469685 0.00089331495 -0.11117967
000040 37 9e 2f 3e 8e 86 4f 3c 26 68 48 3e f0 f3 84 3d
       0.17150198 0.012666358 0.1957098 0.0649184
000050 dd 59 b2 3b 56 25 39 bc fa 29 20 37 68 87 22 be
       0.0054428414 -0.0113004055 9.546517e-06 -0.15871966
000060 61 4d 1c bd 4b fb c3 bb 4c bc 33 3d 02 0b e2 3d
       -0.03815973 -0.005980884 0.043880746 0.11037256
000070 93 2a 78 bb 7f 63 2e bd a0 76 37 3c 23 75 de bd
       -0.0037867173 -0.042575356 0.011197716 -0.10862186
000080 71 1b 30 be f1 cc 0f be ea 24 cc bd f0 d7 20 3e
       -0.17197968 -0.14043023 -0.09967978 0.15707374
000090 0d 23 15 3e af 41 8e 3c 0b 00 49 3d 68 5f 0f be
       0.14564152 0.017365305 0.049072307 -0.14001238
0000a0 09 ee 9a bd f5 26 c6 bc 54 94 54 3a fc 2d dd 3d
       -0.07564933 -0.024188498 0.0008109261 0.107997864
0000b0 60 e4 ce 3d aa e9 6f 3c 17 d6 f4 3d 05 45 2a 3e
       0.10102153 0.014643112 0.11954897 0.16627891
0000c0 11 37 26 3e 5c bc 70 bd 2c 59 1d be 03 04 c5 38
       0.16231944 -0.058773383 -0.15366048 9.394439e-05
0000d0 f9 ed 1b bd 47 3e 76 3e 15 ef 07 3e c3 03 12 3e
       -0.038068745 0.24047194 0.13274796 0.14259247
0000e0 f9 3e 4f 3e a7 7a 14 3e 72 43 25 3e b8 64 69 3d
       0.20238866 0.14499913 0.1613901 0.05698082
0000f0 d1 f3 47 bd 65 56 4f 3d b1 1b 12 3d 92 03 8f bd
       -0.048816506 0.0506195 0.03567094 -0.06983103
000100 6d 54 eb bd f4 fb 57 3c d4 a6 72 3d 2a 92 37 bb
       -0.11490712 0.013182629 0.05924113 -0.0028010705
000110 fd 9f 9e 3b 60 ce d5 bc 3d dd c1 bd 67 72 e6 bd
       0.0048408494 -0.026099384 -0.09466026 -0.11252289
000120 72 79 01 3e a5 a7 97 bd 2f ee b2 3d ac d7 5c 3d
       0.12643984 -0.074050225 0.08736836 0.05391662
000130 3d b8 6a bd fe 34 fd bd 19 ec 4e 3d ce d9 49 bd
       -0.05730461 -0.12363623 0.05051813 -0.04927998
000140 66 23 0e 3e 4d dd 0e be 80 dc 05 3e 06 23 fb 3c
       0.13880691 -0.13951607 0.13072395 0.030656349
000150 8c 61 92 bd 12 27 f3 3d d9 37 19 bd 5c b4 5e 3c
       -0.07147512 0.118726864 -0.037406776 0.013592806
000160 26 8e ee 3d 5d c5 97 3c 89 fc 15 3d 67 25 f9 3c
       0.116482064 0.018526727 0.03661779 0.030413343
000170 b0 fa 02 3e 1a a2 d6 bc 4b ef 2e bc 13 26 1e 3c
       0.12790942 -0.026200343 -0.010677169 0.009652632
000180 b9 7c fa 3c 2c fe f7 b9 b9 da 17 be 74 10 f8 bd
       0.03057705 -0.00047300884 -0.1482953 -0.12112513
000190 1d 01 09 3e c9 f4 82 bd 2d 69 e5 3d ca 1c 3d 3e
       0.13379331 -0.06394345 0.11201701 0.18468013
0001a0 49 f3 be bd f9 b7 2e bd 6e f5 8d 3d 3b 7e fe 3d
       -0.09323747 -0.04265592 0.069315776 0.1242642
0001b0 a8 ac d6 3d bd 17 71 bb 89 47 8d bc a7 8f e3 3d
       0.1048215 -0.003678783 -0.017246025 0.11111384
0001c0 3b e2 19 bd 55 59 77 bd cd fb 8d 3d ec 10 81 b7
       -0.037569266 -0.060387928 0.06932793 -1.5385878e-05
0001d0 0b a8 e1 3d eb 3e 47 be 67 ef f2 bd f1 e7 4e bd
       0.1101838 -0.19457595 -0.118620686 -0.050514165
0001e0 ca ee 70 3c ce b9 85 3d fc 73 a5 3d c2 97 75 3e
       0.014705369 0.0652958 0.08078763 0.23983672
0001f0 3e fd c4 3d 8b c1 2e 3d 36 be 18 3e 2a e8 86 bc
       0.096186146 0.042665046 0.1491631 -0.016468126
000200 6c f6 66 bd e8 4f 42 3e f7 e7 03 3e fd 97 04 3e
       -0.05638735 0.18975794 0.12881456 0.12948604
000210 05 56 f3 bc 1d e7 cd 3d ee e0 84 3c d2 76 c4 3d
       -0.029704103 0.10053847 0.016220536 0.09592976
000220 5e 08 05 37 a0 97 b6 37 1d 1e 7e bc 66 db 17 3e
       7.929366e-06 2.1766697e-05 -0.015510109 0.14829788
000230 0d 25 d0 bd dd ad 97 bc e3 f2 4b 3e ea 5b da 37
       -0.10163317 -0.018515522 0.19916873 2.6030426e-05
000240 8a 7e 10 bc 9c 15 0d 3d ab 2d 92 3d a2 8e 4d 3e
       -0.008819232 0.034444436 0.07137617 0.20073941
000250 08 d1 9f bd 43 a9 b1 ba d8 b4 20 3e 3a c8 52 3c
       -0.078035414 -0.0013554472 0.15693986 0.012865121
000260 a1 7e 22 be ec 6f a5 3d e7 a2 77 bd af 77 0f 3e
       -0.15868618 0.08077988 -0.06045809 0.140105
000270 e6 35 d9 bc 8c 2f 1d b7 30 2e 45 3c 86 a6 89 3d
       -0.026514959 -9.369e-06 0.012034938 0.06721215
000280 62 0f ba b9 f9 b9 a6 bd 0f b9 1a 3e 30 de 3a 3e
       -0.00035488146 -0.0814094 0.15109657 0.1824882
000290 8d f9 cc 3d f3 76 41 3e 5c 74 be bc cd 81 31 3d
       0.100085355 0.18893032 -0.023248844 0.04333668
0002a0 81 92 42 bd 6e 52 50 be c4 d1 3c be ae c8 ca 3c
       -0.047503 -0.20343944 -0.18439394 0.024753895
0002b0 6e b4 fc 3d 6f a3 08 be ee b5 88 bc 51 9f 9e bd
       0.12339102 -0.13343595 -0.016688313 -0.07745231
0002c0 dc 10 15 be f8 11 11 3e f5 03 52 3d 58 e4 31 bc
       -0.14557213 0.14167011 0.051273305 -0.010857664
0002d0 40 c4 dc b5 48 a2 f7 bd c7 f1 22 bd 20 f1 2b 38
       -1.6448394e-06 -0.120914996 -0.039781358 4.0994142e-05
0002e0 24 ab 11 be 99 cf 88 bd 5e 2b 9b 3d 4d 87 86 3d
       -0.14225441 -0.06680221 0.07576631 0.06568775
0002f0 75 67 74 bd f2 60 85 3d ea a5 a6 3d b7 80 12 be
       -0.059668977 0.065126315 0.08137114 -0.14306913
000300 6b 51 6b ba 20 51 81 3d 7b 18 fd bc fc eb 56 bd
       -0.0008976671 0.063143015 -0.030895462 -0.052471146
000310 42 95 87 3d cc dd fe bd 65 8d 99 bd 91 6a af 3d
       0.066202655 -0.12444648 -0.07497672 0.08565248
000320 2c 04 4a bc 73 ec 2b 3d bd db 18 be 5b fc 6a 3c
       -0.012330096 0.041973542 -0.14927574 0.014342393
000330 a6 8a cf bc 88 e3 fb 37 61 a7 ba b9 05 9a 02 3e
       -0.025334667 3.0027484e-05 -0.00035601392 0.12754066
000340 a9 24 1c be 40 6a 2e 3e b6 ee 15 bb 3c 5a 8b 3d
       -0.1524836 0.17032719 -0.0022877879 0.0680432
000350 5e 5b 6a 3b 8d b4 38 bd ba 38 36 3d 4b f2 71 3e
       0.0035760025 -0.04509406 0.044487692 0.23627584
000360 67 35 1c be c6 6d ed bd da 89 2d 3e fe 9e 51 bd
       -0.15254746 -0.11593203 0.16947117 -0.051177017
000370 36 ff f6 bd 0b 4c 4a 3e 38 7b 12 be 7a 93 f3 3d
       -0.120603964 0.1975557 -0.14304817 0.11893363
000380 5c 75 bb bc 7a 64 22 be 21 45 8d bb 5b dd 73 3b
       -0.02288311 -0.15858641 -0.0043112193 0.0037210796
000390 8a a3 31 bd 8c f2 f2 b9 9a dd b1 3d 4d 6a 08 3e
       -0.043368854 -0.00046338548 0.08684845 0.133218
0003a0 40 e5 97 3c 13 77 3d be 5e 7c dc bd a5 a9 c3 3c
       0.018541932 -0.18502454 -0.10765909 0.023884604
0003b0 80 e6 a1 3d 5e d8 ec 3d 74 08 08 be b2 9f 97 3d
       0.079052925 0.11564706 -0.13284475 0.07403506
0003c0 1b 84 08 be 10 47 0f bd d8 ea 09 be bf eb 88 3d
       -0.13331644 -0.03497988 -0.13468492 0.0668559
0003d0 d0 c5 69 bc 21 0f f2 bc 61 43 72 bd 40 5d 7a 3d
       -0.014268354 -0.02954823 -0.05914629 0.061124086
0003e0 91 f9 0e 3d 0a 06 2a 3d f1 0d a1 3b 1a 30 9a 3d
       0.034905974 0.041509666 0.004914992 0.07528706
0003f0 13 37 15 3d 69 fa 20 bc eb 31 15 be 91 71 39 3c
       0.036429476 -0.009825327 -0.14569823 0.01131858

shared.0.bias f4 [512]
000000 62 3b 52 be 8a 40 ab 3d 32 b2 96 3d 6b 05 0c be
       -0.20530465 0.08361919 0.07358207 -0.13673942
000010 9a 2e d7 3d ae f3 08 be 1b 32 bb bd 84 5b f4 3c
       0.105069354 -0.13374206 -0.09140416 0.029828794
000020 a6 0a a7 3a 25 6b 26 3e 32 70 40 3e 52 95 20 bd
       0.0012744262 0.1625181 0.18792799 -0.039204903
000030 d1 a7 89 3c c0 c7 47 bd 52 07 15 be 77 2d d2 bc
       0.016803654 -0.04877448 -0.14553574 -0.025656445
000040 2c 36 45 3d 66 8f f4 bd 9c f6 ae 3d 1b cd bf bb
       0.048147365 -0.119414136 0.08543131 -0.005853308
000050 08 8f e5 bd 48 2a af bd a1 1a 23 3e ef b7 40 3b
       -0.11208922 -0.085529864 0.15928127 0.0029406508
000060 80 36 1b 3c 4f a4 d4 bd 2b b0 fd 3d cc 6d f9 3d
       0.009473443 -0.10382902 0.12387117 0.12179145
000070 fc 66 00 3e 12 60 a7 bd 75 7c 1b 3e f7 84 34 3e
       0.12539285 -0.08172621 0.15184195 0.17628847
000080 c0 47 8e bc 56 e4 38 be 67 9e f2 3d 9c 64 72 3c
       -0.017368197 -0.18055853 0.11846619 0.014794495
000090 0a 72 85 bc bd 60 a9 bd c3 6a 84 3d 1f a7 00 3e
       -0.01628973 -0.082704045 0.06465676 0.12563752
0000a0 26 16 07 3d 90 51 5c be 79 c9 2c be 02 b4 89 bd
       0.032980107 -0.21515489 -0.1687373 -0.06723787
0000b0 c9 8f 33 be 6f e8 4e bd 06 2d 8f 3b b4 2e e2 3d
       -0.17535318 -0.050514635 0.004369381 0.11044064
0000c0 5e 2b 06 3e 88 a5 03 be 07 d2 31 3e dc a0 33 be
       0.13102481 -0.12856114 0.17365275 -0.17541832
0000d0 ce 4d c9 3d 80 63 38 3e c7 64 5e bd af 31 8d 3d
       0.09829293 0.18006706 -0.054295328 0.06894242
0000e0 65 40 98 3d 3f dc 19 3e 6a 05 b9 3c 50 9d 0c 3e
       0.07434157 0.15025423 0.02258559 0.13731885
0000f0 be b6 fe bd 0e d9 4c 3e aa bd 40 3d e3 0a 4b 3e
       -0.12437199 0.20004675 0.047055878 0.19828372
000100 f6 0a aa bd d3 0b 1e bd 3f 87 a5 3d 95 55 9b 3d
       -0.08302872 -0.038585495 0.08082437 0.07584683
000110 0b 5d 14 3e 83 96 95 3d 68 39 20 3e 51 0d 59 3d
       0.14488618 0.073040985 0.15646899 0.052991215
000120 13 a5 98 3d 37 7b ab 3d e6 2b b6 bd 7d 32 1f be
       0.074533604 0.08373111 -0.08895092 -0.15546604
000130 5e 1c 85 3c 1a a8 8e bc fe c0 9b 3c 93 92 1c 3e
       0.016248878 -0.017414141 0.019012924 0.15290289
000140 1f 6b 24 3e 40 53 5b 3d 0d 08 ac 3b 40 96 0d be
       0.16056488 0.05354619 0.005249983 -0.13826847
000150 7f a2 24 3d cf d5 f4 3d 0d da 19 be e5 c5 67 3d
       0.04019403 0.11954843 -0.15024586 0.05658521
000160 26 f9 cc 3c 40 a5 45 3d 41 c7 cd bd a4 7f 18 3e
       0.025021147 0.048253298 -0.1004777 0.14892441
000170 e2 ba e0 3c d3 24 80 bd 75 33 95 3d fc 88 3c be
       0.027432863 -0.06257024 0.07285205 -0.1841163
000180 03 d5 2a 3b 03 3c 15 3e 66 a3 48 be 5e 6e 14 3d
       0.0026066906 0.14573674 -0.19593582 0.036238067
000190 1e d7 b1 bd 09 b3 0c be b2 10 0f 3e 4c 04 a5 3d
       -0.086836085 -0.13740171 0.13971213 0.0805746
0001a0 c2 c0 6a 3a cf e4 12 3d 37 85 bd 3d 90 1f a4 3d
       0.0008955115 0.03586274 0.09253924 0.080138326
0001b0 04 a3 d8 bd f4 e9 aa 3d 27 91 0c be 41 ed e3 3b
       -0.10577968 0.08345404 -0.13727246 0.006955773
0001c0 8d 10 fd 3c 8a e5 1c be 3b 08 b5 3d 00 1f 2f be
       0.030891681 -0.15321937 0.088394605 -0.1710167
0001d0 df 6c 2c be 84 af 8f bc 7e 55 0d 3e 43 ca 05 3e
       -0.16838406 -0.017539747 0.13802144 0.13065438
0001e0 5d e1 5d bd 1b cf 18 3e b7 ed 1c 3e 14 e7 83 bd
       -0.05417 0.14922754 0.15325056 -0.06440559
0001f0 bb da 6c bc b4 91 37 3e 13 c8 b2 bc ee a7 16 be
       -0.014456446 0.17926675 -0.021823918 -0.14712498
000200 1b a7 cb 3c 61 87 1b be 6b 17 72 3d 03 23 3e 3e
       0.024859956 -0.15188362 0.059104364 0.18568043
000210 a1 61 ff bd 82 63 8b 3c b9 a0 8c 3d 48 6c 94 3d
       -0.12469793 0.017015222 0.06866593 0.072472155
000220 d0 49 31 be 71 58 2d bd 89 c2 1e be 3d cc e3 bc
       -0.17313313 -0.042320672 -0.15503897 -0.02780735
000230 01 60 31 3e b0 a0 38 be b4 51 2c 3e bf ba 8e bd
       0.17321779 -0.18030047 0.16828042 -0.06969213
000240 8c fa c2 3d 48 38 ab 3d 3b f9 0c 3e cd ae a7 bd
       0.09520444 0.08360344 0.13766949 -0.081876375
000250 db 72 39 be c9 f0 37 3d 06 11 cd 3d f4 4f 46 3e
       -0.1811022 0.044907365 0.100130126 0.19366437
000260 93 92 25 3e 44 31 26 3e 50 8b 7a bd 36 23 3a bd
       0.16169195 0.16229731 -0.061168015 -0.045443736
000270 3e 1f b3 3d b0 c5 16 bd 6f 73 16 be c3 a1 1b 3e
       0.08746193 -0.036809623 -0.14692472 0.15198426
000280 e6 73 ef 3d 4b 00 0e be 06 99 38 bd c9 b0 d7 3c
       0.11692028 -0.138673 -0.04506781 0.026329415
000290 4d 1e 3f 3e 9b 0b 62 bd ff d2 82 bc 70 d5 e2 3d
       0.18663903 -0.05518685 -0.015969751 0.11075866
0002a0 90 85 d0 3d 9c c4 4b be c7 aa 8e bd 01 c8 c4 bd
       0.10181725 -0.1989922 -0.06966167 -0.0960846
0002b0 12 c8 e4 bc 28 85 9a 3d 4b e2 c3 3d 4c 8f 37 bd
       -0.027927432 0.07544929 0.09564646 -0.044814393
0002c0 d1 ba 1c 3e 91 42 91 3d 14 92 dd 3d ea 80 59 3c
       0.1530564 0.07092775 0.10818878 0.013275364
0002d0 e9 b3 4a bd 47 f6 f8 3c 08 27 1b be a4 11 6e bd
       -0.049487982 0.030390872 -0.15151608 -0.058122292
0002e0 03 f7 33 3e f3 64 a8 3c 1c fa 39 be 16 1e f3 3d
       0.17574696 0.020555949 -0.18161815 0.11870973
0002f0 57 be 16 3c 0e 88 1b 3d ef a4 e9 b9 95 c3 b0 bd
       0.009200654 0.03797155 -0.00044564108 -0.08631054
000300 75 06 22 3d 2f 27 3b 3e b5 97 91 bd 9c 73 f2 bc
       0.03955694 0.18276666 -0.07109014 -0.029596142
000310 9d a2 34 3e 05 71 ed 3d 5f 88 e6 bd d7 fa 8a ba
       0.17640157 0.115938224 -0.112564795 -0.001060332
000320 70 d5 9c 3d f7 00 36 3e d9 73 bf 3c 13 b8 2c bd
       0.076578975 0.17773806 0.02337067 -0.042167734
000330 c6 0d be bd e3 12 b5 bd e4 e3 22 be d3 e7 e1 bd
       -0.09279971 -0.08841493 -0.15907246 -0.11030545
000340 51 ba 13 3e a2 72 53 3e e4 a5 54 bc a5 d9 90 bd
       0.14426543 0.20649198 -0.0129790045 -0.070727624
000350 15 3b 31 be 0d 9f fa 3d 6d 3f f2 3d af e5 dd 3d
       -0.17307694 0.12237368 0.11828504 0.10834824
000360 7d cf 19 be 53 13 3c bd 6f 0d 7e bd 74 37 27 be
       -0.15020557 -0.045916867 -0.06202453 -0.16329747
000370 8a 36 ac bd e8 11 21 3e 53 79 2e 3e 19 45 dd bd
       -0.0840884 0.15729487 0.17038469 -0.10804195
000380 89 6d 4a 3d 1c bd dd 3c b9 b4 c6 3d b8 0a 0e 3e
       0.049420867 0.027067713 0.09702439 0.13871276
000390 43 7b 18 3e ba 04 72 bd 6a cc 32 3e f2 26 0a bd
       0.1489077 -0.05908654 0.1746079 -0.033728547
0003a0 80 99 54 3d ff 23 2d 3d e5 f8 71 3c 1b 3b 5b bd
       0.0519042 0.042270657 0.014768814 -0.053523164
0003b0 3c 09 e9 bd 65 f0 f4 3d f3 bb 65 3d f4 0d 52 be
       -0.113787144 0.11959914 0.056087445 -0.20513135
0003c0 55 7e 18 3c 3f 32 b7 bd 7a d4 35 3c 7a 32 29 3d
       0.009307464 -0.089451306 0.011098022 0.041307904
0003d0 2b f2 f2 3d 4b 4f 0d 3e ea ed 46 bd d4 bb a5 3d
       0.11862596 0.13799779 -0.048566736 0.08092466
0003e0 1e 22 9e bd 9c 16 c3 3b a2 d5 82 bd 52 4f 10 be
       -0.07721351 0.005953623 -0.063884035 -0.14092758
0003f0 a5 bb 6e 3d bb 42 a6 bd fc 24 0c be c9 36 a8 3d
       0.05828442 -0.081181966 -0.13685983 0.082135744

shared.1.weight f4 [512]
000000 85 18 81 3f 76 e2 77 3f db 3c 82 3f 55 1a 69 3f
       1.0085608 0.96829927 1.0174822 0.91055804
000010 05 09 79 3f 80 f8 80 3f bd 69 78 3f d6 64 81 3f
       0.9727939 1.0075836 0.97036344 1.0108898
000020 f2 b9 6c 3f 7a 07 75 3f f3 96 6e 3f 67 15 7b 3f
       0.9247123 0.95714533 0.9319908 0.9807953
000030 d7 5b 79 3f b2 1c 80 3f ed d0 6e 3f e9 02 76 3f
       0.9740576 1.0008757 0.93287545 0.9609819
000040 bf c4 7e 3f 37 c5 7b 3f 7a 93 7a 3f 9d 7e 7d 3f
       0.9951896 0.983478 0.9788128 0.9902132
000050 b3 71 7b 3f 71 fc 75 3f f0 cc 7c 3f 2b 2e 7a 3f
       0.98220366 0.9608832 0.9875021 0.97726697
000060 00 4c 75 3f b5 e2 7d 3f b4 91 76 3f fc bd 7f 3f
       0.9581909 0.9917405 0.96316075 0.9989927
000070 74 51 7e 3f 5b 76 7f 3f 2d 3f 7c 3f e3 98 6a 3f
       0.9934304 0.9978997 0.985339 0.91639537
000080 99 f2 74 3f df 82 78 3f 30 d9 7c 3f 6a 07 80 3f
       0.95682675 0.97074693 0.987689 1.0002263
000090 19 41 7f 3f a2 5f 7d 3f 5e 73 7f 3f 0a a3 79 3f
       0.99708706 0.9897405 0.9978541 0.975144
0000a0 ed 1c 71 3f 09 89 7c 3f fc 94 74 3f c7 e7 75 3f
       0.9418476 0.986466 0.9553983 0.9605679
0000b0 5f 59 76 3f 7d 24 80 3f e3 f6 75 3f 56 b7 7c 3f
       0.9623012 1.0011135 0.96079844 0.9871725
0000c0 01 7e 7d 3f 51 04 7c 3f e8 c3 7a 3f 87 31 73 3f
       0.9902039 0.98444086 0.9795518 0.9499745
0000d0 b6 ec 7a 3f 04 fd 7d 3f 50 b9 76 3f 76 4a 6e 3f
       0.9801744 0.99214196 0.96376514 0.9308237
0000e0 64 6c 79 3f ca 81 7d 3f 90 0d 7c 3f a9 4d 7a 3f
       0.97431016 0.9902617 0.98458195 0.9777475
0000f0 af 19 71 3f 07 e8 81 3f 60 31 6b 3f 1f 0f 7e 3f
       0.94179815 1.0148934 0.91872215 0.9924182
000100 d1 db 7e 3f 93 12 78 3f f6 e4 76 3f cd 9e 7e 3f
       0.99554163 0.9690334 0.96443117 0.9946106
000110 66 35 7c 3f 2d f0 7a 3f 56 73 6f 3f 2a 70 6d 3f
       0.9851898 0.9802273 0.93535364 0.92749274
000120 d9 04 6e 3f 21 d4 7a 3f 04 6e 7b 3f 0f 43 6f 3f
       0.92976147 0.97979933 0.98214746 0.934617
000130 4a 72 81 3f 98 63 79 3f b1 5f 74 3f d3 bd 72 3f
       1.0113003 0.97417593 0.95458513 0.948209
000140 bf dc 77 3f 41 93 71 3f 53 c1 7b 3f 4f 53 72 3f
       0.96821207 0.94365317 0.98341864 0.9465837
000150 70 94 73 3f 34 dc 7b 3f f3 6e 7a 3f c4 15 7b 3f
       0.9514837 0.9838288 0.97825545 0.98080087
000160 45 5a 78 3f 1d c1 7a 3f 1e 26 7d 3f 91 9a 75 3f
       0.9701274 0.9795092 0.9888629 0.95938975
000170 91 1d 7c 3f 8c 9c 80 3f b1 9b 7f 3f 2c 54 75 3f
       0.98482615 1.0047774 0.9984694 0.9583156
000180 55 a6 7b 3f b9 95 7e 3f 78 b6 76 3f 7b 8d 7c 3f
       0.9830068 0.9944721 0.96372175 0.9865338
000190 33 b3 7d 3f a8 44 80 3f b4 e2 6f 3f 89 e7 79 3f
       0.9910156 1.0020952 0.93705297 0.9761892
0001a0 cc af 67 3f 6b 8b 67 3f 29 04 79 3f af 95 7a 3f
       0.9050262 0.9044711 0.9727197 0.9788465
0001b0 b5 01 7e 3f cf 21 6e 3f 8c d9 6d 3f 3f a0 79 3f
       0.99221355 0.9302034 0.92910075 0.9751014
0001c0 ae 99 76 3f c8 c7 72 3f 65 48 75 3f b5 d4 7a 3f
       0.96328247 0.9483609 0.9581359 0.97980815
0001d0 6d 67 77 3f 37 2a 77 3f 9e 99 6c 3f 22 ba 77 3f
       0.9664219 0.9654879 0.924219 0.9676839
0001e0 74 a7 76 3f 90 1c 7c 3f 4d f5 7c 3f 2b 76 7e 3f
       0.96349263 0.9848108 0.988118 0.9939906
0001f0 ac d8 6c 3f 8d 9c 76 3f 0a 9a 7f 3f 9c f9 72 3f
       0.92518115 0.9633263 0.9984442 0.94912124
000200 a3 c0 7c 3f 52 da 6a 3f 0a af 6d 3f 0c c4 7b 3f
       0.9873144 0.9173938 0.92845213 0.9834602
000210 f1 95 6b 3f 65 96 73 3f a8 0b 74 3f 9d bc 6f 3f
       0.9202567 0.9515136 0.95330286 0.93647176
000220 63 bb 7a 3f 58 75 7b 3f a0 c4 78 3f c9 62 7c 3f
       0.9794218 0.9822593 0.97175026 0.98588234
000230 75 18 71 3f 88 7c 78 3f ca 88 7a 3f 26 af 75 3f
       0.94177943 0.9706502 0.97864974 0.9597038
000240 c1 0d 77 3f 87 ab 7d 3f af 4d 7c 3f bd 48 6c 3f
       0.9650536 0.99089855 0.98556036 0.9229849
000250 cb 15 77 3f ae 4b 76 3f 3c 78 7c 3f 81 0d 71 3f
       0.9651763 0.9620923 0.98620963 0.9416123
000260 90 f1 81 3f 40 fc 76 3f cc 30 81 3f b1 21 68 3f
       1.0151844 0.9647865 1.0093017 0.9067641
000270 33 7a 6b 3f 9f 00 7d 3f 6d c5 7b 3f fe cf 80 3f
       0.91983336 0.9882907 0.9834812 1.0063474
000280 8f b4 7a 3f 63 5c 7d 3f 76 f3 7c 3f ea 86 6a 3f
       0.9793176 0.98969096 0.9880899 0.9161211
000290 b1 35 7f 3f 86 72 79 3f 36 b2 6d 3f a2 e8 77 3f
       0.996913 0.97440374 0.92850053 0.96839345
0002a0 58 51 6e 3f 6c 0f 82 3f 81 7d 7b 3f 32 31 80 3f
       0.9309287 1.0160956 0.9823838 1.0015013
0002b0 e3 62 68 3f ef 46 74 3f 4f 96 81 3f bb 27 80 3f
       0.9077589 0.95420736 1.0123996 1.0012125
0002c0 e9 37 6e 3f 12 0d 7f 3f 72 6f 7e 3f 93 7c 6c 3f
       0.9305406 0.9962932 0.993888 0.92377585
0002d0 ba 61 7d 3f 35 5a 7a 3f b7 8f 7c 3f 2f 76 80 3f
       0.98977244 0.97793895 0.9865679 1.0036067
0002e0 b4 8a 79 3f fc 3b 6b 3f b4 34 7c 3f 23 76 76 3f
       0.9747727 0.91888404 0.9851792 0.9627401
0002f0 78 ad 7f 3f a1 53 68 3f 65 a2 7b 3f b5 32 6b 3f
       0.9987407 0.9075261 0.9829467 0.9187425
000300 37 31 78 3f 8a 32 7f 3f f3 da 79 3f 87 29 80 3f
       0.96950096 0.9968649 0.97599715 1.0012673
000310 57 14 76 3f 69 4e 7b 3f a3 66 7d 3f 95 f0 7d 3f
       0.96124786 0.9816652 0.98984736 0.99195224
000320 ff dc 78 3f da a7 80 3f d7 a1 71 3f b0 51 6c 3f
       0.97212213 1.0051224 0.94387573 0.92312145
000330 b4 16 7c 3f cd c3 7a 3f 20 96 7c 3f fd 4f 75 3f
       0.9847214 0.9795502 0.9866657 0.9582518
000340 f2 8d 7b 3f 76 4b 7d 3f 8a 9d 6f 3f b2 ee 74 3f
       0.98263466 0.9894327 0.9359976 0.9567672
000350 42 e2 7b 3f fb a3 76 3f f2 f0 7d 3f 1d f3 66 3f
       0.9839212 0.96343964 0.9919578 0.9021471
000360 05 e4 73 3f 50 fd 6f 3f b2 43 74 3f 37 d5 6f 3f
       0.95269805 0.937459 0.95415795 0.93684715
000370 71 18 6a 3f d0 ef 6f 3f 0f 97 79 3f 77 03 7c 3f
       0.91443545 0.937253 0.9749612 0.98442787
000380 2b 89 6d 3f 86 da 7f 3f 08 ff 7b 3f 83 4e 7f 3f
       0.92787427 0.99942815 0.9843602 0.99729174
000390 a4 cc 7a 3f 41 27 7a 3f a2 34 7a 3f 0c 86 7d 3f
       0.97968507 0.97716147 0.9773656 0.99032664
0003a0 2a 46 7b 3f ae 3e 80 3f ad ec 6e 3f 19 5c 7c 3f
       0.98153937 1.0019128 0.9332989 0.9857803
0003b0 56 f4 72 3f 46 45 6a 3f 92 a2 7e 3f 9b 50 7f 3f
       0.9490408 0.9151195 0.9946681 0.9973237
0003c0 2c 63 7b 3f 1d 13 69 3f 68 76 7b 3f 60 56 79 3f
       0.981982 0.9104479 0.9822755 0.9739742
0003d0 37 cf 6a 3f 8a 8d 7f 3f bd 39 7a 3f 5d 0b 73 3f
       0.91722435 0.99825346 0.9774435 0.94939214
0003e0 ae 26 77 3f ba 22 7d 3f e3 7f 7b 3f e0 b8 76 3f
       0.96543396 0.98881114 0.98242015 0.96375847
0003f0 38 a1 81 3f 49 33 7d 3f 2d d1 6d 3f 1e 48 7b 3f
       1.0127325 0.9890638 0.928973 0.9815692

shared.1.bias f4 [512]
000000 50 30 2d 3b e3 f1 42 3c 68 c3 af 3b 76 b1 a8 3c
       0.0026426502 0.011898491 0.0053638704 0.020592432
000010 cd c2 9e bc df e6 90 bb 0b 97 4b bb 8a b2 56 3c
       -0.019379998 -0.004422053 -0.003106537 0.0131040905
000020 f0 d5 f5 3b 68 5d 8d bb 67 a2 d1 3b 04 16 eb bb
       0.00750231 -0.0043141134 0.0063975337 -0.0071742553
000030 79 f1 8d bc 9a 37 4c ba 31 32 bf bb 1e 9e be bc
       -0.017327057 -0.00077902677 -0.0058348407 -0.023268756
000040 4c 02 93 3b 9a 7f 37 bc fb ff 86 bc 0a d9 5e ba
       0.004486358 -0.011199856 -0.016479483 -0.0008500969
000050 6a 77 66 3b 50 d4 08 bc 70 33 25 bb be 77 f4 bb
       0.0035166391 -0.0083514005 -0.002520766 -0.0074605634
000060 f4 3f 59 bc 82 44 30 3b b9 a9 59 bc 7e e0 a2 bb
       -0.0132598765 0.0026896303 -0.013285094 -0.004970609
000070 bf b9 93 3c cf 78 a6 3b 23 f3 5a bc d6 d8 d3 bb
       0.018032907 0.0050803195 -0.013363632 -0.006465058
000080 97 69 8e bb 29 c3 4c bc a5 b5 96 bb 31 68 9a 3c
       -0.0043460834 -0.012497702 -0.0045992904 0.01884851
000090 ab d3 a4 ba d6 9c 70 bc 60 e8 e3 3b e7 61 4d bc
       -0.0012575289 -0.01468583 0.0069551915 -0.012535549
0000a0 0e f8 4e bc c8 c4 38 bc d6 ac 6f bc 88 e5 1d bc
       -0.012632383 -0.011277385 -0.01462861 -0.009637244
0000b0 04 36 61 bb ef 40 84 bb eb 82 12 bc 9f ed 71 bc
       -0.0034364471 -0.004036061 -0.008942346 -0.014766126
0000c0 99 7c 19 bb b1 84 6c bc 75 b0 8c bc 7c 5d d0 3b
       -0.0023420213 -0.014435933 -0.017173985 0.0063588005
0000d0 41 60 0d bc 74 3d 59 3c 2b 67 d5 bc c4 56 2e b9
       -0.008628906 0.0132592805 -0.02605017 -0.00016626256
0000e0 13 87 3a bc af 73 63 3c 03 2d 15 ba 7e d0 55 bc
       -0.011384743 0.013882562 -0.0005690606 -0.013050197
0000f0 51 3d 85 3b ac 3f e5 3c 22 c3 03 bc 10 cb f2 bb
       0.0040661474 0.027984463 -0.008042129 -0.007409461
000100 61 9d d5 ba cf e6 b1 bc 28 d9 66 bb a5 62 35 3a
       -0.0016297513 -0.021716503 -0.003522465 0.0006919301
000110 89 d8 0c bc 2d c2 aa bb a3 51 a4 3b 1d 81 05 3a
       -0.008596548 -0.005211136 0.0050146147 0.0005092787
000120 5c 49 07 3c 27 ce 00 bc 3d e4 7b bc 5f d1 23 3c
       0.008257236 -0.007861651 -0.01537424 0.009998648
000130 c7 ac b3 3c 60 3f 52 bc 04 f9 37 3c 73 0d 14 bc
       0.021932973 -0.012832493 0.011228804 -0.00903641
000140 15 4a ab 3b d8 53 99 bc a4 17 58 bc e2 e3 2d bc
       0.005227337 -0.018716738 -0.01318923 -0.0106134135
000150 2a de 23 bc 1f f6 46 bc 99 45 11 bc f5 d2 a5 bb
       -0.0100016985 -0.012143641 -0.008866691 -0.0050605484
000160 b6 b9 6b bc 33 09 b1 bb f5 5b ef ba 05 3a 3c bc
       -0.014387539 -0.005402708 -0.0018261658 -0.011488442
000170 1a 3b d1 bb 5b f7 55 3c 1b 50 ef 3a 02 0a 2a bb
       -0.0063852193 0.013059462 0.0018258126 -0.0025945907
000180 13 01 af 3b 8a e3 14 bc c6 2a d7 bc eb ee 9b bb
       0.005340704 -0.009087453 -0.026265513 -0.004758706
000190 31 0b 14 bb 30 48 c1 3c eb 21 01 3c 65 cc b5 bc
       -0.0022589678 0.023593992 0.007881622 -0.02219219
0001a0 b9 77 3d bb 2e 45 f5 bb 55 b8 b9 bb 09 7a 0c 3c
       -0.0028910472 -0.0074850535 -0.005667726 0.008574017
0001b0 44 f5 3e 3c d8 6c 83 3c 28 86 11 bc a2 61 89 3b
       0.011655156 0.016043112 -0.008882083 0.004192547
0001c0 c9 9b 95 bc a9 8a 02 bc b4 28 6b ba e0 fd 6b bc
       -0.01826276 -0.0079676295 -0.0008970604 -0.01440379
0001d0 5e e0 d1 3c c7 17 5a 3b c0 31 49 3c 7f e6 76 bc
       0.025619682 0.0033278333 0.012279928 -0.015069603
0001e0 2d a8 46 bb bd ed d8 ba 1c 63 bc bb c7 85 5a ba
       -0.0030312643 -0.0016550344 -0.0057491194 -0.00083359744
0001f0 63 0c f7 3b 4a d9 bd bc 88 2d 15 39 e3 65 ff bb
       0.0075393184 -0.0231749 0.00014226709 -0.0077941283
000200 92 1b 3c 3c da 5a 91 3b 9b cf 49 bc f4 2a e7 ba
       0.011481183 0.004435879 -0.012317563 -0.0017636702
000210 6e c8 39 3c 1c e8 3f bc 36 fe 9e bc a5 f5 16 bc
       0.01133929 -0.011713054 -0.019408327 -0.00921384
000220 3e 07 85 3b 15 f6 6a 3c 40 d5 8a ba 7b 76 1c bc
       0.004059701 0.014340897 -0.0010592118 -0.009549732
000230 a3 db 8c bc fe 20 68 bb df 65 7e ba 86 05 15 3b
       -0.017194575 -0.0035420056 -0.0009704511 0.0022738888
000240 7a 88 57 bc fc 3e b3 3c 82 02 43 bc 84 d2 91 bb
       -0.013155097 0.02188062 -0.011902453 -0.0044501442
000250 59 bb 12 bc 42 03 5f bc db 11 b5 b9 a6 81 d6 3a
       -0.0089558 -0.013611617 -0.00034536314 0.0016365543
000260 95 aa 39 3c db 62 80 3c 51 79 3b 3c 6b 30 5c 3c
       0.011332174 0.015672138 0.011442498 0.013439278
000270 3a 5d 55 3c 4e 7b b7 bb 03 a7 7a bc 67 78 a6 3c
       0.013022715 -0.005599416 -0.015298608 0.020321084
000280 33 b0 db bb 9f ec a9 bb f9 5f ae 3b 15 be f8 3b
       -0.006704354 -0.005185678 0.0053214994 0.007591019
000290 e5 d0 67 bb db ac 92 bc c5 fa 42 bc 52 ec 39 bc
       -0.0035372314 -0.01790469 -0.011900608 -0.011347847
0002a0 16 a5 58 bc 30 b9 55 bb 23 35 7d bc 00 d9 df bb
       -0.013222953 -0.00326116 -0.015454563 -0.0068312883
0002b0 f6 4f 2e 3b 27 c9 c1 bb 27 69 2d 3c 0b 8c d9 3b
       0.0026597953 -0.005913872 0.010584152 0.006639009
0002c0 77 23 04 3c f0 bc 5b bb d3 9e df bb fa 3b c0 bb
       0.008065096 -0.0033529364 -0.0068243532 -0.0058665248
0002d0 a8 94 1e 3b b2 f3 5a bc 2d 54 84 bc 5c 85 06 3c
       0.0024197493 -0.013363766 -0.01615342 0.008210506
0002e0 bc 8e c0 3b ad 3f da bc 1b 6f e6 ba 77 b8 bd 3b
       0.0058763903 -0.026641691 -0.001758072 0.005789812
0002f0 ec 4e 47 ba 73 cf 76 3a 34 1c 28 bc 48 38 07 bc
       -0.0007603008 0.00094150676 -0.01026063 -0.008253165
000300 2b 78 33 bc 20 68 73 3b 67 79 8b 3c d6 75 17 3c
       -0.010953943 0.003714092 0.017025663 0.009244403
000310 03 ac a2 ba 2b 70 00 3c ad 66 59 bc 7a 0e 92 bb
       -0.0012410883 0.007839243 -0.013269109 -0.004457292
000320 c9 53 cd 3c 92 79 45 3c 54 ff 32 bc 8e 9a bc bc
       0.025064366 0.01205291 -0.010925133 -0.023022916
000330 14 a8 d7 ba d3 a8 1d bc d4 95 bd bb 44 b5 6e ba
       -0.001645329 -0.00962277 -0.005785683 -0.000910599
000340 80 0c 37 bc 17 f3 f5 b8 4d fe 93 bc d1 51 de 3c
       -0.011172414 -0.000117277894 -0.018065596 0.027138622
000350 ef e9 75 bc 10 1e 4c 3c ae 0d d7 bb c3 0f 86 bc
       -0.015009387 0.012458339 -0.00656291 -0.016364938
000360 8a e4 1e bc b6 ee 91 3a a9 f4 3a bb a8 38 39 bb
       -0.009698043 0.0011133763 -0.0028527176 -0.002826253
000370 aa fc e6 ba 44 00 74 bc 14 44 6a bc ba 41 19 bc
       -0.0017622907 -0.014892641 -0.014298458 -0.009354049
000380 af f4 c6 bb b9 a2 40 3c 68 3b d8 bb d1 ea 3a bc
       -0.006071649 0.011757546 -0.0065988787 -0.011408524
000390 8a c0 31 bc 0e 21 16 3b 02 b4 55 bc ed 43 25 bc
       -0.010849128 0.0022907886 -0.0130434055 -0.010086996
0003a0 6e 21 0f bc 12 e6 06 bc 61 bd a8 3c f4 9b ff 3b
       -0.008735998 -0.008233564 0.020598115 0.0078005735
0003b0 94 31 a4 bc c8 9c 58 bc c7 6c 53 3b 12 ec 0d bc
       -0.020043172 -0.013220973 0.0032260881 -0.008662241
0003c0 b1 eb 02 bc e3 8b 02 3a a5 14 ce bb f0 10 84 3c
       -0.0079907635 0.0004979951 -0.006289082 0.016121358
0003d0 a0 a9 95 3b 6d c3 8d 3b 50 06 8f bb 20 53 8c bc
       0.00456734 0.004326275 -0.004364766 -0.01712948
0003e0 22 ec a2 bc 6e 16 93 3b ea 75 0f bc b4 58 3f bc
       -0.019887988 0.004488758 -0.00875614 -0.011678863
0003f0 16 cb 27 3b a7 20 26 3b 2b 8a d5 bc a3 39 0b 3c
       0.0025603226 0.0025349052 -0.02606686 0.008497628

shared.3.weight f4 [256, 512]
000000 03 31 12 bd f5 8b 06 bd 1d 8b 6d 3c 0f ff 8b ba
       -0.035691272 -0.032848317 0.014498499 -0.0010680872
000010 cf b2 0f bd fc 2e ba 3c d0 b5 dd bc 67 6b ba bb
       -0.035082635 0.022727482 -0.027064234 -0.005689073
000020 0c 5f 43 ba d1 b0 42 bc 0f 40 53 bc ec 03 38 bc
       -0.0007452823 -0.011882977 -0.012893691 -0.011231404
000030 84 6c 05 3d b4 23 b2 bc 26 a2 28 3c df ee 4d bc
       0.03257419 -0.02174554 0.010292565 -0.012569158
000040 7f 4f fc 3c 8f ca ae 3a 3a 99 3c bd be e4 d2 bc
       0.030799625 0.0013335514 -0.046044566 -0.025743838
000050 89 85 e1 ba 86 c7 15 bc f9 c9 3f 3b 35 fc bb 3b
       -0.0017205934 -0.009141808 0.0029264672 0.0057368525
000060 19 f2 42 3c 66 f8 65 bc d7 2f c0 bc b5 da 09 3d
       0.011898541 -0.014036274 -0.023460312 0.03365584
000070 93 9e ae bc 0d a0 27 bd 5d 8d 3c 3d 96 d8 02 3d
       -0.021315848 -0.04092412 0.046033252 0.031944834
000080 8a 07 06 bc 9a 3b 80 3c 97 75 89 3c 02 b8 0d bd
       -0.008180508 0.01565342 0.016779704 -0.03459931
000090 37 7c aa bc db 91 9f bc cc ae 8b ba 06 95 09 3d
       -0.020811183 -0.019478729 -0.0010656952 0.033589385
0000a0 6c 12 8b 3c 50 72 05 bc 3f 1b 95 3c 4a f6 99 bc
       0.016976558 -0.00814493 0.018201469 -0.018794198
0000b0 48 8b 6c bb 4a ff dd bc 17 c0 84 bc 66 51 37 3c
       -0.003609376 -0.02709927 -0.016204877 0.0111888405
0000c0 7f 01 cf 3c 3d 99 51 3c c5 74 12 3d 15 34 57 3c
       0.025269268 0.0127928825 0.03575589 0.013134976
0000d0 91 84 cd bc 1a c9 57 bc a8 d4 63 3c 17 81 dc 3c
       -0.025087627 -0.013170505 0.013905682 0.026917024
0000e0 9b 7c 21 bd 11 93 02 3c c9 12 eb bc 26 25 9d 3c
       -0.039425474 0.007969634 -0.02869548 0.019182753
0000f0 19 63 26 3c c1 00 83 3c 73 78 45 3c 88 53 08 bc
       0.010155463 0.01599157 0.012052643 -0.008320697
000100 73 a1 0c 3b 68 d5 05 3d cc 4d d7 b9 b8 d0 a0 3b
       0.0021458536 0.032674223 -0.0004106596 0.0049076937
000110 90 6e c0 3c 63 e2 f6 3b 45 ab f3 bc 67 cb b3 3a
       0.02349022 0.0075343116 -0.029744754 0.0013717235
000120 62 e5 be bc 5e b0 df ba b9 ab 03 3d 9e 96 f8 bc
       -0.023302738 -0.0017066111 0.03214619 -0.030345257
000130 d1 54 d5 3c 89 e3 6c 3c 45 72 aa bc 4e 10 0d bd
       0.02604142 0.0144585455 -0.020806441 -0.034439377
000140 9d 97 0a 3c a9 fe e0 bb bb ec 17 3b c3 3d 69 3c
       0.008458999 -0.0068662954 0.0023181874 0.014235917
000150 91 61 c4 3c 0d ec 5a 3c 9c 9d a7 3c a4 ea 48 bc
       0.023972305 0.013361943 0.020460896 -0.012262974
000160 bd 34 17 3d a5 af 19 bd 2f 0d b5 bc 8a 0e 62 3c
       0.03691553 -0.037521023 -0.022101013 0.013797412
000170 f5 9b 1f bb 0c 35 55 3b ed 03 af ba 07 98 46 3c
       -0.0024354432 0.003253284 -0.001335261 0.012121207
000180 92 93 fc bc 6b 4f af 3c 4e 52 84 3c a4 55 75 bb
       -0.030832086 0.021400174 0.016152527 -0.003743508
000190 29 e5 c0 bc 47 f1 61 bc 22 76 a2 3c 6b 59 15 bb
       -0.023546772 -0.013790435 0.01983172 -0.0022788893
0001a0 2f 04 99 bc f6 0b 31 bc 12 ff 18 3d 0a 67 31 ba
       -0.018678753 -0.010806074 0.03735263 -0.0006767368
0001b0 04 cd 2e 3d 26 31 34 bb 65 e6 5a bb 90 d6 27 bd
       0.042675987 -0.0027495115 -0.0033401486 -0.040976107
0001c0 44 e3 63 3c 30 e1 39 bc 73 5b 91 3c 95 5b dc 3c
       0.013909165 -0.011345193 0.017743802 0.026899138
0001d0 ac 82 45 bc e2 4e 68 3a ec e4 db 3c d2 e7 67 bb
       -0.01205508 0.0008861852 0.026842557 -0.0035385978
0001e0 c2 62 e0 ba 6d eb da bc 95 fa 7a bc 71 a4 00 3d
       -0.0017119276 -0.026723588 -0.0153185325 0.031406824
0001f0 d4 4a 87 3b 66 2a 17 3d db 88 3f 3d f6 41 5c ba
       0.0041287933 0.03690567 0.046761375 -0.0008402163
000200 a0 2f aa bc 8e 52 05 3c a5 53 d5 bb 09 e9 0d 3c
       -0.020774662 0.008137358 -0.0065102153 0.008661517
000210 3e d8 12 ba 9b 41 5a 3c 57 db fa bc c1 39 94 bb
       -0.00056016806 0.013321306 -0.030622168 -0.0045234864
000220 d5 c5 0f 3b 47 81 a7 3c 04 8a c6 bc 91 4b 89 3c
       0.0021937985 0.020447386 -0.024235733 0.016759666
000230 75 b9 88 bc 72 ab 34 bc ad c9 49 3a 12 1d 0b 3d
       -0.016689995 -0.011027204 0.00076975935 0.03396327
000240 6f 5a 1c bd b3 6b a6 bc a0 64 d0 bc 2d cc fd 3b
       -0.03817218 -0.020315027 -0.025438607 0.007745287
000250 cc f2 bc 3c 15 11 40 bb d4 67 bd bb 5b c9 1f bd
       0.023064993 -0.0029307057 -0.0057801995 -0.039010387
000260 f0 d8 03 bd d9 25 e6 bc cc b2 cd bc f4 1a 49 3b
       -0.03218931 -0.028094219 -0.025109671 0.0030686231
000270 5c 44 06 3d f2 ca e2 3c a1 d0 ce bc 99 62 e2 3c
       0.032780036 0.027684662 -0.025245966 0.027634906
000280 11 5f e5 3b 35 d2 b1 bb 97 87 30 ba 30 11 b2 3b
       0.006999858 -0.00542667 -0.00067340716 0.005434178
000290 e2 a5 3b bd 35 84 bd bc d8 64 94 3c 04 d7 18 3c
       -0.045812495 -0.02313433 0.018114492 0.0093286075
0002a0 da 0d 8f 3c 95 a7 36 3d e7 11 a8 bb 9f f3 16 3c
       0.01746266 0.044593412 -0.0051290873 0.009213357
0002b0 07 72 96 3a cc 1d 41 3b 00 89 09 bd 6c 2a ff bc
       0.0011478075 0.0029467223 -0.03357792 -0.031148158
0002c0 e2 58 92 3c 7c 99 df bc dd 11 92 bb ce 36 ef bc
       0.017864648 -0.027294867 -0.004457696 -0.029200938
0002d0 ab 54 0a bd 49 04 c0 3b a1 66 ca 3a fb f4 e9 39
       -0.033772152 0.005859886 0.0015441963 0.00044623748
0002e0 fa c0 f6 3c d9 31 47 3b 65 b9 97 bc c7 f8 92 3c
       0.030121315 0.0030394702 -0.01852102 0.017940892
0002f0 49 9c 2c bd a3 e6 c3 3b 10 49 0d bd eb f9 df 3b
       -0.042141233 0.005978422 -0.034493506 0.0068352125
000300 95 89 86 3c 52 95 6b bc dd 66 96 bc 3f 2a dd 3c
       0.016423026 -0.014378862 -0.018359596 0.026997684
000310 30 c0 99 3a d3 1c a2 ba 12 f6 c0 3c cd d0 b3 3c
       0.001173025 -0.001236821 0.023554835 0.02195015
000320 8d 97 e0 3c ca df be 3a f6 40 c7 3c 24 47 f2 3b
       0.027416015 0.0014562544 0.024322968 0.0073937345
000330 79 dd 03 3c d6 8f 1c bd 1b c3 0b bc 0c 2e 2b bd
       0.008048409 -0.03822311 -0.0085304035 -0.04179196
000340 d4 93 1f bd 59 17 da 3c 60 db d5 bc e4 f4 f3 3b
       -0.03895934 0.026622461 -0.026105583 0.0074449647
000350 1b 70 ad 3c a5 83 74 bc af 2a 62 bc 44 f6 fb bc
       0.02117162 -0.014923965 -0.013804122 -0.030757077
000360 16 a4 07 bc f2 75 dd 39 74 75 0a bd 61 f6 ab bc
       -0.008278867 0.0004224028 -0.03380342 -0.020991506
000370 94 58 e9 3b ea 25 8a bc 0b 00 fb 3c 03 c0 86 bb
       0.007121155 -0.016863782 0.030639669 -0.004112245
000380 b4 97 ac 3b b8 be 28 bd e4 0b 91 bc 69 6d 23 3c
       0.005267108 -0.04119751 -0.017705865 0.009974816
000390 ac 83 06 3d 22 fe 6b bc c1 7b cb bb 55 19 eb bb
       0.032840416 -0.014403852 -0.006209821 -0.0071746507
0003a0 00 1b 9c bc cb 29 d6 bc 91 b1 34 bb 6c 96 f3 3a
       -0.019055843 -0.026142975 -0.0027571658 0.0018584258
0003b0 6f 69 91 3b 84 81 b4 3a 5a b5 7e bc 9e 5f b4 3c
       0.0044376175 0.0013771509 -0.015546167 0.02201825
0003c0 92 38 0b 3d 97 e4 b0 3b ec b6 bb bc 37 03 13 bd
       0.033989497 0.005398344 -0.022914372 -0.035891738
0003d0 57 ae 12 bc 0d 78 1a 3c 2a e7 a2 bb 94 0c 16 bc
       -0.008952699 0.009428036 -0.0049714046 -0.009158272
0003e0 c0 26 81 bc c6 03 c4 3a 64 35 0b ba f5 5b ba 3c
       -0.015765548 0.0014954738 -0.0005310385 0.022748927
0003f0 ac 78 2f bd ac 03 9a bb b2 8f 10 3d 0e fe cc bc
       -0.04283969 -0.0047001448 0.03529329 -0.025023486

shared.3.bias f4 [256]
000000 a3 4a 40 bd b8 cb 31 3d 6d ef 63 3c d8 ec bf bc
       -0.04694618 0.043407172 0.013912064 -0.023428366
000010 94 25 08 bd 95 10 e0 bb 99 81 cd 3c 9f 03 82 3c
       -0.033238962 -0.006837914 0.025086211 0.015870867
000020 9c 8b 14 3d 23 de 96 39 f2 ea 4e bc 13 6d b1 bc
       0.036265954 0.00028775734 -0.0126292575 -0.021658456
000030 8d 87 96 bc f6 f6 1b bd 37 d4 24 bc 84 36 68 3c
       -0.018375183 -0.038077317 -0.010060362 0.014173154
000040 35 a9 86 bc 56 4e ad bc f7 46 8a 3c 92 71 2a 3d
       -0.016438106 -0.021155518 0.016879542 0.041612215
000050 8a bd c1 3c e1 40 55 bc 6f 2d ca 3a 20 b5 15 3d
       0.02364995 -0.013015957 0.0015424917 0.036549687
000060 e7 d7 0f 3d 39 db 9e bc f4 6f 4c 3b a9 91 3d ba
       0.03511801 -0.019391643 0.003119466 -0.0007231483
000070 ea ce dd bc 2d 7d fc 3c 6d 92 8c bc d3 73 97 3b
       -0.027076203 0.030821407 -0.017159665 0.0046219616
000080 04 77 31 bd fa aa 82 3b da 79 73 3c 70 99 d4 bc
       -0.043326393 0.003987667 0.014860595 -0.025952071
000090 17 c6 86 bc 38 36 19 bc 2d 52 22 3b 68 43 c3 bc
       -0.016451878 -0.009351306 0.002476822 -0.023835853
0000a0 a1 88 28 3d e7 ec 20 3d 56 c8 a9 bc bc 5e 0a bd
       0.041145924 0.039288428 -0.02072541 -0.033781752
0000b0 85 ee 14 3d ff a4 58 3c c6 7a 79 bc d6 ab 1a 3b
       0.036360282 0.013222932 -0.015227025 0.0023600957
0000c0 b4 fc 30 bd 14 b9 a4 3a 5e bf e6 3c cf 81 a2 3b
       -0.043209746 0.0012567365 0.028167423 0.004959322
0000d0 48 b2 8c 3b 84 a0 24 bd 20 c5 2d 3d a1 94 a6 bc
       0.0042937137 -0.040192142 0.04242432 -0.020334544
0000e0 20 55 06 3d 3b 0d d1 bc 13 94 25 bb 74 04 49 bc
       0.032796025 -0.025519004 -0.002526526 -0.012269128
0000f0 f4 0e 0e bd f3 02 1f bc c7 0b 00 3d 11 d3 33 3d
       -0.03468223 -0.009705293 0.03126123 0.04390246
000100 95 80 ee 3c 40 f9 5f bc de 6b 5b 3c f5 1e 29 bc
       0.029114047 -0.013670266 0.013392417 -0.010322322
000110 a3 fd ab 3c 77 be 11 3d 90 f7 84 bc 61 32 db bc
       0.020994967 0.035582032 -0.016231328 -0.026757421
000120 c0 1e 2b bc f9 0a f3 3c 34 f4 30 bc 48 3e d8 bc
       -0.010444343 0.029668318 -0.01080041 -0.026396886
000130 e7 03 a5 3c dd 95 13 bd a4 8e de 3c 8e eb 04 3d
       0.020143462 -0.036031593 0.027167626 0.032451205
000140 a3 4c 24 3d 58 d2 10 bb 77 ba 24 bd 66 3d 3b 3b
       0.04011215 -0.002209803 -0.04021689 0.0028570532
000150 b8 7f 29 3d 8c 4e 3b bc cb 6a f3 3b 52 2b f1 bb
       0.041381568 -0.011432301 0.007428502 -0.0073599005
000160 38 f0 89 3c 57 ff c7 bb f8 f1 fa ba e8 5b fc 3c
       0.016838178 -0.006103437 -0.0019145599 0.030805543
000170 5d d3 5c 3b 60 e6 1b bd fc 6f 92 3c 7e 33 16 3d
       0.0033695318 -0.0380615 0.017875664 0.0366702
000180 86 18 be bc 1c 2b 6a b9 49 eb 8f 3c 68 11 ab 3c
       -0.023205053 -0.00022332038 0.017568247 0.020882323
000190 d1 d0 a0 bc 57 57 08 3d 41 fa 39 bd 75 62 5b bc
       -0.019630821 0.03328642 -0.045404676 -0.013390173
0001a0 54 95 b0 bb ee b2 bf 3c 7c 1d 29 bd 3d d4 f2 3b
       -0.005388895 0.02340075 -0.041287884 0.0074105547
0001b0 ce e2 08 bd fb 01 fc bc ec d6 0d 3d 84 e0 ea bb
       -0.033419423 -0.030762663 0.034628794 -0.0071678776
0001c0 1d c2 c4 3c ab 86 57 bc 3d 8d 9b bc a9 36 af 3c
       0.024018342 -0.013154666 -0.018988246 0.021388369
0001d0 54 a4 40 b9 66 1d 77 bc a6 b7 d6 3c 63 58 51 3a
       -0.00018371764 -0.015082693 0.026210617 0.0007985888
0001e0 56 80 29 bc ef 05 e1 3b 1b 29 29 3d 20 c4 05 3d
       -0.010345539 0.0068671624 0.041298967 0.032657743
0001f0 68 c5 4c 3b 50 5a 79 3c 98 4d da 3c 44 ec 02 3d
       0.0031245593 0.015219286 0.026648328 0.0319636
000200 e5 d1 e8 bc 24 0b fd 3b 4e 6a a6 bc ef ba 1b 3b
       -0.028420398 0.0077222753 -0.020314362 0.0023762544
000210 17 d6 81 bc c6 8e cb 3c 0b 80 ae bb a7 0e 0e 3d
       -0.015849156 0.024848353 -0.0053253225 0.034681942
000220 06 6a ff bc df 4b 31 3d 39 11 a5 3c bb 7c e4 bc
       -0.031178486 0.043285247 0.020149814 -0.027891507
000230 99 6e 54 bc a2 90 ac 3c 4c 77 0d 3d 6c 01 34 3d
       -0.012965822 0.02106506 0.0345376 0.04394667
000240 3c 86 fd 3c b8 f3 1a 3d ea 57 56 3c 5c 38 01 bd
       0.030947797 0.037830085 0.013082484 -0.03154789
000250 08 d8 94 3b 3a bc d1 3b 3d 21 d3 bb 72 4c c4 3c
       0.0045423545 0.006400612 -0.0064431713 0.023962233
000260 4c a1 eb bc dc f5 df bc a3 27 ca bb 3c dc 36 bd
       -0.028763436 -0.027338915 -0.006169276 -0.044643626
000270 1b 7e 17 bc d2 5a 52 3c 61 a4 12 3d ca 63 9b 3c
       -0.0092463745 0.012839036 0.035801295 0.018968482
000280 77 71 84 bb 7d 17 1a 3d 6f 45 6c bc 61 a6 1a 3d
       -0.0040418464 0.037620056 -0.014420851 0.037756328
000290 25 ed 62 3c 54 21 3c bd b6 f5 8e bc b6 78 f3 3c
       0.013850485 -0.04593022 -0.017451148 0.029720645
0002a0 86 01 1c 3c 39 8a c6 bc 01 5a 19 bc b4 b0 2c 3d
       0.009521848 -0.024235832 -0.0093598375 0.042160705
0002b0 f0 66 20 3d af 59 27 3d ad c2 a2 3c 13 e1 e8 3b
       0.03916067 0.040857013 0.01986822 0.007106909
0002c0 e4 1b 11 3d 69 98 df bb 19 5b e2 3a f1 9e 0c bd
       0.03542699 -0.0068235886 0.0017269581 -0.034331266
0002d0 a5 53 11 bc 46 dc 24 bd 82 2e 07 bd 4e 6b f7 bc
       -0.00887004 -0.04024913 -0.033003338 -0.030202534
0002e0 dc 93 b8 3c 5e 76 73 3b ae 28 5a bc 9f fc ad bc
       0.022531442 0.003714941 -0.013315363 -0.021238623
0002f0 59 66 b5 3b c1 57 7d 3c d4 9e 07 3d 09 e4 88 bb
       0.0055358824 0.015462817 0.033110455 -0.0041775745
000300 19 6e 93 b9 ad 5b 1b bc 00 d8 cc 3c 38 49 d6 3b
       -0.00028120054 -0.009482306 0.02500534 0.00653949
000310 63 95 08 bd 9a 41 a8 b9 4d 93 9c bc 57 15 15 bd
       -0.03334559 -0.00032092334 -0.019113207 -0.036397304
000320 01 b7 20 3d 42 ba 13 3d 82 c1 ab 3c ce b1 ae bc
       0.039237026 0.0360663 0.020966295 -0.021325018
000330 a1 61 14 3d f7 50 21 3c 9d c7 a7 3c 88 83 e4 bc
       0.03622592 0.009845964 0.020480925 -0.02789475
000340 5b 6c 8f bc cf d4 52 3b 0f f0 de 3c 1c 4e 11 bd
       -0.017507723 0.00321703 0.027214078 -0.03547488
000350 97 97 b9 bc 39 8a 04 bd 13 8c 10 bd d7 6c 05 3d
       -0.022655291 -0.032358382 -0.035289835 0.0325745
000360 89 f7 eb 3c 9f 53 6b 3c 04 c3 4b bc 10 c1 a7 bc
       0.028804557 0.014363199 -0.012436632 -0.020477802
000370 3a 28 fc bc 12 80 d2 bb a6 af 19 3b 84 d1 23 3d
       -0.0307809 -0.0064239586 0.0023450642 0.03999473
000380 55 3f b5 bc df bd 1a bb c8 4a d5 bc ae 2f 51 bc
       -0.022124926 -0.0023611707 -0.026036635 -0.012767715
000390 15 94 b2 3c 55 34 bd bc 90 49 bb bc 21 d2 29 3d
       0.021799127 -0.023096243 -0.022862226 0.04146016
0003a0 c0 70 12 bd 70 19 94 bc 9e 94 e6 3c b5 c6 1e bc
       -0.035752058 -0.018078536 0.028147038 -0.00969093
0003b0 b3 31 13 bd 57 2a b3 3c 7e 39 59 3b 6c b5 73 bc
       -0.03593607 0.021870775 0.003314584 -0.014874797
0003c0 52 53 40 bc 01 4d c3 3c fd 53 a1 3b 57 58 d7 3c
       -0.011738615 0.02384043 0.0049233423 0.02628724
0003d0 22 5e 29 bd d7 a3 10 3c 2a ab aa bc ea 69 1b 3c
       -0.041349538 0.008828125 -0.02083357 0.009485701
0003e0 d2 6d 24 3c 35 f0 0f bb c3 56 05 3d 7d ce 84 bc
       0.010035949 -0.0021963243 0.032553446 -0.016211743
0003f0 37 c0 f8 3c 34 a9 f4 3c 94 8f dc 3c f5 68 11 3d
       0.030365093 0.029865839 0.026923932 0.035500485

shared.4.weight f4 [256]
000000 4f 5c 68 3f b9 7a 7d 3f 13 45 7f 3f 87 d2 77 3f
       0.9076585 0.99015385 0.99714774 0.96805614
000010 0d a0 6c 3f 9e 80 70 3f ef 04 77 3f 2e 18 7a 3f
       0.9243172 0.93946254 0.96491903 0.97693145
000020 bb 2c 7f 3f 6f 50 7a 3f 24 33 7d 3f 2b 5d 75 3f
       0.9967763 0.9777898 0.9890616 0.9584529
000030 16 f3 7f 3f 9d c5 70 3f c5 23 68 3f 17 20 81 3f
       0.99980295 0.94051534 0.9067958 1.0087918
000040 5a 80 7e 3f d6 22 83 3f e6 f3 80 3f b5 64 69 3f
       0.994146 1.0245006 1.0074432 0.9116929
000050 24 2b 7e 3f cd 34 80 3f 50 f2 75 3f 00 1b 7c 3f
       0.9928458 1.0016114 0.96072865 0.984787
000060 a7 33 73 3f 28 d1 6c 3f 1e 49 76 3f ea a2 6f 3f
       0.9500069 0.9250665 0.9620532 0.9360796
000070 91 b7 7e 3f 73 23 7e 3f 36 62 6e 3f 98 72 7e 3f
       0.9949885 0.9927284 0.9311861 0.99393606
000080 6e 83 6c 3f 2e 3b 7b 3f e7 f2 7f 3f e3 f9 69 3f
       0.92388046 0.98137176 0.99980015 0.9139692
000090 0f 22 79 3f 94 a7 6e 3f f2 91 7c 3f 08 05 7e 3f
       0.97317594 0.93224454 0.98660195 0.9922643
0000a0 da 17 7d 3f 9d 44 80 3f e1 63 80 3f 50 a9 7f 3f
       0.9886452 1.0020939 1.0030481 0.99867725
0000b0 94 6a 7e 3f 9c dc 72 3f 8c 87 7e 3f ab b7 6f 3f
       0.99381375 0.94867873 0.9942558 0.9363963
0000c0 f3 26 73 3f e2 52 81 3f 25 ad 7a 3f 19 6e 7c 3f
       0.94981307 1.0103419 0.9792045 0.98605496
0000d0 36 70 69 3f b0 5f 71 3f e3 96 7d 3f e5 38 7e 3f
       0.91186845 0.9428663 0.9905836 0.99305564
0000e0 03 88 78 3f b4 8a 7e 3f 94 a3 81 3f 5b 88 7d 3f
       0.9708254 0.99430394 1.0128045 0.99036187
0000f0 4f 70 7e 3f 73 83 79 3f d2 cc 72 3f 7f 3b 7f 3f
       0.9939012 0.974662 0.9484378 0.9970016
000100 3d b9 7c 3f 7d 16 7c 3f 93 c5 67 3f db ab 7e 3f
       0.9872015 0.98471814 0.9053585 0.9948098
000110 1f 5f 73 3f 05 72 7c 3f c2 34 7d 3f d5 a5 78 3f
       0.9506702 0.9861148 0.9890863 0.9712804
000120 60 59 7e 3f 99 cf 7d 3f 92 f1 78 3f 0d 18 78 3f
       0.99355125 0.99144894 0.9724361 0.969117
000130 5e aa 79 3f c5 a7 7b 3f d6 9c 6d 3f 74 49 82 3f
       0.97525585 0.9830287 0.9281744 1.0178666
000140 3c 4f 76 3f 94 da 6b 3f 7e 93 7e 3f fb af 74 3f
       0.9621465 0.921304 0.99443805 0.95581025
000150 f7 a2 81 3f 48 a1 6e 3f 3d e2 7f 3f 01 32 7e 3f
       1.0127858 0.93214846 0.9995459 0.9929505
000160 92 a3 7c 3f 2f e6 7d 3f cc d0 74 3f 05 36 7b 3f
       0.9868709 0.9917936 0.956311 0.981293
000170 d1 eb 75 3f c5 6a 66 3f b5 e6 78 3f b8 91 7e 3f
       0.9606295 0.9000667 0.9722703 0.994411
000180 59 b0 78 3f e6 6b 73 3f 81 e3 7c 3f 3e 70 81 3f
       0.97144085 0.95086515 0.98784643 1.0112379
000190 95 a8 72 3f 88 c7 7d 3f 2d d7 73 3f 8f 57 7c 3f
       0.94788486 0.99132586 0.9525021 0.98571104
0001a0 c7 94 78 3f ce 41 7a 3f a9 0a 6e 3f a8 6d 7a 3f
       0.97102016 0.9775666 0.92985016 0.9782357
0001b0 43 81 71 3f 2a 99 7a 3f 86 7e 7c 3f e8 b0 7f 3f
       0.9433786 0.9788996 0.9863056 0.9987931
0001c0 77 b2 74 3f 65 95 7e 3f 03 90 81 3f 1f 3e 80 3f
       0.95584816 0.9944671 1.0122074 1.0018958
0001d0 ad 10 7e 3f 9a 8b 69 3f b9 d7 7d 3f 76 82 80 3f
       0.99244195 0.9122864 0.9915729 1.0039814
0001e0 41 a3 70 3f bd 0b 7e 3f 15 b0 7f 3f 8f e4 7b 3f
       0.93999106 0.9923666 0.99878055 0.9839563
0001f0 bc 2a 71 3f 71 47 7e 3f 25 4a 6d 3f 86 9e 7e 3f
       0.9420583 0.9932776 0.9269126 0.9946064
000200 71 5d 74 3f a2 fc 80 3f f2 e5 76 3f ec 82 7b 3f
       0.9545508 1.0077097 0.9644462 0.98246646
000210 10 9f 70 3f a9 5b 81 3f b0 b0 6b 3f d6 31 80 3f
       0.9399271 1.0106097 0.9206648 1.0015209
000220 b4 f0 71 3f 5e 13 80 3f 74 8b 6d 3f fa 1c 80 3f
       0.9450791 1.000591 0.92790914 1.0008843
000230 1b f6 75 3f 70 ba 6c 3f 11 8a 6f 3f 3d d4 7c 3f
       0.9607865 0.9247198 0.9357005 0.9876135
000240 a0 de 80 3f 85 00 75 3f 58 31 7b 3f 09 4c 71 3f
       1.006794 0.9570392 0.9812217 0.94256645
000250 a2 e7 6b 3f f8 e6 6a 3f dc aa 7e 3f 64 8f 7e 3f
       0.9215032 0.9175868 0.9947946 0.99437547
000260 db 25 78 3f 2f ba 7c 3f bc 22 73 3f 57 ba 6b 3f
       0.9693276 0.98721594 0.94974875 0.9208121
000270 6e 55 7f 3f b4 5b 7b 3f ab 24 7a 3f 0b 49 7a 3f
       0.9973973 0.981868 0.977122 0.97767705
000280 da 5d 7e 3f fe 7d 7e 3f 83 25 6c 3f ff a0 77 3f
       0.99361956 0.99411 0.9224474 0.96730036
000290 6e 28 6e 3f a5 3e 6c 3f 65 14 7d 3f 76 55 7c 3f
       0.9303044 0.9228309 0.98859245 0.98567903
0002a0 94 9a 7b 3f 0d 0c 7a 3f 31 79 7c 3f 36 8f 7c 3f
       0.9828274 0.9767464 0.98622423 0.9865602
0002b0 c8 d5 6b 3f 2e db 78 3f 53 f1 80 3f 58 5b 80 3f
       0.9212308 0.9720944 1.0073646 1.0027876
0002c0 12 45 79 3f e2 04 7c 3f 88 d1 7f 3f 06 44 82 3f
       0.9737102 0.9844495 0.99929094 1.0177009
0002d0 3f 31 7e 3f f2 be 6d 3f ae 96 76 3f 39 8d 7b 3f
       0.99293894 0.92869484 0.9632367 0.98262364
0002e0 c4 5c 7c 3f 3b 02 75 3f 77 8c 7f 3f a6 dc 6f 3f
       0.9857905 0.9570653 0.9982371 0.9369606
0002f0 8f f5 6d 3f b7 e4 79 3f 45 77 7e 3f 32 de 6f 3f
       0.9295282 0.97614616 0.9940074 0.9369842
000300 6e 81 77 3f 78 3a 7b 3f 8d 53 7c 3f 85 31 7b 3f
       0.9668187 0.9813609 0.9856499 0.98122436
000310 8d b9 6a 3f 46 b4 77 3f 95 1b 7b 3f e8 0b 69 3f
       0.9168938 0.9675945 0.9808896 0.9103379
000320 1d 81 71 3f cb 6e 7c 3f df 49 79 3f f3 48 6e 3f
       0.94337636 0.98606557 0.97378343 0.9308006
000330 dd b9 7f 3f 9a e6 78 3f be d9 79 3f ac b3 81 3f
       0.9989298 0.9722687 0.97597873 1.0132957
000340 21 29 82 3f 63 43 69 3f 0c 77 7e 3f 46 8b 67 3f
       1.0168802 0.9111845 0.994004 0.9044689
000350 80 46 77 3f 0f 5c 7b 3f 2b 70 7d 3f 54 8a 80 3f
       0.9659195 0.98187345 0.9899928 1.0042214
000360 b8 5d 7f 3f 73 62 83 3f bb a2 74 3f 50 ae 75 3f
       0.9975238 1.0264419 0.95560807 0.95969105
000370 f8 e2 80 3f 93 0a 7f 3f 7d f6 79 3f 63 7d 79 3f
       1.0069265 0.9962551 0.97641736 0.9745695
000380 8d 3d 7b 3f 14 aa 7a 3f 8a c9 7a 3f 34 d5 7e 3f
       0.98140794 0.9791577 0.97963774 0.9954407
000390 5e 64 7e 3f 6f 55 7a 3f a5 cd 6f 3f 47 1c 7d 3f
       0.993719 0.9778661 0.93673164 0.9887127
0003a0 98 00 72 3f e2 e1 81 3f 26 83 7d 3f a8 2a 7a 3f
       0.94532156 1.0147059 0.9902824 0.9772134
0003b0 c4 c2 7e 3f f0 bf 6c 3f 7a 7e 80 3f 7a a9 6d 3f
       0.9951594 0.92480373 1.0038598 0.92836726
0003c0 b8 bf 7f 3f cf a6 6f 3f 38 b5 77 3f e6 da 7d 3f
       0.99901915 0.93613905 0.9676089 0.9916214
0003d0 a5 31 71 3f cb bd 72 3f ea 50 76 3f 65 dd 76 3f
       0.94216377 0.9482085 0.96217215 0.9643157
0003e0 de 9b 7f 3f 0f b8 79 3f 8c f5 7e 3f ef 88 7f 3f
       0.9984721 0.97546476 0.99593425 0.9981832
0003f0 5a 06 6b 3f 1c e8 7e 3f c9 d2 7e 3f c7 10 7a 3f
       0.91806567 0.9957292 0.9954038 0.9768185
