checkpoints/yahtzee_pretrain_fast/best_model.pt (torch, 526773 bytes, 25 tensors)

shared.0.weight f4 [256, 23]
000000 d1 9f 3f bc b6 4b 2d 3e 70 5e 83 3d 74 4d 66 3d
       -0.011695818 0.16923413 0.06414497 0.05622621
000010 c8 13 4f 3e 20 0d 25 be 1b b7 65 be cb d3 ab be
       0.2022239 -0.16118288 -0.2243313 -0.33560023
000020 c7 2a 12 be c6 e9 35 be a5 d9 6e bd 90 bc 82 3b
       -0.14274131 -0.17764959 -0.05831303 0.0039897636
000030 2f 04 66 3d a7 93 41 3e 67 94 9b bd 3c 69 4f be
       0.056156334 0.18903981 -0.07596665 -0.20254987
000040 92 35 e6 bd 23 15 a8 bb 98 a9 9c be ae fc 8e bd
       -0.112406865 -0.005129473 -0.3059814 -0.069817886
000050 73 67 a5 3e 09 92 3d be 9d 74 1c be 18 82 c0 3d
       0.32305488 -0.18512739 -0.1527886 0.093998134
000060 00 4f 4d be d6 39 ef bd 96 4c 68 be bc 71 48 be
       -0.20049667 -0.11680953 -0.22685465 -0.19574636
000070 08 db 33 3d 6d 56 d4 3d 99 71 d7 3e d6 df 9a be
       0.043910056 0.10368047 0.42078856 -0.30248898
000080 cd 19 41 be 57 35 31 3e 23 8e 74 3e a1 06 78 be
       -0.18857498 0.17305504 0.23882346 -0.24221279
000090 71 a3 43 be 07 ea 4e 3e 73 92 2d 3d ec 22 b4 3a
       -0.19105317 0.20206462 0.042375993 0.0013743318
0000a0 49 51 47 bc 7b 02 e3 3c 22 7f fd 3d 44 c5 2c be
       -0.012165376 0.027711144 0.12377764 -0.16872126
0000b0 0f 64 19 bc 98 85 e7 bd df fb 33 3e a2 ea 67 bd
       -0.009362235 -0.11304778 0.1757655 -0.056620248
0000c0 b9 24 e5 3d c9 5e 5b 3d ff 45 80 be d5 23 82 3d
       0.11188645 0.05355719 -0.25053403 0.06354491
0000d0 bc 9f 33 be 59 c3 66 be a7 17 50 be fb 1b 89 3d
       -0.17541403 -0.22535457 -0.20321523 0.0669479
0000e0 00 7a 51 bc 57 5a 77 3e f4 3f 6d be e1 9b 09 bd
       -0.012785435 0.24155556 -0.23168927 -0.033595923
0000f0 2b e3 5d 3d e0 59 36 be d4 8b 51 be 05 2e 16 3e
       0.054171722 -0.17807722 -0.20463496 0.14665993
000100 19 8c 38 be 90 64 28 be 71 ed 1b be 2a ed d2 bd
       -0.18022193 -0.16444612 -0.15227295 -0.10299142
000110 6f c3 e7 bd 23 cf d0 bd a1 37 c5 bd 41 17 fd 3d
       -0.11316573 -0.10195758 -0.09629751 0.12357951
000120 48 13 b1 3d e0 c0 44 3d 89 6b 25 be bd a1 3d be
       0.08646256 0.048035502 -0.16154303 -0.1851873
000130 31 cf 9b be b5 41 d2 bd a0 a4 8d be c2 ea 99 be
       -0.30431512 -0.10266439 -0.2766466 -0.30061918
000140 f2 be 15 be 1b 9a d4 3d 63 c0 0b be 54 d6 05 3d
       -0.14623621 0.10380956 -0.13647608 0.032675102
000150 6b 34 e4 bd ce 50 df 3d 00 fe 1e be d1 72 4a be
       -0.111428104 0.10904084 -0.15526581 -0.19770361
000160 b7 91 2e be d2 9e 33 3d ab 94 11 be d0 34 2e be
       -0.17047773 0.043852635 -0.14216869 -0.17012334
000170 7f a7 ca bc 3f b9 cb bc ad 00 17 be 1f b7 08 ba
       -0.024738071 -0.024868606 -0.14746352 -0.00052152755
000180 90 57 54 3d fe 9f cc 3d 61 84 68 3e 71 1d f1 bd
       0.05184132 0.099914536 0.22706749 -0.11773194
000190 68 33 d1 3d c5 ef f5 be 02 3b 6b 3e a4 e6 f1 3d
       0.10214883 -0.48034492 0.22971728 0.11811569
0001a0 54 80 2b 3d 21 cf 04 be 75 f7 f8 bd a2 17 66 be
       0.04187043 -0.12969638 -0.12156574 -0.22469953
0001b0 49 d1 ee bd 59 52 f7 bc 47 07 cc bb d0 02 19 bd
       -0.11661012 -0.030190634 -0.0062264535 -0.037356198
0001c0 94 04 2d 3d e3 76 13 3e a2 a3 11 be 4f 14 b6 bd
       0.042240694 0.1440082 -0.14222577 -0.08890592
0001d0 68 ce 8e bd 5a 3a 27 be e5 e8 f6 bd d6 ca 82 be
       -0.069729626 -0.16330853 -0.1205614 -0.25545377
0001e0 0a cc 8d 3d 9c eb 1d be c0 b4 1f be 46 f4 75 bd
       0.06923683 -0.15421909 -0.15596294 -0.06004741
0001f0 92 11 01 be b8 06 67 be 5f b0 04 be c6 e1 be 3c
       -0.12604359 -0.22561157 -0.12957905 0.023301017
000200 54 60 96 bd e0 c0 fc 3d 6d a6 0d 3e c1 b3 48 be
       -0.07342592 0.123414755 0.13833018 -0.1959982
000210 b0 5e 4a be 34 48 4c be b1 b9 8e 3d 10 42 f2 bd
       -0.19762683 -0.19949418 0.069690116 -0.11829007
000220 db 28 05 be 28 d1 46 be 99 63 87 3d 1a 3c 99 3d
       -0.13003866 -0.19415724 0.066107936 0.074821666
000230 5c 50 f2 bd 08 dd ec 3d f4 3c 81 bd bd ed c7 3c
       -0.118317336 0.11565596 -0.06310454 0.024405355
000240 4a 90 47 be 8f 97 79 3c f4 ed 92 be 50 95 d0 bc
       -0.19488636 0.015233888 -0.2869717 -0.025461823
000250 6d 47 40 3e d6 ff 23 bf 57 20 36 bd 4f f2 87 3d
       0.18777247 -0.6406225 -0.044464435 0.066380136
000260 24 7c ce 3d 30 90 c0 bb 49 5d b1 3c bb 9a 6e 3d
       0.10082272 -0.0058765635 0.021650927 0.05825303
000270 58 d9 9a 3d d4 06 52 be 59 3d af bc 3c 18 5a 3d
       0.07560986 -0.20510417 -0.021391558 0.053245768
000280 a2 0e be bd 49 a8 45 bd f4 99 36 bc 18 89 88 3d
       -0.09280135 -0.048256192 -0.011145104 0.066667736
000290 f6 a8 2c be e2 26 d0 bd 82 da 66 3c cb 3a 75 3d
       -0.16861328 -0.10163666 0.014090182 0.059870522
0002a0 a4 ca f8 bd 8c 79 5d be ae 90 11 3e f8 d1 05 be
       -0.12148026 -0.21628398 0.14215347 -0.13068378
0002b0 ea e4 4d 3e 0f 3d 62 3d 6a 0a 42 be f1 02 2d 3d
       0.20106855 0.05523401 -0.18949285 0.042239133
0002c0 f5 8f 3f be d5 81 07 be bb bc 38 be 12 df 0a be
       -0.18707259 -0.1323312 -0.18040745 -0.13561657
0002d0 ae 63 3f 3e ab 11 32 3e 68 d6 46 3d ab d3 10 be
       0.18690369 0.17389552 0.048544317 -0.14143245
0002e0 db 19 a2 bd 3e 22 04 be 0f 65 de 3c 79 0a 5b be
       -0.07915088 -0.12903687 0.027147798 -0.21390714
0002f0 32 b1 53 be 31 be b3 3d 25 c1 1b be 09 5f bf bd
       -0.20673063 0.087765105 -0.15210398 -0.093442984
000300 01 62 5e 3d 8c 2c 51 bd e4 0f 10 3e 94 f2 97 be
       0.054292683 -0.051067874 0.14068562 -0.2967726
000310 6c 89 2f bd 7a 82 a3 be da 00 47 be a8 ba 31 be
       -0.042855665 -0.31935483 -0.19433919 -0.1735636
000320 60 a4 b5 3d 1f 27 9c 3c a0 20 17 3d 13 72 48 3e
       0.08869243 0.019061623 0.036896348 0.19574766
000330 06 19 71 bd bd a5 0a 3c 7d c0 27 3e cc d9 19 bd
       -0.058861755 0.008462367 0.16382022 -0.037561223
000340 e0 78 21 be 43 fb a3 3d c9 88 be be 48 fb 64 be
       -0.15768766 0.08006909 -0.37213734 -0.22361481
000350 23 c2 86 bc 8a b6 8b 3d 4b 41 87 be 6a d3 6e be
       -0.016449993 0.06821926 -0.26417002 -0.23322836
000360 07 b5 ab 3d 2a 35 04 3e 92 45 30 3e f1 d7 f6 ba
       0.083841376 0.12910905 0.17214039 -0.0018832666
000370 64 e8 3c 3c 6d 92 81 be b5 e9 e3 3b ba 41 54 be
       0.011530016 -0.25307027 0.0069553503 -0.20728198
000380 40 49 29 be 0a 1a 6a bb 20 d8 c5 3d 6c 1a 42 3e
       -0.16531849 -0.0035721087 0.09660363 0.18955392
000390 74 16 8e 3d ac f4 07 be 0d 20 d6 3d 2b 68 9b be
       0.06937876 -0.13276929 0.10455332 -0.3035291
0003a0 d7 d6 eb 3d fe 8c d2 3d 1a f9 29 be d7 26 fa bc
       0.11515587 0.102807984 -0.16598931 -0.030536098
0003b0 e1 95 a5 3c 49 0b 54 3e 8e cb 01 bd 37 42 f4 3d
       0.02021307 0.2070743 -0.031688266 0.11926692
0003c0 67 c2 59 3d 11 14 20 be 10 b1 2f 3d f5 ae 9e bd
       0.053163912 -0.15632655 0.04289347 -0.07748214
0003d0 b0 75 93 bd 16 f6 16 be 1e 69 9d 3d 72 cc 00 bd
       -0.072001815 -0.14742312 0.07686065 -0.031444974
0003e0 46 fe 33 be c5 4a 88 3d 6f 5a 89 3e 1b 60 94 3d
       -0.17577466 0.06654886 0.26826808 0.07244893
0003f0 97 16 7e 3d 47 83 18 3b 64 45 f2 3d 3b a9 5e be
       0.062033262 0.0023271607 0.118296415 -0.21744244

shared.0.bias f4 [256]
000000 8e b3 87 3d 3e 5e d0 3c e5 07 b0 bc fe a8 01 be
       0.06626044 0.025435563 -0.02148814 -0.12662122
000010 9e 59 11 3d 3b fe 54 3d ad 8f c9 be fc 77 09 be
       0.035485856 0.052000266 -0.39367428 -0.13424677
000020 45 56 66 be 34 5e 3b be 9e 19 de 3d 01 8f d4 bd
       -0.22493847 -0.18297654 0.1084473 -0.10378838
000030 f9 a0 79 3e d4 28 00 3c 29 02 6f be 24 7c 92 be
       0.24377812 0.007822234 -0.23340668 -0.28610337
000040 bc 83 fb bd 38 b1 b1 be e5 c0 b1 bc 7f 10 92 bc
       -0.12280986 -0.3470552 -0.021698425 -0.017830132
000050 e1 d3 91 be 73 32 b3 bd ac e8 af bb d4 f9 92 3c
       -0.28481963 -0.08749857 -0.005368313 0.017941393
000060 4b 36 f2 3a 0a c3 80 be 76 59 34 be d0 fb ce bd
       0.0018479315 -0.25148803 -0.17612252 -0.10106623
000070 04 72 ac 3d 2e d7 fa bd e3 60 82 be 9c 7e 38 3e
       0.08420184 -0.122480735 -0.25464544 0.18017048
000080 69 05 ee bd ce ef 26 be 3a ca 2c be 6d d0 34 bd
       -0.11622126 -0.16302416 -0.16874018 -0.044144083
000090 ff d3 c1 3d 5c 4b a7 3d 17 ca 0a bd 9c 90 a8 bd
       0.09464263 0.081686705 -0.033884134 -0.08230707
0000a0 e2 63 d8 3b 9a dc 26 3e 93 8b 54 3e 11 a7 72 bc
       0.006603704 0.1629509 0.20756368 -0.01481034
0000b0 fd c6 30 be 44 4a 82 3e bf c1 48 be 37 76 26 be
       -0.17263408 0.25447285 -0.19605158 -0.16256033
0000c0 6b e0 9f bd 4b 0c c0 bd 31 4e 39 be 37 49 95 bd
       -0.07806476 -0.09377345 -0.18096234 -0.07289355
0000d0 e9 e2 80 ba 52 a4 a2 bd cf 57 50 be e3 78 48 be
       -0.000983325 -0.07941498 -0.20345996 -0.19577365
0000e0 4d 49 45 bd a9 56 51 3e 7d 4a b9 bc 9d 49 ba 3b
       -0.04816561 0.20443214 -0.022618527 0.005685045
0000f0 a0 6b 49 3c ac 92 54 3e 87 51 15 3d b5 32 b9 3d
       0.012293726 0.20759076 0.036454704 0.09042875
000100 f4 61 19 be 0c 46 48 bd 02 cc 50 3e 93 06 e2 3d
       -0.14978772 -0.048894927 0.20390323 0.1103641
000110 7d d1 1b 3e de db 02 3e 0b 66 79 3d 17 8c 0b be
       0.15216632 0.12779185 0.06088833 -0.13627659
000120 f1 b6 18 be f9 00 0e 3d f5 e7 1f 3c c7 bb 62 bd
       -0.14913537 0.034668896 0.009759893 -0.05535486
000130 14 a9 b7 3d 0d df 52 be c7 f3 31 bd 11 f4 11 3d
       0.08967796 -0.205929 -0.043445375 0.03563315
000140 98 ce 2c 3a cb a5 7a be 25 2e 50 be ba b6 59 ba
       0.0006592064 -0.24477307 -0.20330103 -0.00083051214
000150 95 14 d2 bd 46 4c 0c be 7d 4d dd bc 5a 1c 92 bd
       -0.10257832 -0.13700971 -0.027014488 -0.07134314
000160 66 ef 03 3e 1c 33 48 be 4c 28 31 be f3 1e c5 bc
       0.12884292 -0.19550747 -0.17300528 -0.02406261
000170 23 de 06 3e 7d b8 74 bd 1b df 3f 3d 05 9f 8f 3e
       0.13170676 -0.059746254 0.04684363 0.2805101
000180 7a 9a 19 be 66 2d 39 be bc 6c 88 bd fa b5 c3 bd
       -0.15000334 -0.18083724 -0.066613644 -0.09556194
000190 75 35 97 bd d0 d2 fd bd c3 19 72 be 23 57 c3 be
       -0.07383243 -0.12393725 -0.2364264 -0.38152418
0001a0 e0 04 59 bd 41 ad b3 bd 8e 36 85 3d 31 8a 60 bd
       -0.052983165 -0.0877328 0.06504546 -0.05481929
0001b0 8b b7 ac bd c4 f0 f9 3d 5d a5 37 be 12 7b 69 3c
       -0.084334455 0.122041255 -0.17934175 0.014250534
0001c0 6a 1d f1 3d 31 d4 04 3e 11 ea 0f be c4 4c be be
       0.117731884 0.1297157 -0.14054133 -0.37167943
0001d0 f7 72 67 be 3d 51 9f 3e 8b 77 97 bd 86 80 91 bb
       -0.2260245 0.31116667 -0.07395848 -0.00444037
0001e0 6d 28 f7 bd a7 80 22 3e 83 5f 1b be 45 06 0a bd
       -0.120682575 0.1586939 -0.15173154 -0.033697385
0001f0 0f 44 7e bb b1 eb 10 be fe 4a e4 bd f1 ad 85 be
       -0.003879789 -0.14152409 -0.11147116 -0.2610927
000200 d2 d8 5c 3d 0a e9 e6 3c 38 62 4b 3d d3 e0 aa 3d
       0.053917713 0.028187294 0.049654216 0.08343663
000210 6d 7e 36 be 30 a7 99 3d 78 5f c6 3d 11 ee 99 bc
       -0.17821665 0.075025916 0.09686178 -0.018790277
000220 31 e0 50 be be d1 21 3d e1 7d da 3c d5 4f 9c 3b
       -0.20398022 0.039506666 0.026671352 0.004770259
000230 be 8e 8f be 03 db 0a be 17 54 25 be cf 72 0e 3e
       -0.2803859 -0.13560109 -0.16145359 0.13910984
000240 85 1b ad bd 03 3c c0 3d bc 5a 06 bd 2f c0 fd bd
       -0.084525146 0.09386446 -0.032801375 -0.12390172
000250 b8 bb 5f bb 05 72 3e bd 93 7e a9 3d 87 a8 1f bd
       -0.0034138989 -0.046495456 0.08276095 -0.03897908
000260 f2 bc e2 3c b6 48 f2 3d 35 8a f7 3b 8c 37 0b 3e
       0.027677987 0.11830275 0.0075543174 0.13595408
000270 cc 26 15 3e 3d 1f 11 3e e2 60 14 be 10 ae 4e be
       0.14565581 0.14172073 -0.14490083 -0.20183587
000280 1b 82 3b 3c 19 df 91 bd 74 0d 0b be 50 d8 a5 bd
       0.011444594 -0.071226306 -0.1357935 -0.08097899
000290 39 94 9d 3c e2 5a a7 be 04 73 6e 3e 0a 25 8a 3d
       0.019235717 -0.32686526 0.23286062 0.06745346
0002a0 78 36 95 bd df b1 9a bd 8d c7 30 3d c1 55 35 be
       -0.0728578 -0.075534575 0.043159056 -0.17708494
0002b0 54 45 6a 3e 0a 11 15 be 62 49 7d bc 8d f5 2b be
       0.22878009 -0.14557281 -0.01545939 -0.16792889
0002c0 dc 2c 68 be 7d a3 2a be ca 26 98 3d 67 7c df bc
       -0.22673362 -0.16663928 0.074292734 -0.027281
0002d0 8a e9 81 be 17 40 75 be bd 67 93 be 66 29 ac be
       -0.2537349 -0.2395023 -0.28790084 -0.33625335
0002e0 ae 7d 85 be c1 93 81 3e 59 74 00 be fd 4d c4 3d
       -0.26072448 0.2530804 -0.12544383 0.095851876
0002f0 3a 2b 6a bd 69 98 2f be 44 77 21 be 0e 0a 82 bd
       -0.05717013 -0.17147984 -0.15768152 -0.06349574
000300 f1 24 44 3d 71 fb 6c be af a4 25 be 8a 7b 9d bd
       0.047886793 -0.23142792 -0.16176103 -0.07689579
000310 a6 fd 81 be e3 97 91 bd b6 1d 24 be 3e c2 26 bc
       -0.2538883 -0.07109048 -0.16026959 -0.010178147
000320 67 00 b2 be 63 f6 7c bc 85 2c 9f 3d 9a 67 49 be
       -0.34765932 -0.015439603 0.07772163 -0.19668427
000330 79 d7 b4 be 18 cc 2a 3e 29 1f 35 3d f5 0e 63 bd
       -0.35320643 0.16679418 0.04421917 -0.055434186
000340 84 ff c9 bd c6 f3 95 bd 84 87 b7 3d 3d 1d 1e be
       -0.09863189 -0.07321887 0.089613944 -0.15440841
000350 48 68 11 bd 03 f9 10 be c8 56 ab bd 3f f8 0c bd
       -0.03549984 -0.1415749 -0.083661616 -0.034416433
000360 ef cb ee 3d 06 aa 8c bd 6a 96 53 bd 58 7b 79 be
       0.11659991 -0.06868367 -0.051657118 -0.24363458
000370 47 7a 2c 3e 4b bc 0a be 85 09 b8 3d 71 71 73 be
       0.1684352 -0.1354839 0.08986191 -0.23773743
000380 12 ba 84 be d8 70 03 be 70 f1 96 3d c9 26 03 3e
       -0.2592321 -0.12836015 0.07370269 0.12807764
000390 3e 6f 14 3e 42 2f 49 3d ad b9 6a be a5 b9 bb bd
       0.1449556 0.049117334 -0.22922392 -0.09166268
0003a0 fa a5 11 bd 63 3e 7d 3d f1 7a b1 bd 4e cf 09 3e
       -0.03555868 0.061827075 -0.08666027 0.13457987
0003b0 15 d9 a6 3d c1 16 05 3e 91 34 e5 3d 35 07 32 bd
       0.08146874 0.12996961 0.11191667 -0.043463904
0003c0 34 ff e9 3d 1a 2f 1f be 1e 0b 9f be 5a f5 22 be
       0.11425629 -0.15545312 -0.3106317 -0.15913907
0003d0 de d8 63 bd 0f 87 40 be f4 62 2e 3d e7 59 57 bd
       -0.055626743 -0.18801521 0.042574838 -0.052575972
0003e0 c2 4f 20 3e 04 f9 ab be 27 3a d5 bc ad 75 0a 3e
       0.15655425 -0.3358842 -0.026028706 0.13521452
0003f0 aa 4f 95 3d da cc 91 be 72 7e ab bd a1 e3 50 be
       0.07290585 -0.28476602 -0.08373727 -0.20399334

shared.2.weight f4 [128, 256]
000000 36 af 7e 3d 3e ef b0 3c 00 11 63 3c 56 46 71 3c
       0.062178813 0.021598455 0.013859034 0.014726242
000010 e2 2b 2d bc 5f 8d 25 bd 71 60 62 bd e8 f9 b7 bb
       -0.0105695445 -0.040418025 -0.055267755 -0.005614508
000020 7e be 22 bd 83 0f ff 3b 0e 56 92 bd e7 d4 00 3a
       -0.03973245 0.0077838316 -0.0714532 0.00049145374
000030 aa 55 1f bd 28 30 d1 3c c4 18 1a bd ca aa 68 bb
       -0.038900055 0.025535658 -0.037621275 -0.003550219
000040 cb 02 57 bc 14 c8 06 bc 49 09 1a bd 9b 6f a2 bb
       -0.0131232245 -0.008226413 -0.03760651 -0.004957152
000050 3c 5b 52 3c fb b6 28 bd 9a 94 36 bd df 02 25 bc
       0.012839135 -0.04119013 -0.04457531 -0.010071485
000060 bd 0a 47 bd 04 72 f0 bb 7a 59 86 bd 1b df 62 3a
       -0.048594225 -0.0073378105 -0.06560035 0.0008654461
000070 3c 31 aa bb 32 1b ab bc 02 20 9f bd 6c 1b 43 bd
       -0.0051938575 -0.020886991 -0.07769777 -0.047633573
000080 51 45 3e 3c e1 01 00 ba e0 49 b0 3c 96 8a 92 bd
       0.011613206 -0.00048830925 0.021519601 -0.071553394
000090 ad 5c 92 ba 48 ca d6 bc ce 27 9f bc 52 28 d3 3c
       -0.0011166536 -0.026219502 -0.01942816 0.025776062
0000a0 49 5e 55 bd 37 d5 26 bd 3d dd 9d bc b5 42 7a ba
       -0.05209187 -0.04073068 -0.019270534 -0.0009546683
0000b0 11 e6 8e bc 0e 36 0c bd ab c8 33 bd 64 85 a3 3c
       -0.017443689 -0.034231238 -0.043892544 0.019961067
0000c0 52 9c 59 bd 7a af 18 bb 7b 10 65 bb 20 4f a0 bc
       -0.053127594 -0.0023297952 -0.003495245 -0.01956898
0000d0 98 e3 71 bc dc fc 45 bd 42 ff 04 3d ed f8 16 bd
       -0.014763735 -0.04833685 0.032469995 -0.036858488
0000e0 af b1 06 bc 60 d6 17 bd 4a 1a 0a bd 3b 12 f0 bc
       -0.008221074 -0.03706968 -0.033716477 -0.029305568
0000f0 e2 81 88 bd 78 f4 c6 bd f4 cd f5 3c 96 86 6d bd
       -0.06665398 -0.097145975 0.030005433 -0.05798968
000100 14 55 91 3c 90 a8 41 bd 31 3a b2 3c 43 40 72 3c
       0.017740764 -0.047279894 0.021756263 0.014785829
000110 04 54 61 bd 9d f3 35 bd 98 ae 57 3d a8 3f ad 3c
       -0.055011764 -0.04442178 0.05265674 0.021148518
000120 88 fe b3 3c be 2a c4 bb 52 6a f0 bb 99 b2 cc 3c
       0.021971956 -0.0059865406 -0.007336893 0.024987506
000130 53 0c 83 bc 34 2e 8c 39 19 09 85 bc b9 f2 a5 bc
       -0.015997088 0.00026737305 -0.01623969 -0.02025734
000140 22 79 ea 3a b4 17 99 bb ea 0f 4c 3d 3d 6f 2b 3a
       0.0017888884 -0.004672015 0.049819864 0.0006539708
000150 72 03 4c bd da a9 f7 bc ea 90 21 3d 5f 50 a4 bc
       -0.049807973 -0.030232359 0.03944484 -0.020057855
000160 9a 9c 42 3d 9a 74 9c bd 49 24 ff bc 94 88 3e bd
       0.04751263 -0.076394275 -0.031145232 -0.04651697
000170 52 80 3e 3d 2b 1c 7a bd e6 78 a8 bd 76 69 2b 3d
       0.046509095 -0.06106202 -0.082261845 0.041848622
000180 38 32 42 3d 6c 20 ce bc cc 73 18 bd 3e f3 60 bd
       0.047411174 -0.025161944 -0.037219808 -0.054919474
000190 cb 2d 8d bd 76 10 dd 3c 5b 8d 84 bd e2 1c 64 bd
       -0.068935 0.026985388 -0.06472274 -0.055691607
0001a0 a6 a7 87 bd 4d 4c 23 bd 55 50 66 3d da 6f 4f bd
       -0.06623773 -0.039867688 0.056228954 -0.05064378
0001b0 6e 08 42 bd 32 f1 c9 bb 0c 08 2c bc c2 db 29 bd
       -0.04737132 -0.006162786 -0.010499965 -0.041469343
0001c0 cb 37 1d bc 7c 05 a4 bb df 44 e2 bc 0b 4d fd 3c
       -0.009595822 -0.0050055366 -0.02762073 0.030920526
0001d0 2e cb 62 bc 00 72 f9 ba 88 79 e5 bc 58 06 58 3d
       -0.013842387 -0.0019031167 -0.028012052 0.052740425
0001e0 65 c3 91 bc 5f a2 ee bb 68 10 60 bd 06 de 58 3d
       -0.017793367 -0.0072825397 -0.054703146 0.052946113
0001f0 ce 86 ae bc 71 81 21 bd 57 49 01 bd c3 92 a6 bd
       -0.021304514 -0.039430086 -0.031564083 -0.08133461
000200 a5 89 17 bd e0 9c 50 3c 2e 02 9a bd 08 a0 37 bc
       -0.036996502 0.012732714 -0.07519947 -0.011207588
000210 d2 1c 69 3c a5 8a 30 3c a6 77 6b bd d9 a0 57 bd
       0.014228063 0.010775243 -0.057487153 -0.05264363
000220 ef 95 ef 3c b7 2e df bc 34 15 07 3d 76 76 a2 bc
       0.029246299 -0.027243955 0.032979205 -0.019831877
000230 e1 e2 0d bb 76 6b 95 bc 82 6b 74 3c d4 d5 ec 3c
       -0.0021650123 -0.018239718 0.01491821 0.028910555
000240 8e 3c 7c 3c fc c9 7a 3d 0d 77 06 bb b3 0a e7 3c
       0.015395297 0.061227784 -0.0020517737 0.028203344
000250 2b 37 df 3c 49 58 d9 3c ed 5d 14 bd 54 27 f2 3c
       0.027247986 0.026531355 -0.036222387 0.029559769
000260 54 09 87 3d 7d 46 5e bd 00 ba 13 3d 88 6a b6 bb
       0.06593576 -0.05426644 0.036066055 -0.0055668987
000270 2a e6 8e 3c 1a f0 62 3d 69 87 e2 bd 52 1b 87 bd
       0.017443735 0.05540476 -0.11060984 -0.06597008
000280 34 3a ac bc 93 ec 22 bd d2 d2 f2 3c a7 28 70 bd
       -0.021023847 -0.039776396 0.029641543 -0.05863252
000290 95 63 30 bd a3 2e 5b bd e9 f2 32 bd e9 9d a0 bd
       -0.04306372 -0.053511273 -0.04368869 -0.07842619
0002a0 76 48 97 bc bc 4c 9c bc 4e 5b 1d bd 34 67 5c bd
       -0.01846717 -0.019079559 -0.038417153 -0.05380936
0002b0 70 ad ff bb b0 53 09 bc 84 3d a2 3b c0 d8 16 3d
       -0.007802658 -0.008381769 0.004951181 0.036827803
0002c0 16 97 12 bd ad a7 ad bc 9b a1 47 3b b6 e6 5e 3d
       -0.035788618 -0.021198118 0.0030461315 0.05441924
0002d0 bc c8 12 bd 42 8d 49 3c 9d 11 a3 3c ee 6d 05 bb
       -0.035835966 0.012301745 0.01990586 -0.0020359713
0002e0 ff bb 88 3c 12 fa b7 bc 94 2a 31 3c c6 a2 ad 3b
       0.016691206 -0.02245811 0.010813374 0.005298945
0002f0 4c 5c 72 3d 1a 99 6f 3d 57 67 f6 3c 08 d2 e5 3c
       0.059170052 0.05849562 0.030078573 0.028054252
000300 79 c2 6a bd fd 4c 8a bc a3 b0 3d bd 90 74 b1 3c
       -0.05731437 -0.016882414 -0.046311032 0.021662027
000310 64 3a f1 bc 80 76 31 bd ff 1f 39 3c 6e 90 9f bd
       -0.029446788 -0.0433259 0.011299132 -0.0779122
000320 4e e3 8d bc b7 8f 9b bd 68 0e b1 bc 56 93 86 39
       -0.017320301 -0.07595771 -0.021613315 0.00025668246
000330 a0 fb ba 3c f0 6b 06 3c 68 bf 3b 3d c0 06 5e bd
       0.022825062 0.008204445 0.045836836 -0.054205656
000340 70 1e 2e bb 2e 7b 39 bd ad 8e 87 bd fb 18 9b bd
       -0.0026568435 -0.04528349 -0.0661901 -0.07573124
000350 fc de 46 bd 9d a1 78 bd 68 57 0f 3d e2 98 83 bd
       -0.0485525 -0.060701 0.034995466 -0.064256445
000360 f1 c4 9d bb 05 40 42 bd 4f 91 bf bc 6a 0f 97 bd
       -0.004814737 -0.047424335 -0.023384718 -0.07375987
000370 95 bd 1c bd ed ee e0 3b 20 5b 85 bd 94 98 be 3b
       -0.038266737 0.0068644197 -0.06511521 0.0058165286
000380 c6 95 85 bc bd 02 6b 3d 05 d9 96 bd a4 d6 80 bd
       -0.01630677 0.05737566 -0.07365612 -0.062909395
000390 6d 9a 44 bd 58 6b 59 bd c7 a3 24 bc fb f5 2c bb
       -0.047998834 -0.053080887 -0.010048813 -0.0026391733
0003a0 bc 4c 94 bd 54 e6 e1 bc 75 f9 39 bd e6 e1 7f bd
       -0.072411984 -0.02757565 -0.045403916 -0.062471293
0003b0 30 da ed 3b bc bf 18 3d d3 e0 05 bd 80 d6 73 3c
       0.007258676 0.037292227 -0.032685112 0.014882684
0003c0 92 5a 22 bd 12 a0 55 bc 61 b9 08 3c 04 5e e6 bc
       -0.039637156 -0.013038652 0.008344979 -0.028121002
0003d0 48 a4 07 bc ee 55 b4 bd 10 8b 27 3d d1 95 3f bd
       -0.008278914 -0.08805452 0.040904105 -0.046773735
0003e0 70 24 72 3c 90 72 60 bd ad 97 03 bd df a9 96 bd
       0.014779195 -0.054796755 -0.03212707 -0.07356619
0003f0 82 df 94 bd c0 59 75 bd 2c 9d 47 bd cc 17 ff bc
       -0.07269193 -0.059900045 -0.048733875 -0.031139277

shared.2.bias f4 [128]
000000 0b f7 13 be 60 f0 11 3e a9 10 2a bd 62 d9 f1 3b
       -0.14449708 0.14251852 -0.041519795 0.0073806504
000010 44 ce 6e bd 6b 64 ae 3d d0 d6 c0 bd 5d f1 a9 bc
       -0.05830218 0.08515247 -0.09415972 -0.020744974
000020 af e8 b9 3d 81 07 62 bd 16 80 58 bd f6 8b 87 bd
       0.09077584 -0.055182938 -0.052856527 -0.06618492
000030 a5 1b de 3c 77 a1 95 3d 58 39 58 bd f6 5c dd 3c
       0.027112791 0.073061876 -0.052789062 0.027021866
000040 48 fd c8 bd 94 8f 10 bd 2a e0 89 bd 2d e6 60 3d
       -0.098139346 -0.035293177 -0.06732209 0.054907013
000050 f1 50 b3 bd 35 72 04 be e5 cb 58 bc 42 c7 1e be
       -0.08755673 -0.12934192 -0.013232206 -0.15505698
000060 80 0e 95 bd cb 53 64 bd 22 8e 5c bb 9a b2 df bb
       -0.07278156 -0.055743974 -0.0033654054 -0.006826711
000070 27 b6 f4 bc 7f 5c a1 3c 9c 83 d9 3d 08 11 99 b9
       -0.029872013 0.019697426 0.106208056 -0.00029195123
000080 95 3d d4 bc 55 8e f0 bd be 73 80 bd 9a 16 13 3d
       -0.02590827 -0.11745898 -0.06272076 0.035910226
000090 81 06 f1 bd 3a ed 01 bd 30 02 ca bd a0 d5 30 bc
       -0.11768819 -0.031720378 -0.098636985 -0.01079312
0000a0 1e e4 87 bb 26 14 4f bd 2c 50 44 bd a1 61 98 bd
       -0.0041470667 -0.050556324 -0.04792802 -0.07440496
0000b0 c9 87 9e 3b 6a 6d 7a bb a4 57 38 bd 62 4a 08 3e
       0.004837964 -0.0038212189 -0.045005456 0.13309625
0000c0 75 a1 a2 bc 6e 71 d2 bc c6 c6 d8 3d ed 22 55 bd
       -0.01985238 -0.025688853 0.10584788 -0.05203526
0000d0 38 3f 1a bd d4 5b 4c be d7 5b 2f bc 66 1a 59 bd
       -0.037657946 -0.19956905 -0.010703049 -0.05300369
0000e0 2a 9c 83 bb 7a db 90 bc b6 74 dc bd e3 03 bb bd
       -0.004016419 -0.01768278 -0.10764448 -0.09131601
0000f0 01 da b9 bd f4 56 b4 3c 95 5c c1 bd 3f 4c e0 bd
       -0.09074784 0.022014119 -0.09441487 -0.10952043
000100 f9 73 85 bd 8f 2b c0 bd 33 60 a7 bd 1a ee b2 bc
       -0.06516261 -0.09383308 -0.081726454 -0.021842051
000110 46 b5 d6 3c 84 0d d1 bc 98 23 1d 3c b2 9c 1b be
       0.026209485 -0.02551914 0.009591006 -0.15196493
000120 34 1a 06 3d 9c c1 87 3b 25 67 46 bb fa 7e 58 bd
       0.032739833 0.004142953 -0.0030273881 -0.05285547
000130 23 ae b9 bd f5 d6 54 3a f7 ff 32 3d b3 97 d9 3c
       -0.09066417 0.00081191893 0.04370114 0.026561594
000140 93 ec 88 bd c2 11 09 be 9f cb 80 3d 59 fb 5f bd
       -0.06685748 -0.1338568 0.06288838 -0.054683063
000150 d8 8e 2e bd 4d 6c 01 3d e0 3f ba bd 7c 73 bc 3c
       -0.042616695 0.031597424 -0.090942144 0.023004286
000160 cc 7e 7e bd 39 1a cd bc b9 3f 80 3b 39 c0 95 bd
       -0.06213264 -0.025036918 0.0039138463 -0.07312054
000170 fd f4 ac bd 10 14 95 bd 32 75 42 3d 67 f0 4c bd
       -0.08445165 -0.07279217 0.047475047 -0.050033953
000180 78 50 53 be ab ab dc bd 70 01 8a bd aa 86 eb bd
       -0.20636165 -0.107749306 -0.067385554 -0.115002945
000190 72 a4 b1 bd 0c c2 ce bd 86 7f a4 bd 9a 7e 0a bd
       -0.086739436 -0.10095605 -0.08032136 -0.033812143
0001a0 22 6e 6d bd 06 80 de bd cf 58 27 bc 29 ff bd bd
       -0.05796636 -0.10864262 -0.010214045 -0.092771836
0001b0 11 f1 c8 bc d4 45 01 bd c4 2c da bd 2a 7e 4e bd
       -0.024529012 -0.031560734 -0.106530696 -0.05041329
0001c0 e0 be 93 bd 52 64 fd bc 81 b3 ae bd 05 cb 88 bd
       -0.07214141 -0.030931626 -0.085303314 -0.06679348
0001d0 08 37 2b 3c de 0f 8e bd 85 10 75 bd 14 80 86 3b
       0.010450132 -0.0693662 -0.059830207 0.0041046236
0001e0 02 49 a2 bd ef d2 67 bd 2c bf 93 bd 77 de 02 bd
       -0.079240814 -0.056597646 -0.072141975 -0.03195044
0001f0 3e 65 71 bd 16 08 3a bd 31 72 7a 3d 1d ca 97 ba
       -0.058934443 -0.045417868 0.061144058 -0.001158062

dice_policy.weight f4 [5, 128]
000000 cb 07 30 3d d3 42 46 3e 62 2d cd 3d 6c ea a7 bd
       0.042976182 0.19361429 0.10018422 -0.08199009
000010 15 14 2d 3d d7 d9 38 bd 1e 91 77 bd 8a 35 36 bd
       0.04225548 -0.045129623 -0.06044113 -0.044484653
000020 61 d0 6d 3c 85 86 6e bd f6 82 b0 bb cb de 05 be
       0.014515013 -0.058233757 -0.0053867055 -0.1307327
000030 26 3e 2b bd 7a d6 17 bf 43 6b 42 3d 83 4b 13 bd
       -0.041807316 -0.5931164 0.047465574 -0.035960685
000040 3e 21 07 be 5b de b9 bd 0e ea fd bc 21 76 45 bd
       -0.13196275 -0.09075614 -0.030995395 -0.04820836
000050 ee 9c aa 3d 29 b2 22 be c5 19 b7 bd 4d 61 00 be
       0.08330713 -0.15888275 -0.08940462 -0.12537117
000060 4c 7b 87 bc 97 bb ff bd 55 05 02 bd 64 fb 65 bc
       -0.016538285 -0.12486952 -0.031743366 -0.014036987
000070 b8 85 1c bd 74 4c ab 3b b0 45 8f bc 45 25 61 3c
       -0.03821346 0.00522762 -0.017489284 0.013741796
000080 e3 42 61 bc 92 84 76 bd d1 68 83 3d 3f e8 61 3d
       -0.013748857 -0.060185023 0.064164765 0.055153128
000090 82 58 be 3b 88 36 82 bc f8 68 8d 3c f8 5b 03 3d
       0.005808891 -0.015895143 0.017261967 0.03207013
0000a0 2b e1 a2 bd 8e df b1 bd 7b bd e2 bc 31 02 f7 3c
       -0.07953104 -0.08685218 -0.027678242 0.030152412
0000b0 bb 78 df bc 8c c5 fa bc 1d fa db bc f8 b8 fe 3c
       -0.027279248 -0.030611776 -0.026852662 0.03109406
0000c0 0a 00 84 bd b0 5f a2 bd c3 08 27 bd 44 7f 8e bc
       -0.0644532 -0.07928407 -0.04077984 -0.01739467
0000d0 d7 37 f6 bc da a4 bf 3d f9 91 d8 bc 4d d5 0d bd
       -0.030055923 0.09357615 -0.026436793 -0.034627248
0000e0 b7 5b e7 bd 8d e4 08 be 45 e7 41 bd dd 1d b6 bd
       -0.1129679 -0.13368435 -0.047339696 -0.08892415
0000f0 1f 24 5d 3d 14 3e 56 bd 1b 6e 97 3b 1c 4e d3 3c
       0.053989526 -0.052305296 0.00462128 0.025794081
000100 f6 b5 50 bd 0a 00 da 3b 73 8d 01 3e 76 46 cc bb
       -0.05095478 0.0066528367 0.12651615 -0.0062339855
000110 8f 7c 24 bd b7 da e1 bd 83 eb c5 3d 75 b5 b3 bd
       -0.04015785 -0.11028045 0.09664061 -0.087748446
000120 ae 56 cd bc 4f 4a e0 bc ce 9f 06 3e 95 b0 13 bd
       -0.025065746 -0.027379183 0.13146898 -0.036057074
000130 c1 0b 6e bd b7 9b e1 bc 5c 67 48 bd 3d ec c8 bd
       -0.05811668 -0.027540071 -0.048926696 -0.09810684
000140 b0 d2 57 3a ab e0 3a be 0f 15 86 bd a5 71 bf ba
       0.0008232994 -0.18249767 -0.06546985 -0.0014606012
000150 2d 73 d1 bd 74 8b a9 bd a7 30 8f bc 4a c6 bd bd
       -0.10227046 -0.08278552 -0.017479254 -0.09266336
000160 18 32 cb 3c de b2 13 bc 57 34 f2 bd d0 3d 70 bd
       0.02480416 -0.009014813 -0.11826389 -0.0586527
000170 ee 91 74 3c 85 90 b6 3d 01 95 92 3e 96 ae ed bd
       0.0149273705 0.08914284 0.28629306 -0.11605565
000180 65 da 38 3d 97 70 94 bd 76 83 d6 3d f4 82 c0 bd
       0.045130152 -0.07248037 0.10474293 -0.09399977
000190 06 34 b4 bd fc 13 90 bd 73 26 b5 bc 5d 41 aa bd
       -0.08798985 -0.07035062 -0.02211306 -0.08313248
0001a0 f6 ec 1c 3d 81 b0 c8 bd fc a8 08 bc d8 ab 1e bd
       0.03831192 -0.097992904 -0.00834107 -0.0387381
0001b0 77 0e df 3b 28 b6 b7 bc 95 56 dd bd 6b c7 e9 3c
       0.0068071443 -0.022425726 -0.1080753 0.028537473
0001c0 cb 86 37 bd aa 8c a3 bd b0 b9 ed 3c e3 9c ce bd
       -0.044806283 -0.07985814 0.029019207 -0.100885175
0001d0 3c d7 97 bb 52 1e 49 bd 70 0a c2 bd bc f0 a7 bd
       -0.0046338122 -0.04910118 -0.09474647 -0.08200213
0001e0 b3 92 1c bd bd df 2c bd 34 cf b0 bd 18 08 87 3c
       -0.03822584 -0.04220556 -0.08633271 0.016483352
0001f0 06 fc 76 bd 3f 86 79 bc b8 b3 10 be c8 04 c7 bc
       -0.060298942 -0.015229761 -0.14131057 -0.024294272
000200 6e 73 c4 bd 74 88 39 be 97 3e 86 bd a0 49 ca 3b
       -0.09592329 -0.18118459 -0.06554907 0.0061733276
000210 47 83 8d 3d af 42 c2 bd 96 7f 8e bc 51 fa 49 bd
       0.06909805 -0.09485375 -0.017394822 -0.049310986
000220 e3 66 52 3c 6a ea 55 be b2 31 45 bd 29 b7 fd 3d
       0.012841913 -0.20890203 -0.048143096 0.12388451
000230 12 82 2f 3c 12 0f cc 3c ed ea 53 bb 80 13 1b bd
       0.0107121635 0.02490953 -0.0032336072 -0.037860394
000240 37 aa ed bd 0b e5 b0 bd 2c 59 22 3d 60 76 0b ba
       -0.116047315 -0.086374365 0.039635822 -0.00053200684
000250 6b ac 2d 3e 33 4e 1e be 7c 63 e2 3a 30 46 3c bc
       0.16960303 -0.15459518 0.001727208 -0.011491343
000260 cd 48 1b 3d 65 1c 8c bd 68 95 8b 3d 73 16 cb bd
       0.037911225 -0.06841353 0.06815606 -0.09916391
000270 fa 8c c5 bc 17 0e 58 3d fe 47 7a 3c 10 f9 83 bd
       -0.024115074 0.052747812 0.015275953 -0.06443989
000280 1d 09 cb 3b 00 79 b7 3d 2e b9 b0 3d 3e 1b d7 3d
       0.0061961547 0.08958626 0.0862907 0.10503243
000290 39 bc 33 3d 70 32 ae bd 48 4f 61 3d e0 3e c5 3d
       0.043880675 -0.08505714 0.05500725 0.09631133
0002a0 ae e0 00 bb db 4e d2 bd 9c 15 24 3d ea 3e a8 3d
       -0.001966517 -0.10268947 0.04005967 0.08215125
0002b0 a1 3f 2e 3b ea fe 1b 3c 48 dc 3a 3d 8a 3c 90 3c
       0.0026588219 0.0095212255 0.045620233 0.017606992
0002c0 4d 7a 52 3d 02 b0 ba 3d 80 24 00 3d a1 d7 1d bc
       0.051386166 0.09115602 0.03128481 -0.0096339295
0002d0 6a 46 ce 3c 44 38 1d 3d 41 8c 12 bd b8 ca 54 bd
       0.02518006 0.038383737 -0.035778288 -0.05195114
0002e0 fd 6c ed bd db 5e 3a 3d 7b e7 06 3e 03 38 a7 bd
       -0.115930535 0.045500617 0.1317424 -0.0816498
0002f0 21 a6 10 bc 6e 3c 4f bd a8 88 c2 3c 2e 93 29 bc
       -0.008828671 -0.05059474 0.023746803 -0.010350032
000300 f7 a4 34 3e f7 b1 de 3b a0 ed ba bd 58 87 21 3d
       0.17641054 0.0067961174 -0.091273546 0.039435714
000310 2d ab 94 bc 50 ac f4 bc 5b e4 16 be 1b 62 ca bd
       -0.01814803 -0.029867321 -0.14735548 -0.098819934
000320 fa 2e ef bc 2c d3 eb 3c 0b 17 cd 3d 8d 21 a4 bc
       -0.029197205 0.028787218 0.10014161 -0.02003553
000330 dc 17 a9 bd b4 5c df bc 30 9a de bc e4 a7 8c bd
       -0.08256504 -0.027265884 -0.027173132 -0.0686796
000340 0a f1 83 3d a4 0d c5 bd dd 53 b3 bc 01 b0 32 bd
       0.06442459 -0.09621742 -0.021890575 -0.04362488
000350 7a 10 76 3e 9c e2 ac 3d 83 a0 61 bb 2f 9f 9e ba
       0.24029723 0.0844166 -0.0034427948 -0.0012101884
000360 f7 65 80 3b a2 97 ef bb 7b b3 d3 bb 6c 7b 1b be
       0.003918405 -0.007311777 -0.0064606047 -0.151838
000370 7e 0a 62 bc ce e3 fe 3d f3 df 3d 3e 66 c7 0d be
       -0.013796447 0.12445794 0.18542461 -0.13845596
000380 1e 88 8e bc cf 8b 6d 3d 36 95 ad 3d f5 03 82 bd
       -0.01739889 0.05799466 0.08475725 -0.06348411
000390 a3 97 cf 3d b7 c0 bb bd 35 d2 5a 3d 2b 26 35 3d
       0.10136344 -0.09167617 0.053423125 0.044225853
0003a0 2d af 5c 3d 4e 98 35 bd cd fd a8 bd c8 b1 f7 3b
       0.053878 -0.044334702 -0.08251534 0.007559035
0003b0 97 64 47 bd fc 68 a8 3e 77 d4 84 bd 11 5b 28 3d
       -0.048679914 0.32892597 -0.06485837 0.041102473
0003c0 ba c7 57 3d b2 0e 98 bd 73 6c 90 3d 25 48 5d bd
       0.05268071 -0.07424678 0.07051935 -0.05402388
0003d0 be 67 d8 3d 50 96 1b bd 06 a7 11 3d 46 9c c4 bd
       0.10566662 -0.037985146 0.035559677 -0.09600119
0003e0 6e ff 42 bd 42 c2 cf bd 00 79 c2 bd 59 13 0d 3e
       -0.047606878 -0.101444736 -0.09495735 0.13776912
0003f0 64 74 03 3d 4e 7c 85 3c 4d 7f 43 be 16 76 3a be
       0.03209342 0.016294625 -0.1909153 -0.18209109

dice_policy.bias f4 [5]
000000 97 96 0e be 04 0e f7 bd 8f 78 85 3c 37 fe a4 3d
       -0.13924633 -0.1206322 0.016292838 0.080563
000010 54 d1 98 3d
       0.07461801

category_policy.weight f4 [13, 128]
000000 a0 c8 2e bd f2 57 ec be b7 06 36 3c c5 f9 a6 bd
       -0.0426718 -0.46160847 0.011109999 -0.081531085
000010 7b 03 13 bd 95 a0 a9 be 7c 64 8b bd 75 a3 a0 bd
       -0.03589199 -0.33130327 -0.06806275 -0.07843677
000020 8b d5 ad 3c 11 2c 37 be d6 34 50 bd 7e 0a 05 be
       0.02121999 -0.17887904 -0.05083164 -0.12992284
000030 73 bb 95 bd a3 78 18 bf 6e c4 8c ba 0b b9 05 bc
       -0.07311144 -0.5955908 -0.0010739693 -0.008161793
000040 c1 ec 2a be 00 54 c1 bc ab 0b 33 be 0f 8b 5f bc
       -0.16691877 -0.023599625 -0.1748492 -0.013643994
000050 91 d4 fd bd 50 ca 2f be 2c 57 d5 ba bb 1f 87 bd
       -0.123940594 -0.1716702 -0.001627659 -0.06597849
000060 29 28 34 be a4 e8 a3 3c 4f a8 14 bb 44 53 c5 bd
       -0.17593445 0.020008393 -0.0022683328 -0.09635022
000070 21 97 0a bd 20 17 9b 3c ef 95 fb bb 5d b2 18 bd
       -0.033835534 0.018931925 -0.0076777856 -0.037279475
000080 08 7f f1 bd 0d de cb bc bf f0 97 bd b7 d0 5a be
       -0.117918074 -0.024886156 -0.074189655 -0.21368681
000090 6e 34 36 3d f3 e2 6d bd 6d 69 20 bd d7 f1 80 3d
       0.044483595 -0.058077764 -0.03916304 0.06296127
0000a0 3d 61 89 bd 0a a1 60 bc 97 bf b9 3c d2 a6 8b bc
       -0.06708 -0.01371027 0.022674365 -0.01704732
0000b0 0c 77 85 bd 90 42 e4 bc 95 46 a6 3c a0 24 01 bf
       -0.06516847 -0.02786377 0.020297328 -0.5044651
0000c0 a1 06 4a bd bb 3b ac bd af 1e b6 be 2d 37 05 be
       -0.049322728 -0.0840983 -0.35570285 -0.13009329
0000d0 bf e6 b8 bc 3f b5 3f bd c7 85 37 3c e8 a8 81 3d
       -0.022570966 -0.04680371 0.011201329 0.063310444
0000e0 dc 6e e0 be fd ce 9b bd cb 29 2d be b9 ae f7 bc
       -0.4383458 -0.07607839 -0.16910474 -0.030234681
0000f0 eb 06 ce ba 8c 1c 8e bd 33 d7 15 3d e4 9b c9 bd
       -0.0015718614 -0.06939039 0.036582183 -0.09844187
000100 b6 88 80 be bd 47 1f 3d e0 54 12 39 66 d2 c4 be
       -0.25104302 0.038886774 0.00013955263 -0.3844177
000110 1e cd 0b 3d 9a ed ae bc ba e8 a4 bd ff fc 2f bc
       0.034131162 -0.021353532 -0.080522016 -0.010741471
000120 c9 86 a8 3c ac b0 3d bc 47 de fd bd c6 14 70 3d
       0.020572083 -0.011577766 -0.12395912 0.05861356
000130 fe 1a 04 bd 38 ed 31 bc a8 2f f1 bc 75 79 b9 bb
       -0.032252304 -0.01085978 -0.02944167 -0.0056602308
000140 91 62 8b 3d 87 d4 c8 bd 49 ee 2e bd ca 83 15 ba
       0.068059094 -0.098061614 -0.042707715 -0.0005703537
000150 ce 4c d0 bd 7c 0b b5 bd 91 45 31 3c 36 11 45 bd
       -0.10170899 -0.08840081 0.010819809 -0.048112117
000160 83 64 2e 3c 24 81 06 3c d1 f9 5f bd c4 7d 08 be
       0.010644081 0.0082095 -0.054681603 -0.13329226
000170 e7 56 1f be 96 0f 28 3d 39 bb 62 3c 76 c1 f1 bc
       -0.15560494 0.04103049 0.013838583 -0.029511195
000180 8b c6 0f be 09 f9 ee 3c b2 7a 22 be 90 82 08 bd
       -0.14040582 0.029171484 -0.15867117 -0.03332764
000190 a2 fd 84 bd b0 e1 31 be 9b ea a4 3c 83 a8 19 3d
       -0.06493689 -0.17371249 0.0201314 0.03751422
0001a0 9b 93 e3 bd 71 2d 80 bc 8c d1 da 3c 10 63 36 bd
       -0.11112138 -0.015646668 0.026711248 -0.044528067
0001b0 89 f6 98 bc 11 f8 53 be 23 09 8f bd a4 aa b8 bc
       -0.018672245 -0.20700099 -0.069841646 -0.022542305
0001c0 76 54 e6 bc 16 4b 5b bd 75 f9 7f 3d 53 48 89 3b
       -0.028116446 -0.053538404 0.06249376 0.00418953
0001d0 23 c4 5d 3a 7b c4 64 3a 93 df 3a 3d 0a 94 a2 3a
       0.00084597076 0.00087267876 0.045623373 0.0012403738
0001e0 7d c0 66 bd 78 98 4e be 7b 21 50 3d 56 cc 1d bc
       -0.056335915 -0.2017535 0.05081318 -0.009631237
0001f0 26 de db bd 7d ca 4c 3b e5 1f 20 be f9 d3 b6 be
       -0.10735731 0.0031248622 -0.15637167 -0.35708597
000200 49 3c e2 3b f1 b3 eb be e1 2d ef bc d2 48 fd bd
       0.006904159 -0.46035722 -0.029196681 -0.12367405
000210 ba 0a ae bd f9 db 32 be 1d 64 40 bd 5e cc 23 bd
       -0.0849814 -0.17466725 -0.046970475 -0.03998982
000220 1f d3 34 bc 67 87 9c be 11 28 57 bd 22 69 1a be
       -0.011036663 -0.30572054 -0.052528445 -0.15079167
000230 8f 01 a6 bd 5e bd c2 be 3f 01 98 bd e6 7b 61 3d
       -0.08105766 -0.380351 -0.07422113 0.0550498
000240 38 c8 e8 bd aa cf 95 bd a7 1a b9 bd 42 0c 2a 3b
       -0.11366314 -0.073149994 -0.09038287 0.0025947248
000250 e2 7b 8a be 3c 46 a6 bd 30 d0 1d 3d f9 c5 8e bd
       -0.2704764 -0.08118865 0.03852862 -0.06971354
000260 12 97 26 be e5 eb a6 bd 11 a7 c0 bc 97 ae 11 bd
       -0.16268566 -0.08150462 -0.023517163 -0.035566892
000270 a8 e3 48 bd d2 11 23 be f0 73 8c 3d e6 28 fd 3c
       -0.049045235 -0.15924767 0.06858051 0.030903291
000280 a7 a5 d0 bc 90 0c ad bd 0f 1f a4 bd f4 b1 97 bd
       -0.025469614 -0.08449662 -0.080137365 -0.07406989
000290 44 08 c3 3c 38 3f 45 bd 50 36 f0 bb dd e9 34 bd
       0.023807652 -0.048155993 -0.0073306933 -0.044168342
0002a0 9b ba bd bc 17 74 1f 3c fa bc 21 3d 2b c9 92 3c
       -0.02316027 0.009732268 0.039486863 0.01791819
0002b0 76 86 dc bc 06 d7 2d bd 02 4b dc bd 2f 97 a6 be
       -0.026919585 -0.04244139 -0.10756494 -0.3253722
0002c0 64 0e bd bd af da c3 3c 8c f3 06 bf 1d fa 08 be
       -0.092312604 0.023907987 -0.52715373 -0.1337666
0002d0 ba 96 99 3b 29 92 a8 bd db 1a 70 3d b8 cf 34 bd
       0.0046871575 -0.08231003 0.05861936 -0.04414341
0002e0 41 27 c9 be a9 ff 3a be 1d c0 00 be 95 06 ca bd
       -0.3928776 -0.18261589 -0.12573285 -0.09864537
0002f0 3b 72 3e 3d 80 14 73 3d 73 c2 a3 bc 93 7c 83 bd
       0.046495657 0.059345722 -0.019990182 -0.06420245
000300 09 d1 00 be 7c 2b 8c ba 95 0f e0 bc fa 44 5a be
       -0.1257974 -0.0010694112 -0.02735118 -0.21315375
000310 b6 49 8b 3c 6a a4 20 3b 8a 74 28 be 13 4f 64 bd
       0.017002922 0.002451206 -0.16450706 -0.055739474
000320 31 1f bb 3c 4b 8d 30 bd a0 14 f7 bd 9d 4c ff 3b
       0.022842022 -0.043103497 -0.12064481 0.0077911154
000330 cc b8 f0 3c 2a 9e a9 3a e1 a0 aa 3b 0b c2 8e 3b
       0.029384993 0.0012940813 0.0052071665 0.004356628
000340 6a 30 20 be de 50 09 be 91 8f e7 bc d4 e1 02 bd
       -0.15643468 -0.13409755 -0.0282667 -0.031953648
000350 33 d5 4b be 9d 5c 2b bc 04 0e d1 bd 51 a4 ac 3c
       -0.19905548 -0.010459092 -0.102077514 0.021074446
000360 52 1d 82 bd 05 ef 4d bd 02 00 d6 bc 88 ce e6 be
       -0.06353249 -0.050276775 -0.02612305 -0.45079446
000370 08 b7 9f be ee d0 35 3c ff 6b 09 bd 1f 0f 29 bd
       -0.3119433 0.011097176 -0.03355026 -0.041274186
000380 c4 14 12 be 14 e4 60 bc ff 41 f6 bd 2b 53 1b be
       -0.14265734 -0.013726253 -0.120243065 -0.15168445
000390 10 b1 5c bd 15 85 fb bd 22 24 62 bd 5e 74 96 3d
       -0.053879797 -0.12281243 -0.05521024 0.07346414
0003a0 15 e7 ae 3c 8b 1f 4d bd 99 8d e6 bc 1f fa eb bd
       0.021350423 -0.05007891 -0.02814369 -0.11522316
0003b0 8e 7f 13 3d c0 10 00 be 6e db 74 bd 16 9e de bb
       0.036010318 -0.1250639 -0.059779577 -0.0067937477
0003c0 87 18 f5 bc 0d 46 03 3d 36 60 e3 bc c2 2a f3 bd
       -0.029918922 0.032049228 -0.027755838 -0.1187339
0003d0 1d 31 fd b9 e4 3d 09 bd 63 d7 9b bd a9 a8 3b bd
       -0.00048292513 -0.03350629 -0.07609441 -0.045815144
0003e0 5d 61 3c 3d 59 cd 47 be 1b 54 39 bd b0 43 13 be
       0.04599129 -0.19511928 -0.045246225 -0.1438129
0003f0 6a 32 0e be 07 2a f8 3b ba 4f 36 be 08 97 ec be
       -0.13886419 0.0075733694 -0.17803851 -0.46208978

category_policy.bias f4 [13]
000000 2a 6f 48 bb b9 a3 b8 bc 6d bc 2a 3d 9d 16 92 3d
       -0.0030583837 -0.022539007 0.041683603 0.071332194
000010 1e 9c 3f bd e6 8b 23 bd 0a b1 59 3d 15 3d ef bd
       -0.046779744 -0.03992834 0.053147353 -0.11681572
000020 65 d4 09 be 65 e2 11 3e 3f 46 30 bd 4e be 27 be
       -0.13459928 0.14246519 -0.043035742 -0.16381189
000030 50 d0 0b 3e
       0.13653684

value.weight f4 [1, 128]
000000 69 eb e1 bb b6 c3 5b 3d 83 3a 83 bd e0 66 04 bd
       -0.006894518 0.05365344 -0.064076446 -0.03232467
000010 9e f2 4e bd 46 a4 1b bd 9c 6c a9 bd 22 ef 35 bd
       -0.050524347 -0.03799846 -0.08272669 -0.044417508
000020 05 d1 9f 3c 20 45 0e 3b 58 fa 7b bb 06 70 7a 3d
       0.019508848 0.0021708682 -0.0038448777 0.06114199
000030 84 74 46 3c 23 ae ab bd 03 c2 74 3d ec f8 46 3d
       0.01211274 -0.08382823 0.059755336 0.048577234
000040 27 66 98 bd 8e 09 33 3d 78 ee 91 3d 58 c2 c6 3b
       -0.07441359 0.043710284 0.071255624 0.006065648
000050 87 da 20 bd 5d 56 bc bc 60 03 b0 3d 3d f7 d8 3b
       -0.039270904 -0.0229904 0.08594394 0.00662127
000060 85 d5 98 bc 59 43 a4 3d 90 8b 83 bc f8 54 1f bc
       -0.018656502 0.08020658 -0.01605776 -0.009724848
000070 9e bb 8f bd d7 05 71 3d 7f db 34 bc 06 ce 69 bd
       -0.07018207 0.05884346 -0.01103866 -0.057081245
000080 40 b8 25 bd 55 06 84 bc a5 1a 84 bd 1f 25 18 bd
       -0.040458918 -0.0161163 -0.064503945 -0.037144776
000090 3a 62 3c 3c 2d 49 3b 3d 3a d0 0a 3d 6f 72 85 bd
       0.011498028 0.045724083 0.033889987 -0.06515967
0000a0 59 39 b2 bd ac 6c a0 bc 07 25 8c 3d 8a 38 19 bd
       -0.087023444 -0.019583069 0.06843 -0.037407435
0000b0 fb 93 66 3d 81 29 12 3d 3d d6 38 3d 58 69 38 bd
       0.05629347 0.035684112 0.04512619 -0.04502234
0000c0 47 f8 cf 3c f3 53 b1 3d ee ad ef 3c 66 6a 48 bd
       0.025386943 0.0865859 0.02925774 -0.048929594
0000d0 ee 65 73 bd 9f 99 63 3d 63 a3 48 3d 3c f9 fc bc
       -0.05942338 0.055566426 0.048983943 -0.030880563
0000e0 62 4e 7e 3d 73 03 5a 3d 6b 17 49 3d 14 3e 27 bb
       0.06208647 0.053225946 0.0490946 -0.002551918
0000f0 0f af 23 3d c3 a2 01 bd 0f 92 4d bd d9 72 81 3c
       0.03996187 -0.031649362 -0.05018812 0.015801834
000100 ac cb b1 bd cd 09 24 bd 5a f2 9a 3d 24 79 45 bd
       -0.086814255 -0.04004841 0.07565756 -0.04821123
000110 4d ed 24 bc b5 5d b0 bd 11 7e a8 bc 06 3f 99 3d
       -0.010066343 -0.08611623 -0.020567926 0.07482724
000120 64 fa 09 bd ae 3d a3 3c 65 bc 8c 3c 30 23 ae bd
       -0.033686057 0.019926872 0.017179677 -0.08502805
000130 0f 60 58 bd f5 e3 5a 3c 9c be 9c 3d 95 5f a2 bc
       -0.052825984 0.013360013 0.07653543 -0.019820968
000140 56 0a b2 3b 10 46 b2 3d 77 64 11 bd 76 17 25 3d
       0.005433361 0.087047696 -0.0354962 0.040305577
000150 8f 9f 95 3d 6a 3d 77 3d 44 5a a5 bd f0 96 b6 3b
       0.07305824 0.060361303 -0.080738574 0.0055721924
000160 d4 b4 57 bd 42 eb 39 bd 95 f6 b3 bd 82 79 14 3c
       -0.052662686 -0.045390375 -0.08787266 0.009062173
000170 1a 8e be bc 93 1d 57 3d 5a c6 b2 3d db aa a8 bc
       -0.023261119 0.05251844 0.08729239 -0.020589283
000180 47 90 8a 3b b9 c1 05 3d 6c 3a 6c 3d 93 b6 99 bd
       0.004228625 0.03265545 0.057672903 -0.075055264
000190 d5 b1 ba 3c cb 3f 2f bd e3 f6 94 bb 07 83 15 3c
       0.022789875 -0.042785447 -0.0045460328 0.009125478
0001a0 4c ca f0 3b 7d b7 1b bd 96 fa c9 bc 3f bb 9f 3d
       0.0073483344 -0.038016785 -0.024655621 0.07799386
0001b0 7e 2c 6e bc d6 6b c5 bb 4f b3 56 bd 2f 8a 24 bd
       -0.014536975 -0.006024818 -0.052417096 -0.040170845
0001c0 34 f9 80 bb f2 a5 23 bd 19 9b 9f 3d af f8 9f 3d
       -0.0039359573 -0.03995318 0.077932544 0.078111045
0001d0 9c 99 13 bd a7 85 31 3d 22 d7 42 bd cf 37 69 bc
       -0.036035165 0.04334035 -0.047568448 -0.014234497
0001e0 32 0d 17 bb 32 3d 6c 3d d7 9e ab 3d a3 6f 6b 3d
       -0.0023048637 0.057675548 0.08379906 0.057479512
0001f0 01 71 f4 bc 9e 4a a1 bb 8c 58 c1 3c 92 3a 91 bc
       -0.02983904 -0.004922225 0.023601793 -0.017728124

exp_avg f4 [256, 23]
000000 86 0d 34 ba e2 04 2d ba 52 1a ca b9 6c 50 8a ba
       -0.000686847 -0.0006600154 -0.00038548053 -0.0010552532
000010 7b 2e ba b9 00 00 00 00 a7 1b 35 b7 ae 9b 4e a1
       -0.00035511315 0.0 -1.0794879e-05 -7.0001555e-19
000020 0b 89 dd b6 a7 1b b5 b8 8f 62 e2 b8 c0 d4 07 b9
       -6.602267e-06 -8.635903e-05 -0.00010794878 -0.00012953859
000030 04 ec 08 ba e9 e6 a3 b9 04 00 00 00 04 00 00 00
       -0.00052231573 -0.00031261824 6e-45 6e-45
000040 04 00 00 00 3d 71 17 b8 66 6d 40 b9 00 00 00 00
       6e-45 -3.6106667e-05 -0.00018351301 0.0
000050 eb cd 8c 8e 00 00 00 00 00 00 00 00 b4 18 94 bb
       -3.4710956e-30 0.0 0.0 -0.0045195464
000060 20 a6 04 3c ff a3 0f 3c 1e 34 75 3b 58 43 c1 ba
       0.008096248 0.008767127 0.0037415097 -0.0014744801
000070 00 00 00 00 09 5c 89 ba ab d7 cb 37 3b 3d be b9
       0.0 -0.0010479699 2.4299914e-05 -0.00036285244
000080 76 bd 43 bc 91 ca a7 bc 25 cd 72 3b ed 74 16 bd
       -0.0119470265 -0.020482333 0.0037048545 -0.036732603
000090 55 35 8a a5 d5 49 0b bd 2e 4d 1e bd 52 a5 89 bd
       -2.3975323e-16 -0.03400596 -0.038647823 -0.067209855
0000a0 04 00 00 00 d0 e2 02 3c 00 00 00 00 04 00 00 00
       6e-45 0.007988647 0.0 6e-45
0000b0 00 00 00 00 00 00 00 00 7e 32 50 bb b3 71 6d bb
       0.0 0.0 -0.0031768377 -0.00362311
0000c0 22 7a 7b 3a 29 3d b5 bb e5 9a be ba 00 00 00 00
       0.00095930893 -0.0055309725 -0.0014542012 0.0
0000d0 42 02 00 00 b1 e5 76 1e ef 13 6c 35 22 fb 4b 1e
       8.1e-43 1.3070631e-20 8.794586e-07 1.07986636e-20
0000e0 96 4f 9a 1e 27 57 a9 3b 93 9a fb b5 92 d4 ea b5
       1.63383e-20 0.00516786 -1.8745944e-06 -1.7496225e-06
0000f0 34 bc b5 1f 04 00 00 00 04 00 00 00 81 ab d1 b6
       7.696784e-20 6e-45 6e-45 -6.248651e-06
000100 a8 0f 06 3c 00 00 00 00 04 00 00 00 00 00 00 00
       0.008182444 0.0 6e-45 0.0
000110 00 00 00 00 0a 05 99 b8 8c 8c 9a b8 1d a0 6f b9
       0.0 -7.296547e-05 -7.369471e-05 -0.00022852463
000120 70 7d 7d b9 a9 69 ff b8 00 00 00 00 04 00 00 00
       -0.0002417469 -0.00012179028 0.0 6e-45
000130 04 00 00 00 8e d7 78 29 04 00 00 80 46 5e cf 29
       6e-45 5.5254026e-14 -6e-45 9.2090005e-14
000140 8e d7 f8 29 a2 21 08 b9 da 73 f2 36 f2 9a 01 2b
       1.1050805e-13 -0.000129825 7.225649e-06 4.6045036e-13
000150 3d ca 1a 2b ae 8e 4d 2b 04 00 00 00 0f 89 90 2a
       5.499245e-13 7.302864e-13 6e-45 2.5674642e-13
000160 00 00 00 00 00 00 00 00 00 00 00 00 00 00 00 00
       0.0 0.0 0.0 0.0
000170 e9 de 13 bc 11 f2 85 bb 3b 40 01 bc 60 80 20 bc
       -0.009025314 -0.0040876945 -0.007888849 -0.009796232
000180 96 c5 f4 bb 00 00 00 00 de 3b c3 b8 de 9b ad ac
       -0.007469843 0.0 -9.309476e-05 -4.9342605e-12
000190 63 08 61 b9 ec 4b 19 ad 79 d1 64 bc 2c 46 c9 bc
       -0.00021460796 -8.713901e-12 -0.013965958 -0.024569593
0001a0 1d 69 c8 bc b3 85 23 ba 43 ad b3 bc 04 00 00 00
       -0.024464184 -0.0006237879 -0.021933204 6e-45
0001b0 00 00 00 00 c4 86 18 bb 80 d4 1e bd 00 00 00 00
       0.0 -0.0023273686 -0.038776875 0.0
0001c0 04 00 00 80 00 00 00 00 00 00 00 00 eb d3 2f 20
       -6e-45 0.0 0.0 1.4893194e-19
0001d0 6a a9 92 20 6a a9 92 20 ea 6b ea 1f 24 8c 6a 20
       2.484547e-19 2.484547e-19 9.9281384e-20 1.986694e-19
0001e0 00 00 00 00 04 00 00 00 04 00 00 00 04 00 00 00
       0.0 6e-45 6e-45 6e-45
0001f0 04 00 00 00 04 00 00 80 04 00 00 00 9a 53 02 00
       6e-45 -6e-45 6e-45 2.13662e-40
000200 04 00 00 00 a8 49 05 00 fb ec db 21 00 00 00 00
       6e-45 4.856e-40 1.4902745e-18 0.0
000210 00 00 00 00 c7 04 04 00 00 00 00 00 00 00 00 00
       0.0 3.69056e-40 0.0 0.0
000220 00 00 00 00 00 00 00 00 ce 88 5c b9 95 06 5d ba
       0.0 0.0 -0.00021031799 -0.0008431462
000230 4c 0d 93 ba 20 54 9d 3a a5 6c 24 bb 00 00 00 00
       -0.0011219173 0.0012003221 -0.0025089171 0.0
000240 78 93 49 b9 f9 9c c1 b9 f9 61 34 ba be 4b 73 ba
       -0.0001922379 -0.00036928782 -0.0006881054 -0.0009281001
000250 e3 1d 06 bc 1d fa 41 3a a2 02 db bb 3a 60 63 bb
       -0.0081858365 0.00073996355 -0.0066836635 -0.0034694807
000260 8b 83 29 bc 2b 9f 43 bc 71 d6 5a bc 41 50 b8 bb
       -0.010346304 -0.011939804 -0.013356791 -0.0056248014
000270 62 4a 4c bc 00 00 00 00 bd 18 6f 86 00 00 00 00
       -0.012468906 0.0 -4.496908e-35 0.0
000280 00 00 00 00 0f 18 14 ba 94 98 74 b9 9a 03 ed b9
       0.0 -0.0005649337 -0.00023326493 -0.00045206846
000290 6b ed ec b9 4b 48 40 38 00 00 00 00 1e ef 2d b9
       -0.00045190318 4.5843695e-05 0.0 -0.00016587644
0002a0 a6 7c 43 34 4f 62 5f 35 c5 b3 b1 ba 87 42 de ba
       1.8206137e-07 8.321703e-07 -0.0013557604 -0.0016957083
0002b0 d3 46 05 bb 68 f1 47 bb 04 00 00 00 a7 10 39 bb
       -0.0020336404 -0.003050888 6e-45 -0.0028238685
0002c0 04 00 00 00 04 00 00 00 00 00 00 00 77 e3 47 bb
       6e-45 6e-45 0.0 -0.003050057
0002d0 00 00 00 00 00 00 00 00 00 00 00 00 00 00 00 00
       0.0 0.0 0.0 0.0
0002e0 ff 71 97 b1 0d f6 a9 b1 8a 48 e5 b1 71 0d 61 b1
       -4.4076383e-09 -4.94652e-09 -6.673024e-09 -3.274945e-09
0002f0 63 5c 12 b1 00 00 00 00 04 00 00 80 7f 04 1c b1
       -2.1298312e-09 0.0 -6e-45 -2.2703543e-09
000300 c4 06 ea b1 e9 96 95 15 b0 72 88 b1 c4 06 ea b1
       -6.8110655e-09 6.0418715e-26 -3.9711594e-09 -6.8110655e-09
000310 04 00 00 00 04 00 00 00 04 00 00 80 04 00 00 00
       6e-45 6e-45 -6e-45 6e-45
000320 e2 72 43 b3 04 00 00 00 ca af cb b2 00 00 00 00
       -4.550646e-08 6e-45 -2.371225e-08 0.0
000330 04 00 00 00 00 00 00 00 00 00 00 00 c3 63 78 37
       6e-45 0.0 0.0 1.48051795e-05
000340 2b a6 5d b7 a0 90 95 38 99 ad ae 36 9b ae 6a b7
       -1.32113155e-05 7.131812e-05 5.2058135e-06 -1.398814e-05
000350 00 00 00 00 4e c6 80 36 2a cd 7d 2f f9 af 9f 31
       0.0 3.837783e-06 2.3083105e-10 4.647515e-09
000360 b2 60 fe 37 02 3a 21 38 3c d0 3e 38 9e 23 c1 38
       3.0324187e-05 3.8439415e-05 4.5493463e-05 9.2095914e-05
000370 c6 6e e1 38 04 00 00 00 dc 10 c9 b3 00 00 00 00
       0.00010749469 6e-45 -9.3628586e-08 0.0
000380 00 00 00 00 d2 b2 86 38 00 00 00 00 00 00 00 00
       0.0 6.422926e-05 0.0 0.0
000390 00 00 00 00 00 00 00 00 d7 f4 e8 b8 11 ef e8 b8
       0.0 0.0 -0.00011108227 -0.00011107152
0003a0 ce 95 11 ba 14 95 11 ba 91 f0 68 b9 00 00 00 00
       -0.00055536337 -0.00055535254 -0.00022214862 0.0
0003b0 04 00 00 80 04 00 00 80 67 b6 7a 8c da a7 33 17
       -6e-45 -6e-45 -1.9314189e-31 5.804988e-25
0003c0 5d ed 1e 93 04 00 00 80 b6 95 2c aa e5 91 60 17
       -2.0059433e-27 -6e-45 -1.532861e-13 7.256245e-25
0003d0 04 00 00 00 04 00 00 00 01 0c a2 23 32 5b 0c 18
       6e-45 6e-45 1.7569159e-17 1.8140618e-24
0003e0 e5 e5 1e 94 00 00 00 00 04 00 00 80 00 00 00 00
       -8.0223e-27 0.0 -6e-45 0.0
0003f0 00 00 00 00 cd e1 91 ba c9 63 ad ba 33 14 90 ba
       0.0 -0.0011129916 -0.0013228591 -0.0010992348
