checkpoints/yahtzee_pretrain_fast/checkpoint_ep999.pt (torch, 527397 bytes, 25 tensors)

shared.0.weight f4 [256, 23]
000000 53 ca ec bb e8 a6 43 3e b5 25 81 3d 73 f5 73 3d
       -0.0072262674 0.19106638 0.0630602 0.05956025
000010 c1 b0 59 3e 20 0d 25 be b0 e8 7c be 23 24 aa be
       0.21258833 -0.16118288 -0.24698138 -0.33230695
000020 b8 c5 21 be f9 d0 41 be 78 46 8d bd fb e6 c4 3c
       -0.1579808 -0.18927373 -0.068982065 0.024035921
000030 5b b9 72 3d 1f 57 48 3e 44 a6 70 bd 3c 69 4f be
       0.0592588 0.19564484 -0.058752313 -0.20254987
000040 92 35 e6 bd 2e 56 0f bc 65 77 96 be ae fc 8e bd
       -0.112406865 -0.008748574 -0.29387966 -0.069817886
000050 c7 6c a6 3e 09 92 3d be 9d 74 1c be c6 13 90 3d
       0.32504866 -0.18512739 -0.1527886 0.070350215
000060 a9 c4 6e be 21 f2 1b be e2 f2 7d be eb ea 69 be
       -0.23317207 -0.15229084 -0.24799684 -0.2284352
000070 08 db 33 3d fe e1 d0 3d 91 0d d9 3e bb 6d 9b be
       0.043910056 0.101993546 0.42393163 -0.30357155
000080 c8 41 4c be 93 93 23 3e 55 a5 62 3e 0f 34 84 be
       -0.19946969 0.15974264 0.22133382 -0.25820968
000090 69 02 4a be 49 0a 21 3e e2 90 d3 3c cb 07 0e 3c
       -0.19727482 0.1572658 0.025825921 0.00866885
0000a0 41 e1 89 bc d9 67 13 3c 22 7f fd 3d 44 c5 2c be
       -0.016831042 0.008996927 0.12377764 -0.16872126
0000b0 0f 64 19 bc 98 85 e7 bd ed a5 29 3e 25 91 a1 bd
       -0.009362235 -0.11304778 0.16567202 -0.07889012
0000c0 c1 40 cb 3d 23 80 81 3d b2 ff 86 be d5 23 82 3d
       0.0992446 0.06323268 -0.26366955 0.06354491
0000d0 b4 0b 4f be 25 da 7d be e9 c7 4d be d5 cc 8a 3d
       -0.20219308 -0.24790247 -0.20095791 0.0677735
0000e0 15 7a 1e bd 9f 65 69 3e 67 4a 7e be 41 f6 b5 bd
       -0.038690645 0.22792672 -0.2483307 -0.0888486
0000f0 10 f1 8c 3d a1 20 29 be d4 8b 51 be ee 35 cb 3d
       0.068819165 -0.16516353 -0.20463496 0.09922396
000100 56 71 44 be 90 64 28 be e6 b9 36 be 2a ed d2 bd
       -0.19183859 -0.16444612 -0.17844352 -0.10299142
000110 6f c3 e7 bd 11 fe d5 bd 3a 78 e0 bd 1c e8 04 3e
       -0.11316573 -0.1044885 -0.109604314 0.12979168
000120 a8 89 c0 3d 85 47 61 3d 89 6b 25 be bd a1 3d be
       0.09401256 0.054999847 -0.16154303 -0.1851873
000130 31 cf 9b be b5 41 d2 bd a0 a4 8d be c2 ea 99 be
       -0.30431512 -0.10266439 -0.2766466 -0.30061918
000140 85 b8 15 be 9a af cd 3d df c0 0b be 13 73 9b 3d
       -0.1462117 0.10043259 -0.13647793 0.07590308
000150 b8 bd d4 bd 65 cf ee 3d 00 fe 1e be f4 69 4a be
       -0.103877485 0.11660651 -0.15526581 -0.1976698
000160 b7 91 2e be d2 9e 33 3d ab 94 11 be d0 34 2e be
       -0.17047773 0.043852635 -0.14216869 -0.17012334
000170 9c a6 8f bc 5a 46 47 bd b4 7a 2c be c4 97 b3 bc
       -0.0175355 -0.048651077 -0.16843683 -0.021922953
000180 fc 1e 17 3d fe 9f cc 3d e9 73 6a 3e 19 ac f1 bd
       0.036894783 0.099914536 0.22895779 -0.11800403
000190 23 0b 08 3e 09 3a 01 bf cc 95 73 3e ff 9e c5 3d
       0.13285498 -0.5047918 0.23787612 0.09649467
0001a0 c4 6a fd 3c d6 93 cf bd e6 32 f3 bd a2 17 66 be
       0.030934699 -0.10135619 -0.118749425 -0.22469953
0001b0 49 d1 ee bd 95 c3 04 bd 2c b7 98 bc d0 02 19 bd
       -0.11661012 -0.032413084 -0.01864203 -0.037356198
0001c0 1b 2f 0a 3d e3 76 13 3e a2 a3 11 be e1 b6 a4 bd
       0.03373633 0.1440082 -0.14222577 -0.08042694
0001d0 be f4 8f bd c7 d3 26 be 73 81 e0 bd 44 41 84 be
       -0.07029103 -0.16291724 -0.109621905 -0.25831044
0001e0 0a cc 8d 3d 9c eb 1d be c0 b4 1f be 46 f4 75 bd
       0.06923683 -0.15421909 -0.15596294 -0.06004741
0001f0 92 11 01 be b8 06 67 be 5f b0 04 be 53 e2 f6 3c
       -0.12604359 -0.22561157 -0.12957905 0.030137217
000200 54 60 96 bd aa 13 05 3e 13 ca 12 3e c1 b3 48 be
       -0.07342592 0.12995782 0.14334898 -0.1959982
000210 b0 5e 4a be c2 52 59 be b1 b9 8e 3d 10 42 f2 bd
       -0.19762683 -0.21222976 0.069690116 -0.11829007
000220 db 28 05 be 28 d1 46 be 42 b7 8a 3d cf 24 9b 3d
       -0.13003866 -0.19415724 0.06773235 0.0757538
000230 78 b9 06 be 1b 21 d1 3d bc a6 55 bd bd ed c7 3c
       -0.13156688 0.102113925 -0.052160963 0.024405355
000240 64 50 50 be e2 7c 85 3c 52 6f 9d be 1c 5d b7 bc
       -0.20343167 0.0162949 -0.30748993 -0.022383265
000250 88 ef 36 3e f0 45 27 bf ab 7b 76 bd 5f ba 52 3d
       0.17864811 -0.6534109 -0.060176533 0.05144727
000260 89 ac b2 3d 83 9a 9b bc bb cb 7c bb 63 60 2d 3d
       0.08724315 -0.018994575 -0.0038573581 0.04232825
000270 39 68 97 3d d4 06 52 be 59 3d af bc 3c 18 5a 3d
       0.07392926 -0.20510417 -0.021391558 0.053245768
000280 a2 0e be bd ae eb af bd c2 2a de bc 00 0e 20 3d
       -0.09280135 -0.08589874 -0.027119998 0.03907585
000290 b6 f6 4d be f8 87 08 be 82 da 66 3c 8f d7 b0 3d
       -0.20113644 -0.13333118 0.014090182 0.086348645
0002a0 10 cb f8 bd d2 79 5d be 17 08 f8 3d 37 30 04 be
       -0.12148106 -0.21628502 0.12110918 -0.12909018
0002b0 aa d4 2d 3e bb 9e a2 3c 6a 0a 42 be a3 b4 da 3c
       0.16975656 0.01985108 -0.18949285 0.026697462
0002c0 f5 8f 3f be d5 81 07 be bb bc 38 be 1a 46 31 be
       -0.18707259 -0.1323312 -0.18040745 -0.17311898
0002d0 ae 63 3f 3e ab 11 32 3e 68 d6 46 3d ab d3 10 be
       0.18690369 0.17389552 0.048544317 -0.14143245
0002e0 de 88 99 bd 48 d3 fe bd c5 a2 ff 3c d2 f2 55 be
       -0.074968085 -0.124426425 0.031205544 -0.2089341
0002f0 f3 ba 52 be 31 be b3 3d 25 c1 1b be 09 5f bf bd
       -0.20579128 0.087765105 -0.15210398 -0.093442984
000300 01 62 5e 3d 8c 2c 51 bd cb d5 15 3e 94 f2 97 be
       0.054292683 -0.051067874 0.14632337 -0.2967726
000310 02 2f 0b bd 7a 82 a3 be da 00 47 be a8 ba 31 be
       -0.033980377 -0.31935483 -0.19433919 -0.1735636
000320 49 b6 b5 3d 1f 27 9c 3c a7 7c 2a 3d 13 72 48 3e
       0.08872659 0.019061623 0.041622784 0.19574766
000330 06 19 71 bd bd a5 0a 3c 7d c0 27 3e 07 40 04 bd
       -0.058861755 0.008462367 0.16382022 -0.032287624
000340 0b 2b 2e be bb ab a9 3d bf 79 c6 be 9a 1a 64 be
       -0.17008607 0.08284708 -0.3876476 -0.22275773
000350 23 c2 86 bc 03 9c b5 3d fe cd 72 be a7 70 7b be
       -0.016449993 0.088676475 -0.23711392 -0.24554692
000360 1f 11 be 3d 9c 69 11 3e 6b 11 2d 3e 5a f4 84 3b
       0.09280609 0.14200443 0.16901176 0.0040574493
000370 88 53 8f 3c 6d 92 81 be 92 20 34 ba ba 41 54 be
       0.017495885 -0.25307027 -0.00068713084 -0.20728198
000380 40 49 29 be 4d d7 54 bb 20 d8 c5 3d 6c 1a 42 3e
       -0.16531849 -0.0032476962 0.09660363 0.18955392
000390 74 16 8e 3d ac f4 07 be 61 59 e1 3d 0e fd 99 be
       0.06937876 -0.13276929 0.11003376 -0.30075878
0003a0 ef 97 f8 3d 92 95 f4 3d 8c ca 1a be d7 26 fa bc
       0.12138354 0.11942591 -0.15116328 -0.030536098
0003b0 e1 95 a5 3c 49 0b 54 3e 8e cb 01 bd 37 42 f4 3d
       0.02021307 0.2070743 -0.031688266 0.11926692
0003c0 67 c2 59 3d 11 14 20 be 10 87 c7 3c f5 ae 9e bd
       0.053163912 -0.15632655 0.024356395 -0.07748214
0003d0 b0 75 93 bd 16 f6 16 be ad a8 9c 3d 72 cc 00 bd
       -0.072001815 -0.14742312 0.0764936 -0.031444974
0003e0 07 ff 33 be c5 4a 88 3d 6f 5a 89 3e 1b 60 94 3d
       -0.17577754 0.06654886 0.26826808 0.07244893
0003f0 97 16 7e 3d dd 0f 70 bc 59 29 d3 3d 98 c2 6b be
       0.062033262 -0.01465222 0.10310621 -0.2302345

shared.0.bias f4 [256]
000000 fa 36 90 3d f5 9b e9 3a ae 59 e6 bc 06 78 ed bd
       0.07041736 0.0017822968 -0.028118934 -0.11595158
000010 c7 f5 da 3c 18 a7 76 3d ba f0 d2 be c5 e2 2a be
       0.026728524 0.060217947 -0.41199285 -0.16688068
000020 e9 7c 62 be 89 f7 3c be 28 f0 ec 3d fe 2a fb bd
       -0.22117962 -0.18453802 0.11569244 -0.122640595
000030 e3 79 60 3e 7c 88 49 bc b5 01 6f be fb 02 97 be
       0.21921496 -0.012300607 -0.23340495 -0.2949446
000040 86 ea 0d be 68 b1 b1 be e0 dd 3d bd b7 d3 15 bd
       -0.13858995 -0.34705663 -0.046354175 -0.03657886
000050 5a 35 85 be 37 25 a4 bd 43 28 0c bc 74 01 e1 3b
       -0.26017267 -0.08014911 -0.008554521 0.0068666283
000060 a1 07 23 3c 7f d5 87 be 76 59 34 be bc b8 9d bd
       0.009950549 -0.26530072 -0.17612252 -0.07701251
000070 17 8a 67 3d 01 bc 03 be 7f 8c 7f be f8 c2 25 3e
       0.056528177 -0.12864687 -0.24955939 0.16187656
000080 69 05 ee bd 6c e7 29 be fb a3 2c be cb 73 58 bd
       -0.11622126 -0.16592187 -0.16859429 -0.052844804
000090 b9 38 b5 3d fe 4d 76 3d 8e 75 22 bd ca b4 a1 bd
       0.088487096 0.060132973 -0.03966289 -0.07895811
0000a0 ab 68 8b bc fc b3 2b 3e df 1b 5c 3e 61 f5 43 bd
       -0.017017683 0.16767877 0.21495007 -0.047841433
0000b0 a2 88 29 be 59 61 77 3e 89 8c 40 be 73 de 25 be
       -0.16556028 0.24158229 -0.1880361 -0.16198139
0000c0 6b e0 9f bd b2 f1 bf bd 0d cd 45 be 45 f2 92 bd
       -0.07806476 -0.093722716 -0.19316502 -0.071751155
0000d0 f0 83 9b 3b b9 44 9f bd 70 78 70 be 01 08 4a be
       0.004745953 -0.0777678 -0.23483443 -0.19729616
0000e0 03 d6 9d bd f4 7f 33 3e f9 07 9d bc c0 a7 b4 bb
       -0.07706835 0.17529279 -0.01916884 -0.0055131614
0000f0 04 9d 8f 3c f3 a4 4b 3e 96 10 6a 3d 14 75 94 3d
       0.017530926 0.19887142 0.057144724 0.072488934
000100 84 f5 0f be 9e 30 6c bd 0f 21 64 3e dd 7e f0 3d
       -0.140585 -0.057663552 0.22278236 0.11742947
000110 67 78 10 3e d3 4b 07 3e 72 89 aa 3d 34 66 f5 bd
       0.1410843 0.13212518 0.08326997 -0.11982384
000120 cf 9c 27 be d3 57 d1 3c d2 8f 74 bc 94 7c c7 bd
       -0.16368411 0.025554573 -0.014926868 -0.09740558
000130 21 23 96 3d 0d df 52 be 8d 0f 38 bd 5e 13 82 3b
       0.07330919 -0.205929 -0.044936705 0.003969594
000140 22 30 23 bb 44 ef 7b be 81 b1 57 be 0c 5f 52 ba
       -0.0024900516 -0.24602991 -0.21063806 -0.00080250273
000150 e6 51 d5 bd f0 00 26 be 51 6d cf bc 70 ce 86 bd
       -0.104160115 -0.16211295 -0.02532068 -0.065823436
000160 ff f1 f9 3d 1c 33 48 be 35 2f 40 be 00 19 50 bd
       0.1220436 -0.19550747 -0.18768008 -0.05080509
000170 d3 68 1a 3e a4 ed 84 bd a2 4d 83 3d 3b 6a 84 3e
       0.1507905 -0.06490639 0.06411292 0.25862297
000180 ab 8a 0e be cf 1c 4d be 5c cb 4a bd 53 ee 86 bd
       -0.13920085 -0.20030521 -0.049510345 -0.065884255
000190 97 de b4 bd 92 04 fe bd 65 bd 7e be 45 ea c1 be
       -0.08831518 -0.124032155 -0.24876936 -0.37874046
0001a0 dd b7 1f bd 41 ad b3 bd ec 0b 26 3d ce d9 4b bd
       -0.038993705 -0.0877328 0.040538713 -0.04976826
0001b0 67 e7 ae bd 44 a9 d0 3d b9 f3 33 be a2 89 6a 3c
       -0.0854023 0.10188535 -0.17573442 0.014315041
0001c0 f4 ed e2 3d c9 b9 07 3e a6 0e 0e be 20 01 b4 be
       0.11080542 0.13254465 -0.13872775 -0.35157108
0001d0 24 da 73 be 6e 47 95 3e 6a 12 90 bd 38 42 86 bb
       -0.23813683 0.2915606 -0.07034762 -0.0040972494
0001e0 4b 29 09 be 6e 27 22 3e 64 3e 1b be 26 7c 07 bd
       -0.13394658 0.15835354 -0.15160519 -0.03307738
0001f0 e5 d8 1f bc 0f db 04 be 46 6c 0f be be a5 8d be
       -0.0097563015 -0.12974189 -0.14006147 -0.27665514
000200 f1 dd 2a 3d 58 f9 23 3d 49 c4 01 3d 4a 01 cf 3d
       0.041715566 0.040032715 0.031681333 0.10107668
000210 6d 7e 36 be ca 15 89 3d a0 91 e9 3d 2a 12 96 bc
       -0.17821665 0.06693609 0.11404729 -0.018319208
000220 31 e0 50 be b0 a0 c4 3d 36 fc 15 3b 31 7a 03 3c
       -0.20398022 0.09600961 0.0022885925 0.008024738
000230 c4 1a 97 be 8c 18 04 be ac 84 2d be 88 10 11 3e
       -0.29512608 -0.12899989 -0.16945142 0.14166462
000240 0e 0e a1 bd 44 fc 8c 3d 7c af 07 bd 62 5d e8 bd
       -0.07864009 0.06884053 -0.03312634 -0.11345936
000250 e6 a5 db 3b a6 ab 47 bd 1a be ea 3c 26 8c 9d bd
       0.0067031262 -0.04874768 0.0286551 -0.07692747
000260 f2 bc e2 3c c6 2e e9 3d 35 8a f7 3b b9 28 f1 3d
       0.027677987 0.113858745 0.0075543174 0.11775345
000270 b7 f6 07 3e 3d 1f 11 3e 14 d8 f6 bd 7e e2 47 be
       0.13277708 0.14172073 -0.120529324 -0.19519994
000280 ce 81 0f 3b 35 8b a1 bd 35 aa 06 be 50 d8 a5 bd
       0.0021897438 -0.0788788 -0.13150866 -0.08097899
000290 dd 56 9e 3c 2d 19 b0 be b1 0f 75 3e ea ef 3e 3d
       0.019328529 -0.34394208 0.23931767 0.04661552
0002a0 4e bc 99 bd dc 39 7c bd 3b 83 41 3d fa aa 25 be
       -0.075066194 -0.061578616 0.04724429 -0.16178504
0002b0 11 6e 47 3e ea 29 1e be 56 8d a8 bb 47 43 2a be
       0.19475581 -0.15445676 -0.0051438017 -0.16627227
0002c0 dc 2c 68 be 28 c9 49 be 9a db bf 3d cb 50 04 3b
       -0.22673362 -0.19705641 0.093680575 0.0020189758
0002d0 32 c1 80 be a3 c9 78 be a2 aa 9b be 66 29 ac be
       -0.25147396 -0.24295668 -0.3040362 -0.33625335
0002e0 d8 4d 7f be 1c f2 5d 3e a3 73 09 be 16 7b 5b 3d
       -0.24932039 0.21674389 -0.13423018 0.05358418
0002f0 e6 04 82 bd b8 05 29 be 21 fb 2d be 0e 0a 82 bd
       -0.063485906 -0.16506088 -0.1699033 -0.06349574
000300 d8 5f 12 3d 71 fb 6c be 55 3d 2b be a2 84 d6 bd
       0.035735935 -0.23142792 -0.16722615 -0.104745165
000310 81 75 85 be ca 42 a9 bd e4 c7 23 be 2b d5 00 bc
       -0.2606621 -0.08264692 -0.15994221 -0.007863323
000320 fc b2 ad be 58 94 41 3c 8c 2f 83 3d 74 11 42 be
       -0.33925617 0.011815153 0.06405553 -0.1895197
000330 3f 12 be be 04 05 28 3e 60 14 42 3d 6c 1a 9e bd
       -0.37123296 0.16408163 0.047382712 -0.07719883
000340 51 37 e7 bd 59 7d 9f bd 56 44 b3 3d fd 7e 32 be
       -0.11289848 -0.0778758 0.087532684 -0.17431255
000350 48 b1 5b bd 88 a0 0d be ec 89 b7 bd 20 46 bc bc
       -0.053635865 -0.13830769 -0.089618534 -0.022982657
000360 d5 2b e4 3d fe 9f 8c bd dc bc 9f bd 70 64 7c be
       0.11141173 -0.068664536 -0.07799694 -0.24647689
000370 7e e5 3e 3e 8a dd 12 be bf a2 81 3d 71 71 73 be
       0.18642232 -0.14342323 0.063298695 -0.23773743
000380 63 e3 7c be e6 fb 17 be cc 08 74 3d 0b 34 19 3e
       -0.24696116 -0.14842185 0.0595787 0.14961259
000390 52 0e 0f 3e 36 5b 81 3d af e8 6c be 51 7f b1 bd
       0.13970307 0.06316225 -0.23135637 -0.08666862
0003a0 fa a5 11 bd b1 08 5b 3d 12 a1 bd bd e2 d4 c3 3d
       -0.03555868 0.053475086 -0.09259237 0.095620885
0003b0 19 41 3f 3d 14 47 f8 3d b3 6f ff 3d 97 34 32 bd
       0.04669294 0.12122932 0.12472477 -0.043507185
0003c0 81 1b f0 3d c7 58 1d be 1e 0b 9f be e7 ef 30 be
       0.11723996 -0.15365897 -0.3106317 -0.17279015
0003d0 c8 50 5c bd b2 2e 3a be 17 24 2f 3d 7b 0f 20 bd
       -0.053787977 -0.18181875 0.042759027 -0.039077263
0003e0 30 ab 32 3e 58 f9 ab be 27 3a d5 bc 3f 32 04 3e
       0.17448115 -0.33588672 -0.026028706 0.12909792
0003f0 fe 04 a0 3d 0c 39 91 be b2 ff b7 bd 54 e6 55 be
       0.07813452 -0.28363836 -0.08984317 -0.20888644

shared.2.weight f4 [128, 256]
000000 36 af 7e 3d 3e ef b0 3c 00 11 63 3c 56 46 71 3c
       0.062178813 0.021598455 0.013859034 0.014726242
000010 e2 2b 2d bc 5f 8d 25 bd 71 60 62 bd e8 f9 b7 bb
       -0.0105695445 -0.040418025 -0.055267755 -0.005614508
000020 7e be 22 bd 83 0f ff 3b 0e 56 92 bd e7 d4 00 3a
       -0.03973245 0.0077838316 -0.0714532 0.00049145374
000030 aa 55 1f bd 28 30 d1 3c c4 18 1a bd ca aa 68 bb
       -0.038900055 0.025535658 -0.037621275 -0.003550219
000040 cb 02 57 bc 14 c8 06 bc 49 09 1a bd 9b 6f a2 bb
       -0.0131232245 -0.008226413 -0.03760651 -0.004957152
000050 3c 5b 52 3c fb b6 28 bd 9a 94 36 bd df 02 25 bc
       0.012839135 -0.04119013 -0.04457531 -0.010071485
000060 bd 0a 47 bd 04 72 f0 bb 7a 59 86 bd 1b df 62 3a
       -0.048594225 -0.0073378105 -0.06560035 0.0008654461
000070 3c 31 aa bb 32 1b ab bc 02 20 9f bd 6c 1b 43 bd
       -0.0051938575 -0.020886991 -0.07769777 -0.047633573
000080 51 45 3e 3c e1 01 00 ba e0 49 b0 3c 96 8a 92 bd
       0.011613206 -0.00048830925 0.021519601 -0.071553394
000090 ad 5c 92 ba 48 ca d6 bc ce 27 9f bc 52 28 d3 3c
       -0.0011166536 -0.026219502 -0.01942816 0.025776062
0000a0 49 5e 55 bd 37 d5 26 bd 3d dd 9d bc b5 42 7a ba
       -0.05209187 -0.04073068 -0.019270534 -0.0009546683
0000b0 11 e6 8e bc 0e 36 0c bd ab c8 33 bd 64 85 a3 3c
       -0.017443689 -0.034231238 -0.043892544 0.019961067
0000c0 52 9c 59 bd 7a af 18 bb 7b 10 65 bb 20 4f a0 bc
       -0.053127594 -0.0023297952 -0.003495245 -0.01956898
0000d0 98 e3 71 bc dc fc 45 bd 42 ff 04 3d ed f8 16 bd
       -0.014763735 -0.04833685 0.032469995 -0.036858488
0000e0 af b1 06 bc 60 d6 17 bd 4a 1a 0a bd 3b 12 f0 bc
       -0.008221074 -0.03706968 -0.033716477 -0.029305568
0000f0 e2 81 88 bd 78 f4 c6 bd f4 cd f5 3c 96 86 6d bd
       -0.06665398 -0.097145975 0.030005433 -0.05798968
000100 14 55 91 3c 90 a8 41 bd 31 3a b2 3c 43 40 72 3c
       0.017740764 -0.047279894 0.021756263 0.014785829
000110 04 54 61 bd 9d f3 35 bd 98 ae 57 3d a8 3f ad 3c
       -0.055011764 -0.04442178 0.05265674 0.021148518
000120 88 fe b3 3c be 2a c4 bb 52 6a f0 bb 99 b2 cc 3c
       0.021971956 -0.0059865406 -0.007336893 0.024987506
000130 53 0c 83 bc 34 2e 8c 39 19 09 85 bc b9 f2 a5 bc
       -0.015997088 0.00026737305 -0.01623969 -0.02025734
000140 22 79 ea 3a b4 17 99 bb ea 0f 4c 3d 3d 6f 2b 3a
       0.0017888884 -0.004672015 0.049819864 0.0006539708
000150 72 03 4c bd da a9 f7 bc ea 90 21 3d 5f 50 a4 bc
       -0.049807973 -0.030232359 0.03944484 -0.020057855
000160 9a 9c 42 3d 9a 74 9c bd 49 24 ff bc 94 88 3e bd
       0.04751263 -0.076394275 -0.031145232 -0.04651697
000170 52 80 3e 3d 2b 1c 7a bd e6 78 a8 bd 76 69 2b 3d
       0.046509095 -0.06106202 -0.082261845 0.041848622
000180 38 32 42 3d 6c 20 ce bc cc 73 18 bd 3e f3 60 bd
       0.047411174 -0.025161944 -0.037219808 -0.054919474
000190 cb 2d 8d bd 76 10 dd 3c 5b 8d 84 bd e2 1c 64 bd
       -0.068935 0.026985388 -0.06472274 -0.055691607
0001a0 a6 a7 87 bd 4d 4c 23 bd 55 50 66 3d da 6f 4f bd
       -0.06623773 -0.039867688 0.056228954 -0.05064378
0001b0 6e 08 42 bd 32 f1 c9 bb 0c 08 2c bc c2 db 29 bd
       -0.04737132 -0.006162786 -0.010499965 -0.041469343
0001c0 cb 37 1d bc 7c 05 a4 bb df 44 e2 bc 0b 4d fd 3c
       -0.009595822 -0.0050055366 -0.02762073 0.030920526
0001d0 2e cb 62 bc 00 72 f9 ba 88 79 e5 bc 58 06 58 3d
       -0.013842387 -0.0019031167 -0.028012052 0.052740425
0001e0 65 c3 91 bc 5f a2 ee bb 68 10 60 bd 06 de 58 3d
       -0.017793367 -0.0072825397 -0.054703146 0.052946113
0001f0 ce 86 ae bc 71 81 21 bd 57 49 01 bd c3 92 a6 bd
       -0.021304514 -0.039430086 -0.031564083 -0.08133461
000200 a5 89 17 bd e0 9c 50 3c 2e 02 9a bd 08 a0 37 bc
       -0.036996502 0.012732714 -0.07519947 -0.011207588
000210 d2 1c 69 3c a5 8a 30 3c a6 77 6b bd d9 a0 57 bd
       0.014228063 0.010775243 -0.057487153 -0.05264363
000220 ef 95 ef 3c b7 2e df bc 34 15 07 3d 76 76 a2 bc
       0.029246299 -0.027243955 0.032979205 -0.019831877
000230 e1 e2 0d bb 76 6b 95 bc 82 6b 74 3c d4 d5 ec 3c
       -0.0021650123 -0.018239718 0.01491821 0.028910555
000240 8e 3c 7c 3c fc c9 7a 3d 0d 77 06 bb b3 0a e7 3c
       0.015395297 0.061227784 -0.0020517737 0.028203344
000250 2b 37 df 3c 49 58 d9 3c ed 5d 14 bd 54 27 f2 3c
       0.027247986 0.026531355 -0.036222387 0.029559769
000260 54 09 87 3d 7d 46 5e bd 00 ba 13 3d 88 6a b6 bb
       0.06593576 -0.05426644 0.036066055 -0.0055668987
000270 2a e6 8e 3c 1a f0 62 3d 69 87 e2 bd 52 1b 87 bd
       0.017443735 0.05540476 -0.11060984 -0.06597008
000280 34 3a ac bc 93 ec 22 bd d2 d2 f2 3c a7 28 70 bd
       -0.021023847 -0.039776396 0.029641543 -0.05863252
000290 95 63 30 bd a3 2e 5b bd e9 f2 32 bd e9 9d a0 bd
       -0.04306372 -0.053511273 -0.04368869 -0.07842619
0002a0 76 48 97 bc bc 4c 9c bc 4e 5b 1d bd 34 67 5c bd
       -0.01846717 -0.019079559 -0.038417153 -0.05380936
0002b0 70 ad ff bb b0 53 09 bc 84 3d a2 3b c0 d8 16 3d
       -0.007802658 -0.008381769 0.004951181 0.036827803
0002c0 16 97 12 bd ad a7 ad bc 9b a1 47 3b b6 e6 5e 3d
       -0.035788618 -0.021198118 0.0030461315 0.05441924
0002d0 bc c8 12 bd 42 8d 49 3c 9d 11 a3 3c ee 6d 05 bb
       -0.035835966 0.012301745 0.01990586 -0.0020359713
0002e0 ff bb 88 3c 12 fa b7 bc 94 2a 31 3c c6 a2 ad 3b
       0.016691206 -0.02245811 0.010813374 0.005298945
0002f0 4c 5c 72 3d 1a 99 6f 3d 57 67 f6 3c 08 d2 e5 3c
       0.059170052 0.05849562 0.030078573 0.028054252
000300 79 c2 6a bd fd 4c 8a bc a3 b0 3d bd 90 74 b1 3c
       -0.05731437 -0.016882414 -0.046311032 0.021662027
000310 64 3a f1 bc 80 76 31 bd ff 1f 39 3c 6e 90 9f bd
       -0.029446788 -0.0433259 0.011299132 -0.0779122
000320 4e e3 8d bc b7 8f 9b bd 68 0e b1 bc 56 93 86 39
       -0.017320301 -0.07595771 -0.021613315 0.00025668246
000330 a0 fb ba 3c f0 6b 06 3c 68 bf 3b 3d c0 06 5e bd
       0.022825062 0.008204445 0.045836836 -0.054205656
000340 70 1e 2e bb 2e 7b 39 bd ad 8e 87 bd fb 18 9b bd
       -0.0026568435 -0.04528349 -0.0661901 -0.07573124
000350 fc de 46 bd 9d a1 78 bd 68 57 0f 3d e2 98 83 bd
       -0.0485525 -0.060701 0.034995466 -0.064256445
000360 f1 c4 9d bb 05 40 42 bd 4f 91 bf bc 6a 0f 97 bd
       -0.004814737 -0.047424335 -0.023384718 -0.07375987
000370 95 bd 1c bd ed ee e0 3b 20 5b 85 bd 94 98 be 3b
       -0.038266737 0.0068644197 -0.06511521 0.0058165286
000380 c6 95 85 bc bd 02 6b 3d 05 d9 96 bd a4 d6 80 bd
       -0.01630677 0.05737566 -0.07365612 -0.062909395
000390 6d 9a 44 bd 58 6b 59 bd c7 a3 24 bc fb f5 2c bb
       -0.047998834 -0.053080887 -0.010048813 -0.0026391733
0003a0 bc 4c 94 bd 54 e6 e1 bc 75 f9 39 bd e6 e1 7f bd
       -0.072411984 -0.02757565 -0.045403916 -0.062471293
0003b0 30 da ed 3b bc bf 18 3d d3 e0 05 bd 80 d6 73 3c
       0.007258676 0.037292227 -0.032685112 0.014882684
0003c0 92 5a 22 bd 12 a0 55 bc 61 b9 08 3c 04 5e e6 bc
       -0.039637156 -0.013038652 0.008344979 -0.028121002
0003d0 48 a4 07 bc ee 55 b4 bd 10 8b 27 3d d1 95 3f bd
       -0.008278914 -0.08805452 0.040904105 -0.046773735
0003e0 70 24 72 3c 90 72 60 bd ad 97 03 bd df a9 96 bd
       0.014779195 -0.054796755 -0.03212707 -0.07356619
0003f0 82 df 94 bd c0 59 75 bd 2c 9d 47 bd cc 17 ff bc
       -0.07269193 -0.059900045 -0.048733875 -0.031139277

shared.2.bias f4 [128]
000000 0b f7 13 be fb 1c 17 3e a9 10 2a bd 62 d9 f1 3b
       -0.14449708 0.14757149 -0.041519795 0.0073806504
000010 de 1d 84 bd 39 b1 aa 3d d0 d6 c0 bd 5d f1 a9 bc
       -0.06451009 0.08334584 -0.09415972 -0.020744974
000020 47 11 99 3d 63 dd 89 bd 16 80 58 bd 60 fb d3 bd
       0.074739985 -0.06731679 -0.052856527 -0.1035068
000030 a5 1b de 3c 32 95 8a 3d 58 39 58 bd 11 6c 29 3d
       0.027112791 0.06766738 -0.052789062 0.041362826
000040 97 5d bb bd 94 8f 10 bd 2a e0 89 bd d5 d2 1b 3d
       -0.0914871 -0.035293177 -0.06732209 0.038042862
000050 5b 77 cb bd 31 19 17 be e5 cb 58 bc 42 c7 1e be
       -0.099348746 -0.14755704 -0.013232206 -0.15505698
000060 00 c8 a6 bd cb 53 64 bd 22 8e 5c bb 9a b2 df bb
       -0.08143616 -0.055743974 -0.0033654054 -0.006826711
000070 a6 ac aa bc cd c3 30 3c d1 92 f6 3d 08 11 99 b9
       -0.020834278 0.01078887 0.12039722 -0.00029195123
000080 5f 46 13 bd 55 8e f0 bd be 73 80 bd 1d 9e 89 ba
       -0.035955783 -0.11745898 -0.06272076 -0.0010499392
000090 81 06 f1 bd b9 1a 29 bd e3 4c be bd a0 d5 30 bc
       -0.11768819 -0.04128525 -0.09292009 -0.01079312
0000a0 1e e4 87 bb 26 14 4f bd 2c 50 44 bd 77 00 a2 bd
       -0.0041470667 -0.050556324 -0.04792802 -0.07910245
0000b0 c9 87 9e 3b 6a 6d 7a bb a4 57 38 bd fe 5f 09 3e
       0.004837964 -0.0038212189 -0.045005456 0.13415524
0000c0 75 a1 a2 bc 6e 71 d2 bc d0 20 c3 3d ed 22 55 bd
       -0.01985238 -0.025688853 0.09527743 -0.05203526
0000d0 99 b3 25 bd 9c 5c 4c be 03 e9 86 bc 66 1a 59 bd
       -0.04045448 -0.19957203 -0.01646853 -0.05300369
0000e0 74 95 9b 3b ee 07 b3 3c 86 5e d1 bd e3 03 bb bd
       0.004748041 0.021854367 -0.10223107 -0.09131601
0000f0 01 da b9 bd f4 56 b4 3c 95 5c c1 bd 6c ca f0 bd
       -0.09074784 0.022014119 -0.09441487 -0.11757359
000100 f9 73 85 bd 8f 2b c0 bd bd fd ab bd 5e 8c 38 bd
       -0.06516261 -0.09383308 -0.08398006 -0.04505574
000110 15 a3 86 3d 84 d8 a5 bc 98 23 1d 3c ec 95 1b be
       0.06574074 -0.020244844 0.009591006 -0.1519391
000120 b9 3b 3f 3d d8 76 c6 38 49 51 37 bd fa 7e 58 bd
       0.046687815 9.463512e-05 -0.044755254 -0.05285547
000130 23 ae b9 bd 4c f8 45 bb 5a 40 2b 3d f2 8b bd 3c
       -0.09066417 -0.003020781 0.041809417 0.02313802
000140 66 60 57 bd 02 fe 0d be 6b a7 64 3d f7 bd 7e bd
       -0.052582167 -0.13866428 0.055823725 -0.062192883
000150 a3 76 68 bd 4d 6c 01 3d e0 3f ba bd 7c 73 bc 3c
       -0.056753766 0.031597424 -0.090942144 0.023004286
000160 cc 7e 7e bd e2 61 00 bd b9 3f 80 3b a3 3d 8c bd
       -0.06213264 -0.03134335 0.0039138463 -0.06847694
000170 fd f4 ac bd 6d 95 9c bd da 49 05 3d be 7a 88 bd
       -0.08445165 -0.07645688 0.032541133 -0.06664036
000180 24 50 53 be ab ab dc bd 70 01 8a bd 77 58 e3 bd
       -0.2063604 -0.107749306 -0.067385554 -0.11100858
000190 72 a4 b1 bd 0c c2 ce bd 86 7f a4 bd 89 5b a4 bc
       -0.086739436 -0.10095605 -0.08032136 -0.020063179
0001a0 22 6e 6d bd 06 80 de bd cf 58 27 bc 3d 4b c4 bd
       -0.05796636 -0.10864262 -0.010214045 -0.09584663
0001b0 11 f1 c8 bc d3 4f 29 bd c4 2c da bd 2a 7e 4e bd
       -0.024529012 -0.041335892 -0.106530696 -0.05041329
0001c0 e0 be 93 bd 52 64 fd bc 81 b3 ae bd 05 cb 88 bd
       -0.07214141 -0.030931626 -0.085303314 -0.06679348
0001d0 08 37 2b 3c a2 34 92 bd 85 10 75 bd 01 27 16 bc
       0.010450132 -0.07138945 -0.059830207 -0.009164573
0001e0 02 49 a2 bd 15 b1 d0 bd 2c bf 93 bd b9 78 3b bd
       -0.079240814 -0.10190026 -0.072141975 -0.045769427
0001f0 3e 65 71 bd e8 3c 34 bd dd d6 11 3d c8 a5 87 bb
       -0.058934443 -0.044003397 0.0356053 -0.0041396357

dice_policy.weight f4 [5, 128]
000000 cb 07 30 3d fd 74 59 3e 62 2d cd 3d 6c ea a7 bd
       0.042976182 0.21236034 0.10018422 -0.08199009
000010 82 4a 86 3d b6 0c 42 bd 1e 91 77 bd 8a 35 36 bd
       0.0655718 -0.047375403 -0.06044113 -0.044484653
000020 53 03 1c 3c 08 6f bd bd f6 82 b0 bb 08 39 c1 bd
       0.009522277 -0.09249693 -0.0053867055 -0.09434706
000030 26 3e 2b bd 52 5a 19 bf 43 6b 42 3d 7b 97 ac 3c
       -0.041807316 -0.5990344 0.047465574 0.021068325
000040 b4 48 ff bd 5b de b9 bd 0e ea fd bc 80 eb 7e 3c
       -0.12465039 -0.09075614 -0.030995395 0.015559077
000050 08 31 fc 3d 64 75 1c be c5 19 b7 bd 4d 61 00 be
       0.123140395 -0.15279156 -0.08940462 -0.12537117
000060 2e 7d 8c bc 97 bb ff bd 55 05 02 bd 64 fb 65 bc
       -0.017149534 -0.12486952 -0.031743366 -0.014036987
000070 df 48 6a bc fb c2 57 3d f8 b6 41 bc 45 25 61 3c
       -0.0142996 0.052676182 -0.011823408 0.013741796
000080 c1 f1 90 bc 92 84 76 bd d1 68 83 3d e3 eb b0 3d
       -0.017693402 -0.060185023 0.064164765 0.08638742
000090 82 58 be 3b 01 bd 5c 39 6d 13 79 3d f8 5b 03 3d
       0.005808891 0.00021051244 0.06080954 0.03207013
0000a0 2b e1 a2 bd 8e df b1 bd 7b bd e2 bc a9 2a 2d 3d
       -0.07953104 -0.08685218 -0.027678242 0.042277012
0000b0 bb 78 df bc 8c c5 fa bc 1d fa db bc f6 c4 13 3d
       -0.027279248 -0.030611776 -0.026852662 0.03607651
0000c0 0a 00 84 bd b0 5f a2 bd 7a ae 08 bd 44 7f 8e bc
       -0.0644532 -0.07928407 -0.03336952 -0.01739467
0000d0 cd 9a ad 3c aa a2 bf 3d 63 f4 b7 bc 4d d5 0d bd
       0.021191979 0.093571976 -0.0224554 -0.034627248
0000e0 21 ad f8 bd fa 7f 12 be 06 21 44 bd dd 1d b6 bd
       -0.12142397 -0.14306632 -0.047883056 -0.08892415
0000f0 1f 24 5d 3d 14 3e 56 bd 1b 6e 97 3b 71 6d 09 3d
       0.053989526 -0.052305296 0.00462128 0.033551637
000100 f6 b5 50 bd 0a 00 da 3b 7d 72 d5 3d d9 6b 9a 3c
       -0.05095478 0.0066528367 0.104222275 0.018850254
000110 04 cb ab bd 98 40 c2 bd 83 eb c5 3d b8 f7 b3 bd
       -0.083883315 -0.094849765 0.09664061 -0.08787483
000120 4a c9 ca 3b 49 3f 2c bc ef 5b d5 3d 95 b0 13 bd
       0.0061885463 -0.010513135 0.104179256 -0.036057074
000130 c1 0b 6e bd c8 f5 e1 bc da b6 3b bd c7 91 4e bd
       -0.05811668 -0.027583018 -0.045828678 -0.050431993
000140 34 e6 30 3d 1f 17 39 be f7 d7 55 bd b5 12 02 bd
       0.04318829 -0.18075226 -0.052207913 -0.03175612
000150 60 f6 c1 bd 74 8b a9 bd a7 30 8f bc 4a c6 bd bd
       -0.094708204 -0.08278552 -0.017479254 -0.09266336
000160 18 32 cb 3c 2c 05 6c 3b 57 34 f2 bd 92 f4 b7 bd
       0.02480416 0.0036013825 -0.11826389 -0.08982195
000170 ee 91 74 3c 4b a9 ea 3d 9e db 99 3e b4 fc da bd
       0.0149273705 0.11458071 0.30050367 -0.106927305
000180 e3 d9 38 3d 97 70 94 bd 76 83 d6 3d 91 8e 92 bd
       0.045129668 -0.07248037 0.10474293 -0.07156099
000190 06 34 b4 bd fc 13 90 bd 73 26 b5 bc db e8 8d bd
       -0.08798985 -0.07035062 -0.02211306 -0.06929179
0001a0 f6 ec 1c 3d 81 b0 c8 bd fc a8 08 bc cd 37 89 bc
       0.03831192 -0.097992904 -0.00834107 -0.01675024
0001b0 77 0e df 3b c0 72 09 3d 95 56 dd bd 6b c7 e9 3c
       0.0068071443 0.0335567 -0.1080753 0.028537473
0001c0 cb 86 37 bd aa 8c a3 bd b0 b9 ed 3c e3 9c ce bd
       -0.044806283 -0.07985814 0.029019207 -0.100885175
0001d0 3c d7 97 bb e8 b6 1e bd 70 0a c2 bd ad 76 49 bd
       -0.0046338122 -0.03874865 -0.09474647 -0.049185444
0001e0 b3 92 1c bd fe 33 74 bd 34 cf b0 bd 1f 09 8e 3c
       -0.03822584 -0.059619896 -0.08633271 0.017338334
0001f0 06 fc 76 bd 3d db ba bc 30 37 f5 bd 54 d7 03 bc
       -0.060298942 -0.02280962 -0.11973417 -0.008046944
000200 6e 73 c4 bd 5a 3f 62 be 97 3e 86 bd a0 49 ca 3b
       -0.09592329 -0.22094479 -0.06554907 0.0061733276
000210 29 95 4b 3c 19 cf d6 bd 96 7f 8e bc 51 fa 49 bd
       0.012425699 -0.104887195 -0.017394822 -0.049310986
000220 46 40 99 3b 4f a2 74 be b2 31 45 bd 09 97 9c 3d
       0.0046768514 -0.23890041 -0.048143096 0.07645995
000230 12 82 2f 3c ba a2 40 3c ed ea 53 bb 5e 91 91 bd
       0.0107121635 0.011757547 -0.0032336072 -0.07107805
000240 71 f8 ad bd 0b e5 b0 bd 2c 59 22 3d 75 9b 63 bb
       -0.08494652 -0.086374365 0.039635822 -0.003473011
000250 09 74 2b 3e 65 10 1b be 7c 63 e2 3a 30 46 3c bc
       0.16743483 -0.15142973 0.001727208 -0.011491343
000260 1f 92 08 3d 65 1c 8c bd 68 95 8b 3d 73 16 cb bd
       0.033342477 -0.06841353 0.06815606 -0.09916391
000270 30 27 05 bd 20 5e 12 3d 1e d5 0d 3d 10 f9 83 bd
       -0.032508075 0.035734296 0.034627073 -0.06443989
000280 16 ac 09 3c 00 79 b7 3d 2e b9 b0 3d ad 9d e7 3d
       0.008402845 0.08958626 0.0862907 0.11309371
000290 39 bc 33 3d d7 3a 9d bd 34 d9 1a 3d e0 3e c5 3d
       0.043880675 -0.076772384 0.037804797 0.09631133
0002a0 ae e0 00 bb db 4e d2 bd 9c 15 24 3d a8 de f6 3c
       -0.001966517 -0.10268947 0.04005967 0.030135468
0002b0 a1 3f 2e 3b ea fe 1b 3c 48 dc 3a 3d fc a8 f8 bc
       0.0026588219 0.0095212255 0.045620233 -0.030354016
0002c0 4d 7a 52 3d 02 b0 ba 3d cb 16 59 bc a1 d7 1d bc
       0.051386166 0.09115602 -0.013250063 -0.0096339295
0002d0 20 b1 82 39 bc 63 19 3d 37 99 7b bd b8 ca 54 bd
       0.000249275 0.03744863 -0.061425414 -0.05195114
0002e0 b3 38 cd bd 37 5d 5a 3d 94 84 06 3e 03 38 a7 bd
       -0.1002058 0.053311553 0.13136512 -0.0816498
0002f0 21 a6 10 bc 6e 3c 4f bd a8 88 c2 3c ca 99 dc 3b
       -0.008828671 -0.05059474 0.023746803 0.0067322003
000300 f7 a4 34 3e f7 b1 de 3b d8 8f 12 be 79 3c 53 3c
       0.17641054 0.0067961174 -0.14312685 0.012892836
000310 73 e4 98 bc ae 8d ab bd 5b e4 16 be 5c 65 cd bd
       -0.01866362 -0.08376633 -0.14735548 -0.100290984
000320 48 5a 29 bd 95 39 2f 3d 7b 08 f4 3d 8d 21 a4 bc
       -0.041345865 0.042779524 0.1191568 -0.02003553
000330 dc 17 a9 bd 38 6c ed bc a9 3a 1a bd 3e 0c a7 bd
       -0.08256504 -0.028982267 -0.0376536 -0.08156632
000340 d8 4b ad 3d 87 94 ca bd 71 74 ee bc aa 9a df bc
       0.08461732 -0.098916106 -0.029108258 -0.02729543
000350 58 28 76 3e 9c e2 ac 3d 83 a0 61 bb 2f 9f 9e ba
       0.24038827 0.0844166 -0.0034427948 -0.0012101884
000360 f7 65 80 3b 7e d3 57 bd 7b b3 d3 bb 4e d6 3c be
       0.003918405 -0.05269193 -0.0064606047 -0.18441126
000370 7e 0a 62 bc 9c a5 d1 3d 17 3c 13 3e 63 75 07 be
       -0.013796447 0.102366656 0.14378391 -0.13228373
000380 1e 88 8e bc cf 8b 6d 3d 36 95 ad 3d 69 d6 a1 bd
       -0.01739889 0.05799466 0.08475725 -0.079022236
000390 a3 97 cf 3d b7 c0 bb bd 35 d2 5a 3d 8d f6 76 3d
       0.10136344 -0.09167617 0.053423125 0.060293723
0003a0 2d af 5c 3d 4e 98 35 bd cd fd a8 bd d5 dd 91 bb
       0.053878 -0.044334702 -0.08251534 -0.0044514933
0003b0 97 64 47 bd 3c 37 ad 3e 77 d4 84 bd 11 5b 28 3d
       -0.048679914 0.33831203 -0.06485837 0.041102473
0003c0 ba c7 57 3d b2 0e 98 bd 73 6c 90 3d 25 48 5d bd
       0.05268071 -0.07424678 0.07051935 -0.05402388
0003d0 be 67 d8 3d 01 89 23 bd 06 a7 11 3d a9 c3 8f bd
       0.10566662 -0.03992558 0.035559677 -0.07019741
0003e0 6e ff 42 bd de 57 ee bd 00 79 c2 bd d2 f1 06 3e
       -0.047606878 -0.11637853 -0.09495735 0.13178185
0003f0 64 74 03 3d 8f 8f 7a bd 2d ac 65 be 8d 45 47 be
       0.03209342 -0.061172064 -0.22428961 -0.19460125

dice_policy.bias f4 [5]
000000 0b b8 ed bd ae 21 1b be 14 a1 8f ba dc 90 ac 3d
       -0.11607369 -0.15149567 -0.0010958039 0.08426067
000010 a3 cd 86 3d
       0.06582191

category_policy.weight f4 [13, 128]
000000 a0 c8 2e bd 14 46 f3 be b7 06 36 3c c5 f9 a6 bd
       -0.0426718 -0.47514403 0.011109999 -0.081531085
000010 21 81 0a bd 8e 64 96 be 7c 64 8b bd 75 a3 a0 bd
       -0.033814553 -0.29373592 -0.06806275 -0.07843677
000020 a2 87 b9 3c c1 24 3b be d6 34 50 bd f5 0e 05 be
       0.022647683 -0.18275739 -0.05083164 -0.12993987
000030 73 bb 95 bd e3 fc 1b bf 6e c4 8c ba ad cd 5a bc
       -0.07311144 -0.6093275 -0.0010739693 -0.013354701
000040 6b aa 33 be 00 54 c1 bc ab 0b 33 be 2c 32 9e ba
       -0.17545478 -0.023599625 -0.1748492 -0.0012069396
000050 1a 06 fe bd e8 a4 19 be 2c 57 d5 ba bb 1f 87 bd
       -0.124035075 -0.15004313 -0.001627659 -0.06597849
000060 42 31 34 be a4 e8 a3 3c 4f a8 14 bb 44 53 c5 bd
       -0.17596915 0.020008393 -0.0022683328 -0.09635022
000070 b9 1c b7 bc 41 9a f9 3c 54 93 61 bc 5d b2 18 bd
       -0.022352563 0.030469062 -0.013768036 -0.037279475
000080 a6 3a f4 bd 0d de cb bc bf f0 97 bd 59 89 64 be
       -0.11925249 -0.024886156 -0.074189655 -0.22318019
000090 6e 34 36 3d 3e 30 82 bd ee 79 31 bd d7 f1 80 3d
       0.044483595 -0.06356858 -0.04332917 0.06296127
0000a0 3d 61 89 bd 0a a1 60 bc 97 bf b9 3c d9 a9 b5 bc
       -0.06708 -0.01371027 0.022674365 -0.022175716
0000b0 0c 77 85 bd 90 42 e4 bc 95 46 a6 3c 7c 9d 03 bf
       -0.06516847 -0.02786377 0.020297328 -0.5141218
0000c0 a1 06 4a bd bb 3b ac bd 87 5b ae be 2d 37 05 be
       -0.049322728 -0.0840983 -0.34054205 -0.13009329
0000d0 b0 7a 50 bc 4d b5 3f bd 39 d0 12 3c e8 a8 81 3d
       -0.0127245635 -0.04680376 0.008960777 0.063310444
0000e0 06 0e fe be 52 90 9d bd a3 8e 2d be b9 ae f7 bc
       -0.49620074 -0.076935425 -0.16948943 -0.030234681
0000f0 eb 06 ce ba 8c 1c 8e bd 33 d7 15 3d de 55 e6 bd
       -0.0015718614 -0.06939039 0.036582183 -0.112468466
000100 b6 88 80 be bd 47 1f 3d c9 1b 6d bd 3e 7a c2 be
       -0.25104302 0.038886774 -0.057887826 -0.37983888
000110 f6 2a 91 3c b5 11 47 bc ba e8 a4 bd 5d ff 2f bc
       0.01772068 -0.012150218 -0.080522016 -0.010742036
000120 12 cb 9c 3c d2 b4 90 ba 3a da ca bd c6 14 70 3d
       0.0191398 -0.0011040217 -0.09904905 0.05861356
000130 fe 1a 04 bd 50 22 2e 3c f1 16 06 bd 17 b9 31 bc
       -0.032252304 0.010628298 -0.032736722 -0.0108473515
000140 21 99 b4 3d 39 2b c9 bd 25 ea 16 bd ab 17 f9 bb
       0.088182695 -0.09822697 -0.03684439 -0.0076016984
000150 13 d6 d0 bd 7c 0b b5 bd 91 45 31 3c 36 11 45 bd
       -0.101970814 -0.08840081 0.010819809 -0.048112117
000160 83 64 2e 3c 6f 7a 17 3c d1 f9 5f bd cd c8 0a be
       0.010644081 0.009245499 -0.054681603 -0.13553162
000170 e7 56 1f be 90 69 24 3d 3c 2d 4c 3c f5 07 1f bd
       -0.15560494 0.040139735 0.012461957 -0.038825948
000180 8e c6 0f be 09 f9 ee 3c b2 7a 22 be 9c 82 08 bd
       -0.14040586 0.029171484 -0.15867117 -0.033327684
000190 a2 fd 84 bd b0 e1 31 be 9b ea a4 3c 89 a2 19 3d
       -0.06493689 -0.17371249 0.0201314 0.03750852
0001a0 9b 93 e3 bd 71 2d 80 bc 8c d1 da 3c b4 ce 33 bd
       -0.11112138 -0.015646668 0.026711248 -0.0438983
0001b0 89 f6 98 bc 1f 4c 3b be 23 09 8f bd a4 aa b8 bc
       -0.018672245 -0.18290757 -0.069841646 -0.022542305
0001c0 76 54 e6 bc 16 4b 5b bd 75 f9 7f 3d 53 48 89 3b
       -0.028116446 -0.053538404 0.06249376 0.00418953
0001d0 23 c4 5d 3a ff 9a c8 3b 93 df 3a 3d ae 08 87 3c
       0.00084597076 0.0061219926 0.045623373 0.016483631
0001e0 7d c0 66 bd f9 fc 4d be 7b 21 50 3d 98 1b 49 bc
       -0.056335915 -0.20116033 0.05081318 -0.012274645
0001f0 26 de db bd 04 94 35 3b cf 53 04 be da be bc be
       -0.10735731 0.0027706632 -0.12922595 -0.36864358
000200 49 3c e2 3b c4 c1 f2 be e1 2d ef bc d2 48 fd bd
       0.006904159 -0.47413456 -0.029196681 -0.12367405
000210 68 63 b7 bd fc 27 4e be 1d 64 40 bd 5e cc 23 bd
       -0.08954507 -0.2013244 -0.046970475 -0.03998982
000220 41 03 66 ba 57 bd 97 be 11 28 57 bd 6e 6d 1a be
       -0.00087742886 -0.29636642 -0.052528445 -0.15080807
000230 8f 01 a6 bd c3 55 c3 be 3f 01 98 bd 54 57 80 3d
       -0.08105766 -0.38151368 -0.07422113 0.062666565
000240 98 20 dc bd aa cf 95 bd a7 1a b9 bd bf 28 5a 3c
       -0.10748404 -0.073149994 -0.09038287 0.013315379
000250 58 ac 8a be 98 31 a8 bd 30 d0 1d 3d f9 c5 8e bd
       -0.27084613 -0.08212584 0.03852862 -0.06971354
000260 4d ad 26 be e5 eb a6 bd 11 a7 c0 bc 97 ae 11 bd
       -0.16277047 -0.08150462 -0.023517163 -0.035566892
000270 e8 49 1b bd 88 bb 12 be 12 df a1 3d e6 28 fd 3c
       -0.03791228 -0.1432935 0.079038754 0.030903291
000280 38 0b db bc 90 0c ad bd 0f 1f a4 bd 61 1b bb bd
       -0.026738748 -0.08449662 -0.080137365 -0.091360815
000290 44 08 c3 3c 1b c9 28 bd 7b 92 d9 bc dd e9 34 bd
       0.023807652 -0.041207414 -0.026559105 -0.044168342
0002a0 9b ba bd bc 17 74 1f 3c fa bc 21 3d f1 81 cf bb
       -0.02316027 0.009732268 0.039486863 -0.006332629
0002b0 76 86 dc bc 06 d7 2d bd 02 4b dc bd e9 87 a8 be
       -0.026919585 -0.04244139 -0.10756494 -0.3291619
0002c0 64 0e bd bd af da c3 3c 5e ea 0f bf 1d fa 08 be
       -0.092312604 0.023907987 -0.5621699 -0.1337666
0002d0 3d b3 ea 3b 29 92 a8 bd eb 3d 50 3d b8 cf 34 bd
       0.00716248 -0.08231003 0.0508403 -0.04414341
0002e0 d3 08 d9 be 8e b5 3c be 19 f7 00 be 95 06 ca bd
       -0.42389545 -0.18428633 -0.1259426 -0.09864537
0002f0 3b 72 3e 3d 80 14 73 3d 73 c2 a3 bc c5 eb 80 bd
       0.046495657 0.059345722 -0.019990182 -0.062949695
000300 09 d1 00 be 7c 2b 8c ba 55 6c b9 bd 0a 9d 5a be
       -0.1257974 -0.0010694112 -0.09053866 -0.21348968
000310 ed 0d 2f bd ee 47 b8 bc 8a 74 28 be 49 4f 64 bd
       -0.04273789 -0.022495236 -0.16450706 -0.055739675
000320 bf f0 1e bb 53 34 c8 bc 7c 9f ff bd 9d 4c ff 3b
       -0.0024252383 -0.024439013 -0.12481591 0.0077911154
000330 cc b8 f0 3c 70 53 da 3b f6 6d 23 3c 11 08 bb ba
       0.029384993 0.0066627786 0.009974947 -0.0014269372
000340 14 c9 20 be bc 8e 09 be 38 3a 18 bd ec 61 79 bc
       -0.15701705 -0.13433355 -0.037164897 -0.0152211
000350 df 69 4c be 9d 5c 2b bc 04 0e d1 bd 51 a4 ac 3c
       -0.19962262 -0.010459092 -0.102077514 0.021074446
000360 52 1d 82 bd 06 48 5e bd 02 00 d6 bc 80 1e f2 be
       -0.06353249 -0.054267906 -0.02612305 -0.47288895
000370 08 b7 9f be 91 bf 3d 3c a7 61 1a bd ef c9 e8 bc
       -0.3119433 0.0115813175 -0.037690785 -0.028416602
000380 c4 14 12 be 14 e4 60 bc ff 41 f6 bd 4a 53 1b be
       -0.14265734 -0.013726253 -0.120243065 -0.15168491
000390 10 b1 5c bd 15 85 fb bd 22 24 62 bd de 71 96 3d
       -0.053879797 -0.12281243 -0.05521024 0.07345937
0003a0 15 e7 ae 3c 8b 1f 4d bd 99 8d e6 bc 58 79 ef bd
       0.021350423 -0.05007891 -0.02814369 -0.11693066
0003b0 8e 7f 13 3d c3 d0 12 be 6e db 74 bd 16 9e de bb
       0.036010318 -0.14337449 -0.059779577 -0.0067937477
0003c0 87 18 f5 bc 0d 46 03 3d 36 60 e3 bc c2 2a f3 bd
       -0.029918922 0.032049228 -0.027755838 -0.1187339
0003d0 1d 31 fd b9 59 3b 16 bd 63 d7 9b bd 25 36 3b bd
       -0.00048292513 -0.036677692 -0.07609441 -0.045705933
0003e0 5d 61 3c 3d 69 33 17 be 1b 54 39 bd 20 3a 17 be
       0.04599129 -0.14765705 -0.045246225 -0.14768267
0003f0 6a 32 0e be 2c dd 3f 3c 47 d4 42 be 0a 19 f4 be
       -0.13886419 0.011710446 -0.1902629 -0.47675353

category_policy.bias f4 [13]
000000 18 80 21 3c c2 82 b4 bc a3 d0 45 3d 06 b0 97 3d
       0.0098572 -0.022035006 0.048294675 0.07406621
000010 9f dd 18 bd 83 12 33 bd 01 86 0a 3d f9 87 f0 bd
       -0.03732073 -0.043718826 0.033819202 -0.11744685
000020 fc c0 0c be d4 00 21 3e da 3a 6e bd b1 2f 28 be
       -0.13745493 0.15722972 -0.058161594 -0.16424443
000030 64 ea 01 3e
       0.12687069

value.weight f4 [1, 128]
000000 69 eb e1 bb b6 c3 5b 3d 83 3a 83 bd e0 66 04 bd
       -0.006894518 0.05365344 -0.064076446 -0.03232467
000010 9e f2 4e bd 46 a4 1b bd 9c 6c a9 bd 22 ef 35 bd
       -0.050524347 -0.03799846 -0.08272669 -0.044417508
000020 05 d1 9f 3c 20 45 0e 3b 58 fa 7b bb 06 70 7a 3d
       0.019508848 0.0021708682 -0.0038448777 0.06114199
000030 84 74 46 3c 23 ae ab bd 03 c2 74 3d ec f8 46 3d
       0.01211274 -0.08382823 0.059755336 0.048577234
000040 27 66 98 bd 8e 09 33 3d 78 ee 91 3d 58 c2 c6 3b
       -0.07441359 0.043710284 0.071255624 0.006065648
000050 87 da 20 bd 5d 56 bc bc 60 03 b0 3d 3d f7 d8 3b
       -0.039270904 -0.0229904 0.08594394 0.00662127
000060 85 d5 98 bc 59 43 a4 3d 90 8b 83 bc f8 54 1f bc
       -0.018656502 0.08020658 -0.01605776 -0.009724848
000070 9e bb 8f bd d7 05 71 3d 7f db 34 bc 06 ce 69 bd
       -0.07018207 0.05884346 -0.01103866 -0.057081245
000080 40 b8 25 bd 55 06 84 bc a5 1a 84 bd 1f 25 18 bd
       -0.040458918 -0.0161163 -0.064503945 -0.037144776
000090 3a 62 3c 3c 2d 49 3b 3d 3a d0 0a 3d 6f 72 85 bd
       0.011498028 0.045724083 0.033889987 -0.06515967
0000a0 59 39 b2 bd ac 6c a0 bc 07 25 8c 3d 8a 38 19 bd
       -0.087023444 -0.019583069 0.06843 -0.037407435
0000b0 fb 93 66 3d 81 29 12 3d 3d d6 38 3d 58 69 38 bd
       0.05629347 0.035684112 0.04512619 -0.04502234
0000c0 47 f8 cf 3c f3 53 b1 3d ee ad ef 3c 66 6a 48 bd
       0.025386943 0.0865859 0.02925774 -0.048929594
0000d0 ee 65 73 bd 9f 99 63 3d 63 a3 48 3d 3c f9 fc bc
       -0.05942338 0.055566426 0.048983943 -0.030880563
0000e0 62 4e 7e 3d 73 03 5a 3d 6b 17 49 3d 14 3e 27 bb
       0.06208647 0.053225946 0.0490946 -0.002551918
0000f0 0f af 23 3d c3 a2 01 bd 0f 92 4d bd d9 72 81 3c
       0.03996187 -0.031649362 -0.05018812 0.015801834
000100 ac cb b1 bd cd 09 24 bd 5a f2 9a 3d 24 79 45 bd
       -0.086814255 -0.04004841 0.07565756 -0.04821123
000110 4d ed 24 bc b5 5d b0 bd 11 7e a8 bc 06 3f 99 3d
       -0.010066343 -0.08611623 -0.020567926 0.07482724
000120 64 fa 09 bd ae 3d a3 3c 65 bc 8c 3c 30 23 ae bd
       -0.033686057 0.019926872 0.017179677 -0.08502805
000130 0f 60 58 bd f5 e3 5a 3c 9c be 9c 3d 95 5f a2 bc
       -0.052825984 0.013360013 0.07653543 -0.019820968
000140 56 0a b2 3b 10 46 b2 3d 77 64 11 bd 76 17 25 3d
       0.005433361 0.087047696 -0.0354962 0.040305577
000150 8f 9f 95 3d 6a 3d 77 3d 44 5a a5 bd f0 96 b6 3b
       0.07305824 0.060361303 -0.080738574 0.0055721924
000160 d4 b4 57 bd 42 eb 39 bd 95 f6 b3 bd 82 79 14 3c
       -0.052662686 -0.045390375 -0.08787266 0.009062173
000170 1a 8e be bc 93 1d 57 3d 5a c6 b2 3d db aa a8 bc
       -0.023261119 0.05251844 0.08729239 -0.020589283
000180 47 90 8a 3b b9 c1 05 3d 6c 3a 6c 3d 93 b6 99 bd
       0.004228625 0.03265545 0.057672903 -0.075055264
000190 d5 b1 ba 3c cb 3f 2f bd e3 f6 94 bb 07 83 15 3c
       0.022789875 -0.042785447 -0.0045460328 0.009125478
0001a0 4c ca f0 3b 7d b7 1b bd 96 fa c9 bc 3f bb 9f 3d
       0.0073483344 -0.038016785 -0.024655621 0.07799386
0001b0 7e 2c 6e bc d6 6b c5 bb 4f b3 56 bd 2f 8a 24 bd
       -0.014536975 -0.006024818 -0.052417096 -0.040170845
0001c0 34 f9 80 bb f2 a5 23 bd 19 9b 9f 3d af f8 9f 3d
       -0.0039359573 -0.03995318 0.077932544 0.078111045
0001d0 9c 99 13 bd a7 85 31 3d 22 d7 42 bd cf 37 69 bc
       -0.036035165 0.04334035 -0.047568448 -0.014234497
0001e0 32 0d 17 bb 32 3d 6c 3d d7 9e ab 3d a3 6f 6b 3d
       -0.0023048637 0.057675548 0.08379906 0.057479512
0001f0 01 71 f4 bc 9e 4a a1 bb 8c 58 c1 3c 92 3a 91 bc
       -0.02983904 -0.004922225 0.023601793 -0.017728124

exp_avg f4 [256, 23]
000000 11 25 1d bb 87 76 c7 bb 7b 2e e8 bb ca f1 a4 bb
       -0.0023978392 -0.0060871276 -0.007085619 -0.0050337063
000010 9a ca 76 bb 00 00 00 00 4e 09 80 18 8e 0c 38 8a
       -0.003765738 0.0 3.309662e-24 -8.861639e-33
000020 59 62 f6 30 dc 87 08 31 9a 6d 8d 3c 0a 40 54 bc
       1.7926808e-09 1.9867832e-09 0.017264176 -0.012954721
000030 2f 03 17 b8 de 3f 54 bc d2 89 30 a1 04 00 00 00
       -3.600417e-05 -0.01295468 -5.9813523e-19 6e-45
000040 04 00 00 00 e5 df b0 bc 45 a6 1b bc 00 00 00 00
       6e-45 -0.021591136 -0.009500091 0.0
000050 71 66 e2 b9 00 00 00 00 00 00 00 00 cd 56 31 3c
       -0.00043182404 0.0 0.0 0.010823918
000060 c1 d3 2b 3c c9 0c 3b 3c 18 8d 2f 3c b3 17 37 3c
       0.010487498 0.011416622 0.010714792 0.011175084
000070 00 00 00 00 b9 43 3b 35 09 ad 0d ba c1 52 e2 ba
       0.0 6.976148e-07 -0.00054045074 -0.0017267094
000080 45 0b 84 ba d9 fe 41 bb 15 70 68 3d 0e 07 00 3a
       -0.0010074159 -0.0029601364 0.056747515 0.0004883864
000090 26 ca 94 35 37 48 f1 39 c9 bb 02 bc 55 d7 10 3a
       1.1085692e-06 0.00046020906 -0.007979342 0.0005525251
0000a0 37 8b 4d 3c b9 d0 20 3d 00 00 00 00 04 00 00 00
       0.012545398 0.039261553 0.0 6e-45
0000b0 00 00 00 00 00 00 00 00 41 10 04 bc e0 7a a1 3b
       0.0 0.0 -0.008060516 0.004927978
0000c0 9e 90 70 39 16 57 10 3c d9 4a 27 3c 00 00 00 00
       0.00022942058 0.008809825 0.010210716 0.0
0000d0 2e 86 ef 0a 25 7c 5d 0b 1d a3 21 bc bf 15 42 bd
       2.3065336e-32 4.2656448e-32 -0.009865549 -0.04738402
0000e0 0f 42 58 bc ff e0 66 3c a4 39 49 0d 0c fd ad bb
       -0.013199343 0.014091729 6.200729e-31 -0.0053097066
0000f0 8d e6 5d a2 2e 9b f2 bd 04 00 00 00 e0 7e 1c bd
       -3.0073138e-18 -0.118460044 6e-45 -0.038206935
000100 aa 4f 29 3c 00 00 00 00 76 96 39 b9 00 00 00 00
       0.010333935 0.0 -0.00017699026 0.0
000110 00 00 00 00 2a ea 24 3b 6e 82 a0 3a f1 37 04 3b
       0.0 0.0025163987 0.0012245902 0.0020174945
000120 10 dc 4a ba 3c 98 3d 3a 00 00 00 00 04 00 00 00
       -0.00077384803 0.00072324625 0.0 6e-45
000130 04 00 00 00 47 00 00 00 04 00 00 80 76 00 00 00
       6e-45 1e-43 -6e-45 1.65e-43
000140 f2 84 81 a4 c9 21 27 b8 d8 0e 8b 05 25 e9 1b a2
       -5.617005e-17 -3.9847368e-05 1.307695e-35 -2.1129843e-18
000150 14 ac 66 24 1b ba df af 04 00 00 00 8d 0e 5f af
       5.0019056e-17 -4.06957e-10 6e-45 -2.0286901e-10
000160 00 00 00 00 00 00 00 00 00 00 00 00 00 00 00 00
       0.0 0.0 0.0 0.0
000170 26 1b 84 bc b0 68 83 bc 0b 33 84 bc 24 1b 84 bc
       -0.016126227 -0.01604113 -0.01613762 -0.016126223
000180 1d 3e 84 bc 00 00 00 00 bb 4a 8a 8a 95 28 60 09
       -0.0161429 0.0 -1.3317027e-32 2.69821e-33
000190 62 d6 05 ba f9 02 01 0d 1d ff e5 32 e9 ee a3 bd
       -0.0005105493 3.975477e-31 2.677512e-08 -0.08004553
0001a0 db 0e 40 ba 16 c6 4d 31 4a 1b 4e 8b 04 00 00 00
       -0.00073264324 2.9944025e-09 -3.9694687e-32 6e-45
0001b0 00 00 00 00 3e 30 a4 0b 4b ac 73 bd 00 00 00 00
       0.0 6.324309e-32 -0.059490483 0.0
0001c0 95 28 e0 08 00 00 00 00 00 00 00 00 ef 9b 5d b8
       1.349105e-33 0.0 0.0 -5.283573e-05
0001d0 ef 9b dd b7 9d ac 38 b8 4b bd 13 b8 ef 9b dd b7
       -2.6417865e-05 -4.4029777e-05 -3.5223824e-05 -2.6417865e-05
0001e0 00 00 00 00 04 00 00 00 04 00 00 00 04 00 00 00
       0.0 6e-45 6e-45 6e-45
0001f0 04 00 00 00 04 00 00 80 04 00 00 00 38 9a e6 8e
       6e-45 -6e-45 6e-45 -5.6847885e-30
000200 04 00 00 00 b9 1e db a1 76 81 8a b9 00 00 00 00
       6e-45 -1.4848149e-18 -0.00026417867 0.0
000210 00 00 00 00 49 37 6f 1d 00 00 00 00 00 00 00 00
       0.0 3.1659968e-21 0.0 0.0
000220 00 00 00 00 00 00 00 00 89 dd 83 39 d6 33 c9 ba
       0.0 0.0 0.00025151324 -0.0015350531
000230 5b b9 67 ba 3f 82 24 b9 56 ec 04 ba 00 00 00 00
       -0.0008839571 -0.00015688779 -0.0005070617 0.0
000240 4e 14 ad 2d 99 96 d6 ba 34 c9 7a bb a5 12 07 bb
       1.967684e-11 -0.0016371786 -0.00382669 -0.0020610478
000250 66 01 97 bb 79 58 4c 2d 01 a0 7c 39 25 eb 19 34
       -0.004608321 1.1615702e-11 0.00024092199 1.433478e-07
000260 2d 9b 9a ab 93 0e 1d bc 83 10 16 ba b2 fa 85 34
       -1.0985428e-12 -0.009585994 -0.00057245063 2.4955585e-07
000270 e1 90 91 bb 00 00 00 00 04 00 00 80 00 00 00 00
       -0.0044423197 0.0 -6e-45 0.0
000280 00 00 00 00 80 0a 6b 1f 76 ed c7 1f 1d 99 97 1f
       0.0 4.977187e-20 8.4672624e-20 6.420429e-20
000290 3f 99 97 1f 5b fd 90 1f 00 00 00 00 da 5b 5b 8b
       6.420451e-20 6.1405514e-20 0.0 -4.2246967e-32
0002a0 01 3e e0 02 1c 1f 00 04 12 c1 db 1f 0d f4 7e 89
       3.294943e-37 1.5060612e-36 9.3069516e-20 -3.068889e-33
0002b0 4a 8c aa 20 6f d2 ff 20 04 00 00 00 17 df ec 20
       2.8891956e-19 4.3337934e-19 6e-45 4.0127584e-19
0002c0 04 00 00 00 04 00 00 00 00 00 00 00 30 ec d9 20
       6e-45 6e-45 0.0 3.6917526e-19
0002d0 00 00 00 00 00 00 00 00 00 00 00 00 00 00 00 00
       0.0 0.0 0.0 0.0
0002e0 76 1f d4 ae c1 0c 96 ae d1 79 b5 ae 93 8c f3 ae
       -9.6462324e-11 -6.823476e-11 -8.252566e-11 -1.10753316e-10
0002f0 d7 de 12 ae 00 00 00 00 04 00 00 80 e5 bd 2c 80
       -3.3394478e-11 0.0 -6e-45 -4.108883e-39
000300 b3 39 86 80 04 00 00 00 a5 3d e3 ae b3 39 86 80
       -1.2326655e-38 6e-45 -1.0333715e-10 -1.2326655e-38
000310 8d 06 0e af 04 00 00 00 04 00 00 80 04 00 00 00
       -1.2917152e-10 6e-45 -6e-45 6e-45
000320 04 d5 1b b0 04 00 00 00 32 85 e2 af 00 00 00 00
       -5.6691385e-10 6e-45 -4.1203801e-10 0.0
000330 04 00 00 00 00 00 00 00 00 00 00 00 f5 aa 1f 3b
       6e-45 0.0 0.0 0.0024363373
000340 42 94 20 3b ac bf 20 3b a3 a7 20 3b 5d ef 1f 3b
       0.002450243 0.0024528308 0.0024513982 0.0024404146
000350 00 00 00 00 fc 33 50 33 d3 c7 10 b6 6b 05 01 37
       0.0 4.8476053e-08 -2.1573985e-06 7.690261e-06
000360 1f bb 2a b5 f0 f5 aa 37 c5 ab 48 3c a4 3a c4 38
       -6.360223e-07 2.0380103e-05 0.012247984 9.356931e-05
000370 e8 ef 97 38 04 00 00 00 94 2f d0 38 00 00 00 00
       7.244927e-05 6e-45 9.927075e-05 0.0
000380 00 00 00 00 d4 67 13 3c 00 00 00 00 00 00 00 00
       0.0 0.0089969225 0.0 0.0
000390 00 00 00 00 00 00 00 00 5f 1c a5 bb db 59 04 bb
       0.0 0.0 -0.0050387825 -0.002019516
0003a0 68 69 46 bb 94 1f 08 bc 20 8c d6 bb 00 00 00 00
       -0.003027523 -0.00830831 -0.006547466 0.0
0003b0 04 00 00 80 04 00 00 80 04 00 00 80 04 00 00 00
       -6e-45 -6e-45 -6e-45 6e-45
0003c0 04 00 00 80 04 00 00 80 06 cd f2 b7 04 00 00 00
       -6e-45 -6e-45 -2.894412e-05 6e-45
0003d0 04 00 00 00 04 00 00 00 45 a9 e4 2c 04 00 00 00
       6e-45 6e-45 6.4989424e-12 6e-45
0003e0 16 fa 57 2c 00 00 00 00 04 00 00 80 00 00 00 00
       3.0692163e-12 0.0 -6e-45 0.0
0003f0 00 00 00 00 3f c5 81 39 5a 11 7c 39 c4 8c 90 39
       0.0 0.00024751757 0.00024039057 0.000275707
