checkpoints/yahtzee_pretrain_fast/checkpoint_ep99.pt (torch, 511165 bytes, 25 tensors)

shared.0.weight f4 [256, 23]
0.01214759 0.21096182 0.045379072 0.081052676 0.18084237 -0.16118288 0.058185723 -0.14012788
-0.007625444 -0.16549505 -0.1564213 0.009597328 0.036612105 0.18538797 -0.12767738 -0.19881205
-0.112406865 0.014533173 -0.19916366 -0.069817886 0.14268656 -0.18512739 -0.1527886 0.16113834
-0.064115144 -0.111286335 -0.2125132 -0.17610908 0.043910056 0.1250105 0.23554102 -0.19125357
-0.1436509 0.06377459 0.20498647 -0.14119461 -0.113810144 0.21561165 0.10045256 0.05343466
0.02700489 0.07904509 0.12377764 -0.13160022 -0.009362235 -0.11304778 0.14183633 -0.04076834
0.0534565 0.017050777 -0.1477578 0.06354491 -0.13486686 -0.18807971 -0.037779037 -0.044595562
0.036550157 0.15562679 -0.2288623 -0.15969211 0.04291591 -0.1314687 -0.17337917 0.16206294
-0.16547678 -0.16444612 -0.19912185 -0.10299142 -0.11316573 0.0448071 0.0187704 0.1649108
0.13791762 0.1018419 -0.16154303 -0.06898958 -0.21100393 -0.03075554 -0.17402124 -0.18890204
-0.05803883 0.19854751 -0.10232814 0.13383582 -0.09624537 0.11833625 -0.1079829 -0.11146302
-0.17047773 0.043852635 -0.14216869 -0.17012334 -0.095631845 -0.0036754864 -0.1294512 -0.047162645
0.008499109 0.099914536 0.18307336 -0.16291644 -0.020861868 -0.28648716 0.14901248 0.095541105
0.054612346 0.00808496 -0.14398904 -0.20708348 -0.11661012 -0.006894589 -0.047396187 -0.037356198
-0.0012511516 0.1440082 -0.14222577 -0.060035236 0.031712994 -0.08195079 -0.1046148 -0.19996761
0.06923683 -0.116497226 -0.13220604 -0.11285429 -0.16119492 -0.16894916 -0.08051177 0.017857598
-0.06617555 0.14167145 0.14013843 -0.1959982 -0.19762683 -0.18671116 0.069690116 -0.11829007
-0.13003866 -0.19415724 0.113852054 0.08311711 -0.030632991 0.13920927 -0.0676246 0.024405355
-0.07112581 0.06827698 -0.16137804 0.043479312 0.16573913 -0.20911133 0.0038426232 -0.049325928
0.1101447 0.011410733 0.12835327 0.029223172 0.13678212 -0.20510417 -0.023266276 0.053245768
-0.09280135 0.068108335 0.08767254 0.055829626 -0.1070919 -0.024487007 0.014090182 -0.026089566
-0.010222357 -0.20184945 0.13756867 -0.13172601 0.16866772 0.088454016 -0.22222687 0.13202898
-0.16841581 -0.10587355 -0.18040745 -0.107138075 0.18690369 0.17389552 0.048544317 -0.14143245
0.060851444 -0.049400367 0.12837885 -0.07117025 -0.124512404 0.087765105 -0.16301581 -0.12195955
-0.03641593 0.00016714455 0.19932425 -0.188937 0.15744859 -0.19776815 -0.16061524 -0.17290774
0.0355239 0.062313545 0.16836354 0.19574766 0.021247132 0.008462367 0.16382022 0.06727524
-0.024002548 0.17562316 -0.21706665 -0.17324762 -0.016449993 0.19956464 -0.07276598 -0.08724943
0.14234798 0.10085811 0.15863915 -0.07017977 -0.003523848 -0.1804349 -0.033406205 -0.20728198
-0.16531849 0.08104136 0.09660363 0.18955392 0.06937876 -0.13276929 0.20140913 -0.13987216
0.110065885 0.16411534 -0.07118453 -0.030536098 -0.07755836 0.13718034 -0.026356794 0.1225407
0.013421719 -0.13898495 0.138244 -0.039983664 -0.07170502 -0.048156947 0.084249444 -0.004077751
-0.09211615 0.06654886 0.19112569 0.07244893 0.062033262 -0.00016054435 0.0782607 -0.21541877
00000000: af06 473c 6006 583e 68df 393d f2fe a53d
00000010: be2e 393e 200d 25be 2754 6e3d af7d 0fbe
00000020: dcde f9bb 8977 29be e82c 20be 1c3e 1d3c
00000030: 93f6 153d 58d6 3d3e dcbd 02be 6395 4bbe
00000040: 9235 e6bd 8c1c 6e3c 8ff1 4bbe aefc 8ebd
00000050: 6d1c 123e 0992 3dbe 9d74 1cbe 7301 253e
00000060: cd4e 83bd 17ea e3bd 0f9d 59be f055 34be
00000070: 08db 333d c102 003e aa31 713e fad7 43be
00000080: 3919 13be 419c 823d f9e7 513e 5295 10be
00000090: 4b15 e9bd 4dc9 5c3e 12ba cd3d 4dde 5a3d
000000a0: 5c39 dd3c 64e2 a13d 227f fd3d 35c2 06be
000000b0: 0f64 19bc 9885 e7bd 8b3d 113e b4fc 26bd
000000c0: 34f5 5a3d 12ae 8b3c d24d 17be d523 823d
000000d0: 8a1a 0abe f897 40be 31be 1abd d6a9 36bd
000000e0: 9eb5 153d a15c 1f3e e15a 6abe 5486 23be
000000f0: 98c8 2f3d bb9f 06be 4f8a 31be d4f3 253e
00000100: bf72 29be 9064 28be 99e6 4bbe 2aed d2bd
00000110: 6fc3 e7bd a687 373d 62c4 993c 60de 283e
00000120: 473a 0d3e 7c92 d03d 896b 25be 694a 8dbd
00000130: 6a11 58be 0bf3 fbbc a032 32be 896f 41be
00000140: 20ba 6dbd 0a50 4b3e 6a91 d1bd 420c 093e
00000150: 4b1c c5bd 475a f23d 2426 ddbd b946 e4bd
00000160: b791 2ebe d29e 333d ab94 11be d034 2ebe
00000170: a1da c3bd 6ee0 70bb db8e 04be 9e2d 41bd
00000180: d93f 0b3c fe9f cc3d 9577 3b3e 91d3 26be
00000190: 82e6 aabc 72ae 92be ba96 183e 0eab c33d
000001a0: 32b1 5f3d c876 043c dd71 13be b10d 54be
000001b0: 49d1 eebd 01ec e1bb 8122 42bd d002 19bd
000001c0: aefd a3ba e376 133e a2a3 11be 82e7 75bd
000001d0: 7ce5 013d d1d5 a7bd 4940 d6bd 4fc4 4cbe
000001e0: 0acc 8d3d 1996 eebd 0561 07be 2620 e7bd
000001f0: 4810 25be 0201 2dbe 5be3 a4bd 194a 923c
00000200: 0c87 87bd 5212 113e 7380 0f3e c1b3 48be
00000210: b05e 4abe 3631 3fbe b1b9 8e3d 1042 f2bd
00000220: db28 05be 28d1 46be 442b e93d 4e39 aa3d
00000230: 0af2 fabc e08c 0e3e c47e 8abd bded c73c
00000240: 69aa 91bd cdd4 8b3d 4940 25be 5d17 323d
00000250: 85b7 293e 4821 56be 85d4 7b3b fc09 4abd
00000260: 8b93 e13d 15f4 3a3c 0a6f 033e 6f65 ef3c
00000270: 9d10 0c3e d406 52be eb98 bebc 3c18 5a3d
00000280: a20e bebd 627c 8b3d a98d b33d 9bad 643d
00000290: 0053 dbbd fa98 c8bc 82da 663c c9b9 d5bc
000002a0: ac7b 27bc 9fb1 4ebe cdde 0c3e 2fe3 06be
000002b0: 3bb7 2c3e 6127 b53d 718f 63be 9b32 073e
000002c0: 3275 2cbe 3bd4 d8bd bbbc 38be 356b dbbd
000002d0: ae63 3f3e ab11 323e 68d6 463d abd3 10be
000002e0: 5d3f 793d 0a58 4abd bf75 033e b5c1 91bd
000002f0: 5c00 ffbd 31be b33d 9eed 26be eec5 f9bd
00000300: df28 15bd 8643 2f39 a81b 4c3e b378 41be
00000310: 343a 213e bc83 4abe 5278 24be ba0e 31be
00000320: 8281 113d 7d3c 7f3d 7e67 2c3e 1372 483e
00000330: 770e ae3c bda5 0a3c 7dc0 273e 9ac7 893d
00000340: fea0 c4bc 8fd6 333e b846 5ebe d367 31be
00000350: 23c2 86bc ac5a 4c3e 5506 95bd d4af b2bd
00000360: abc3 113e b28e ce3d 4d72 223e 69ba 8fbd
00000370: 5cf0 66bb edc3 38be f2d4 08bd ba41 54be
00000380: 4049 29be 03f9 a53d 20d8 c53d 6c1a 423e
00000390: 7416 8e3d acf4 07be 323e 4e3e a63a 0fbe
000003a0: 396a e13d da0d 283e 32c9 91bd d726 fabc
000003b0: ebd6 9ebd 0179 0c3e 34ea d7bc 9ef6 fa3d
000003c0: c5e6 5b3c 1252 0ebe d68f 0d3e e9c5 23bd
000003d0: 15da 92bd 3840 45bd f98a ac3d a89e 85bb
000003e0: 64a7 bcbd c54a 883d 74b6 433e 1b60 943d
000003f0: 9716 7e3d cc57 28b9 2547 a03d bd96 5cbe

shared.0.bias f4 [256]
0.020545293 0.08021122 -0.024039704 -0.05582472 0.009639623 0.07225559 -0.23756167 -0.03951384
-0.09915973 -0.122791484 0.14227545 -0.07199555 0.11812661 0.02740902 -0.19789135 -0.13534477
0.09863576 -0.23930047 -0.069628246 0.026178496 -0.21916261 -0.0095342975 0.05229944 0.06892718
0.07144433 -0.17947969 -0.010640079 -0.0067807455 0.17887385 0.009688542 -0.17866018 0.03546341
0.034170676 -0.08669054 -0.04304331 0.006165169 0.1731018 0.15120254 0.08730419 -0.074215606
0.07659859 0.19127451 0.20736887 0.05731275 -0.1168352 0.17235674 -0.18253197 -0.012618372
0.03103698 -0.026131708 -0.18027043 0.054857798 0.012156962 -0.06848472 -0.0988685 -0.20645626
0.028946042 0.1897088 -0.029524228 0.13445488 0.1090506 0.2612583 0.11867488 0.12276359
-0.030303849 0.11166033 0.2059682 0.084871925 0.10972866 0.04275747 0.07432289 -0.07023563
-0.15301222 0.14540277 0.122906186 -0.030330319 0.05026565 -0.1116206 0.037246868 0.08996917
0.053523157 -0.21099517 -0.14955907 0.053958338 -0.0039571715 -0.1701453 0.0072515113 -0.10175048
0.13098313 -0.07568457 -0.04256153 -0.049436912 0.123301454 0.04355616 0.14992502 0.20675686
-0.12413526 -0.08692916 0.06368702 -0.08283214 -0.0373754 -0.045544412 -0.23038033 -0.21060474
-0.03426728 -0.014251951 0.05225393 -0.1438975 -0.070408165 0.13802424 -0.1115099 0.06534876
0.09828958 0.19089602 -0.07099713 -0.25020528 -0.12944277 0.16249186 -0.030319443 0.05144492
-0.14570163 0.17126648 -0.11205225 -0.006598069 0.06099153 -0.050843507 0.027226409 -0.14246458
0.10455763 -0.027400106 0.056392454 0.14134072 -0.012394124 0.15259722 0.06597944 0.055715237
-0.16429241 0.08987961 0.10198864 0.12130629 -0.23069212 -0.072082646 -0.038007103 0.17704293
-0.04520182 -0.06203299 0.015925614 -0.028702173 0.022384144 -0.014004042 0.09629419 -0.087509476
0.054419678 0.1663355 0.13128096 0.14829339 0.08624088 0.16791375 -0.015565944 -0.102600046
0.09741445 0.00055102154 -0.1721302 -0.0070839766 0.19827904 -0.22714865 0.15207198 -0.039991017
0.012270612 -0.077052936 0.16569959 -0.096902184 0.07161812 -0.03451248 0.040923256 -0.13912764
-0.114298165 -0.20627482 0.17310594 0.022448257 -0.179951 -0.17146428 -0.20526609 -0.17788894
-0.23175591 0.18393567 -0.10460813 0.14643097 -0.1701018 -0.21570224 -0.09557063 0.021248039
0.108599305 -0.13843957 -0.04093181 0.055422984 -0.19966754 -0.08701515 -0.09626629 0.13472588
-0.22614503 0.052914362 0.11784377 -0.069933936 -0.23270331 0.20153233 -0.030387944 0.039701696
-0.0067562223 -0.09315955 0.18318096 -0.0054692263 0.14179513 -0.13662583 -0.02970224 0.008891398
0.07208844 0.113602415 -0.049788736 -0.065300465 0.16126974 -0.08505326 0.14404203 -0.17461246
-0.1835118 -0.13500446 0.14045137 0.17083146 0.07651606 0.114211135 -0.19576976 -0.032616973
0.04990895 0.1582844 -0.12594458 0.09160881 0.02219678 0.13410594 0.1572807 0.084738925
0.076435946 -0.10585887 -0.23643571 -0.18784928 -0.031496212 -0.123227336 0.121315904 -0.025412975
0.14551353 -0.21406293 0.07757559 0.16396938 0.01924114 -0.18108085 0.0076577803 -0.04616575
00000000: 9a4e a83c c845 a43d eaee c4bc 76a8 64bd
00000010: 82ef 1d3c bdfa 933d 5e43 73be 44d9 21bd
00000020: 4214 cbbd 1a7a fbbd a8b0 113e 6772 93bd
00000030: 5dec f13d e288 e03c 08a4 4abe d297 0abe
00000040: 8c01 ca3d 2f0b 75be 4199 8ebd 4974 d63c
00000050: 2a6c 60be be35 1cbc f037 563d b129 8d3d
00000060: 6851 923d 86c9 37be ba53 2ebc 0431 debb
00000070: b52a 373e b1bc 1e3c b2f2 36be 1542 113d
00000080: 8df6 0b3d cf8a b1bd 2f4e 30bd 3005 ca3b
00000090: 9941 313e d7d4 1a3e 8acc b23d 5afe 97bd
000000a0: b9df 9c3d 77dd 433e 8158 543e c6c0 6a3d
000000b0: 4b47 efbd 497e 303e a9e9 3abe 4abd 4ebc
000000c0: 4441 fe3c 2a12 d6bc d098 38be 92b2 603d
000000d0: ff2d 473c b841 8cbd 917b cabd 4569 53be
000000e0: 4020 ed3c 0643 423e cbdc f1bc 8aae 093e
000000f0: ec55 df3d a6c3 853e d10b f33d 7a6b fb3d
00000100: c73f f8bc 2cae e43d 54e9 523e 55d1 ad3d
00000110: 6bb9 e03d 7522 2f3d 9936 983d b3d7 8fbd
00000120: 3caf 1cbe 77e4 143e 3db6 fb3d 4a77 f8bc
00000130: 5be3 4d3d 5799 e4bd 2c90 183d c241 b83d
00000140: 193b 5b3d 1e0f 58be 0326 19be 6b03 5d3d
00000150: 29ab 81bb 923a 2ebe 169e ed3b 8e62 d0bd
00000160: 7120 063e 8300 9bbd 0055 2ebd 5c7e 4abd
00000170: 7985 fc3d f267 323d f285 193e 12b8 533e
00000180: a13a febd ea07 b2bd 576e 823d e6a3 a9bd
00000190: f316 19bd c78c 3abd d2e8 6bbe c5a8 57be
000001a0: d95b 0cbd 0481 69bc 3808 563d de59 13be
000001b0: 2832 90bd 3a56 0d3e 4d5f e4bd 92d5 853d
000001c0: 0c4c c93d 3f7a 433e f166 91bd e81a 80be
000001d0: a58c 04be 4464 263e 7b60 f8bc e9b7 523d
000001e0: cf32 15be 7b60 2f3e a67b e5bd 9d34 d8bb
000001f0: 41d2 793d 4841 50bd eb09 df3c 3ce2 11be
00000200: 5022 d63d 3076 e0bc c6fb 663d 9fbb 103e
00000210: b910 4bbc 7242 1c3e 3b20 873d a935 643d
00000220: 453c 28be cd12 b83d 6cdf d03d 6f6f f83d
00000230: 8e3a 6cbe 11a0 93bd 56ad 1bbd be4a 353e
00000240: 8b25 39bd 4e16 7ebd 6f76 823c d220 ebbc
00000250: f45e b73c 3671 65bc e335 c53d 2b38 b3bd
00000260: 2be7 5e3d da53 2a3e 846e 063e 39da 173e
00000270: 0f9f b03d 95f1 2b3e 4d08 7fbc f91f d2bd
00000280: 3a81 c73d 6e72 103a e642 30be b420 e8bb
00000290: a909 4b3e a899 68be c2b8 1b3e 9fcd 23bd
000002a0: ad0a 493c eecd 9dbd 27ad 293e a774 c6bd
000002b0: 85ac 923d f55c 0dbd 259f 273d 7a77 0ebe
000002c0: 2815 eabd b539 53be af42 313e 68e5 b73c
000002d0: 1345 38be 5594 2fbe 4631 52be 8528 36be
000002e0: 6c51 6dbe a259 3c3e ca3c d6bd 00f2 153e
000002f0: 2b2f 2ebe 0ce1 5cbe 89ba c3bd 5e10 ae3c
00000300: 5069 de3d 1ac3 0dbe 1da8 27bd 3603 633d
00000310: a675 4cbe 0035 b2bd 4327 c5bd 95f5 093e
00000320: 9092 67be bbbc 583d 1358 f13d 8639 8fbd
00000330: c749 6ebe 7e5e 4e3e 23f0 f8bc 3f9e 223d
00000340: 4d63 ddbb 6fca bebd ca93 3b3e 3237 b3bb
00000350: be32 113e a4e7 0bbe 1d52 f3bc 3aad 113c
00000360: 1ba3 933d 62a8 e83d 46ef 4bbd 40bc 85bd
00000370: e523 253e 6730 aebd c17f 133e 9ccd 32be
00000380: 84ea 3bbe 9c3e 0abe 7cd2 0f3e 71ee 2e3e
00000390: 74b4 9c3d 87e7 e93d de77 48be 6099 05bd
000003a0: 546d 4c3d 4e15 223e 9ef7 00be 669d bb3d
000003b0: 06d6 b53c 1153 093e 310e 213e 9a8b ad3d
000003c0: 738a 9c3d 89cc d8bd 341c 72be 905b 40be
000003d0: 2c02 01bd 9d5e fcbd 7974 f83d df2e d0bc
000003e0: 8001 153e 5033 5bbe f3df 9e3d 97e7 273e
000003f0: 989f 9d3c 426d 39be 1eee fa3b 4c18 3dbd

shared.2.weight f4 [128, 256]
0.062178813 0.027129164 0.013859034 0.02272242 -0.0105695445 -0.040418025 -0.054219007 -0.005614508
-0.03973245 0.06438158 -0.070580155 0.00049145374 -0.038900055 0.040262062 -0.037621275 0.026004633
0.003354825 0.0097568445 -0.02664821 0.017078033 0.034324422 -0.04119013 -0.034872506 0.008175088
-0.022206085 0.045250826 -0.057834946 0.0008654461 0.025170319 0.004491446 -0.0120526105 -0.047633573
0.013921876 -0.00048830925 0.021519601 -0.071553394 -0.0011166536 -0.026219502 0.021365361 0.027259499
-0.05209187 -0.04073068 -0.019270534 0.015344815 0.014238972 -0.034231238 -0.043892544 0.051287763
-0.053127594 0.028083995 0.026282921 0.03695539 -0.014763735 -0.028769212 0.032469995 -0.036858488
0.006984214 -0.0053821313 -0.013985255 -0.025818294 -0.04119555 -0.070852645 0.031966515 -0.044116464
0.048456423 -0.03168197 0.021756263 0.014785829 -0.055011764 -0.04442178 0.05265674 0.021148518
0.021971956 -0.00083505 0.023207607 0.05540131 0.012895569 0.00026737305 -0.01623969 -0.01480773
0.021431424 -0.004672015 0.049819864 0.032172713 -0.049807973 -0.030232359 0.03944484 -0.0025584698
0.04751263 -0.071775705 0.012379304 -0.04651697 0.046509095 -0.030995501 -0.04811177 0.041848622
0.047411174 -0.01120092 -0.005892962 -0.054919474 -0.012504121 0.026985388 -0.06472274 -0.04226571
-0.06623773 -0.039867688 0.056228954 -0.01963723 -0.04737132 -0.006162786 0.011530985 -0.041469343
-0.009595822 0.031020364 0.0037062094 0.044996485 0.01171143 -0.0019031167 -0.012838416 0.052740425
0.013531781 0.023941599 -0.054703146 0.052946113 0.0100224465 0.034215674 -0.0024891421 -0.07882915
-0.008062189 0.012732714 -0.07519947 -0.011207588 0.0431367 0.010775243 -0.057487153 -0.05264363
0.029246299 -0.027243955 0.032979205 0.0105820075 0.028170936 -0.012637071 0.022595068 0.028910555
0.04580912 0.061227784 0.0061048353 0.028203344 0.05766184 0.052581128 -0.036222387 0.029559769
0.06593576 -0.05426644 0.043073915 -0.0018146518 0.023153372 0.05540476 -0.04931628 -0.06597008
-0.021023847 -0.039776396 0.029641543 -0.027305603 -0.036428455 -0.035104364 -0.02974032 -0.047100276
-0.01846717 -0.019079559 -0.038417153 -0.0023587109 -0.007802658 -0.008381769 0.017207218 0.036827803
-0.035788618 -0.01410247 0.033637546 0.05441924 -0.035835966 0.040740788 0.049201585 0.02684764
0.037636627 0.01259395 0.010813374 0.024940941 0.059170052 0.05849562 0.030078573 0.028054252
-0.042090353 -0.016882414 -0.009645243 0.031627364 -0.029446788 -0.043059055 0.011299132 -0.0779122
0.003123057 -0.02140529 -0.021613315 0.029373784 0.04078222 0.008204445 0.045836836 -0.023792192
0.027757019 -0.02096657 -0.0661901 -0.06153302 -0.040651456 -0.012560201 0.06608741 -0.033842668
0.026587132 -0.04388412 0.00084069365 -0.0646244 -0.038266737 0.025869817 -0.06511521 0.011633934
-0.008857506 0.05737566 -0.046429034 -0.058909085 -0.047998834 -0.053080887 -0.0006380912 0.027379062
-0.063157275 -0.02757565 -0.045403916 -0.062471293 0.007258676 0.037292227 0.013027671 0.014882684
-0.039637156 0.0066383467 0.008344979 -0.028121002 -0.008278914 -0.06866954 0.040904105 -0.016073752
0.014779195 -0.054796755 -0.03212707 -0.043152332 -0.0422806 -0.025600258 -0.048733875 -0.024399152
00000000: 36af 7e3d fb3d de3c 0011 633c 5e24 ba3c
00000010: e22b 2dbc 5f8d 25bd c014 5ebd e8f9 b7bb
00000020: 7ebe 22bd 7dda 833d 548c 90bd e7d4 003a
00000030: aa55 1fbd d5e9 243d c418 1abd ab07 d53c
00000040: a0dc 5b3b 2cdb 1f3c 594d dabc 3be7 8b3c
00000050: c497 0c3d fbb6 28bd 79d6 0ebd cef0 053c
00000060: 89e9 b5bc ee58 393d 56e4 6cbd 1bdf 623a
00000070: fc31 ce3c fb2c 933b 5078 45bc 6c1b 43bd
00000080: 9518 643c e101 00ba e049 b03c 968a 92bd
00000090: ad5c 92ba 48ca d6bc 6906 af3c 504f df3c
000000a0: 495e 55bd 37d5 26bd 3ddd 9dbc d268 7b3c
000000b0: 944a 693c 0e36 0cbd abc8 33bd 1e13 523d
000000c0: 529c 59bd 6810 e63c 484f d73c 895e 173d
000000d0: 98e3 71bc 69ad ebbc 42ff 043d edf8 16bd
000000e0: d5db e43b 975c b0bb 6922 65bc e380 d3bc
000000f0: aabc 28bd 311b 91bd 52ef 023d 77b3 34bd
00000100: 3e7a 463d f4c4 01bd 313a b23c 4340 723c
00000110: 0454 61bd 9df3 35bd 98ae 573d a83f ad3c
00000120: 88fe b33c 42e7 5aba e11d be3c 7cec 623d
00000130: f047 533c 342e 8c39 1909 85bc 1f9c 72bc
00000140: f490 af3c b417 99bb ea0f 4c3d 89c7 033d
00000150: 7203 4cbd daa9 f7bc ea90 213d 00ac 27bb
00000160: 9a9c 423d 24ff 92bd 90d2 4a3c 9488 3ebd
00000170: 5280 3e3d 47ea fdbc d910 45bd 7669 2b3d
00000180: 3832 423d 1084 37bc c019 c1bb 3ef3 60bd
00000190: 16de 4cbc 7610 dd3c 5b8d 84bd cf1e 2dbd
000001a0: a6a7 87bd 4d4c 23bd 5550 663d 42de a0bc
000001b0: 6e08 42bd 32f1 c9bb 75ec 3c3c c2db 29bd
000001c0: cb37 1dbc 6b1e fe3c e0e3 723b 3c4e 383d
000001d0: 4ce1 3f3c 0072 f9ba 3858 52bc 5806 583d
000001e0: 67b4 5d3c 2c21 c43c 6810 60bd 06de 583d
000001f0: 3035 243c bc25 0c3d e020 23bb 2d71 a1bd
00000200: 4617 04bc e09c 503c 2e02 9abd 08a0 37bc
00000210: 1cb0 303d a58a 303c a677 6bbd d9a0 57bd
00000220: ef95 ef3c b72e dfbc 3415 073d 2860 2d3c
00000230: bcc6 e63c b80b 4fbc 4b19 b93c d4d5 ec3c
00000240: 58a2 3b3d fcc9 7a3d 120b c83b b30a e73c
00000250: d22e 6c3d 4f5f 573d ed5d 14bd 5427 f23c
00000260: 5409 873d 7d46 5ebd 466e 303d 9cd9 edba
00000270: 24ac bd3c 1af0 623d deff 49bd 521b 87bd
00000280: 343a acbc 93ec 22bd d2d2 f23c 00b0 dfbc
00000290: 0136 15bd 98c9 0fbd f9a1 f3bc 38ec 40bd
000002a0: 7648 97bc bc4c 9cbc 4e5b 1dbd 9a94 1abb
000002b0: 70ad ffbb b053 09bc 27f6 8c3c c0d8 163d
000002c0: 1697 12bd 0c0e 67bc 86c7 093d b6e6 5e3d
000002d0: bcc8 12bd d0df 263d 9a87 493d 95ef db3c
000002e0: dd28 1a3d db56 4e3c 942a 313c f250 cc3c
000002f0: 4c5c 723d 1a99 6f3d 5767 f63c 08d2 e53c
00000300: ef66 2cbd fd4c 8abc 1507 1ebc b28b 013d
00000310: 643a f1bc b15e 30bd ff1f 393c 6e90 9fbd
00000320: 34ac 4c3b 265a afbc 680e b1bc 4aa1 f03c
00000330: 420b 273d f06b 063c 68bf 3b3d d8e7 c2bc
00000340: b062 e33c 16c2 abbc ad8e 87bd 0c0a 7cbd
00000350: 2482 26bd 4dc9 4dbc d658 873d 9c9e 0abd
00000360: 42cd d93c d6bf 33bd ff61 5c3a cc59 84bd
00000370: 95bd 1cbd f0ec d33c 205b 85bd 429c 3e3c
00000380: 131f 11bc bd02 6b3d 5f2c 3ebd a74a 71bd
00000390: 6d9a 44bd 586b 59bd 9345 27ba 0e4a e03c
000003a0: 9a58 81bd 54e6 e1bc 75f9 39bd e6e1 7fbd
000003b0: 30da ed3b bcbf 183d 0372 553c 80d6 733c
000003c0: 925a 22bd 7d86 d93b 61b9 083c 045e e6bc
000003d0: 48a4 07bc 9ea2 8cbd 108b 273d 1aad 83bc
000003e0: 7024 723c 9072 60bd ad97 03bd 80c0 30bd
000003f0: 6c2e 2dbd a2b7 d1bc 2c9d 47bd bbe0 c7bc

shared.2.bias f4 [128]
-0.074061275 0.07438191 0.009943499 0.039515365 -0.072207004 0.07038686 -0.051908746 0.021767568
0.038907528 -0.010456896 -0.03220281 -0.035470955 0.027112791 -0.009455196 -0.052789062 0.05066039
-0.04388373 -0.017156 -0.012450786 0.057477262 -0.04513622 -0.055432532 -0.013232206 -0.07122637
-0.0329794 -0.04099242 0.03054979 0.025585623 -0.005892096 0.0452447 0.048042998 0.029244376
-0.045074943 -0.06383317 -0.010983527 -0.0007174624 -0.056030154 0.03719378 -0.048936665 0.014239615
0.027547788 -0.025309704 -0.02308677 -0.0526247 0.02691853 0.034600668 -0.030022955 0.03325487
0.031903792 0.006236593 0.023579113 -0.042300254 -0.014150194 -0.0653246 -0.018356802 -0.013790067
-0.013513462 -0.00443878 -0.052222308 -0.059582148 -0.050474394 0.04144784 -0.046504702 0.0068306113
-0.0054098223 -0.07965377 0.06048951 -0.032871664 0.03294631 -0.02106393 0.032574493 -0.021766897
0.031374823 -0.019794516 0.029954119 -0.038445964 -0.07051765 0.064516634 0.04025726 -0.010104713
-0.0049916804 -0.06670371 0.045158908 -0.06373514 0.053404294 0.03160702 -0.05949693 0.04840018
0.012633651 -0.01813359 0.021378996 -0.00096948544 -0.061857224 0.025170516 0.07622797 -0.01975667
-0.08866151 -0.081773095 -0.014531721 -0.02825448 -0.070895754 -0.047829833 -0.048965547 0.035974912
-0.030030139 -0.044137217 0.019174661 0.0003752386 0.02586228 -0.04993504 -0.06309692 -0.05041329
-0.054971308 -0.0061149276 -0.04874833 -0.017249068 0.045252666 -0.03712251 -0.028069654 -0.059019793
-0.020609327 -0.0043145553 -0.036302406 -0.05935526 -0.030044565 0.014904805 -0.022736099 -0.051547576
00000000: 70ad 97bd 8b55 983d 0fea 223c ddda 213d
00000010: 44e1 93bd fc26 903d 449e 54bd e651 b23c
00000020: 805d 1f3d 6753 2bbc 18e7 03bd fe49 11bd
00000030: a51b de3c f7e9 1abc 5839 58bd 4581 4f3d
00000040: 6dbf 33bd bd8a 8cbc 62fe 4bbc 476d 6b3d
00000050: c2e0 38bd 390d 63bd e5cb 58bc 22df 91bd
00000060: 6815 07bd abe7 27bd 8e43 fa3c f198 d13c
00000070: 7c12 c1bb 8252 393d bcc8 443d e791 ef3c
00000080: 81a0 38bd f7ba 82bd 40f4 33bc 1614 3cba
00000090: e07f 65bd 8158 183d d071 48bd 464d 693c
000000a0: e6ab e13c 4c56 cfbc 7720 bdbc ff8c 57bd
000000b0: 4084 dc3c 6eb9 0d3d b3f2 f5bc 4236 083d
000000c0: 8dad 023d 555c cc3b fc28 c13c 0843 2dbd
000000d0: 37d6 67bc e7c8 85bd 0161 96bc bcef 61bc
000000e0: 9167 5dbc 2f73 91bb 0fe7 55bd 690c 74bd
000000f0: 3dbe 4ebd 36c5 293d b77b 3ebd 52d3 df3b
00000100: e144 b1bb 8421 a3bd d9c3 773d 70a4 06bd
00000110: b6f2 063d 438e acbc d56c 053d 7e50 b2bc
00000120: e382 003d 1c28 a2bc 5762 f53c 8479 1dbd
00000130: 8f6b 90bd 4c21 843d cce4 243d 3d8e 25bc
00000140: 4091 a3bb f49b 88bd 8cf8 383d 9287 82bd
00000150: 76be 5a3d 5d76 013d 0eb3 73bd 443f 463d
00000160: 5ffd 4e3c e58c 94bc 0123 af3c 1125 7eba
00000170: 005e 7dbd 6632 ce3c 691d 9c3d bdd8 a1bc
00000180: 2a94 b5bd a778 a7bd 7516 6ebc f075 e7bc
00000190: cb31 91bd 37e9 43bd 1990 48bd 6e5a 133d
000001a0: c401 f6bc 3ac9 34bd 2e14 9d3c acbb c439
000001b0: 22dd d33c af88 4cbd f538 81bd 2a7e 4ebd
000001c0: 9829 61bd bb5f c8bb 54ac 47bd eb4d 8dbc
000001d0: dc5a 393d c60d 18bd 55f2 e5bc bdbe 71bd
000001e0: e4d4 a8bc 1d61 8dbb d5b1 14bd 801e 73bd
000001f0: 0520 f6bc 4933 743c 0e41 babc 8d23 53bd

dice_policy.weight f4 [5, 128]
0.01762752 0.031348042 0.06246281 -0.08146827 0.0013176511 -0.041725382 -0.0063497405 -0.04349139
-0.044957627 -0.028295275 -0.0039751143 -0.0850505 -0.041807316 0.006602827 0.047465574 0.030760953
-0.031302225 -0.11939884 -0.015442344 0.0011139242 0.030993149 -0.05809559 -0.08940462 0.022166617
0.0021052791 -0.068338476 -0.03608773 0.010277532 -0.10875184 0.06922023 -0.011929932 -0.0121017955
0.046813224 -0.04429866 0.06679867 0.02415035 -0.081485234 -0.0069341483 0.03694829 0.062253494
-0.047838688 -0.06945812 -0.056159385 0.03775581 -0.051031042 -0.010923155 0.036701374 -0.0073368847
-0.052268855 -0.10507143 -0.071746066 0.02254467 0.032966346 0.07944078 -0.04566973 -0.050093226
-0.0143433185 -0.03710483 -0.043380026 -0.06135141 0.034506936 0.006398608 -0.048348308 -0.025800986
-0.08427146 0.0066997525 0.093705826 0.018441394 -0.045616735 -0.009698457 0.044038616 -0.07975535
-0.062977925 -0.027200123 0.06787175 -0.043385062 -0.10440787 -0.027250253 -0.06655635 -0.07658304
0.035148572 -0.025897283 0.031128008 0.039342586 -0.090517774 -0.08278367 -0.037795834 -0.08948614
0.024776015 0.027775057 -0.06323348 -0.041800577 0.0306448 0.025939625 0.082391314 -0.007853496
0.0060600885 -0.07179519 0.011901664 -0.075277835 -0.07098115 -0.08262897 -0.01428942 -0.09646595
0.06624602 -0.06823636 -0.0036109483 -0.0073798494 -0.001534275 -0.11470671 -0.040035754 0.028537473
-0.027009452 -0.06094246 0.06389263 -0.017885204 0.015341194 -0.008031176 -0.0629986 -0.07959646
-0.005552659 -0.04617639 -0.030881954 -0.027293509 -0.028730301 -0.035683002 -0.012492423 0.007817682
-0.075507835 -0.110484496 -0.03012925 -0.017676568 0.07235507 -0.06109143 -0.04741201 -0.047768436
-0.030552145 -0.056716826 -0.043875933 0.049817875 0.0107121635 0.018067535 -0.0032336072 0.0077654286
-0.036922246 -0.07061893 -0.004393081 0.03514997 0.07759651 -0.05798638 0.001727208 -0.06644164
0.041290734 -0.074901596 0.035668395 -0.085857585 0.01890625 -0.09105445 0.056677517 -0.09286332
-0.025553292 0.058097415 0.0565479 0.050136894 -0.020083584 -0.10923683 0.044358414 0.08039605
0.029734569 -0.08875659 0.05614234 0.071994826 -0.024062954 0.004049674 0.011602432 -0.06366058
-0.0052740905 0.012411838 -0.071824536 0.030303348 0.026032811 0.03038714 -0.07593536 -0.03323328
0.00036634886 0.0007106696 -0.0013677186 -0.05855994 -0.025395522 -0.013273208 -0.032184727 -0.01099123
0.1153518 0.006864937 0.042776957 -0.048469808 0.023274168 -0.0810458 -0.10101748 -0.02189301
-0.0014310171 0.0105659375 0.07657459 -0.017890831 -0.075409696 -0.03754417 -0.010686719 0.009199519
-0.03104836 0.018681573 -0.053321254 -0.06650968 0.047103792 0.08441469 0.0005252696 0.00035751887
0.034493133 -0.03873843 0.028367259 -0.015862813 -0.045234125 0.06523009 0.040244613 -0.0027813297
0.07153245 0.05564431 0.11544515 0.016315877 0.08940273 -0.013825126 0.05852301 -0.052671447
0.025941912 0.043659884 -0.094509535 0.059000608 0.06653919 0.032474432 0.03235051 0.041102473
0.050558135 -0.052349064 0.047054876 -0.010475668 0.0736923 -0.09101022 0.0038033836 -0.059679355
-0.06334363 -0.046177987 -0.074809216 -0.047718074 0.063212864 0.03306686 -0.08413017 -0.05204784
00000000: 9767 903c ce66 003d 01d9 7f3d d6d8 a6bd
00000010: 09b5 ac3a 3ce8 2abd 7c11 d0bb 0724 32bd
00000020: 7d25 38bd 7ecb e7bc ad41 82bb f52e aebd
00000030: 263e 2bbd 875c d83b 436b 423d 65fe fb3c
00000040: c336 00bd 6187 f4bd e301 7dbc 1801 923a
00000050: 58e5 fd3c a4f5 6dbd c519 b7bd c496 b53c
00000060: b9f8 093b 0bf5 8bbd bad0 13bd 1863 283c
00000070: 49b9 debd 56c3 8d3d c375 43bc 9c46 46bc
00000080: 39bf 3f3d 8372 35bd becd 883d f4d6 c53c
00000090: bbe1 a6bd da37 e3bb 1757 173d 85fd 7e3d
000000a0: 80f2 43bd 0f40 8ebd 6207 66bd d6a5 1a3d
000000b0: ed05 51bd 08f7 32bc 2e54 163d 406a f0bb
000000c0: de17 56bd b12f d7bd 9aef 92bd 9aaf b83c
000000d0: b807 073d d9b1 a23d 2f10 3bbd 8e2e 4dbd
000000e0: 3d00 6bbc 3cfb 17bd 41af 31bd 9e4b 7bbd
000000f0: 2557 0d3d 6aab d13b e008 46bd 975c d3bc
00000100: 8496 acbd 9989 db3b d7e8 bf3d 6812 973c
00000110: 9dd8 3abd 47e6 1ebc d661 343d c656 a3bd
00000120: 92fa 80bd cbd2 debc 5800 8b3d 89b4 31bd
00000130: cbd3 d5bd ec3b dfbc b24e 88bd 92d7 9cbd
00000140: f3f7 0f3d 8a26 d4bc 2a00 ff3c b125 213d
00000150: 6261 b9bd 7c8a a9bd cecf 1abd 8244 b7bd
00000160: 12f7 ca3c 8488 e33c 8e80 81bd 1537 2bbd
00000170: ce0a fb3c 567f d43c c7bc a83d f3ab 00bc
00000180: b593 c63b 5b09 93bd 32ff 423c 442b 9abd
00000190: 915e 91bd 6139 a9bd 2c1e 6abc f18f c5bd
000001a0: feab 873d 81bf 8bbd a9a5 6cbb aad2 f1bb
000001b0: ba19 c9ba 5aeb eabd 88fc 23bd 6bc7 e93c
000001c0: ed42 ddbc cd9e 79bd 24da 823d fe83 92bc
000001d0: a259 7b3c 3295 03bc 6905 81bd 7803 a3bd
000001e0: 14f3 b5bb 7423 3dbd 27fc fcbc a396 dfbc
000001f0: cf5b ebbc 5728 12bd 05ad 4cbc bc15 003c
00000200: daa3 9abd b245 e2bd 9ed1 f6bc 73ce 90bc
00000210: e52e 943d 023b 7abd 1933 42bd d6a8 43bd
00000220: 7e48 fabc e74f 68bd 40b7 33bd d40d 4c3d
00000230: 1282 2f3c 5e02 943c edea 53bb 2375 fe3b
00000240: c83b 17bd a8a0 90bd d6f3 8fbb 6af9 0f3d
00000250: ebea 9e3d 2083 6dbd 7c63 e23a 8e12 88bd
00000260: 7920 293d 0266 99bd 0619 123d 1ad6 afbd
00000270: 48e1 9a3c c17a babd af26 683d 202f bebd
00000280: 2355 d1bc 8ef7 6d3d c59e 673d 585c 4d3d
00000290: 5486 a4bc 8fb7 dfbd 2bb1 353d afa6 a43d
000002a0: e995 f33c 04c6 b5bd 83f5 653d 0672 933d
000002b0: ac1f c5bc 21b3 843b 2018 3e3c 7a60 82bd
000002c0: 47d2 acbb 065b 4b3c be18 93bd ba3e f83c
000002d0: c342 d53c 74ee f83c ff83 9bbd 9f1f 08bd
000002e0: 8312 c039 3b4c 3a3a 0545 b3ba 8cdc 6fbd
000002f0: 450a d0bc df77 59bc 22d4 03bd 8f14 34bc
00000300: 913d ec3d 44f3 e03b e436 2f3d 4788 46bd
00000310: 78a9 be3c 57fb a5bd 41e2 cebd f858 b3bc
00000320: f790 bbba c11c 2d3c 23d3 9c3d cb8f 92bc
00000330: 6670 9abd eac7 19bd 5917 2fbc 94b9 163c
00000340: 2159 febc 190a 993c 6367 5abd 3a36 88bd
00000350: e8ef 403d 9ce1 ac3d 3fb2 093a 5f71 bb39
00000360: ac48 0d3d 30ac 1ebd 7462 e83c bbf2 81bc
00000370: 6b47 39bd 5a97 853d 89d7 243d f846 36bb
00000380: 9b7f 923d 4aeb 633d 826e ec3d e0a8 853c
00000390: c718 b73d c882 62bc d3b5 6f3d 04be 57bd
000003a0: 2284 d43c b5d4 323d 378e c1bd 9faa 713d
000003b0: b345 883d e903 053d f881 043d 115b 283d
000003c0: 0c16 4f3d f96b 56bd 9dbc 403d 23a2 2bbc
000003d0: fdeb 963d 9163 babd 3042 793b 5772 74bd
000003e0: 4eba 81bd 2125 3dbd 9335 99bd 0774 43bd
000003f0: bf75 813d 1e71 073d 704c acbd 1e30 55bd

dice_policy.bias f4 [5]
-0.063521475 -0.07848272 0.08415801 0.038735148 0.00024458196
00000000: 8c17 82bd 8cbb a0bd 095b ac3d bfa8 1e3d
00000010: 3c3b 8039

category_policy.weight f4 [13, 128]
-0.034046 -0.088903256 0.040638924 -0.02687139 -0.049595103 -0.09486384 -0.0025505752 -0.07795529
0.028340576 -0.02821095 -0.049698196 -0.025597207 -0.07311144 -0.029515445 -0.0010739693 0.01821752
-0.07509507 0.0041644233 -0.13670892 0.032344032 -0.07607263 0.03006817 -0.001627659 0.037260767
-0.035932995 0.053393204 -0.01280389 -0.072951324 0.022868605 0.02518349 0.017601991 -0.03691049
-0.06394848 0.0816065 -0.005056669 -0.05751738 0.057997607 0.017760895 -0.050132025 0.063090965
-0.035363622 0.00053775654 0.05040218 -0.008811643 -0.033261668 -0.023030845 0.054831315 -0.07261906
-0.026870692 -0.096485496 -0.10713281 -0.09153816 -0.056044046 0.0033111305 0.0012371143 0.066106714
-0.033566557 -0.0116471015 -0.0645131 0.0013173135 0.0013589619 -0.005362684 0.062733196 -0.052096643
-0.25653017 0.03888685 0.029587023 -0.11404318 0.0012651331 0.017692072 -0.052317046 0.033363458
-0.008296016 0.017498747 -0.04549776 0.0586153 -0.05121886 -0.01295115 0.006821874 0.01535427
0.014089669 0.061132923 -0.033095438 -0.04360804 -0.046376567 -0.08839898 0.01587496 -0.04053119
0.011313967 0.03597061 0.0207888 0.0038299821 0.017873898 0.068522625 0.025470603 -0.006055052
-0.040522024 0.030109301 -0.05271421 -0.060305644 -0.06265495 -0.075900465 0.024860157 0.044420015
-0.08318576 -0.005732823 0.02673804 0.005000209 -0.007965987 -0.076708734 -0.06594074 -0.022542305
-0.026537914 -0.05276942 0.06296369 0.043319073 0.008670283 0.013699773 0.07732122 0.058484472
-0.042507622 -0.09953018 0.039005864 0.035409756 -0.07640137 0.012460635 -0.07305757 -0.022859195
0.016637975 -0.11256609 -0.058259353 -0.04690257 -0.050892293 -0.12966545 0.017635241 -0.039294895
-0.0088253 -0.11295409 -0.051493596 -0.11599057 -0.08105766 -0.024721595 -0.07422113 0.059204478
0.016356494 -0.053656075 -0.08898456 0.031532448 -0.14958204 0.06729936 0.03852862 0.021604722
0.052625764 -0.04880687 -0.018604292 -0.0005703773 -0.008242781 -0.016443541 0.037982758 0.031198353
-0.023674177 0.014979496 0.00818211 -0.057344098 0.032169487 -0.02951072 0.05148449 -0.05255697
-0.05487948 0.015771335 0.007888017 -0.008027984 0.022766652 -0.03830306 -0.069045834 -0.019201126
-0.045637522 0.05072576 -0.07289447 -0.095626034 0.055200078 -0.06920358 0.010985039 -0.03839245
-0.06278311 -0.013165773 -0.07424333 -0.06714374 0.049832426 0.05261532 -0.03299361 -0.04114697
-0.121161625 -0.0010693854 -0.037579067 -0.06612755 0.0088448515 0.014887527 -0.081357636 -0.0675986
0.008431202 -0.07432088 -0.010750069 0.007794606 0.044764362 0.006934596 0.016254831 0.036036428
-0.079807945 0.041853737 0.026744736 -0.04893318 -0.09035114 -0.010457588 -0.08456396 0.027429378
-0.062897906 -0.018073495 -0.008048751 0.03572956 -0.11416748 -0.018644586 0.009717171 -0.027044695
-0.07864344 -0.01252876 0.027032575 -0.018573157 -0.043738514 -0.016598316 -0.08129658 0.03468623
0.04928666 0.008357336 -0.028130243 0.00598015 0.049147267 -0.06703201 -0.049198873 -0.0067937477
-0.026453476 0.032923836 -0.027429033 -0.025536744 0.008159818 -0.003184362 -0.044379003 -0.045351177
0.045379847 -0.15228648 -0.03264156 -0.07000337 -0.10769388 -0.021869797 -0.03564805 -0.12558347
00000000: d273 0bbd e912 b6bd 0075 263d 6421 dcbc
00000010: 3c24 4bbd f947 c2bd 8d27 27bb 06a7 9fbd
00000020: 7f2a e83c a61a e7bc 5690 4bbd 3cb1 d1bc
00000030: 73bb 95bd 60ca f1bc 6ec4 8cba e93c 953c
00000040: 72cb 99bd b775 883b 6cfd 0bbe 2d7b 043d
00000050: f8cb 9bbd 8651 f63c 2c57 d5ba bf9e 183d
00000060: 7a2e 13bd d5b2 5a3d 68c7 51bc 8167 95bd
00000070: f156 bb3c 9b4d ce3c 0d32 903c 742f 17bd
00000080: 6cf7 82bd 4f21 a73d 6ab2 a5bb 5897 6bbd
00000090: e68e 6d3d 4c7f 913c 3d57 4dbd d635 813d
000000a0: 72d9 10bd 3bf8 0c3a 8472 4e3d b65e 10bc
000000b0: 633d 08bd 2fab bcbc cd96 603d 4db9 94bd
000000c0: ed1f dcbc 309a c5bd 7268 dbbd 5c78 bbbd
000000d0: 718e 65bd 8dff 583b ab26 a23a f562 873d
000000e0: 167d 09bd 7cd3 3ebc 721f 84bd b5a9 ac3a
000000f0: 321f b23a 74b9 afbb 437a 803d 4a63 55bd
00000100: ec57 83be d147 1f3d 7c60 f23c 798f e9bd
00000110: d3d2 a53a f7ee 903c 664a 56bd 1fa8 083d
00000120: 03ec 07bc 8859 8f3c dc5b 3abd 9916 703d
00000130: deca 51bd 0f31 54bc 078a df3b 7a90 7b3c
00000140: 5bd8 663c 8466 7a3d 158f 07bd 589e 32bd
00000150: 5bf5 3dbd 860a b5bd 340c 823c 0804 26bd
00000160: 385e 393c eb55 133d 464d aa3c 7000 7b3b
00000170: 486c 923c 9755 8c3d baa7 d03c 7569 c6bb
00000180: 6cfa 25bd c8a7 f63c dbea 57bd 0d03 77bd
00000190: 3d51 80bd b471 9bbd 87a7 cb3c c3f1 353d
000001a0: 4c5d aabd 68da bbbb bc09 db3c cbd8 a33b
000001b0: c583 02bc 7819 9dbd f00b 87bd a4aa b8bc
000001c0: 0a66 d9bc bf24 58bd 1bf3 803d 576f 313d
000001d0: cd0d 0e3c 0375 603c 965a 9e3d 6a8d 6f3d
000001e0: 791c 2ebd 7bd6 cbbd 9dc4 1f3d d209 113d
000001f0: 5278 9cbd b127 4c3c 359f 95bd 3543 bbbc
00000200: 5d4c 883c 0d89 e6bd 5ca1 6ebd e91c 40bd
00000210: 7074 50bd 05c7 04be c877 903c aff3 20bd
00000220: fe97 10bc 7954 e7bd f3ea 52bd 778c edbd
00000230: 8f01 a6bd f184 cabc 3f01 98bd 6580 723d
00000240: 0efe 853c 79c6 5bbd 893d b6bd 2b28 013d
00000250: 092c 19be 3fd4 893d 30d0 1d3d 63fc b03c
00000260: 1d8e 573d b6e9 47bd 0768 98bc 5f85 15ba
00000270: bb0c 07bc 9bb4 86bc cf93 1b3d b093 ff3c
00000280: 59f0 c1bc 8f6c 753c 420e 063c a5e1 6abd
00000290: 27c4 033d 77c0 f1bc 67e1 523d fa45 57bd
000002a0: 4ec9 60bd e332 813c be3c 013c ce87 03bc
000002b0: 2181 ba3c abe3 1cbd e767 8dbd ae4b 9dbc
000002c0: 69ee 3abd d1c5 4f3d b249 95bd 95d7 c3bd
000002d0: 7a19 623d 9bba 8dbd 98fa 333c 6741 1dbd
000002e0: 6e94 80bd 41b5 57bc e30c 98bd a882 89bd
000002f0: 161d 4c3d 2983 573d 4f24 07bd ba89 28bd
00000300: 9623 f8bd 9f2a 8cba 82ec 19bd e26d 87bd
00000310: ffe9 103c d0ea 733c d59e a6bd 2371 8abd
00000320: 0623 0a3c 8c35 98bd 0f21 30bc e569 ff3b
00000330: d65a 373d 9c3b e33b da28 853c ef9a 133d
00000340: 5972 a3bd d36e 2b3d c717 db3c 286e 48bd
00000350: 050a b9bd 4e56 2bbc df2f adbd 93b3 e03c
00000360: 9ed0 80bd de0e 94bc e9de 03bc 2959 123d
00000370: a4d0 e9bd 88bc 98bc c534 1f3c d68c ddbc
00000380: d00f a1bd 6e45 4dbc 6b73 dd3c bc26 98bc
00000390: 2827 33bd 31f9 87bc d27e a6bd 2613 0e3d
000003a0: cfe0 493d 35ed 083c 6571 e6bc 22f5 c33b
000003b0: a54e 493d 1448 89bd c284 49bd 169e debb
000003c0: f6b4 d8bc 25db 063d dab2 e0bc 6f32 d1bc
000003d0: c2b0 053c bbb0 50bb c2c6 35bd 28c2 39bd
000003e0: 38e0 393d fdf0 1bbe 28b3 05bd ed5d 8fbd
000003f0: 9c8e dcbd 4a28 b3bc b103 12bd f498 00be

category_policy.bias f4 [13]
-0.03643576 -0.012706294 0.038610656 0.020038227 -0.07247449 -0.03358384 0.08087593 -0.013393084
-0.06519959 0.036257807 0.010731376 -0.08995328 0.007651844
00000000: aa3d 15bd 0f2e 50bc 3526 1e3d 3527 a43c
00000010: 816d 94bd 358f 09bd 48a2 a53d aa6e 5bbc
00000020: 5d87 85bd 1183 143d a7d2 2f3c 6d39 b8bd
00000030: 52bc fa3b

value.weight f4 [1, 128]
-0.006894518 0.05365344 -0.064076446 -0.03232467 -0.050524347 -0.03799846 -0.08272669 -0.044417508
0.019508848 0.0021708682 -0.0038448777 0.06114199 0.01211274 -0.08382823 0.059755336 0.048577234
-0.07441359 0.043710284 0.071255624 0.006065648 -0.039270904 -0.0229904 0.08594394 0.00662127
-0.018656502 0.08020658 -0.01605776 -0.009724848 -0.07018207 0.05884346 -0.01103866 -0.057081245
-0.040458918 -0.0161163 -0.064503945 -0.037144776 0.011498028 0.045724083 0.033889987 -0.06515967
-0.087023444 -0.019583069 0.06843 -0.037407435 0.05629347 0.035684112 0.04512619 -0.04502234
0.025386943 0.0865859 0.02925774 -0.048929594 -0.05942338 0.055566426 0.048983943 -0.030880563
0.06208647 0.053225946 0.0490946 -0.002551918 0.03996187 -0.031649362 -0.05018812 0.015801834
-0.086814255 -0.04004841 0.07565756 -0.04821123 -0.010066343 -0.08611623 -0.020567926 0.07482724
-0.033686057 0.019926872 0.017179677 -0.08502805 -0.052825984 0.013360013 0.07653543 -0.019820968
0.005433361 0.087047696 -0.0354962 0.040305577 0.07305824 0.060361303 -0.080738574 0.0055721924
-0.052662686 -0.045390375 -0.08787266 0.009062173 -0.023261119 0.05251844 0.08729239 -0.020589283
0.004228625 0.03265545 0.057672903 -0.075055264 0.022789875 -0.042785447 -0.0045460328 0.009125478
0.0073483344 -0.038016785 -0.024655621 0.07799386 -0.014536975 -0.006024818 -0.052417096 -0.040170845
-0.0039359573 -0.03995318 0.077932544 0.078111045 -0.036035165 0.04334035 -0.047568448 -0.014234497
-0.0023048637 0.057675548 0.08379906 0.057479512 -0.02983904 -0.004922225 0.023601793 -0.017728124
00000000: 69eb e1bb b6c3 5b3d 833a 83bd e066 04bd
00000010: 9ef2 4ebd 46a4 1bbd 9c6c a9bd 22ef 35bd
00000020: 05d1 9f3c 2045 0e3b 58fa 7bbb 0670 7a3d
00000030: 8474 463c 23ae abbd 03c2 743d ecf8 463d
00000040: 2766 98bd 8e09 333d 78ee 913d 58c2 c63b
00000050: 87da 20bd 5d56 bcbc 6003 b03d 3df7 d83b
00000060: 85d5 98bc 5943 a43d 908b 83bc f854 1fbc
00000070: 9ebb 8fbd d705 713d 7fdb 34bc 06ce 69bd
00000080: 40b8 25bd 5506 84bc a51a 84bd 1f25 18bd
00000090: 3a62 3c3c 2d49 3b3d 3ad0 0a3d 6f72 85bd
000000a0: 5939 b2bd ac6c a0bc 0725 8c3d 8a38 19bd
000000b0: fb93 663d 8129 123d 3dd6 383d 5869 38bd
000000c0: 47f8 cf3c f353 b13d eead ef3c 666a 48bd
000000d0: ee65 73bd 9f99 633d 63a3 483d 3cf9 fcbc
000000e0: 624e 7e3d 7303 5a3d 6b17 493d 143e 27bb
000000f0: 0faf 233d c3a2 01bd 0f92 4dbd d972 813c
00000100: accb b1bd cd09 24bd 5af2 9a3d 2479 45bd
00000110: 4ded 24bc b55d b0bd 117e a8bc 063f 993d
00000120: 64fa 09bd ae3d a33c 65bc 8c3c 3023 aebd
00000130: 0f60 58bd f5e3 5a3c 9cbe 9c3d 955f a2bc
00000140: 560a b23b 1046 b23d 7764 11bd 7617 253d
00000150: 8f9f 953d 6a3d 773d 445a a5bd f096 b63b
00000160: d4b4 57bd 42eb 39bd 95f6 b3bd 8279 143c
00000170: 1a8e bebc 931d 573d 5ac6 b23d dbaa a8bc
00000180: 4790 8a3b b9c1 053d 6c3a 6c3d 93b6 99bd
00000190: d5b1 ba3c cb3f 2fbd e3f6 94bb 0783 153c
000001a0: 4cca f03b 7db7 1bbd 96fa c9bc 3fbb 9f3d
000001b0: 7e2c 6ebc d66b c5bb 4fb3 56bd 2f8a 24bd
000001c0: 34f9 80bb f2a5 23bd 199b 9f3d aff8 9f3d
000001d0: 9c99 13bd a785 313d 22d7 42bd cf37 69bc
000001e0: 320d 17bb 323d 6c3d d79e ab3d a36f 6b3d
000001f0: 0171 f4bc 9e4a a1bb 8c58 c13c 923a 91bc

exp_avg f4 [256, 23]
0.0070186886 0.0031047587 0.0028336977 0.004039677 0.002361682 0.0 -8.407234e-18 4.354428e-06
-2.7040517e-08 -7.647402e-06 0.0002394671 -2.0053922e-05 -4.0296552e-05 0.00029445766 2.9182208e-06 0.0
6e-45 -7.766541e-13 0.00026470696 0.0 -7.0776773e-19 0.0 0.0 -0.0036921008
-0.0019471217 0.0011918684 -0.0017351387 -0.012696038 0.0 0.0017071713 0.00026805146 -0.00025113928
0.0037544998 -0.0083727725 0.00046190227 -0.0059798146 -9.867403e-05 -0.026636532 -0.011994948 -0.0184244
-0.0007288091 -0.014380656 0.0 6e-45 0.0 0.0 0.0030940506 0.0015037896
0.0014327286 0.0019761813 0.0006918577 0.0 6e-45 8.34e-43 0.0 1.89e-43
-9.665404e-20 3.76e-43 -3.030826e-19 -6e-45 -6.339294e-09 2.507e-42 0.0 -6.061652e-19
1.254e-42 0.0 -3.866162e-21 0.0 0.0 -0.007631153 -0.0043984014 -0.008320819
-0.0078014624 -0.007500521 0.0 0.00037655185 0.00023088075 0.00016952031 0.0015063366 -0.015680129
0.0020388316 -0.025491634 -0.000819411 0.008744094 -0.053209767 -0.07094637 2.766041e-18 -0.025927383
0.0 0.0 0.0 0.0 0.0001894766 -2.2821e-05 -0.00018808169 -2.6749416e-05
-1.0117418e-06 0.0 -5.57113e-18 -1.3864187e-06 1.4939901e-06 -2.0010923e-06 -7.5183896e-05 -3.74779e-06
-4.1825174e-06 0.0010452687 6e-45 0.0 0.0 -1.3627191e-13 -9.194669e-05 0.0
-3.817969e-19 0.0 0.0 -0.0007641686 -0.00038208542 -0.0009552107 -0.00057312794 -0.00019104236
0.0 -2.0718952e-20 1.9384853e-13 3.7214971e-22 1.5693036e-09 5.8574473e-10 -2.4747034e-19 3.004793e-09
2.1170298e-21 -7.465586e-09 -0.005731259 0.0 0.0 4.988844e-09 0.0 0.0
0.0 0.0 0.003322171 -0.0010034947 0.0009961552 0.0018211727 0.0027736984 0.0
-0.001241882 -0.003486265 -0.0029609643 -0.0014085273 -0.009376532 -0.005089337 -0.023971612 -0.024559557
0.0045306883 0.0048426967 0.0023743585 0.0012908052 -0.0041199042 0.0 -7.106228e-19 0.0
0.0 0.0019461606 0.0010318998 0.00096390053 0.0013879355 0.00042377264 0.0 3.955602e-10
6.8826544e-10 3.4012808e-09 1.4829564e-10 -2.8543573e-07 -6.351868e-05 -8.68923e-05 1.6267891e-34 -4.867979e-07
6.888392e-31 -6e-45 0.0 -7.4250594e-05 0.0 0.0 0.0 0.0
-0.0005187117 -0.0034607148 -0.00067601877 -0.0008579215 0.001394328 0.0 -0.0005444458 -0.00080886716
-0.0015243705 -0.0021777803 -0.0028538494 -0.003398459 -0.024218462 -0.008732734 -2.8051977e-07 -0.0019034768
-0.0025380703 1.1682411e-11 -0.0061180666 0.0 5.6890903e-19 0.0 0.0 -0.00026314412
0.001288306 0.0016061025 0.0006835691 0.0019537641 0.0 -1.1714359e-07 3.2785467e-06 0.0005321464
0.0031475106 0.0019826752 0.0007761333 -0.00017169626 -0.00085797533 -1.3877982e-07 0.011897457 0.0
0.0 0.0031639452 0.0 0.0 0.0 0.0 0.0023583344 -0.002146902
-0.00175907 0.0005618281 0.0036626908 0.0 -0.0017991145 -0.0035223824 -0.004233566 -0.008037716
-0.013008058 -0.006173223 -0.017809426 -0.02012591 -0.00016490355 -0.014214295 -0.03351587 0.0015364698
-0.00922373 0.0 -5.267511e-19 0.0 0.0 1.1154353e-06 1.1036585e-06 3.7625756e-07
00000000: 07fd e53b 3579 4b3b 8fb5 393b 445f 843b
00000010: 73c6 1a3b 0000 0000 0a16 1ba3 401c 9236
00000020: ba46 e8b2 574d 00b7 7619 7b39 7839 a8b7
00000030: 1804 29b8 7061 9a39 a7d6 4336 0000 0000
00000040: 0400 0000 d39b 5aab 5ec8 8a39 0000 0000
00000050: 6be5 50a1 0000 0000 0000 0000 2cf7 71bb
00000060: 9036 ffba 7838 9c3a 986d e3ba 0b03 50bc
00000070: 0000 0000 2ac3 df3a 4289 8c39 58ab 83b9
00000080: 0e0e 763b f42d 09bc 792b f239 52f2 c3bb
00000090: 37ef ceb8 db34 dabc 7586 44bc c4ee 96bc
000000a0: 8d0d 3fba d89c 6bbc 0000 0000 0400 0000
000000b0: 0000 0000 0000 0000 8ec5 4a3b ce1a c53a
000000c0: 65ca bb3a d282 013b c95d 353a 0000 0000
000000d0: 0400 0000 5302 0000 0000 0000 8700 0000
000000e0: c837 e49f 0c01 0000 8ce8 b2a0 0400 0080
000000f0: 05d1 d9b1 fd06 0000 0000 0000 8ce8 32a1
00000100: 7f03 0000 0000 0000 390f 929d 0000 0000
00000110: 0000 0000 c00e fabb 7720 90bb 0b54 08bc
00000120: 69a3 ffbb eec6 f5bb 0000 0000 ef6b c539
00000130: 9418 7239 43c1 3139 4570 c53a 9d73 80bc
00000140: eb9d 053b d5d3 d0bc becd 56ba 6343 0f3c
00000150: 7cf2 59bd 554c 91bd 0a19 4c22 aa65 d4bc
00000160: 0000 0000 0000 0000 0000 0000 0000 0000
00000170: 3dae 4639 b96f bfb7 cb37 45b9 ef63 e0b7
00000180: 2fcb 87b5 0000 0000 d689 cda2 fc14 bab5
00000190: 1c85 c835 814a 06b6 0cac 9db8 8b82 7bb6
000001a0: 8d57 8cb6 6601 893a 0400 0000 0000 0000
000001b0: 0000 0000 b46d 19aa 81d3 c0b8 0000 0000
000001c0: 845f e1a0 0000 0000 0000 0000 7d52 48ba
000001d0: a352 c8b9 1b67 7aba f73d 16ba 8b52 48b9
000001e0: 0000 0000 5aaf c39e 0941 5a2a 61f3 e01b
000001f0: f6ae d730 1f02 2130 a914 92a0 e17c 4e31
00000200: 50f5 1f1d ff41 00b2 49cd bbbb 0000 0000
00000210: 0000 0000 566a ab31 0000 0000 0000 0000
00000220: 0000 0000 0000 0000 c8b8 593b b287 83ba
00000230: 6c91 823a 6ab4 ee3a f0c6 353b 0000 0000
00000240: a5c6 a2ba d279 64bb bd0c 42bb 559e b8ba
00000250: 07a0 19bc 74c4 a6bb 1d60 c4bc 2031 c9bc
00000260: 2b76 943b 7caf 9e3b 209b 1b3b 3c30 a93a
00000270: 4300 87bb 0000 0000 24bd 51a1 0000 0000
00000280: 0000 0000 5016 ff3a d040 873a 45ae 7c3a
00000290: 63eb b53a cd2d de39 0000 0000 2676 d92f
000002a0: 6030 3d30 f7bb 6931 830d 232f fd3d 99b4
000002b0: 5535 85b8 f339 b6b8 c43c 5807 7fac 02b5
000002c0: 868a 5f0d 0400 0080 0000 0000 fcb6 9bb8
000002d0: 0000 0000 0000 0000 0000 0000 0000 0000
000002e0: 27fa 07ba 29cd 62bb da36 31ba 23e6 60ba
000002f0: e2c1 b63a 0000 0000 24b9 0eba 280a 54ba
00000300: 63cd c7ba 17b9 0ebb a607 3bbb aeb8 5ebb
00000310: cc65 c6bc be13 0fbc 589a 96b4 157e f9ba
00000320: c155 26bb e784 4d2d 107a c8bb 0000 0000
00000330: 8de9 2721 0000 0000 0000 0000 9bf6 89b9
00000340: 60dc a83a db83 d23a 8c31 333a b90a 003b
00000350: 0000 0000 5f90 fbb3 0105 5c36 be7f 0b3a
00000360: 7746 4e3b c5ef 013b 6d75 4b3a 5d09 34b9
00000370: c0e9 60ba 8203 15b4 8ded 423c 0000 0000
00000380: 0000 0000 315a 4f3b 0000 0000 0000 0000
00000390: 0000 0000 0000 0000 498e 1a3b 0ab3 0cbb
000003a0: 9890 e6ba a547 133a c109 703b 0000 0000
000003b0: 44d0 ebba c5d7 66bb bab9 8abb a0b0 03bc
000003c0: c01f 55bc bf48 cabb 13e5 91bc 18df a4bc
000003d0: f6e9 2cb9 13e3 68bc f047 09bd 5f63 c93a
000003e0: 211f 17bc 0000 0000 3078 1ba1 0000 0000
000003f0: 0000 0000 11b6 9535 6b21 9435 7200 ca34
